data/hlt_stoch/PendulumEnv/seed_313/model_6000.pt (torch, 175762 bytes, 10 tensors)

log_std f4 [1, 3]
0	0xc0a4883a	-5.141629
1	0xc09fe240	-4.9963684
2	0xc089d9ea	-4.307851

mu.0.weight f4 [200, 4]
0	0xbeeedbe8	-0.4665215
1	0x3f062a0c	0.5240791
2	0x3e1a3853	0.15060548
3	0x3d462cd6	0.048382603
4	0xbec6a4d7	-0.38797638
5	0x3f0de2b4	0.55424047
6	0xbe5a67ce	-0.21328661
7	0xbcd42d31	-0.025900455
8	0xbee33e16	-0.44383305
9	0x3f02389e	0.5086764
10	0xbcf86ca1	-0.030325236
11	0x3d80b03e	0.062836155
12	0x3d7e630b	0.062106173
13	0x3e27e51e	0.16395995
14	0xbb7aba01	-0.003825784
15	0x3e3bd198	0.18341672
16	0x3ce3a12c	0.027786814
17	0xbd731a9b	-0.059351545
18	0x3d5e5d61	0.05428827
19	0xbd0631a5	-0.03276219
20	0x3d5b11eb	0.053483885
21	0x3ee205e2	0.44145113
22	0xbd69afae	-0.057052307
23	0x3e6c1c31	0.23057629
24	0x3dda569f	0.10661053
25	0xbeff6d8c	-0.49888265
26	0x3df07d50	0.117426515
27	0x3bb834b0	0.005621515
28	0x3f2c7cd5	0.6737798
29	0xbedb28e7	-0.42804644
30	0x3da7553f	0.08170556
31	0x3b199ecf	0.0023440605
32	0xbbaa6a55	-0.005200664
33	0x3d607a3d	0.054804076
34	0xbc896c6c	-0.016775332
35	0x3e183437	0.14863668
36	0xbd5ff684	-0.054678455
37	0x3f0f1396	0.5588926
38	0x3db32811	0.087478764
39	0xbd307a7d	-0.043085564
40	0xbe38f5fc	-0.18062586
41	0xbd8d32bd	-0.06894443
42	0xbbf52bd3	-0.007482031
43	0x3e44ef20	0.19231844
44	0xbefda5a5	-0.4954044
45	0xbdc297db	-0.095016204
46	0xbe041398	-0.128981
47	0xbd97b055	-0.074066795
48	0x3c24beb4	0.010055233
49	0xbe0cd6ee	-0.13753864
50	0x398c26f3	0.000267319
51	0xbd05a0ac	-0.03262393
52	0xbe24c6c4	-0.16091448
53	0xbe2efb03	-0.17087941
54	0xbde63cbb	-0.11242052
55	0xbdc3be97	-0.095578365
56	0x3dd0f288	0.10202509
57	0xbf4072ce	-0.7517518
58	0x3e05a473	0.13051014
59	0x3d6ad801	0.057334904
60	0x3f366b7d	0.71257764
61	0xbd73ef45	-0.059554357
62	0xbd9bec09	-0.076133795
63	0xb9b443b1	-0.0003438271
64	0xbeea1188	-0.457165
65	0xbeed2926	-0.46320456
66	0x3dd3785a	0.103256896
67	0x3b8a5a91	0.004222222
68	0xbe453f63	-0.19262461
69	0xbe82440c	-0.2544254
70	0x3df50901	0.11964608
71	0x3ccc4f02	0.024940018
72	0x3d73ace9	0.05949107
73	0xbd7054ea	-0.05867473
74	0x3d375311	0.044756953
75	0xbeaa1ded	-0.33225957
76	0x3e8e0255	0.27736154
77	0x3f305542	0.68880093
78	0x3d9afc63	0.0756767
79	0x3d9076a9	0.07053883
80	0x3e952bb1	0.29134896
81	0xbf1118b0	-0.56678295
82	0x3e32a52d	0.17445822
83	0x3d98b5b6	0.074565336
84	0x3f51cd50	0.81953907
85	0xbe83f323	-0.25771436
86	0x3e03e566	0.12880477
87	0x3d8ad0f2	0.067781344
88	0x3e931bdf	0.287322
89	0x3dbf689c	0.093461245
90	0x3c1bb87e	0.009504436
91	0xbc96a74a	-0.018390317
92	0x3ea5b58a	0.32365066
93	0xbd844354	-0.06458154
94	0xbca245d8	-0.019808695
95	0x3d6564c8	0.056004316
96	0x3f06b365	0.52617484
97	0x3ed890ab	0.42297873
98	0xbd87cced	-0.06630883
99	0xbdbeee91	-0.09322847
100	0x3f1feffb	0.62475556
101	0x3d9fc580	0.07801342
102	0x3daa3be3	0.08312204
103	0x3c4b6d63	0.012416217
104	0xbdefe2cc	-0.1171318
105	0x3e1c83bc	0.15284628
106	0xbd183064	-0.037155524
107	0x3e79c933	0.24393158
108	0x3f4146fc	0.7549894
109	0x3e9040ba	0.28174382
110	0x3e411121	0.1885419
111	0x3d972564	0.073801786
112	0x3eff6a7b	0.49885926
113	0xbe7f2514	-0.24916488
114	0x3cdd1f08	0.026992336
115	0xbcb3caab	-0.021947226
116	0x3f1c1442	0.6096841
117	0x3e570436	0.209977
118	0xbdfeca17	-0.12440889
119	0xbc77b952	-0.015119867
120	0x3f066f30	0.5251341
121	0xbc53ee55	-0.012935241
122	0x3d40c526	0.047063015
123	0xbd2641fd	-0.040590275
124	0x3d6fe0dd	0.058564056
125	0x3c4ba624	0.012429748
126	0xbc3a2df2	-0.011363493
127	0xbcd5cfd7	-0.026100082
128	0x3e36fc42	0.17869666
129	0x3f71fb5b	0.94524163
130	0x3db06f8c	0.08615026
131	0x3d2596af	0.040426906
132	0x3c8013f7	0.01563452
133	0xbd72e551	-0.059300724
134	0x3c81baaf	0.015836088
135	0xbe82c8df	-0.25543877
136	0x3e62892d	0.22122641
137	0xbeaa7b47	-0.33297178
138	0xbc415e36	-0.011802247
139	0x3dd9e47e	0.106392846
140	0x3e9d8e7d	0.30772772
141	0x3e969d26	0.2941677
142	0xbc236e66	-0.0099750515
143	0xbd133a20	-0.035944104
144	0xbe335a9e	-0.17515036
145	0xbe54fdc9	-0.20799936
146	0x3c26a8c0	0.010172069
147	0xbd0de510	-0.03464228
148	0xbc9d655b	-0.01921337
149	0xbdce8c3f	-0.100853436
150	0xbabbaefa	-0.0014319115
151	0x3c97c730	0.018527597
152	0x3f3661cb	0.7124297
153	0x3e744dc6	0.23857793
154	0x3e1b3a37	0.15158926
155	0x3c69023d	0.014221725
156	0x3e2c0259	0.1679777
157	0xbd2d8070	-0.042358816
158	0x3bfc4b32	0.0076993937
159	0xbdcc2bbc	-0.09969279
160	0x3d5ba79d	0.053626645
161	0xbd1861fa	-0.037202813
162	0x3b99aadc	0.0046895575
163	0xbe3d7f6a	-0.18505636
164	0x3ed03b7b	0.4067038
165	0x3daa6266	0.08319549
166	0x3def2f3a	0.116789296
167	0x3cc15a0e	0.023602512
168	0x3ef4cad4	0.47810996
169	0xbf2a9507	-0.6663365
170	0xbd8f0283	-0.06982901
171	0xbd7ad6ca	-0.061239995
172	0xbd2c0821	-0.04199994
173	0x3e5fcace	0.21854708
174	0x3c32adde	0.010905711
175	0x3eb5c04c	0.35498273
176	0x3decac38	0.115562856
177	0x3d70ac2f	0.058757957
178	0x3cc3deb5	0.023909906
179	0x3c7a12a0	0.01526323
180	0xbf0066fb	-0.50157136
181	0x3eba42c5	0.36379066
182	0x3e454e2a	0.19268098
183	0x3d50e374	0.050998166
184	0x3f42ae52	0.7604724
185	0xbdf4099a	-0.11915894
186	0x3d543a50	0.051813424
187	0xbca3088c	-0.019901536
188	0x3ee12b62	0.4397841
189	0x3ef80c1b	0.48446736
190	0xbe422e31	-0.18962933
191	0xbd8460db	-0.06463786
192	0x3df7d55c	0.12101242
193	0x3f4198f8	0.75624037
194	0x3d99e663	0.07514646
195	0x3d46d16d	0.048539568
196	0xbd3bf3bb	-0.045886736
197	0xbe4e46ae	-0.2014415
198	0x3b90668c	0.004406756
199	0x3e5a51dd	0.21320291
200	0x3e6cada5	0.23113115
201	0xbf17ce1e	-0.59298885
202	0xbd533f09	-0.051573787
203	0xbdab1401	-0.08353425
204	0x3dd67cbb	0.10473009
205	0x3d3a5533	0.04549141
206	0x3b89395b	0.0041877455
207	0xbdac124d	-0.08401928
208	0x3eecbc18	0.46237254
209	0x3ee1e8f9	0.44123057
210	0x3e3260f4	0.17419797
211	0xbc044b0d	-0.008074534
212	0x3b9c289d	0.0047655837
213	0xbd721c15	-0.059108812
214	0x3a68a95e	0.00088753353
215	0xbdeda5be	-0.116038784
216	0x3bb8c58a	0.005638783
217	0x3c21406d	0.00984202
218	0x3988bb3f	0.0002607945
219	0xbc97a634	-0.018511869
220	0x3e930616	0.2871558
221	0xbe490f6d	-0.1963479
222	0x3d54bba4	0.05193676
223	0xbeb759ee	-0.35810798
224	0xbed5cf4d	-0.4175972
225	0x3ef73344	0.482813
226	0x3dc8126e	0.0976914
227	0x3b717ae9	0.0036846942
228	0xbd4a0c77	-0.049328294
229	0x3d461e1d	0.048368562
230	0xbe05eac3	-0.13077836
231	0xbcfbc030	-0.03073129
232	0xbf02239f	-0.50835603
233	0x3c667d5f	0.014067977
234	0x3e05b287	0.13056384
235	0x3e162beb	0.14665191
236	0xbcfecc95	-0.031103412
237	0x3d462578	0.048375577
238	0xbde484e3	-0.11158159
239	0x3d08ee8c	0.03343062
240	0x3d08906e	0.033340864
241	0xbdcf3cbe	-0.101190075
242	0xbb7436df	-0.003726415
243	0xbe30a6df	-0.17251156
244	0x3e82dca8	0.25558972
245	0x3e027cc7	0.12742911
246	0x3d87db88	0.06633669
247	0xbdd4ef14	-0.10397163
248	0xbf502fbb	-0.8132283
249	0xbeb58c2a	-0.354585
250	0xbe181698	-0.14852369
251	0xbda4ed21	-0.08053041
252	0xbe504fc9	-0.20342936
253	0x3e56ccc1	0.20976545
254	0x3cfcf367	0.030877782
255	0xbd139342	-0.036029108

mu.0.bias f4 [200]
0	0xbe50ea2b	-0.20401828
1	0xbeec18dc	-0.46112716
2	0x3d0c69f4	0.034280732
3	0xbec1758f	-0.37785003
4	0xbef29642	-0.47380263
5	0xbdb0e631	-0.086376555
6	0xbe10de7a	-0.14147368
7	0xbee882fd	-0.45412436
8	0xbe958392	-0.29201943
9	0xbee240ea	-0.4419015
10	0xbecc3ddf	-0.39890954
11	0xbdd4b2cc	-0.10385665
12	0xbe32469b	-0.17409746
13	0xbed9d227	-0.42543146
14	0x3e1c3839	0.15255822
15	0xbf0cdccf	-0.5502443
16	0x3e225f1c	0.15856594
17	0xbea9096d	-0.33015004
18	0x3d508ed0	0.050917447
19	0x3e9e2266	0.3088562
20	0xbf446bc3	-0.7672693
21	0xbf2af5e2	-0.6678144
22	0xbead7116	-0.3387534
23	0xbef233ca	-0.47305137
24	0x3e02247e	0.12709233
25	0xbec8a260	-0.39186382
26	0x3e2173fd	0.15766902
27	0xbf76f589	-0.96468407
28	0xbe002eb3	-0.12517814
29	0xbf462034	-0.7739289
30	0xbf1a61ed	-0.6030567
31	0xbe0a20cc	-0.13489074
32	0x3eda3fb7	0.42626736
33	0xbe37ff5e	-0.17968509
34	0xbec1d689	-0.3785899
35	0xbf22f65d	-0.6365717
36	0x3d293e15	0.04131897
37	0xbe00fed4	-0.12597209
38	0xbf90d37d	-1.1314541
39	0xbe86cd97	-0.26328728
40	0xbd95a531	-0.073068984
41	0xbd96b1d9	-0.073581405
42	0x3ebcdb66	0.36886138
43	0xbeff2ede	-0.49840444
44	0xbe9c17c0	-0.3048687
45	0xbf60e933	-0.87855834
46	0xbecab971	-0.39594606
47	0xbf1d78d7	-0.6151251
48	0xbebabaa6	-0.36470526
49	0xbedbad82	-0.42905813
50	0x3ef2ddc7	0.47434828
51	0xbe524ef5	-0.20537932
52	0xbe5518be	-0.2081022
53	0xbe340d91	-0.175833
54	0xbce63a57	-0.02810399
55	0xbc083a9c	-0.008314755
56	0xbec57088	-0.38562417
57	0xbf3bdb39	-0.7338138
58	0xbf08cf47	-0.5344128
59	0xbedbb69b	-0.42912754
60	0xbec3983b	-0.3820208
61	0xbf2f6fa3	-0.6852972
62	0xbf194fe9	-0.5988756
63	0x3c7f51a1	0.015583427
64	0xbf714830	-0.94250774
65	0xbe266eef	-0.16253255
66	0xbea5ae4d	-0.32359543
67	0xbdc00144	-0.093752414
68	0x3ea6415a	0.32471734
69	0xbe5023d7	-0.20326172
70	0xbe9c2f21	-0.30504707
71	0xbf0f8f8f	-0.5607843
72	0xbd853dfc	-0.06505963
73	0xbebb9e7d	-0.36644354
74	0xbd246b22	-0.040141232
75	0xbdf7599d	-0.12077639
76	0xbf3de32d	-0.7417477
77	0xbebde2c7	-0.3708708
78	0xbdf64819	-0.1202547
79	0xbda14c24	-0.07875851
80	0xbe6dbcc2	-0.23216537
81	0xbe134fa1	-0.14385845
82	0xbe1f6128	-0.15564406
83	0xbeabdb8a	-0.33565933
84	0xbe23aa35	-0.15982898
85	0xbc9f5903	-0.019451624
86	0x3d6e7939	0.058221076
87	0xbf794524	-0.97371125
88	0xbedcb371	-0.43105653
89	0xbeaeef70	-0.3416705
90	0xbf3a6598	-0.7281127
91	0xbe0bcf45	-0.13653286
92	0x3de292bd	0.11063144
93	0x3cf8787b	0.030330887
94	0xbeb18849	-0.3467429
95	0xbfb9afda	-1.4506791
96	0xbf2602bb	-0.64847916
97	0xbee2c8e6	-0.44293898
98	0x3eac7538	0.3368318
99	0xbcc0c2b8	-0.02353035
100	0xbdfd0b53	-0.123556755
101	0xbd8d875c	-0.069105834
102	0xbf2a2b7c	-0.664726
103	0xbdd9df91	-0.10638345
104	0xbff91a5a	-1.9461167
105	0x3dbc2156	0.09186046
106	0xbcb29782	-0.02180076
107	0xbebfeb62	-0.3748427
108	0xbe7cea4b	-0.2469875
109	0xbe43a7fe	-0.19107053
110	0xbf065471	-0.524726
111	0xbe38e974	-0.18057805
112	0xbedf38fd	-0.43598166
113	0x3da7ca23	0.081928514
114	0x3ec1bfcc	0.37841642
115	0xbdf799bc	-0.120898694
116	0xbf29c713	-0.6631939
117	0xbd494610	-0.049139082
118	0x3e1f8824	0.15579277
119	0xbf50e6d4	-0.81602216
120	0xbe0cf4f6	-0.1376532
121	0x3e83f498	0.25772548
122	0xbe293a59	-0.16526164
123	0x3dcf3d86	0.101191565
124	0xbe4b64ef	-0.19862722
125	0xbe53e9db	-0.20694678
126	0xbe1e2bfd	-0.15446468
127	0xbdaf39bc	-0.08555934
128	0xbf6597a9	-0.8968454
129	0xbe32adf9	-0.17449178
130	0xbecfffb7	-0.40624782
131	0xbece42a8	-0.4028523
132	0xbebc188d	-0.3673748
133	0x3d9d14da	0.07669993
134	0xbdcd83eb	-0.10034927
135	0xbdd71ddf	-0.10503744
136	0xbeb708ee	-0.35749
137	0xbe6eb5dd	-0.23311563
138	0x3e3ff063	0.18744044
139	0xbf29eff2	-0.6638175
140	0xbf407e0d	-0.7519234
141	0xbecbf6bd	-0.39836684
142	0xbd1f1eb8	-0.038847655
143	0xbe137800	-0.14401245
144	0xbf18d836	-0.5970491
145	0x3d70bf97	0.058776464
146	0xbf1777dc	-0.59167266
147	0x3d802f1e	0.06258987
148	0xbc899363	-0.016793912
149	0xbe8a4273	-0.27003822
150	0xbf5e9ae2	-0.8695508
151	0x3d419945	0.04726531
152	0xbea91803	-0.33026132
153	0xbf08ac19	-0.533876
154	0xbd8876e5	-0.06663302
155	0x3e576aeb	0.2103688
156	0xbeac005d	-0.33594027
157	0xbee6f0ce	-0.45105594
158	0xbf2040ff	-0.62599176
159	0xbe7169e6	-0.23575553
160	0xbf484f73	-0.7824623
161	0x3e5c7a0d	0.21530934
162	0x3d64228b	0.055697005
163	0x3ebb41bf	0.36573598
164	0x3f09cd02	0.5382844
165	0x3e4e6bb1	0.20158269
166	0xbe515ff1	-0.20446755
167	0x3d2f0486	0.042728923
168	0xbea20e66	-0.3165161
169	0xbef1a813	-0.47198543
170	0xbec081df	-0.37599084
171	0xbdceaba4	-0.100913316
172	0xbf6dfbf0	-0.9296255
173	0x3e3c6cdd	0.18400903
174	0x3eef8000	0.46777344
175	0xbda5a474	-0.080880076
176	0xbea81876	-0.32831162
177	0xbf081cce	-0.5316895
178	0x3caad85f	0.020855127
179	0xbef6bf24	-0.48192704
180	0xbd8ec28d	-0.06970701
181	0xbf15bceb	-0.5849139
182	0xbef4b066	-0.4779083
183	0xbdd442ea	-0.10364325
184	0xbed22db5	-0.41050497
185	0xbed599cf	-0.4171891
186	0xbf253769	-0.64537674
187	0xbe0196b5	-0.12655146
188	0xbe433692	-0.19063786
189	0xbf60d543	-0.8782541
190	0x3ecb7cf3	0.39743766
191	0xbd97fdca	-0.07421453
192	0x3da0fe79	0.07861037
193	0xbf139136	-0.5764345
194	0x3e8602d9	0.26174048
195	0xbecd4a14	-0.4009558
196	0xbedd3076	-0.43201035
197	0xbf12875c	-0.5723779
198	0x3ec606a3	0.38676938
199	0xbe7278f3	-0.23678951

mu.2.weight f4 [3, 200]
0	0xbd027628	-0.031850964
1	0x3e1141de	0.14185283
2	0x3d216f0f	0.039412554
3	0x3aee4113	0.0018177353
4	0x3b8f73de	0.004377826
5	0x3cf0453d	0.02932989
6	0x3da7f130	0.082003
7	0x3dace5a6	0.084422395
8	0xbc108b13	-0.00882222
9	0xbd20a854	-0.03922303
10	0xbc8b2307	-0.016984476
11	0x3bc64190	0.006050296
12	0xbab34c20	-0.0013679303
13	0x3d977a07	0.07396322
14	0x3dae1294	0.08499637
15	0xbe3cc6b1	-0.1843517
16	0x3d7f6e5e	0.062361114
17	0x3de99921	0.1140616
18	0xb8adda77	-8.289975e-05
19	0x3c104dd9	0.008807623
20	0x3cdf765d	0.02727812
21	0xbe2ba9a9	-0.16763939
22	0xbb90e12b	-0.0044213734
23	0xbd5559ae	-0.05208748
24	0xbc2915ce	-0.01032014
25	0xbe45361f	-0.19258927
26	0xbb49d9ba	-0.003079994
27	0xbe2d2da3	-0.1691194
28	0x3d638b05	0.0555525
29	0xbe0b65eb	-0.13613097
30	0xbd992c07	-0.07479101
31	0xbc38ac58	-0.011271559
32	0xbdad39f5	-0.0845832
33	0xbbd796c1	-0.0065792506
34	0x3c86c1ce	0.016449835
35	0x3bf9b662	0.0076206187
36	0xbc0e8aa0	-0.008700043
37	0x3a62993d	0.000864405
38	0xbed8cccf	-0.42343757
39	0x3a9f8ecb	0.0012173293
40	0x39fc7869	0.00048154898
41	0xbcb7b880	-0.022426844
42	0x3c371d03	0.0111763505
43	0xbb16b127	-0.0022993775
44	0xbd8c0219	-0.068363376
45	0x3e4d35c7	0.20040046
46	0x3e214b43	0.15751366
47	0x3da85b14	0.08220497
48	0xbe87d2c1	-0.2652798
49	0xbcfb0edc	-0.030646734
50	0xbd0810b5	-0.033219058
51	0xbc27700f	-0.010219588
52	0xbd8d30d1	-0.068940766
53	0xbaeaef98	-0.0017924188
54	0xbb192758	-0.0023369398
55	0xbab0b2b5	-0.0013480993
56	0x3d6b3f0d	0.057433177
57	0x3e2db5c1	0.16963865
58	0x3e021243	0.12702279
59	0x3ccfc133	0.02536068
60	0x3c870ff1	0.016487094
61	0xbbaefb58	-0.005340021
62	0x3e69ff36	0.22851261
63	0xbcef949c	-0.029245667
64	0xbd97f4aa	-0.07419713
65	0x3db4f1a4	0.08835152
66	0xbc0b5d6c	-0.00850616
67	0x3bd359f0	0.0064499304
68	0x3c88406b	0.01663228
69	0x3dff753c	0.124735326
70	0x3cfd939a	0.030954171
71	0x3d950b93	0.07277598
72	0x3a9e6aff	0.0012086331
73	0xbda90aa6	-0.08253984
74	0xbe163d9f	-0.14671944
75	0xbd0a3c6c	-0.03374903
76	0xbc636686	-0.013879424
77	0xbc010a1c	-0.007875945
78	0xbb297603	-0.0025857694
79	0x3da2a1b7	0.07941001
80	0xbb9f61be	-0.0048639467
81	0xbae90d66	-0.0017780482
82	0x3a899b5d	0.0010498572
83	0x3d053fbe	0.032531492
84	0xbb21348b	-0.0024597968
85	0x3d1c7cf6	0.03820511
86	0xbc1ae0da	-0.009453023
87	0xbd7e74a2	-0.06212295
88	0x3cb95deb	0.022627791
89	0xbd35214d	-0.04422121
90	0x3d1667cd	0.036720086
91	0x3c3ef2e6	0.011654591
92	0x3cfa7684	0.03057409
93	0xbdf5bf45	-0.119993724
94	0xbc90c27d	-0.017670864
95	0xbe0dca08	-0.138466
96	0xbeb01362	-0.34389788
97	0xbb8c2c7f	-0.0042777653
98	0x3d1bb0c1	0.038010363
99	0x3a415292	0.00073746697
100	0xbc131fee	-0.008979781
101	0xbb204c65	-0.0024459597
102	0x3dd738e5	0.10508899
103	0x3cb1f032	0.02172098
104	0xbc889f7f	-0.016677616
105	0x3cfebb39	0.031095134
106	0xbc42db0b	-0.011893044
107	0x3cbfb29e	0.023400601
108	0x3b4873b9	0.0030586554
109	0x3e04bd46	0.12962827
110	0x3cc14b5c	0.023595504
111	0x3b8adc5f	0.004237696
112	0x3c62cb25	0.013842379
113	0xbcb8f620	-0.022578299
114	0xbd3996fd	-0.04531001
115	0xbbe839a7	-0.007086951
116	0x3c251fa1	0.010078342
117	0x3dff175c	0.12455627
118	0xbd88bb05	-0.06676296
119	0x3da6240c	0.08112344
120	0xbb8a2448	-0.004215751
121	0x3cc29069	0.0237505
122	0x39be9ab0	0.00036354875
123	0xbda09ad6	-0.078420326
124	0xbd166a2e	-0.036722355
125	0x3ae71c0f	0.0017632263
126	0xba26f7da	-0.000636933
127	0xbe19ceb0	-0.15020251
128	0xbe991911	-0.29901937
129	0x3daf99b8	0.085742414
130	0x3d3271fc	0.043565735
131	0xbc9c52fa	-0.019082535
132	0xbd8b9263	-0.068150304
133	0xbcef001e	-0.02917486
134	0xbb99c460	-0.004692599
135	0xbbb2d766	-0.0054578064
136	0xbacf30cd	-0.001580739
137	0x3c9afe69	0.01892014
138	0xbcdca71f	-0.026935158
139	0x3e093451	0.13398863
140	0xbd163ed0	-0.036680996
141	0xbcfc9b80	-0.030835867
142	0xbe00ca1e	-0.12577102
143	0x3aba9ee5	0.0014238028
144	0xbd3391b0	-0.04384011
145	0x3cd32f88	0.0257795
146	0xbe8bba54	-0.27290595
147	0xbcdd4115	-0.027008573
148	0x3df7b818	0.1209566
149	0xbd220947	-0.03955963
150	0x3e499d85	0.19688995
151	0xbc295f3d	-0.010337648
152	0x3d5f6ffc	0.054550156
153	0xbe96ccd9	-0.2945316
154	0x3b330bae	0.0027320194
155	0xbc004bde	-0.007830588
156	0x3d69f737	0.057120528
157	0x3db53851	0.08848632
158	0x3cc811fd	0.02442264
159	0xbb6af15f	-0.0035849435
160	0x3e1413b8	0.14460647
161	0x3ad2017a	0.0016022169
162	0xbdc8390d	-0.097765066
163	0xbe0a9da6	-0.135367
164	0xbb9e9706	-0.0048397807
165	0x3b86814e	0.00410477
166	0x3baff406	0.005369666
167	0xb9b58f7c	-0.00034629914
168	0xbd71cd97	-0.059033956
169	0xbe7e5d3a	-0.2484025
170	0xbd54bb99	-0.05193672
171	0x3e1bb0dc	0.15204185
172	0xbda6946c	-0.08133778
173	0xbde9b127	-0.11410742
174	0xbbd7d1fa	-0.0065863105
175	0xbb2bf54f	-0.0026238745
176	0x3d761a55	0.060083706
177	0x3c85a0f4	0.0163121
178	0xbc82a60c	-0.015948318
179	0xbbbb2751	-0.005711474
180	0xbbe1f8c2	-0.0068961093
181	0x3e1ada88	0.15122426
182	0xbd4682a5	-0.048464436
183	0xbb54cbff	-0.0032470224
184	0xbe815964	-0.25263512
185	0xbdef4cb8	-0.11684555
186	0x3d2eba9a	0.042658426
187	0x3baa8c65	0.0052047246
188	0x3cbb30a3	0.02285034
189	0x3d3d63a4	0.046237603
190	0xbc0026c6	-0.007821744
191	0xbb3ce761	-0.0028824436
192	0xbcb9cf49	-0.02268185
193	0xbd95078b	-0.07276829
194	0x3dd088d4	0.10182348
195	0xbd7010ea	-0.05860988
196	0x3e34e5dd	0.17665811
197	0xbcb96788	-0.022632375
198	0x3d1a7426	0.037708424
199	0xb9bb063c	-0.00035672064
200	0xbe69d5cd	-0.22835465
201	0x3d0293dc	0.03187929
202	0xbdcac8fe	-0.099016175
203	0x3c0d4853	0.0086232005
204	0x3c982789	0.01857354
205	0xbcc9f0c8	-0.024650946
206	0x3d9de562	0.07709767
207	0x3d56690a	0.052346267
208	0x3b54cbf0	0.003247019
209	0xbe23e601	-0.16005708
210	0x3c6644ab	0.014054458
211	0x3e141e2b	0.14464633
212	0x3cbfe37f	0.023423908
213	0x3dcfcf6d	0.10146985
214	0xbdac1d71	-0.08404053
215	0xbe750432	-0.23927382
216	0xbd832bca	-0.064048365
217	0x3c1bbb41	0.009505094
218	0x3c2ed5d4	0.010671098
219	0x3ddb8879	0.107193895
220	0x3e25d956	0.16196188
221	0x3e712bcc	0.23551863
222	0x3d0b2d9f	0.033979055
223	0xbd640fbe	-0.055679075
224	0x3c5b1be3	0.013373348
225	0x3e23656f	0.15956663
226	0x3b885674	0.0041606966
227	0xb9962a1b	-0.000286416
228	0xbe44629b	-0.1917824
229	0xbe65551c	-0.22395748
230	0x3d54aba7	0.051921513
231	0xba1b2580	-0.00059183687
232	0x3e3f10fc	0.18658823
233	0x3bc6f7a3	0.006072001
234	0x3b5e7225	0.0033942547
235	0x3d899f35	0.067198195
236	0x3d0ea89d	0.03482877
237	0xbb995d7a	-0.0046803327
238	0xbe7dddad	-0.24791594
239	0xbc14f1b9	-0.009090834
240	0x3bd4024e	0.0064700013
241	0x3ddc2cf6	0.10750763
242	0xbd8a084e	-0.06739865
243	0xbc9c1cef	-0.019056765
244	0x3d227388	0.03966096
245	0xbe26ad9f	-0.16277169
246	0x3dd58075	0.10424892
247	0xbe1d816c	-0.15381402
248	0xbe447294	-0.19184333
249	0x3ca9f764	0.020747848
250	0xbd72161b	-0.059103113
251	0x3c4ff4b4	0.012692619
252	0x3db8bc91	0.09020341
253	0x3c825353	0.015908873
254	0x38ab2a5b	8.161805e-05
255	0xbade774d	-0.001697281

mu.2.bias f4 [3]
0	0xbd1b7174	-0.037949994
1	0x3c0ec696	0.008714339
2	0x3c802637	0.015643222

reward_fun.0.weight f4 [200, 4]
0	0xbea9e6a0	-0.33183765
1	0xbe42434c	-0.18970984
2	0x3dc5b46e	0.09653555
3	0xbe1f2fef	-0.15545629
4	0xbe82c4ac	-0.25540674
5	0x3c8d89e1	0.01727766
6	0x3d5ef190	0.05442959
7	0xbf32d326	-0.69853437
8	0x3d917d63	0.07103994
9	0xbc639989	-0.013891586
10	0x3b8c5bbc	0.0042833965
11	0xbdedce60	-0.116116285
12	0x3faf7e7b	1.3710474
13	0x3f26e638	0.65195036
14	0x3e34d274	0.17658406
15	0xbf286f30	-0.6579466
16	0xbe895e15	-0.2682959
17	0xbe1c045d	-0.1523604
18	0x3e1af9bd	0.1513433
19	0xbe68a21f	-0.22718094
20	0xbea021e9	-0.3127587
21	0xbbbf8358	-0.005844515
22	0x3dde2c54	0.10848299
23	0x3ac0f4af	0.0014721359
24	0x3f8237b1	1.0173246
25	0x3f30904d	0.68970186
26	0x3e5f45f6	0.21804032
27	0x3da5e593	0.081004284
28	0x3da6f600	0.081523895
29	0x3e819f41	0.25316814
30	0x3df2b70c	0.1185132
31	0xbf913bfd	-1.1346432
32	0x3ce842fe	0.028352257
33	0xbd6163f2	-0.055026956
34	0x3d9a3eca	0.07531507
35	0xbedeabd7	-0.43490478
36	0x3fe7e084	1.8115392
37	0x400b8ac9	2.1803458
38	0x3ed5e1d9	0.4177387
39	0x3e3dfacb	0.18552701
40	0x3e1a9ac6	0.15098104
41	0x3d1cfde7	0.038328078
42	0x3c53bd79	0.012923592
43	0xbe24ff16	-0.16112933
44	0xbf69f40b	-0.91388005
45	0xbf0b1100	-0.54322815
46	0xbd534df9	-0.051588032
47	0xbd63f1c4	-0.055650488
48	0xbc072d01	-0.008250476
49	0xbeb8d4db	-0.36099896
50	0x3c5361bd	0.012901721
51	0xbd267dfc	-0.04064749
52	0xbf171045	-0.590092
53	0xbe4581e6	-0.19287834
54	0x3dd8775d	0.10569642
55	0xbd91eed7	-0.07125633
56	0x3fd106b7	1.6330174
57	0x3fbdd347	1.4830102
58	0x3ea829b3	0.32844314
59	0x3dfcdb96	0.1234657
60	0x3f79a9a8	0.975245
61	0x3fb9c164	1.4512143
62	0x3e818b1f	0.25301453
63	0xbfeaa7e9	-1.8332492
64	0xc0015987	-2.0210893
65	0x3f6484a9	0.89264923
66	0x3eb91b73	0.36153755
67	0x3e9a6e46	0.30162257
68	0x3f5ff077	0.87476295
69	0xbf1fbf5d	-0.6240137
70	0x3ca9d2a1	0.020730319
71	0xbe498c7d	-0.19682498
72	0x3f2f07a9	0.68371063
73	0xbdce8555	-0.10084025
74	0x3da2972c	0.0793899
75	0xbfb5027e	-1.4141386
76	0x3d93f87e	0.072251305
77	0x3d8ab9eb	0.06773742
78	0xbcf8b70b	-0.03036072
79	0xbe403894	-0.18771583
80	0xbf9d659c	-1.2296634
81	0x3e652194	0.2237609
82	0x3dc60e04	0.09670642
83	0x3f2c82da	0.67387164
84	0xbf57c3a3	-0.8428289
85	0x3f8fe0cf	1.1240481
86	0xbd12aacd	-0.03580742
87	0x3fff743b	1.9957346
88	0xbf3971e8	-0.7243943
89	0x3e896bc9	0.26840046
90	0x3debe9df	0.11519217
91	0xbf14ee93	-0.58176535
92	0x3ca20f39	0.01978265
93	0xbe8a14c2	-0.26968962
94	0xbb26ed3f	-0.0025471
95	0x3ffb07df	1.9611777
96	0x3f6999ec	0.9125049
97	0xbe932e5a	-0.287463
98	0xbe2dcd87	-0.16972934
99	0xbe838f95	-0.25695482
100	0x4007e9dc	2.1236486
101	0xbf9cdd09	-1.2254955
102	0xbf387164	-0.7204802
103	0xbd71663c	-0.05893539
104	0x3fb11745	1.3835226
105	0xbee6d445	-0.45083824
106	0x3c278339	0.010224157
107	0xbd4e0520	-0.050297856
108	0x3f3b9313	0.7327129
109	0x3e3784a0	0.17921686
110	0x3c03838a	0.008026967
111	0xbe2fb671	-0.1715944
112	0x3e279f86	0.16369447
113	0x3eb40722	0.35161692
114	0x39ad0fef	0.00033009003
115	0xbe94d14c	-0.2906593
116	0x3fc0fd03	1.5077213
117	0x3f0ce922	0.5504323
118	0xbf5be052	-0.8588916
119	0x3ea38eb9	0.31944826
120	0x4000cad1	2.012379
121	0xbf4c6fd2	-0.79858124
122	0xbd481b62	-0.04885424
123	0xbe466548	-0.19374573
124	0xbe30b566	-0.17256698
125	0x3e03147f	0.12800787
126	0x3c03aee3	0.008037302
127	0xbf3a2a4b	-0.72720784
128	0x3fbd2187	1.4775857
129	0x3f8980f2	1.0742476
130	0x3e9a6eb6	0.3016259
131	0x3e0496a7	0.12948094
132	0x3fdb33f0	1.7125225
133	0xbfb00938	-1.3752813
134	0xbf1886e3	-0.5958082
135	0xbd8e22b4	-0.06940213
136	0xbd056eda	-0.03257642
137	0xbcdb6323	-0.02678067
138	0x3da1fc76	0.07909481
139	0xc00963e0	-2.146721
140	0x3fc8433a	1.5645516
141	0x3e5d6156	0.21619162
142	0xbf61ee6a	-0.88254416
143	0x3d0df59f	0.03465807
144	0x3fdcee5b	1.726024
145	0xbea3e6e7	-0.32012102
146	0xbec31c93	-0.38107738
147	0xbfb1ee79	-1.3900901
148	0x3b5fd90e	0.0034156474
149	0xbc1d0174	-0.009582866
150	0x3a305c9b	0.00067276665
151	0xbcf02586	-0.029314768
152	0x3fc2a0b9	1.5205299
153	0x40318fc0	2.7743988
154	0x3f3e6018	0.7436538
155	0x3e9e6e70	0.30943632
156	0x3fc2c88e	1.5217454
157	0x3f8e02cf	1.1094607
158	0xbce2d6fd	-0.027690405
159	0xbd403c59	-0.046932552
160	0xbf603a86	-0.875893
161	0x405c3c8d	3.4411957
162	0x3ef607b9	0.48052767
163	0x3f121000	0.57055664
164	0x3f47ddea	0.7807299
165	0x3d57f0fc	0.052720055
166	0x3dba1932	0.09086837
167	0xbee1b4c2	-0.4408322
168	0x401144f2	2.269833
169	0xc00c54f6	-2.1926856
170	0x3e4eaaff	0.20182417
171	0xbfb9cc0a	-1.4515393
172	0xbf339738	-0.70152617
173	0xbe193f42	-0.14965537
174	0x3e0238a0	0.12716913
175	0x3ee4d76c	0.44695604
176	0x40068835	2.1020634
177	0x3f86ee32	1.0541441
178	0xbe9d5082	-0.30725485
179	0x3ba84211	0.005134829
180	0x3f9021c4	1.1260304
181	0x3eba3020	0.3636484
182	0x3e4cc588	0.19997227
183	0xbfb72512	-1.4308188
184	0xbf9ac068	-1.2089968
185	0x3f1c0a3d	0.6095312
186	0xbd28bcc6	-0.041195653
187	0xc03923c1	-2.8928072
188	0x3f500d51	0.8127032
189	0x3ebc9125	0.36829486
190	0x3e15cad4	0.14628154
191	0xc003c2f0	-2.058773
192	0x3fef1a7c	1.8679957
193	0x3f6b841a	0.91998446
194	0x3eef66a3	0.46757993
195	0x3e132c99	0.14372481
196	0x3fca8ce8	1.5824251
197	0x3eefbd5d	0.4682416
198	0x3e28db6b	0.16489951
199	0x3d965e0a	0.07342155
200	0xbe90adf3	-0.28257713
201	0xbe2a7b48	-0.1664859
202	0x3ceb3200	0.028710365
203	0x3f3e32bb	0.7429616
204	0x3f29b4a1	0.6629124
205	0x3dbcc747	0.09217697
206	0xbe716d5c	-0.23576874
207	0xbdd72391	-0.10504831
208	0x4002a838	2.0415173
209	0xbd9f6876	-0.07783596
210	0xbebb74a3	-0.36612424
211	0xc043c956	-3.0591636
212	0x3f41a644	0.75644326
213	0x3fe507b4	1.7892976
214	0x3e22124a	0.15827289
215	0xc00107a3	-2.016091
216	0x3e29887e	0.16555974
217	0x3d300cd6	0.04298099
218	0x3c1820d8	0.009285174
219	0xbeabadb6	-0.33530968
220	0x3b295184	0.002583594
221	0xbc849755	-0.016185442
222	0x3b26ab52	0.0025431705
223	0x3afdafc6	0.0019354753
224	0xbfcc9542	-1.598305
225	0x3b3db1e6	0.0028945147
226	0x3ee45822	0.4459849
227	0x3e84fa6c	0.25972307
228	0x3ff9bd83	1.9510959
229	0xbf311c73	-0.69184035
230	0xbded9a14	-0.11601654
231	0xbf2389f6	-0.63882387
232	0x3f0e6a7f	0.5563125
233	0xbe094d9c	-0.13408512
234	0xbde84587	-0.11341386
235	0xbdde16c6	-0.108441874
236	0x3ec666fc	0.38750446
237	0xbf91005f	-1.1328238
238	0xbdb421c1	-0.087955005
239	0x3eab4a9f	0.3345537
240	0x3f87d900	1.0613098
241	0x3cb79e7a	0.022414435
242	0x3d91bda8	0.07116252
243	0xbf3c2316	-0.73491037
244	0xbe05cb94	-0.1306594
245	0x3d251006	0.040298484
246	0x3d981fca	0.07427938
247	0xbdd55400	-0.10416412
248	0x3f3c6c1a	0.7360245
249	0xbe3e475d	-0.1858191
250	0xbd1be38c	-0.038058802
251	0xbe294222	-0.16529134
252	0x3ffbed5a	1.9681809
253	0xbd890e62	-0.066921964
254	0x3f3c0178	0.7343974
255	0xbda223ac	-0.0791696

reward_fun.0.bias f4 [200]
0	0x3fc26a6a	1.5188725
1	0x3f0234a1	0.50861555
2	0xbe34736c	-0.17622155
3	0xbfba187d	-1.4538723
4	0xbfcd6623	-1.6046795
5	0x3fb31366	1.3990295
6	0xbf7755cc	-0.9661529
7	0x3f8a8425	1.0821577
8	0x3f784ae6	0.96989286
9	0xbfc8dc03	-1.5692142
10	0xbe99c6e5	-0.30034557
11	0x3ffeb7b8	1.9899817
12	0xbf08bbca	-0.53411543
13	0x3ffa9f51	1.957987
14	0xbfb9838f	-1.4493273
15	0xbf7d1619	-0.98861843
16	0x3f9e1777	1.2350911
17	0xbfa5b76b	-1.29466
18	0xbf7a8128	-0.97853327
19	0x3da4fd0e	0.08056079
20	0x3db1bda2	0.08678748
21	0xbfd6fb45	-1.6795431
22	0xbeb7e9a2	-0.35920435
23	0xbf8b8d52	-1.0902503
24	0xbff640d9	-1.923854
25	0xc008f774	-2.1401033
26	0xbfbe5a9f	-1.4871405
27	0xbf6644ff	-0.8994903
28	0xbf2f4b5d	-0.6847437
29	0x3e420908	0.18948758
30	0xbfb0309e	-1.3764837
31	0xbf6b9587	-0.92025036
32	0xbfaf6012	-1.3701193
33	0xc00915b4	-2.1419497
34	0xbff3b27f	-1.9038848
35	0xbff8cd33	-1.9437622
36	0xc02797b7	-2.618635
37	0xbd636fbf	-0.05552649
38	0xbfa08f72	-1.2543776
39	0xbfb32517	-1.3995694
40	0x3d8958b4	0.06706372
41	0xbf218c78	-0.63104963
42	0xbf617cbe	-0.88080966
43	0x40075e4f	2.1151311
44	0xbff3ebb1	-1.9056302
45	0xbfb03b6e	-1.3768137
46	0xbfdb7729	-1.714574
47	0xbf98a4c8	-1.1925287
48	0xbfce508e	-1.6118333
49	0xbf8fcefa	-1.1235039
50	0x3f0e7de8	0.5566087
51	0xc00a3911	-2.159733
52	0xbed327b0	-0.41241217
53	0xbf36cfb4	-0.7141068
54	0xbeede727	-0.46465418
55	0xbd119e1b	-0.03555117
56	0xbf354e0a	-0.70822203
57	0xbfe3a75c	-1.7785449
58	0xbf963852	-1.1735938
59	0xbf0b13e5	-0.5432723
60	0xbfcbc8ad	-1.5920616
61	0x3f6302e5	0.8867629
62	0xbf88cf91	-1.0688344
63	0xbf4090c8	-0.7522092
64	0xbefc6cf0	-0.49301863
65	0xbfc230a7	-1.5171098
66	0x3f1940ed	0.59864694
67	0x40058d34	2.0867434
68	0xbfa6bd4a	-1.3026516
69	0xbfee36bf	-1.8610457
70	0x3fe08fb5	1.7543856
71	0xbf570e9b	-0.8400666
72	0xbfa4281b	-1.2824739
73	0xbfa7c28c	-1.3106246
74	0xbf313f66	-0.69237363
75	0xbf4d77a7	-0.802607
76	0xbed3a643	-0.41337785
77	0xbfc4533d	-1.5337902
78	0xbecdfa59	-0.40230063
79	0xc00bd2d9	-2.1847441
80	0x3fd83b1f	1.6893042
81	0x3fbe2812	1.4855978
82	0xbff7a65e	-1.9347646
83	0xbf9dccaf	-1.232809
84	0xbf200f86	-0.62523687
85	0xc00cbe5e	-2.199119
86	0xbf135e85	-0.575661
87	0x3dca2fa9	0.09872372
88	0xbfca06df	-1.5783347
89	0xbfc90c90	-1.5706959
90	0xbfb65660	-1.424511
91	0xbfc8dca1	-1.5692331
92	0xbfde1c84	-1.7352452
93	0x3fd8df0c	1.6943069
94	0xbda7836f	-0.08179366
95	0xc008f500	-2.1399536
96	0xbf9755a8	-1.1823015
97	0xbe39e953	-0.18155412
98	0xbf31d694	-0.69468045
99	0xbf1c8cdc	-0.61152434
100	0x400c5482	2.192658
101	0x3fa668bf	1.3000716
102	0xc0383b84	-2.8786325
103	0x3f59ff3b	0.85155076
104	0xbf90272a	-1.1261952
105	0xbffc11a7	-1.9692887
106	0xbfe9b23f	-1.8257521
107	0xbfa4faec	-1.2889075
108	0xbfd01b58	-1.6258345
109	0xbe2c450e	-0.16823217
110	0xbf986d28	-1.1908312
111	0xc01463c6	-2.3185897
112	0x3fde3130	1.7358761
113	0xbfba4ea3	-1.4555248
114	0xbf3fb0e6	-0.748793
115	0xc0295202	-2.6456304
116	0xc00e317e	-2.2217708
117	0xbfabb069	-1.3413211
118	0xbf8ca0b2	-1.098654
119	0xbe683314	-0.22675735
120	0x3ef3f550	0.47648096
121	0xbfb7e903	-1.4367985
122	0xc0181eb5	-2.3768742
123	0xbfc4e859	-1.5383407
124	0x3dc00ef1	0.0937785
125	0xbe2834de	-0.16426417
126	0xbfe1ae43	-1.7631305
127	0xbfc7f4ce	-1.5621583
128	0xbf4ff125	-0.8122733
129	0xbf78958d	-0.97103196
130	0x3eb2b024	0.3490001
131	0xbf5d6ad1	-0.86491114
132	0xbdd737b5	-0.10508672
133	0xbfa57eef	-1.2929362
134	0xbfee1440	-1.859993
135	0xbfca0b8a	-1.5784771
136	0xbee404b3	-0.44534835
137	0x40056517	2.084295
138	0x4007aee3	2.1200492
139	0xbf6a1d8c	-0.91451335
140	0x3ff75ddc	1.9325519
141	0xbf8563c6	-1.0421073
142	0x3faf7b36	1.3709476
143	0xbfffd15c	-1.9985766
144	0xbfe91cf0	-1.8211956
145	0xbfaf0412	-1.3673117
146	0xbf20fca6	-0.6288551
147	0xbfb2fad3	-1.3982795
148	0x3e87c3f9	0.26516703
149	0xbf70513c	-0.93873954
150	0xc02445fa	-2.566771
151	0xbfa37c24	-1.277226
152	0xbe9d5443	-0.3072835
153	0xbfbbd89a	-1.4675477
154	0xc05e651a	-3.4749207
155	0x3f800cb6	1.0003879
156	0xbf2ef0ed	-0.68336374
157	0x400f3a6c	2.2379408
158	0xc029e100	-2.654358
159	0xbdc644ce	-0.09681092
160	0x3cda0df5	0.026617983
161	0xbfe5e56d	-1.796064
162	0x3fb383dd	1.4024616
163	0x3e01b20a	0.12665573
164	0x3ea9c000	0.33154297
165	0xbc735198	-0.014850996
166	0x3fea9a4e	1.832834
167	0xbfcfc366	-1.6231506
168	0x402d7f8b	2.7109096
169	0x3f805149	1.0024806
170	0xbfe43e4f	-1.7831515
171	0x4001ec62	2.0300527
172	0x3f6ba997	0.9205565
173	0x3fb3b910	1.4040852
174	0x3ff92b64	1.9466367
175	0xbfb6bcfc	-1.4276423
176	0xbf7ee609	-0.99569756
177	0xbfa88ee6	-1.3168609
178	0xbfad65bc	-1.3546672
179	0xbf7aa6ff	-0.97911066
180	0xbf88de02	-1.0692751
181	0xbf4ad2dd	-0.79228
182	0x402ddaf9	2.71649
183	0x3e843f3a	0.25829488
184	0xbf45b4cd	-0.77229005
185	0xbeea0f82	-0.45714957
186	0xc0429851	-3.0405467
187	0xbf2d95ef	-0.67806906
188	0xbfb66db3	-1.4252228
189	0x3fe53a11	1.7908345
190	0xc05fa11c	-3.4942083
191	0xbf9406bd	-1.1564556
192	0xbfa1cf49	-1.2641383
193	0xbfd89fbd	-1.6923748
194	0xbefb66f6	-0.4910199
195	0xc0142ba5	-2.3151639
196	0xc0276a72	-2.615872
197	0xbf2a71b3	-0.6657974
198	0x3f897ab6	1.0740573
199	0xbfd84353	-1.6895546

reward_fun.2.weight f4 [200, 200]
0	0xbd5d153a	-0.05397532
1	0x3cbeb5df	0.023280082
2	0xbd5f8389	-0.0545688
3	0x3d534a62	0.05158461
4	0xbd836a3f	-0.06416749
5	0xbd817aad	-0.06322227
6	0xbd7d6c49	-0.061870847
7	0x3cc3cd6a	0.02390166
8	0xbd71e5ae	-0.05905693
9	0xbb887f8d	-0.004165596
10	0xbce3c57b	-0.027804127
11	0xbd17f3a2	-0.03709758
12	0x3d275d6c	0.04086058
13	0xbd5fb2a9	-0.054613743
14	0xbd7a8bbb	-0.061168414
15	0xbc80a42f	-0.015703289
16	0x3c890382	0.016725305
17	0xbd72c9b7	-0.0592744
18	0xbda3e30c	-0.0800229
19	0x3d17ba79	0.03704307
20	0xbd662ce5	-0.05619516
21	0x3d673d47	0.056454923
22	0xbc8c8542	-0.017153386
23	0x3d45cc0d	0.0482903
24	0xbcb7d913	-0.022442376
25	0xbcbc1db9	-0.022963392
26	0x3c142a3b	0.009043272
27	0x3c25b911	0.010114924
28	0x3d1ca55c	0.038243636
29	0xbd707881	-0.05870867
30	0xbc6628fc	-0.014047857
31	0xbd8080a3	-0.062745355
32	0xbd8b1ce3	-0.06792619
33	0xbd088aee	-0.03333562
34	0xbd185af6	-0.037196122
35	0xbc17b1fd	-0.009258744
36	0xbc9900d2	-0.018677149
37	0x3c9a15da	0.018809248
38	0x3d5d4a5b	0.05402599
39	0xbc294f56	-0.010333857
40	0xbd228fb4	-0.039687827
41	0x3c5213b0	0.012822077
42	0x3b698afd	0.0035635822
43	0xbdb476a0	-0.088116884
44	0x3d4d7ded	0.05016892
45	0x3d3cf58e	0.046132617
46	0x3d233c54	0.039852455
47	0x3cbc107e	0.022957083
48	0x3d1dceb1	0.038527194
49	0xbd3b232a	-0.045687832
50	0xbc31b95c	-0.010847416
51	0xbda13a04	-0.07872394
52	0x3d4fcb6f	0.05073112
53	0x3d30ffec	0.043212816
54	0x3cf0b744	0.029384263
55	0xbd5e3fcd	-0.054260064
56	0xbd1bfc68	-0.03808251
57	0xbdadc512	-0.08484854
58	0x3d47ba47	0.048761632
59	0xbca17810	-0.01971057
60	0x3cbbd6f1	0.02292964
61	0xbd1c798b	-0.03820185
62	0x3cf1adde	0.029501852
63	0xbd93dc75	-0.07219783
64	0x3cf01b3e	0.029309865
65	0xbb149791	-0.0022673348
66	0xbd97a5c0	-0.07404661
67	0xbd3ff43c	-0.04686378
68	0xbc639c41	-0.013892234
69	0xbd5d67a5	-0.05405392
70	0x3d1ce26f	0.03830188
71	0xbc902801	-0.0175972
72	0x3a5fe5d7	0.00085410237
73	0xbcb4afad	-0.022056425
74	0x3cc28a18	0.023747489
75	0xbd20514a	-0.039140023
76	0xbd1e08a2	-0.03858245
77	0x3cfaf67d	0.030635113
78	0xbd21feeb	-0.03954975
79	0xbccb844d	-0.02484336
80	0xbd6c7849	-0.0577319
81	0x3cfd5319	0.030923413
82	0xbdb087b5	-0.08619634
83	0xbda45d28	-0.08025581
84	0xbd3035af	-0.043019947
85	0xbd9d8d92	-0.07693018
86	0x3d2ccebe	0.042189352
87	0xbd86ec39	-0.06588025
88	0xbd8b0ef5	-0.06789962
89	0x3c7c7644	0.015409056
90	0x3cb2f449	0.021845
91	0x3c1a19f3	0.009405601
92	0xbd8bf8f9	-0.06834597
93	0xbd7181fa	-0.058961846
94	0xbd623de9	-0.055234823
95	0xbd155306	-0.03645613
96	0x3ce60730	0.0280796
97	0x3d3ab90a	0.045586623
98	0xbd7469d2	-0.05967123
99	0xbda380f3	-0.079835795
100	0x3ca3831a	0.019959975
101	0xbd604f05	-0.05476286
102	0xbd41cedc	-0.047316417
103	0xbd98f902	-0.074693695
104	0x3d1a6bbf	0.03770041
105	0xbd662139	-0.056184027
106	0x3d8c3c01	0.06847382
107	0xbcba41d7	-0.022736473
108	0x3d6d9d11	0.05801112
109	0xbd0c3a8b	-0.03423552
110	0xbd4050e7	-0.046952154
111	0x3c20eb04	0.009821657
112	0x3cda295e	0.026631054
113	0x3cfadb25	0.030622074
114	0x3b2d4192	0.0026436788
115	0xbd7966c2	-0.060889013
116	0xbd4fbd81	-0.050717834
117	0xbd77d125	-0.06050219
118	0x3cd2f639	0.025752174
119	0x3d409068	0.047012717
120	0xbc4eba5a	-0.012617672
121	0xbcf4fe70	-0.029906482
122	0x3c3c8cbf	0.011508166
123	0xba5567a3	-0.0008140748
124	0x3c3782b0	0.011200592
125	0x3ccc7a1d	0.024960572
126	0x3d1140f7	0.035462346
127	0xbcbad11e	-0.022804793
128	0xbd9ae942	-0.07564022
129	0xbd2dde75	-0.04244848
130	0xbc94129c	-0.01807528
131	0x3d6ec14c	0.05828981
132	0x3a778ec4	0.0009443576
133	0xbbb3b306	-0.0054839877
134	0x3c8d65e7	0.017260505
135	0xbc6ea33c	-0.014565285
136	0x3cde8ba3	0.027166193
137	0xbc83498c	-0.01602628
138	0xbdb0332a	-0.08603509
139	0x3c8cd58f	0.017191676
140	0x3d26af57	0.04069456
141	0xbd025625	-0.031820435
142	0x3d0bcc5a	0.03413043
143	0xbd7a7dae	-0.061155014
144	0xbc8c26a5	-0.01710827
145	0xbd55b481	-0.052174095
146	0x3cd7ef13	0.026359117
147	0xbd855448	-0.06510216
148	0xbd8713f7	-0.06595605
149	0xbc83a506	-0.0160699
150	0xbd8de626	-0.06928663
151	0x3d67adb9	0.05656216
152	0xbcd2da4b	-0.025738856
153	0x3be08a45	0.0068524205
154	0x3d68a56f	0.056798395
155	0xbca36ffb	-0.019950857
156	0xbd8dac8d	-0.06917677
157	0xbd1e408d	-0.03863578
158	0xbd7bd3db	-0.061481338
159	0x3bd956fe	0.0066326847
160	0xbcbb10ce	-0.022835162
161	0xbd1c578e	-0.038169436
162	0xbd0bc1c9	-0.034120355
163	0x3d1c987c	0.038231358
164	0xbcbac158	-0.022797272
165	0x3d118e0c	0.035535857
166	0xbd89ee15	-0.06734864
167	0xbc654c78	-0.013995282
168	0x3d4ca942	0.049966104
169	0x3d11cec5	0.03559758
170	0xbd98b8d5	-0.07457129
171	0xbda2f1a2	-0.07956244
172	0xbcbfc1ba	-0.023407806
173	0x3c33a133	0.010963726
174	0xbd6fadeb	-0.05851547
175	0xbd38e7b8	-0.04514286
176	0x3cac601e	0.021041926
177	0xbb01497c	-0.0019727638
178	0xbc4cc1e6	-0.012497401
179	0xbd85f378	-0.065405786
180	0xbc3f7dcd	-0.011687708
181	0x3d256b5a	0.04038558
182	0xbda172c0	-0.07883215
183	0x3cb5aaee	0.022176232
184	0xbc9c169b	-0.019053748
185	0x3c12f71c	0.008970048
186	0xbbace590	-0.0052763894
187	0xbb171f5f	-0.002305947
188	0x3ceed9b7	0.029156549
189	0x3ce828f4	0.02833984
190	0xbd57aba4	-0.052653924
191	0xbd263c3f	-0.0405848
192	0xbda42639	-0.08015103
193	0xbd488936	-0.04895898
194	0xba5fb660	-0.0008533951
195	0xbca21a15	-0.019787828
196	0xbd847298	-0.064671695
197	0xbd0b8f29	-0.034072075
198	0xbca4e8c0	-0.020130515
199	0x3c8af3b8	0.016961917
200	0xbb9b808b	-0.004745548
201	0x3d077ada	0.033076145
202	0x3c0b9950	0.008520439
203	0xbd745c41	-0.059658293
204	0x3d43cccc	0.04780273
205	0xbc053cd2	-0.0081321765
206	0x3b359f8a	0.00277135
207	0xbdb3535b	-0.08756133
208	0xbc1b3f7e	-0.009475587
209	0xbd439876	-0.04775282
210	0xbd1ef657	-0.038809147
211	0xbbf0c0aa	-0.007347186
212	0xbd2f47da	-0.042793132
213	0xbbcc05cf	-0.0062262784
214	0x3c94bbd7	0.018155975
215	0xbdcacd52	-0.09902443
216	0x3ca0e11d	0.019638592
217	0xbd5c83d0	-0.053836644
218	0xbd676f6e	-0.056502752
219	0xbd1274f5	-0.03575607
220	0xbd6a256d	-0.0571646
221	0x3ce5f7f0	0.028072327
222	0x3c8034d8	0.015650198
223	0x3c306fb5	0.0107688205
224	0xbdbca7e5	-0.09211711
225	0xbc4bafca	-0.012432048
226	0xbda1d4b1	-0.07901896
227	0xbcfcf58d	-0.030878806
228	0x3d0263ac	0.031833336
229	0xbdac2bf5	-0.08406822
230	0x3d53677e	0.05161237
231	0xbd9cf3b5	-0.07663671
232	0xbd39b950	-0.045342743
233	0x3d1e4a35	0.038644988
234	0xbd425950	-0.047448456
235	0xbc578298	-0.013153695
236	0x3d4619fe	0.04836463
237	0xbd140ff1	-0.036148015
238	0x3d0fabd5	0.03507598
239	0x3b7cd354	0.003857811
240	0xbce62ec9	-0.02809848
241	0x3a7c16de	0.00096164446
242	0x3d116e77	0.035505738
243	0xbcc507af	-0.024051515
244	0xbda827b3	-0.08210697
245	0xbd99561f	-0.074871294
246	0xbd814494	-0.06311908
247	0x3ce5b91a	0.028042365
248	0xbda4f7ac	-0.08055052
249	0xbd09735a	-0.033557273
250	0xbbbb5357	-0.005716722
251	0x3d88f0f1	0.06686581
252	0xbd8e2a18	-0.069416225
253	0x3afed9c5	0.0019443562
254	0x3c4dbc03	0.0125570325
255	0xbd34aa38	-0.044107646

reward_fun.2.bias f4 [200]
0	0x3b60db22	0.00343103
1	0xbd85de36	-0.06536524
2	0x3fccc8dc	1.5998797
3	0xbcb028ef	-0.021503894
4	0xbcce80b2	-0.025207851
5	0x3f8e5edc	1.1122699
6	0x3cdd425d	0.027009184
7	0x3f500620	0.81259346
8	0x3f08766a	0.53305686
9	0x3f8a742e	1.0816705
10	0x3f0ed612	0.55795395
11	0x3f3d68f1	0.7398825
12	0x3f4f7b24	0.8104727
13	0x3f05cc71	0.5226508
14	0x3f5347d4	0.82531476
15	0xbddf1c87	-0.10894113
16	0x3f1446f9	0.57920796
17	0x3f91955c	1.1373706
18	0xbf81a6a8	-1.0128984
19	0x3f23b735	0.63951427
20	0x3f120547	0.570393
21	0x3f167859	0.58777386
22	0xbdcd4dbb	-0.100245915
23	0x3c0ed7bb	0.008718426
24	0x3f94ab48	1.1614771
25	0x3f185d0c	0.5951698
26	0x3f525ba9	0.8217111
27	0xbd86af91	-0.065764554
28	0xbe67fc7f	-0.22654913
29	0xbd8c5112	-0.068514004
30	0xbb92ec49	-0.004483734
31	0x3f42f978	0.7616191
32	0xbc4bfe33	-0.012450743
33	0x3f7c24b2	0.9849349
34	0x3f630935	0.88685924
35	0xbda55695	-0.08073155
36	0xbd78254c	-0.060582444
37	0xbc6770f1	-0.014126048
38	0x3f093d2e	0.5360898
39	0x401996a9	2.3998206
40	0xbd21f03b	-0.039535742
41	0x3c693111	0.01423289
42	0xbd8184af	-0.063241355
43	0xbd8b9495	-0.06815449
44	0xbe5ced28	-0.21574843
45	0xbda4a5bd	-0.080394246
46	0xbcfee508	-0.03111507
47	0x3f2662de	0.6499461
48	0x3f1ccd53	0.612508
49	0x3f2da9b6	0.67837083
50	0x400d6dc7	2.2098253
51	0x3f080759	0.5313621
52	0xbd02baa5	-0.03191628
53	0x3efcd1da	0.49378854
54	0x3f102e60	0.5632076
55	0xbda3c8dc	-0.07997295
56	0x3f3cd67a	0.73764765
57	0x3f68dfaa	0.90966284
58	0xbcc5611e	-0.02409416
59	0x3d55c507	0.052189853
60	0xbd5db357	-0.05412611
61	0xbd05484e	-0.03253966
62	0xbe07bb0c	-0.13254946
63	0xbce008a6	-0.027347874
64	0x3c074f6c	0.008258682
65	0x3f8353c7	1.0259942
66	0x3f233ecc	0.63767695
67	0x3d116ec0	0.03550601
68	0x3f4579f3	0.77139205
69	0xbd481916	-0.04885205
70	0x3cdb57c0	0.02677524
71	0x3f389410	0.72100925
72	0x3f7c104a	0.98462355
73	0x3f21b5f4	0.63168263
74	0x3f24d46d	0.64386636
75	0x3ef92bff	0.4866638
76	0x3fa1d3c1	1.2642747
77	0xbdc27278	-0.094944894
78	0x3f2e9ccb	0.68208
79	0xbc9d1ef7	-0.019179804
80	0x3fc1b7cc	1.5134215
81	0x3f27831c	0.6543443
82	0x3f585c09	0.84515435
83	0x3f3b8bb3	0.7326004
84	0xbd865553	-0.06559243
85	0x3b19e67e	0.0023483331
86	0x3f07e6f3	0.53086776
87	0xbf2c327b	-0.6726453
88	0x3b843473	0.0040345727
89	0x3c775f03	0.015098336
90	0xbdb4bdf7	-0.088252954
91	0x3fd364e3	1.6515163
92	0x3ede251c	0.43387687
93	0xbdae225f	-0.085026495
94	0x4002b255	2.0421345
95	0x3f8afb73	1.0857986
96	0x3f343d6e	0.70406234
97	0x3f51555a	0.8177086
98	0xbd0d310b	-0.0344706
99	0x3f83b8a6	1.0290725
100	0x3efbff31	0.49218133
101	0xbcb93e31	-0.022612663
102	0x3b6360b8	0.00346951
103	0x3edc417e	0.43018717
104	0xbe9c07a4	-0.3047458
105	0x39cef064	0.00039470487
106	0x3f72921d	0.947542
107	0x3f2a75ab	0.665858
108	0x3f658619	0.8965774
109	0x3f336fcd	0.7009247
110	0x3f46c641	0.7764626
111	0xbc8fbf90	-0.017547399
112	0xbac416da	-0.0014960424
113	0xbd51ba0c	-0.05120282
114	0x3f54f7c1	0.8319054
115	0x3d35dd65	0.04440059
116	0x3caf084b	0.02136626
117	0x3a559c37	0.0008148583
118	0xbbae5107	-0.005319718
119	0x3f311207	0.6916813
120	0x3f131d4f	0.57466596
121	0xbd907824	-0.07054165
122	0xbd84fe1e	-0.064937815
123	0xbeb31add	-0.34981433
124	0x3f053646	0.5203594
125	0x3f94abf2	1.1614974
126	0xbd5e903a	-0.054336764
127	0xbdb50cbb	-0.08840319
128	0x403c35dd	2.9407876
129	0x3f11faba	0.57023203
130	0xbe85ec6f	-0.26156947
131	0x3ef86562	0.4851485
132	0x3ce52d78	0.027975783
133	0x3f197a60	0.59952354
134	0xbbf19dce	-0.007373548
135	0xbd2a44cd	-0.04156952
136	0xbd223225	-0.039598603
137	0x3f11b831	0.5692168
138	0x400781a9	2.1172888
139	0x3f165b75	0.587333
140	0x3f515b7d	0.81780225
141	0x3cc544d5	0.024080673
142	0x3c91a15d	0.01777714
143	0xbdb753d2	-0.08951534
144	0xbdaf5c12	-0.08562483
145	0x3f5185c8	0.8184476
146	0x3ee12b39	0.4397829
147	0x3d250105	0.040284175
148	0xbd0574e8	-0.032582194
149	0x3c2f5026	0.010700261
150	0x3cb0cf23	0.021583145
151	0x3f35a28e	0.70951164
152	0xbd2c21f3	-0.042024564
153	0x3f1b3efe	0.60642993
154	0x403108c8	2.766161
155	0x3bf94dce	0.007608152
156	0xbe9c3131	-0.3050628
157	0xbc062f2e	-0.008189959
158	0x3c8d16d7	0.017222805
159	0x3f106c59	0.56415325
160	0x3f4f90e9	0.8108049
161	0x3f2e380e	0.6805428
162	0x3bd57157	0.0065137553
163	0x3d423526	0.047413968
164	0xbeb36beb	-0.35043272
165	0x3fad5b71	1.3543531
166	0xbd3539b9	-0.0442445
167	0x3c8c59e0	0.0171327
168	0x3f08e766	0.53478086
169	0x3d2c9682	0.042135723
170	0xbab05af4	-0.001345484
171	0x3f5e731d	0.868944
172	0xbcf2fd75	-0.029661873
173	0x3f6222f2	0.8833457
174	0x3ef081a8	0.4697392
175	0xbef1b7eb	-0.4721063
176	0xbd5ca5ab	-0.05386893
177	0xbd9b87ba	-0.07594247
178	0x3f83f4b2	1.030905
179	0x3f1bfbf1	0.6093131
180	0x3f31e861	0.6949521
181	0x3ee29683	0.44255456
182	0x3d22e36b	0.039767664
183	0x3f682984	0.9068835
184	0x3c806b9d	0.015676314
185	0x3f29bc9d	0.66303426
186	0xbf010d0b	-0.50410527
187	0x3f69af22	0.91282856
188	0xbd01c2f2	-0.031680055
189	0xbc167b71	-0.009184704
190	0xbdb761f9	-0.08954234
191	0x3f222224	0.63333344
192	0x3f33b03f	0.70190805
193	0xbca7b200	-0.02047062
194	0x3f881f5e	1.0634573
195	0x3f9e783e	1.2380445
196	0xbd39d78e	-0.045371585
197	0xbd92f804	-0.071762115
198	0x3f429268	0.7600465
199	0x3b81fb0b	0.003966694

reward_fun.4.weight f4 [1, 200]
0	0xbc4232d5	-0.01185294
1	0x3cf9882b	0.030460438
2	0xbba5be0e	-0.0050580567
3	0x3ce32ba2	0.027730767
4	0xbc9bad9f	-0.019003687
5	0x3c19acfe	0.009379623
6	0xbb284655	-0.0025676687
7	0xbb333678	-0.0027345698
8	0x3dc9eb2c	0.098593086
9	0xbd02c73a	-0.03192828
10	0xbca73b24	-0.020413943
11	0x3db0ca79	0.086323686
12	0xbbfdc991	-0.007744976
13	0x3bcd4826	0.0062647043
14	0xbcbe4e67	-0.023230745
15	0x3cf54101	0.029938223
16	0xbf1ce124	-0.6128104
17	0x3b8a9b76	0.004229958
18	0x401a69b3	2.4127014
19	0xbd259c08	-0.040432006
20	0xbd227c02	-0.039669044
21	0x3a9f1fda	0.001214023
22	0x3bca9532	0.0061823362
23	0x3ccda06e	0.025100913
24	0x3cde40cb	0.027130505
25	0xbc3d0f28	-0.011539258
26	0xbdb0895a	-0.08619948
27	0x3d3c9333	0.046038818
28	0x3d8f3124	0.06991795
29	0xbb83543b	-0.004007844
30	0x3cb948f0	0.022617787
31	0xbc1a420b	-0.00941516
32	0x3b5a384c	0.0033297716
33	0xbe7cd6fa	-0.24691382
34	0xbef0f8aa	-0.47064716
35	0x3b3f9116	0.0029230765
36	0x3c960e3b	0.018317332
37	0xbb3b940c	-0.0028622178
38	0xbcd10d39	-0.025519
39	0xbe457288	-0.19281971
40	0x3d48d2f6	0.049029313
41	0xbb40dcef	-0.0029428562
42	0x3d001401	0.031269077
43	0x3c32652f	0.010888382
44	0xbe6991a5	-0.22809465
45	0x3d199417	0.037494745
46	0x3ca27ad9	0.019833969
47	0x3ab15148	0.0013528252
48	0xbc85e872	-0.01634619
49	0xbdad1c95	-0.08452717
50	0xbf27a70b	-0.6548926
51	0xbd116043	-0.035492193
52	0x3d272953	0.040810894
53	0x3d964339	0.073370405
54	0xbbaa2159	-0.0051919636
55	0x3a714467	0.0009203613
56	0x3cc09e93	0.023513114
57	0x3bf0b966	0.00734632
58	0x3c51e08c	0.012809884
59	0x3d3adfc3	0.045623552
60	0x3d47b38b	0.04875521
61	0xbaa39c75	-0.0012482541
62	0xbd886296	-0.06659429
63	0x3c42f254	0.011898596
64	0x3c42f492	0.01189913
65	0x3c178447	0.009247846
66	0xbc8edd12	-0.017439399
67	0x3c8b784c	0.017025135
68	0xbd972790	-0.07380593
69	0x3d08b1d3	0.03337271
70	0x3d4c1d5a	0.04983268
71	0x3aad239d	0.0013209466
72	0xbdd682aa	-0.10474141
73	0xbd5de713	-0.054175448
74	0xbe31e8a0	-0.17373896
75	0x3c580e3d	0.013186988
76	0xbd9bba4e	-0.07603894
77	0x3d085d4b	0.033292096
78	0x3c39a3a5	0.01133052
79	0x3d2660a1	0.040619496
80	0xbd08073a	-0.033210017
81	0xbbd1162d	-0.0063808174
82	0xbbada5a6	-0.005299288
83	0x3c643935	0.013929655
84	0xbc37b863	-0.011213395
85	0x3c974a7b	0.018468132
86	0x3dc8723c	0.097874135
87	0x3f78c0fd	0.97169477
88	0x3b79073c	0.0037998697
89	0x3c916673	0.017749047
90	0x3c243d88	0.010024436
91	0xbf8ca98f	-1.0989245
92	0x3dbf8006	0.093505904
93	0xbb68139c	-0.0035412079
94	0xbee33f8c	-0.4438442
95	0x3bed69f6	0.0072452975
96	0x3a8ff6e0	0.0010983609
97	0xbdd86bc7	-0.10567432
98	0x3d32dc68	0.043667227
99	0xbcb68570	-0.022280425
100	0xbd59b77d	-0.053153504
101	0x3c6d1b5a	0.014471853
102	0x3bf07482	0.0073381076
103	0xc0b26cd6	-5.5757856
104	0x3dd97cd6	0.10619514
105	0x3cd0a0aa	0.025467236
106	0xbdb5d53d	-0.088785626
107	0xbce7e104	-0.028305538
108	0xbc380701	-0.011232139
109	0xbbb6ebb0	-0.0055822954
110	0x3cd11597	0.02552299
111	0x3be4a15f	0.0069772447
112	0x3d252a39	0.04032347
113	0xba1825bd	-0.0005803963
114	0x3cd89994	0.02644042
115	0x3c46230b	0.012093316
116	0x3cb982e2	0.022645418
117	0x3c4b00e3	0.012390348
118	0x3cb6f7cf	0.022334961
119	0xbcde4c5f	-0.027136026
120	0xbd3e691a	-0.04648695
121	0xbb91828c	-0.004440611
122	0x3ccfa158	0.02534549
123	0xbd98a638	-0.07453579
124	0xbc6899d2	-0.01419683
125	0x3cb1703e	0.021659967
126	0x3ce8e816	0.02843098
127	0x3d493f90	0.049132884
128	0xc00f5213	-2.2393844
129	0xbcd9badc	-0.02657836
130	0x3de152e3	0.110021375
131	0xbd2fd324	-0.04292597
132	0xbc5a3558	-0.013318382
133	0xbd193f20	-0.037413716
134	0xba4908ca	-0.0007668851
135	0x3d14d84c	0.03633909
136	0x3d4f510a	0.050614394
137	0xbb94b003	-0.004537584
138	0xbf0add16	-0.542436
139	0xbcadd036	-0.021217447
140	0x3b8de7f8	0.0043306313
141	0x3cb60562	0.022219364
142	0x3d1af595	0.03783186
143	0x3c2a5b74	0.010397781
144	0xbc68aa47	-0.0142007535
145	0x3da211f5	0.07913581
146	0xbc8f4f58	-0.017493889
147	0x3c7b56a9	0.015340486
148	0x3c33fb25	0.0109851705
149	0x3bdf1cee	0.0068088686
150	0x3cc68a17	0.024235768
151	0x3bdaf130	0.006681584
152	0x3d49945a	0.049213745
153	0xbd063106	-0.032761596
154	0xbecf5741	-0.40496257
155	0x3ca5fb5e	0.020261463
156	0x3d9841ac	0.07434401
157	0xbc9120c0	-0.017715812
158	0x3d48798e	0.04894405
159	0xbd4ae122	-0.04953111
160	0x3c8689c0	0.016423106
161	0xbb6e4ee4	-0.003636294
162	0x3b0b859f	0.0021289361
163	0xbc91377e	-0.017726656
164	0x3d30d04d	0.0431674
165	0x3f3b4ca1	0.731638
166	0xbb836a0b	-0.004010444
167	0x3c87edfb	0.01659297
168	0x3ef5268a	0.47880965
169	0xbc83c20a	-0.016083736
170	0x3cf12096	0.029434483
171	0xbd0e445b	-0.034733158
172	0x3c9ac262	0.018891517
173	0xbcdb871c	-0.026797824
174	0xbca1f74c	-0.01977124
175	0x3ca6c468	0.020357326
176	0x3c455fb5	0.012046744
177	0x3b48aa07	0.0030618922
178	0x3ca2e8a3	0.01988632
179	0xbf4d8101	-0.8027497
180	0xbd12b64d	-0.035818387
181	0x3dcfbfb6	0.10143988
182	0x39eb4678	0.00044875196
183	0x3b9bfcfc	0.0047603827
184	0x3d4c70c3	0.049912225
185	0xbd53ddca	-0.051725186
186	0x3f041c25	0.51605445
187	0xba014939	-0.00049318705
188	0x3bcae6d5	0.006192068
189	0x3c3f88c6	0.011690324
190	0xbdb266bf	-0.087110035
191	0xbc9d0408	-0.019166961
192	0xbc934c2f	-0.017980663
193	0x3ca13383	0.019677883
194	0xbef964ec	-0.4870981
195	0xbf573697	-0.8406767
196	0x3d1a5333	0.037677
197	0x3d34893f	0.0440762
198	0xbd2d6fe1	-0.042343024
199	0xbb700e7b	-0.0036629725
