data/hlt_stoch/PendulumEnv_sin/seed_713/policy_7000.pt (torch, 8139 bytes, 6 tensors)

mu.0.weight f4 [128, 3]
000000 c3 1a d9 be 65 01 b7 3f 31 5a 86 3e 4d 1b 07 3c
       -0.4240323 1.42973 0.26240686 0.008246255
000010 9f 4a 88 3b 88 07 cd bb e8 05 c1 bc e4 fc 02 bc
       0.004159286 -0.0062570013 -0.023562387 -0.007994864
000020 75 7b 7a 3c c6 4d 4b 3f 19 94 95 bf 18 a6 73 be
       0.0152882235 0.7941555 -1.1685821 -0.23793828
000030 db e4 bf 3d 2c 3f ad bd 2c 69 ef be d7 8c 47 bd
       0.093698226 -0.08459315 -0.46759927 -0.0487183
000040 9d c8 ac be db 3f 3e bd 6c e3 62 bf 88 20 01 be
       -0.33746806 -0.046447616 -0.8862827 -0.12610066
000050 16 be ff 3e f3 c5 0e bf 87 da 0b c0 6f cc c7 bf
       0.49949712 -0.55770797 -2.1852129 -1.5609263
000060 7a 2b ac 3f 03 28 2d 40 cf 59 8f 3f df 64 5f 3e
       1.3450768 2.7055671 1.1199282 0.21815823
000070 1b 72 60 3e 1d 98 63 3d ac 09 9b 3f 77 08 9a 3f
       0.21918528 0.05556499 1.2112327 1.2033833
000080 10 11 e1 3e f0 b5 a7 3f 7b ff 5d bf df e6 48 bf
       0.4395833 1.3102398 -0.8671796 -0.7847728
000090 b1 82 3f 3e 41 59 3b 3e 09 87 3d 3d 68 a8 68 bf
       0.18702199 0.18295766 0.046271358 -0.9088197
0000a0 27 b6 07 c0 d5 b7 43 bf 5e 38 39 3d 35 18 f4 bc
       -2.1204927 -0.7645238 0.04521977 -0.029796699
0000b0 f3 6b c9 bc 1b 4f 22 bc 19 e4 5b bc cf 99 e8 3b
       -0.024587607 -0.0099065555 -0.013421082 0.0070984135
0000c0 8f e8 93 bd 22 ce 2f be 01 77 d0 bc 26 8a df be
       -0.072220914 -0.17168477 -0.02544737 -0.43660086
0000d0 83 76 00 bf c7 80 0d bf 8a 2d 27 3f b7 ff d8 3e
       -0.50180835 -0.55274624 0.6530386 0.42382595
0000e0 d7 4b ff be 4b 1f 10 3e c9 db aa 3d cb b2 d5 3c
       -0.4986255 0.14074437 0.08342702 0.026086232
0000f0 e9 50 c7 bd 38 16 02 3f c7 77 d9 be 37 3d ac 3f
       -0.09732229 0.50815153 -0.42474195 1.3456181
000100 05 17 47 3f 95 60 6f 3e 6b e9 24 bd a4 9f 82 bc
       0.777695 0.23376687 -0.040261667 -0.015945263
000110 e5 e2 af 3c 2f 64 86 3e 52 1b c7 3e ed 8b b3 3d
       0.021470496 0.2624831 0.3888803 0.08766923
000120 a8 57 57 bf b9 8c 1f bf 33 d4 95 be 4d b2 4f 3c
       -0.8411813 -0.623241 -0.29263458 0.012676788
000130 c4 cd 49 3c 7b c4 12 bc ca b5 eb be ae f8 dd be
       0.012317125 -0.008957977 -0.46037132 -0.4335379
000140 f3 0b 5a bf ce 6d 85 bc 8b a1 97 bb b4 66 dc 3b
       -0.85174483 -0.01628771 -0.0046274117 0.0067261104
000150 49 7b ae 3c 0c 46 d4 3b f3 b4 1a bc e5 1a a0 3e
       0.021299021 0.006478077 -0.009442556 0.3127052
000160 ca bf 06 3f c9 6b ec 3d e5 b5 3e bd 48 7f 98 bc
       0.52636397 0.11543996 -0.046560187 -0.01861538
000170 90 2e c1 3c 44 12 84 3e bc ae 80 be 66 ad f4 be
       0.023581773 0.25795186 -0.25133312 -0.47788543
000180 28 a8 b5 bd 07 c8 9d be da 93 44 bd e2 a7 11 bf
       -0.08869964 -0.3081667 -0.047992565 -0.56896794
000190 89 bf 4f be ec 6b 06 be 6a f0 63 3f bf 25 fb bd
       -0.20287909 -0.13127106 0.8903872 -0.12263059
0001a0 4c 29 0f bf 5c 47 a8 3f 17 b5 5b c0 1c f6 56 bf
       -0.5592239 1.3146777 -3.4329278 -0.83969283
0001b0 20 cf 6e bf e9 e5 19 bf 90 39 98 be 9a a8 57 3d
       -0.932848 -0.6011644 -0.29731417 0.052651025
0001c0 8d 51 d3 3c 43 6b 4e bc f0 c4 88 3f cc 1e 40 bf
       0.025795722 -0.012598815 1.06851 -0.7504699
0001d0 a2 03 a4 be 13 f2 5f be 85 2a 33 be a0 36 52 bd
       -0.32034022 -0.21869688 -0.17496689 -0.051321626
0001e0 d6 9f e1 bc e0 c0 02 bc ab 07 87 3c ba 4f 63 3f
       -0.027542036 -0.007980555 0.016483149 0.8879353
0001f0 83 7c 23 be ec eb 2f be 99 78 01 3f 08 59 6a 3f
       -0.15965466 -0.17179841 0.5057464 0.915421
000200 bc ed d8 be d0 08 1d bc 8f b7 8a bb 8b 1c 66 3b
       -0.42368877 -0.009584621 -0.0042333077 0.0035112228
000210 0c c0 9a bf a8 47 5c 3f d0 71 8f 3e f8 99 62 3f
       -1.2089858 0.8604684 0.2801652 0.8851619
000220 25 13 8c 3f ee 1e bc 3e 96 2f 1e 3d d3 76 95 3e
       1.0943342 0.36742347 0.0386196 0.29192218
000230 67 0c 00 3f 0f 88 04 c0 ad 7b 29 40 d4 2c 6d 3f
       0.50018924 -2.0708044 2.6481736 0.9264653
000240 60 0d 88 bf ca ba 3c bf 33 7d a9 be 79 38 d4 bc
       -1.0629082 -0.7372252 -0.33103332 -0.025905835
000250 01 a7 02 bc 9b 85 50 3c 50 9d 00 be 1b 61 10 3f
       -0.007974387 0.0127271665 -0.1256001 0.5639817
000260 74 33 f9 3e 8e 3f 70 3e 8a 79 ab bf 21 71 48 3f
       0.48672068 0.23461744 -1.3396466 0.7829762
000270 b4 5e d9 3f 9b 22 d8 bf d6 3f dd be 16 b6 ef bb
       1.6982026 -1.6885561 -0.43212765 -0.0073154075
000280 41 cd b7 bb 31 d6 ba 3b 4b 36 4c bc 07 b4 1f bc
       -0.005609185 0.005701803 -0.012464116 -0.009747512
000290 ff c9 02 3c ff dc 36 3b fd 4b 6a 3b 45 59 4f bb
       0.00798273 0.002790272 0.003575086 -0.0031638902
0002a0 06 5b ca 3e 10 34 b2 be 84 ed 07 bf 30 a6 6d 3f
       0.3952257 -0.34805346 -0.53096795 0.92831707
0002b0 bb 7f b0 be c8 5e 36 be 56 d1 96 bf c4 82 51 bf
       -0.3447245 -0.17809594 -1.1782634 -0.8184016
0002c0 b1 74 bd be 2a b1 a9 3e 5c fa 35 3f 0c 82 35 3f
       -0.3700309 0.33142978 0.71085143 0.7090156
0002d0 a2 20 9e bc ce 05 bd bb 39 3f 03 3c 8b 64 5a 3e
       -0.01930267 -0.0057685142 0.008010679 0.21327417
0002e0 b4 a2 f3 3d ad 40 ee be ce b1 55 bc 49 db 8f bf
       0.118962675 -0.4653372 -0.01304288 -1.1238796
0002f0 62 18 1e bf a5 e8 f1 3e fe 8e 16 3e 18 15 f2 3e
       -0.61755955 0.47247806 0.14702985 0.47281718
000300 bb 14 d8 3c 8f 65 17 3c cb e3 52 bc 7c 60 85 3c
       0.026377073 0.009240522 -0.012871693 0.016281359
000310 c5 19 3b 3c 29 07 33 bc 0a 9f a5 3f f3 11 2d 3f
       0.011419718 -0.010927 1.293916 0.67605513
000320 fe 7e 88 3e f8 b1 2c bf bd fe cf bf 56 14 1b bf
       0.26659387 -0.6745906 -1.6249615 -0.60577905
000330 2a 73 7d bc f7 5b a4 bb 41 13 d3 3b 25 c1 4e 3d
       -0.015469352 -0.005015846 0.006441504 0.050477166
000340 88 c6 be 37 3d 2e 1e bc de 46 d7 bd 7c 46 cc 3e
       2.2742213e-05 -0.009654579 -0.10511564 0.39897525
000350 7b 82 e3 be 0f bc 05 bf fe 56 c3 be 80 75 ca be
       -0.44435486 -0.5224008 -0.38152307 -0.3954277
000360 ab 19 8a 3c 26 3b e8 3b 00 50 f2 bb 7b 96 8b 3f
       0.016857943 0.007087129 -0.0073947906 1.0905298
000370 99 ae 75 bf 21 db 35 bf 54 e0 02 3d 15 25 d6 3c
       -0.9596954 -0.7103749 0.031952217 0.026140729
000380 c4 9e 93 bc 2a 33 b1 3e 32 8b 03 3f 33 07 f8 3d
       -0.018020041 0.34609348 0.5138427 0.12110748
000390 b4 7f 0c 3f 88 8a 1e 40 f2 7a 35 3f 30 d0 af 3c
       0.5488236 2.4772053 0.70890725 0.021461576
0003a0 fc e6 85 bc c6 74 f9 bb 22 32 12 bf 0e 82 cb bf
       -0.016345493 -0.0076127974 -0.57107747 -1.5899065
0003b0 d7 25 b8 be 07 cb 19 3c 26 fc ef 3b e3 76 8e bb
       -0.3596637 0.009386784 0.0073237596 -0.0043476685
0003c0 ba a6 a8 3d 8f 16 7e bc 40 e8 a8 3a f9 19 ce bc
       0.082349256 -0.015508308 0.0012886599 -0.02515887
0003d0 38 59 f8 bb 1d 64 45 3c 28 29 8f bd 50 55 1d bf
       -0.007578995 0.012047795 -0.06990272 -0.614583
0003e0 16 a9 a1 bd 51 90 0e be 07 e0 08 3d a8 b8 f0 3e
       -0.07893579 -0.1392224 0.033416774 0.47015882
0003f0 76 b4 84 b9 eb 34 92 3b 4e 97 44 bb dd 4d f0 3c
       -0.00025311456 0.0044618747 -0.0029997411 0.029334003

mu.0.bias f4 [128]
000000 e0 28 9a 3e 82 84 1b 3c 7b 40 b7 3c 8c 05 2e bf
       0.3010931 0.009492042 0.022369614 -0.67977214
000010 d4 89 00 bd d4 42 9a 3d 4a fb 4f bf b9 8f 99 be
       -0.031381443 0.07532278 -0.8124281 -0.29992464
000020 6d 83 cc 3e 0f 1c 77 be c0 9b 42 3f 53 ff 32 3e
       0.3994402 -0.24131797 0.76018906 0.17480211
000030 39 7c 52 be 60 1a c5 be 1e 00 07 39 1a bd d1 3c
       -0.205552 -0.38496685 0.00012874647 0.025602866
000040 01 1d a3 3d 61 f6 bf 3d 26 02 29 3f 5d a2 0e be
       0.079645164 0.09373165 0.66018903 -0.13929124
000050 a4 d2 b3 bb a3 0c 75 3f f5 34 ed 3a ce 02 99 be
       -0.005487757 0.9572241 0.0018097447 -0.29884952
000060 69 b6 53 3f c3 e7 b7 bc 3d ab 14 3f b3 e8 22 3c
       0.8270021 -0.02244938 0.5807379 0.009943175
000070 e8 24 f0 bb 75 1c b8 be 32 73 a7 3b a9 10 7e be
       -0.0073286183 -0.3595921 0.005110168 -0.24811043
000080 d3 ab e9 3d 9e 69 16 3f c9 10 90 3e a0 1e 45 bf
       0.11409726 0.5875491 0.28137806 -0.76999855
000090 48 e2 73 3f 53 70 9b bc a7 9c 81 bf 53 7f 71 3e
       0.9526715 -0.018974459 -1.0125932 0.23583727
0000a0 af 67 85 bb 63 c8 67 bf 7f 60 49 3f e7 db bf 3c
       -0.004071198 -0.9054014 0.78662866 0.023420287
0000b0 55 50 77 bf e0 fc 87 bf 72 9b d8 bc 18 cd 4f bf
       -0.9660695 -1.0624046 -0.02644131 -0.81172323
0000c0 11 15 87 3f b9 9e 3f 3b 47 8c cc 3d 01 d0 87 3c
       1.0553304 0.0029238893 0.09987693 0.016578676
0000d0 97 e1 8e 3f 05 81 90 3c ae 05 d0 3c eb f4 1c 3c
       1.1162595 0.017639646 0.025393333 0.009579877
0000e0 6e 28 d1 3d 29 f8 76 bf 16 95 33 bf 22 96 db be
       0.102127895 -0.9647241 -0.7014936 -0.4288798
0000f0 c0 fe 2e 3c 15 0b 80 be 0f 4d d9 3d 9b e3 17 3d
       0.010680854 -0.25008455 0.10610401 0.037082296
000100 a7 df 9a bb bb 0e ad bc 55 0d 79 3f ba 1e ae be
       -0.0047263685 -0.021125188 0.9728597 -0.34007818
000110 be 4e 1c 3c 5d 53 c7 bc d8 49 8f 3c 67 61 96 be
       0.009540258 -0.024331743 0.017491266 -0.29371187
000120 73 c1 f2 bb d7 e3 2a 3f e2 b1 5b 3b 4f 69 c8 be
       -0.007408315 0.66753906 0.0033522774 -0.39142844
000130 27 45 83 bf 30 e1 d7 bc 93 64 37 3f 3e c4 a8 bc
       -1.0255479 -0.026352495 0.7163784 -0.020601388
000140 8e db 7c bd 37 ff 84 3b 80 59 01 3e 67 5e 2b 3e
       -0.06173282 0.0040587443 0.12631798 0.1673523
000150 fd 27 97 bc 6b 94 06 bc 0f 9e 1c 3c b7 0b 31 3e
       -0.018451685 -0.008214097 0.0095591685 0.17289625
000160 4e b3 58 3f 7f 01 a8 be 53 aa 8f bf e1 ce 2b 3f
       0.846486 -0.3281364 -1.1223854 0.6711255
000170 aa fa b1 bc 66 d1 73 be e7 bd 97 be 03 17 47 be
       -0.021725971 -0.23810348 -0.29637071 -0.19442372
000180 c1 ff 69 3c 39 a9 1b 3d 3d 42 52 bb f5 48 69 3f
       0.014282168 0.03800318 -0.0032082938 0.9112695
000190 05 f0 fc 3a 0e 21 5c 3c e0 7f 69 3c f3 28 95 3f
       0.0019297606 0.013435615 0.014251679 1.1653122
0001a0 2e 45 1d 3c 79 15 cd 3c 81 18 da 3d c3 10 3e bf
       0.009599013 0.025034653 0.10649205 -0.74244326
0001b0 5f 1a d2 bc 5d 3a 18 3e 96 38 31 3e e5 2e a8 bc
       -0.02564734 0.14866014 0.17306742 -0.020530174
0001c0 87 20 be 3c 0b ba 57 be cd a8 12 be 85 3c 65 3e
       0.02320887 -0.21067064 -0.14322205 0.22386368
0001d0 b0 93 70 bf cd 02 4c 3c 47 47 9b 3d 2d 88 b8 3c
       -0.93975353 0.01245184 0.075819544 0.022525871
0001e0 5a 8f e3 be 2e 10 c2 ba 5f 33 14 bd e8 1c b6 3a
       -0.44445306 -0.0014805847 -0.036181804 0.0013894113
0001f0 c5 e4 3c 3e 0b 67 ae 3f e0 b7 25 bf 7d 1d ec bd
       0.18446644 1.3625196 -0.64733696 -0.11529062

mu.2.weight f4 [1, 128]
000000 5a b6 7b 3c fa 2b 4d 3b 37 0f 07 bc 66 cb 2e 3c
       0.0153633 0.003130673 -0.008243374 0.010668611
000010 78 55 cf bc 8f 65 e9 bb c2 5a 1e 3e 28 b6 34 be
       -0.02530931 -0.0071227024 0.15464309 -0.17647612
000020 fa d4 e9 3e 7f b9 27 3c 14 d3 9c 3e e9 f0 e1 bd
       0.456703 0.010237097 0.3062979 -0.11032278
000030 68 c0 1a 3c 42 41 89 be b3 46 92 3b a9 74 92 bb
       0.009445287 -0.268076 0.0044639944 -0.0044694734
000040 6b 20 b0 bb 41 b4 83 bd 6e 18 1b be 41 71 93 3b
       -0.0053749583 -0.06430865 -0.15146038 0.004499585
000050 65 cc f9 ba 1a 35 52 3e df e5 ff bb f9 ce 39 3c
       -0.0019058107 0.20528069 -0.007809385 0.01134085
000060 2e 0e 71 3d f2 f3 ea 3b 6e df e5 bd 62 2b ee bb
       0.058851413 0.007170194 -0.112242565 -0.007268355
000070 55 ea ff 3b e2 12 44 3c a3 bc ed bb 05 d1 fe bc
       0.007809917 0.011967393 -0.0072551533 -0.031105528
000080 a8 40 0c bc a1 59 19 bc 4c e1 06 be 02 16 01 3f
       -0.008560337 -0.009359748 -0.13171881 0.50424206
000090 7d 71 7a 3d f9 8d 12 3b b6 7d f4 3d 38 3d 0d bc
       0.061143387 0.0022362454 0.1193804 -0.008620553
0000a0 fc eb c1 bb 43 bb 01 3e 88 58 1f be 65 c4 3d bb
       -0.005918024 0.12669091 -0.15561116 -0.0028956172
0000b0 66 96 85 3e ca 02 64 be 01 28 55 3c 0c 4f 05 3f
       0.26091307 -0.22266689 0.013010026 0.5207374
0000c0 70 9d 9c 3e bc 26 1c bc cf 8d f0 3c 63 68 18 be
       0.30588865 -0.009530719 0.029364495 -0.1488357
0000d0 26 65 c4 be 05 85 36 bb 80 56 b1 bb fa c4 1f 3b
       -0.3835842 -0.0027850282 -0.005411923 0.0024378882
0000e0 f1 5b 85 bd 4d 65 08 3e 55 5a 62 be 32 15 a2 3d
       -0.06511677 0.13319893 -0.22104771 0.07914199
0000f0 a4 13 f5 bb c4 b0 7d bc 42 0d a2 bd ff 0d 66 3d
       -0.007479148 -0.015484039 -0.07912685 0.05616569
000100 1e a9 fd 3b 3c a0 0d 3c bc a0 5a 3e bb 3e 23 be
       0.0077411076 0.00864416 0.21350378 -0.15941899
000110 9b 74 ef bb 99 b2 0d 3b 4b 36 a6 bb bd 5c 98 bd
       -0.0073076016 0.0021621345 -0.00507239 -0.074395634
000120 d7 22 c6 3b e4 c6 5e be c5 d5 12 3b b0 dd 44 3c
       0.0060466337 -0.21755558 0.0022405249 0.012015745
000130 e6 9e 84 be cf 09 77 3b b3 16 7c 3c 82 dc 35 3b
       -0.2590248 0.0037695055 0.015386271 0.002774984
000140 f5 88 ae 39 19 6b 17 bc 71 57 f5 bb 16 8d 71 3c
       0.00033289907 -0.009241843 -0.0074872305 0.01474311
000150 c6 50 bc ba 50 11 0c 3c 73 32 ba ba 66 0b fc bb
       -0.0014367334 0.0085490495 -0.0014205709 -0.0076917885
000160 44 49 8f 3d cd 3e fc 3d 8d cc e2 3e 8e 1b 4f be
       0.06996396 0.12316666 0.44296685 -0.20225355
000170 b2 e0 5a 3b b7 94 6e bd c5 44 21 bc b7 70 88 bb
       0.003339809 -0.058247294 -0.009843056 -0.0041638273
000180 1f 64 85 bb ed ae 1f 3b c2 9c bc 38 6f e4 4b be
       -0.0040707733 0.0024365738 8.993737e-05 -0.19911359
000190 18 b3 f7 bb 4e 9d bd 3a 0f ff 25 ba 93 37 93 3e
       -0.0075591914 0.0014466436 -0.0006332257 0.28753337
0001a0 c4 31 c7 b6 6f d1 9b bb 36 d3 84 3c 16 62 3c 3e
       -5.9364556e-06 -0.004755191 0.016213994 0.18396792
0001b0 11 fd ae 3b 53 9a da bb 7c f3 51 3c ba 55 83 3b
       0.0053402265 -0.006671229 0.012814399 0.004008022
0001c0 cb 58 fe bc 5c 93 6b 3b d8 b7 01 3c 6f a9 a5 3c
       -0.0310482 0.0035945987 0.007917367 0.020222394
0001d0 16 3f c1 3d 42 03 83 bb e7 65 32 bb 06 aa 42 bb
       0.09435861 -0.003998191 -0.0027221383 -0.0029703393
0001e0 8c 84 52 bb 4d 99 70 3b 38 4b 50 bb 76 e9 f7 3a
       -0.003212246 0.0036712468 -0.0031783115 0.0018914181
0001f0 b7 2c 2b bc 5a c1 0d be 5b 14 16 3e f8 b8 c6 3c
       -0.010447673 -0.13843289 0.14656202 0.024258122

log_std.0.weight f4 [128, 3]
000000 52 42 00 be 08 14 2d 3f 72 80 49 3e 9f dd d3 bc
       -0.12525299 0.6760869 0.19677904 -0.025862513
000010 79 f1 4a 3e e3 61 8a 3d 50 e2 d3 3e 48 00 85 3e
       0.19818677 0.06756952 0.413836 0.25976777
000020 ed 15 34 3e 55 e0 a5 3d f1 97 9f 3e 20 39 68 bd
       0.17586489 0.080994286 0.3117061 -0.056695104
000030 b7 cd 17 3e b3 35 6a 3d 34 03 ac 3d f1 a3 8c bc
       0.14824568 0.057180118 0.083990484 -0.017168017
000040 73 2a 12 3e 7d c3 08 3b 6e bd 01 bf 59 54 85 3f
       0.14274006 0.0020868473 -0.5067967 1.0416366
000050 bb 67 6f 3e 04 5e 1d be 82 a9 f8 be 5d dd 09 bc
       0.23379414 -0.15367895 -0.48566824 -0.0084145935
000060 2a 78 43 3e eb 72 b1 be 3f 0a 5d bd d5 78 41 3f
       0.19088808 -0.34657988 -0.05396485 0.75575
000070 7e 2e 79 bf 3c 70 98 be e7 57 6e be 58 ba be bd
       -0.97336566 -0.29773128 -0.2327572 -0.09312886
000080 6c a6 ad be 97 3c f7 3e 79 cb 84 3e 7a 25 51 ba
       -0.33916032 0.48288414 0.25936487 -0.0007978302
000090 c9 97 46 bf b1 c1 05 bf 54 96 12 be 97 35 8f bd
       -0.77575356 -0.52248675 -0.14315158 -0.06992643
0000a0 5f e0 65 3d 20 b3 bc bd e9 cc 33 3e 46 d5 02 bf
       0.05612218 -0.09213853 0.17558636 -0.5110668
0000b0 e9 95 7c bd 4b 9f 62 3f 24 e7 3b bf 6c 7d b2 be
       -0.061666403 0.8852431 -0.7339957 -0.34861314
0000c0 ea df 2a bc 73 3d 0f 3d ca 30 0f 3b b6 4d 02 bf
       -0.010429362 0.034970712 0.002184915 -0.5089983
0000d0 75 e4 f5 be 81 18 af 3e 19 0e 38 3f e2 77 0c 3e
       -0.4802586 0.34198382 0.7189651 0.13717607
0000e0 e0 24 c1 3e 8b a6 8a be b6 7a 06 3f 32 00 06 3d
       0.37723446 -0.27080187 0.5253099 0.03271503
0000f0 5e 70 75 3e 43 8b 26 bf b1 0e 80 bc 16 82 00 3d
       0.23968646 -0.65056247 -0.015632005 0.03137406
000100 ef 51 bc be b3 26 75 be 67 e1 46 be 4a 57 62 be
       -0.3678126 -0.23940544 -0.19421922 -0.2210361
000110 84 6b 78 be 15 e9 69 bc ef e7 15 bd 56 0a ac 3a
       -0.24259764 -0.0142767625 -0.036598142 0.0013125639
000120 b3 b1 45 3e 05 f5 ba 3f 03 d2 ac 3e 85 b9 46 bf
       0.19306068 1.4606024 0.33753976 -0.7762683
000130 f4 2c 35 bf 97 9b 41 be 0f d3 9b be a4 4f 0b 3f
       -0.7077172 -0.18907009 -0.30434462 0.54418397
000140 d6 47 5a 3e 3d 96 ab 3e 42 fc cd be b0 12 36 be
       0.21316466 0.3351306 -0.4023152 -0.17780566
000150 c6 7b 64 3f 66 06 81 3e 92 90 ad 3e 32 46 93 be
       0.89251363 0.25200194 0.3389936 -0.28764492
000160 16 f3 a4 be ce 1d 32 3e 95 7e 7a bd 73 1c 0a 3d
       -0.3221671 0.17394182 -0.061155874 0.033718538
000170 53 dc 02 3c f8 4d d8 3e e4 12 02 bf c9 26 7a 3e
       0.0079871 0.42246985 -0.50810075 0.24428858
000180 d1 22 a3 bd 21 43 b0 bc fb 76 9e bd c7 8e 69 bd
       -0.07965625 -0.021516385 -0.077375375 -0.05702093
000190 80 ef 66 be 6b ae 4d bc 96 6b c2 3e 6c 03 38 3d
       -0.225523 -0.0125537915 0.37972707 0.04492514
0001a0 1c 57 69 3d 5a 11 ef be 9c 95 80 3f b1 e8 6c 3e
       0.05696784 -0.46692926 1.0045657 0.2313564
0001b0 f9 79 43 be 42 cc 1d be 0d ee 5e bb d0 55 5b bd
       -0.19089498 -0.1540995 -0.00340164 -0.053548634
0001c0 e3 74 b3 bc de d3 9e ba c5 b9 89 be 05 30 2d bd
       -0.021906322 -0.0012117585 -0.26899543 -0.042282123
0001d0 0b 3a bf be 77 08 04 bf 93 b0 9c 3e 1f 94 15 3e
       -0.3734897 -0.51575416 0.30603465 0.14607285
0001e0 41 00 1c 3e b4 56 06 bf 65 c3 49 be 5d fc 31 3f
       0.15234472 -0.5247605 -0.19703443 0.695257
0001f0 e8 89 29 3f cb 68 6c 3e 6d b4 07 3f a9 19 27 bf
       0.66226053 0.2308685 0.5300968 -0.6527353
000200 d0 4f 83 be 0d 8e 0c bf db 84 ee 3e 40 19 3d 3e
       -0.2564683 -0.5490425 0.46585736 0.18466663
000210 d9 70 1a be 36 b4 86 3e 50 88 d9 3c eb 21 f3 bd
       -0.1508211 0.26309365 0.026554257 -0.11871704
000220 66 8c 8d 3e 27 ba 2a bb f4 68 fe bd 5b 03 cb 3e
       0.27646178 -0.0026050897 -0.12422362 0.39650998
000230 eb 0c e5 3c 92 ed d3 be 61 86 8d bf 77 c2 96 be
       0.027960261 -0.4139219 -1.1056634 -0.2944524
000240 48 75 67 3e b0 d2 1e 3e 06 9b 88 3e 69 fe 29 3f
       0.22603333 0.15510058 0.26680773 0.66403824
000250 e5 da 8d 3d b5 40 b0 3e c4 4c 93 3e bd b2 03 3e
       0.069265164 0.34424368 0.28769505 0.12861152
000260 83 59 d4 3d 40 b5 3f 3d bf e9 a3 be 58 4c d1 be
       0.103686355 0.046803713 -0.32014272 -0.40878558
000270 59 50 aa be 21 c2 06 be a1 75 02 3e 36 4f 88 be
       -0.33264425 -0.13159992 0.12740184 -0.26622933
000280 8d 2a df be 5b 44 73 bd 8e 1f 10 bf ab 72 94 3f
       -0.4358715 -0.05939136 -0.5629815 1.1597494
000290 9d f8 83 3e 77 d7 2f 3e 35 b6 97 bf 58 f6 8f be
       0.25775614 0.17172037 -1.185248 -0.28117633
0002a0 e9 64 21 be e9 d9 c0 3e c8 78 e9 bb 52 17 20 bc
       -0.1576115 0.37666252 -0.007124994 -0.009771185
0002b0 38 cc cd 3c 9d 80 8d 3a e5 7d ed 3e 5f 85 ef 3e
       0.025121793 0.0010795776 0.46385112 0.46781442
0002c0 53 ce 28 3e 56 b1 5d bd 0a f6 89 bf 62 be 78 be
       0.16484956 -0.0541242 -1.077821 -0.24291375
0002d0 c2 4a 5d 3e a2 f0 af bf 0c f2 b0 be 4d ed 56 3f
       0.21610549 -1.374531 -0.34559667 0.8395584
0002e0 2c 71 10 bf 50 06 6f be 66 a6 a6 3e 77 9b 46 bf
       -0.56422687 -0.23342252 0.32548827 -0.7758097
0002f0 e8 4f 49 be c3 b1 95 3d 99 18 dc be 85 c6 e5 be
       -0.19659388 0.07309296 -0.42987517 -0.4487802
000300 ce ae 42 be ee 64 11 3f 08 29 07 3e 88 0d 46 3e
       -0.19011995 0.5679463 0.13199246 0.193411
000310 9c 82 1e be 71 d0 44 3d 8a 0d a9 bd 0e 27 de be
       -0.15479511 0.048050348 -0.082545355 -0.4338917
000320 66 7b 00 bd 70 3d db be e6 b3 7f bf 97 25 8e be
       -0.031367682 -0.4282031 -0.9988388 -0.27763054
000330 3f 9d d5 3e 1e 92 33 3e 5e 2e 16 3e 11 79 13 bf
       0.41721532 0.17536208 0.14666125 -0.5760661
000340 15 71 02 bf b7 b0 0a be 22 f4 d1 bb 2a 41 c2 3e
       -0.509538 -0.13543974 -0.0064072767 0.3794034
000350 18 bf ac 3c 7e f4 4b 3e 99 92 93 be 8e 20 03 be
       0.021087214 0.19917485 -0.28822783 -0.12805387
000360 a6 fb 08 3f 0e 34 9f 3e 56 df 87 be f6 82 24 3e
       0.53508985 0.31094402 -0.2653758 0.16065583
000370 1e 8c 2d 3f fa da 1c 3e ff 03 33 bd 9a 6b 92 3d
       0.67791927 0.15317908 -0.043704983 0.071494296
000380 6e 55 5b 3b dd 53 08 3e 4f 87 c6 3d 10 f4 fe 3d
       0.0033467668 0.13313241 0.09693777 0.12448895
000390 a7 9e 44 3e 35 da 97 3f 04 ce 96 3e a1 ea 03 3d
       0.19201146 1.1863467 0.29454052 0.03220618
0003a0 d5 4a a8 3f b7 63 9e 3e 29 49 1b 3d be 0b 5f 3e
       1.3147837 0.3093545 0.037911568 0.21781823
0003b0 7a fb 37 3d 4b 66 91 bd e0 53 98 3e f1 96 c1 3d
       0.04491756 -0.07099589 0.29751492 0.09452618
0003c0 78 e8 aa bd dc 7c e5 3e a0 1d 0d 3e e5 27 0f 3f
       -0.08345121 0.44821823 0.13780832 0.5592025
0003d0 d9 6e ab 3e 5f aa 05 3e f1 b4 5b 3f 90 0d 1c bf
       0.33483008 0.13053273 0.8582297 -0.60958195
0003e0 63 18 a3 be cf b8 39 3f 10 79 4a bf 08 71 85 be
       -0.31854543 0.7254762 -0.79090977 -0.26062799
0003f0 74 b9 f0 bb f3 74 03 bd cc 42 67 3a 91 78 8a bd
       -0.0073463265 -0.032093953 0.0008821904 -0.067612775

log_std.0.bias f4 [128]
000000 44 14 13 bf 03 81 08 bd f9 69 5a bf 9f 98 82 be
       -0.574528 -0.03332616 -0.8531795 -0.25507066
000010 a4 6f e8 bd c1 25 34 bc 48 60 dc be 9c bd 2f 3e
       -0.11349419 -0.010995329 -0.43042207 0.17162174
000020 4a c0 10 be 70 7f 37 bf b3 8a e4 be 6e f1 19 bf
       -0.14135852 -0.7167883 -0.4463707 -0.6013402
000030 98 34 df be ee cf 05 3d ee 50 99 be 93 23 ff bd
       -0.43594813 0.032669 -0.29944557 -0.12457957
000040 41 4a 06 bd 68 ef c8 be 86 05 9f be c0 64 ca be
       -0.032785658 -0.39245152 -0.31058902 -0.3952999
000050 85 3c 48 be 7b c1 b9 3d fc fa e0 be 5f e7 ee bc
       -0.19554336 0.090701066 -0.43941486 -0.02916306
000060 e8 80 b5 be 5d e7 b5 be 8d 15 9f be 6a f6 8c bd
       -0.3544991 -0.3552808 -0.3107113 -0.06882937
000070 81 4b 85 be cc 2b 5e be fe 69 bb bc e2 52 f1 3d
       -0.26034167 -0.21696395 -0.02287769 0.11783387
000080 71 95 33 bf a5 bf 4e 3d 3b 47 65 3e e7 a5 de be
       -0.70149904 0.050475735 0.22390454 -0.43485948
000090 19 8e 3d be 9f bd 89 bd fd e1 0b bf c9 56 11 3d
       -0.18511237 -0.067256205 -0.54641706 0.035483155
0000a0 0f 4b 22 3e 01 d1 46 bf c2 0a 05 3d 4a bf 0f 3c
       0.15848945 -0.77662665 0.032480963 0.008773634
0000b0 8d 10 b1 bd 1a 31 36 bd 75 ef be be 97 28 de be
       -0.08645735 -0.04448042 -0.37292066 -0.43390343
0000c0 9c 8b c0 be 17 e0 b2 be 01 34 02 bf bd 9f 40 3e
       -0.37606514 -0.34936592 -0.508606 0.18810935
0000d0 04 44 8e 3e b3 e6 9d be c6 a1 f7 be 31 3a 0e be
       0.27786267 -0.30840072 -0.4836561 -0.13889386
0000e0 37 61 60 bd 6c f7 12 bd 43 f6 27 bf fd 7d 91 3d
       -0.05478021 -0.03588049 -0.6561014 0.071041085
0000f0 88 ec 1e be 89 33 53 bf e2 80 8c 3e 4a cb 50 3e
       -0.15519917 -0.8250051 0.2744208 0.20390049
000100 5d 07 35 bd 1c 9f 03 bf 5b be 1f 3e 11 fe dc be
       -0.044196475 -0.51414657 0.15599959 -0.43162587
000110 13 51 38 bf be 03 8c be 62 1b 17 bf 3f 2d e7 bd
       -0.7199871 -0.27346605 -0.5902616 -0.11287927
000120 14 ee 2a bf 9b 67 a7 be 0e 28 65 bd c5 da 5e be
       -0.6676953 -0.32696232 -0.055946402 -0.21763141
000130 de 5e a9 be 29 bc 2c be 02 a9 b1 bd 4b 26 86 be
       -0.3308019 -0.16868652 -0.08674814 -0.2620109
000140 3a 7d cc be c6 2b 08 3d 75 fc 10 be 43 e7 2d bf
       -0.3993929 0.03324487 -0.14158805 -0.67931
000150 51 f3 ce bc 5d bc 72 bd e7 26 12 bf 25 46 de be
       -0.025262507 -0.05926167 -0.5709061 -0.4341289
000160 be 61 85 bd b5 a6 37 bf a9 2f b2 be 94 5d a9 bd
       -0.065127835 -0.7173875 -0.34801987 -0.08269802
000170 73 45 6e 3d 9c 0f b2 3d 64 a8 1a 3b 5f 07 00 bf
       0.0581717 0.086943835 0.0023598904 -0.5001125
000180 8b e5 f7 bc 6e 48 c3 be d4 88 26 be 16 0f 69 bd
       -0.030260822 -0.38141197 -0.16263133 -0.056899153
000190 fa 6a d6 be 53 8b c4 3e fb ae 33 bf a6 80 9e 3c
       -0.41878492 0.38387546 -0.70188874 0.019348454
0001a0 d4 b9 50 3d 48 ab 1d bf c2 37 b4 be cb 1e e4 be
       0.05095847 -0.6158948 -0.3519879 -0.44554743
0001b0 56 d2 c1 be f9 b5 a5 be db 62 f7 be 52 1b f1 bd
       -0.37855786 -0.32365397 -0.48317608 -0.11772789
0001c0 30 ad 80 bd 7a 35 da 3d d7 00 e7 3d ee db 11 bf
       -0.06283033 0.10654731 0.11279457 -0.5697621
0001d0 84 e8 a9 be 7d 44 3e be b8 b1 33 bf 7a 62 1e be
       -0.33185208 -0.18580814 -0.7019305 -0.15467253
0001e0 ac bc cf be d1 f7 e2 3d f0 a7 c7 be a9 af 9e 3c
       -0.40573633 0.110824235 -0.38995314 0.01937087
0001f0 fe 8b 5a bd 9a 52 d9 3d 30 8d 27 bf a2 86 92 be
       -0.053356163 0.10611458 -0.6544981 -0.28618342

log_std.2.weight f4 [1, 128]
000000 b9 88 08 be 89 57 34 bc 6b fd e0 3e 27 74 8a bc
       -0.13333406 -0.011007198 0.43943343 -0.016901089
000010 10 98 8a bc f4 26 0e bc ff 0e a5 be 4c ac 9a bc
       -0.016918212 -0.008676279 -0.32238004 -0.018880986
000020 4a 70 b1 bb 93 05 2b 3f ba ef 9d 3d f1 a8 a6 b9
       -0.005414997 0.6680538 0.0771174 -0.00031787858
000030 91 50 75 bd 65 53 89 bc c3 65 b8 bd e1 3e 6d be
       -0.059891287 -0.016763398 -0.090037845 -0.23168518
000040 21 69 a0 39 07 c9 8d 3e 9a 89 77 be 7d 4b 21 3d
       0.00030595905 0.27692434 -0.24173585 0.03937863
000050 1e 42 06 bd 5a 9c 03 bd 17 6c 04 3d ec 49 e4 b9
       -0.032777898 -0.03213153 0.032329645 -0.00043542625
000060 87 80 2d 3e 82 f8 da bd 74 c9 a2 bd c7 07 8a bd
       0.1694356 -0.1069193 -0.079485804 -0.06739765
000070 cd b1 0f be 32 f5 a9 3d ee e6 4b 3a 71 8d a3 bd
       -0.1403267 0.082987204 0.00077782467 -0.07985962
000080 a0 eb 01 bd 7b fb a1 b8 9d 8b c7 bd 1a e6 30 be
       -0.03171885 -7.72392e-05 -0.09743426 -0.17275277
000090 69 a7 c0 3b 5a ce d9 ba 01 4a 93 3d 9d fd 4a bd
       0.005879332 -0.0016617284 0.071918495 -0.04955827
0000a0 e0 10 b9 bd 0e 85 b3 3e a6 91 0b be 79 9f 0d be
       -0.09036422 0.3506245 -0.13629779 -0.13830365
0000b0 8f 0a 9b bb 79 56 23 bc 1b dd 88 3c 69 d6 0b be
       -0.0047314833 -0.009969347 0.016706994 -0.1365601
0000c0 ed 39 14 be 47 80 c6 bd 79 c1 60 3e 8c 0a b1 bd
       -0.14475222 -0.09692436 0.21948804 -0.0864459
0000d0 11 7f 05 bd 6a e9 14 bd 22 22 80 be 81 79 41 3e
       -0.032591883 -0.036355413 -0.2502604 0.18894006
0000e0 34 cb 92 bc bd 07 a1 39 f9 ba ed 3e 5a 25 5f 3e
       -0.01791916 0.00030714078 0.4643171 0.21791592
0000f0 56 6b 3e 3e b5 19 04 3f d6 b6 25 be 9e 05 ba bd
       0.18595633 0.51601726 -0.16183028 -0.09083103
000100 ff b8 40 3d 2e 43 b1 ba 8a c2 ac bb 3b 80 ca bd
       0.047051426 -0.001352405 -0.0052722143 -0.09887739
000110 ee 4d 06 3f 2a b7 c7 bd 47 2a 1a 3c fe fc d3 bc
       0.5246266 -0.09751733 0.009409494 -0.025877472
000120 39 25 7e be e5 4e 40 bd 9d 81 9a 39 64 61 be bc
       -0.24818887 -0.04695024 0.00029469738 -0.023239799
000130 e6 52 8f 3e 59 a3 6e 3e de 7b 65 ba f0 68 2f bd
       0.27992934 0.233045 -0.00087541144 -0.042824686
000140 fa ad 46 be c1 3b b8 bd 62 31 ba be 71 aa 93 3e
       -0.19402304 -0.08995772 -0.363658 0.28840974
000150 aa 50 fb b9 ce cf 0b ba 99 2f bf 3e e2 5a 1f be
       -0.0004793455 -0.00053333945 0.37341002 -0.15562013
000160 28 18 4e be 11 05 61 be 10 60 92 3d 32 12 3a bd
       -0.20126402 -0.21974589 0.07147229 -0.04542751
000170 f5 b1 91 bc f1 b6 1c 3e ea bc 91 37 3e 77 d6 be
       -0.017785052 0.15304162 1.7373317e-05 -0.4188785
000180 ff 70 e0 3b 6d fc 1b 3e c4 f1 44 3e fa 85 4d ba
       0.0068494077 0.15233012 0.19232851 -0.00078400935
000190 5b be 20 bb 5f 37 26 be b9 af be be 45 da 65 be
       -0.0024527523 -0.1623206 -0.3724344 -0.22446544
0001a0 2e 34 af 3d 05 83 6a 3c ab 65 e0 be 20 5f f5 3d
       0.08554874 0.014313464 -0.43827567 0.11981034
0001b0 8f 35 d3 3c 39 19 ef bd fd 25 ed bd 88 87 47 bd
       0.025782375 -0.11674733 -0.11579511 -0.048713237
0001c0 17 15 10 3d d7 0c fa bb b5 24 db bc 82 05 c4 bc
       0.035176363 -0.007630925 -0.026750902 -0.023928408
0001d0 3c 6f 1a bd d1 17 7b bb a7 84 00 3e a0 a4 45 bc
       -0.037703738 -0.0038313756 0.12550603 -0.012063175
0001e0 a5 45 62 be 57 3d cf bd 94 97 21 be 16 d4 3d ba
       -0.2209688 -0.101191215 -0.15780479 -0.0007241381
0001f0 76 58 34 3a cc d9 0c be d2 81 f9 be 3e f9 4e be
       0.0006879637 -0.13754958 -0.48731858 -0.20212266
