data/hlt_deter/HopperEnv/seed_613/model_35000.pt (torch, 198169 bytes, 10 tensors)

log_std f4 [1, 11]
0	0xc0ab4541	-5.352204
1	0xc0a5eee7	-5.185413
2	0xc0adedc2	-5.435273
3	0xc09fc234	-4.9924564
4	0xc06c938e	-3.696506
5	0xc0104377	-2.2541177
6	0xbfd32254	-1.6494851
7	0xbfafab6f	-1.3724192
8	0xbff6dc7c	-1.9286036
9	0xbf929b16	-1.1453578
10	0xbe86cf0a	-0.26329833

mu.0.weight f4 [200, 14]
0	0xbf9db86c	-1.2321906
1	0xc00b55b3	-2.1771057
2	0x401ed82c	2.481944
3	0x3fa2c0e4	1.2715116
4	0xbe0fb4da	-0.14033833
5	0xbe1a12e7	-0.15046273
6	0xbc54e336	-0.012993624
7	0x3d758067	0.059936907
8	0xbd42de6d	-0.047575403
9	0xbd340c74	-0.04395719
10	0xbd24a4ca	-0.040196218
11	0x3bf76aac	0.007550558
12	0xbd8fd558	-0.07023114
13	0xbde8291e	-0.113359675
14	0xbea76164	-0.3269149
15	0xbf25bd09	-0.6474157
16	0x40eb6f49	7.3573346
17	0x3e81d0fa	0.2535475
18	0x3d4ddf65	0.050261874
19	0xbd2cd3be	-0.04219412
20	0x3c5a5b3c	0.013327416
21	0xbdd94aca	-0.10609968
22	0x3e8838be	0.2660579
23	0x3c658bd9	0.014010393
24	0x3b3e3d1f	0.002902813
25	0x3ec2a730	0.3801818
26	0xbd72daa7	-0.059290554
27	0xbe3c1eb4	-0.18371087
28	0xbf6d5ca0	-0.9271946
29	0xc00b09f1	-2.1724818
30	0x40db910f	6.8614573
31	0x3f97374a	1.1813748
32	0x3e6d3a4c	0.2316677
33	0x3d35e3d6	0.044406734
34	0xbe8290e6	-0.25501174
35	0xbba6e5ec	-0.005093327
36	0x3ae267f1	0.0017273409
37	0xba4b37d9	-0.00077521574
38	0xbc5494d0	-0.012974933
39	0xbeb8013e	-0.35938448
40	0x3e3f983c	0.18710417
41	0xbe68841a	-0.22706643
42	0xbf736a4a	-0.9508406
43	0x3fe38cf9	1.7777396
44	0x3bf7b144	0.0075589735
45	0x3e8b943f	0.2726154
46	0x3e441c94	0.19151527
47	0xbf132e1e	-0.57492244
48	0x3d25cf34	0.040480807
49	0xbde90cea	-0.11379416
50	0x3df464ff	0.11933326
51	0x3e388f26	0.18023357
52	0x3cdd5585	0.027018318
53	0xbd894d2f	-0.06704175
54	0xbd173ed1	-0.03692514
55	0x3c8cb321	0.017175259
56	0xbf53af7f	-0.8268966
57	0xbf677b95	-0.90422946
58	0x3f13dde1	0.57760435
59	0x3ea6f373	0.32607612
60	0xbe929d8d	-0.28635827
61	0x3d9d8a35	0.076923765
62	0xbd6f4b19	-0.058421228
63	0xbdf5c7d7	-0.12001007
64	0x3dae0dfa	0.084987596
65	0x3d2ae9f2	0.041727014
66	0x3a934357	0.0011235279
67	0xbd5bc2e7	-0.05365267
68	0x3cf5d36e	0.030008044
69	0x3d96c62d	0.07362018
70	0xbd21d025	-0.039505143
71	0xbf06b93b	-0.5262639
72	0x4096938f	4.7055125
73	0x40827b86	4.0775785
74	0xbf72364e	-0.9461411
75	0xbef67d55	-0.48142496
76	0xbdd7ff88	-0.105467856
77	0x3edb4d86	0.42832583
78	0xbeb733db	-0.3578175
79	0xbe11ed90	-0.14250779
80	0x3bb474ab	0.005507072
81	0x3d0b8731	0.034064475
82	0x3dcd891f	0.100359194
83	0xbc98be37	-0.018645389
84	0xbdf36c6b	-0.118859135
85	0x3f3619fb	0.71133393
86	0x3f422ac0	0.7584648
87	0xbec5dd07	-0.38645193
88	0xbd0e74d7	-0.034779396
89	0xbf22b114	-0.6355145
90	0xbe9b7b15	-0.30367342
91	0xbe690879	-0.22757138
92	0x3e9911ee	0.29896492
93	0x3e1a1761	0.15047981
94	0xbb475b73	-0.0030419498
95	0x3e4767cc	0.19473189
96	0xbe17b160	-0.14813757
97	0xbd75f118	-0.060044378
98	0xbee4c0fb	-0.44678482
99	0xbe8eb049	-0.2786887
100	0x3ef3d948	0.4762671
101	0x3e90ad47	0.282572
102	0x3d88d61e	0.066814646
103	0xbea8768d	-0.32902947
104	0x3c9d7b52	0.019223843
105	0x3cd393f6	0.02582739
106	0xbd73702d	-0.05943315
107	0x3c1e1a25	0.009649788
108	0x3cfdb562	0.03097028
109	0x3d1d43ec	0.038394853
110	0x3af400ed	0.0018615999
111	0x3d3db22d	0.0463125
112	0x3ddc125f	0.107456915
113	0x3b67a7e8	0.0035347883
114	0xbe38fbdb	-0.18064825
115	0xbda97d02	-0.082757965
116	0x3e9e6de6	0.3094322
117	0xbd3fdaec	-0.04683964
118	0xbd2bcd82	-0.041944034
119	0x3b4ee695	0.0031570543
120	0xbd9721e2	-0.073795095
121	0xbc9b7c90	-0.018980294
122	0xbc6095d2	-0.013707595
123	0x3fce641c	1.6124301
124	0xbd832a1c	-0.06404516
125	0x3cca54c3	0.02469862
126	0xbebb1228	-0.3653729
127	0x3f91c4e9	1.1388217
128	0x3ffab6f5	1.9587084
129	0x3f05176f	0.5198888
130	0xbd8561eb	-0.06512817
131	0x3d7e0060	0.062012076
132	0xbd39a703	-0.04532529
133	0xbda53289	-0.080662794
134	0xbc29a4dc	-0.010354247
135	0x3dc12e50	0.094326615
136	0xbd3c508f	-0.045975264
137	0xbd750569	-0.059819613
138	0xbd3f63c8	-0.04672602
139	0xbda44487	-0.08020883
140	0xbf11a6f4	-0.56895375
141	0xbf370723	-0.71495265
142	0x3f1b4676	0.6065439
143	0x3d59afd4	0.0531462
144	0xbd064423	-0.032779824
145	0x3d65066f	0.05591434
146	0xbdbf158e	-0.09330283
147	0xbe935373	-0.28774604
148	0x3e83bf11	0.2573171
149	0x3dfd55cf	0.12369882
150	0x3d0b9e34	0.03408642
151	0x3d704452	0.058658905
152	0xbd10eb39	-0.035380576
153	0x3e19e55f	0.15028904
154	0xc00c81aa	-2.195414
155	0x3f2bb877	0.67078346
156	0x3f535778	0.8255534
157	0x3f8c6699	1.096881
158	0x3ffdf648	1.9840784
159	0x3a2b04fa	0.0006523874
160	0xbe7312a7	-0.23737584
161	0x3dae7e2f	0.08520161
162	0xbd9f131f	-0.07767319
163	0xbc9730fd	-0.018455977
164	0xba727ab2	-0.00092498504
165	0xba4415eb	-0.00074800727
166	0x3daae854	0.08345094
167	0x3d124a7d	0.03571557
168	0xbf93c403	-1.1544193
169	0xbf5e78b3	-0.8690292
170	0x3f548c16	0.83026254
171	0xbe20dda1	-0.15709545
172	0xbdfd2be0	-0.12361884
173	0xbdf1d8bb	-0.11808916
174	0x3e41a3b1	0.189101
175	0x3d96eeb2	0.07369746
176	0xbd87c7ae	-0.06629883
177	0xbe711efe	-0.23546979
178	0xbd8d5d58	-0.069025695
179	0xbeaa556c	-0.33268297
180	0xbecb1aed	-0.3966898
181	0xbe186537	-0.1488236
182	0xbfac79fc	-1.3474727
183	0xbf22b0fd	-0.6355131
184	0x3e8749f7	0.26423618
185	0x3de2b076	0.110688135
186	0x3f1e26b0	0.6177778
187	0xbe6fb669	-0.23409428
188	0x3e5d1821	0.21591236
189	0xbd75d96b	-0.0600218
190	0xbc524d7f	-0.012835859
191	0x3e03c3b5	0.12867625
192	0x3b9b49db	0.004739029
193	0xbe96a7bf	-0.29424855
194	0x3e653490	0.22383332
195	0xbe27f377	-0.16401468
196	0xbf6be57c	-0.9214704
197	0xbfc99f66	-1.575177
198	0xbd90e09c	-0.07074091
199	0x404e6d65	3.225427
200	0x3b83239a	0.004002047
201	0x3d49594f	0.049157437
202	0x3dd05578	0.10172552
203	0x3ce65dd1	0.028120907
204	0xbc9d102d	-0.019172752
205	0x3e572688	0.21010792
206	0x3d1033fa	0.03520582
207	0xbbfa072c	-0.0076302495
208	0x3ed5b9ba	0.4174326
209	0xbe114d5b	-0.14189665
210	0x3e64070e	0.22268316
211	0x3e6e5a41	0.23276617
212	0xbdae0313	-0.0849668
213	0x3cf3ace8	0.029745534
214	0x3dd1bf20	0.10241532
215	0x3c1a2fcd	0.009410811
216	0xbdc9fd6c	-0.098627895
217	0xbd57aa13	-0.05265243
218	0x3d149017	0.036270227
219	0x3c213d0f	0.009841218
220	0xbead99be	-0.33906358
221	0xbcd67b1e	-0.026181754
222	0xbc66f01f	-0.014095335
223	0x3d109c66	0.035305403
224	0xbe670fd2	-0.22564629
225	0xbf30b19c	-0.6902101
226	0x3daf5985	0.08561996
227	0x3ec19946	0.3781225
228	0xbe4f08d0	-0.20218205
229	0xbdef714c	-0.116915315
230	0x3d168c13	0.03675468
231	0x3cce647d	0.0251944
232	0x3d9bd007	0.076080374
233	0x3de49eb8	0.11163086
234	0x3b904868	0.0044031627
235	0x3e79bec8	0.24389184
236	0xbe18ae4a	-0.14910236
237	0xbcaa8a89	-0.020818012
238	0xbf8e2b81	-1.1107026
239	0x3eb1d718	0.34734416
240	0x41600997	14.002341
241	0x3f83fbb1	1.0311185
242	0x3d03b7de	0.03215777
243	0x3e78d122	0.24298528
244	0x3caa40f3	0.020782923
245	0x3cc124fa	0.023577202
246	0x3e43ae1d	0.19109388
247	0xbb1be3f6	-0.0023786998
248	0xbd0090a3	-0.031387936
249	0x3f8d0d77	1.1019734
250	0xbc31655f	-0.010827391
251	0xbc9aba18	-0.018887565
252	0x3f1ee81c	0.6207292
253	0x3f29b75e	0.6629542
254	0xbedc0a0a	-0.4297641
255	0xbe745709	-0.23861326

mu.0.bias f4 [200]
0	0x3feb8561	1.8400079
1	0xbf64f89a	-0.89441836
2	0xbef04103	-0.469246
3	0xbeb3cba2	-0.35116297
4	0x3ecc905c	0.39953887
5	0xbf69e597	-0.9136595
6	0xbf8fc0ad	-1.1230675
7	0xbe5be674	-0.2147463
8	0xc015fa85	-2.3434155
9	0xbf42e970	-0.7613745
10	0xbf62a12a	-0.88527167
11	0x3f30555d	0.68880254
12	0xbf7b41f7	-0.9814753
13	0xbdf1ad77	-0.11800664
14	0xbf695f2f	-0.91160864
15	0xc065d0f9	-3.5908797
16	0xbf5043e0	-0.8135357
17	0xbea008b5	-0.31256643
18	0xc0133db8	-2.300642
19	0x3ed7c6cd	0.4214386
20	0x3f0c54b7	0.54816765
21	0x3f0956cb	0.5364806
22	0x3dfa9344	0.1223512
23	0xbf2288ff	-0.6349029
24	0xbfa65b21	-1.299656
25	0xbfa9bbc7	-1.326043
26	0xbfdb62c4	-1.7139516
27	0xbe8d00a9	-0.27539566
28	0xbeab2cec	-0.3343271
29	0xbf143bf9	-0.5790401
30	0xbff6b15d	-1.9272877
31	0xbf1401ad	-0.5781506
32	0xbec794a3	-0.38980588
33	0xbe9ee6e8	-0.31035542
34	0xbfedb396	-1.857043
35	0x3d88c435	0.066780485
36	0xbf5fbcae	-0.8739728
37	0xbea7b000	-0.32751465
38	0xbf5e3ce8	-0.86811686
39	0xbf663837	-0.8992953
40	0x3e44381c	0.19162029
41	0xbf68c946	-0.9093212
42	0xbf26227d	-0.64896375
43	0x40164242	2.347794
44	0xbf1371a1	-0.5759526
45	0xbf1910aa	-0.5979105
46	0xbd9b6cf6	-0.07589142
47	0xbdd179d9	-0.10228319
48	0xbef6cf62	-0.48205096
49	0xbe7d4688	-0.24733937
50	0xbf2c4bc7	-0.6730313
51	0xbedec80a	-0.43511993
52	0xbf40c8de	-0.753065
53	0xbe6e80d9	-0.23291339
54	0xbf1d4f5f	-0.61449236
55	0x3fad912c	1.3559928
56	0xbf1953c8	-0.59893465
57	0xbff82fcc	-1.9389586
58	0xc02791a2	-2.6182637
59	0x3f46f662	0.777197
60	0xbf391c62	-0.72308934
61	0xbf4879b5	-0.7831071
62	0xbfd8695a	-1.6907151
63	0xbf33eff1	-0.70287997
64	0xbda79dea	-0.081844166
65	0xbfba2e6b	-1.4545416
66	0xbf0b9dee	-0.54537857
67	0xbf35b204	-0.70974755
68	0x3e32b8de	0.17453334
69	0xbfbb3379	-1.4625083
70	0xbf04db0c	-0.5189674
71	0xbfa936e6	-1.3219879
72	0x3f0df847	0.55456966
73	0x400de785	2.2172558
74	0x3e6ebddc	0.23314613
75	0xbe9fdf6b	-0.31225142
76	0xbfa4377f	-1.2829436
77	0x3de774e9	0.11301596
78	0xbf367416	-0.71270883
79	0xbf0fcd19	-0.5617233
80	0x3e5b7d8b	0.2143461
81	0xc0313aa9	-2.7692053
82	0xbea8d975	-0.32978407
83	0xbf3b4c39	-0.7316318
84	0xbf3abeba	-0.72947276
85	0xbe843118	-0.25818706
86	0xbf65c9c1	-0.8976098
87	0xbed9be07	-0.42527792
88	0xbfabd03f	-1.3422927
89	0xbfed1bef	-1.852415
90	0xbf85322b	-1.0405935
91	0xbf03fa6c	-0.5155399
92	0xbf88838e	-1.0665147
93	0x3f53ab1b	0.8268296
94	0xbf214a6f	-0.630042
95	0xbf6c07ff	-0.921997
96	0xbfb9f5ab	-1.4528097
97	0xbe37f5d1	-0.17964865
98	0xbf2e2d48	-0.68037844
99	0xbf644cb7	-0.8917956
100	0xbf12eb2e	-0.57390106
101	0xbf810806	-1.0080574
102	0xbf0d513c	-0.5520208
103	0xbf88b2ff	-1.0679625
104	0xbee03fdf	-0.4379873
105	0xbe53429a	-0.20630875
106	0xbf3c2017	-0.73486465
107	0x3d2e8f4f	0.04261714
108	0xbf9753df	-1.182247
109	0xbe0fbae6	-0.1403614
110	0xbf3b5b7e	-0.7318648
111	0xc00bb193	-2.1827133
112	0xbe9f3a9f	-0.31099412
113	0x3f3fef93	0.74974936
114	0xc00cf812	-2.202641
115	0xbf3a1957	-0.72694916
116	0xc012ab58	-2.291708
117	0xbfddf79e	-1.7341192
118	0x3eb333e6	0.35000533
119	0xbedaabb0	-0.42709112
120	0xbf78a3fa	-0.9712521
121	0x4006225e	2.0958476
122	0xbe4789d9	-0.19486178
123	0xbfbc95bc	-1.4733195
124	0x400d6474	2.2092562
125	0xc03d1f71	-2.955044
126	0xbf468204	-0.7754214
127	0xc00fe219	-2.248175
128	0xbf2c2cfd	-0.67256147
129	0xbf685e94	-0.90769315
130	0x402fa7d7	2.7446191
131	0xbf907596	-1.1285884
132	0xbd5e204f	-0.05423003
133	0xbfbf21c8	-1.4932184
134	0xbf73c001	-0.9521485
135	0xbf7a64ed	-0.9781025
136	0xbeace32d	-0.3376707
137	0xbf3f6814	-0.74768186
138	0xbf7fb613	-0.998872
139	0xbf85a87f	-1.0442046
140	0xbdd0f11b	-0.10202237
141	0x3f087f10	0.5331888
142	0xbf7dfff2	-0.99218667
143	0xbe98ecdc	-0.2986821
144	0xc021ba32	-2.5269895
145	0xbf5b874c	-0.8575332
146	0xbf94f627	-1.163762
147	0xbdc1aa5e	-0.09456323
148	0x3f2ea302	0.6821748
149	0x3e1d250e	0.15346166
150	0xbf97e9d7	-1.1868237
151	0xbef35eb0	-0.47533178
152	0x3f163709	0.58677727
153	0xbe339811	-0.17538477
154	0xbeccfb25	-0.40035358
155	0xc04ada55	-3.169576
156	0xbfc90d01	-1.5707093
157	0xbef24d3b	-0.47324547
158	0xbec247ca	-0.37945396
159	0xbfda17e5	-1.7038542
160	0x3d005129	0.0313274
161	0xbf94d819	-1.1628448
162	0xbf98236c	-1.188581
163	0xbf5282b6	-0.822307
164	0x3fa6cd3a	1.303138
165	0x3e2714dd	0.16316552
166	0x3d207cd3	0.03918154
167	0x3e8b21f0	0.2717433
168	0x3e817b1b	0.25289235
169	0xbe8ca446	-0.2746908
170	0xbf242f56	-0.6413473
171	0x3fa1223c	1.2588573
172	0x400b6527	2.1780488
173	0x3f619454	0.88116956
174	0xbffa95b3	-1.9576935
175	0xbf5b7a2b	-0.8573329
176	0xbf3277c0	-0.69713974
177	0xbf195a5b	-0.59903497
178	0xbef05ea2	-0.469472
179	0xbee9784b	-0.4559959
180	0x3f542e3e	0.8288306
181	0xbfd219c3	-1.6414112
182	0xc0198ed9	-2.3993437
183	0xc0271183	-2.6104438
184	0xbf3edaee	-0.7455281
185	0xbf5f4fbe	-0.8723105
186	0xc00b4a81	-2.1764224
187	0xc015e1c0	-2.3419037
188	0xbfe7b769	-1.8102847
189	0xbec4754d	-0.38370743
190	0xbf5fb6f5	-0.87388545
191	0xbfbb47f9	-1.4631339
192	0xbfc9dc90	-1.5770435
193	0xbeb6441d	-0.3559884
194	0xbf2d3fd2	-0.6767551
195	0x401559fd	2.3336174
196	0xbdc8b615	-0.098003544
197	0xbe43091c	-0.19046444
198	0xbfa360f9	-1.2763969
199	0xc036f8dd	-2.8589394

mu.2.weight f4 [11, 200]
0	0xbd1d81c9	-0.03845385
1	0xbd4a9034	-0.04945393
2	0x3d826d96	0.06368558
3	0x3d557833	0.052116584
4	0xbc2991c7	-0.010349697
5	0xbd0d67c4	-0.034522787
6	0x3bd7143c	0.0065636914
7	0x3d527e35	0.05138989
8	0xbb90f691	-0.0044239243
9	0xbd27f5b8	-0.04100582
10	0x3d55f2f8	0.052233666
11	0xbd3a2066	-0.045441054
12	0x3cb7ed3d	0.022451991
13	0xbb389d51	-0.002816994
14	0x3c3b0f63	0.011417243
15	0x3bc311ff	0.005953073
16	0xbdaf93ec	-0.08573136
17	0xbb97b017	-0.004629146
18	0xba5ad841	-0.00083482644
19	0xbbcfa5ef	-0.0063369195
20	0xbcedf0d9	-0.02904551
21	0xbc99a2c1	-0.018754365
22	0x3b4ed667	0.00315609
23	0xbe31e4d2	-0.17372444
24	0x3d83a014	0.06427017
25	0x3d2f164c	0.042745873
26	0x3b3d5579	0.0028890057
27	0xbc0a8065	-0.008453463
28	0x3bf8c046	0.00759128
29	0xbcdfb1fc	-0.02730655
30	0x3c9088ea	0.01764341
31	0xbd2cec10	-0.042217314
32	0x39def19d	0.00042523156
33	0xbc7e5356	-0.0155227985
34	0xbd462b9a	-0.048381425
35	0x39ee26cf	0.00045423812
36	0xbdbeb8d0	-0.09312594
37	0xbbb633ee	-0.0055603897
38	0x3c780485	0.015137796
39	0x3de23f84	0.11047271
40	0xbd063319	-0.032763574
41	0x3caa07ae	0.020755615
42	0xbcb09b75	-0.021558503
43	0x3c5ac953	0.0133536635
44	0xbb66f95c	-0.0035243845
45	0x3afe4f00	0.0019402206
46	0xbba74586	-0.0051047234
47	0x3b73f987	0.0037227587
48	0xbaf9e640	-0.0019065812
49	0xbd3a8e27	-0.045545723
50	0xbdd7b020	-0.1053164
51	0x3dd02c6a	0.10164721
52	0xbd56649f	-0.052342054
53	0x3be8e9e2	0.007107959
54	0x3da28cb4	0.07936993
55	0xbd2b9bb6	-0.041896544
56	0xbddf5f4e	-0.1090685
57	0xbb4aeaec	-0.0030962778
58	0x3bd11d18	0.006381642
59	0xbca26b43	-0.019826537
60	0x3db25cb9	0.08709092
61	0xbc37098a	-0.011171708
62	0x3b260eaa	0.002533833
63	0xbc8a0590	-0.016848356
64	0xbaee8ed6	-0.0018200527
65	0x3cccea42	0.025014047
66	0xbc5698af	-0.013097926
67	0x3dad5f2e	0.0846542
68	0x3d044299	0.032290075
69	0x3b9793af	0.0046257596
70	0xbb960591	-0.0045783003
71	0xbb617bc3	-0.0034406043
72	0x3c1a74f1	0.009427295
73	0x3c8a3522	0.016871039
74	0x3b98d175	0.004663641
75	0x3e1b8dea	0.15190855
76	0x3dfb4cec	0.12270531
77	0xbd691867	-0.056908038
78	0xbd8de833	-0.06929054
79	0xbcaca7a6	-0.021076035
80	0xbd1f9229	-0.03895775
81	0x3bcc804e	0.006240881
82	0xb8da0150	-0.000103952945
83	0xbc5cb1d0	-0.013470128
84	0x3cad4b7e	0.021154162
85	0x3d49cb91	0.0492664
86	0xbdb2aab1	-0.08723963
87	0xbadc022b	-0.0016785314
88	0x39b98967	0.00035388322
89	0xbc4f9178	-0.01266896
90	0xbddab9e3	-0.10679986
91	0x3cb37eae	0.021910992
92	0x3e04cfc5	0.12969883
93	0x3c403e04	0.011733536
94	0xbdb49cdf	-0.08818983
95	0xbbf33d2e	-0.0074230647
96	0x3da9f25d	0.0829818
97	0xbd204eee	-0.039137773
98	0xbd49d4b2	-0.049275108
99	0xbb9bea08	-0.0047581233
100	0x3c0286b1	0.007966683
101	0xbd07b228	-0.033128887
102	0x3ccaa94c	0.02473893
103	0x39bb3371	0.00035705746
104	0x3c4b27f4	0.012399662
105	0xbc8b7014	-0.017021216
106	0xbd77713e	-0.06041073
107	0xbc5e5115	-0.013569136
108	0x3d0124c3	0.0315292
109	0xb8dc9ae9	-0.00010519272
110	0x3d109e16	0.035307012
111	0x3c9b27bc	0.018939845
112	0x395cae1c	0.00021045696
113	0xbb62aaa3	-0.003458657
114	0x3949f24f	0.00019259121
115	0xbc6024b0	-0.013680622
116	0x3c6b8ab0	0.014376327
117	0xbc9eaa93	-0.019368446
118	0x3d9a5275	0.07535259
119	0xbb568462	-0.0032732715
120	0xbda2aa7a	-0.07942672
121	0xbc0d8e53	-0.00863989
122	0x3b80edb2	0.0039345855
123	0x3e1c0c27	0.15239011
124	0x3c839f09	0.016067045
125	0x3ceefe83	0.029174095
126	0x3d999d98	0.07500762
127	0xbb28eb8c	-0.0025775163
128	0x3c1aad66	0.0094407555
129	0x3dc5b17f	0.09652995
130	0x3d9cf434	0.076637655
131	0x3d6ce62f	0.057836708
132	0xbb591b5c	-0.003312788
133	0x3a88bab5	0.001043162
134	0x3d2645f0	0.04059404
135	0xbcb28e50	-0.021796376
136	0xbc268c3d	-0.010165271
137	0xbd7a84da	-0.061161853
138	0xbd803ccf	-0.06261598
139	0x3ba88851	0.0051432033
140	0xbbeb1f4d	-0.007175362
141	0x3bf9bc68	0.0076213367
142	0xbd4ba30a	-0.049716033
143	0x3d079450	0.033100426
144	0x3b5ff3aa	0.0034172335
145	0xbd8a444d	-0.067513086
146	0x3bdae74e	0.0066804057
147	0x3c1843e5	0.009293531
148	0xbc64849f	-0.013947635
149	0x3c93e585	0.01805378
150	0xbcaa764a	-0.020808358
151	0x3d5b9818	0.053611845
152	0xbb111a0b	-0.0022140767
153	0xbbb392e2	-0.0054801563
154	0x3d20f4e1	0.039296035
155	0x38441b37	4.6755387e-05
156	0x3dac56a4	0.08414963
157	0xbd7292f2	-0.05922217
158	0xbc22dc65	-0.009940241
159	0x3c244ec9	0.0100285495
160	0x3daccb0c	0.084371656
161	0x3d20f05e	0.039291732
162	0xbbf79cdf	-0.0075565423
163	0x3c72cfac	0.014820021
164	0xbc7be75e	-0.015374986
165	0xbb58e418	-0.003309494
166	0xbc5cfa24	-0.013487373
167	0xbca54469	-0.020174222
168	0x3c293446	0.010327404
169	0xb97c5ba3	-0.0002406673
170	0x3c277f9d	0.0102232965
171	0x3c335432	0.010945367
172	0xbafe75f7	-0.0019413818
173	0x3af91eca	0.0019006368
174	0x3d554e44	0.052076593
175	0x3c0e7954	0.008695919
176	0xbc441449	-0.011967727
177	0xbda41523	-0.08011844
178	0xbbf79478	-0.0075555407
179	0xbc89368e	-0.016749647
180	0xbbc0c24c	-0.005882537
181	0x3b579a69	0.0032898432
182	0xbbe4ebf1	-0.006986134
183	0xbc680041	-0.014160217
184	0xbd3ad690	-0.04561478
185	0xbd594413	-0.053043436
186	0x3b28536e	0.0025684494
187	0x3c99ab4d	0.01875844
188	0xbc9ee8b7	-0.019398076
189	0x3b1f9546	0.0024350449
190	0xbd2c222c	-0.042024776
191	0x3dab199c	0.08354494
192	0xbbdd3df2	-0.006751769
193	0xbe23b1d3	-0.15985803
194	0x3c64dfa8	0.013969339
195	0x3d75692b	0.05991475
196	0xbb47fbd5	-0.0030515094
197	0x3a5b1ef4	0.00083587994
198	0xbbe88999	-0.007096481
199	0x3b4b0116	0.003097599
200	0xbc02f413	-0.007992762
201	0xbd4ecb30	-0.050486743
202	0xbcbd9fbf	-0.023147462
203	0xbd37c1e8	-0.044862658
204	0x3c8254cd	0.015909577
205	0xb91247b8	-0.00013950362
206	0x3c7ecc19	0.01555159
207	0xbdc4900f	-0.095977895
208	0xbd348ee9	-0.044081602
209	0x3baa87e8	0.0052041896
210	0xbc92ac37	-0.017904384
211	0xbc6ca859	-0.014444434
212	0x3ca41169	0.020027833
213	0xbd0fa853	-0.035072636
214	0xbc20a067	-0.009803868
215	0xbbaa07b2	-0.0051889056
216	0x3cf9a00f	0.03047183
217	0xbaa5be6d	-0.0012645252
218	0xbbac12b1	-0.0052512516
219	0xbd0902dd	-0.033449996
220	0xbb41bfbe	-0.002956375
221	0xbc488999	-0.012239837
222	0x3c3ece25	0.011645828
223	0xbe043613	-0.12911253
224	0x3d2cf752	0.04222805
225	0x3d9761d8	0.07391709
226	0xbcf8c915	-0.03036932
227	0xba275f61	-0.0006384757
228	0xbc9c677c	-0.019092314
229	0xbbdf888a	-0.0068216966
230	0xbc30acab	-0.010783355
231	0xbaa2e858	-0.0012428863
232	0x3cc9a8c4	0.024616607
233	0x3c418fc2	0.01181406
234	0x3b643f2b	0.003482769
235	0xbd466973	-0.048440408
236	0xbd90ad27	-0.07064276
237	0xbb3c9e94	-0.0028781043
238	0xbdc011df	-0.09378409
239	0x3dc8eb3e	0.09810494
240	0xbcfe8db2	-0.031073425
241	0xbc3f44fd	-0.011674163
242	0x3cf8ce18	0.03037171
243	0xbbb6e130	-0.0055810437
244	0x3c825c13	0.015913045
245	0xbbeaf3c1	-0.007170171
246	0x3d3c7f4c	0.046019837
247	0xbd14db2e	-0.03634184
248	0xbb07bafd	-0.002071082
249	0xbce12c94	-0.027487077
250	0x3dbc9e3b	0.092098676
251	0x3dc46b0a	0.095907286
252	0x3d175c06	0.036952995
253	0xbd5e15fc	-0.054220185
254	0xbd774101	-0.060364727
255	0xbab3cd18	-0.0013717739

mu.2.bias f4 [11]
0	0xbced8e6a	-0.028998572
1	0x3cb476fa	0.022029389
2	0x3d0005ca	0.03125552
3	0xbc9bd796	-0.019023698
4	0x3dd369b2	0.10322894
5	0xbf0b9d25	-0.5453666
6	0xbe220c1a	-0.15824929
7	0xc0096e9b	-2.1473758
8	0xbf1be4b0	-0.60895824
9	0xc06bc401	-3.6838381
10	0x40724021	3.785164

reward_fun.0.weight f4 [200, 14]
0	0xbd8189eb	-0.06325134
1	0x411582a0	9.344391
2	0x40923dbb	4.5700355
3	0x40b7b430	5.7407455
4	0x3ef69610	0.48161364
5	0xc0018e0a	-2.0242944
6	0xbe4b46c9	-0.19851221
7	0x3e642cf2	0.2228277
8	0x3fc8219c	1.5635257
9	0x3fb22d03	1.3919986
10	0x3ec2db5a	0.38057977
11	0x3eb591c4	0.35462773
12	0x3f383a9f	0.7196445
13	0xc00a1a92	-2.1578717
14	0xbfac2db0	-1.3451443
15	0x41149df5	9.288564
16	0xbfc58f8c	-1.5434432
17	0x3f28b378	0.6589885
18	0x3f1b9223	0.6076986
19	0xbc868958	-0.016422912
20	0x40135058	2.3017788
21	0xbf9fd507	-1.2486886
22	0x3f2a1548	0.6643872
23	0x3e0f2aa9	0.13981117
24	0x3ec49b9e	0.38399976
25	0xc06ebe25	-3.7303555
26	0x40096181	2.1465762
27	0xbfa162d0	-1.260828
28	0xbe88ed16	-0.26743382
29	0xbfb59f81	-1.4189302
30	0xbf3dc698	-0.74131155
31	0x4001363e	2.0189357
32	0xbf874019	-1.0566436
33	0xbf34aac7	-0.70573086
34	0xbf1ff26e	-0.62479293
35	0x3e229e5f	0.15880726
36	0xbdb474ae	-0.088113174
37	0xbef55ad7	-0.47920868
38	0x3ee3c4a4	0.44485962
39	0xbff36cdc	-1.9017596
40	0xbfdeadf7	-1.739684
41	0xbff45f76	-1.9091632
42	0xbedfeaf4	-0.43733943
43	0x40b2ceb4	5.5877323
44	0x3faa5e03	1.330994
45	0x3e1c6469	0.15272678
46	0xbf9c9a35	-1.223456
47	0xc0589df4	-3.3846407
48	0x3e8a0298	0.26955104
49	0x3f4bd03b	0.7961461
50	0x3dcb9b01	0.09941674
51	0xbf56953d	-0.8382147
52	0x3deaa959	0.11458082
53	0xc01a6f8a	-2.4130578
54	0xbf15edcc	-0.58565974
55	0x4059b959	3.4019377
56	0x3dda98aa	0.106736496
57	0xc0e8e482	-7.277894
58	0x3ecb8eff	0.39757535
59	0x3f731623	0.9495565
60	0xbee396f8	-0.44451118
61	0xbf443696	-0.7664579
62	0xbfd8b411	-1.6929952
63	0xbeb8259d	-0.35966197
64	0xbebd2d45	-0.369486
65	0x3f158b88	0.5841603
66	0xbe9ac886	-0.30231112
67	0xbfcb1eb8	-1.586875
68	0xbf26f7de	-0.65221965
69	0x3f086681	0.5328141
70	0x3f521db4	0.82076573
71	0xc0d3e568	-6.6217537
72	0x40de7fcb	6.9530997
73	0x409f6457	4.9809985
74	0xbf709ef9	-0.93992573
75	0xbc351514	-0.011052389
76	0x3f01840a	0.505921
77	0xc04445ce	-3.0667605
78	0x4027ef13	2.623967
79	0x3fc8b0a7	1.567891
80	0x3e5ce576	0.21571907
81	0xbd3f1cc1	-0.04665828
82	0x3e90815d	0.28223696
83	0xbc6d1364	-0.014469955
84	0xbf673acb	-0.90324086
85	0xc01585f3	-2.3363006
86	0x3fedd116	1.8579433
87	0x3fa854b7	1.3150853
88	0x3e834386	0.25637454
89	0x3d2bd93f	0.04195523
90	0xbfe12d65	-1.7591978
91	0x3f00da43	0.5033304
92	0xbefe4725	-0.49663654
93	0x3e0a86f8	0.13528049
94	0xbf58dd2e	-0.84712493
95	0xbf05f2c9	-0.52323586
96	0xbde3c5b6	-0.11121695
97	0x3d868a80	0.065693855
98	0x3f4528b5	0.7701524
99	0xc09b555a	-4.854169
100	0x402e41dd	2.72277
101	0x3e8eae24	0.27867234
102	0x3ee397c8	0.44451737
103	0xbff51a0b	-1.9148573
104	0x402e5e86	2.7245193
105	0x3edfc376	0.43703812
106	0xbf48e80b	-0.7847907
107	0x3dbf7738	0.09348911
108	0x3e6903f6	0.22755417
109	0xbeeb51b1	-0.45960763
110	0xbf9d34b8	-1.2281713
111	0xbe22b829	-0.15890564
112	0xbfa3a22c	-1.2783866
113	0x40cad30a	6.3382616
114	0xbf38de3f	-0.7221412
115	0x3e1f65d2	0.15566185
116	0xbfb0c95e	-1.3811452
117	0x3f9237f0	1.1423321
118	0xbfd50697	-1.6642636
119	0x3f3e573e	0.7435187
120	0x3db9df73	0.09075823
121	0xbc57481f	-0.013139754
122	0xbcc422ca	-0.02394237
123	0x3f30286b	0.6881167
124	0x400aa773	2.1664703
125	0x3feb8c62	1.8402216
126	0xbf124e07	-0.5715031
127	0xc07aa2d6	-3.9161887
128	0x412d161e	10.8179
129	0x3f146abd	0.5797537
130	0x3e07269f	0.13198327
131	0xbf7f7dea	-0.99801505
132	0x3f87db9e	1.0613897
133	0xbe92ed87	-0.28696844
134	0xbf940acd	-1.1565796
135	0xbcdabed5	-0.026702324
136	0xbe88c4c5	-0.26712623
137	0xbeceebd8	-0.4041431
138	0x3f691872	0.91052926
139	0x3fbb3390	1.4625111
140	0xbf7e443a	-0.99322855
141	0x3fd54e82	1.6664584
142	0xc06fae53	-3.745015
143	0x4085a0f2	4.1758966
144	0xbda620ab	-0.081117
145	0xbf9bdbce	-1.2176454
146	0x3f83830d	1.0274369
147	0x3f5e23ee	0.86773574
148	0x3f3a3a7d	0.72745496
149	0x3f583af0	0.8446493
150	0xbe6ea77a	-0.23306075
151	0x3f66378d	0.89928514
152	0xc017fb18	-2.3747005
153	0x40202d4d	2.502765
154	0xc05e264f	-3.4710882
155	0x3f3582d7	0.7090277
156	0xc0c0c744	-6.0243244
157	0xc020650d	-2.5061677
158	0xc0435085	-3.0517895
159	0xbeda1333	-0.42592773
160	0x3f30ed61	0.6911221
161	0xbfa1a619	-1.2628814
162	0x3e0de5ff	0.13857268
163	0x3fb16942	1.3860247
164	0x3b29669e	0.0025848518
165	0xbf82994b	-1.0203031
166	0xbee247da	-0.44195443
167	0x3f966d24	1.1752057
168	0x3c0101d0	0.007873967
169	0x3f32ba3f	0.6981544
170	0x3e802bc8	0.25033402
171	0x3f7fcb50	0.99919605
172	0xbf87256d	-1.0558296
173	0xbca1b383	-0.019738918
174	0xc060c2f5	-3.5118992
175	0xbf716c80	-0.9430618
176	0x3fa18be3	1.2620815
177	0x3e8d7920	0.27631474
178	0xbe04b472	-0.1295946
179	0xbef38751	-0.47564176
180	0x3c0c88ac	0.008577507
181	0x3f158c92	0.5841762
182	0xbf9a28bd	-1.2043682
183	0xbea4f86b	-0.32220778
184	0x4071d6a9	3.7787268
185	0xc00dbf40	-2.214798
186	0x4016e250	2.357563
187	0xc00bfa93	-2.1871688
188	0x3fccafa3	1.59911
189	0x3f960488	1.1720133
190	0x3f17044e	0.58990943
191	0x3ffb3b27	1.9627427
192	0xbc9df61d	-0.019282395
193	0x3fbdc734	1.4826417
194	0x3d81e2f6	0.063421175
195	0x3fb79e58	1.4345198
196	0x3ec767a9	0.38946274
197	0x4118bb6c	9.545757
198	0x3f3fa56a	0.74861777
199	0x40372ebd	2.8622277
200	0xbf775b1e	-0.9662341
201	0xbf950251	-1.1641332
202	0xbfe092bf	-1.7544783
203	0xbe435857	-0.19076668
204	0x3f4b5588	0.79427385
205	0xbd40adbd	-0.04704069
206	0xbf050ce1	-0.51972777
207	0xbf4c74bc	-0.7986562
208	0xbe1fa7cc	-0.15591353
209	0xbf88151d	-1.0631443
210	0x3f7a1ded	0.97701913
211	0xc03fb693	-2.9955184
212	0xbe95cc72	-0.29257542
213	0xc01099a8	-2.2593784
214	0xbfebd832	-1.8425353
215	0xbfdc3068	-1.7202272
216	0x3ee5cc32	0.4488235
217	0xbf1f7580	-0.62288666
218	0x3f34eaa3	0.7067053
219	0xbecf606f	-0.4050326
220	0xbeb7843a	-0.35843068
221	0x3f3ad793	0.7298519
222	0xbf2d8a03	-0.67788714
223	0xbfbcb52b	-1.4742788
224	0xbf66f059	-0.9021049
225	0x41ad3613	21.651403
226	0x3f1230f1	0.5710593
227	0x3f2798be	0.6546744
228	0x3f13eef7	0.57786506
229	0xbe1174dd	-0.14204736
230	0xbe30835b	-0.17237608
231	0x3faef3e1	1.3668176
232	0xbebb161b	-0.36540303
233	0xbced3dad	-0.028960073
234	0xbd827761	-0.06370426
235	0x3fe91b93	1.821154
236	0x3ffc3557	1.9703778
237	0x3f935031	1.1508847
238	0x3f0d578a	0.552117
239	0x409055e2	4.5104837
240	0xbdd94ed7	-0.10610741
241	0xc0238a87	-2.55533
242	0xbf752a77	-0.9576792
243	0xc03a9c4a	-2.9157891
244	0xbedd2aaa	-0.43196613
245	0x3e0241b8	0.12720382
246	0xbf894dec	-1.0726905
247	0xbf27486b	-0.65344876
248	0xbcc2d7b3	-0.023784494
249	0xbf821100	-1.0161438
250	0xbd9740d2	-0.0738541
251	0x3ea75de4	0.3268882
252	0xbea3595f	-0.31904122
253	0xbc4ae2ca	-0.012383172
254	0xc019dd63	-2.4041374
255	0x3fd706b1	1.6798917

reward_fun.0.bias f4 [200]
0	0xbea5cc3c	-0.3238238
1	0xbfab16f4	-1.336638
2	0xbb6bdbe7	-0.0035989226
3	0xbf7fe336	-0.9995607
4	0x3ec741f4	0.38917506
5	0xc02d1663	-2.7044914
6	0x3f93e80e	1.1555192
7	0x3f22934c	0.6350601
8	0xbfd0b630	-1.6305599
9	0xbfa67bb0	-1.3006496
10	0xbfa36e67	-1.2768067
11	0xc0016209	-2.0216086
12	0xbef9b70e	-0.48772472
13	0xbfbba1f9	-1.4658805
14	0x3e532cfc	0.20622629
15	0xbf166b00	-0.5875702
16	0xc0030d60	-2.0476913
17	0xbf0bdd2f	-0.54634374
18	0xbf058477	-0.5215525
19	0xbfa12d9e	-1.2592046
20	0xc0041cb2	-2.0642514
21	0xbf57e859	-0.8433891
22	0xbfb57469	-1.417615
23	0xbf3e165e	-0.7425288
24	0xbfe5bee7	-1.7948884
25	0xc02b9acf	-2.6813238
26	0xc0424a11	-3.0357707
27	0x3e6bb25b	0.23017256
28	0xbf3a237e	-0.72710407
29	0xbed219ba	-0.41035253
30	0x3e555d24	0.20836312
31	0xbf7aedca	-0.9801909
32	0x3edf2cd3	0.43588886
33	0x3eb5fb63	0.35543355
34	0xbd2954e9	-0.041340742
35	0xc002dd8b	-2.044772
36	0xbf6ea107	-0.9321446
37	0xbf2fe4d9	-0.6870857
38	0x3d0d1ac7	0.034449365
39	0xbead99c9	-0.3390639
40	0xbeb468fa	-0.3523634
41	0xbf8a3447	-1.0797204
42	0xbfce5a60	-1.612133
43	0xbed1a814	-0.40948546
44	0x3d8f9f60	0.0701282
45	0xbc1b77a9	-0.009488978
46	0xbec9dcd9	-0.39426306
47	0x3ee1ba20	0.44087315
48	0xbff5b997	-1.9197263
49	0xc00e07e5	-2.2192318
50	0xbf7a6243	-0.97806185
51	0xbf1b60f1	-0.60694796
52	0xbf2ad24f	-0.66727155
53	0xbf9d1357	-1.2271527
54	0x3e930ea2	0.287221
55	0xbf8f6b8e	-1.1204698
56	0xc02feca9	-2.7488196
57	0x3f155b5d	0.58342534
58	0xbff2f600	-1.8981323
59	0xbeae00f8	-0.33985114
60	0xbe4ca89d	-0.19986196
61	0xbfa0ec46	-1.2572105
62	0x3e33f09a	0.17572251
63	0xbf406f1c	-0.7516954
64	0x3d1fd3cd	0.03902035
65	0x3e8e0fb0	0.27746344
66	0xc04c303b	-3.1904438
67	0xbc9716ad	-0.01844343
68	0xbf3ffc5a	-0.7499443
69	0xbe8514c0	-0.25992393
70	0xbfd9b28a	-1.7007611
71	0xbfbbdf99	-1.4677612
72	0xbf42b4e9	-0.76057297
73	0xbfede568	-1.8585634
74	0xbfd51778	-1.6647787
75	0xbfd6a6e3	-1.676968
76	0xc00d8f1d	-2.21186
77	0xbe907cd7	-0.28220245
78	0xc0163140	-2.346756
79	0x3fe5cbe3	1.7952846
80	0x3bd31365	0.006441521
81	0x3ece5d0e	0.4030537
82	0xbfaed978	-1.3660116
83	0xc030a86c	-2.7602797
84	0xbf2079ca	-0.62685835
85	0xc0099af8	-2.1500835
86	0xbf819b5a	-1.0125535
87	0xbeeb2a42	-0.45930678
88	0xbe2ba457	-0.1676191
89	0x3f3031d7	0.6882605
90	0xc025e940	-2.5923615
91	0xbfc9d60d	-1.5768448
92	0xbf5af459	-0.85529095
93	0xbfc7049c	-1.5548282
94	0xbfd39f1c	-1.6532931
95	0xc02ce2fa	-2.7013535
96	0xbfceb424	-1.6148725
97	0xbfd9cae2	-1.701504
98	0xbefe97c7	-0.49725172
99	0x3e33833b	0.17530529
100	0x3e0f97f6	0.14022812
101	0xbf4b1e3b	-0.79343003
102	0xc05b9d90	-3.4314919
103	0xbf20e422	-0.62848103
104	0x3ec3e602	0.3826142
105	0xc0340b50	-2.8131905
106	0xbf81a73f	-1.0129164
107	0xbf84894e	-1.0354402
108	0xbfa8c523	-1.3185161
109	0xbf62e99a	-0.886377
110	0xbee41127	-0.44544336
111	0xc0455f7f	-3.0839536
112	0x3e805fbf	0.25073048
113	0xbf408d33	-0.7521545
114	0xbf32869e	-0.6973666
115	0x3dbedf7f	0.09319972
116	0xc045fdb6	-3.0936103
117	0xbf47d82f	-0.78064245
118	0xbec94ab7	-0.39314815
119	0xbf5a3e9b	-0.8525178
120	0xbf88266c	-1.0636725
121	0x3e160871	0.14651658
122	0xc04ded2c	-3.2176008
123	0xbeed5118	-0.46350932
124	0xc034ebe0	-2.8268967
125	0xbf15eb0d	-0.58561784
126	0x3eaa3027	0.33239862
127	0xbe911371	-0.28335145
128	0x3e87cb35	0.26522222
129	0xbf5ecd43	-0.87031955
130	0xbf2b37e9	-0.6688219
131	0xc012aad5	-2.2916768
132	0xbf28bf7c	-0.6591718
133	0x3f034dc0	0.5129051
134	0x3f91c25d	1.138744
135	0xbf8454a1	-1.0338327
136	0xbf37c5d7	-0.71786255
137	0xbfc7851f	-1.55875
138	0xbfd0fd76	-1.632735
139	0xc02ac06c	-2.6679945
140	0xbf84c502	-1.0372622
141	0xc0421d19	-3.033026
142	0xbfbc8c2d	-1.4730278
143	0xbfd96cfd	-1.6986386
144	0x3ece1f97	0.40258476
145	0xbd0632f9	-0.032763455
146	0xbddadb5e	-0.10686372
147	0xbf85e472	-1.0460341
148	0xbcbcf150	-0.023064286
149	0xbf2e39bb	-0.6805684
150	0xbfd47b24	-1.660008
151	0xbf144305	-0.57914764
152	0xbf07d453	-0.53058356
153	0xbf8b3505	-1.0875555
154	0x3ecd1938	0.40058303
155	0xbef1c4b3	-0.47220382
156	0x3eb4fc9d	0.3534898
157	0xbe8abc47	-0.2709677
158	0xbf42d1d1	-0.76101404
159	0xc00eb2d0	-2.2296638
160	0xbdd05246	-0.101719424
161	0xbf13f7cb	-0.5779998
162	0xbf8fab94	-1.1224236
163	0xbfba1cd9	-1.4540054
164	0x3f47b758	0.78014135
165	0xc0040f03	-2.0634162
166	0xbf88b7d3	-1.0681099
167	0xbe710b88	-0.23539555
168	0xbd71cd8e	-0.059033923
169	0xbebd3e2c	-0.36961496
170	0xbec1628d	-0.377705
171	0xbfb6b758	-1.4274702
172	0xbf3af184	-0.73024774
173	0xc002050b	-2.0315578
174	0x3f2e08c4	0.67982125
175	0xbf8eedbd	-1.1166302
176	0x3f0eca9e	0.5577792
177	0x3fd0f87b	1.632583
178	0x3f4faa56	0.81119287
179	0x3e32e750	0.17471051
180	0xbe8b2862	-0.27179247
181	0xbfa4bcca	-1.2870114
182	0xbfe6c1ba	-1.8027871
183	0xc02514c2	-2.579392
184	0xbeec5bbf	-0.46163747
185	0xbf6ebd51	-0.93257624
186	0xbfba5687	-1.4557656
187	0xbe916d00	-0.28403473
188	0xbee77e19	-0.45213392
189	0x3d890e08	0.066921294
190	0xbf0eb300	-0.5574188
191	0xbf764ede	-0.9621409
192	0xbfa6ebab	-1.304067
193	0xbe5cae3a	-0.21550837
194	0xbebd81f9	-0.37013224
195	0xbecccc89	-0.39999798
196	0xbe7e52d2	-0.24836281
197	0x3d46127f	0.048357483
198	0xbdd1a33b	-0.10236212
199	0xbfa26ff5	-1.2690417

reward_fun.2.weight f4 [200, 200]
0	0xc04582c3	-3.086106
1	0x3f0d9516	0.5530561
2	0x3f6de1f2	0.9292289
3	0x3f522f5f	0.8210353
4	0x3f23dc5d	0.6400812
5	0x40e62219	7.1916623
6	0x3ee10009	0.4394534
7	0xbfef05e8	-1.8673677
8	0xc0a7d6ba	-5.2449617
9	0x3cbd5424	0.02311141
10	0x3db9f54e	0.09079991
11	0xc02787f8	-2.6176739
12	0xbeae18de	-0.34003347
13	0x3f181caf	0.5941877
14	0x3fca27a0	1.5793343
15	0xbf2665f4	-0.6499932
16	0xbdb63f96	-0.08898847
17	0xbf613357	-0.87968963
18	0x3e926c18	0.28598094
19	0x3f186598	0.5953002
20	0xc00a26b7	-2.158613
21	0xbf9d0089	-1.2265788
22	0xbfaff79b	-1.3747438
23	0xc0500c85	-3.2507641
24	0xbed3781b	-0.4130257
25	0x3e0af139	0.13568582
26	0x3fb9d5d5	1.4518381
27	0xbf63a0ac	-0.8891704
28	0x4009ad78	2.1512127
29	0x3f1dce51	0.6164294
30	0xbf61bafc	-0.8817594
31	0xbf9413f3	-1.1568588
32	0x3e7bb8c2	0.24582198
33	0x3df9ecbf	0.12203359
34	0x4000b08e	2.010776
35	0xbedb0fce	-0.42785496
36	0x3feba966	1.8411071
37	0xbf1ecc31	-0.6203032
38	0xbf788585	-0.97078735
39	0xbfd3e644	-1.6554646
40	0xbf805e9a	-1.002887
41	0xbea71d88	-0.32639718
42	0xbe0416e1	-0.12899353
43	0x3f840cf1	1.0316449
44	0x3e072ce0	0.13200712
45	0xbd86b174	-0.06576815
46	0xbdb3a8ac	-0.08772406
47	0x3f1c7347	0.611134
48	0xbffb1f49	-1.9618922
49	0xbfa343b9	-1.2755042
50	0xbebc360d	-0.36759987
51	0x3f239363	0.6389677
52	0xbf0df798	-0.55455923
53	0xbfc950eb	-1.5727819
54	0xc033c72b	-2.8090312
55	0xc00c1d5c	-2.189292
56	0xbfca0549	-1.5782863
57	0x3f108f4b	0.5646865
58	0xbdf6950e	-0.12040149
59	0xbf341d9e	-0.7035769
60	0xbf4a6602	-0.790619
61	0x3fd5f5f1	1.671568
62	0xbfde7d47	-1.7381982
63	0xbf19886f	-0.59973806
64	0xbf0449d1	-0.51675135
65	0x3f707dc0	0.9394188
66	0xbfae6b8c	-1.3626571
67	0x3e95e9dd	0.29279986
68	0xbc57cb61	-0.013171048
69	0xbf74eb76	-0.95671785
70	0x3ebbb942	0.36664778
71	0xbef5bb79	-0.47994593
72	0x3ef22f7d	0.47301856
73	0xc02ecd29	-2.731272
74	0xc047f986	-3.1246047
75	0xbfe66808	-1.8000498
76	0xc0078f25	-2.1181118
77	0xbf89c642	-1.0763628
78	0xbfb884e7	-1.4415559
79	0x401e4dee	2.4735065
80	0xbfa8a441	-1.3175126
81	0x3f89ff08	1.0780954
82	0xbfec2632	-1.8449156
83	0xbe06ed18	-0.13176382
84	0xbe7997fb	-0.24374382
85	0xc012e1b9	-2.295027
86	0x3f624590	0.88387394
87	0x3e88c673	0.26713905
88	0x3f3a1a5e	0.72696483
89	0x3e087227	0.13324796
90	0xbeece4c5	-0.46268287
91	0x3f4fed32	0.81221306
92	0xbfc4fcf0	-1.538969
93	0x3ebadb56	0.36495465
94	0x3fcc7bc0	1.5975266
95	0xbfbff2b3	-1.4995941
96	0x40188398	2.3830318
97	0x3eb4d26d	0.35316792
98	0xbd24c7a0	-0.04022944
99	0x40786443	3.8811195
100	0xbcb18b45	-0.021672854
101	0x3f78426c	0.9697635
102	0xc0088e33	-2.1336792
103	0xbf35c3c4	-0.7100184
104	0x3f94c089	1.1621257
105	0xc167323f	-14.449767
106	0x3f11c021	0.5693379
107	0xbfa6d492	-1.3033621
108	0x3e36e9f5	0.17862685
109	0xc03789f2	-2.8677945
110	0x3e15c368	0.14625323
111	0xc07bece3	-3.9363334
112	0xbf9ed46c	-1.2408576
113	0xbfb862d5	-1.4405161
114	0xc09cbdf3	-4.898187
115	0x3ed2e5c6	0.41190928
116	0x3f056d14	0.52119565
117	0x3fb5fe01	1.4218141
118	0x403c239f	2.9396741
119	0x3ebadb77	0.36495563
120	0x3ed28f90	0.41125154
121	0x4035881d	2.8364327
122	0xc0991418	-4.783703
123	0x3fdf7587	1.7457741
124	0x3ff1893b	1.8870004
125	0xbed5ee83	-0.41783533
126	0x3e170a7a	0.1475009
127	0x40528eae	3.2899585
128	0xbf3b8ecc	-0.73264766
129	0x3e067237	0.13129507
130	0x3f01485e	0.5050105
131	0xc0264ab4	-2.5983095
132	0xbcfe37d1	-0.031032475
133	0x3f8fd362	1.1236384
134	0xbeb9b99b	-0.36274418
135	0xbefd9c27	-0.49533197
136	0xbf2dce4d	-0.67892915
137	0x3f911c4e	1.1336763
138	0x3e586258	0.21131265
139	0x403d7599	2.9603026
140	0xbf0a6f04	-0.54075646
141	0x3f91ed8e	1.1400621
142	0x3f561f56	0.83641565
143	0xbf04286d	-0.51624185
144	0x40205d2d	2.505687
145	0x3e1034aa	0.1408259
146	0x4008acb9	2.1355422
147	0xbf0cbf29	-0.5497919
148	0x3cb0119d	0.021492774
149	0x3fd35cef	1.6512736
150	0xbefb481b	-0.4907845
151	0x3fad1ca0	1.3524361
152	0xc02e4b01	-2.7233279
153	0x3efed891	0.49774602
154	0x3ef28dbf	0.4737377
155	0xbf9fae3b	-1.2475046
156	0x3f3f15a6	0.7464241
157	0x3fe68421	1.8009073
158	0xbed8c45e	-0.42337316
159	0x3f6670a7	0.90015644
160	0xbeeed966	-0.46650237
161	0x3e4b52f0	0.19855857
162	0x3f944dc6	1.1586235
163	0xbfb43d25	-1.408116
164	0x3ed4ce6e	0.41563743
165	0x3fa79f97	1.3095578
166	0x3dac49c7	0.084125094
167	0xc00dcd2d	-2.215648
168	0x3fd20cf3	1.6410202
169	0xbfc3e80b	-1.5305189
170	0x3fc3e9c4	1.5305715
171	0xbf02a3b7	-0.5103106
172	0xbf980d8f	-1.1879138
173	0x3f0ff8aa	0.56238806
174	0xbed1b4b5	-0.4095818
175	0x3e2e86da	0.1704363
176	0xbe8f094f	-0.2793679
177	0xbe9161ff	-0.28395078
178	0x3f744e88	0.9543233
179	0x3f6210fc	0.88307166
180	0x3ea1c5f5	0.31596342
181	0x3f23d4c9	0.6399656
182	0xbf8c9cd8	-1.0985365
183	0xbf2c0372	-0.6719276
184	0x3eefd471	0.46841767
185	0x3f435a64	0.763098
186	0x3e99bf0f	0.3002858
187	0x3f5659d7	0.83730835
188	0xc026756f	-2.6009176
189	0x3e9b7c24	0.3036815
190	0xc04bd3d7	-3.1848047
191	0x401172ce	2.2726321
192	0x4042783f	3.0385892
193	0xbf251f76	-0.6450113
194	0xbddacf36	-0.106840536
195	0xbf465d29	-0.774859
196	0xbe1b0af3	-0.15140896
197	0xbec37e36	-0.3818223
198	0x3e417581	0.1889248
199	0xc03178f2	-2.773007
200	0xc03970e9	-2.8975165
201	0x3f8c696f	1.0969676
202	0x3f513b72	0.8173133
203	0xc030874a	-2.7582574
204	0xc03d1010	-2.9541054
205	0x4000df41	2.0136263
206	0xbdc64393	-0.096808575
207	0x3ed35257	0.41273758
208	0x3fa06184	1.252976
209	0x3f3eed1e	0.7458056
210	0xc01f839b	-2.4924076
211	0xbe03e80e	-0.1288149
212	0xbdba6c4f	-0.091026895
213	0xbd3b936d	-0.045794893
214	0xbe12a066	-0.14319
215	0x3f19e433	0.6011383
216	0xbfb6c939	-1.4280158
217	0x3fbdc2b6	1.4825046
218	0xc08b956f	-4.3619914
219	0x3f4e0c86	0.8048786
220	0xc08c5301	-4.3851323
221	0xbe033354	-0.12812549
222	0xc0025fd6	-2.0370994
223	0xbfd1ef0c	-1.6401076
224	0xbf6fc967	-0.9366669
225	0xbfb96eff	-1.4486998
226	0xbf482d60	-0.78194237
227	0xbfaa2189	-1.3291484
228	0x3f9f429a	1.24422
229	0x3f0ad2e9	0.54228073
230	0xbfb778ad	-1.4333702
231	0xbf0652bf	-0.5247001
232	0x3fb0fb35	1.3826662
233	0xc0d17682	-6.5457163
234	0xbec5d008	-0.38635278
235	0xbf813f2c	-1.0097404
236	0x3e714153	0.23560075
237	0xbf654135	-0.89552623
238	0xbe23ae4c	-0.15984458
239	0xc09a5ef0	-4.824089
240	0xbee6d5f5	-0.4508511
241	0xbf836b8c	-1.0267196
242	0xbf9618d1	-1.1726323
243	0xc04ebef6	-3.2304053
244	0xc097a917	-4.739391
245	0x3f29c22e	0.6631192
246	0x3f6f61c3	0.9350855
247	0xbdc5da93	-0.0966083
248	0xc0a2e966	-5.090991
249	0xbfb198b6	-1.3874729
250	0xc04d4ac8	-3.2076893
251	0xc0a88b23	-5.2669845
252	0xbfcf66c1	-1.6203233
253	0xbed5c8b3	-0.41754684
254	0x3f5a57e9	0.8529039
255	0xbf5f9786	-0.8734058

reward_fun.2.bias f4 [200]
0	0xc032398c	-2.7847624
1	0xbe1780c8	-0.1479522
2	0xbe6ff5d8	-0.23433626
3	0x409ab1b0	4.8341904
4	0xbf7b6ded	-0.9821461
5	0xbb260025	-0.0025329676
6	0xbdfe68fe	-0.124223694
7	0xbe310b03	-0.17289357
8	0xbde8751d	-0.113504626
9	0x3e6ffb59	0.23435725
10	0xbe74aaf9	-0.23893346
11	0xbe07e03d	-0.13269134
12	0x41118470	9.094833
13	0xbd7ddb72	-0.061976857
14	0xbde91f16	-0.11382882
15	0x3f22b5a0	0.6355839
16	0x40860a20	4.188736
17	0x3fcaf4e1	1.5855981
18	0xbe297151	-0.16547133
19	0xbda7152f	-0.08158337
20	0xbe93b7c1	-0.2885113
21	0x402830a4	2.6279688
22	0xbfd38351	-1.652445
23	0xbe1d3463	-0.15352015
24	0xbb3323b3	-0.002733451
25	0x3f5e33b6	0.86797655
26	0xbe1550af	-0.1458156
27	0xbdf61b2d	-0.12016902
28	0x3f55cad7	0.83512634
29	0xbdf4eaae	-0.11958824
30	0xbf123635	-0.57113963
31	0xbf05fa8c	-0.5233543
32	0x3f16540a	0.58721983
33	0xbdbb6040	-0.091492176
34	0xbdec2832	-0.11531104
35	0xbde01e3a	-0.10943265
36	0xbda9a20b	-0.0828286
37	0x405beb3a	3.436232
38	0xbe11127f	-0.14167212
39	0x3ccb7fb2	0.024841163
40	0x3ff4535d	1.908794
41	0xbfab125c	-1.3364978
42	0x3e9d59c8	0.3073256
43	0x3ed91d1e	0.42405027
44	0xbda0f4ac	-0.078591675
45	0x41856a8c	16.677025
46	0xbe838055	-0.25683847
47	0x3ddbc1d5	0.1073033
48	0x40ae3068	5.443409
49	0xbe98ac74	-0.2981907
50	0x3d5e1767	0.054221537
51	0x3fc4b424	1.5367475
52	0xbdc8854e	-0.09791051
53	0xbd2da0d9	-0.042389724
54	0xbdef5de8	-0.11687833
55	0x3f9c5e4f	1.2216281
56	0xbdc16a1e	-0.09444068
57	0xbe40161f	-0.18758439
58	0x3f9f9c64	1.2469602
59	0xbe38d7e4	-0.18051106
60	0xbe1c81f7	-0.15283953
61	0x3fa389b7	1.2776402
62	0xbd890f26	-0.066923425
63	0x3ef83e12	0.48484856
64	0xba8d352f	-0.0010773296
65	0x40a251c7	5.0724826
66	0xbed64827	-0.41851923
67	0xbdc16fe4	-0.094451696
68	0x40b989dd	5.798079
69	0xbe4960c9	-0.19665827
70	0x3f52908d	0.82251817
71	0xc0094020	-2.1445389
72	0x40a0632b	5.0121055
73	0x3ca54138	0.0201727
74	0x3c0dd7fb	0.008657451
75	0xbe34943e	-0.17634675
76	0x403f56b5	2.9896672
77	0x401ddd6b	2.4666393
78	0x3fc39e86	1.5282753
79	0x3e8aae2c	0.27086008
80	0xbf00d9b5	-0.50332195
81	0xbe6be8a7	-0.23037969
82	0x3fedca66	1.8577392
83	0xbdfbda7f	-0.12297534
84	0xbe1aecfb	-0.15129463
85	0x3f53fdce	0.8280915
86	0xbe20020c	-0.15625781
87	0xc000484b	-2.0044124
88	0x3eba527a	0.3639105
89	0xbe8d017f	-0.27540204
90	0x40a3d2e4	5.1194935
91	0xbdf6070e	-0.12013064
92	0x403c1785	2.9389355
93	0xbd975edc	-0.0739114
94	0xbd898822	-0.067154184
95	0x3f8c75d8	1.0973463
96	0x3fa41a48	1.282052
97	0xbdf93079	-0.121674486
98	0xbdf0cec8	-0.117581904
99	0xbec8e8c7	-0.39240095
100	0x3faf5090	1.3696461
101	0xbe8d68bd	-0.2761897
102	0xc05ca4c7	-3.4475572
103	0x404d0cdf	3.2039106
104	0xc0096504	-2.1467905
105	0x3c6317e8	0.01386068
106	0xbd99d6c6	-0.07511668
107	0xbe4b70d0	-0.19867253
108	0xbfacd3d2	-1.3502142
109	0xbdbb011e	-0.091310725
110	0x3f996f90	1.1987171
111	0xbbb719b7	-0.0055877822
112	0xbdf3e335	-0.11908571
113	0x4052841a	3.2893128
114	0xbd00b497	-0.031422224
115	0xbc8da3bf	-0.017289994
116	0xbf7322cc	-0.9497497
117	0x4097679e	4.7313986
118	0x40177dab	2.3670452
119	0x40e916ac	7.2840176
120	0xbd436fbe	-0.047713988
121	0x3fe2e996	1.7727535
122	0xbdd2a407	-0.10285192
123	0xbd108bcd	-0.035289574
124	0xbe0cd760	-0.13754034
125	0xbea092f6	-0.31362122
126	0xbe44a400	-0.19203186
127	0x3fedc28b	1.8574995
128	0xbe3f974b	-0.18710057
129	0x3e831681	0.25603107
130	0xbecbffdf	-0.39843652
131	0x3dd9d2e2	0.10635926
132	0xbe4aef1d	-0.19817777
133	0xbd838405	-0.06421665
134	0xbfa05ea9	-1.2528888
135	0x3e3d5ccd	0.18492432
136	0xc03f89b4	-2.9927797
137	0xbe7f4d11	-0.24931742
138	0x40120802	2.2817388
139	0xbe251b3a	-0.16123667
140	0xbe35baf0	-0.17747092
141	0x3e1bbd27	0.15208875
142	0xbcfa6333	-0.03056488
143	0xc016f7bf	-2.3588712
144	0xbdcbd099	-0.09951896
145	0xbe2da5ee	-0.16957828
146	0x4025a67a	2.588286
147	0xbd9f2f4e	-0.077726945
148	0x3f93e544	1.1554341
149	0xbd499f26	-0.04922404
150	0xbe5652cd	-0.20930023
151	0xbd13ccc2	-0.036083944
152	0xbc4f7fb1	-0.012664721
153	0x3fa172af	1.2613124
154	0x3fde1266	1.7349365
155	0xbda78cb6	-0.08181135
156	0xbe4fcc64	-0.20292813
157	0x3f248178	0.64260054
158	0xbf874953	-1.0569252
159	0xbd8221d2	-0.06354107
160	0xbe3986c1	-0.18117811
161	0xbba22de5	-0.0049493187
162	0xbe32be51	-0.17455412
163	0xbce63ac2	-0.02810419
164	0xbe0d7797	-0.13815151
165	0x408bc3e2	4.3676615
166	0x40542ea3	3.3153465
167	0xc05ac105	-3.418031
168	0xbd50a6df	-0.05094039
169	0x3c6e9706	0.014562374
170	0x3f9be6da	1.2179825
171	0xbf58e1c2	-0.8471948
172	0xbeeb35e0	-0.4593954
173	0xbf24570f	-0.6419534
174	0xbe6ed749	-0.23324312
175	0x4078f858	3.8901577
176	0x403d1e06	2.9549575
177	0x3d9e3d54	0.07726541
178	0x3f335241	0.70047385
179	0x3f33aa82	0.7018205
180	0xbdb3a5ea	-0.0877188
181	0xbe13bd4b	-0.14427678
182	0xbd4bd3f9	-0.0497627
183	0xbe499c9b	-0.19688646
184	0x3f67cfdc	0.90551543
185	0xbe1302a4	-0.14356476
186	0x3fbeb90b	1.4900221
187	0x408546dc	4.1649
188	0x400f2d4b	2.2371395
189	0xbdda4304	-0.106573135
190	0x40934452	4.60209
191	0xbe2d0f15	-0.16900285
192	0x3fb4c9f1	1.4124128
193	0x3e931799	0.2872894
194	0xbda03035	-0.07821695
195	0x3fc43590	1.5328846
196	0x3fbee8b0	1.491476
197	0x4160612e	14.0237255
198	0xbd8bf401	-0.068336494
199	0xbe93df04	-0.28881085

reward_fun.4.weight f4 [1, 200]
0	0xbe8df6b0	-0.2772727
1	0xbf784bbc	-0.9699056
2	0x3eef729f	0.46767136
3	0x3e9b1341	0.30288127
4	0xbf1a3a0a	-0.6024481
5	0x3da5547b	0.08072754
6	0xbd9c27f2	-0.076248065
7	0x3d5de4fa	0.054173447
8	0xbd02bb8c	-0.03191714
9	0x3ee06dec	0.43833864
10	0x3dab7fcf	0.08373987
11	0x3d9d11d6	0.076694176
12	0x3e1a8ebd	0.15093513
13	0x3c5c3ed0	0.01344271
14	0xbd4491a6	-0.047990464
15	0x3ffc5ee2	1.9716456
16	0x3e7edd16	0.24889025
17	0x3ee836ec	0.45354402
18	0x3d97f90f	0.07420551
19	0xbc1c9703	-0.009557488
20	0x3db69e3d	0.089169
21	0x3eb73bad	0.35787717
22	0x3ecba3ea	0.39773494
23	0x3dbca054	0.09210268
24	0x3d3596b4	0.044333175
25	0x3ec54d3a	0.38535482
26	0x3d4245f3	0.04742999
27	0xbdb606b9	-0.08888001
28	0xbf6c7450	-0.9236498
29	0x3da923b8	0.08258766
30	0xbf9ef909	-1.241975
31	0x3e664133	0.22485809
32	0xbf391829	-0.7230249
33	0xbb1f7447	-0.0024330781
34	0x3d463f10	0.048399985
35	0xbddb3740	-0.107038975
36	0xbf2a446b	-0.6651065
37	0x3eba2b0f	0.36360976
38	0xbc76ec73	-0.015071022
39	0x3ca0e898	0.01964216
40	0x3e9d827a	0.30763608
41	0x3fc8b711	1.5680867
42	0x3f688bd5	0.90838367
43	0x3f57f2d4	0.843549
44	0x3c63fc7a	0.013915176
45	0x3eac1253	0.3360773
46	0x3f0222f5	0.5083459
47	0x3fa446ad	1.2834069
48	0x3e60d4c8	0.2195617
49	0x3d85fc34	0.065422446
50	0x3f80727c	1.0034938
51	0xbfb8c400	-1.4434814
52	0xbc861c7f	-0.01637101
53	0xbcbdf852	-0.023189697
54	0xbdb5d03f	-0.088776104
55	0x3f28b6e8	0.6590409
56	0xbd49f875	-0.049309213
57	0x3f15e13c	0.58546805
58	0x3f3346f1	0.70030123
59	0x3d8fdd3b	0.07024618
60	0xbd697412	-0.05699546
61	0xbf79c949	-0.9757276
62	0x3cbdcef0	0.023169965
63	0x3f001c5d	0.5004328
64	0x3dff947c	0.12479493
65	0x3ea5efef	0.32409617
66	0x3fa78442	1.3087237
67	0xbd2c4030	-0.0420534
68	0x3e94c031	0.2905288
69	0xbd08106d	-0.03321879
70	0xbf1530aa	-0.5827738
71	0xbf5234f4	-0.8211205
72	0x3e67a4b3	0.22621422
73	0x3c89c80c	0.016819023
74	0x3c980aee	0.0185599
75	0xbd9acef4	-0.075590044
76	0x3e8a2f39	0.26989153
77	0x3f1a7a56	0.6034292
78	0x3f1049f9	0.56362873
79	0x3f2d6f54	0.67748
80	0x3fbc5634	1.4713807
81	0xbd2294c3	-0.03969265
82	0x3eb06ed0	0.34459543
83	0x3d0f3ad1	0.0349682
84	0x3c822f8b	0.01589181
85	0x3f4c3070	0.7976141
86	0xbda1242b	-0.078682266
87	0xc007f172	-2.1241117
88	0x3f850da0	1.0394783
89	0x3c91ef73	0.017814374
90	0x3e3fa82b	0.18716495
91	0x3d108987	0.035287406
92	0x3e6e3c68	0.2326523
93	0xbd331769	-0.043723498
94	0x3b95c45c	0.004570527
95	0xbf47d0f7	-0.7805323
96	0xbf8aba63	-1.0838131
97	0x3dc361b9	0.095401235
98	0xbd68b205	-0.056810398
99	0xbd4bbb64	-0.049739257
100	0xbfd73318	-1.6812468
101	0xbd4635a6	-0.048391007
102	0xbf62f23f	-0.8865089
103	0x3e40e024	0.18835503
104	0xbf0cfec2	-0.5507623
105	0xbcbcad70	-0.02303192
106	0xbd6ac61c	-0.057317838
107	0x3c972ac0	0.018453002
108	0xbf3afc43	-0.7304117
109	0x3f76d776	0.9642252
110	0x3e8777b9	0.2645853
111	0xbda1dd8d	-0.079035856
112	0x3d7aed40	0.061261415
113	0x3e5170e4	0.2045322
114	0xbd515105	-0.051102657
115	0x3d8cecbd	0.06881092
116	0x3f1c2c11	0.6100474
117	0x3e47442a	0.19459596
118	0xbfd13cfa	-1.6346734
119	0x3e227c44	0.15867716
120	0xbdaa5577	-0.083170824
121	0x3eff7f17	0.4990165
122	0x3da5157f	0.08060741
123	0x3d1b08e3	0.037850272
124	0x3da788b5	0.08180372
125	0xbd410ea0	-0.047133088
126	0xbd8869ec	-0.06660828
127	0x3e5c2284	0.21497542
128	0x3ce774b5	0.028253892
129	0xbfa628c4	-1.2981191
130	0xbf5fb901	-0.8739167
131	0x3ed800c5	0.42188087
132	0x3c2e6036	0.010643056
133	0xbd22de1e	-0.03976261
134	0xbf5cd101	-0.86256415
135	0x3fa336d2	1.2751105
136	0xbed165b5	-0.4089791
137	0x3dc22c08	0.094810545
138	0x3ea7e441	0.3279133
139	0xbcf0d819	-0.029399918
140	0xbda6e338	-0.08148807
141	0x3fb2969c	1.3952212
142	0xbc4dc682	-0.012559535
143	0x3edf2185	0.4358026
144	0x3db21c57	0.08696812
145	0x3d7b4f79	0.061355088
146	0x3ea29215	0.31752077
147	0xbb9f63a0	-0.004864171
148	0x3f0d4b2c	0.5519283
149	0xbd963b06	-0.073354766
150	0x3dab737d	0.08371637
151	0xbcdefdf6	-0.027220707
152	0x3d07d591	0.033162657
153	0x3ee2976e	0.44256157
154	0x3f18441b	0.5947892
155	0xbd3d148e	-0.04616218
156	0xbd3529af	-0.044229206
157	0x3e9e5c8c	0.30929983
158	0xbf107476	-0.56427705
159	0xc0160fad	-2.3447068
160	0x3c83bd7e	0.016081568
161	0x3e5676de	0.20943782
162	0x3db3ea9f	0.08784985
163	0xbc8d9ed2	-0.017287645
164	0xba5afa03	-0.00083532947
165	0x3e92bd9d	0.28660288
166	0x3e5067c7	0.20352088
167	0xbf069914	-0.5257733
168	0x3efaf6e6	0.49016494
169	0xbc9011a9	-0.017586546
170	0x3ef1164d	0.47087327
171	0x3f0d32fe	0.5515593
172	0x3fd797d4	1.6843209
173	0x3fb58434	1.418097
174	0x3c9749c7	0.018467797
175	0x3e157184	0.14594084
176	0x3e837fc8	0.25683427
177	0xbe7b9a71	-0.24570633
178	0x3e6b78cd	0.229953
179	0x3f8faecc	1.1225219
180	0xbc66d7e7	-0.014089561
181	0xbfbe8edc	-1.4887347
182	0xbb8ecac2	-0.0043576667
183	0xbd375f7d	-0.0447688
184	0x3efadffd	0.48999014
185	0x3c753909	0.0149672115
186	0x3f2cb96e	0.67470443
187	0x3e7b99aa	0.24570337
188	0xbf5577bb	-0.8338582
189	0x3d6a1101	0.057145122
190	0x3e0d764f	0.13814662
191	0xbc9db24d	-0.01925006
192	0xbfc24802	-1.5178225
193	0x3f8cadf3	1.0990585
194	0xbcd8bf3a	-0.026458371
195	0x3e7c1b92	0.24619892
196	0xc0425862	-3.0366445
197	0x3e8622ea	0.26198512
198	0x3dbdf951	0.09276069
199	0xbbb4f3db	-0.005522234
