data/hlt_deter/HalfCheetahEnv/seed_913/model_10000.pt (torch, 217424 bytes, 10 tensors)

log_std f4 [1, 17]
00000000: 418d 88c0 5abd 65c0 da28 8ac0 f97b 86c0
00000010: 96d6 8dc0 c55b 79c0 5ad4 77c0 9b18 80c0
00000020: 1771 2ec0 cc1b 10c0 91d1 d2bf b6ed bebf
00000030: 0d99 98bf 5979 efbf 1e63 9abf 7d23 93bf
00000040: c5b3 abbf
-4.267243 -3.589682 -4.317487 -4.2026334 -4.4324446 -3.8962262 -3.872336 -4.0030036
-2.7256525 -2.2516966 -1.6470205 -1.4916294 -1.1921707 -1.8708907 -1.2061498 -1.1495205
-1.3414236

mu.0.weight f4 [200, 23]
00000000: 1d80 fc3e 7194 fd3c d98f 9f3d 164d af3e
00000010: 718d 1d3e 06ad 2bbd 6926 603e 3ab5 d23b
00000020: c8f9 c4bd 2395 c53d 9c5f 1bbc 3124 5ebc
00000030: d11d 053d e6ae 8dbd 8128 99bc 710f 19bd
00000040: 269a 953c 9ee0 99bd 480b d5be 6f5d dd3d
00000050: ca37 8ebc 8d9c 143d a4ba 8f3c e4ce bb3e
00000060: 0a26 983e 8afb 0b3f b8d4 183f 4f44 3d3e
00000070: d4d2 983e 4701 1f3e f65c f5bb 87c3 603e
00000080: 8c68 3a3c 8304 2f3d 2bea 9cbd 767b 15bd
00000090: 2206 433d 39a5 ff3c 7a4b 4dbc 09b4 c83c
000000a0: d067 09bf 0ea4 63be f571 cabd 1cf1 37bd
000000b0: 65dc 08bd ab99 74bd 65c9 9bbf c48a 2cbd
000000c0: e462 58be 5564 cebe d53a d3bd ec2b 99bc
000000d0: eba4 89bc 3ba4 85bc 7c18 453e 483b 093d
000000e0: 8973 b53d 58f5 5abc 3b3a fa3b 08b7 e63c
000000f0: 3d55 0d3b f87f 143c 08a2 97bb 7a55 d33d
00000100: 8ced ed3e d664 fb3d c5f1 063b 7c79 133d
00000110: da22 dbb9 2263 1b3f 8120 b03e 942e 60bc
00000120: bedd 8bbd 69d4 523d dd82 153f 40df cb3d
00000130: 999b 843c a632 bd3d 57ec 143d f81b 9b3d
00000140: 8ff2 3f3d 1855 9cbb 1986 6f3d f6ec edbb
00000150: 3222 513d f943 073c a55c c83c 72da 3ebd
00000160: 8bf9 053e 7f5f 1d3e 8718 153d 35bc 32bd
00000170: d157 713d a760 29bb 4254 88bf 76e0 2ebf
00000180: d81a 7eba 64a4 d43d e85c 64bd efd5 903d
00000190: ccbf 5e3d c97b cd3d 3ef0 f1bd 02e3 663d
000001a0: 7605 c6bd 3417 8cbb 960e 45bd eabe afb9
000001b0: 28cf c33c 22d4 dc3e e80c 3a3f cd57 683d
000001c0: 9f63 093d f90e f3bc 9306 25bd 0d4a db3f
000001d0: c56e b0be 0a2f bc3e f60d 683f 0a24 fdbe
000001e0: 3191 e63e 5121 f13e 597f 193f 6cee 96bd
000001f0: cb90 a0be a1f9 bf3e 9bf2 513d 4849 0b3e
00000200: fab8 bc3d 7025 c23d 002d da3d 9a66 bd3d
00000210: 2791 51be 09d3 60bd a25c 24bf 2e4b 0cbe
00000220: 0b2e 2d3e df89 89bd 50f0 433f 0198 ed3e
00000230: 2d67 8bbd 744e 8b3c ef78 d43b 601b 063f
00000240: bc9e b03e 7015 9d3d a72f ee3d 1862 103c
00000250: 24d2 13bd 0804 58bc 92eb 9dba 3047 abbc
00000260: fcb5 103b 5935 393c 8d0c 93bc 2c96 20bc
00000270: c7a3 26bd 0634 953c 5cc7 efbd 890f 2cbd
00000280: ea66 ac3c 91db 803f 5145 48ba a4e6 48bc
00000290: b991 f53d 377a cfbd 19b2 a7bf 5476 bbbe
000002a0: 3ecc bbbd f2d6 bfbc 988d 513e de8e d0bd
000002b0: 7e7a 1b3c d202 993c cd3f 293d 636b 8e3d
000002c0: 8eb6 823c e82a d7bc ccae 633b 9f88 953d
000002d0: c849 b2bd a2cc f53e ea56 003e c859 bcbd
000002e0: 69cf ac3f 98e1 5abd a87f a13e faa6 513d
000002f0: 6a7b 1c3e 07dc 083d 64b8 073f 423c 663d
00000300: 8ba7 993c 2b77 b43e 60ce eabe 8424 e23b
00000310: e0a1 adbc 6049 bb3d c79b 6fbd 55e5 403d
00000320: 1679 dabc 9236 923d 8a7e f33c 1501 7cbc
00000330: 6b56 93be 1fb4 8bbe 84bd a1be 33d2 94be
00000340: 3c95 dc3b cb53 003c 2f7e 3ebe 24de 553e
00000350: c30f 95bd f8f5 a43d 60a6 96bf 56a8 c73c
00000360: fe6b b5bd f8f6 33bd 2170 743d 890a cabc
00000370: 3254 0abd c6b2 fa3c 33a2 81bd d744 373d
00000380: c18f a33d d836 543d 5053 45bd bfde 0b3c
00000390: 802c b3bd 92c6 b63e 2605 183f 4276 0abf
000003a0: 6ffc 0f3e 745e 893e d969 a33f 685d e8be
000003b0: 0148 95be 76e6 8fbe ad03 6ebe fcd6 e33d
000003c0: f2e2 f43d e49d a03d c791 9c3c be88 3ebe
000003d0: a136 0cbd 788b 723d 9747 993d a736 8cbd
000003e0: 39df 103e 76ba 5abe 1fb5 453d 2975 3abe
000003f0: c741 a5bd c2a7 e13f 2903 d73e 5ff8 94be
0.49316493 0.030954571 0.07791109 0.342385 0.15385987 -0.041913055 0.21889652 0.0064302953
-0.096179545 0.09647586 -0.009483244 -0.013558433 0.03249914 -0.06918125 -0.018696072 -0.03736824
0.01826198 -0.075135455 -0.4161017 0.10808837 -0.017360587 0.03628211 0.017545052 0.36681283
0.29716522 0.54680693 0.59699583 0.18483089 0.2984835 0.15527831 -0.0074878884 0.21949588
0.011377465 0.042728912 -0.076618515 -0.036494695 0.04761327 0.031206714 -0.012530202 0.02449991
-0.5367403 -0.2223055 -0.09885017 -0.044907674 -0.03341331 -0.05971686 -1.2170836 -0.042124525
-0.21131474 -0.40310922 -0.10313956 -0.018697701 -0.016802272 -0.016313663 0.19247621 0.0335038
0.08859927 -0.013364159 0.007636336 0.028163448 0.0021565699 0.009063713 -0.00462747 0.10319038
0.46470296 0.12275092 0.0020590883 0.03600453 -0.00041796901 0.6069814 0.343998 -0.01368298
-0.06829403 0.0514721 0.58402807 0.09954691 0.016187476 0.09238176 0.036358204 0.07573694
0.04686218 -0.004770886 0.058477495 -0.007260914 0.051058 0.008255952 0.024458239 -0.046595044
0.13083474 0.1536846 0.036400344 -0.04363652 0.05892164 -0.0025844963 -1.0650713 -0.6831125
-0.0009693331 0.103829175 -0.055752665 0.070720546 0.05438213 0.10033376 -0.11813401 0.056368835
-0.0966901 -0.004275227 -0.048109613 -0.00033520843 0.02390249 0.43130594 0.72675943 0.05672436
0.03354227 -0.029670225 -0.040289473 1.7131974 -0.3445951 0.36754638 0.906463 -0.49441558
0.45032647 0.4709573 0.5995994 -0.07369694 -0.31360468 0.3749514 0.051256757 0.13602173
0.09214969 0.09479797 0.10653114 0.09248085 -0.20465527 -0.05488876 -0.64203846 -0.13700554
0.16912095 -0.0671575 0.7653856 0.46405032 -0.068067886 0.017005183 0.006484143 0.5238552
0.34496105 0.076701045 0.11630183 0.00881245 -0.036089078 -0.013184555 -0.0012048355 -0.020907968
0.0022081127 0.011304223 -0.01795032 -0.009801429 -0.040683534 0.018213283 -0.11707947 -0.042007003
0.021045167 1.0067006 -0.00076397235 -0.01226202 0.11990685 -0.101307325 -1.3101226 -0.36613715
-0.091698155 -0.023417924 0.2046417 -0.101835 0.009489654 0.018678103 0.04132061 0.06954076
0.01595619 -0.026265576 0.0034741638 0.07301449 -0.08705479 0.48007685 0.12533155 -0.09196812
1.3500797 -0.0534378 0.31542706 0.051184632 0.15281454 0.03341296 0.5301573 0.05620981
0.018756649 0.35247168 -0.45860577 0.0069013257 -0.021195352 0.091448545 -0.05849817 0.047093708
-0.026669066 0.07139315 0.029723424 -0.015381117 -0.2877687 -0.2728586 -0.315899 -0.2906662
0.0067316573 0.007832478 -0.18602823 0.20885521 -0.07278397 0.08054727 -1.1769524 0.024372261
-0.088584885 -0.0439367 0.059677247 -0.024663227 -0.0337717 0.030602824 -0.06329765 0.044743385
0.07986403 0.051810116 -0.048175156 0.0085369935 -0.08748722 0.35698372 0.59382856 -0.540867
0.1406114 0.26829875 1.2766677 -0.45383763 -0.29156497 -0.28105515 -0.2324359 0.111249894
0.11957349 0.07842615 0.01911248 -0.1860685 -0.034231786 0.05921504 0.07484358 -0.068463616
0.14147653 -0.21360192 0.048268434 -0.18208756 -0.08069187 1.7629321 0.41994599 -0.29095742

mu.0.bias f4 [200]
00000000: 1a9e 993d e274 343d b744 45bf 14b2 6bbe
00000010: f374 20ba e546 50bf f423 27bf b400 18bf
00000020: 9ff9 43be ae52 343f 8ce6 89be 50b7 48bf
00000030: 889f d7be 764b 993d c326 1c3e a0ed 9dbe
00000040: 21b5 d4be 9ad2 0d3f 5a42 e93d dd07 8abd
00000050: 6fd5 4cbf 0fd1 ffbe 1ba9 37be 34ff 5ebf
00000060: 2d53 52be 8666 d3b8 7ba9 64bf 0c0a 47be
00000070: 24e5 a13e ef76 d2bd a709 ddbd b393 383e
00000080: fd22 bfbf 6fe1 4c3f aabf bfbf 2794 a1bf
00000090: e758 82bf db9d a4bf a265 cdbe 18d2 c1bd
000000a0: ddb4 2fbe a3ac 11be 0390 103d a09e 8fbe
000000b0: cd51 e53e 2bca e4be 57ec b93d bc96 b63e
000000c0: 8aab ce3e da16 00be 836c b4be 94db 02c0
000000d0: 17fe c4be 972c 83bd e1bb 99be 573f 843e
000000e0: 2f77 08bd f8ff d7bf b6ac d53d 7f9d 85bd
000000f0: c7c8 abbf afaf 14bf 42ad 3cbf 2edc a1bd
00000100: c686 80be 783d a3bf 7da8 bcbf 54e3 85be
00000110: 2eb7 5cb9 3595 a2bf dc5e 65bf 8f74 a13e
00000120: 84b1 d3bf 32c3 f9be 6f84 c2be 6fab 853e
00000130: 9c0d 023d 56f0 6abf aedc 12bc 9901 68bf
00000140: deae 58bf 9a49 583e e083 c5bf cb02 45bf
00000150: b652 343e 83e6 c7bd 4c61 55bf 580e 6a3e
00000160: c064 a0bf 3609 79bf 1fa6 8cbe cab8 adbf
00000170: 8979 11bd eaab b2bf 9535 46bf 07c0 393f
00000180: 23f1 823d 270a d13e 256a b6bf 4368 86be
00000190: bee9 fabd a38c 12bf 0932 553f 37a3 18be
000001a0: 1934 30be e311 a639 113f 00bf e407 0d3f
000001b0: ca33 ec3e c2d4 6dbe 2745 03be ba97 c1bf
000001c0: 0ef4 15bf 5949 cabe 4230 b3bf a4dd 9abf
000001d0: d602 90be 390d 0dbe 2ce4 89bf 2bd1 833e
000001e0: 9c39 4bbf 2162 d7bf 612b 29bd bf34 113e
000001f0: e062 6bbf dea3 01bd 7c59 3ebf 0572 833d
00000200: fa60 82bf 5c8a a9bd 444f 8dbe 9894 b53d
00000210: 52cf d8bf a6df ca3b 7968 d5bf 7ee4 90bd
00000220: 7d10 893e 0d59 b7be 3a98 bfbf 4fee e7bd
00000230: 5a42 83be 1bfd babf 8539 b6bf b9e9 12be
00000240: f434 843e 48d5 1e3e 8534 dabe d992 cdbd
00000250: dae7 70be 8991 2c3d 31d6 643d 53ad aabf
00000260: 0ac1 aabe 782d b9bf 22ff 82be 9faa 9d3d
00000270: 3d50 febe 7adb 3abf e9bc 1cbf a900 ccbe
00000280: 786d af3d 5a26 68bd 5e46 cd3e 92fc 16c0
00000290: ee08 1a3f 29bf a8be b85d a1bf 7b95 4bbe
000002a0: 2a76 d7bd abd2 5e3e 93ae 86be d0d2 d9bd
000002b0: 4d1d 2bbf 43c7 6dbf b033 eb3e 1286 8fbc
000002c0: f8c9 55bf 2c37 2abf 42ff 823d 6296 82bf
000002d0: 47b2 84b9 4773 9bbe de1e dfbd 6d88 2cbf
000002e0: 96d6 033e 259a ffbf aced 8d3e 7561 953c
000002f0: 2658 673e 4574 cabf ea9f 28bf eb7e d0bf
00000300: 60e7 fd3e 8469 a0bf 8058 62bc 2a3a 61be
00000310: 8ea1 afbd 6f7a 603f 9014 94be e75e 32bf
0.075008586 0.04405678 -0.77057976 -0.2301715 -0.00061209424 -0.81358176 -0.65289235 -0.5937607
-0.19138192 0.7043866 -0.26933706 -0.7840471 -0.421139 0.07485096 0.15249161 -0.30845356
-0.4154444 0.5539948 0.11389609 -0.06739781 -0.80013174 -0.49964187 -0.17935602 -0.8710816
-0.20539542 -0.000100803605 -0.89321107 -0.19437426 0.31620133 -0.10276591 -0.10792857 0.18025093
-1.4932553 0.80031484 -1.4980366 -1.2623338 -1.0183381 -1.2860674 -0.40116602 -0.094639
-0.17158838 -0.14226012 0.03529359 -0.2805071 0.44788972 -0.44685492 0.090782814 0.35661876
0.4036525 -0.12508717 -0.35239038 -2.044652 -0.38475105 -0.06404989 -0.30026153 0.25829574
-0.033316787 -1.687499 0.104333326 -0.065241806 -1.3420647 -0.5808057 -0.7370187 -0.07903324
-0.25102824 -1.2753134 -1.4738919 -0.2615 -0.00021049075 -1.2701784 -0.8959787 0.3153424
-1.6538548 -0.48781735 -0.37991664 0.26107356 0.03175126 -0.91772974 -0.008963747 -0.9062744
-0.84641826 0.21121827 -1.543087 -0.76957387 0.17609677 -0.097607635 -0.8335159 0.22857034
-1.2530746 -0.9727968 -0.2747049 -1.3572018 -0.035516296 -1.3958714 -0.7742551 0.72558635
0.063936494 0.40828058 -1.4251143 -0.2625142 -0.12251614 -0.57245845 0.8327947 -0.14906012
-0.17207374 0.00031675314 -0.5009623 0.55090165 0.46133262 -0.23225692 -0.12819348 -1.5124428
-0.5857552 -0.39509085 -1.3999102 -1.2098889 -0.28127164 -0.13774575 -1.0772758 0.2574552
-0.7938478 -1.6826822 -0.041301135 0.14180277 -0.91947746 -0.031650417 -0.7435529 0.06418232
-1.0185845 -0.08278343 -0.27599537 0.08866233 -1.6938269 0.0061912118 -1.6672508 -0.070748314
0.26770392 -0.35810128 -1.4968331 -0.11324751 -0.2563656 -1.4608492 -1.4236304 -0.1434697
0.2582165 0.15511048 -0.42618194 -0.100377746 -0.23525944 0.04213098 0.05586833 -1.3334144
-0.33350402 -1.4467001 -0.25585276 0.07698559 -0.49670592 -0.72991145 -0.61225754 -0.39844254
0.085658014 -0.0566772 0.40092748 -2.3591657 0.60169876 -0.32958344 -1.2606726 -0.19881241
-0.10520585 0.21760051 -0.26305065 -0.106359124 -0.66841584 -0.92882174 0.45937872 -0.017519984
-0.83511305 -0.66490436 0.06396343 -1.0202143 -0.0002530983 -0.30361387 -0.10894559 -0.6739567
0.12874827 -1.9968916 0.27720392 0.018234948 0.2259222 -1.5816733 -0.6586901 -1.6288732
0.49590588 -1.2532201 -0.013815045 -0.21994844 -0.08575736 0.8768682 -0.28921938 -0.6967606

mu.2.weight f4 [17, 200]
00000000: 57aa 613c 2331 6e3c 43b4 cb3c 6296 76bd
00000010: f627 42ba 7eb9 c6bd 84dc 86bc ba64 3d3d
00000020: 24e9 0fbd 504b 9e3a 8660 1abd f7bb 4c3d
00000030: 49a8 b1bd 35bc e03b 1f54 523b 7c3e ac3d
00000040: a6ba a33c 8012 ddbc 31e1 403c cd65 b43c
00000050: b9e1 663d e840 743b cf2e 0b3b fb05 da3c
00000060: 8327 82bc e887 44bd b1a8 7ebd 7058 c539
00000070: c955 72bb 5f14 22bb bca7 08bc 8ed0 563b
00000080: b2e8 3a3c fd04 873c 8264 2dbe f389 09bd
00000090: 094b d6bd e19d 9ebb 5494 36bc d270 a73a
000000a0: cbae cdbb bf25 d6bc f712 41bd aed6 73bb
000000b0: 4c56 b2bd 8f44 d93b 2c8c b8bd 5e0d 61bd
000000c0: 878c 883a 77c9 2c3c fb42 8d3c 82cb b33c
000000d0: 613f 8dbd 9442 0c3c ff1a 373c 90de 5fbb
000000e0: fd22 e53c b467 da3d dedf 213b 262f 823d
000000f0: 16ef c73c 861e 9f3c 568c 063e 553b 0739
00000100: 3c06 2fba fb2f 973c 441f 213b ab18 2a3c
00000110: 39e1 07be 45ba 2cbb 5ecf 053d 5b6d 843d
00000120: b5a0 063a 70fa adbd 3c6a 93bb efff 9b3d
00000130: 5323 1cbc b163 d73c d58d b5bc c399 d33d
00000140: f24e b93b 6f0a 16bd 2133 203c 435f adbc
00000150: d8f5 a7bd 1316 8b3d 6943 9dbc c2b8 f93b
00000160: 3660 013d b739 e63d e71b 183c bdd7 d8bd
00000170: ce8d 8e3a 9215 fabd 5f42 72bd 1be7 8e3d
00000180: 921f 333c 31b6 503d eb3e a73d e2b1 2b3d
00000190: 4e36 97bc a8e5 19bc 446c fa3b b002 14bc
000001a0: 173f 223c 18e4 383e 2a71 823d c075 23bc
000001b0: 7a34 753d 89be 25bc a36d 0a3d 1b83 7abd
000001c0: a050 84ba fc55 833c 1c97 a4bd 4a57 8dbe
000001d0: 9ffc 063e bcdd 0fbc 8aae 613c 3100 b9bb
000001e0: 0965 41bc fdc2 7ebb a08b 0bbe 1705 713c
000001f0: cec6 1ebb c8e2 e6bd 977b d8bc 0171 1fbb
00000200: 80b7 febc 3c50 31bb 3855 973d a9ee 48bb
00000210: ec4a 293e b382 d3bd b0e3 45ba 62b1 2cbb
00000220: 0f6b a13c c748 943c 6d04 3c3e 1e9f 8bbd
00000230: b97e 38ba e632 a3bb 3b7f 31ba d30a dfbd
00000240: f969 873b acba c63c f010 073d 8bc5 6f3d
00000250: fa66 17bc 69c7 1bbb b6c4 13bc e55f b53d
00000260: a67f 95bb 8126 7abb 214c e83c 5ebc 0a3d
00000270: 4f16 78ba bd5c 0b3c b4a2 4439 274e cdbc
00000280: 78ac acbb 6a64 923b 5fb8 5a3c cf8a e73c
00000290: bc4c 843c 81c7 b93b 3e24 4d3d 05c9 ab3b
000002a0: 8032 01bd 5747 7c3c d3d4 443d a3f6 643d
000002b0: 7a74 98bc 3994 b6bd f113 8dbc c346 6ebc
000002c0: 9d51 9abb 550f 883b d770 683b df2a b83d
000002d0: 1ed2 efbc d941 fb3b 4850 513c 894e df3d
000002e0: bc76 cebb 5869 ba3c 5a53 cbbb 5c4e f6bc
000002f0: 3230 11ba 0f64 37be b721 7dbd dce0 61bc
00000300: 4d8e 3cbc 4ffd 8b3b 161f f1ba 78f0 9cbc
00000310: 3149 95bc 3da5 27bc 2b0a d23b 4561 80bd
00000320: 1caf fe3c 97f0 a33b 24d6 933c 157f 50bd
00000330: fb74 7ebc 54fc 733e 2ffe 7e3d 565f cd3c
00000340: d533 38be 6cdf 0cbd b79a df3d 73ce 1f3e
00000350: fdac 86bd 2915 653d 0a98 abbd 2dcf 24bd
00000360: 0efd 3abd 4e6f 583e bb16 a3bd a4e4 f63b
00000370: b8aa 0c3c fdbc cebc d979 4cbc 8811 1a3d
00000380: 254a 2f3b c032 063e 94fe 0fbd b4f9 113c
00000390: 6a13 d3bd 90cb 2fbb 4953 273c 0886 0ebc
000003a0: 63a1 d63c 1a58 26be 02af 753d 7084 0dbe
000003b0: 9612 803e 0470 bdbc ca6c fe3c 7fbb 4dbc
000003c0: 36d7 d83c f9bf 103d dcf5 b6bb 01d0 2bba
000003d0: f220 5bbe 5338 063c 65b6 eabc 4ee1 78be
000003e0: 084f a83b 7bd3 64bc f053 02bd b451 a8bc
000003f0: 536d 0bbe e599 17bd 4aa6 55bb dce5 52bc
0.013773522 0.014538082 0.024866229 -0.06020201 -0.00074064673 -0.097033486 -0.016462572 0.04623864
-0.03513445 0.0012076888 -0.03768971 0.049983945 -0.08674676 0.0068583735 0.0032093597 0.084103554
0.019986462 -0.02698636 0.01177244 0.022021199 0.05636761 0.0037270132 0.0021237617 0.02661418
-0.015887981 -0.047981173 -0.062172595 0.0003764066 -0.0036977401 -0.002473138 -0.008340772 0.0032778117
0.011408018 0.01648187 -0.16932872 -0.033578824 -0.104635306 -0.004840598 -0.011143763 0.0012774712
-0.0062769405 -0.026141046 -0.047137227 -0.0037206816 -0.08707866 0.0066304873 -0.09011111 -0.05494439
0.0010417857 0.01054608 0.017243853 0.021947626 -0.06896854 0.008560795 0.01117587 -0.0034159757
0.027970785 0.10664311 0.0024700086 0.06356649 0.024405997 0.019423734 0.13139471 0.00012896706
-0.0006676649 0.018455496 0.0024585286 0.010381858 -0.1326951 -0.0026356142 0.032668464 0.064661704
0.00051356415 -0.08495033 -0.004498748 0.07617175 -0.009529906 0.026292654 -0.022162357 0.10332062
0.005655163 -0.036631044 0.009777815 -0.021163588 -0.08201188 0.0679132 -0.019197183 0.007620902
0.031585895 0.11241477 0.009283996 -0.10588024 0.0010876001 -0.122111455 -0.059145328 0.069776736
0.01093282 0.050955 0.081662975 0.04191769 -0.018458512 -0.009393133 0.007642301 -0.009033844
0.009902737 0.18055761 0.063692406 -0.009976804 0.0598645 -0.010116228 0.033795964 -0.06116019
-0.0010094829 0.016032211 -0.08036634 -0.2760566 0.13182305 -0.008780893 0.0137745235 -0.005645775
-0.011803874 -0.0038873546 -0.13627481 0.014710686 -0.0024227384 -0.11273724 -0.02642612 -0.002432883
-0.031093359 -0.002705588 0.07389301 -0.003065983 0.16532487 -0.10327663 -0.00075488817 -0.0026350846
0.01970437 0.01810111 0.18361063 -0.068174586 -0.0007037926 -0.004980433 -0.0006770973 -0.108907364
0.004132506 0.024258934 0.032975137 0.058538 -0.00924086 -0.002376998 -0.0090190675 0.08856181
-0.004562336 -0.0038169923 0.028356614 0.033871047 -0.00094637735 0.008505997 0.00018752628 -0.02506168
-0.0052695833 0.0044675367 0.013349622 0.028264431 0.016149871 0.0056695347 0.05008339 0.0052424693
-0.0315423 0.015397868 0.048054527 0.055899274 -0.018610228 -0.0891499 -0.017221423 -0.014543238
-0.004709436 0.0041522183 0.0035467648 0.08992552 -0.029274996 0.0076677618 0.012775488 0.10903651
-0.0063007753 0.02275531 -0.0062050046 -0.030066662 -0.00055384927 -0.17909263 -0.06179973 -0.013786521
-0.0115085365 0.00427214 -0.0018396105 -0.019157633 -0.018223377 -0.010232267 0.0064099035 -0.06268553
0.031089358 0.005003046 0.018046446 -0.050902445 -0.01553082 0.23826724 0.062254127 0.025069874
-0.17988522 -0.03439276 0.109181814 0.15606098 -0.06575964 0.055928383 -0.083786085 -0.04023664
-0.045651488 0.2113621 -0.0796332 0.0075345803 0.008585624 -0.025236601 -0.012480223 0.037614375
0.0026747074 0.13105297 -0.035154894 0.0089096315 -0.10306437 -0.0026824214 0.010212728 -0.008698948
0.026200002 -0.16244546 0.059981354 -0.13820052 0.2501418 -0.023124702 0.031057734 -0.01255691
0.026469808 0.03533933 -0.005583508 -0.00065541273 -0.21399286 0.00819214 -0.028651426 -0.24304697
0.0051363744 -0.0139664365 -0.03181833 -0.020546772 -0.13615923 -0.037012 -0.0032600337 -0.012872186

mu.2.bias f4 [17]
00000000: aacd cabd b9b6 be3a 8afd 103d 4513 47bc
00000010: fb3d 35be 6ce5 7b3e 67e4 cb3d 9d1d 32be
00000020: f6bf b23e f9e8 0abd 4d50 b5be bc6e 003e
00000030: 61cc 4a3e 26dd 743d 260f b63e 6965 fc3e
00000040: 0f8c 32bd
-0.099025086 0.0014550305 0.035398044 -0.01215059 -0.17699425 0.24599236 0.09955674 -0.17394109
0.3491208 -0.033913586 -0.35412827 0.12542242 0.19804527 0.059781216 0.35558432 0.4929612
-0.0435906

reward_fun.0.weight f4 [200, 23]
00000000: 4aea a83e 1705 98bf 29cf 9dbf 5e17 f93e
00000010: 930c c6bf ef51 e6bf 0012 d93e dd2f 72bf
00000020: c456 3b3f c7d9 77be 90a2 11bf 7a78 8b3e
00000030: d212 99be 1645 77bf 64c5 8ebe 7724 1e3f
00000040: 6b40 f7be dc2c f9be 4bd8 c7be 33e2 cfbe
00000050: 8414 b8be 15d2 9dbf be07 a4bf b765 303f
00000060: 6853 0ac0 026d b1bf 872f 6f3f 3c59 743f
00000070: 623c 2d3e 254f 3abd bc5f 763f 447c 3b40
00000080: 85e0 30bd de11 7b3e cd9c 20bf c589 2f3f
00000090: c4fb 723e ae7d 343f cdd7 3f3e 24fd dd3e
000000a0: 9849 95be 2a05 bdbd b833 273e 7137 023e
000000b0: 2057 d13e 5090 46bf 2d7e 80bd a9d1 41bf
000000c0: ca33 b7be 521d af3e 9865 723f 10d7 d0bf
000000d0: 18ab 113f bf4a b63f 1e78 5ebe ba95 74bd
000000e0: c3d4 fe3e 9d8d 14be 3ad4 d93d 5beb a83e
000000f0: b2c0 62be 3a96 d93d 8253 13bd 8f8c 79bf
00000100: 2620 993d 7c5e dfbe 5c52 393f f926 263f
00000110: b071 533e 0109 3a3f 3714 87bf f933 933e
00000120: 5921 8bbe 1ea8 583f 90ed 59bf a6ef 8fbf
00000130: f771 d6be eb2c c4be 2900 bb3f 2a24 ca3e
00000140: f990 293f 4793 3a3f 997e 03be 8784 88bd
00000150: edf7 fa3e 2185 21bb bdee 193f 8c95 8e3f
00000160: bac7 f33d 9da5 00c0 57bc d4bf 0b99 2f3f
00000170: 1529 edbe 0d29 eabe ec50 4f3e 46c0 48be
00000180: 587f 373d 5581 91be ce3d 59bf c424 9c3f
00000190: fcd0 143f 3872 2cbf 24be 043f 1bd7 9c3d
000001a0: 47a0 bb3e 70f2 333e 464b 85be 7f5b d13e
000001b0: a629 29bc 8b51 b7bf 2d65 8a3f 173b 553f
000001c0: ee9e babf 6c9b 9e3f 144f 19bf 5a4f 873b
000001d0: e925 7bbf c5b4 d73f c67e b33f 4b66 d2bf
000001e0: 56f1 47bf 624b c83e b5ad 933f ddb6 5e3f
000001f0: 8f9b d23d 73e7 76be a057 0f3d 9ea9 a7be
00000200: d17b 3fbf 4533 953e 7f24 66bf 519b 593f
00000210: 15a6 983d 18ba f5be e5b3 a4bf 13ee 03be
00000220: 9d88 b8be 57d7 0bbf cdd2 9a3a c954 20bd
00000230: d9ad 9cbe 8f80 17be a972 823e 5a2d c5be
00000240: 2228 41bf 1e45 193f 0b3b 8abf 4150 953e
00000250: ac03 123e 089d 593e ec40 19bf 51a9 3fbf
00000260: 13f7 83be 5737 ca3e 4694 c53e 04c2 d9bd
00000270: 47eb 8abb c859 d4bd 4410 233e 9303 5abd
00000280: 2d5c 303d b15e 6e3f c61e 4abf 58c3 f93f
00000290: 7db3 4e3d 342c 07c0 3fc5 f0be 16cd 19be
000002a0: 3520 86bf 84b6 5abe f886 203f 1d80 76bf
000002b0: c617 da3e 2815 91be b56f 1ebf 3830 103e
000002c0: 734b a9be b42b 3dbf dfd1 a7be ce50 c9be
000002d0: 5e70 b93e 0a62 a2be a6d6 933e b40d cabf
000002e0: 97b7 1f3e ec00 d6be 048b 063f 66e7 9d3e
000002f0: c269 c83e 71a2 17c0 0257 cfbe b13b 043f
00000300: 01a0 febe 0455 333f f52f 28bf 56e8 b2bd
00000310: e37d 8cbe e7fc 80bf 8d9d 35bd c273 17be
00000320: 0e0b 813e 5389 83bf d603 bf3f 8e5d 77bf
00000330: dfa1 a53d 2db4 90bc f1ff 07be f872 283f
00000340: 1858 9fbe 5333 f6bc e6c9 2bbf 0154 12c0
00000350: 0379 923f a9bc 4ebf ddab 5cbf 3e88 e33d
00000360: 48ef f7be 268e 13be 05db b7be e9b5 a2bd
00000370: 04b2 633e 4eda 7d3e 8d07 2dbe 2c3e da3e
00000380: 9620 8c3f b505 0b3f 8c64 123e 7290 773f
00000390: e4a1 3c3c a34f a23f 85ab 223f b0b6 debe
000003a0: c254 a13f 13f6 1ebc c1e4 233f da84 59bf
000003b0: 5268 a13f e8a4 a43f 8084 1d40 b4ed 9d3f
000003c0: bbe6 51bf 1463 42bf 6f39 523f 6253 053f
000003d0: d981 f0be a7a1 2f3e 6dc4 a43e 967c d3be
000003e0: 8148 943d 4280 463f a786 b3bf 4577 b13e
000003f0: c4e4 7b3f 2e33 8f3f a46d 4ebe ed83 1e3f
0.32991248 -1.1876553 -1.2328845 0.4865064 -1.5472587 -1.7993754 0.42396545 -0.94604284
0.7317927 -0.24204169 -0.56888676 0.27240354 -0.2989717 -0.9658979 -0.27884972 0.6177439
-0.48291335 -0.48667037 -0.39032206 -0.40602264 -0.35953152 -1.2329737 -1.2814863 0.68905205
-2.1613407 -1.3861392 0.93431896 0.9544866 0.16917565 -0.045485634 0.9623983 2.9294596
-0.04318287 0.24518535 -0.6273926 0.68569595 0.23728853 0.7050427 0.18734665 0.43357193
-0.2915771 -0.092295006 0.16328323 0.12716462 0.40886784 -0.77563953 -0.06274066 -0.7571054
-0.357817 0.34202057 0.9468627 -1.6315632 0.56901693 1.4241561 -0.21725509 -0.059713103
0.497717 -0.14507146 0.10636182 0.32992062 -0.2214382 0.106243566 -0.03596831 -0.974801
0.07476835 -0.43626773 0.72391295 0.6490322 0.20648837 0.7266999 -1.0553044 0.2875059
-0.2717388 0.84631526 -0.85128117 -1.124501 -0.41883823 -0.3831552 1.4609424 0.39480716
0.66236836 0.7288098 -0.12841262 -0.066659026 0.49017277 -0.0024646001 0.6012991 1.1139388
0.11903329 -2.0101082 -1.6619977 0.685929 -0.46320406 -0.45734444 0.20245713 -0.19604596
0.04479918 -0.28418985 -0.8485993 1.219872 0.58131385 -0.67361784 0.5185263 0.076582156
0.3664572 0.17572951 -0.26033992 0.40890118 -0.010324871 -1.432176 1.0812126 0.8329329
-1.4579751 1.2391181 -0.5988629 0.0041293325 -0.9810472 1.6852041 1.4023063 -1.6437467
-0.78102624 0.39120013 1.1537386 0.8699778 0.10283577 -0.24111728 0.034995675 -0.32746595
-0.74798304 0.29140678 -0.8989944 0.8500262 0.07453553 -0.4799354 -1.28674 -0.12883787
-0.36041728 -0.5462546 0.0011812091 -0.039143357 -0.30601385 -0.14795135 0.25478104 -0.38511163
-0.7545186 0.5987109 -1.0799268 0.2916279 0.14259213 0.21251309 -0.5986469 -0.7486773
-0.2577444 0.39495346 0.38589686 -0.10632709 -0.004239473 -0.10368687 0.15924174 -0.053226065
0.043056656 0.9311324 -0.78953207 1.9512739 0.050464142 -2.112073 -0.47025487 -0.1501964
-1.0478579 -0.21358687 0.62705946 -0.96289235 0.42596263 -0.28336453 -0.618892 0.14080894
-0.33065376 -0.7389481 -0.32777306 -0.39319462 0.36218542 -0.31715423 0.288747 -1.5785432
0.15597378 -0.41797578 0.5255587 0.30840605 0.39143187 -2.3692896 -0.4049607 0.5165358
-0.49731448 0.700516 -0.65698177 -0.08735721 -0.27439794 -1.007718 -0.044339705 -0.14790252
0.25203747 -1.0276283 1.4923046 -0.9662713 0.08087515 -0.01766404 -0.13281228 0.6580043
-0.31121898 -0.03005377 -0.6710495 -2.2863772 1.144318 -0.8075662 -0.8619974 0.111099705
-0.48424745 -0.14409694 -0.35909286 -0.07944853 0.22235876 0.24790308 -0.16897412 0.42625558
1.0947444 0.54305583 0.14296168 0.9670478 0.011513207 1.2680553 0.6354297 -0.43498755
1.2603991 -0.009702223 0.64020926 -0.8496834 1.2609961 1.2862825 2.4612122 1.2338166
-0.8199269 -0.7593243 0.82118887 0.5208036 -0.46974066 0.17151509 0.3218111 -0.4130599
0.072403915 0.77539456 -1.4025468 0.34661308 0.98395944 1.1187494 -0.20159012 0.6192005

reward_fun.0.bias f4 [200]
00000000: d521 0bbf 8748 bd3e 3bb5 c0be d451 69bf
00000010: b12e d7be cb3f 58bf b0f4 c6be 031a 87bf
00000020: d540 12bf 8c9e 823e f7df 19bf 92c1 e7be
00000030: 06b9 39be 414b 7e3f d657 58bf eec6 13bf
00000040: 4a2e 87be 73f2 10be 7b19 9a3e b391 64bf
00000050: c22e 29bf 98d6 82bf d294 aebf 86ed f7bd
00000060: f5ed 23bf da4f 0d3e ba33 1cbe 66df a9be
00000070: 6169 a8be e011 9dbf e4c0 adbe 00bf 2ebf
00000080: 4896 9fbf 207b 56bf df1e 01bf 64c7 c1be
00000090: a45b b3be 7cd3 79bf ce61 1bbf 78c8 94bf
000000a0: 97a7 10be 6083 96be e239 8cbf 4bd1 af3c
000000b0: 5ad8 15be 2a13 313e 6a90 c6bb cf3f 9bbd
000000c0: f0d4 59bf 558b 06bf b01d 2cbf 09fd 8fbf
000000d0: 7e3b b2be f0a9 81bf 966c 473e 3253 2abf
000000e0: dbab 6abe 3f39 b6bf 71a6 b13c ad30 53bf
000000f0: ebe8 60be 8023 85be 120e e13d 8dc7 b4be
00000100: 0fe0 0cbe e6cb 21bf 64da c83e 4720 69be
00000110: 7686 11bf 6ce7 93bf 59b1 263f 9f1b 6dbf
00000120: a021 3cbf b95e 21bd d181 61bf 8605 78bf
00000130: f6ae 0f3e 1c17 6ebe fba4 533e 3183 a7bf
00000140: e173 22bf 5f38 07be ee34 2c3d ce6e d9be
00000150: cf3a 883d 09ac 7fbf b469 8e3e 4911 e5bd
00000160: 6a24 e5be c85f 33bf 046f 2abf a06d 80bd
00000170: 88b6 343e cdb7 d3bd cc80 67bf 85bb 843d
00000180: 62ba 42bf d664 00bf 36d2 8ebe 1379 11bf
00000190: a222 3dbf 9784 dabf 6949 18bf deaf 14bf
000001a0: 9485 53bf c79f 19bf 3eda ba3e f9db 80be
000001b0: 4eff 3bbe 12b7 a8bf 8b5f 4c3e fc9b 00bf
000001c0: 157c 36bf 818f 9dbf 31d3 49bf d23c 2fbf
000001d0: 326d 54bf 4265 3ebf 0c27 fabe cfa4 5f3e
000001e0: 0105 25bf 75e5 17bf e271 54bf 50b9 0ebf
000001f0: ef11 803b fc9e d1be d248 5ebf e897 44bf
00000200: 151f 89bf 6d44 11bf f74a 1abe b88a 4abe
00000210: 3b21 23bd 0aff 87bf d20e cabe 91cb 26bf
00000220: edbd ebbe 814d a3bf 178f 61bf dbc4 443f
00000230: 5c84 6ebd 82d3 7b3e 3da1 0cbf 65c5 aebf
00000240: fad1 21bf 45e4 47be 2fd1 0ebf 72d0 acbf
00000250: fadb d73e 604c 05bf 513f 51be 2301 9ebe
00000260: f390 e4be fb0e c1be 4035 06bf faa2 acbe
00000270: 4cfe afbe a92e 65bf e63c 7abe 0bfd c2be
00000280: 770f 81bf d0f3 59bf fbe9 003e 2b82 cfbd
00000290: 0c6c f3be a924 04bf 7f9e 283e 855f 7fbe
000002a0: 3037 13bf 8223 48bf 6142 573e 8f74 31bc
000002b0: fede 4cbf 4005 82be f819 d1be 289d 10bf
000002c0: 154b 17be 394c 84bf afe8 80bf 4d2d 24bf
000002d0: 86fb d1bf 5633 6ebf dc57 f93e 13b2 e73d
000002e0: 340b 6dbf c110 6cbf 6dcf e6be 7ed1 adbe
000002f0: 1ded 53bf ff5a 5e3e bae9 75bf eb78 35bf
00000300: 32d6 ac3e 9d24 03bf 0371 04bf 3945 a13e
00000310: 4913 39bf 8234 aabf a78f b1bf 77eb b5be
-0.543485 0.36969396 -0.37638268 -0.91140485 -0.4202781 -0.8447234 -0.38858557 -1.0554813
-0.57130176 0.25511587 -0.6010737 -0.4526487 -0.18136987 0.9933358 -0.84509027 -0.5772542
-0.26402503 -0.14154987 0.30097565 -0.8928482 -0.6608697 -1.0221739 -1.3639166 -0.12105851
-0.6403497 0.13799992 -0.15254107 -0.33178252 -0.32892898 -1.227108 -0.33936226 -0.6826019
-1.2467737 -0.83781624 -0.5043773 -0.37847435 -0.35030854 -0.97588325 -0.60696113 -1.1623678
-0.1412643 -0.29397106 -1.0955164 0.021462103 -0.14633313 0.17292467 -0.006059696 -0.0758053
-0.8509054 -0.52556354 -0.672328 -1.1249095 -0.34811014 -1.0129986 0.19475016 -0.66533196
-0.2291712 -1.423622 0.02168581 -0.8249615 -0.21963851 -0.26003647 0.10989012 -0.35308495
-0.13757347 -0.6320175 0.3922912 -0.22766219 -0.56845796 -1.1554999 0.6511436 -0.9262027
-0.7348881 -0.039396975 -0.8808871 -0.9688343 0.14031586 -0.23251003 0.20668404 -1.3086911
-0.6345807 -0.13205098 0.042042665 -0.4246735 0.06651842 -0.9987188 0.2781502 -0.111849375
-0.44754344 -0.70068026 -0.66575646 -0.06270909 0.17647755 -0.103377916 -0.90430903 0.06481079
-0.7606565 -0.50153863 -0.27894753 -0.5682537 -0.7388097 -1.7071713 -0.59487015 -0.5808085
-0.826257 -0.60009426 0.3649463 -0.25167826 -0.1835911 -1.3180869 0.19958322 -0.50238013
-0.71283084 -1.2309419 -0.7883788 -0.6845218 -0.8297912 -0.7437326 -0.48857915 0.21840213
-0.6446076 -0.593345 -0.8298627 -0.55751514 0.003908388 -0.40941608 -0.86829865 -0.7679429
-1.071261 -0.56745034 -0.1506766 -0.1977948 -0.039826613 -1.0624707 -0.39464432 -0.6515437
-0.4604334 -1.2758027 -0.8810896 0.7686288 -0.058231696 0.24592403 -0.5493353 -1.365399
-0.63211024 -0.19520672 -0.5578794 -1.3501112 0.42160016 -0.52069664 -0.2043431 -0.30860242
-0.44641837 -0.37706742 -0.52425003 -0.3371809 -0.343737 -0.8952432 -0.24437293 -0.3808368
-1.0082844 -0.85137653 0.12589256 -0.101322494 -0.4754337 -0.5161844 0.16466711 -0.24938782
-0.57506084 -0.7817918 0.21021415 -0.010831012 -0.8002776 -0.2539463 -0.40840125 -0.564898
-0.14774735 -1.0335761 -1.0071009 -0.64131624 -1.6404884 -0.9304708 0.48699844 0.11313262
-0.9259522 -0.92213064 -0.45080128 -0.33948892 -0.8278368 0.217144 -0.96059763 -0.7088763
0.33757168 -0.5122774 -0.5173494 0.31498125 -0.7229505 -1.3297274 -1.3871964 -0.35531208

reward_fun.2.weight f4 [200, 200]
00000000: c021 7fbf ee6a 22bf 20bc c53e 408a bcbf
00000010: a6ba a03d 5d9c 3d3f c939 d53e 268d 9bbf
00000020: 24fb 193f 755e b13e 73ea ebbf 1364 3f3e
00000030: 3164 8d3f 46c8 6ebc 30aa 00bf 4256 26bf
00000040: e437 a4be f57f f2bf 573b 9cbd 950e 17bf
00000050: ffb8 fabe 31ea e33d 6100 b5bf 6ad3 113f
00000060: d2ff ec3e 8804 b13e 9d63 b9be 4a3d 673f
00000070: 6ad0 8c3e c564 203e 7cd1 c53e 4dd6 68be
00000080: 3c98 17bf 01f8 a0bd cefd ecbe 9fe3 e13e
00000090: ed2d 2a3f b6fa bcbe 7b7f de3e 4625 a73d
000000a0: a82b aebd cfd0 3b3f b154 f2bd ed23 88bd
000000b0: 69a7 0c3f c2f8 35bc a63e 4ebd e1ce f33e
000000c0: 6662 623f dd1a dc3d f4f7 47bf 69fe ebbe
000000d0: a90d 8b3d 7685 65bf b0ed 27be 019f f4be
000000e0: bbb6 8b3e 0bb7 66bf da8b 713e 94b8 0ebf
000000f0: 68f7 3a3f 5b48 513d e1f4 edbb b960 203f
00000100: d950 bbbe 2bc7 83be 7092 29bd cd0f 67bf
00000110: aad2 34be 2a65 e3be f659 fcbe fcff 4a3e
00000120: 9a55 b23e ce2e c7bf bf2b 82bc 1488 5cbf
00000130: 40fd 58bf cedb c2be c60c dcbd f0bd 073f
00000140: 2e07 0f3e 660e 833d e9e9 cebd 748c a5bf
00000150: e625 c73e bf52 22be bb7d 85be f319 59be
00000160: 28c6 52bf 7e97 b53d 3bb2 bb3c b936 efbd
00000170: 983b b83d 7e53 ca3e 10ae e4be 6b48 863e
00000180: f018 65be 7c17 9c3d 2344 04be a013 b93e
00000190: 7393 4d3e 0e24 da3e f34e 713e 354c 73be
000001a0: 5805 ee3e 6330 8cbb f269 5d3e 5c17 d3bc
000001b0: 866e 2a3f 5dee eabd 6b1a c03e 4350 a43c
000001c0: b182 c93d 3613 253d ffe7 ddbe b317 983d
000001d0: ca3a eebe f4c4 66bf 3b8b 303f 8291 fd3d
000001e0: 3be2 a73e f777 0cbc b9a0 c93e f055 663f
000001f0: e0ff b43e 1d5e 9fbe 5f99 863f 2598 ecbe
00000200: 9354 ddbd 76a7 4abf c448 4fbf 6b42 833e
00000210: d816 193f cecb 10be 33ca 1cbd 1d7c 323f
00000220: 54c3 aebf 08f3 043f a9f5 9f3e c662 7ebf
00000230: 44ec e9be bc5e 74bf af95 d7be ecaa 693e
00000240: 106a 813e e7ed 013f e726 513f 060e 10bf
00000250: e0d8 e33e b676 d33e 1a8f c5be 8ba3 9c3e
00000260: 3cad f63e e92c 683e b479 68bf 9853 edbd
00000270: 6d9c 973f 9f03 7abd c3e9 043e 9205 3f3f
00000280: 20bc c6bd 7b56 53bd b793 8a3e 83e5 0bbf
00000290: 7917 09bf 8637 41bf 564c 1a3f 70e4 863d
000002a0: 59d7 98be f1c1 66bf 0b96 13bf 2126 773e
000002b0: c0df c53e b2b4 073f 2050 9bbe 6000 a13d
000002c0: f569 ba3e 8811 c83f a52c 683f f489 5a3e
000002d0: 0a66 303e ea5a fabd 1e00 3b3d e00b 95be
000002e0: 74a9 9abe 01dd 793c 8c14 70bf 83a2 da3e
000002f0: fe23 f13e 345f 68be ee3c f53e a0b6 75be
00000300: 4044 a43e 0030 683e 1b4c c43e fbb8 ac3c
00000310: de10 5c3e 2957 9fbe 4616 29bf 710c 4d3f
00000320: 1ced a8be 8bbe 6fbe 5460 1dbf 6595 d93e
00000330: a1ec b6bf d4c6 bcbf 27cb 8bbe 972f cd3d
00000340: 1506 2f3f 346b 8b3e 814e 1abf 21d7 eb3d
00000350: d9b9 de3c c1e8 61be 1d65 3b3f 5e55 babe
00000360: a816 773e a8af cabc f8a3 eabf f81d 7e3f
00000370: cddf 1abd 17e3 f6be 7f48 dbbe 5c41 613f
00000380: e373 b93e 544b e83e 28fa 393f d77c b83f
00000390: 45a8 cdbd d093 0cbf 9376 4dbf 2f7a 0cbd
000003a0: 691d a03d 1043 fb3c 87b4 d93d 6b6e 90be
000003b0: f44f 703f 7e41 21be e8ce 43bf 0bc8 193f
000003c0: d802 993e 0ea1 0cbf 208e 31be d33f 843e
000003d0: aa06 8f3c 0631 31bf b9f2 5dbf 469b a7be
000003e0: c96c 7fbb d5f5 b0be 52e1 42be 165a 3abc
000003f0: cd38 95be 94f5 cabe 155f 983d 2a96 8e3e
-0.99660873 -0.6344441 0.3862009 -1.472969 0.078481 0.74066716 0.4164565 -1.215245
0.60148835 0.34642377 -1.8430923 0.18690519 1.1046201 -0.014574116 -0.50259686 -0.6497537
-0.3207389 -1.8945299 -0.07628506 -0.59006625 -0.48969266 0.11128653 -1.4140741 0.5696322
0.46288925 0.3457377 -0.3620881 0.90327895 0.27502757 0.1566344 0.38636386 -0.22738
-0.59216666 -0.07859803 -0.46287388 0.44118974 0.6647633 -0.36910027 0.43456635 0.08161406
-0.085044205 0.7336549 -0.1183256 -0.06647477 0.5494295 -0.011106672 -0.050352715 0.47618774
0.88431394 0.10747311 -0.7811272 -0.46092537 0.06789715 -0.8965677 -0.16399264 -0.4777756
0.2728785 -0.9012305 0.23588505 -0.55750394 0.7303376 0.051094394 -0.007261858 0.6264759
-0.3658512 -0.2573789 -0.04139942 -0.90258485 -0.17658487 -0.4441312 -0.49287385 0.19824213
0.34830934 -1.5561159 -0.01589 -0.8614514 -0.8476143 -0.38058323 -0.10744624 0.53024197
0.13967583 0.06399231 -0.101032086 -1.2933488 0.38896102 -0.15851878 -0.26072487 -0.21201305
-0.8233361 0.088667855 0.022912135 -0.116803594 0.089957416 0.39516824 -0.4466405 0.26227126
-0.22372794 0.07621667 -0.12916617 0.36147785 0.20075779 0.42605633 0.23565273 -0.2375954
0.46488452 -0.004278229 0.21622446 -0.025767975 0.66574895 -0.114712454 0.37520155 0.020057803
0.098393805 0.040301524 -0.4334106 0.07426395 -0.46529227 -0.90144277 0.6896245 0.12381269
0.32789788 -0.008573524 0.39380434 0.8997488 0.35351467 -0.3112649 1.0515555 -0.46209827
-0.10807147 -0.79161775 -0.80970407 0.2563661 0.5980048 -0.14140245 -0.03827877 0.6972063
-1.365336 0.51933336 0.3124211 -0.99369466 -0.4568807 -0.95457053 -0.42106387 0.22819108
0.25276232 0.50753635 0.81699985 -0.562714 0.445014 0.41301507 -0.3858574 0.30593523
0.48179042 0.22673382 -0.90810704 -0.1158821 1.1844612 -0.06103861 0.12979798 0.74617875
-0.09703851 -0.051596146 0.27065822 -0.5464708 -0.5355144 -0.7547535 0.6027273 0.0658654
-0.29851797 -0.9013968 -0.5765082 0.24135639 0.3864727 0.53010094 -0.30334568 0.078614
0.36408964 1.563035 0.9069312 0.21341687 0.17226425 -0.12224372 0.04565441 -0.29110622
-0.30207407 0.015250445 -0.9378135 0.42702112 0.47097772 -0.22692567 0.47898048 -0.23995447
0.3208332 0.2267456 0.38339314 0.0210843 0.2149081 -0.31121185 -0.6604961 0.8009711
-0.329934 -0.2341253 -0.6147511 0.4249679 -1.4290963 -1.4748178 -0.2730343 0.10018843
0.68368655 0.27230227 -0.6027604 0.11515642 0.027188228 -0.22061445 0.7320116 -0.36393255
0.24129736 -0.024741963 -1.8331289 0.9926448 -0.03781109 -0.4822013 -0.42828748 0.87990355
0.36221227 0.4536997 0.72647333 1.4413098 -0.100418605 -0.54913044 -0.80259055 -0.03429621
0.078181095 0.030671626 0.10630136 -0.28209242 0.93872 -0.1574764 -0.7648759 0.60070866
0.29884982 -0.5493325 -0.17339373 0.25829944 0.017459232 -0.6921543 -0.8669849 -0.32735652
-0.0038974753 -0.34562555 -0.19031265 -0.011374017 -0.29144898 -0.39640486 0.074400105 0.2784894

reward_fun.2.bias f4 [200]
00000000: 157f ce3f 9228 49be 4c52 38bd 9ebd 9bbb
00000010: 67d3 6bbe 7c42 453c 40d2 99bd 5a97 ac3e
00000020: 9adb 14be 4a3c a4bd bb98 ad3e f456 98bc
00000030: 61ba 72bd abf6 3bbe 6813 acbd a580 43be
00000040: c7a8 1abe 83a1 86bd 94f5 b53e 5ab0 15be
00000050: d590 92bc 3cab ed3c 2b1e 3dbe 6468 b6be
00000060: c218 323e 3a66 a7bd 7bb3 91bd 5f9e 77bd
00000070: 37a7 9abe e562 3f3d 3142 29be cbc7 b0bd
00000080: 70e6 4ebe 70b2 5ebe b5d7 cfbd e3b5 b3bd
00000090: c3ab 71be 4e04 893b 650f fbbc f4fa 9ebd
000000a0: de98 71be 261c 8abe b091 823f 4d85 f5bd
000000b0: 74de 9ebe 3374 dfbd e6c6 e1bd b344 7dbe
000000c0: 351b a0be 5185 42be c0ce 06be e9d8 9ebd
000000d0: fcb4 44bd f0be 59be c79e cdbd ec42 bebd
000000e0: 6221 b43e 52f4 503f d2bc a13e f3d2 133e
000000f0: 4a19 cabd 8e29 1fbe 0cf8 dd3e e443 953f
00000100: df22 bb3e 4de8 21be 7d26 78be a68b 1abe
00000110: d8e2 aabe 5699 b9bd b87b 21bd 32df dabd
00000120: 36f6 77bd b764 e0bd ecdf 21bd 7ca9 35bf
00000130: 0404 a3be 0a18 0d3e e1ec 7fbd 07f6 7e3d
00000140: c7b2 2abe e247 013d a862 ebbd 7394 043e
00000150: 0d5c 8d3d 6aa9 52bd dcf0 063e 8327 9abe
00000160: c0ab abbd 49c8 00be b28a 9d3e 3bb6 35be
00000170: fc8d 0cbe 2225 c0bd b838 5fbd ad16 70be
00000180: 1a85 eebd 3111 25bd 3218 93bd bac1 33be
00000190: 6367 143c 802c 91bd 6632 b8bd f0df ce3f
000001a0: 8f2e 94bd 759b cebe 6c7c d1bc d08d 8dbe
000001b0: dba2 75bd 1ece 61bd f053 bcbe 9e5c 753e
000001c0: 42a9 f8bd c448 b1be 16b0 673d ccaf 7bbe
000001d0: 1b61 a3bd cd89 debc 79c8 babd 6bf7 5ebe
000001e0: 38fd e43f b4ad 4dbe b289 04be bdc6 0bbf
000001f0: 5583 45be 757c 873e 0089 23be fceb b8be
00000200: 3c26 05bd cb6b 023f 233f 553e 44f8 23bd
00000210: 01b2 373e 3fc8 99bd 05bc 75bc 277f 1cbe
00000220: d4ab 36bd bd9c efbe f75b 29bf 4465 0dbe
00000230: a978 f5be 2b29 7abe aea7 3e3d 6c33 20bd
00000240: 6104 1bbd 3e27 e6bd f979 503f f55e 0cbe
00000250: 871d de3d 4309 14be af80 fabc 7a40 4abc
00000260: 01e0 0940 8550 07be 8537 6bbe 9734 95be
00000270: f599 813f 9f8b 2b3e 14a5 67be c361 a8bd
00000280: 5310 43be 36a9 c6bb 099e efbd bdab 33be
00000290: 7191 2ebd 2069 18bd f48f d9bc 5095 73be
000002a0: eabd 11be 04c4 4ebd d8ed 2abe 8d3d cf3e
000002b0: 6d3f 47be 8334 f3bd 2e85 6dbe 9ba4 6bbe
000002c0: bb84 05be 4512 82be 2633 cdbd 361e 17be
000002d0: ac68 1abe 4007 66be bc4c 70be af70 47be
000002e0: 30e1 73be 7e65 1abe 63b6 92be f640 38bd
000002f0: 376f 94bd ac4e 9e3d f1e0 d8bd 5ccc b53e
00000300: dd11 b2bd a5e7 23be d5e6 3cbd 08b4 0cbe
00000310: 303b 153f bb8e c3bd 5145 433d c3dc 03be
1.6132532 -0.19644383 -0.04500036 -0.0047528287 -0.23029862 0.012039777 -0.07510805 0.33709222
-0.14536896 -0.08019312 0.33905587 -0.01859615 -0.059259776 -0.18355815 -0.08402139 -0.19092043
-0.15103446 -0.06573775 0.35538924 -0.14618054 -0.017891327 0.029012315 -0.1846854 -0.3562652
0.17392257 -0.08173795 -0.07114311 -0.06045377 -0.302057 0.046725173 -0.16529156 -0.086318575
-0.20205092 -0.21747756 -0.10148565 -0.087749265 -0.23600678 0.0041814214 -0.03064699 -0.07762709
-0.2359347 -0.269746 1.020071 -0.11988316 -0.31029093 -0.10910835 -0.11024265 -0.24733238
-0.31270757 -0.18996169 -0.13164806 -0.07756216 -0.048024163 -0.21264243 -0.1004005 -0.09290108
0.3518172 0.81622803 0.3158937 0.1443594 -0.09868105 -0.15543196 0.43353307 1.1661344
0.36550042 -0.15811272 -0.24233432 -0.15092334 -0.33376193 -0.0906245 -0.039424628 -0.106871024
-0.06053754 -0.1095671 -0.03952019 -0.7096174 -0.31839 0.13778701 -0.062481765 0.06224635
-0.1666976 0.031562693 -0.114934266 0.12947254 0.06902323 -0.051431097 0.13177818 -0.3010827
-0.08382368 -0.12576403 0.3076988 -0.17745297 -0.13726038 -0.093820825 -0.05449745 -0.2344615
-0.11646481 -0.040299598 -0.07182349 -0.1755437 0.009057852 -0.07088566 -0.08993988 1.616209
-0.07235443 -0.4035298 -0.025572024 -0.27647257 -0.059969764 -0.05512821 -0.3678279 0.23961112
-0.12141658 -0.34625828 0.056564413 -0.2457878 -0.07977506 -0.027165318 -0.091202684 -0.2177407
1.7889776 -0.20085794 -0.12943152 -0.54600126 -0.1928838 0.2646214 -0.1597023 -0.36117542
-0.032507166 0.5094573 0.20824866 -0.040031686 0.17938997 -0.07508897 -0.014998441 -0.1528288
-0.04459746 -0.4679927 -0.6615595 -0.13808161 -0.4794362 -0.24429767 0.04654663 -0.03911154
-0.037845973 -0.112379536 0.81436116 -0.13708098 0.10845476 -0.14456658 -0.03057894 -0.012344474
2.154297 -0.1321431 -0.22970398 -0.29141685 1.0125109 0.1675248 -0.22621566 -0.082217716
-0.19049196 -0.006062652 -0.11700065 -0.17545982 -0.042619172 -0.03720963 -0.0265579 -0.23787427
-0.14232603 -0.050479904 -0.16692293 0.40476647 -0.19457789 -0.1187525 -0.23195335 -0.23012011
-0.13038914 -0.25404564 -0.100195214 -0.14757618 -0.15078992 -0.22463703 -0.23466772 -0.19476579
-0.23816371 -0.15077779 -0.28654775 -0.044983827 -0.07247775 0.07729849 -0.10589779 0.35507476
-0.086948134 -0.16006334 -0.046118576 -0.13740551 0.5829344 -0.09548708 0.047673527 -0.12877183

reward_fun.4.weight f4 [1, 200]
00000000: f911 c4bd 8d1f 6ebe aca4 2cbc 9ae2 903d
00000010: 4760 023e 80df bfbb 696c c63c 716c 5dbe
00000020: cf5f a5be 8e0b 2abc 3fb1 5bbe ba07 9fbe
00000030: 4051 903b 45e4 9bbd d43d 5d3d 972e a2bd
00000040: 22bf b6bb d73b c4bc 0693 23be e7ce 7c38
00000050: 9ec1 8c3c 8d87 eabc 5afb 28bd 66fc 4cbe
00000060: c570 253e da23 a4bd 8a36 303c ce0f bebd
00000070: 0222 313e accf 68bd 5fc1 97be 372c 1cbc
00000080: c9c9 20bd f952 423a d2a5 b5bd edde 9f3a
00000090: 1975 1cbd 7f25 063d 623d e1bc 95b0 bdbc
000000a0: f669 4b3e 2fe8 5abd 05d6 11be 8015 143d
000000b0: ea7a 22bd c889 54bd 80d0 9c3b 6ab1 c1bc
000000c0: 5a01 953d 6fbb 7cbd 0fa3 8c3c f7b6 1ebd
000000d0: f925 93bd 2db3 04ba f2aa 76bd 88af c4bc
000000e0: 3c21 60be e468 4cbe d9ba a43e 26c8 a43e
000000f0: 9574 adbb 2ab6 1b3c 8671 38be 3c01 c63e
00000100: 8771 79be 4d6f 0e3d f8e3 33bc 6cc9 b43b
00000110: da19 75be 733d 88bd af24 3fbd b29c 4bbc
00000120: 1d8a 32bd 35c0 263d c340 b93b bf47 5b3e
00000130: 7ffd 9fbe 320b 943e b1ff 49bd 44db 1f3d
00000140: 5af2 f43a f6d9 5e3d 1367 0c3b 9a37 30be
00000150: 68dc 7d3d 8b7c 26bc 7fb6 5cbe df12 0c3d
00000160: b2c3 223d 13e6 16bd 467b 32be 806b 33bd
00000170: 890b 1b3c 1720 113d 9b26 bdbc 8838 89bd
00000180: 1d69 3fbd d3a4 343d c502 9e3d 3b28 543d
00000190: 37a1 5abd 9b05 ba3d 7a1c c5bc cc00 4abe
000001a0: 9ee4 1f3d 8958 36be 1e55 e33a efa6 883a
000001b0: d6b9 3fbd 2d31 b93c 9ae7 c23d 1076 7dbe
000001c0: d687 92bc 6d2b 833e 99e2 9abe 5591 f03a
000001d0: 4661 333d 3db0 92bb bb61 81bd cc33 18bd
000001e0: 617f 28be 6458 e33c b4d3 2c3d 369f 343e
000001f0: ebff 783d 581a 63be 1143 533c 8234 733c
00000200: d6ae b73d 0538 23be c59c 96be fb57 863d
00000210: 75fc 44be ffa2 bf3c 4f06 2f3d abe1 a13d
00000220: 46e0 68bc dfea e7bc 0556 443e ed43 a03d
00000230: e890 8cbe 18e3 e03c a36f 7339 393a 96be
00000240: 69c9 71bb 213f 9b3c 763d 29be a76a 24bd
00000250: 75ab a3be 5712 373d a7ed f1bd 4008 efbb
00000260: 8c95 fe3e e567 a6bd 1a42 283d 1541 81bd
00000270: d480 e5be c276 c03e 288b 333d ee47 ad3d
00000280: 635a 053d 3579 f63c 54f1 463c d9ae 063d
00000290: 2921 833d a95d 1a3d d799 f93b e768 24bd
000002a0: a0f1 a53b cb6d 29bd 7a7b ac3e d335 85be
000002b0: eb43 1c3c af59 3abd 11f5 f13c c8eb 9ebe
000002c0: 4c6b 693d 670b bbbc 17c9 83bd 8a32 bfbd
000002d0: 587f fd3c e39e bfbb 8f82 f13d 623c b9bd
000002e0: 38ac b3bd 11d6 a83d 2cd1 60be 1187 cd3c
000002f0: 49fc 99be 3ede ae3e a8d9 aa3c 5b21 d93e
00000300: d1b9 063d c460 673c 2558 613b 7db4 64bc
00000310: 43cf 0abe 310d b83d 5cba b4bc a92d 893d
-0.095737405 -0.23254223 -0.010537308 0.07074471 0.1273204 -0.0058555007 0.024221616 -0.21623398
-0.3229966 -0.010378731 -0.21454333 -0.31060582 0.004404217 -0.07611898 0.054014042 -0.079190426
-0.005576984 -0.023954315 -0.15974054 6.0274175e-05 0.017182168 -0.028629089 -0.041255333 -0.20018157
0.161563 -0.08014651 0.010755191 -0.09280358 0.17298129 -0.056838676 -0.29639718 -0.009532026
-0.039254937 0.00074128766 -0.08869518 0.0012197174 -0.03819761 0.032750603 -0.02749509 -0.02315549
0.1986464 -0.053444084 -0.14241798 0.036153316 -0.039668 -0.05188921 0.0047855973 -0.023644168
0.072756484 -0.061702188 0.017167596 -0.038748708 -0.07184977 -0.00050620997 -0.06022162 -0.024009481
-0.21887678 -0.19961888 0.32173803 0.3218395 -0.0052934387 0.0095038805 -0.18012056 0.38672817
-0.24359713 0.034774113 -0.010979645 0.0055171754 -0.23935643 -0.066523455 -0.046665844 -0.012427496
-0.043588746 0.040710647 0.005653472 0.21414088 -0.3124809 0.2891479 -0.049316112 0.039027467
0.0018687949 0.054407082 0.0021423742 -0.1720871 0.061977774 -0.010161529 -0.21553992 0.034197684
0.03973741 -0.03684051 -0.17429838 -0.043803692 0.009463199 0.035430994 -0.023089698 -0.067002356
-0.046731103 0.0441025 0.07715372 0.05179618 -0.053376403 0.090831004 -0.02406143 -0.19726866
0.039036386 -0.17807211 0.0017344092 0.0010425727 -0.046808086 0.022606457 0.09516831 -0.24752069
-0.017887037 0.2561907 -0.30251005 0.0018353859 0.04379394 -0.0044765756 -0.06317469 -0.037158772
-0.16454841 0.027752109 0.042194083 0.17638859 0.060790937 -0.22178018 0.012894408 0.014844062
0.08968894 -0.15939339 -0.2941648 0.0655975 -0.1923693 0.023393152 0.042730626 0.07904371
-0.014213627 -0.028310237 0.19173439 0.07825456 -0.27454305 0.027452037 0.00023215874 -0.29341295
-0.0036893731 0.018951 -0.16527352 -0.040140774 -0.3196675 0.044695225 -0.11812907 -0.0072946846
0.4972347 -0.08125285 0.041078664 -0.063112415 -0.4482485 0.37590605 0.04383388 0.08460985
0.032556903 0.030087093 0.012142498 0.03288159 0.06402809 0.037686978 0.007617216 -0.040139105
0.0050642043 -0.041364472 0.33687955 -0.26017627 0.009537677 -0.045495685 0.029535802 -0.31039262
0.056987092 -0.022832585 -0.06434839 -0.093358114 0.030944511 -0.005847798 0.1179248 -0.0904472
-0.087730825 0.08243955 -0.21954793 0.025088819 -0.3007529 0.34153932 0.02085574 0.4240826
0.032892052 0.014122192 0.0034384814 -0.013959047 -0.13555627 0.08986891 -0.02206152 0.06698162
