data/hlt_stoch/HalfCheetahEnv/seed_613/model_20000.pt (torch, 217424 bytes, 10 tensors)

log_std f4 [1, 17]
0	0xc07f5ee1	-3.990166
1	0xc06060ad	-3.5059006
2	0xc0558154	-3.3360186
3	0xc0518aa5	-3.2740872
4	0xc04bec2a	-3.1862893
5	0xc041215c	-3.017661
6	0xc0445f6a	-3.0683236
7	0xc04af937	-3.1714609
8	0xbfa10603	-1.257996
9	0xbf5ccca2	-0.86249745
10	0xbe6822ad	-0.22669478
11	0xbda52742	-0.080641285
12	0x3e64139d	0.22273107
13	0x3e994f19	0.2994316
14	0x3f15edaa	0.5856577
15	0x3ee97709	0.4559863
16	0x3f01287b	0.50452393

mu.0.weight f4 [200, 23]
0	0x3f98df1b	1.1943086
1	0xbf75cb9a	-0.96013796
2	0xbdd65bf1	-0.10466755
3	0xbe18eab1	-0.14933278
4	0xbd364262	-0.0444969
5	0xbfccaf26	-1.5990951
6	0xbf887b81	-1.066269
7	0xbe726e4e	-0.2367489
8	0xbd89ecee	-0.06734644
9	0xbd75a417	-0.05997094
10	0xbd5de154	-0.054169968
11	0xbc919122	-0.0177694
12	0xbc379c19	-0.01120665
13	0xbc160e0a	-0.009158621
14	0xbc911af6	-0.017713051
15	0xbcb194e0	-0.021677434
16	0xbc13dd27	-0.009024895
17	0x3d68b7d2	0.05681593
18	0x3be26eba	0.0069101723
19	0x3d62d33c	0.05537723
20	0x3e105c53	0.14097719
21	0x3cc26e63	0.023734277
22	0x3d5bed7b	0.053693276
23	0x3f92178a	1.1413434
24	0x3cc84358	0.024446175
25	0x3f74585a	0.95447314
26	0x3f733e3c	0.9501684
27	0x3f9ccdf2	1.225035
28	0xbcf16f07	-0.029471887
29	0xbfe64f63	-1.7992977
30	0x3f44edb9	0.76925236
31	0xbe23a3da	-0.15980473
32	0xbd5ff45b	-0.054676395
33	0xbe53fe07	-0.20702372
34	0xbd3853b6	-0.045001708
35	0xbc796edf	-0.015224188
36	0x3da399b3	0.079883
37	0xbd3f2b3c	-0.04667209
38	0x3d89a743	0.06721356
39	0xbc12bdcc	-0.008956384
40	0x3b097fe1	0.0020980763
41	0xbf061a97	-0.5238432
42	0x3ed7fdaa	0.42185718
43	0xbe7243eb	-0.23658721
44	0xbf78b658	-0.97153234
45	0xbc5d83c6	-0.013520187
46	0xbe9f46e4	-0.31108773
47	0xbd89f752	-0.06736626
48	0xbee55547	-0.44791624
49	0x3d7ef0ce	0.062241368
50	0xbf6d2c91	-0.9264613
51	0x3f8c4a07	1.0960091
52	0xbfb27efb	-1.3945001
53	0xbf5b372b	-0.85631055
54	0xbddde86c	-0.108353466
55	0x3e010cda	0.12602559
56	0x3dc2e89b	0.09517022
57	0x3d1f5094	0.038895205
58	0x3d9cca89	0.07655818
59	0x3c5df559	0.013547265
60	0xbbb6e9a1	-0.00558205
61	0xbd0f851f	-0.035039064
62	0x3ca8f980	0.020626783
63	0x3e93c9f9	0.2886503
64	0x3dfe4b0f	0.1241666
65	0x3eb91b6f	0.36153743
66	0xbf97776d	-1.1833321
67	0x3ee8b143	0.4544774
68	0xbf0d1ec0	-0.55125046
69	0xbe00a505	-0.1256295
70	0x3d6ebddb	0.05828653
71	0x3d72c12f	0.059266265
72	0x3f0aaf8d	0.5417412
73	0x3ff3f7fb	1.9060053
74	0x3eef615f	0.46753976
75	0xbf2c44d7	-0.6729254
76	0xbeb2d699	-0.3492935
77	0x3d4bbf5c	0.04974304
78	0xbd9a581d	-0.075363375
79	0xbe7ce22a	-0.2469565
80	0x3dac9011	0.08425916
81	0x3d1bad87	0.038007285
82	0xbb66a1b0	-0.0035191588
83	0xbd96c1a1	-0.073611505
84	0x3ce9b907	0.02853061
85	0x3c714310	0.014725462
86	0xbd8bd253	-0.068272255
87	0xbea07c04	-0.31344616
88	0xbed009fe	-0.40632623
89	0xbe1f5b19	-0.15562095
90	0x3eed54d1	0.46353772
91	0xbe227460	-0.15864706
92	0x3f5cc8b4	0.8624375
93	0xbe05cc38	-0.13066185
94	0xbfaefb3a	-1.3670418
95	0x3f2fe882	0.68714154
96	0xbe85fc9d	-0.2616929
97	0xbf03b17a	-0.5144268
98	0xbd9d7a61	-0.076893575
99	0xbf875c27	-1.0574998
100	0x3e319fb8	0.17346084
101	0xbe292b33	-0.16520385
102	0x3da80cd5	0.082055725
103	0xbb89e514	-0.0042082164
104	0xbb688faa	-0.003548602
105	0x3c6b4cc7	0.014361567
106	0x3c7f595b	0.015585269
107	0x3c00b717	0.007856152
108	0xbd2cdc8b	-0.042202514
109	0x3f0d80e9	0.55274826
110	0xbe2c0a6a	-0.16800848
111	0x3ce47222	0.027886454
112	0xbee1d1a9	-0.4410527
113	0xbd4428f3	-0.047890615
114	0xbe312432	-0.17298964
115	0xbe073834	-0.13205034
116	0x3d6bdeb3	0.05758543
117	0x3f668927	0.9005303
118	0xbf51c6ec	-0.81944156
119	0xbf6df67f	-0.9295425
120	0x3f131ee1	0.5746899
121	0xbf157e8c	-0.5839622
122	0xbf268a48	-0.6505475
123	0x3d1096a7	0.035299923
124	0x3e366574	0.17812139
125	0xbc990237	-0.018677814
126	0x3bf7b2b7	0.0075591463
127	0xbd9aa967	-0.07551842
128	0x3dec848e	0.1154872
129	0x3b9fa7f0	0.0048723146
130	0x3d8a43b8	0.067511976
131	0x3d012bca	0.0315359
132	0xbede2c31	-0.4339309
133	0x3eced436	0.4039628
134	0x3f0899ec	0.53359866
135	0xbeab05ab	-0.33402762
136	0x3eb29183	0.34876642
137	0x3cd8ffa5	0.026489088
138	0xbfb9e3dd	-1.4522663
139	0xbc78126d	-0.015141112
140	0xbe978d66	-0.29600066
141	0xbdd86377	-0.105658464
142	0xbded37aa	-0.11582883
143	0x3f86cf6d	1.0532051
144	0x3f346235	0.7046235
145	0x3d81b4a3	0.06333282
146	0x3e98b69d	0.29826823
147	0xbb841cca	-0.0040317522
148	0xbcb5840c	-0.022157691
149	0xbc5b7a53	-0.013395864
150	0xbbd03baf	-0.006354771
151	0xbc36ef4e	-0.011165453
152	0x3d165d87	0.03671029
153	0xbc005936	-0.00783377
154	0x3d4630e5	0.048386473
155	0x3e080b20	0.13285494
156	0xb8fc8054	-0.00012040199
157	0x3c861fd4	0.016372599
158	0xbf2dcf54	-0.6789448
159	0x3e81f50a	0.25382262
160	0x3e82115d	0.25403872
161	0x3fe80c8b	1.8128828
162	0xbd4cd128	-0.050004154
163	0x4005ff6c	2.0937147
164	0xbefac2f1	-0.48976853
165	0xc03b325b	-2.9249485
166	0xbfe853e8	-1.8150606
167	0xbf34c648	-0.70615053
168	0x3f856af7	1.0423268
169	0xbea30eba	-0.31847173
170	0xbe8fa76a	-0.28057414
171	0xbd578b87	-0.052623298
172	0xbc827168	-0.015923217
173	0x3d0ddfb2	0.03463716
174	0x3d615d3e	0.055020563
175	0x3c2c2a0f	0.010508074
176	0x3bd110e1	0.006380186
177	0x3c705dac	0.014670771
178	0x3d267ae4	0.04064454
179	0x3f33c86a	0.7022768
180	0x3f903891	1.1267263
181	0xbddc2582	-0.107493415
182	0xbe11cd5f	-0.14238499
183	0x3dc0e6f1	0.094190486
184	0xbf2b3e72	-0.6689216
185	0x3effa18b	0.49927935
186	0xbf438de8	-0.76388407
187	0xbf5ea2c4	-0.8696711
188	0xbec305f9	-0.38090494
189	0xbf65b7cc	-0.89733577
190	0x3fb0aae3	1.380215
191	0xbf92bf72	-1.1464674
192	0xbd81aae7	-0.06331425
193	0xbeef58b0	-0.4674735
194	0x3ee72c87	0.4515116
195	0x3ccadf7c	0.024764769
196	0x3c926167	0.01786871
197	0x3d459e08	0.048246413
198	0x3b733ccb	0.0037115093
199	0xbc2e9c83	-0.0106574325
200	0x3cf938a2	0.030422512
201	0x3e73795f	0.23776768
202	0x3ebee7ce	0.37286228
203	0x3f0726ee	0.52793777
204	0x3ef97451	0.48721555
205	0x3f159f97	0.5844664
206	0xbd79d5db	-0.060994964
207	0xbe8fd44e	-0.28091663
208	0x3d4454db	0.047932487
209	0xc00b074b	-2.1723201
210	0xbfe2d7df	-1.7722129
211	0x3e804800	0.25054932
212	0xbd32ecd2	-0.04368288
213	0xbe56923f	-0.20954226
214	0x3d6abb94	0.057307795
215	0x3d6a4a96	0.057200037
216	0x3d69d4b7	0.057087626
217	0x3cb60fb1	0.02222428
218	0xbd46d90f	-0.048546847
219	0xbc73cd66	-0.014880514
220	0x3a854ee3	0.0010170605
221	0x3a75c7c6	0.0009375777
222	0x3a60f689	0.00085816585
223	0x3c336cb8	0.010951214
224	0x3ecafb2d	0.39644757
225	0x3e52c7fc	0.205841
226	0x3dce9206	0.100864455
227	0x3a391f8f	0.00070618925
228	0x3d9a7068	0.07540971
229	0xbdb41b26	-0.08794241
230	0xbe8a6357	-0.27028915
231	0x3b6ddc98	0.0036294814
232	0x40007f58	2.0077724
233	0x400ee230	2.2325554
234	0xbe66d6b2	-0.22542837
235	0xbd81cc75	-0.06337825
236	0x3dce9e75	0.10088817
237	0xbc873073	-0.016502595
238	0x3c8d775d	0.01726883
239	0x3cc6b688	0.02425696
240	0xbcca00f1	-0.024658652
241	0xbcef754a	-0.029230732
242	0xbcc2e792	-0.023792062
243	0xbc0cdbc6	-0.00859732
244	0x3c186fae	0.00930397
245	0x3c454192	0.012039559
246	0xbb8411d3	-0.004030445
247	0xbf423e1c	-0.7587602
248	0xbef8ab57	-0.48568222
249	0xbc2bc1d5	-0.010483225
250	0xbddfc968	-0.10927087
251	0xbdcacb66	-0.099020764
252	0x3c442a2e	0.011972947
253	0xbf77af1f	-0.9675159
254	0x3c6d9d06	0.014502769
255	0x3f308a9f	0.6896152

mu.0.bias f4 [200]
0	0xbf1b2ead	-0.60618097
1	0xc08de331	-4.4339833
2	0x3ec7ecc7	0.39047834
3	0x3e4766c6	0.19472799
4	0xc05d35eb	-3.456416
5	0x3eeedbee	0.46652168
6	0xc01f93eb	-2.4934032
7	0xc07d5a98	-3.9586544
8	0xc09c31a4	-4.8810596
9	0xbfb5a491	-1.4190847
10	0xbfc72b94	-1.5560174
11	0xbf70219d	-0.9380129
12	0xbec3d97b	-0.38251862
13	0x3caf36a2	0.021388356
14	0xbf8ec8ed	-1.1155068
15	0xbc19a5df	-0.009377926
16	0xc0853200	-4.1623535
17	0xc0a73655	-5.2253823
18	0xbf42a3fc	-0.7603147
19	0x3f48cdb1	0.7843886
20	0xc03f00e9	-2.9844306
21	0xc0b5e625	-5.684344
22	0xbf119101	-0.56861883
23	0xc003b5c2	-2.0579686
24	0xc020f5a7	-2.5149934
25	0xc096eafe	-4.7161856
26	0xc02aba62	-2.667626
27	0xc0c36321	-6.1058507
28	0xbf631bd2	-0.88714325
29	0xc03704b6	-2.8596625
30	0xc0b5152d	-5.658835
31	0xc0911881	-4.534241
32	0xc071785a	-3.7729707
33	0xbfd08f18	-1.6293669
34	0xc08043d3	-4.0082793
35	0xc0ac7135	-5.388819
36	0xbf945062	-1.1587031
37	0xc07e6ad3	-3.97527
38	0xc02570b6	-2.5850043
39	0xc08a2e91	-4.3181844
40	0xc0332297	-2.7989862
41	0xc08246ad	-4.0711274
42	0xc091547c	-4.541563
43	0xc0a27476	-5.0767164
44	0x3ed02e6d	0.4066042
45	0xbfd37070	-1.6518688
46	0xc0551e0c	-3.329959
47	0xbf0136a6	-0.5047401
48	0xc035cd61	-2.8406603
49	0xbf76bc22	-0.9638082
50	0x3f6d88a4	0.9278662
51	0xc034e889	-2.8266928
52	0xc0acefe3	-5.404283
53	0x3fb4f682	1.4137728
54	0xc09ed1f3	-4.9631286
55	0xbf98c9ca	-1.1936581
56	0xbfcff46e	-1.6246469
57	0xc0810a24	-4.032488
58	0xbfc46acb	-1.5345091
59	0xc08cf295	-4.404612
60	0xbead66a2	-0.33867365
61	0xc0792d14	-3.8933764
62	0xc08e2da9	-4.4430737
63	0xc026e62c	-2.6077986
64	0x3f39e847	0.7262005
65	0xc050ed70	-3.264492
66	0xc0005756	-2.0053306
67	0xc036478f	-2.8481176
68	0xbff75662	-1.9323237
69	0xc081bd16	-4.054332
70	0xc0c06326	-6.012103
71	0xc0966424	-4.699724
72	0xc0856338	-4.1683617
73	0xc0655516	-3.5833182
74	0xc0b16a3f	-5.5442195
75	0xc00a2132	-2.158276
76	0xbfba4e32	-1.4555113
77	0xc085dd53	-4.183267
78	0xc054e8f2	-3.3267179
79	0xc03c50a6	-2.9424224
80	0xc06989cf	-3.6490362
81	0xc081a1ee	-4.051017
82	0xc03d6f9a	-2.9599366
83	0xc03ad28e	-2.9191012
84	0x3ee9a8b5	0.45636526
85	0xbfa614a8	-1.2975054
86	0xc077e02d	-3.8730576
87	0xbe5a6e35	-0.21331103
88	0xc0a7e3b2	-5.246545
89	0xc078a2f6	-3.8849463
90	0xc05c7d0e	-3.4451327
91	0xc0859f60	-4.175705
92	0xc08cd35b	-4.4008
93	0xc02b267a	-2.6742234
94	0xc0881424	-4.2524586
95	0xc07365ea	-3.8030953
96	0xbe8fa6f8	-0.28057075
97	0xc0127b53	-2.288777
98	0xc086c26a	-4.211232
99	0xbf510b85	-0.816582
100	0xbe6984a3	-0.22804503
101	0x3feb1079	1.8364402
102	0xc0955672	-4.6668024
103	0xc03ba008	-2.9316425
104	0xbf6bf113	-0.92164725
105	0xbf69b1d8	-0.91286993
106	0xc042bb37	-3.0426767
107	0xc061863b	-3.5238178
108	0xc00496db	-2.0717075
109	0xbf6b419c	-0.91896987
110	0xc0767975	-3.8511631
111	0xbf6a2a63	-0.91470927
112	0x3f18d410	0.5969858
113	0xc01503f3	-2.328366
114	0xbf0362d1	-0.51322657
115	0xbfb11f41	-1.3837663
116	0xc0adb41d	-5.4282365
117	0xc07c6583	-3.9436958
118	0xc06d684b	-3.7094905
119	0xc073fef5	-3.8124363
120	0xc03f3462	-2.9875722
121	0xbff6cb1d	-1.9280735
122	0xc0ce6efa	-6.451047
123	0xbf9d41ff	-1.2285765
124	0x3f26a3c9	0.65093666
125	0xbf6424d4	-0.89118695
126	0xbf64b1b0	-0.8933363
127	0xbf99c431	-1.2012998
128	0xc083ad4a	-4.1149035
129	0xbfc0588f	-1.5027026
130	0xc09e5bcd	-4.948706
131	0xc039c636	-2.9027228
132	0xc02ee7bb	-2.7328937
133	0xbfa1b13a	-1.263221
134	0xc0832022	-4.0976725
135	0xc094400e	-4.632819
136	0xc0782b96	-3.8776603
137	0xbf17b55d	-0.59261113
138	0xc08e1ef5	-4.441279
139	0x3acfb583	0.0015846941
140	0xc0005a09	-2.0054953
141	0xc0a92329	-5.285542
142	0xc091b950	-4.553871
143	0xc08d1a62	-4.4094706
144	0xbecfba9a	-0.40572053
145	0x3c00766c	0.007840734
146	0xc0c26f4c	-6.076086
147	0x3faeaa6a	1.3645756
148	0xbfde4133	-1.7363647
149	0xc0a6d2e9	-5.213246
150	0xbfafaa2f	-1.3723811
151	0xc05846ea	-3.3793283
152	0xc0597c81	-3.398224
153	0xc0a5f308	-5.185917
154	0xbf2e9f28	-0.68211603
155	0xbfb60f91	-1.42235
156	0xbf0cae1d	-0.54953176
157	0xbf4b3cc0	-0.7938957
158	0xc09763c3	-4.730928
159	0x3fe5c203	1.7949833
160	0xc0a8193e	-5.2530813
161	0xbd2f6e2c	-0.042829677
162	0xbffa2ec6	-1.9545524
163	0x3cdd4518	0.027010486
164	0xc02a7ba4	-2.6637964
165	0xc0909418	-4.518078
166	0x3ec6856a	0.38773662
167	0xc099bf0b	-4.8045707
168	0xbcba75e4	-0.022761293
169	0xbf4aa216	-0.79153574
170	0xbfc5d377	-1.5455159
171	0xc0313923	-2.7691123
172	0xc0aca39f	-5.3949733
173	0xbff1b600	-1.8883667
174	0xbf80a2ad	-1.0049645
175	0xc03ab179	-2.917082
176	0xc0a4a3f1	-5.1450124
177	0x3e9371ec	0.28797853
178	0x3f07b1a8	0.53005457
179	0xbec17fd4	-0.37792838
180	0xc0a9623f	-5.293243
181	0xbfeb7351	-1.8394567
182	0xc0930b1f	-4.5951076
183	0xc080da69	-4.0266614
184	0xc0a8844c	-5.2661495
185	0xbfcf0ed7	-1.6176404
186	0xc00d8d70	-2.2117577
187	0xc09368ad	-4.606528
188	0xc0b6c054	-5.7109776
189	0xbf292585	-0.66072875
190	0xbe508ade	-0.20365474
191	0xc09ce74b	-4.903234
192	0xc083d0d1	-4.1192403
193	0xc0844eb8	-4.134609
194	0x3ef9863e	0.4873523
195	0xc09e74fd	-4.951781
196	0xc08c3080	-4.3809204
197	0xc08f5f48	-4.480381
198	0xbee3a470	-0.44461393
199	0xc043bd6d	-3.0584366

mu.2.weight f4 [17, 200]
0	0x3c9ef31c	0.019403033
1	0x3c0bce1c	0.008533027
2	0x3c4f5c5c	0.012656298
3	0xbaf4e232	-0.0018683134
4	0xbb69a471	-0.0035650993
5	0x3c2f6810	0.010705963
6	0x3ae6448d	0.0017568037
7	0xbb9a2a96	-0.0047047837
8	0x3c9e081f	0.019290982
9	0xbba77bb1	-0.0051111807
10	0xbb1b65e9	-0.0023711866
11	0x3bb0c84d	0.0053949715
12	0xbcd0b4cf	-0.025476841
13	0x3c4c814a	0.012481997
14	0xbc406a7a	-0.011744136
15	0x3c0eae0f	0.008708491
16	0xbcd3e2d4	-0.025864996
17	0xbcbd9adc	-0.023145132
18	0xbc7a3726	-0.0152719375
19	0xbc4f3806	-0.012647634
20	0x3c278198	0.010223769
21	0x3d419c22	0.04726804
22	0xbc7ff952	-0.015623407
23	0x3cea1134	0.028572656
24	0xbc93f525	-0.01806123
25	0x3bfcb306	0.007711771
26	0xba438c74	-0.0007459589
27	0xbaf369ff	-0.0018571018
28	0xb8294a4f	-4.0361945e-05
29	0xbbb4736a	-0.0055069225
30	0xbb300aa3	-0.0026861809
31	0x3c1a1b72	0.009405958
32	0x3da5c4bb	0.08094164
33	0xbd0077f7	-0.031364407
34	0x3cadd2c6	0.021218669
35	0x3daae38b	0.083441816
36	0x3baa3ad3	0.0051950007
37	0xbd865d55	-0.065607704
38	0xbd0c0b3a	-0.034190394
39	0xbbc91f4d	-0.0061377645
40	0xbc641446	-0.013920849
41	0xbc2a4128	-0.010391511
42	0xbc3dd52c	-0.011586469
43	0x3ba12350	0.0049175397
44	0x3b426d88	0.0029667336
45	0xbc9c70ba	-0.019096721
46	0xba96462c	-0.0011465005
47	0x39014cd6	0.00012331022
48	0x39d636a1	0.00040857962
49	0xbd06bccb	-0.03289489
50	0x3c52173c	0.012822922
51	0x388702f5	6.4378524e-05
52	0x3dc445cf	0.095836274
53	0x3c449a12	0.011999624
54	0x39ee0297	0.00045396827
55	0xbca3765a	-0.019953895
56	0xbbe93d7c	-0.007117925
57	0x3d2c45fc	0.04205893
58	0xbb71b79d	-0.0036883124
59	0x3bd70cbe	0.0065627983
60	0xbc783033	-0.01514821
61	0xbcef58ca	-0.029217143
62	0xbbda9f30	-0.0066718087
63	0x3b9f1066	0.00485425
64	0xbc06835d	-0.00821003
65	0x3bfd2d73	0.0077263652
66	0x3c8c27d5	0.017108837
67	0xbc5f2287	-0.013619072
68	0x3b75d567	0.003751123
69	0x3c30c37d	0.010788796
70	0x3b3500cb	0.002761888
71	0x3cf0d0d7	0.029396458
72	0xbcc60160	-0.024170578
73	0x3c3b592c	0.011434834
74	0xbc2704dc	-0.01019403
75	0x3abb8a1f	0.0014308131
76	0xba60b6a8	-0.000857214
77	0x3c088d0b	0.0083344085
78	0xbd1a0ec7	-0.03761175
79	0xbcd71310	-0.026254207
80	0xbb380f36	-0.0028085238
81	0xba9d7f16	-0.0012016024
82	0xbb25bbae	-0.0025288868
83	0x3c13009b	0.008972312
84	0x3c8aab93	0.016927516
85	0x3c149723	0.009069237
86	0x3d01825e	0.03161847
87	0x3a14e605	0.00056800275
88	0xbc42dff4	-0.011894215
89	0x3be8f12a	0.007108827
90	0x3c2ceb81	0.010554195
91	0xbcc4be48	-0.024016514
92	0xbc64c312	-0.013962524
93	0x3cb19041	0.021675231
94	0xbc2cf2c2	-0.010555925
95	0xbad9d1c5	-0.0016618302
96	0xba928810	-0.0011179466
97	0xbc0e00b7	-0.008667163
98	0xbb575003	-0.0032854087
99	0x3cda8fea	0.026679952
100	0xbc320fb6	-0.010868004
101	0x3a2014a8	0.00061065936
102	0xbc39c988	-0.011339553
103	0xbc4d94d0	-0.012547687
104	0x3d1b2a8a	0.037882365
105	0x3c3e8591	0.011628524
106	0x3c081490	0.008305684
107	0x3cb269c0	0.021778941
108	0xbc84b28e	-0.016198423
109	0x3b46a7fb	0.0030312527
110	0x3c033909	0.008009204
111	0x3b86ca17	0.0041134465
112	0x3bde752b	0.00678887
113	0xbd0fce5a	-0.0351089
114	0xbc144fa7	-0.009052194
115	0x3b4d87a3	0.0031361363
116	0xbdb22fdb	-0.08700534
117	0x3c3b65d0	0.011437848
118	0xbd42bf01	-0.047545437
119	0x3c1db31b	0.009625222
120	0x3d018379	0.031619523
121	0xb93dc89a	-0.00018099174
122	0x3d1252b0	0.03572339
123	0x3bcba119	0.0062142727
124	0xbc50a65c	-0.012734976
125	0xba1589c3	-0.0005704427
126	0x389239a3	6.972558e-05
127	0xbc02669c	-0.007959034
128	0x3ccde31b	0.025132706
129	0xbcbdefbc	-0.023185603
130	0xbcb9a137	-0.022659881
131	0x3d2c8d09	0.04212669
132	0xbb793241	-0.0038024338
133	0x3ca5ef0f	0.020255594
134	0xbcfcdc83	-0.030866867
135	0xbcd0b774	-0.025478102
136	0x3be0edf7	0.006864305
137	0x3a132a5e	0.0005613918
138	0xbbfe72b2	-0.0077651376
139	0x3bc9927a	0.0061514946
140	0xbc887761	-0.016658487
141	0xbb235c9c	-0.0024927026
142	0xbb83bac6	-0.004020068
143	0x3a91cd2b	0.0011123767
144	0xbb8665ce	-0.0041014915
145	0x3ba8e141	0.0051538055
146	0xb981f01b	-0.0002478369
147	0xbd11185c	-0.03542362
148	0xbbe257a1	-0.006907419
149	0x3cb61ee6	0.02223153
150	0x3c034b7b	0.008013601
151	0x3d1a2dc7	0.037641313
152	0xbc9da753	-0.019244825
153	0x38730ae2	5.794585e-05
154	0xb9ade0e4	-0.00033164688
155	0x3c72365d	0.014783469
156	0xbb184f78	-0.0023240726
157	0x3c19fcb9	0.009398633
158	0x3cae5286	0.021279585
159	0xbb180407	-0.002319576
160	0x3d90e486	0.070748374
161	0xbbaf8386	-0.005356255
162	0xbc507e48	-0.01272542
163	0xbc12dc01	-0.008963586
164	0x3d75aa9d	0.059977163
165	0xb9f2f557	-0.0004634063
166	0x3cb93462	0.022607986
167	0xbbd07524	-0.0063616205
168	0xbc51e6f6	-0.012811413
169	0x3bf44196	0.0074541075
170	0xbc00933f	-0.007847606
171	0xbca3d7cf	-0.020000366
172	0xbd3f33a6	-0.046680115
173	0xbb5253f3	-0.0032093495
174	0x3c33f469	0.010983565
175	0xbd33c4ce	-0.04388886
176	0x3baa6593	0.005200097
177	0x3b36f73c	0.002791836
178	0x3c9bc3a8	0.019014195
179	0xbc127402	-0.008938791
180	0x3c654022	0.013992341
181	0x3a8a5b4e	0.0010555775
182	0xbc2cab7d	-0.010538933
183	0xbbce6c38	-0.006299522
184	0x3b25f2c1	0.0025321695
185	0x3b80a072	0.0039253766
186	0x3c2a212d	0.010383886
187	0x3c446a74	0.011988271
188	0x3d737c81	0.059444908
189	0x3c818171	0.015808793
190	0x3ca024a6	0.019548725
191	0xbc054a30	-0.008135363
192	0x3c96df48	0.018417016
193	0x3cf150c1	0.029457452
194	0xbad207f1	-0.0016024095
195	0xbb8fb478	-0.004385527
196	0xbd0477ca	-0.032340802
197	0xbc1e7b6e	-0.009672983
198	0xbb851252	-0.004061022
199	0x3d1b5ee9	0.03793231
200	0xbc55bbed	-0.013045293
201	0xbd13eeab	-0.036116283
202	0x3b6845d6	0.0035442016
203	0xbd11b345	-0.035571355
204	0xbc876aee	-0.01653048
205	0xbc22331f	-0.0098998835
206	0xbc34afa2	-0.011028202
207	0xba34f725	-0.00069032825
208	0x3b369371	0.0027858878
209	0x3c93bc31	0.018034073
210	0x3bc9d914	0.006159911
211	0xbc04e064	-0.0081101395
212	0xbb403068	-0.0029325727
213	0x3cbaa4a0	0.022783577
214	0xbcc9f2b2	-0.024651859
215	0x3cb6e498	0.022325799
216	0x3d52bfc7	0.051452424
217	0xbc577f80	-0.013152957
218	0x3ca4791b	0.020077279
219	0x3c39658e	0.011315716
220	0x3a36ef2b	0.0006978388
221	0xbd99c720	-0.07508683
222	0x3bac9f36	0.005268003
223	0xbd4b5c3f	-0.04964852
224	0xbae30914	-0.0017321431
225	0x3ace49b5	0.0015738519
226	0xbb05a624	-0.0020393217
227	0x3dad458c	0.08460531
228	0x3c95db07	0.018292917
229	0x3ca41d47	0.020033492
230	0x3cb61a9b	0.022229483
231	0xbbcea5f5	-0.0063064047
232	0xbe178118	-0.14795339
233	0xbd848bbe	-0.06471966
234	0x3cd952cb	0.026528737
235	0xbbd45c2f	-0.0064807157
236	0x3d14bf65	0.03631534
237	0x3c745345	0.014912431
238	0x3c592bef	0.0132551035
239	0x3c2b8276	0.010468116
240	0xbc8896e4	-0.016673513
241	0xbacc9cc4	-0.0015610685
242	0xbd04d546	-0.032429956
243	0xbc667aad	-0.014067334
244	0x3cc0c10b	0.02352955
245	0xbba33118	-0.0049802177
246	0xbd469e22	-0.04849065
247	0xbb3391e1	-0.0027400183
248	0x3aa2db30	0.0012424942
249	0xbdce230f	-0.10065281
250	0x3cd52062	0.026016418
251	0xbc2333bf	-0.009961068
252	0xbcdfcc8a	-0.027319212
253	0xbc9cb261	-0.019128026
254	0x3b41a5aa	0.0029548206
255	0x3d1551cd	0.036454964

mu.2.bias f4 [17]
0	0xbc23eff8	-0.0100059435
1	0xbd40470e	-0.046942763
2	0x3cde4497	0.027132316
3	0xbba7e1c8	-0.005123351
4	0xbe100ba2	-0.14066938
5	0x3d5616df	0.052267905
6	0xbcb4e2b9	-0.022080766
7	0x3da92544	0.08259061
8	0xbe6550d0	-0.22394109
9	0x3f01ec68	0.5075135
10	0xbe8aadd5	-0.27085748
11	0x3ce609d4	0.028080858
12	0x3e92e372	0.28689152
13	0xbfb22b38	-1.3919439
14	0x3ee04255	0.43800607
15	0xbf236aa5	-0.638346
16	0xc0963a52	-4.694619

reward_fun.0.weight f4 [200, 23]
0	0x3e73469d	0.23757406
1	0xbf4da3d7	-0.80328125
2	0xc04d705f	-3.2099836
3	0xbea85161	-0.32874587
4	0x3fd53f66	1.6659973
5	0xc0aed4fa	-5.463498
6	0xc04a5b48	-3.1618214
7	0x3ffb306b	1.9624151
8	0x3ff85a1d	1.94025
9	0xbf71f514	-0.94514585
10	0x3ef7a007	0.4836428
11	0x3d079431	0.03310031
12	0xbda8f197	-0.082492046
13	0x3e8a6323	0.2702876
14	0xbd25f849	-0.040519986
15	0xbe7c7e52	-0.24657562
16	0x3e624242	0.22095588
17	0xbfce9bbf	-1.614128
18	0x4056a0d8	3.3535671
19	0xbfd8847a	-1.6915429
20	0x3faca798	1.3488646
21	0x3f9258e9	1.1433383
22	0xbeb88bd9	-0.36044195
23	0x409bdd99	4.8708005
24	0x3f9f3138	1.2436895
25	0x4084cd37	4.1500506
26	0x4097c65d	4.7429643
27	0x40463740	3.0971222
28	0xc09b1e8a	-4.847478
29	0x3fcf87d0	1.6213322
30	0x3fa41548	1.2818995
31	0xbfeba75c	-1.8410449
32	0xbe37d84c	-0.17953604
33	0x3fd42849	1.6574794
34	0xbd8e0e5f	-0.06936335
35	0x3e9a52ab	0.30141196
36	0x3d167301	0.03673077
37	0x3e10f0aa	0.14154306
38	0x3e8c114e	0.27356952
39	0xbcb298f7	-0.021801455
40	0x3f719ddf	0.9438152
41	0xbf824268	-1.0176516
42	0xc0101e7b	-2.2518604
43	0xbfe15c28	-1.7606249
44	0xc0130ff5	-2.297849
45	0xbf6038d5	-0.8758672
46	0xbfb3c004	-1.4042974
47	0xbf8e6f9e	-1.1127813
48	0xc0895f02	-4.2928476
49	0xc0396b16	-2.897161
50	0xbf1a8b9b	-0.6036927
51	0xc0756840	-3.834488
52	0x3f9cc2b8	1.2246923
53	0xc013aa65	-2.307275
54	0xc044a323	-3.072457
55	0x400351fd	2.0518792
56	0x3daa938b	0.08328923
57	0x3d5cf61d	0.05394565
58	0xbb9a29c0	-0.004704684
59	0xbdbd2fa8	-0.09237605
60	0xbf3a5f82	-0.72801983
61	0xbe314bb5	-0.17314036
62	0xbd40658e	-0.04697185
63	0x3f853ec1	1.0409776
64	0xbf0570e8	-0.52125406
65	0x3ddad61b	0.106853686
66	0xbfeafd57	-1.8358563
67	0xbfe36024	-1.7763715
68	0xbee27b73	-0.4423481
69	0x40093410	2.1438026
70	0x401f5dfd	2.4901116
71	0x408c5d14	4.386362
72	0xbeb5ff0f	-0.35546157
73	0xbf138713	-0.5762798
74	0xbff73566	-1.9313171
75	0x3edde480	0.43338394
76	0x3eb21ba0	0.347867
77	0x401c8b48	2.446001
78	0xbf86ce72	-1.0531752
79	0x3f8cd4af	1.1002406
80	0x3e36f741	0.17867757
81	0x3e6908e1	0.22757293
82	0xbde30cca	-0.11086424
83	0x3db254d0	0.08707583
84	0x3d57a828	0.0526506
85	0x3da766c8	0.08173901
86	0xbcfe34b1	-0.031030985
87	0x3f816207	1.010804
88	0xbe483231	-0.19550397
89	0xbdde7df7	-0.1086387
90	0xbf73906a	-0.95142233
91	0x3c935933	0.01798687
92	0x407d0d31	3.9539301
93	0xbfafe7d8	-1.3742628
94	0x407bd6f9	3.934996
95	0x40489c6e	3.1345477
96	0xbe89dc8f	-0.26926085
97	0x4082455e	4.0709677
98	0xbebe7e02	-0.3720551
99	0xc0213b9e	-2.5192637
100	0xc00d585c	-2.208518
101	0xc002da1e	-2.0445628
102	0x3e2adbc4	0.16685396
103	0x3f067a10	0.5253
104	0x3e77904b	0.24176137
105	0xbd6991ee	-0.057023935
106	0xbd0bebc8	-0.034160405
107	0x3de9650e	0.11396228
108	0x3e78a17f	0.24280356
109	0x4046a861	3.104027
110	0xbfdc9e9d	-1.7235905
111	0x400854b4	2.1301699
112	0x3f898d93	1.074633
113	0x40652f7a	3.5810227
114	0xbf2e82c5	-0.6816829
115	0xbe999504	-0.29996502
116	0xbec81b50	-0.39083338
117	0x3f56f9a7	0.8397469
118	0x3e8c498a	0.27399856
119	0xbfde6351	-1.7374059
120	0x3fa48bb1	1.285513
121	0xc009f1a7	-2.1553743
122	0xbfb9f772	-1.4528639
123	0xbe9c0f93	-0.30480632
124	0xc007f085	-2.1240551
125	0x3ef1f63b	0.4725817
126	0xbeb5dfca	-0.355223
127	0x3de5c98d	0.112200834
128	0xbee45906	-0.4459917
129	0xbe49e846	-0.19717512
130	0x3c6391e6	0.013889765
131	0x3e4d393e	0.20041367
132	0xbeff6878	-0.4988439
133	0x3ee43abf	0.4457607
134	0xbf4361c1	-0.76321036
135	0xbf91083a	-1.1330636
136	0xbf20eeb4	-0.6286423
137	0xbee275ec	-0.44230592
138	0xc022082a	-2.5317483
139	0xc03564fb	-2.8342884
140	0xbfeefe94	-1.8671441
141	0xbe0c4cc0	-0.13701153
142	0x3f99090f	1.195589
143	0xbdd03454	-0.10166231
144	0xc06bb2fb	-3.682799
145	0xc0032aee	-2.0494952
146	0xc077c97d	-3.8716729
147	0xc01801ef	-2.375118
148	0xbf8fbee2	-1.1230128
149	0x3f1137f0	0.5672598
150	0xbe0468a7	-0.12930547
151	0x3f093397	0.53594345
152	0xbe8e5e98	-0.27806544
153	0xbe9a0c23	-0.30087385
154	0x3ea24ccc	0.31699216
155	0x4009618e	2.1465793
156	0x3ea790f7	0.32727787
157	0xc0629b51	-3.5407298
158	0xbfe8e471	-1.8194715
159	0xbff7bd6f	-1.9354686
160	0x3f315362	0.6926786
161	0x3f4a89ee	0.79116714
162	0xc0244ea4	-2.5672998
163	0xc093fe9c	-4.6248302
164	0x3ffc58a4	1.9714551
165	0x40996631	4.7937245
166	0x3f662f6f	0.8991613
167	0x3f8d5482	1.1041415
168	0xbfd5d0bf	-1.6704329
169	0xc03e5641	-2.9740145
170	0xbedf0471	-0.43558076
171	0x3e9a81ff	0.30177304
172	0x3ebff64c	0.37492597
173	0x3f03ec64	0.5153258
174	0xbe0a9494	-0.1353324
175	0xbf21b92d	-0.6317318
176	0x3e00def0	0.12585044
177	0xbdf93337	-0.121679716
178	0x3e8b0d79	0.27158716
179	0x402e498c	2.723239
180	0x4038f72f	2.890087
181	0x401bb8a7	2.4331453
182	0x3ff19c1b	1.8875765
183	0xbf80e033	-1.006842
184	0x411a064f	9.62654
185	0x3e552bfd	0.20817561
186	0xbfe3ca12	-1.7796042
187	0x405282ff	3.2892454
188	0x3f27b74e	0.65514076
189	0x4048e944	3.1392374
190	0xc07a21fa	-3.9083238
191	0xc09ebeb4	-4.960779
192	0xc010018b	-2.2500942
193	0xbfc58bd9	-1.5433303
194	0xbf94361c	-1.1579013
195	0x3d1acc8c	0.037792727
196	0xbe86f8fe	-0.2636184
197	0xbe973b56	-0.29537457
198	0xbca8f873	-0.020626282
199	0xbdfc637f	-0.12323665
200	0x3e16915b	0.14703886
201	0xc02963fb	-2.6467273
202	0x3fde9525	1.7389265
203	0x3dacaa78	0.08430952
204	0xbfa465d9	-1.2843581
205	0xbfcbd029	-1.59229
206	0x3e7fa093	0.24963598
207	0x3f89bf03	1.0761417
208	0xc1004799	-8.01748
209	0x3ffcc31f	1.9747046
210	0xc0989b53	-4.7689605
211	0x3fe2356b	1.7672552
212	0xbde47224	-0.11154583
213	0xbf8c9660	-1.0983391
214	0xc02cf043	-2.7021644
215	0x407ff2d8	3.999197
216	0xbe44dbbe	-0.1922445
217	0x3fbb9b96	1.4656856
218	0x3dc90781	0.098158844
219	0xbe0f2553	-0.13979082
220	0x3eaf1b2a	0.34200412
221	0xbdbd544b	-0.09244593
222	0xbe6eb1d1	-0.23310019
223	0x3c5c333e	0.013439951
224	0xbec63adb	-0.38716778
225	0xbf812595	-1.0089594
226	0xbfacd96c	-1.3503852
227	0xbfc83e10	-1.564394
228	0x3e0da8bf	0.13833903
229	0x3f03d983	0.5150377
230	0x3f791fa5	0.9731391
231	0x3e224d77	0.15849863
232	0xbff1aa42	-1.8880084
233	0x40895784	4.291933
234	0xbf50316a	-0.813254
235	0xbfdaaeb7	-1.7084569
236	0x404ee07d	3.2324517
237	0x4083e9b3	4.1222777
238	0xbfd2333c	-1.6421885
239	0xbf338f63	-0.70140666
240	0x3f8b3d96	1.087817
241	0x3ee3ba32	0.44477993
242	0xbda8df26	-0.08245687
243	0x3e34cbcf	0.17655872
244	0x3ea1315d	0.31482974
245	0xbd5c20c8	-0.0537422
246	0xbee0f0b3	-0.4393364
247	0x3ffcb499	1.9742614
248	0xbea6999a	-0.32539064
249	0xc036527e	-2.848785
250	0x3f230bea	0.63690054
251	0x3f8218cd	1.0163819
252	0xbb6295f9	-0.0034574254
253	0x3f932310	1.1495075
254	0xbf93aedc	-1.1537738
255	0xc00e74ea	-2.2258859

reward_fun.0.bias f4 [200]
0	0xc04d1ba6	-3.2048125
1	0xbfe03d56	-1.7518718
2	0xc0b01f03	-5.5037856
3	0xc0967a66	-4.702441
4	0xbfaf97b9	-1.3718177
5	0xc010a257	-2.2599084
6	0xc00e7881	-2.226105
7	0xc002c798	-2.0434322
8	0xbff112d8	-1.8833876
9	0xc0165d39	-2.3494399
10	0xc0925381	-4.5726933
11	0xc02a4a0e	-2.66077
12	0xc08041ad	-4.008017
13	0xc01fce9e	-2.496986
14	0xbff5542b	-1.9166311
15	0xbfe2e8a3	-1.7727245
16	0xc01d3c65	-2.4568112
17	0xc06c0c8d	-3.688266
18	0xc064c19b	-3.5743167
19	0xc03d101b	-2.954108
20	0xc01a42c5	-2.4103253
21	0xc02055e9	-2.5052435
22	0xc035c246	-2.8399825
23	0xc07aacfb	-3.916808
24	0xc019e6e9	-2.4047186
25	0xc0454b7e	-3.0827327
26	0xc091a282	-4.5510874
27	0xc0252360	-2.580284
28	0xc03f1e12	-2.9862103
29	0xc027e12f	-2.623119
30	0xbfd76ac8	-1.6829462
31	0xc00ae9c2	-2.1705174
32	0xc00e7526	-2.2259002
33	0xc043f855	-3.062032
34	0xc02356a5	-2.5521634
35	0xc03e9d1f	-2.97834
36	0xc08455ad	-4.1354585
37	0xc05dd347	-3.4660203
38	0xc0842aa7	-4.1302066
39	0xc03d153d	-2.9544213
40	0xbee4de42	-0.4470082
41	0xc08db8dd	-4.4288163
42	0xc036db0d	-2.8571198
43	0xbfebcc0d	-1.8421646
44	0xc05c2a0b	-3.440066
45	0xc01026f7	-2.2523782
46	0xc02517d1	-2.5795786
47	0xbff15a6b	-1.8855718
48	0xc054f51f	-3.327461
49	0xc10ad30e	-8.676527
50	0xc02a129b	-2.6573856
51	0xc01b8f9d	-2.4306405
52	0xc097b644	-4.740999
53	0xbffa2fbd	-1.9545819
54	0xc022c66e	-2.5433612
55	0xc01e3adc	-2.4723425
56	0xbf5ad15f	-0.85475725
57	0xc097978d	-4.73725
58	0xc0059f18	-2.0878353
59	0xc0792ec9	-3.8934805
60	0xc0327629	-2.788462
61	0xc046ce4d	-3.1063416
62	0xbff4a5f5	-1.9113146
63	0xbfdedd30	-1.7411251
64	0xc030b178	-2.7608318
65	0xc0800050	-4.000038
66	0xbfae44d2	-1.3614752
67	0xc07a2919	-3.9087584
68	0xc01cc391	-2.4494364
69	0x3f06f2e4	0.5271437
70	0xc01d2b05	-2.4557507
71	0xc042abfe	-3.0417476
72	0xc02810f6	-2.6260352
73	0xc0830af4	-4.095087
74	0xc030b007	-2.7607439
75	0xbfc5f7be	-1.546623
76	0xc0025cdf	-2.0369184
77	0xbfee7c85	-1.863175
78	0xc0174211	-2.3634074
79	0xc046a2fe	-3.1036983
80	0xbf90f1e3	-1.1323818
81	0xc00119d6	-2.017202
82	0xc05c205c	-3.439475
83	0xc0094610	-2.1449013
84	0xc017e33e	-2.3732448
85	0xc035f99d	-2.8433602
86	0xbfb62abf	-1.4231795
87	0xc018c0f8	-2.3867779
88	0xc0e272c9	-7.076512
89	0xc02ae1a2	-2.6700215
90	0xc043ba23	-3.058236
91	0xc0b28d16	-5.5797224
92	0xc02a2f6d	-2.6591446
93	0xc037f814	-2.8745165
94	0xc0573bb3	-3.3630188
95	0xc01a7a27	-2.4137056
96	0xc0448ad5	-3.0709736
97	0xc05ef02b	-3.4834087
98	0xc07fa04e	-3.9941592
99	0xc050cc26	-3.2624602
100	0xbf8451fb	-1.0337518
101	0xbfac3080	-1.3452301
102	0xc0425fa9	-3.0370886
103	0xc0a8f1e0	-5.2795258
104	0xc01a50fc	-2.411193
105	0xc0acf9b3	-5.405481
106	0xbf8caf81	-1.099106
107	0xbfd86877	-1.690688
108	0xc08b42f2	-4.351922
109	0xbfb50be1	-1.414425
110	0xc03b3130	-2.9248772
111	0xc09733be	-4.725066
112	0xc0c3a008	-6.113285
113	0xc01bf572	-2.4368558
114	0xbfa3e019	-1.2802764
115	0xc0264684	-2.598054
116	0xc0538e34	-3.3055544
117	0xc087f61a	-4.2487917
118	0xbfe92625	-1.8214766
119	0xbffb558d	-1.9635483
120	0xc0ad26b1	-5.410973
121	0xc025024e	-2.5782657
122	0xc0080a51	-2.1256297
123	0xc080e846	-4.0283537
124	0xbfdd1262	-1.7271235
125	0xc06617e4	-3.5952082
126	0xbfec10ec	-1.8442664
127	0xc0e34f0d	-7.1033998
128	0xc01121f0	-2.2676964
129	0xc065bc9b	-3.5896366
130	0xc0c1fd45	-6.0621667
131	0xbffb235b	-1.9620165
132	0xbfa120b5	-1.2588106
133	0xbfcdc44a	-1.6075528
134	0xc0145b82	-2.3180852
135	0xc08771b9	-4.232632
136	0xc0442c73	-3.065213
137	0xbfc0f5d7	-1.5075024
138	0xc05346f0	-3.3012047
139	0xc08e0c4e	-4.439002
140	0xc0863f15	-4.1952004
141	0xbfed9d7c	-1.8563685
142	0xc064fdc1	-3.577988
143	0xc06f3999	-3.7378905
144	0xbff691a1	-1.9263192
145	0xc08a1b71	-4.31585
146	0xbf3cd35c	-0.7376001
147	0xc08cd168	-4.4005623
148	0xbf1e2c8d	-0.6178673
149	0xc03182e9	-2.7736151
150	0xc0724a87	-3.7857988
151	0xc0977dda	-4.7341127
152	0xbf89b726	-1.0759017
153	0xc061d55d	-3.5286477
154	0xc076d640	-3.8568268
155	0xc006fe59	-2.1092741
156	0xc0b80400	-5.7504883
157	0xc03dd856	-2.966329
158	0xc0137ae4	-2.3043756
159	0xbfaae546	-1.3351219
160	0xbf77e359	-0.9683128
161	0xc09d7e19	-4.921643
162	0xbfd07ff5	-1.6289049
163	0xc06f7058	-3.741232
164	0xbf4afcfb	-0.7929227
165	0xc0427fc8	-3.0390491
166	0xc03c3e2e	-2.9412951
167	0xc00d5d04	-2.2088022
168	0xc028e169	-2.638758
169	0xc031ebc3	-2.7800148
170	0xbf8df0d4	-1.108912
171	0xc040c298	-3.011877
172	0xbe902e09	-0.28160122
173	0xbff13054	-1.8842874
174	0xbfb10432	-1.3829405
175	0xc0729260	-3.790184
176	0xc02003d7	-2.5002344
177	0xc08c9161	-4.3927464
178	0xc053efe1	-3.311516
179	0xbfc71ac6	-1.5555046
180	0xc08571e7	-4.170154
181	0xc00b5802	-2.1772466
182	0xc03c3885	-2.9409497
183	0xc06afbb3	-3.6716125
184	0xbfc5e3f0	-1.5460186
185	0xc00da49f	-2.2131727
186	0xc06dfd5b	-3.7185886
187	0xc07fa757	-3.9945886
188	0xc03580a3	-2.8359764
189	0xc03d24d9	-2.955374
190	0xbf968d07	-1.1761788
191	0xc0336e99	-2.8036253
192	0xc0254c1f	-2.582771
193	0xbf60e3ea	-0.8784777
194	0xbfe1d992	-1.7644522
195	0xbf97da5e	-1.1863515
196	0xc02da2d2	-2.7130628
197	0xc0283eef	-2.6288412
198	0xc05e4fc1	-3.4736178
199	0xc03a5eb4	-2.9120302

reward_fun.2.weight f4 [200, 200]
0	0xbda93825	-0.08262662
1	0x3d0d4058	0.03448519
2	0xbbdf3f58	-0.006812971
3	0xbdaeccfb	-0.08535191
4	0xbcb0820c	-0.021546386
5	0xbcd4aa91	-0.025960239
6	0xbac25d6d	-0.0014828868
7	0xbdac67b2	-0.08418216
8	0xbd73df7b	-0.0595393
9	0xbde3c3ce	-0.11121331
10	0xbd763039	-0.060104582
11	0xbd269824	-0.040672436
12	0xbd026ac7	-0.031840112
13	0xbd557fe6	-0.052123927
14	0xbdb99d42	-0.09063198
15	0xbd1c90d6	-0.038224064
16	0xbdbaefe1	-0.091277845
17	0x3d4d4203	0.05011178
18	0xbcfc972c	-0.030833803
19	0xbc30b520	-0.010785371
20	0xbe03b944	-0.12863642
21	0xbd8ae1d8	-0.067813575
22	0xbdc61a01	-0.096729286
23	0x3caf5da9	0.021406965
24	0xbd613ba3	-0.054988515
25	0xbc9248da	-0.017857004
26	0xbd90f6da	-0.07078333
27	0xbcc2be73	-0.023772454
28	0xbde80097	-0.113282375
29	0xbda90205	-0.08252338
30	0xba336320	-0.0006843079
31	0xbd3eced8	-0.04658398
32	0x3d5d4ce8	0.05402842
33	0xbde35f9b	-0.1110222
34	0xbdb2b5ea	-0.087261036
35	0xbdb11c10	-0.086479306
36	0xbe361435	-0.17781146
37	0xbcb11ba4	-0.021619625
38	0x3ba7b968	0.0051185377
39	0xbbd5ef5d	-0.0065287785
40	0xbd949b25	-0.07256154
41	0x3c15888d	0.0091267945
42	0xbd4ea7dd	-0.050453056
43	0x3c0530c3	0.0081293015
44	0xbd8fb1ea	-0.07016356
45	0xbdb1d5f5	-0.08683387
46	0xbdcb9af4	-0.09941664
47	0xbc1f2fad	-0.009715957
48	0xbe503ac0	-0.20334911
49	0xbd85fada	-0.06541987
50	0xbd8586ce	-0.065198526
51	0xbd5ca175	-0.053864915
52	0xbd16d7df	-0.036826964
53	0x3d104cf0	0.035229623
54	0xbd18eb46	-0.03733375
55	0xbaaa02df	-0.0012970826
56	0xbcc68ec2	-0.024237994
57	0x3d39517a	0.045243718
58	0xbdb61fd3	-0.08892789
59	0xbe2f744a	-0.17134205
60	0xbbce3bf1	-0.0062937667
61	0x3d2b065e	0.04175412
62	0xbd82097c	-0.06349465
63	0xbbd91463	-0.0066247447
64	0xbe0556d7	-0.13021408
65	0xbda81287	-0.08206659
66	0xbd84955f	-0.06473803
67	0xbd43a390	-0.047763407
68	0xbd03427f	-0.032045837
69	0xbc88ff0e	-0.016723182
70	0xbd6cebf4	-0.05784221
71	0xbdb47d79	-0.088129945
72	0x3d975e73	0.07391062
73	0xbbe29e53	-0.0069158464
74	0xbd87e598	-0.066355884
75	0xbd52d6a7	-0.05147424
76	0x3c32791f	0.010893135
77	0xbe1e06ab	-0.15432231
78	0x3b94f469	0.0045457375
79	0xbd6f1810	-0.058372557
80	0xbd88f6b0	-0.06687677
81	0x3d2ef6fe	0.04271602
82	0xbd91b8b5	-0.07115308
83	0xbde6f1f7	-0.1127662
84	0xbcb796fc	-0.022410862
85	0xbd568c48	-0.052379876
86	0x3b9ecd48	0.004846249
87	0xbd46b0b4	-0.04850836
88	0xbd92533b	-0.07144781
89	0xbd774995	-0.060372908
90	0xbc8bb3d0	-0.017053515
91	0xbd682c6c	-0.05668299
92	0xbdc92974	-0.0982236
93	0xbda612a2	-0.08109023
94	0xbcf7a056	-0.030227821
95	0x3c833932	0.016018484
96	0xbdf73c39	-0.120720334
97	0xbe393a16	-0.18088564
98	0xbd8ca494	-0.06867328
99	0xbda1f1d6	-0.07907455
100	0xbdd72d48	-0.105066836
101	0xbd58e09f	-0.05294859
102	0xbe097f39	-0.13427438
103	0x3d522344	0.051303163
104	0xbd10374f	-0.035208996
105	0xbd204c89	-0.03913549
106	0xbcd9d716	-0.026591819
107	0xbdd8bdb8	-0.10583061
108	0xbe05f5d0	-0.13082051
109	0x3dc0a19b	0.09405824
110	0xbdd24ab9	-0.102681585
111	0x3c3b1279	0.011417978
112	0xbc07ca53	-0.008287984
113	0x3d073f7a	0.03301952
114	0xbd47a683	-0.048742782
115	0xbc102f46	-0.008800333
116	0xbc9c6734	-0.01909218
117	0xbd6f29bf	-0.05838942
118	0xbc2f8b14	-0.010714311
119	0xbdbafc74	-0.09130183
120	0xbca0abcc	-0.01961317
121	0xbcf72828	-0.030170515
122	0xbd89cce0	-0.0672853
123	0xbd96da28	-0.07365829
124	0xbd98b534	-0.07456437
125	0xbd0be09f	-0.034149762
126	0xbd2a38f6	-0.04155823
127	0x3d072041	0.032989744
128	0xbe3be045	-0.18347271
129	0xbd450f8c	-0.04811053
130	0x3c30bf9d	0.010787872
131	0xbd00014e	-0.031251244
132	0xbd2378ad	-0.039910007
133	0xbb2ef3d4	-0.0026695626
134	0xbd9be977	-0.07612889
135	0xbe0bf796	-0.13668665
136	0xbc4947ee	-0.012285216
137	0xbd3fb064	-0.04679908
138	0xbdd43064	-0.10360792
139	0xbe45356e	-0.19258663
140	0xbda7abcc	-0.081870645
141	0xbd97b758	-0.07408017
142	0xbced83b5	-0.028993467
143	0xbd774b72	-0.060374685
144	0xbba3bbd1	-0.0049967547
145	0xbc89c129	-0.016815739
146	0x3c660418	0.014039062
147	0xbae0e5f3	-0.0017158374
148	0xbd173e12	-0.03692443
149	0xbdc4ba82	-0.09605886
150	0xbda8e2b5	-0.08246366
151	0xbdc5cc98	-0.09658164
152	0xbdd4e5da	-0.10395403
153	0x3c3e2377	0.011605135
154	0xbc80576b	-0.015666684
155	0xbb53fdfa	-0.0032347427
156	0xbd23ae60	-0.03996122
157	0xbcdff7dc	-0.027339868
158	0x3c78240d	0.015145314
159	0xbd1bb49b	-0.038014036
160	0xbd3d70fe	-0.046250336
161	0xbd37d375	-0.044879396
162	0xbe38ca76	-0.18045983
163	0x3ca97be9	0.020688968
164	0x3d4b3cd8	0.049618572
165	0xbe175599	-0.14778747
166	0xbde6f726	-0.112776086
167	0x3d406fa3	0.046981465
168	0xbdc86c0a	-0.09786232
169	0xbd2202f2	-0.03955359
170	0xbcb36783	-0.021899944
171	0xbdbca15d	-0.09210465
172	0xbd9b76d2	-0.075910226
173	0x3bff1676	0.00778466
174	0xbdc93163	-0.09823873
175	0xbc9353f2	-0.017984364
176	0xbae0e03f	-0.0017156674
177	0xbd2a1d70	-0.04153198
178	0xbe0afd9d	-0.13573308
179	0x3c112675	0.0088592665
180	0x3d504c71	0.05085415
181	0xbd95358a	-0.072856024
182	0xbd86b036	-0.06576578
183	0xbdc380da	-0.09546061
184	0xbba156c5	-0.004923674
185	0xbda5bd86	-0.08092789
186	0xbd3a2d4d	-0.04545336
187	0xbc8aad87	-0.016928447
188	0xbd3add70	-0.045621336
189	0xbd0c7732	-0.03429336
190	0x3d33cb2c	0.04389493
191	0xbda813c3	-0.08206894
192	0xbd4f72a0	-0.050646424
193	0xbd09449a	-0.03351269
194	0xbdab897b	-0.08375832
195	0x3d95c0b1	0.073121436
196	0xbdf70c9a	-0.120629504
197	0xbd5001c2	-0.050782926
198	0x3d440b2d	0.04786222
199	0xbdc7fd52	-0.09765114
200	0xbd731621	-0.059347276
201	0xbc5f3a56	-0.013624748
202	0xbd4ac952	-0.0495084
203	0xbe265445	-0.16243084
204	0xbd5a9e6d	-0.053373743
205	0xbdcb6a33	-0.09932365
206	0xbdfea20d	-0.124332525
207	0x3d5b25a2	0.053502686
208	0xbde61e99	-0.11236305
209	0xbe29392f	-0.1652572
210	0xbde65845	-0.11247305
211	0xbd8e3016	-0.069427654
212	0xbdad61f3	-0.08465948
213	0xbe3a8135	-0.18213351
214	0xbd5505e3	-0.052007567
215	0xbe0de108	-0.13855374
216	0xbd887315	-0.06662575
217	0xbded986a	-0.11601336
218	0xbd5985c8	-0.0531061
219	0xbe2b975b	-0.16756956
220	0xbe172828	-0.14761412
221	0xbe274b21	-0.16337253
222	0xbda51670	-0.0806092
223	0xbd9a0327	-0.075201325
224	0xbd2ce053	-0.04220612
225	0xbcdd69ba	-0.027027953
226	0xbd77e77e	-0.060523503
227	0x3d30e86b	0.0431904
228	0xbd1206bf	-0.035650965
229	0xbde5040a	-0.11182411
230	0xbddc6e7d	-0.107632615
231	0xbd047e1a	-0.032346822
232	0xbe591bb7	-0.21201979
233	0x3ce5ee16	0.02806763
234	0xbd94480c	-0.07240304
235	0x3de2217b	0.11041542
236	0xbdf890d1	-0.121369965
237	0xbe5e0bd5	-0.21684201
238	0xbdeb6143	-0.114931606
239	0xbe8c5bd4	-0.2741381
240	0xbdf6b1d4	-0.12045637
241	0x3d6167c6	0.055030607
242	0xbd4de46f	-0.05026668
243	0x3c677e02	0.014129164
244	0x3d571bf8	0.052516907
245	0xbc4b705f	-0.012416928
246	0x3cb64061	0.022247495
247	0x3e039905	0.12851341
248	0x3c883572	0.016627047
249	0xbe2b7d0f	-0.16746925
250	0xbe3164e2	-0.1732364
251	0x3bb47f3b	0.005508331
252	0x3c301ef9	0.010749572
253	0x3cbe16ca	0.023204226
254	0x3d480bfe	0.04883956
255	0xbdc9316b	-0.09823879

reward_fun.2.bias f4 [200]
0	0xbe346f76	-0.17620644
1	0xbd341d2e	-0.04397314
2	0x3f1d65ec	0.61483645
3	0xbe9a7ffb	-0.30175766
4	0x3e9e4f17	0.30919716
5	0xbe4165b6	-0.18886456
6	0xbd9cb291	-0.07651246
7	0x3f93ac00	1.1536865
8	0xbe896925	-0.2683803
9	0x40232f61	2.5497668
10	0xbe4e1fd7	-0.20129333
11	0xbe3ca904	-0.1842385
12	0x3f912098	1.1338072
13	0xbe9514c7	-0.29117414
14	0x40c859b9	6.2609525
15	0xbe13fba9	-0.1445147
16	0xbe229127	-0.15875684
17	0xbe41ecac	-0.1893794
18	0xbf4346f2	-0.7628013
19	0xbe501678	-0.20321071
20	0x3f1eb084	0.6198809
21	0xbe83e55b	-0.25760922
22	0xbe1ee0df	-0.15515469
23	0xbfa3b431	-1.2789365
24	0x3f160a8a	0.5860983
25	0x3d60c575	0.05487581
26	0x4007428c	2.1134367
27	0xbe17e607	-0.14833842
28	0xbe02ac98	-0.12761152
29	0x3f0c23b2	0.54741967
30	0xbe0d6320	-0.13807344
31	0x3e8443d0	0.25832987
32	0xbe004b8f	-0.12528823
33	0xbdf2ed0f	-0.118616216
34	0xbe23d774	-0.16000158
35	0xbc988d6c	-0.018622123
36	0xbf1f0966	-0.62123716
37	0x400f8086	2.2422194
38	0x3f5cb15e	0.8620814
39	0xbea1643e	-0.3152179
40	0x40066b57	2.1003015
41	0xbe69628f	-0.22791503
42	0x40808668	4.016407
43	0xbe2d23c2	-0.16908172
44	0xbe7ef36b	-0.24897544
45	0xbe7690ae	-0.24078628
46	0xbed8f3a0	-0.4237337
47	0x3fb9221c	1.4463534
48	0xbe51972b	-0.20467822
49	0xbebb9409	-0.3663638
50	0x405efc6d	3.4841568
51	0xbf85d48f	-1.0455493
52	0xbe901d67	-0.28147432
53	0xbe463d39	-0.19359292
54	0xbf7e6a03	-0.9938051
55	0xbe220448	-0.15821946
56	0xbdef557b	-0.11686226
57	0x3fe2bfbc	1.7714763
58	0xbe0fe588	-0.14052403
59	0x4086b702	4.20984
60	0xbf61cfb7	-0.8820757
61	0x3f4e7325	0.80644447
62	0xbeeeb737	-0.46624157
63	0xbec63d99	-0.3871887
64	0x3d5140f6	0.051087342
65	0x3eab333b	0.33437523
66	0xbe11e220	-0.14246416
67	0xbdee38e8	-0.11631948
68	0xbe875d53	-0.26438388
69	0x40471c48	3.1111012
70	0x40a6a250	5.2073135
71	0xbe57224f	-0.21009181
72	0xbf5dab8f	-0.865899
73	0xbe6a980b	-0.22909562
74	0xbebd899e	-0.37019056
75	0xbe165fdc	-0.14685005
76	0x3f39aeae	0.72532165
77	0xbe278196	-0.16358027
78	0x3fc3763f	1.5270461
79	0x3f97e577	1.1866902
80	0xbe62b12c	-0.22137898
81	0x3f8df4a5	1.1090285
82	0xbe0fe4f0	-0.14052176
83	0xbe6810e0	-0.22662687
84	0x3f61367c	0.8797376
85	0x3f215c19	0.63031155
86	0x4087cb9f	4.243606
87	0xbe505bab	-0.20347469
88	0x40202278	2.5021038
89	0xbe6d2adb	-0.2316088
90	0xbe11b026	-0.14227352
91	0xbe0deb5f	-0.13859318
92	0x3da5a023	0.08087184
93	0xc086e843	-4.2158523
94	0x3ff1f748	1.8903589
95	0x40594938	3.395094
96	0x3e97cb3c	0.29647243
97	0xbf30d0e8	-0.69068766
98	0xbe405b78	-0.18784893
99	0xbdcad0d1	-0.0990311
100	0xbe899e81	-0.2687874
101	0xbe9b1b7b	-0.30294403
102	0x3fa35579	1.2760459
103	0x3f4c18fc	0.79725623
104	0x3ffb0a8f	1.9612597
105	0x3f0809f9	0.5314022
106	0xbe2b16da	-0.16707936
107	0xbe3ef8c0	-0.18649578
108	0x408c7c72	4.390191
109	0x40811d5d	4.0348344
110	0x4141ca3e	12.111876
111	0xbe95b239	-0.29237536
112	0xbe558eea	-0.20855299
113	0xbe748641	-0.23879339
114	0x400d941b	2.2121646
115	0xbe2513d6	-0.16120848
116	0xbe1abb2f	-0.15110467
117	0xbfb5075d	-1.4142872
118	0x3fb11647	1.3834924
119	0xbe1fd514	-0.15608627
120	0xbe755fa2	-0.23962262
121	0xbe823074	-0.25427592
122	0x3fe802d2	1.8125861
123	0xbe3bc926	-0.18338451
124	0xbce087f0	-0.02740857
125	0x3faad29e	1.3345525
126	0x3e75b903	0.23996358
127	0xbe4f3441	-0.20234777
128	0xbe4099ee	-0.1880872
129	0x3fd773ed	1.6832253
130	0xbe406c98	-0.18791425
131	0xbe5a84b8	-0.2133969
132	0xbf67a20a	-0.90481627
133	0xbe1e019b	-0.154303
134	0xbde58105	-0.11206249
135	0xbe3e6dd0	-0.18596578
136	0xbdd0b4df	-0.101907484
137	0xbe167356	-0.14692435
138	0xbe45c381	-0.1931286
139	0x3ceade45	0.02867044
140	0x40d156b8	6.541836
141	0x3fb7a49d	1.4347111
142	0xbe25f475	-0.16206534
143	0xbde99ab8	-0.114064634
144	0x3fce6333	1.6124023
145	0xbe2dd28e	-0.16974851
146	0xbe50fcb1	-0.20408894
147	0x3fee02c5	1.8594595
148	0xbe7863a8	-0.24256766
149	0x40575c76	3.3650184
150	0xbee09501	-0.4386368
151	0xbe5f7e60	-0.21825552
152	0xbd86bd5f	-0.065790884
153	0xbe8bcc8a	-0.27304488
154	0xbfb3cc48	-1.4046717
155	0x3f6d1c3f	0.92621225
156	0xbe20414f	-0.15649913
157	0xbe2f1de6	-0.17101249
158	0xbde71baf	-0.11284577
159	0xbd43cb20	-0.047801137
160	0xbe374b25	-0.17899759
161	0xbe1d005f	-0.15332173
162	0xbdd86d5d	-0.105677344
163	0xbe6863c3	-0.22694306
164	0xbe4672f8	-0.19379795
165	0xbe85eb9e	-0.26156324
166	0xbedf21db	-0.43580517
167	0xbe89b529	-0.26896027
168	0xbe90c6b7	-0.28276607
169	0xbe0e3077	-0.13885675
170	0xbdd7046d	-0.10498891
171	0xbe94c243	-0.2905446
172	0x3f3bef25	0.7341178
173	0xbbf233be	-0.007391422
174	0x3d8a7807	0.06761175
175	0xbe656f42	-0.22405723
176	0xbe3036e3	-0.17208438
177	0xbdf1f353	-0.118139885
178	0xbe4b32da	-0.19843617
179	0xbeb27f0d	-0.34862557
180	0x3fbb28e0	1.4621849
181	0xbee6cb62	-0.45077044
182	0xbeb19c20	-0.34689426
183	0xbe62afbb	-0.22137348
184	0xbe841681	-0.2579842
185	0xbe10a6d5	-0.14126141
186	0xbec42afc	-0.38314044
187	0xbed5f2d1	-0.41786817
188	0xbe54c7db	-0.20779364
189	0xbe67d794	-0.2264083
190	0xbf30dbde	-0.6908549
191	0xbd85a9da	-0.06526537
192	0xbe653a20	-0.22385454
193	0x40862b88	4.192814
194	0xbd09424d	-0.033510495
195	0xbe8a60c6	-0.27026957
196	0x400f9e50	2.2440376
197	0x3f8da958	1.1067305
198	0xbe10aa1d	-0.14127393
199	0x3f198a9f	0.59977144

reward_fun.4.weight f4 [1, 200]
0	0xbbb3a2be	-0.005482047
1	0x3c0cd749	0.00859625
2	0x3dcd7213	0.100315236
3	0xbd1993e5	-0.03749456
4	0x3ef19edb	0.4719151
5	0xbd987b4d	-0.07445393
6	0xbc0d05e9	-0.008607366
7	0x3e32e3f3	0.17469768
8	0x3e1573e1	0.14594986
9	0xbe3f0ab0	-0.1865642
10	0xbda8c08e	-0.08239852
11	0xbe315add	-0.17319818
12	0x3db8e5f9	0.09028239
13	0x3d41af2d	0.0472862
14	0x3da9da41	0.08293582
15	0xbd33ff46	-0.04394462
16	0xbda139a6	-0.07872324
17	0x3cd417c2	0.025890235
18	0x3e71390c	0.23556918
19	0xbd81b9f9	-0.063342996
20	0x3e1f76ce	0.15572664
21	0x3e3fcff4	0.18731672
22	0x3d5c9f42	0.053862818
23	0x3dbe85d4	0.093028694
24	0xbe3b24a9	-0.18275703
25	0x3de4352f	0.111429565
26	0x3e35ba0b	0.17746751
27	0xbd3bfe25	-0.045896668
28	0x3d820bd6	0.06349914
29	0x3e31bdec	0.17357606
30	0x3d8d71e6	0.0690649
31	0xbe87fea3	-0.2656146
32	0xbd8cab55	-0.068686165
33	0x3a1d766c	0.0006006721
34	0xbd03ca8b	-0.032175582
35	0xbf3e2a54	-0.7428334
36	0x3d91ac27	0.071129136
37	0x3d91285c	0.07087776
38	0xbee93034	-0.4554459
39	0x3d90d7e5	0.070724286
40	0xbe602521	-0.21889164
41	0xbd2bbb8a	-0.041926898
42	0xbe25a177	-0.16174875
43	0xbc9de1a1	-0.019272627
44	0xbd1a8460	-0.0377239
45	0xbcbc4b8d	-0.022985244
46	0x3d3145ad	0.04327934
47	0xbdea829a	-0.114506915
48	0xbda97df1	-0.082759745
49	0xbe26890d	-0.16263218
50	0xbe905ed6	-0.28197354
51	0x3e52ef47	0.2059909
52	0xbd7693e8	-0.06019965
53	0x3d76929d	0.060198415
54	0x3e34e0c6	0.1766387
55	0xbce0011b	-0.027344277
56	0x3d125f90	0.035735667
57	0x3e0f435b	0.13990538
58	0xbcc94e6f	-0.024573533
59	0x3e22a2ca	0.15882412
60	0xbe563c14	-0.20921355
61	0xbe7502ff	-0.23926924
62	0xbe35c972	-0.17752627
63	0x3db5a7f6	0.08869927
64	0x3e5c4122	0.21509221
65	0xbe436ace	-0.19083712
66	0x3c1319d1	0.008978323
67	0xbc925c01	-0.017866137
68	0x3d9bf31d	0.076147296
69	0xbed1e009	-0.40991238
70	0xbe82eac6	-0.25569743
71	0xbdac2c31	-0.08406866
72	0x3e50ab4b	0.20377843
73	0xbdfc8b13	-0.12331214
74	0xbca03e5a	-0.019560982
75	0x3cb27f36	0.021789175
76	0x3f38e2c1	0.72221
77	0x3cfc7b9f	0.030820666
78	0xbdec8186	-0.11548142
79	0x3fff6d84	1.9955297
80	0x3d8b9ba0	0.068167925
81	0x3e558984	0.2085324
82	0x3d2eb6d0	0.042654812
83	0x3eda6fa7	0.4266331
84	0x3e81adb7	0.25327846
85	0xbec80ea3	-0.39073667
86	0x3dfef7b8	0.12449592
87	0xbba6e06c	-0.005092671
88	0xbe9d833c	-0.30764186
89	0x3d64a15a	0.05581794
90	0xbe6698f8	-0.2251929
91	0x3dc0efa1	0.094207056
92	0xbe112de5	-0.14177664
93	0xbdc6c3ec	-0.09705338
94	0xbe872e8b	-0.26402697
95	0xbe6e8060	-0.23291159
96	0xbe393cfa	-0.18089667
97	0xbe8ca409	-0.274689
98	0x3db07eb2	0.08617915
99	0x3d862ac0	0.06551123
100	0x3dad1010	0.08450329
101	0x3a6dbad5	0.00090686727
102	0xbed954af	-0.4244742
103	0xbe6cf01c	-0.2313847
104	0xbe4c8cf5	-0.19975646
105	0xbe910d9f	-0.28330705
106	0x3c55e2fb	0.013054605
107	0x3d8d780c	0.06907663
108	0x3dcc671b	0.09980603
109	0xbe79de79	-0.24401273
110	0x3dde5c64	0.10857466
111	0xbef0e664	-0.47050774
112	0x3d036be6	0.03208532
113	0x3b983701	0.004645229
114	0xbe28d7ae	-0.16488525
115	0x3c711fb3	0.01471703
116	0xbca3f4b4	-0.020014144
117	0x3dbf37fc	0.0933685
118	0xbe82150c	-0.25406682
119	0x3cb33782	0.021877054
120	0xba7fa9b6	-0.0009752767
121	0x3b6f6f8a	0.0036534988
122	0xbe89f0c2	-0.26941496
123	0x3d6be246	0.057588838
124	0xbd00cfea	-0.031448282
125	0x3dd4c1bd	0.10388515
126	0x3e365f1c	0.17809719
127	0xbcc91184	-0.024544485
128	0x3d911096	0.07083242
129	0x3dc9cfca	0.09854086
130	0x3d6bd23e	0.05757355
131	0xbc3e7d41	-0.011626543
132	0x3ea1a3c8	0.31570268
133	0x3d05e110	0.03268534
134	0x3d67c277	0.05658194
135	0x3c632051	0.013862685
136	0x3dae9d1c	0.0852606
137	0xbdb0c7c4	-0.08631852
138	0xbdbd9d7c	-0.092585534
139	0xbe6f8b75	-0.23393042
140	0x3dd9f327	0.10642081
141	0xbeb5aa48	-0.35481477
142	0x3c0fe6db	0.008783068
143	0xbdbf4f2d	-0.093412735
144	0xbe80eaef	-0.2517924
145	0x3d4827ba	0.04886601
146	0x3d8334f5	0.06406585
147	0x3dffd215	0.12491242
148	0xbdbebad0	-0.093129754
149	0x3dfab0a2	0.12240721
150	0x3d12f5b2	0.035878845
151	0xbd58b8d9	-0.05291066
152	0x3a0ec645	0.00054464146
153	0x3c9ddbcb	0.019269845
154	0x3dc40dcc	0.09572944
155	0xbe498747	-0.1968051
156	0x3d207a58	0.039179176
157	0x3bc6d05f	0.0060673202
158	0xbda5caea	-0.080953434
159	0xbd2312ca	-0.03981284
160	0x3d61b186	0.05510094
161	0xbcb03058	-0.021507427
162	0xbc6cc61d	-0.014451531
163	0x3dba9b61	0.091116674
164	0xbc181c88	-0.009284146
165	0xbcdd0d32	-0.026983831
166	0x39aaa1bf	0.00032545437
167	0x3d6c6c0c	0.05772023
168	0xbdb847f6	-0.089981005
169	0x3d287609	0.041128192
170	0x3b3882ff	0.0028154252
171	0xbbe94556	-0.007118861
172	0xbe4f8830	-0.20266795
173	0xbdf6b7c9	-0.12046773
174	0x3de48abb	0.11159273
175	0xbbfe91eb	-0.0077688596
176	0x3d8a7332	0.06760253
177	0xbd8cc5b5	-0.06873647
178	0xbc136924	-0.008997235
179	0xbcdffc07	-0.027341856
180	0xbe85f37d	-0.2616233
181	0x3e4e6404	0.2015534
182	0x3d89b121	0.06723238
183	0xbc353d47	-0.011061973
184	0xbc8ff009	-0.017570512
185	0xbd7ab878	-0.06121108
186	0xbd2999db	-0.041406494
187	0x3bd4ddb9	0.006496158
188	0xbd0c73b1	-0.03429002
189	0xbd4bd189	-0.049760375
190	0xbdddacf5	-0.108240046
191	0x3ad29278	0.001606538
192	0x3c917f91	0.017761024
193	0x3dd92301	0.106023796
194	0xbe5cb1af	-0.21552156
195	0xbc946482	-0.018114332
196	0xbf2e089c	-0.67981887
197	0xbe75cb23	-0.24003272
198	0xbc60e1b4	-0.013725687
199	0xbe933b9f	-0.28756425
