data/hlt_stoch/HalfCheetahEnv/seed_13/policy_30000.pt (torch, 17149 bytes, 4 tensors)

mu.0.weight f4 [128, 17]
0	0x4008fa8c	2.1402922
1	0x3eb3f411	0.35147145
2	0x3f41fbd3	0.7577488
3	0xbfb442f4	-1.4082932
4	0xbf7b3a7b	-0.9813611
5	0x3f507d1a	0.8144089
6	0x3f0f7abd	0.5604666
7	0xbe8f82ee	-0.2802958
8	0x3e91d0b6	0.28479546
9	0x3f11ee24	0.57004
10	0xbcf05174	-0.029335715
11	0x3df3c281	0.11902333
12	0x3d2866a1	0.0411135
13	0xbd8eaf33	-0.0696701
14	0x3db58f6c	0.08865246
15	0xbd6a0eaf	-0.05714291
16	0x3c1470b5	0.009060075
17	0x4016065b	2.344138
18	0xc03603ac	-2.843974
19	0x3fa03175	1.2515093
20	0x3cb072c6	0.021539103
21	0xbefa0763	-0.4883376
22	0x3f00c06b	0.50293607
23	0x3eb58d9c	0.35459602
24	0x3ffa4acb	1.9554075
25	0x3e4ee5e0	0.20204878
26	0x3f27182c	0.6527126
27	0xbeb81ff8	-0.3596189
28	0x3c0ce892	0.008600371
29	0xbda517f2	-0.08061208
30	0xbd59e057	-0.053192463
31	0xbe3e69bd	-0.18595023
32	0x39eb6998	0.00044901366
33	0xbe9f2dfe	-0.31089777
34	0x3ffe7ea3	1.9882396
35	0xbfcf6660	-1.6203117
36	0xbf4a6141	-0.7905465
37	0xbf715a43	-0.94278353
38	0xbe994c52	-0.2994104
39	0xbe0a5fa0	-0.1351304
40	0x3f916cfa	1.1361382
41	0x3ea32f25	0.31871906
42	0x3e2f89ab	0.1714236
43	0x3c0bdad8	0.008536063
44	0xbe169b07	-0.14707576
45	0x3c8869a5	0.016651938
46	0xbbc3f318	-0.005979907
47	0x3a746d50	0.000932415
48	0x3c40c911	0.011766688
49	0xbce7c893	-0.028293883
50	0x3c6742c0	0.0141150355
51	0x401f41b6	2.4883857
52	0xbf19f197	-0.6013426
53	0xbea11f90	-0.31469393
54	0x3e17cb4f	0.1482365
55	0xbf81986b	-1.0124639
56	0xbf94b774	-1.1618485
57	0x3fbc65de	1.4718587
58	0x3f0cb8d9	0.54969555
59	0x3eb417cf	0.35174415
60	0xbe6eeca0	-0.23332453
61	0xbf091307	-0.5354466
62	0x3d977673	0.07395639
63	0xbcf19572	-0.029490206
64	0x3dca5180	0.09878826
65	0xbdf3cb1b	-0.11903974
66	0xbdc3c1aa	-0.09558423
67	0xbde4257d	-0.11139963
68	0x3fff9205	1.9966437
69	0xc036d482	-2.8567204
70	0xc015efc7	-2.3427598
71	0xbebfd37c	-0.37466037
72	0xbe98e94e	-0.29865497
73	0x3e989d45	0.29807487
74	0xbf9a634c	-1.2061553
75	0x3e512f30	0.20428157
76	0xbeac472d	-0.33648053
77	0xbf09cac0	-0.53824997
78	0xbf0aac38	-0.54169035
79	0xbdd745e2	-0.10511376
80	0x3d08ea38	0.033426493
81	0x3b801301	0.0039085154
82	0xbe200530	-0.15626979
83	0xbe1f10ea	-0.15533796
84	0xbd478db1	-0.04871911
85	0x4023e320	2.5607376
86	0xbebd83a9	-0.3701451
87	0xc058c2b2	-3.3868833
88	0xbe03aa17	-0.12857853
89	0xbf39aa60	-0.72525597
90	0x3f2cd6c4	0.67515206
91	0x3fbfa00c	1.4970717
92	0xbe8b80bc	-0.27246654
93	0xbebdf415	-0.37100282
94	0xbf59486d	-0.8487614
95	0x3f26648d	0.6499718
96	0xbc99e610	-0.01878646
97	0x3dfb6c4f	0.122765176
98	0xbd226583	-0.03964759
99	0xbcc6d6b5	-0.024272302
100	0xbd7927b8	-0.060828894
101	0x3e31ac44	0.1735087
102	0x3e90248b	0.2815288
103	0xc03866d6	-2.8812766
104	0xbf80deaf	-1.0067958
105	0x3e8385f2	0.2568813
106	0xbff6c840	-1.9279861
107	0xbe8c1193	-0.27357158
108	0xbe130660	-0.143579
109	0xbf852f27	-1.0405015
110	0xbf090e5c	-0.53537536
111	0xbf8b3616	-1.0875881
112	0xbe413835	-0.18869098
113	0x3e54359b	0.20723574
114	0x3dbde974	0.09273043
115	0x3df44250	0.119267106
116	0xbdbe382d	-0.092880584
117	0xbd462822	-0.048378117
118	0x3dc51206	0.09622578
119	0x4056dd5a	3.3572602
120	0xbf53149c	-0.8245332
121	0xbeabbff8	-0.33544898
122	0xbfc1ecf6	-1.515044
123	0x3f2f807f	0.68555444
124	0x3fa40faa	1.281728
125	0xbf2ca05f	-0.67432207
126	0x3eeb45ae	0.459516
127	0x3db5c753	0.08875909
128	0x3df17261	0.11789394
129	0xbdd78bc5	-0.10524706
130	0x3ce7f132	0.028313253
131	0xbd409e32	-0.047025867
132	0x3e129df0	0.14318061
133	0x3d295624	0.041341916
134	0xbd6cb85d	-0.05779301
135	0xbd1d3fec	-0.03839104
136	0x3e199102	0.14996722
137	0xbe8cee10	-0.27525377
138	0xbe1db01a	-0.15399209
139	0x3d38da03	0.045129787
140	0xbf130eae	-0.57444274
141	0xbf135382	-0.575493
142	0x3f24e316	0.64409006
143	0x3fa1e020	1.2646523
144	0x3d4308c7	0.047615793
145	0xbf5a3604	-0.8523867
146	0x3f367d23	0.71284693
147	0x3e673288	0.2257787
148	0x3d9db11b	0.07699796
149	0x3d9ea9f1	0.077472575
150	0xbe6f565c	-0.23372787
151	0x3d361701	0.044455532
152	0xbc4cdbb7	-0.012503556
153	0x400e0a41	2.2193758
154	0xbe829c46	-0.25509852
155	0x3f0bf4cf	0.54670423
156	0x3fc8e9cc	1.5696349
157	0xbecf5e12	-0.40501457
158	0xbf86259a	-1.0480225
159	0x3f88fc8c	1.0702071
160	0xbe26419c	-0.16235965
161	0x3f060b96	0.5236143
162	0xbf91724d	-1.1363007
163	0x3f28cd56	0.6593832
164	0x3c48b289	0.012249597
165	0x3d654ae5	0.055979628
166	0x3b70ce26	0.0036743968
167	0x3d6a9b1f	0.05727684
168	0x3dded116	0.10879724
169	0x3d1a9194	0.03773649
170	0x3fe51bb9	1.7899085
171	0xbff2affc	-1.8959956
172	0xbf7b0c01	-0.9806519
173	0xbf597c10	-0.8495493
174	0xbf0c8a87	-0.54898876
175	0xbf72a046	-0.9477581
176	0x3edaab8c	0.42709005
177	0xbf1bef95	-0.6091245
178	0xbebb9ee0	-0.3664465
179	0xbe4cf1ed	-0.20014162
180	0xbf331479	-0.69953114
181	0xbd606447	-0.054783132
182	0xbd715768	-0.058921248
183	0xbcea462b	-0.028597912
184	0x3e356104	0.1771279
185	0x3d0e516f	0.03474563
186	0xbd245539	-0.040120337
187	0x40971f69	4.7225842
188	0xbf12d7dc	-0.57360625
189	0x3f4e85f9	0.80673176
190	0x3f6b4b8d	0.91912156
191	0xbf8bd9ec	-1.092588
192	0x3fe4d4c3	1.787743
193	0x3fda616d	1.7060982
194	0x3fd341c7	1.6504449
195	0xbd1c5225	-0.038164277
196	0xbeab6330	-0.33474112
197	0xbd879f62	-0.06622197
198	0x3e70fe5c	0.2353453
199	0xbbeb71b9	-0.0071851877
200	0xbdc70367	-0.09717446
201	0xbdac3b32	-0.08409728
202	0xbd4626ef	-0.048376974
203	0xbccad7bb	-0.024761071
204	0xbf21dc9a	-0.63227236
205	0x3dbdaf0a	0.09261902
206	0xbfc3e01b	-1.5302767
207	0xbfdcd097	-1.7251157
208	0xbe19db2a	-0.1502501
209	0x3f0890a1	0.53345686
210	0x3ee367dc	0.44415176
211	0x3f2d019f	0.675806
212	0xbf263567	-0.64925236
213	0x3f5610ac	0.8361919
214	0xbf0e79a2	-0.55654347
215	0xbd718a80	-0.058969975
216	0xbdca1f56	-0.09869258
217	0x3d056a51	0.032572094
218	0xbdaf421b	-0.085575305
219	0xbd9ec481	-0.07752324
220	0xbc94794a	-0.018124241
221	0x3fe40f2f	1.7817134
222	0xbf8f7cab	-1.1209921
223	0x3f61deb7	0.8823046
224	0xbf84e0a5	-1.0381056
225	0xbee8aef1	-0.4544597
226	0x3f1faac2	0.6236993
227	0x3fd2406d	1.6425911
228	0x3f918ce5	1.1371123
229	0x3f382eb6	0.71946275
230	0x3fd20f1c	1.6410861
231	0x3eda4d63	0.42637166
232	0x3ca1fa21	0.019772591
233	0x3db7f98d	0.08983145
234	0xbdcfb519	-0.101419635
235	0xbdbeee60	-0.0932281
236	0xbd864d8d	-0.065577604
237	0x3d33846d	0.043827463
238	0x3fc77d75	1.5585161
239	0xc026aae3	-2.60418
240	0xbfffe752	-1.9992468
241	0xbff6fcbb	-1.9295877
242	0xbe7c6207	-0.2464677
243	0x3f74133f	0.9534187
244	0x3ead3a47	0.33833525
245	0x3f09ac7e	0.5377883
246	0xbe12fc8c	-0.14354151
247	0x3ea1449e	0.31497663
248	0x3d880e09	0.06643302
249	0xbd87402c	-0.06604037
250	0x3c1ae1c7	0.009453244
251	0xbc7f90ee	-0.015598519
252	0x3d3de96a	0.04636518
253	0xbcfd2565	-0.03090162
254	0xbd2de335	-0.04245301
255	0xc003c1e3	-2.058709

mu.0.bias f4 [128]
0	0xc00f27e7	-2.2368104
1	0xbf8208a9	-1.0158893
2	0xbfcf0b87	-1.6175393
3	0xc0261363	-2.5949333
4	0xbff8d54f	-1.9440097
5	0xbf89152d	-1.0709587
6	0xbf82e72b	-1.0226797
7	0x3f4387e4	0.7637923
8	0xc013f8cc	-2.3120604
9	0xbfb21d88	-1.3915262
10	0xc01f8845	-2.4926922
11	0x3ea47b08	0.32125115
12	0xbef9ceae	-0.48790497
13	0xbf5903a9	-0.8477121
14	0x3f13da11	0.5775462
15	0xc007c5b1	-2.1214411
16	0xbff7574e	-1.9323518
17	0xbf9bd319	-1.2173797
18	0xc00b74d8	-2.1790066
19	0xbf6b5dcc	-0.9194
20	0xbf9be99f	-1.218067
21	0xbff35943	-1.9011616
22	0xbfa3aa7d	-1.2786404
23	0xbfe71ade	-1.8055074
24	0xc021eedc	-2.5302038
25	0xc01ea398	-2.478735
26	0xc00fca6c	-2.2467299
27	0xc0045376	-2.067594
28	0xbfab2e45	-1.3373495
29	0xbd0ffe41	-0.035154585
30	0xc0127ec5	-2.2889874
31	0xc01689bb	-2.3521564
32	0xc0034169	-2.0508673
33	0xbf44ba2c	-0.76846576
34	0xc0167903	-2.351136
35	0xc008399c	-2.1285162
36	0xc0243e39	-2.5662978
37	0xc028ef05	-2.6395886
38	0xc013ffcd	-2.3124878
39	0xbccb187a	-0.024791945
40	0xbff0aa4f	-1.8801974
41	0xbfce7f2d	-1.6132561
42	0xbf9f4aae	-1.2444665
43	0xc01fec9f	-2.4988172
44	0xc001a09e	-2.0254283
45	0x3e9b6d98	0.3035705
46	0xbfe2bbb0	-1.7713528
47	0xc02d4a30	-2.707653
48	0xbfc79396	-1.5591915
49	0xbfc6fc8d	-1.5545822
50	0xc012fd95	-2.2967274
51	0xbf8e4538	-1.1114874
52	0xbd41b6d0	-0.047293484
53	0xc0378fec	-2.8681593
54	0xbf8a1b5c	-1.07896
55	0xbf2855f4	-0.65756154
56	0xbfdeed98	-1.7416258
57	0xc020bb68	-2.5114384
58	0xbeaf800d	-0.34277382
59	0xc005a17f	-2.087982
60	0xbf26666d	-0.6500004
61	0xbefa7f06	-0.48925036
62	0xc01c3bd1	-2.441151
63	0x3df8a99c	0.121417254
64	0xbfbc6890	-1.471941
65	0xbf8fdad3	-1.1238655
66	0xbfa3a94f	-1.2786044
67	0xc028dca0	-2.638466
68	0xbe00182d	-0.12509222
69	0xc00fc346	-2.2462935
70	0xbf65da63	-0.89786357
71	0xc012ce5a	-2.2938447
72	0xbf00f434	-0.50372624
73	0x3fae9cbc	1.3641582
74	0xbfa72a33	-1.3059753
75	0xbfba5ddc	-1.4559894
76	0xbf8caa76	-1.098952
77	0xc00647f6	-2.0981421
78	0xc01652e1	-2.3488085
79	0xbed3c412	-0.41360527
80	0xc004ed21	-2.0769732
81	0xc043f57e	-3.0618587
82	0xc016a974	-2.3540926
83	0x3d58dd62	0.052945502
84	0xbf418947	-0.75600094
85	0xbfb8cb4b	-1.443704
86	0xc00b344a	-2.1750665
87	0x3fa8b1e4	1.3179288
88	0xbf8c3973	-1.0955032
89	0x3f350885	0.70716125
90	0xbfef539c	-1.869739
91	0xc01cce11	-2.4500773
92	0xc00d0a26	-2.2037444
93	0xbffc67fe	-1.9719236
94	0xbec2c121	-0.3803797
95	0xc018eca7	-2.389444
96	0xc00a238d	-2.1584198
97	0xc0273277	-2.6124551
98	0xbf8c6df0	-1.097105
99	0x3f8f9b69	1.1219302
100	0xc0061e45	-2.0955975
101	0xbfe6a23f	-1.8018264
102	0xc01187ed	-2.2739213
103	0xbf9aadde	-1.208431
104	0xbe00d7fe	-0.12582394
105	0xbec028ff	-0.37531278
106	0xbfb3fdc2	-1.4061816
107	0xbebfbd6e	-0.3744921
108	0xc0160762	-2.3442006
109	0xc009a67d	-2.1507866
110	0x40010fa3	2.0165794
111	0x3ebd3a75	0.36958662
112	0x3f381744	0.719105
113	0xbff96595	-1.9484125
114	0xc021fd9a	-2.5311036
115	0xbf604aed	-0.8761433
116	0xc011340f	-2.2688024
117	0xbf005627	-0.5013146
118	0xc03cd2a1	-2.9503558
119	0xbfc4b652	-1.536814
120	0xc01de8f9	-2.4673445
121	0xc01ac6f8	-2.418394
122	0xbfe9f55e	-1.8278005
123	0x3f0ede92	0.55808365
124	0xbf6ef778	-0.9334636
125	0xbff771bf	-1.9331588
126	0xbf18037e	-0.5938033
127	0xc00dcd70	-2.215664

mu.2.weight f4 [12, 128]
0	0xbe359adc	-0.17734855
1	0x3cf1fe4f	0.02954021
2	0xbc506ef0	-0.012721762
3	0xba6f48d1	-0.0009127977
4	0xbe731504	-0.23738486
5	0x3e5446cf	0.20730136
6	0xbd8c4c0a	-0.06850441
7	0x3ce26e8e	0.027640607
8	0x3daec384	0.085333854
9	0x3d9a9c4e	0.07549344
10	0xbd8f49d6	-0.06996505
11	0x3daa1118	0.083040416
12	0xbe2f3599	-0.1711029
13	0x3c4fe2ac	0.01268832
14	0xbe0c270b	-0.13686769
15	0x3e21453f	0.15749072
16	0x3dd3b21d	0.10336707
17	0x3e5b2179	0.21399488
18	0xbf0b5855	-0.5443166
19	0xbe57264b	-0.21010701
20	0x3d12e481	0.03586245
21	0xbe2fce15	-0.17168458
22	0x3e151312	0.14558056
23	0x3e14f32a	0.14545885
24	0x3e6b06b1	0.22951771
25	0x3dbc9938	0.09208912
26	0x3e08f312	0.13373974
27	0x3e39e3ec	0.18153352
28	0x3e84242b	0.25808844
29	0xbe8e439e	-0.27785963
30	0xbc32f17a	-0.01092183
31	0xbdaf8d32	-0.08571853
32	0x3dd44f33	0.103666686
33	0x3d081825	0.03322615
34	0xbe398130	-0.18115687
35	0x3d0c65fc	0.034276947
36	0xbed304dc	-0.41214645
37	0xbe837ec9	-0.25682667
38	0x3d876cb0	0.06612527
39	0xbdc9ccd2	-0.098535195
40	0x3d6873c4	0.056751028
41	0x3e4045a2	0.18776563
42	0xbd96bf3f	-0.07360696
43	0xbd19a8fc	-0.03751467
44	0x3d06387a	0.032768704
45	0xbe294337	-0.16529547
46	0xbedd6e0d	-0.43248025
47	0xbef523b7	-0.4787881
48	0xbe2c2953	-0.16812639
49	0xbebd1610	-0.36930895
50	0x3e6febf8	0.23429859
51	0xbec43d21	-0.38327888
52	0xbd099318	-0.033587545
53	0x3ee5fc84	0.44919217
54	0x3f05fa39	0.52334934
55	0x3d697ace	0.05700188
56	0xbc89e26e	-0.016831603
57	0x3e51ecf9	0.20500554
58	0xbd1ec8a0	-0.03876555
59	0xbd873da7	-0.06603556
60	0xbe1c39d2	-0.15256432
61	0xbd299cea	-0.04140941
62	0x3d7b2b42	0.06132055
63	0xbe22f46b	-0.1591355
64	0x3d93206e	0.0718392
65	0x3e9d5db6	0.30735558
66	0xbdbb0aba	-0.09132905
67	0x3db37bb3	0.08763828
68	0x3e7308f2	0.23733881
69	0xbc0650a6	-0.008197939
70	0x3f111eb2	0.5668746
71	0xbeb7fc27	-0.35934564
72	0xbdec4e76	-0.11538403
73	0x3e6abea3	0.22924285
74	0xbe832e0f	-0.25621077
75	0xbcbf9ea1	-0.02339107
76	0x3e886652	0.26640564
77	0xbe5e699c	-0.21719974
78	0xbdf10917	-0.11769312
79	0xbde04e20	-0.10952401
80	0x3e316fc3	0.1732779
81	0x3ee1ad99	0.44077757
82	0xbe6a47b3	-0.22878914
83	0x3ec1840b	0.37796053
84	0xbeb81049	-0.35949925
85	0xbd922e7d	-0.07137773
86	0xbcf2288d	-0.029560352
87	0xbe14b4b6	-0.14522061
88	0xbdc7236d	-0.09723554
89	0x3e03f7c4	0.12887484
90	0x3c8579c2	0.01629341
91	0x3e9c46c8	0.30522752
92	0xbd80413e	-0.06262444
93	0xbd87db7a	-0.06633659
94	0x3e9cbcd0	0.30612803
95	0xbe05f430	-0.13081431
96	0x3e9f23bd	0.31081954
97	0xbea85e61	-0.32884505
98	0xbf0e8c67	-0.55682987
99	0x3e0e26ce	0.1388199
100	0x3cf4ffc3	0.029907113
101	0xbda708b4	-0.08155957
102	0x3d12da62	0.035852797
103	0x3df0bebe	0.11755131
104	0x3d8b3227	0.06796675
105	0x3e185749	0.14877047
106	0xbda91331	-0.082556136
107	0xbe4ebef0	-0.20190024
108	0x3eb4d249	0.35316685
109	0x3e98e67e	0.29863352
110	0xbdc4f305	-0.09616665
111	0x3cc4839e	0.023988541
112	0x3e81ce7e	0.25352854
113	0x3d5a34d3	0.053273033
114	0xbd9945bb	-0.07484003
115	0x3e3ded63	0.18547587
116	0x3e159661	0.14608146
117	0xbd075767	-0.033042338
118	0xbe3b8e97	-0.18316112
119	0xbb8d47c2	-0.0043115327
120	0x3e4f703e	0.20257661
121	0xbda070a8	-0.078339875
122	0xbf0ece46	-0.557835
123	0xbdfd5755	-0.12370173
124	0xbc16d5ad	-0.009206218
125	0xbecad432	-0.39615017
126	0x3dc1b55a	0.09458418
127	0x3e5bb344	0.21455103
128	0x3e87bb0d	0.26509896
129	0xbc0e42b0	-0.008682892
130	0x3e1840e1	0.148685
131	0x3ec1cde0	0.37852383
132	0x3db00339	0.08594365
133	0x3e55b3c9	0.20869364
134	0xbe167951	-0.14694716
135	0x3dc37fbe	0.09545849
136	0xbde31e34	-0.11089745
137	0xbe2f8b37	-0.1714295
138	0x3d8559a5	0.06511239
139	0xbe0afd92	-0.13573292
140	0xbe174650	-0.14772916
141	0xbd9df3ee	-0.077125415
142	0x3e6ba8d3	0.2301362
143	0x3e790f37	0.2432221
144	0x3e82e154	0.25562537
145	0xbebfe40e	-0.3747868
146	0x3e6a0961	0.2285514
147	0x3ea22932	0.31672055
148	0x3c83c9d6	0.016087454
149	0x3ea3e30a	0.32009155
150	0xbd721ff0	-0.05911249
151	0xbecb2c91	-0.3968244
152	0x3e4dcf22	0.20098546
153	0xbc26c006	-0.010177618
154	0x3d8d846c	0.06910023
155	0xbe010e5e	-0.12603137
156	0x3d163abe	0.036677115
157	0xbde7f62d	-0.11326251
158	0x3cf1e62b	0.029528698
159	0xbd66ab33	-0.056315612
160	0x3bd39e33	0.006458068
161	0xbe14a92b	-0.14517657
162	0xbdaa1bb8	-0.08306068
163	0x3ed618a7	0.41815683
164	0xbe35b702	-0.17745593
165	0x3ee5e2f9	0.4489973
166	0xbda1cd86	-0.079005286
167	0xbd7af8cd	-0.06127243
168	0x3eda8986	0.42683047
169	0xbe4f4024	-0.20239311
170	0x3d94e92f	0.07271039
171	0x3d112418	0.035434812
172	0xbd6478ea	-0.055779375
173	0x3e23de75	0.1600283
174	0xbe0527ee	-0.13003513
175	0x3d92eb7d	0.07173822
176	0xbd9bdc2c	-0.07610354
177	0x3eb79e43	0.35862932
178	0xbe955dc0	-0.29173088
179	0xbd304fa7	-0.043044712
180	0xbd1ff196	-0.039048754
181	0x3ddfc6a7	0.10926562
182	0xbef7f7ff	-0.48431394
183	0x3e264edb	0.16241018
184	0x3d01f3b7	0.031726565
185	0x3f08a8a4	0.53382325
186	0x3df5580c	0.11979684
187	0x3e11d1bd	0.14240165
188	0x3eb27175	0.34852186
189	0x3c854c25	0.01627166
190	0xbeda6f18	-0.42662883
191	0xbd8c2322	-0.068426386
192	0xbe0a7895	-0.13522561
193	0xbe070f79	-0.13189496
194	0xbea15a8c	-0.31514394
195	0xbe8863ef	-0.26638743
196	0xbe22062b	-0.15822665
197	0x3da479d1	0.08031047
198	0xbf4fe1d7	-0.8120398
199	0x3e6d1ab5	0.23154719
200	0xbdacb4fe	-0.08432959
201	0xbd13529d	-0.035967458
202	0xbc3333d5	-0.010937651
203	0xbbff5067	-0.007791567
204	0x3c07fe84	0.008300427
205	0x3d6b663b	0.05747054
206	0xbeaccc8e	-0.33749813
207	0x3e0910aa	0.13385263
208	0xbc3f442e	-0.01167397
209	0xbed710c4	-0.4200498
210	0xbe032dc8	-0.12810433
211	0xbd9abf36	-0.07556002
212	0x3de89480	0.11356449
213	0x3e63f936	0.22263035
214	0x3d0e28b9	0.034706805
215	0x3e59c201	0.21265413
216	0x3cd673df	0.026178299
217	0x3de567ec	0.11201462
218	0x3c816729	0.01579626
219	0xbd1e2d22	-0.03861726
220	0x3db0a025	0.08624295
221	0xbdd11682	-0.10209371
222	0xbe7fd4e2	-0.24983552
223	0xbd7b8c04	-0.061412826
224	0xbdf214ae	-0.118203506
225	0x3dedd7f0	0.116134524
226	0x3ef90a8f	0.48640868
227	0xbde22ff1	-0.110443
228	0xbde82b6f	-0.11336409
229	0x3dadb3ed	0.08481584
230	0x3d93bf4a	0.0721422
231	0x3d2a5aac	0.041590378
232	0xbe00225a	-0.12513104
233	0xbe0f7d0c	-0.14012545
234	0xbd595358	-0.053058
235	0x3d2c79af	0.042108234
236	0xbccf134c	-0.025277756
237	0xbe702226	-0.23450527
238	0xbe36f744	-0.17867762
239	0xbd7b74ed	-0.061390806
240	0x3e1bee08	0.1522752
241	0x3c9286bf	0.017886518
242	0x3bcdfbb4	0.006286109
243	0xbd9b4cf1	-0.07583035
244	0xbd183af0	-0.037165582
245	0x3df93ff3	0.121704005
246	0xbdbab911	-0.0911733
247	0x3dbc32f2	0.091894045
248	0x3debdd6d	0.11516843
249	0xbe6aa25c	-0.22913498
250	0x3f2d5324	0.6770499
251	0x3e5daaee	0.21647236
252	0x3d580cfc	0.052746758
253	0x3ef76477	0.48318836
254	0xbd8c2904	-0.068437606
255	0xbe94a92d	-0.2903532

mu.2.bias f4 [12]
0	0x3e3be7a8	0.18350089
1	0x3ee8294f	0.45344016
2	0x3c9136fb	0.017726412
3	0xbf6c4470	-0.9229193
4	0xbe277fc0	-0.16357327
5	0x3ea7ecdb	0.32797894
6	0xbfa71baa	-1.3055317
7	0xbfa136f4	-1.2594895
8	0xbf7d9905	-0.99061614
9	0xbf70894f	-0.93959516
10	0xbf767825	-0.96277076
11	0xbf6d9fef	-0.92822164
