data/mpc_deter/InvertedPendulumBulletEnv/seed_113/model_5000.pt (torch, 180560 bytes, 10 tensors)

log_std f4 [1, 5]
00000000: c09b 91c0 9612 dcbf 8600 92c0 818b 88c0
00000010: f7c7 8cbf
-4.5502625 -1.7193172 -4.562564 -4.2670293 -1.0998524

mu.0.weight f4 [200, 6]
00000000: c721 57be 0c5c 0c3d cba3 143f 4811 c3bb
00000010: 1bef 71bd 65dd 84bd 22f1 913d df2d dabd
00000020: 74a2 53bc 04ed 52bd fa53 423b b722 83bc
00000030: 8b31 30ba f215 cf38 53df 8b3a e25d b136
00000040: 5135 db35 69a4 8338 fd3e 8bb2 07eb 2f31
00000050: 059e a232 d443 85b1 e850 a931 1479 6632
00000060: 51c8 7a3a 601d fe39 db1e 27ba 684c aab9
00000070: 65d8 bd3a 2fe4 fbbb b239 1a3f 59df 273f
00000080: f771 dfbe c5b2 68bf d4bc 14bf 8c04 94bd
00000090: e7c6 2438 760f 4b3a f9ad 353a ed12 033a
000000a0: 4eab e9b8 9d10 0cba 1028 abba af9c 123b
000000b0: 8764 953b a313 3d3b aa1c 1fb9 ad6e bdb9
000000c0: 839a 8b3f 94a9 963e 100c 9cbe b39d 1f3f
000000d0: 17fb 883e 2474 cc3e 850c 2a3d e2c1 dabd
000000e0: 95cc 443e 4cf6 433f 4d34 033f 3e6e d93c
000000f0: 49fc 8ab8 0ac5 0138 8e72 a938 fe5f a436
00000100: 6956 d436 a2e6 a5b7 3d87 463a 509e 4bba
00000110: 3166 8438 1d1b 2cbb 5926 2c39 3823 353a
00000120: 2eb7 36bd 870d 4fbe 4445 1d3f 1317 833e
00000130: 9040 92bd 7b98 5a3e 01d0 0e36 c17b 7936
00000140: 9243 4fb5 ff84 bf36 d536 f234 d8ec 0f37
00000150: 90b9 adb9 00b3 4bb9 22c5 a4b9 9662 8439
00000160: 6555 22b9 56d5 213a b447 83ba 92be db39
00000170: 910c 003b 3785 8f39 7b4a ba38 0e14 933a
00000180: 31ef 05bd 001e f43c f773 463a dd72 0c3c
00000190: 1c0d 3cbb 604d 363b f7e4 df3d 5e59 53be
000001a0: d486 36bf a16c 523d 8c6b 153d 3ba4 873e
000001b0: e963 f5b9 73d7 8338 6fb5 493a c49f 9d38
000001c0: 20c8 7a38 d03d e9b8 c7a5 2939 592e d338
000001d0: 3955 b137 3b45 ab38 5d24 21b7 3198 0f39
000001e0: 6ab4 d13d 23b3 833d e327 c13c bb87 84bf
000001f0: bf9e dabe 6893 54bd bcd6 2c39 1f79 f138
00000200: aee5 a6ba 0d0a e8b9 691d cb37 90e7 0e39
00000210: 0b07 a435 9c13 3d37 bacf 1836 6c8b b9b6
00000220: 8fa7 6535 2eaa b1b7 e66c 103b a802 c63a
00000230: 8556 9eb9 1fa2 e4ba f9c8 8c39 821a e03b
00000240: 6425 bf3e 67a5 bb3e 1815 873d 3ec7 a73e
00000250: d2d0 0b3f 27c1 91bd d7f6 2231 2bb3 c9b1
00000260: 3886 55b2 256f 3b31 84e2 15b2 4928 a2b2
00000270: 4d76 b63b 769a 123c e8e1 0abe e45b 84bf
00000280: 3420 f93d 22d7 2f3e 3e69 09b1 1379 9bb3
00000290: 6137 8132 742e 7534 abdd df33 f4ea fab3
000002a0: a340 1fba 2906 07bb aea7 2fb8 e197 503a
000002b0: afd5 1eb9 33da 8bbb d207 253e 8654 393e
000002c0: 1636 2fbe 42b2 62bf bcf8 20bf 5eb7 0dbd
000002d0: b5d9 ac38 6677 8bb9 0a8f 5738 31b2 d839
000002e0: 6286 26b9 0811 22b9 e037 0f3f da65 003f
000002f0: 25db 123e 39cb bbbf f326 27bf 3345 8ebd
00000300: 6364 e539 e99d 19b9 8e4a e0b9 8cdb e83a
00000310: 3d4d a93a 5e1e 8a3b 604b f635 fa79 5435
00000320: 1727 51b4 d3b4 0f35 ae8b 21b3 0b69 9f35
00000330: 8279 dd3d 1183 8dbe 0d8a a43e b347 b8be
00000340: fdf7 92bc 5649 bb3e 5065 e1b9 ebc6 a839
00000350: 5ed5 6a3a c9d8 e438 cc43 1739 a6b1 573a
00000360: 1d31 8cb8 8029 76b8 62c9 88b8 def1 8138
00000370: 3412 79b8 df8a 12b9 f5c2 78b9 5348 b3b9
00000380: 755c 0e3a 07db 0cb9 c9d9 5339 0ea1 8539
00000390: 9756 783a 86b2 a5b8 272c 99ba 571e 3838
000003a0: e711 1537 8cc9 9838 6157 61b7 d66c 70b7
000003b0: 6893 c8b6 6ee2 ceb6 328d ca35 227c c3b7
000003c0: 53d6 123a 3d0d 6937 f72f d1b9 7c8c 6139
000003d0: e1f4 c1b7 a8ae f339 06b7 803f 0a81 d13c
000003e0: 4185 4e3f 3e35 43bf dd7e a93e 490f 433f
000003f0: fe33 133a a790 e539 7eb0 47ba f3db 1139
-0.21008979 0.03426747 0.5806243 -0.005952988 -0.05906592 -0.0648754 0.071260706 -0.106532805
-0.01291715 -0.051495567 0.0029652105 -0.016007764 -0.00067212497 9.874617e-05 0.0010671414 5.2859405e-06
1.6332289e-06 6.2771906e-05 -1.6210373e-08 2.559945e-09 1.8931141e-08 -3.8785206e-09 4.9277453e-09 1.3415292e-08
0.00095665926 0.0004846854 -0.0006375142 -0.00032481854 0.0014484046 -0.0076871137 0.60244286 0.65575176
-0.43641636 -0.9089778 -0.5810063 -0.0722743 3.928589e-05 0.00077461393 0.0006930526 0.00050000736
-0.00011142214 -0.0005343052 -0.0013058204 0.0022371223 0.004559103 0.0028850816 -0.000151741 -0.0003613135
1.0906528 0.29426253 -0.30477953 0.62350005 0.26754066 0.39932358 0.041515846 -0.106815115
0.19218667 0.76547694 0.5125168 0.026541825 -6.6273446e-05 3.0939504e-05 8.0798854e-05 4.898756e-06
6.328152e-06 -1.977693e-05 0.00075732527 -0.0007767426 6.313285e-05 -0.0026261278 0.00016417484 0.000690985
-0.044608288 -0.20220004 0.61433816 0.25603542 -0.071412206 0.21347229 2.1280723e-06 3.7175926e-06
-7.7211837e-07 5.7077264e-06 4.5115908e-07 8.578609e-06 -0.00033135386 -0.00019426271 -0.00031427393 0.00025250454
-0.00015481336 0.0006173452 -0.0010015876 0.0004191292 0.001953874 0.00027374338 8.883044e-05 0.0011221187
-0.032698814 0.029799461 0.00075703807 0.008572307 -0.0028694337 0.0027817115 0.109323435 -0.2063956
-0.7129948 0.051373128 0.036479518 0.26492485 -0.0004680448 6.286697e-05 0.0007694577 7.516102e-05
5.9791026e-05 -0.00011121819 0.00016178853 0.00010069897 2.113973e-05 8.1668106e-05 -9.604814e-06 0.00013694238
0.102394894 0.06430652 0.02357859 -1.0353922 -0.4269924 -0.05189839 0.00016483193 0.00011514336
-0.0012733245 -0.00044257977 2.4213181e-05 0.00013628439 1.2221002e-06 1.12698435e-05 2.2770678e-06 -5.5296605e-06
8.555298e-07 -2.117929e-05 0.0022037565 0.0015106993 -0.0003020057 -0.0017443335 0.00026852617 0.0068390975
0.37333214 0.3664963 0.0659582 0.32769197 0.5461551 -0.07116919 2.3714415e-09 -5.870239e-09
-1.242875e-08 2.727526e-09 -8.724445e-09 -1.8877602e-08 0.005568302 0.008947959 -0.13562739 -1.0340543
0.121643454 0.1717191 -1.9995947e-09 -7.239773e-08 1.504276e-08 2.2834303e-07 1.0424568e-07 -1.168427e-07
-0.0006075 -0.0020603037 -4.1879415e-05 0.0007957202 -0.00015147658 -0.0042679547 0.16116264 0.1809865
-0.17110476 -0.8855325 -0.6287954 -0.0345987 8.24215e-05 -0.00026601105 5.139321e-05 0.00041331493
-0.00015881055 -0.00015455869 0.55944633 0.50155413 0.1434141 -1.4671394 -0.65293807 -0.069467925
0.00043753078 -0.00014650043 -0.00042780157 0.0017765625 0.0012916696 0.004215046 1.8350365e-06 7.9153654e-07
-1.9478863e-07 5.3534785e-07 -3.761277e-08 1.1876995e-06 0.108141914 -0.27639058 0.32136574 -0.35992202
-0.017940516 0.36579388 -0.00042990828 0.00032191662 0.0008958186 0.000109122666 0.00014425738 0.0008228071
-6.684868e-05 -5.868962e-05 -6.522496e-05 6.1962506e-05 -5.938318e-05 -0.00013975379 -0.0002372375 -0.00034195426
0.0005430647 -0.00013433034 0.0002020366 0.00025487732 0.0009473352 -7.901066e-05 -0.0011686132 4.3897275e-05
8.88526e-06 7.285466e-05 -1.343139e-05 -1.4330455e-05 -5.977625e-06 -6.1656383e-06 1.5091266e-06 -2.3303615e-05
0.0005601395 1.38909645e-05 -0.00039899323 0.00021510007 -2.3121424e-05 0.000464787 1.0055854 0.025574226
0.8067208 -0.76253116 0.33104602 0.761952 0.00056153524 0.00043786058 -0.0007617547 0.00013910215

mu.0.bias f4 [200]
00000000: 166f cfbe 7320 ab3c 941e 8f39 903e ab32
00000010: 5e50 89bb eb2d cdbe 4c94 49b9 cc35 34b9
00000020: bfbd eabd 8581 843e ea9d ff37 56a2 ac39
00000030: 2ad8 e13e aa61 8635 3d6b 5db9 46f8 213a
00000040: f8b8 35bc 6e38 e7be f971 2439 7461 ddb7
00000050: a406 d23d 24b4 3e38 ac37 81b5 39a8 b33a
00000060: c811 c73e 9572 73b2 6f98 3fbf 3644 bfb2
00000070: 8ad1 a1ba f0a7 03bf cd5d edb7 1cca b5be
00000080: 68f4 003b 5b55 a8b4 cd16 283e e932 cd39
00000090: b1b8 1cb8 df47 8b39 effb 96b9 c550 94b3
000000a0: bfab 21b9 3f3c 7abf e9e6 c7b9 7aee 4f39
000000b0: 1d1a 9cb6 d8be f6b3 a149 9bb4 0f73 9036
000000c0: 0b06 82b9 0ce3 363e 0245 debe 0761 ad3e
000000d0: 00b4 9939 d5f9 67be 5bd6 a1b9 cb12 8bba
000000e0: e9be 8339 3ec1 d3b8 785c e9b8 adfa 9839
000000f0: f128 51b5 8498 743f 2ab5 a9be a2b3 483a
00000100: 5a8d 2f3b 3466 3e3f cf3c ed39 23a6 603e
00000110: 60fb 34b8 d718 c339 8378 ce3e 3c05 ecb6
00000120: 885d ceb6 3b75 973e 2065 d13e c037 013f
00000130: b2ce 3bbf 71f7 0c38 d743 d3b9 ce68 92ba
00000140: b2b7 54bf 9784 253a a29c d1bd b5e1 bc36
00000150: dca0 bbb7 ab4c c8b9 51e7 a537 be9c 6f35
00000160: 820d de36 e1eb 31bd 80fc 893e ad9c f53e
00000170: c55a 27ba 65d7 a6b9 9f03 53b8 988c 18b8
00000180: 0852 1fb9 d7fe 91b7 f822 1ebe a1d1 d3ba
00000190: 39e8 c73f 19c0 00b8 0b06 2f3c d5b3 85b9
000001a0: 6891 363f bb55 f0b7 144c 51ba eb90 e1be
000001b0: 7b1d 8637 c7ae 7b3d 3ae1 e63e c276 0237
000001c0: f818 42b7 c564 8bbd 6e41 253f e96d 08be
000001d0: 83ef 4cbf 8eed 073b b8a6 9837 3500 24b8
000001e0: 95b1 a63a 7cb5 a1be 4549 95b9 a1bb b2b9
000001f0: 77b4 843a db01 713f 008c ab37 dfff 9e3f
00000200: e856 a23e a454 643f c443 343a 03ee 06b9
00000210: 1a70 18ba 2f73 893f 6f47 ceaf 007c c1be
00000220: 5b99 92b8 d7db fabe fc6f 30ba 92ab 90bf
00000230: 2938 d8ba 83e4 0939 4e14 2dba 6118 c53e
00000240: dcae 06b7 e68b 1d37 8cc7 ff34 7a99 c5b7
00000250: a885 223a 643d b03f 1390 e33b 1f95 4c39
00000260: dcfa 1c3e 698b 0abf 7642 3dbf 76f0 bfb8
00000270: c1a4 b939 a377 8cbd cf2f 9cba bdc9 033a
00000280: 26c5 673f 9a03 30b9 4138 b1be 150b 82bd
00000290: cc99 623f 0bb4 8a3a 4017 d334 e712 683f
000002a0: 2fff 25b9 95d7 92b6 d0c8 413f 3e1c 9cb8
000002b0: ca4e 163f 4f6b f5b9 efbe 063f 5d92 54bd
000002c0: 9003 22c0 44bc 07bf 2b11 13ba 3cef 1239
000002d0: aa2b 10ba 517a 9db5 c15c e4b8 b995 8ebe
000002e0: 540a 87bf 5b67 693b 5d92 a137 e0a1 953f
000002f0: 743c 953d 8ec3 03ba 658a 59b8 2039 a23e
00000300: 8e3a a53c 6ee7 f0be 23fd 37bf afda 143f
00000310: 5035 91be cbd1 5834 b5d2 093e 085e 80bf
-0.4051444 0.020889496 0.00027297868 1.993547e-08 -0.0041904887 -0.40074095 -0.00019224099 -0.00017186179
-0.114619724 0.25880066 3.0471903e-05 0.00032927346 0.44110233 1.0012202e-06 -0.00021116152 0.0006178658
-0.011091463 -0.4516024 0.00015682717 -2.6390633e-05 0.10255173 4.54673e-05 -9.627452e-07 0.001370675
0.38880754 -1.41705145e-08 -0.7484197 -2.2266345e-08 -0.0012345773 -0.5142813 -2.8296281e-05 -0.3550576
0.0019676927 -3.1354543e-07 0.16414948 0.00039138578 -3.7365306e-05 0.00026565694 -0.00028797935 -6.906479e-08
-0.00015418137 -0.9774818 -0.0003812828 0.00019829898 -4.6522023e-06 -1.1489982e-07 -2.8924572e-07 4.304929e-06
-0.00024800035 0.17860049 -0.43412024 0.33863088 0.00029316545 -0.22653897 -0.0003086802 -0.0010610459
0.00025128506 -0.00010097258 -0.000111275294 0.00029178467 -7.7918145e-07 0.9554522 -0.3314603 0.0007656162
0.0026787133 0.743747 0.00045249469 0.21938376 -4.3149455e-05 0.00037211805 0.40326318 -7.0339574e-06
-6.150167e-06 0.29581627 0.40897465 0.5047569 -0.73362267 3.360905e-05 -0.000402956 -0.001117015
-0.83092797 0.0006314008 -0.102349535 5.6291124e-06 -2.2367043e-05 -0.00038204095 1.9777248e-05 8.926253e-07
6.617688e-06 -0.043437842 0.26950455 0.47971097 -0.000638407 -0.0003182247 -5.0309693e-05 -3.6370562e-05
-0.0001519398 -1.7404016e-05 -0.15443027 -0.0016160497 1.5617744 -3.0696483e-05 0.010682593 -0.00025501722
0.7131562 -2.865015e-05 -0.0007984054 -0.44055876 1.5987773e-05 0.061445978 0.4509371 7.776254e-06
-1.1569115e-05 -0.0680633 0.6455296 -0.13323177 -0.80052966 0.002074096 1.8197446e-05 -3.910084e-05
0.0012717718 -0.31583774 -0.00028474085 -0.000340906 0.0010124583 0.94143456 2.0449981e-05 1.2421836
0.3170693 0.8919165 0.0006876553 -0.00012867902 -0.0005815044 1.0738276 -3.7521938e-10 -0.37789917
-6.990387e-05 -0.4899585 -0.0006730554 -1.1302359 -0.0016496229 0.00013150465 -0.0006602452 0.38495162
-8.027735e-06 9.390502e-06 4.764264e-07 -2.3555698e-05 0.0006199726 1.3768735 0.006944665 0.00019510508
0.1533007 -0.54118973 -0.73929536 -9.152379e-05 0.000354087 -0.068587564 -0.0011916104 0.0005027315
0.905352 -0.0001678601 -0.3461323 -0.0634977 0.88515925 0.0010582221 3.931873e-07 0.9065384
-0.0001583069 -4.376236e-06 0.7569704 -7.44392e-05 0.5871397 -0.00046809993 0.5263509 -0.051897395
-2.5314674 -0.53021646 -0.0005610163 0.00014012767 -0.00054996705 -1.173301e-06 -0.00010889164 -0.27848604
-1.0550027 0.0035614583 1.9260851e-05 1.1690025 0.07286921 -0.00050263933 -5.186572e-05 0.31684208
0.020169523 -0.47051567 -0.7187063 0.58146185 -0.28360987 2.019289e-07 0.13459285 -1.0028696

mu.2.weight f4 [5, 200]
00000000: 073c 943c 9c8b bebc 032c 8d38 0b8d 1932
00000010: 85d0 803a 77f7 3a3d 2647 adb9 5c74 bcb9
00000020: 0a09 0dbc 663e d93c 39e4 b636 48d5 a139
00000030: 92d9 9f3c c854 eeb5 117c 4039 8c28 9539
00000040: d4af a63b 37c1 04bd 6c96 2139 bd80 aab7
00000050: bfbf 64bb fd30 77b9 d063 6bb6 2da4 d8ba
00000060: 0aab cfbc 698a 08b2 8b24 aabb 32a4 8833
00000070: e263 a83a 6a97 b5bc 6b77 edb8 8ab7 203c
00000080: 5184 43ba 9f7f abb4 e2b4 adbc c815 7939
00000090: 5374 1ab8 d81b c839 d0e5 40b9 0796 e436
000000a0: 5924 abb8 baa3 bd3b 60fc f2b9 2f95 7d39
000000b0: dbd6 9eb6 3591 c6b5 59d2 5636 f1c0 31b7
000000c0: 0296 46b8 82af cf3b 2f37 2fbb 8939 36bc
000000d0: f8ac 1739 cfda 87bc 80f9 fd38 9104 dcb7
000000e0: 9e68 f738 9106 aab9 60f1 cbb7 583c 3f3a
000000f0: 66ae ebb4 5541 fc3b a1d9 87bc e6c8 bcb8
00000100: c255 45bb 3b19 883a 4629 023a d838 b6bb
00000110: 3e91 deb7 f50a 8039 8768 15bc 87ae 4136
00000120: af39 69b7 24d5 81bb 3ca2 593c 7238 6eba
00000130: da03 b1bb c15d cc35 c56e bdb9 5e9c 863a
00000140: 1331 913b 807b 3b39 9687 983b 00ae 6b35
00000150: 03fc 0bb8 5542 aeb8 d3f1 8f37 360c 1336
00000160: c9cb 67b4 a9b9 10bc b2cb 85bc df37 bc3b
00000170: ff03 0039 303b 8d3a 4b16 e6b8 9be2 2b3a
00000180: 8bd8 0fb9 325b d1b6 c06d 443d 9734 c13a
00000190: 5aac 4e3c 9c69 9d39 38b2 54bd a254 99b8
000001a0: d65d d1bb 7093 66b7 0419 a039 9474 80bc
000001b0: bac6 103a ddcd aebc feaf 3639 a5b5 1736
000001c0: c926 2bb8 4e00 c1bd 5fd7 43bb 4da8 1f3c
000001d0: 1f68 e3ba eb0d daba aea2 cb36 9241 34b8
000001e0: d40c 59b7 04b3 d7bc bbf3 e6b8 dac2 e2b8
000001f0: 6f56 6a39 09e0 d1bb c1c0 3b37 c877 e939
00000200: dcd2 1ebc e55b 4dbc 30df 0939 b079 cab7
00000210: e84f 7cb9 9a7a 82bb 2df0 15b0 6e75 f13b
00000220: 487e 9738 dbec 12bb 9805 a53a 7ee7 1cbc
00000230: d99d 783a e70c 6ab9 4822 edb9 efc4 693b
00000240: 1230 aab6 8aeb 2d34 32e8 cab5 ca99 00b8
00000250: 8381 9b39 05c2 ca3a 77e0 0bbd c6b7 c939
00000260: b164 46bc 0ae9 a1bc be25 bf3b c250 6eb8
00000270: 66b8 ef38 455d 36bc e4f1 053b 281a 1139
00000280: c242 64bc a577 02ba 9cd8 cebb 826a cd3a
00000290: 588f d53b 5264 36b9 3bb4 a435 fe77 2c3b
000002a0: a8af e039 f84b dbb5 de78 7cbb fd9d e6b8
000002b0: 2764 c6bb 0015 0a3a 42eb 55bc 55bb 493c
000002c0: 1e83 933a 2912 b7bb 7b7c 7a3a 63dd e338
000002d0: 0d3e 58b9 a7f3 8eb5 bbf4 10b8 9416 4f39
000002e0: 1834 51bc db30 973a 91db ba36 0ffe b3bb
000002f0: b7f9 0f3c a251 64b9 f17e b4b7 4567 8d3d
00000300: e986 4b3d c96e e4bc c792 af3b 5bc2 dfbb
00000310: 0f76 a9ba 194f bf36 dad9 e93b 2b7f 363c
00000320: 58d7 a63e e86c 303f f4eb 133a c4f0 44b3
00000330: 8497 9fb9 bf21 4d3f 5e63 e93b 96fa 793c
00000340: e08b 7abe 395e b83e 7852 da38 747a f6b9
00000350: 45e4 9f3e f929 c937 bac4 0cbc 070c 8eba
00000360: 95a7 48be ac5f 1abc 4c97 d539 3de2 b8b8
00000370: d789 d8bd 1775 82bb 51fe 0339 3879 3d3c
00000380: a7c6 cbbe 0ac4 6233 40bc 90be bd58 93b5
00000390: bb37 40bc 2192 c8be ad51 913a 01c7 483e
000003a0: 81c6 cb3b 6378 a735 e2c1 8a3e cad0 8aba
000003b0: 99e7 0f39 a34f d8bb 6b54 22ba 3837 12b8
000003c0: 6022 6bb9 4027 113e 2117 923b 528b e8b5
000003d0: 61e2 8b38 cbc5 8837 cf92 e5b6 0efd 0738
000003e0: dc5c 32b9 173e a43d 1f78 e1bd 6fbf 5cbe
000003f0: 31df cb39 d61d 89be af7f 15bc de31 0f3b
0.01809503 -0.02325993 6.731602e-05 8.937842e-09 0.0009827769 0.045646157 -0.0003305014 -0.0003594485
-0.008608112 0.026519012 5.4505913e-06 0.0003086722 0.019512925 -1.7757056e-06 0.00018356765 0.00028449704
0.0050868783 -0.032410827 0.00015410193 -2.0325528e-05 -0.0034904329 -0.00023574005 -3.5075827e-06 -0.001652842
-0.025350112 -7.947713e-09 -0.0051923445 6.3628605e-08 0.001284715 -0.022166926 -0.00011323284 0.009809384
-0.00074583763 -3.194409e-07 -0.021204416 0.00023754605 -3.6824797e-05 0.00038167718 -0.00018396159 6.812395e-06
-8.160686e-05 0.00578734 -0.0004634587 0.00024183535 -4.7337794e-06 -1.479441e-06 3.2010923e-06 -1.0594945e-05
-4.7346584e-05 0.006338061 -0.0026735773 -0.011122116 0.00014464918 -0.016583828 0.00012110453 -2.622817e-05
0.00011797364 -0.0003242982 -2.4311885e-05 0.00072950637 -4.3899053e-07 0.007698218 -0.016583266 -9.001959e-05
-0.003011093 0.0010383496 0.00049652567 -0.0055609755 -2.6532096e-05 0.00024422226 -0.00911916 2.886083e-06
-1.3901313e-05 -0.003962176 0.013283309 -0.00090873905 -0.0054020705 1.522647e-06 -0.0003613142 0.001026999
0.004430899 0.00017879717 0.004654835 8.7797525e-07 -3.3374887e-05 -8.309322e-05 1.7159537e-05 2.1911815e-06
-2.1587688e-07 -0.008833327 -0.016332481 0.005743965 0.0001220852 0.0010775086 -0.00010971407 0.0006556899
-0.00013718211 -6.239302e-06 0.04795623 0.0014740404 0.012614334 0.0003002406 -0.051927775 -7.3113726e-05
-0.00638936 -1.3743396e-05 0.00030536216 -0.015680589 0.00055227766 -0.021338398 0.00017422435 2.2606484e-06
-4.08057e-05 -0.09423886 -0.002988301 0.009744716 -0.0017349756 -0.0016636228 6.06881e-06 -4.297641e-05
-1.2937195e-05 -0.026330478 -0.00011012653 -0.00010812814 0.00022348178 -0.006404881 1.1190948e-05 0.00044530467
-0.0096938275 -0.012534116 0.00013148482 -2.4136942e-05 -0.0002406236 -0.0039819004 -5.4547195e-10 0.007368735
7.223763e-05 -0.002241901 0.0012590168 -0.009576676 0.00094839704 -0.00022320786 -0.00045229704 0.003567036
-5.071991e-06 1.6197569e-07 -1.511775e-06 -3.0660805e-05 0.00029660398 0.0015469199 -0.034149613 0.0003847463
-0.012108968 -0.019764442 0.0058333566 -5.6818833e-05 0.00011430755 -0.011130636 0.0020438368 0.00013838022
-0.013931932 -0.0004976935 -0.006312443 0.0015672001 0.006517332 -0.00017394245 1.2271406e-06 0.0026316638
0.00042855483 -1.6338881e-06 -0.003852419 -0.00010996682 -0.0060544196 0.00052674115 -0.013056578 0.01231273
0.0011254286 -0.0055868817 0.0009555292 0.0001086544 -0.00020622481 -1.0650737e-06 -3.45602e-05 0.0001974947
-0.012768768 0.0011534946 5.568793e-06 -0.0054929326 0.008787564 -0.00021774185 -2.1516784e-05 0.06904463
0.049689207 -0.027884858 0.0053580734 -0.006828589 -0.0012928861 5.7014518e-06 0.0071365656 0.011138718
0.3258617 0.6891618 0.0005642765 -4.585378e-08 -0.0003043973 0.8012962 0.007122441 0.015257498
-0.2446742 0.36009386 0.00010410411 -0.0004701201 0.31228843 2.3980612e-05 -0.008591825 -0.0010837325
-0.19595177 -0.009422224 0.0004073925 -8.815944e-05 -0.10573166 -0.0039812434 0.00012587874 0.011564545
-0.39799997 5.2798022e-08 -0.28268623 -1.097818e-06 -0.011732037 -0.39173988 0.0011086963 0.19607164
0.006218732 1.2477507e-06 0.27101046 -0.0010590788 0.0001372382 -0.0066012903 -0.0006192389 -3.486054e-05
-0.00022424152 0.14175129 0.0044583236 -1.7325895e-06 6.670203e-05 1.6304568e-05 -6.8418226e-06 3.2422184e-05
-0.00017009996 0.08019655 -0.110092394 -0.21557401 0.00038885468 -0.26780576 -0.00912468 0.0021849792

mu.2.bias f4 [5]
00000000: 3103 f9bc 55ae 4e3d 3652 60bd 0b7d 853c
00000010: 1cdc 953e
-0.03039703 0.050459225 -0.054765902 0.016294977 0.29269493

reward_fun.0.weight f4 [200, 6]
00000000: f5d5 f43e c588 703f 2ef6 4ebc f2fc 78be
00000010: 9688 aa3d e401 d13d 2ecd da3e d610 a8bd
00000020: 73c4 14be 8bdc 8ebe 22e5 073c eaf5 9ebe
00000030: b956 5d3f ca1f 99be 1872 023d 4e41 8f3f
00000040: ac5c c03d 0279 bebe 278d 8f3f 6c31 863f
00000050: 05fe 8e3f e1d0 86be ec73 e8be 195d 9dbe
00000060: 85eb a93f 91a5 c53e 0c57 fc3e 9375 f7be
00000070: 7eee 2dbc f736 c5bf c9d3 0a3f a55a 643f
00000080: 337b 91bf 43b2 03bf c26f 98be 6f8c d73f
00000090: 81d7 3ebd 1691 b5bc c5ce 02bf 8048 a8bf
000000a0: c761 6cbd a110 0040 316f e43f 774c 0a3f
000000b0: 6799 04bf 94f3 383f 57ed 20bd b5e8 ae3e
000000c0: a31f d83f d6d1 13bf bfb1 4abf ca81 043f
000000d0: 1d3c df3c e405 1bbf 8943 153f 3422 87be
000000e0: 62b7 6d3f 512a a7be a46e c5be eae5 5cbd
000000f0: b878 553f fdd7 453f 905d 6f3f 5407 11bb
00000100: 281d dbbe 7950 8c3d 57df 703f 6794 643e
00000110: 826e 20bf 7e0f 653e d649 ab3c 1dfa 93be
00000120: 69fd 1a3f b20b b33e fc9a f5bc 4065 43be
00000130: fca9 10be 035f 9bbf 45c2 3ebe 0d2c 0c3d
00000140: 932d 9c3f 3538 b63d bbe1 06bf fe3b 093f
00000150: 7e40 953d 14c0 d13d fe77 d5bf b238 763e
00000160: 1ddb 4fbd 5510 9c3d d69d 81bf 9796 30bf
00000170: a35d 0a40 38b4 19be a4aa 05bf 1427 4e3f
00000180: 61b4 e23f 8926 ebbe 6ae6 c5be 75df 7f3d
00000190: 54f5 da3c c9a0 90bf 6560 e13e 079f 7a3d
000001a0: f5df 0c40 6850 2040 afaa b13e 1284 a6be
000001b0: 300d 723f e388 4f3f aa25 8bbe 96ce d63e
000001c0: 4548 0fbd 6a3b 843f 1a5a ad3f 8f5d 633f
000001d0: 0137 6fbf a5eb 343e 9f39 f2bd bbf6 873f
000001e0: 3523 4b3d 095d e83e b1cb 0a40 d919 983f
000001f0: 2f9c 0d3f ff00 0c3d eb28 20be 4a69 8dbe
00000200: caad acbf ab22 a8be 010d b9bb 5b33 bb3e
00000210: 9004 b63f 241c 873e def5 dbbe af68 34bc
00000220: e9c2 eb3c b0e7 c83f 8adb 86be 220a a63c
00000230: 0b2a 11be 4aaa ef3e 73dc 0dbb 33a0 033e
00000240: 2c01 c5bf 9d42 28bf c651 cbbe 6007 79bd
00000250: cf94 263e 176a 24bf bf19 a33f 3850 ab3e
00000260: 615e 7ebf 1bf1 42be 9860 2abe dc66 1d3f
00000270: 7294 d93f 1f5f fc3e 7e0a 383f eda1 b1be
00000280: 6bda eabd f279 a8be 6eb6 19bf b415 143d
00000290: 8e61 3240 af52 493e 2bad 1d3f fea6 f2be
000002a0: 53f1 453f 1031 913d 79c8 fd3f bf31 583f
000002b0: 8f4a 0a3f 30b9 1f3e 0816 e43d 6ff6 54be
000002c0: 172c 94bb 81e6 8fbd 238b 3b3a b899 7a3b
000002d0: ef46 dcbc 867a 943d a474 ffbe 003c 89be
000002e0: 66be 85bd 7746 9d3e b0be b3be 55dc 12be
000002f0: e109 fa3c a510 2e3f 711c a53d 26e5 9abf
00000300: 2de6 1240 963c c43e 50ee efbe c385 6d3e
00000310: 2e0f 123d 3fec 86be fd64 8e3f 437c 853f
00000320: 68b4 963e f5a2 f23f 637b df3d 9310 32be
00000330: 0cc2 c43d 85f2 a5bc 6a47 08bf 7d52 303f
00000340: 48b6 0cbd 0d25 c2be 145c 0dbe 3873 453e
00000350: 1d6e 733f 10f8 0e3f c9ba e8bd 70fa e43f
00000360: 1ec7 8f3f f635 93bc f2dc d0be ff44 103f
00000370: 2fd8 62bd 3838 383f b4f9 333f 3517 0d3f
00000380: 7024 1ebe 507b cdbe a9f7 e1bd 4042 0cbf
00000390: 5482 9a3f 9d4b 9abf 0e12 9b3f db73 84be
000003a0: 444f 1fbe 07e4 e5bd 5440 cb3f 08ae 2bbe
000003b0: 329d c83e f112 33be c6c3 133d a7e3 7c3f
000003c0: 5ddf 0840 f947 ccbe 4468 0340 8329 1f3f
000003d0: 3fa4 6d3d d017 8abf 86fb 01bf 911b a3bf
000003e0: a277 1ebf 3b5c 1dbf 158f e03d a3df d5be
000003f0: ac02 fdbe 5545 6abf bd86 c73f 6737 80bf
0.47819486 0.93958694 -0.012631936 -0.24315241 0.08326833 0.10205439 0.42734665 -0.08206336
-0.14528064 -0.27902636 0.008294376 -0.31046993 0.86460453 -0.29907066 0.03184709 1.1191804
0.09392676 -0.37201697 1.1214951 1.0483832 1.1171271 -0.26331237 -0.4540094 -0.3073509
1.3275 0.3860288 0.49285161 -0.4833189 -0.010615943 -1.5407399 0.5422941 0.8920081
-1.1365722 -0.5144388 -0.29772764 1.6839732 -0.04659224 -0.022163909 -0.51096755 -1.3147125
-0.057710435 2.001015 1.7846433 0.54022926 -0.51796573 0.7224667 -0.039288845 0.34161916
1.6884655 -0.5774206 -0.7917747 0.5176054 0.027250344 -0.60555863 0.58306175 -0.26393282
0.92857945 -0.32649472 -0.38560975 -0.0539302 0.8338733 0.77282697 0.9350214 -0.0022129612
-0.42795682 0.068512864 0.9409079 0.22322236 -0.6266862 0.22369191 0.020909231 -0.2890176
0.60542923 0.3496986 -0.029981129 -0.19081593 -0.14127344 -1.213837 -0.18628795 0.034221698
1.2201408 0.088974394 -0.5268819 0.53607166 0.072876915 0.10241714 -1.6677244 0.24045065
-0.050746072 0.076203026 -1.0126293 -0.6897978 2.1619651 -0.15010154 -0.522135 0.8052838
1.7711297 -0.45927837 -0.38652354 0.062468965 0.02672831 -1.1299068 0.44018856 0.061186817
2.2011693 2.5049076 0.34700534 -0.32522637 0.9455137 0.8106825 -0.27177173 0.41954488
-0.03498103 1.0330632 1.3543122 0.88814634 -0.93443304 0.17668016 -0.118273966 1.0622171
0.049594123 0.4538348 2.1686823 1.1882888 0.5531644 0.034180637 -0.15640609 -0.27619392
-1.3490536 -0.3283895 -0.005647302 0.3656262 1.4220142 0.26388657 -0.4296102 -0.011011287
0.028779464 1.5695705 -0.2633937 0.020268504 -0.14176194 0.46809608 -0.002164629 0.1285408
-1.5390983 -0.65726644 -0.39710826 -0.06079805 0.16267703 -0.6422438 1.2742232 0.3345964
-0.9936276 -0.19037287 -0.1663841 0.61485076 1.6998427 0.49291322 0.7189101 -0.34693852
-0.11467441 -0.32905537 -0.6004399 0.03615351 2.7872043 0.19660448 0.6159236 -0.4739303
0.77321357 0.07089436 1.9826804 0.84450907 0.5402002 0.15597987 0.111370146 -0.20797132
-0.0045218575 -0.07026387 0.0007154217 0.0038238596 -0.026889293 0.07249932 -0.49893677 -0.2680359
-0.06530456 0.30717823 -0.3510642 -0.14341862 0.030522289 0.6799415 0.080620654 -1.210118
2.2952988 0.38327473 -0.46861506 0.23195557 0.035659008 -0.26352116 1.1124569 1.0428547
0.29434514 1.895598 0.10912206 -0.17389135 0.09607324 -0.020257244 -0.5323397 0.6887587
-0.034353524 -0.37918893 -0.13804656 0.19282234 0.95089895 0.55847263 -0.113637514 1.7888927
1.1232641 -0.017970067 -0.40793568 0.5635528 -0.05538195 0.71960783 0.7030289 0.55113536
-0.15443587 -0.40133142 -0.110335656 -0.5478859 1.2071023 -1.2054325 1.2114885 -0.2586964
-0.15557581 -0.112251334 1.5879006 -0.16765606 0.3918243 -0.17487694 0.036075376 0.9878487
2.138633 -0.3989866 2.0532389 0.62172717 0.058017965 -1.0788517 -0.5077442 -1.2742788
-0.61901295 -0.6146886 0.10964791 -0.41772184 -0.494161 -0.9151204 1.5587994 -1.0016907

reward_fun.0.bias f4 [200]
00000000: 62a5 9cbf 80db 88bf c2dd dcbf 2f2d 95bf
00000010: eb9a bcbf 931a 9fbf e4e0 ea3d cc42 78bf
00000020: 1533 babf 44a8 75be e5b5 1ac0 5d7b 64bf
00000030: c9a2 32be 044d a4bf b8ed fd3e 0922 80be
00000040: dde4 4cbf 3f63 13c0 af78 9bbf 79f3 63bf
00000050: d6b6 03c0 3c99 adbe 79e8 2fbf d6f8 5ebf
00000060: 97ae adbf 065a b33c 52e1 f1bf 3870 f9bf
00000070: f884 12c0 5fb4 1bbf 2728 c0be 5c40 81bf
00000080: 5b61 58bf 793d 34bf c31b 2fbf def3 c0bf
00000090: 8ea4 8fbf 5e26 a9bf 871b b5bf 5882 c4bf
000000a0: fb0b 8ebf dac1 91bf 5bf4 08c0 e326 a23c
000000b0: 1786 68bf dec7 adbf ff4c 68bf a9b8 21c0
000000c0: 079c e4bf 3647 a3bf 639b c4bf f155 3ec0
000000d0: 58ee 45bf 8709 bdbf 0bb6 2dbf 8cad 06c0
000000e0: 1962 e2bf 67b6 b0bf 853f 47bf 6b28 b2bf
000000f0: a151 6bbf e2ec 8ebf db88 86bf abb0 10bf
00000100: 40e7 2abf 0f04 31c0 f5c0 8fbf 37c6 cfbf
00000110: 3692 80be 8adc 88bf 2fcd a3be 97a9 1cc0
00000120: 68f9 e1bf db22 3cbf 8bde cdbf 33fe 39bf
00000130: 5029 c7bf 3e36 29bf 2454 14bf d142 fdbf
00000140: 7112 65bf 97aa a1bf ca80 94bf beee 9ebf
00000150: 4fa9 b2bf 1c58 b7bf f292 80bf 9474 ebbf
00000160: af49 d3bf b992 99bf 6155 e3be f486 c4bf
00000170: d27a 61bf d005 b1bf ffef 9cbf f46b 09c0
00000180: 9bfe 2bbf d8c6 0fbf 78d7 21bf 7f4c 73bf
00000190: ac85 86bf 08e9 a0bf 754c 50bf 4e4c bebd
000001a0: 668e 00bf acb0 b9be 36a3 d6bf 45d3 07bf
000001b0: 6917 d2bf 3a73 b9bf bfd1 d1bf 8322 c3bf
000001c0: 30a6 c4be f563 13bf c779 c5bf c6a5 4ebf
000001d0: 382f eabe 012e a5bf c41e 9bbf 769b d3bf
000001e0: 0663 91bf 61a4 21bf 6991 c4bf 4857 d2bf
000001f0: 03d6 e3bf a993 6cbf 8721 17bf c0b5 f4be
00000200: e592 8bbf f22e abbf 9c35 a9bf c588 ccbf
00000210: 7bc6 74bf a467 97bf 0479 0bbf b324 50bf
00000220: 083d b6bf 186b 90bf f9d7 14bf b02b 9cbf
00000230: bfa5 03c0 3c7a c7bf 3834 e6bf 6f7f b8bf
00000240: 1b40 28c0 41d7 8cbf b8ee c8bf 42fb 04c0
00000250: bbbf bebb b16b b2bf 8fa2 66c0 b2aa 87bf
00000260: fa10 9abf 7bdc 2cc0 9e19 b1bf b829 9cbf
00000270: 2107 86bf 9271 b7bf e9e4 3cbf e093 37bf
00000280: c430 793f c15c 96bf 2e5b 27bf 5c13 00c0
00000290: 1f35 cfbf 026d a7bf fd3b b4bf c208 bcbe
000002a0: 2719 d5bf 2830 cbbf 3f8e 09bf a069 a9bf
000002b0: a354 a3bf af5d 81bf e2a9 6ebf 9693 87be
000002c0: b6a2 a2bf 196b a4bf 63ef b4bf e78f eabf
000002d0: b931 80be 22a9 2ebf 01e6 bfbf f5cf e6bf
000002e0: 0551 82bf f9e4 81bf 5f3d 5cbe 9c7c d3bf
000002f0: df45 80bf 6032 cbbf ff22 5bbf 51fe d2bf
00000300: 2a06 96bf 7734 d9bf a513 b0bf c646 a8bf
00000310: 55cf 69bf 77b6 e0be 2e05 1fc0 991e 2bbf
-1.2237971 -1.0691986 -1.7255175 -1.1654414 -1.4734777 -1.2429985 0.11468676 -0.96976924
-1.4546839 -0.2398997 -2.417352 -0.8925074 -0.1744491 -1.2836003 0.49595428 -0.25025967
-0.8003672 -2.3029325 -1.2146205 -0.89043385 -2.0580344 -0.3390597 -0.687141 -0.87098444
-1.3568906 0.021893512 -1.8896887 -1.9487371 -2.2893658 -0.608221 -0.37530634 -1.0097766
-0.8452355 -0.704063 -0.68401736 -1.5074422 -1.1222093 -1.3214834 -1.4149026 -1.5352278
-1.1097406 -1.1387284 -2.1399143 0.019793933 -0.90829605 -1.357662 -0.90742487 -2.5268958
-1.7860116 -1.2756107 -1.535992 -2.9739954 -0.7731681 -1.4768533 -0.678559 -2.1043425
-1.7686187 -1.3805665 -0.778313 -1.3918585 -0.9192143 -1.1166041 -1.0510515 -0.56519574
-0.6675911 -2.7658727 -1.1230761 -1.6232365 -0.2511155 -1.0692303 -0.3199248 -2.447851
-1.7654238 -0.73490685 -1.608354 -0.726535 -1.5559483 -0.6609839 -0.5794089 -1.9786016
-0.89481264 -1.2630185 -1.1601803 -1.2416608 -1.3957919 -1.4323764 -1.0044844 -1.8394952
-1.6506861 -1.1997901 -0.44401076 -1.5353684 -0.88078034 -1.3829899 -1.2260741 -2.147214
-0.6718537 -0.56162786 -0.63219404 -0.950386 -1.0509543 -1.2571115 -0.81366664 -0.09291898
-0.5021728 -0.36267602 -1.6768558 -0.53056747 -1.6413394 -1.4488289 -1.6392134 -1.5244907
-0.3840804 -0.575744 -1.5427788 -0.807217 -0.4573915 -1.2904664 -1.2118764 -1.6531818
-1.1358345 -0.6314145 -1.5356876 -1.6432886 -1.7799686 -0.9241281 -0.59035534 -0.47794914
-1.0904204 -1.3373702 -1.3219485 -1.5979239 -0.9561536 -1.1828504 -0.5448153 -0.81306
-1.4237375 -1.1282682 -0.5814205 -1.2200832 -2.0569913 -1.5584178 -1.7984686 -1.441389
-2.6289127 -1.100319 -1.5697851 -2.0778356 -0.005821196 -1.3939115 -3.6036718 -1.0598967
-1.2036431 -2.700957 -1.3835943 -1.2200232 -1.0470926 -1.4331534 -0.7378679 -0.71710014
0.97340035 -1.1747056 -0.65373504 -2.0011816 -1.6188086 -1.3080142 -1.4080807 -0.36725432
-1.6648301 -1.5874071 -0.53732675 -1.3235359 -1.2760204 -1.0106715 -0.9322797 -0.26479787
-1.2705905 -1.2845184 -1.4135555 -1.8325166 -0.25037935 -0.68226826 -1.4992067 -1.8032213
-1.0180975 -1.0148002 -0.21507786 -1.6522403 -1.0021323 -1.5874748 -0.85600275 -1.6483861
-1.1720631 -1.6969136 -1.3755995 -1.3146598 -0.9133199 -0.4388921 -2.4846911 -0.66843563

reward_fun.2.weight f4 [200, 200]
00000000: 3fef 463b 313e 9fbc 944a c7bc 6dfe 8e3c
00000010: 8af4 8fbd cef8 7fbd fa53 b7bd 6d16 89bd
00000020: c776 7c3b bc4a 57bc 7fb4 a6bc 7637 c53c
00000030: 1228 8a3d 14fb 82bd c753 19be 81d5 49bd
00000040: 1dc3 adbc 236a 32bd 7898 aebd 7706 b6bd
00000050: 2bda 5cbd 1a4b c0bd de54 4ebd 0088 683c
00000060: 1f38 69bc 5532 85bd 7559 0e3d a03e 58bd
00000070: a301 d6bc 0dc7 7dbd 6f17 acbd a750 15bc
00000080: f08a 44bd c90e 76bd 0ea9 a2bd 516c cebc
00000090: ba95 fb3c 1496 bbbd a978 9ebd e66f 7bbc
000000a0: 573f 413c 0bf7 d3bc a94b 8d3c 81a2 08bc
000000b0: 429e 2abd ee8f 0cbe 5a4c b2bc 6127 2a3d
000000c0: 9d98 2fbe a27e d7bc 6f7c 8bbc f9fe 12bd
000000d0: c068 c43c 0971 363d 348f 8cbd c380 63bb
000000e0: d37d babd ab96 bcbd e783 993c 6413 a53c
000000f0: 8a04 513c 820b cd3b e1b3 c13c 130d 8bbc
00000100: ea49 dabd 8949 073d aff8 163d 3d50 7bbd
00000110: 2681 71bd 09a7 99bb cf3b 97bc 3c46 2bbd
00000120: cbd9 0abe 9adb 3fbd f43f bf3c 40dc 0cbd
00000130: c9f1 04bd 8c34 0fbe 42dc f7bc 41fb 8bbc
00000140: a2d2 b7bd fa32 88bd 95a2 8bbd ff2b 303d
00000150: a115 423d 778c 18bd 6a34 2ebb cbce 50bc
00000160: 5828 f8bc 047d 28bd b823 8a3c 6bde 043d
00000170: 8b13 783d 2446 87bd 1a5d 123d c943 9fbc
00000180: 20b4 0cbe f510 0b3d 00a0 45bd d83e 1fbd
00000190: 745a b2bc 8fe6 48bd c573 563c 194f b1bd
000001a0: 1ca2 82bc 192d 39bd 616a b4bd fffc 213c
000001b0: 126c 163d d175 643c e61d 1dbe a4af 99bd
000001c0: 6b5e d9bb 5122 62bd eac8 5b3c f1b6 e43b
000001d0: 00d5 efbd 8d30 dbbc ac86 32bc 6b59 85ba
000001e0: f89a 9bbd 784a 56bd 710f abbc d562 64bd
000001f0: 10c4 12bd aa2f 87bd 9b42 d3bc a110 85bd
00000200: b688 2cbd 357f 50bd 8968 163d 01a0 4abd
00000210: 87bd 9c3c 0cdf 163c ee41 4b3c eeb3 c23c
00000220: f44f b73b fb56 65bd 34fb 9b3c 0050 07bd
00000230: 2a90 97bd d9c3 fbbc 9a5d 8abd d7cc 5d3c
00000240: d989 f5bc efa2 913b ea73 43bd 31c5 a7bc
00000250: 8595 833b 3083 57bd c605 e3bd dc17 b1bd
00000260: db5b 633d 5a73 873c ca9e bfbc 193d 723c
00000270: b622 7ebd 2900 0abd cb6d 40bd 62dc c1bd
00000280: efdf 22be 6c60 a2bb b497 d53c 4735 a53c
00000290: 6b0c 67bd 4f28 5d3c 5716 d8bd 0f87 5fbe
000002a0: afd6 443b 3a9d 1dbd 6458 353d 5df0 babd
000002b0: c540 453d 078f 72bc 070a 64bd f2d2 08be
000002c0: f2cc 4e3d d663 173d a325 2bbd 5b48 40bc
000002d0: 41b0 503c 1d86 c63c 5f06 3abd ec97 533b
000002e0: c760 78bd 2ac9 83bd e2bc 10bd 752e e0bc
000002f0: ae8f 3dbd 3522 103b 32df 22bd 3119 ffbc
00000300: ce58 85bd 6ed3 603c 6062 78bd 8fbd 43bd
00000310: f3fe 4bbc 06a1 d9bd d8f5 f9bd c376 a8bd
00000320: eae6 abbf 1a36 c2bd 4c1d d93e 6888 253f
00000330: 7f19 61bd 9099 0fbe b628 2a3f a6b3 5b3f
00000340: d46b 08be 07c6 923e 8fb6 b6bf 0cc5 93bf
00000350: 727e e7be 01c0 64be f720 8abf f6bc d33d
00000360: d309 80bd fac7 e3bf 9a90 afbf 9878 863e
00000370: 9690 17c0 9611 b2be 1222 83be 6951 07bf
00000380: d1c1 f1be 87ae 07bf 9664 ae3e 46ac d2be
00000390: 05de 61bf ce9d cdbd a52b fabe e08e 5dbf
000003a0: 8b61 2b3f 4df4 47bf fef6 d9be e02d c6bf
000003b0: 96cd 633f 0e6d 1b3f ab58 093e 19bc 0d3f
000003c0: ae6e 253f 6f8a 31bf 49ba d5be 4ef4 8dbe
000003d0: b758 2b3f aa73 03be 10b7 89bf e5c8 a7be
000003e0: a886 9fbf 6bd9 343f fb8e 803d 3b61 603f
000003f0: 7223 70be e727 93be be27 e13d 9e64 28bf
0.0030355004 -0.019438835 -0.024327554 0.017455304 -0.07029064 -0.062493138 -0.08951564 -0.066937305
0.0038522945 -0.013140377 -0.02034974 0.024074297 0.06745924 -0.063955456 -0.14973365 -0.04927588
-0.021211201 -0.04355825 -0.08525175 -0.08887952 -0.053919 -0.093893245 -0.050373904 0.014192581
-0.014234572 -0.06503741 0.03475328 -0.0527941 -0.026123827 -0.061957408 -0.08402907 -0.009113467
-0.047984064 -0.060072694 -0.07942401 -0.025198134 0.030711044 -0.091594845 -0.07737858 -0.015346503
0.011794887 -0.025874635 0.017247992 -0.008339525 -0.041654833 -0.1372678 -0.021764923 0.04154146
-0.17148061 -0.0263055 -0.017027108 -0.035887692 0.02397573 0.044541392 -0.06863251 -0.00347142
-0.0910603 -0.09208425 0.018739654 0.020150848 0.01275743 0.0062574754 0.023645343 -0.016974008
-0.10658629 0.033029113 0.036858257 -0.061355818 -0.058961056 -0.0046891016 -0.018461136 -0.041815028
-0.13559644 -0.046840288 0.023345925 -0.034389734 -0.032457147 -0.13984889 -0.030256394 -0.01708758
-0.08975722 -0.06650348 -0.068181194 0.043010708 0.04738391 -0.037243333 -0.0026581534 -0.012744616
-0.030292675 -0.04113485 0.016862735 0.032438677 0.060565513 -0.06605175 0.03573332 -0.019441502
-0.13740587 0.03395172 -0.04824829 -0.03887829 -0.021771647 -0.049048003 0.013089125 -0.08657665
-0.01594644 -0.045209024 -0.08809353 0.009886979 0.036724158 0.013944105 -0.15343437 -0.07504204
-0.00663357 -0.055208508 0.013414601 0.006979816 -0.117105484 -0.02675655 -0.010896366 -0.0010173743
-0.07597917 -0.052317113 -0.020881386 -0.055758316 -0.03583151 -0.06600888 -0.025788596 -0.06497312
-0.042122565 -0.050902564 0.036720786 -0.049468998 0.019133342 0.009208452 0.012405856 0.023767438
0.005594248 -0.055991154 0.019040681 -0.03303528 -0.07400544 -0.030733036 -0.06756134 0.013537607
-0.029972957 0.004444472 -0.047717966 -0.02047977 0.004015627 -0.052615345 -0.110850856 -0.08647129
0.055507522 0.016534496 -0.023391146 0.014785075 -0.06204482 -0.03369156 -0.046979707 -0.09465863
-0.15905736 -0.004955342 0.026073314 0.020167006 -0.056408327 0.01349838 -0.10551136 -0.21828865
0.0030035188 -0.03848002 0.04427375 -0.09127877 0.048157472 -0.014804608 -0.055673625 -0.13361719
0.05048842 0.036960445 -0.04178394 -0.011736001 0.012737335 0.024233872 -0.045416232 0.0032286597
-0.06063917 -0.064348534 -0.035336383 -0.027365902 -0.0462796 0.0021993045 -0.039763637 -0.031139942
-0.06511079 0.013722284 -0.060640693 -0.0477882 -0.012450921 -0.10626416 -0.12205094 -0.08225777
-1.3429844 -0.09482975 0.42405164 0.64661264 -0.054955956 -0.14023423 0.6646837 0.85820997
-0.13322383 0.28666708 -1.4274462 -1.1544509 -0.45213658 -0.22338869 -1.079131 0.10338776
-0.06251874 -1.7795403 -1.3716004 0.2626388 -2.3681998 -0.34779042 -0.2561193 -0.528586
-0.47218183 -0.5300068 0.34061116 -0.4114706 -0.882294 -0.100398645 -0.48861423 -0.86546135
0.66945714 -0.7810715 -0.42571253 -1.548275 0.88985574 0.6071328 0.1341273 0.5536514
0.6462201 -0.6935186 -0.41743687 -0.27725452 0.66932243 -0.12837091 -1.0758991 -0.32770458
-1.2462969 0.70644253 0.06277271 0.8764836 -0.23451021 -0.2874138 0.10993908 -0.6577853

reward_fun.2.bias f4 [200]
00000000: ae44 72bd 2b72 61bf b98c 8cbd 73ed 1d3d
00000010: 99cf 27be 0b80 40be bed8 a13b 0d55 a83d
00000020: 15b8 6d3f 7852 82be b87e 5c3f 5ab5 15bf
00000030: 121b 86bd 697e 61bd 4b97 89bf bd7f 2abf
00000040: a8b0 bbbc 9f00 83be f59a 2abe 0a25 26bd
00000050: 6be9 c3be 9fd8 9cbd 62df f33c 00f8 bb3f
00000060: e703 58be 2428 ddbd b65c a43d 0f56 dcbd
00000070: 78f7 74be 73d0 1bbc eab3 73be dc68 95bd
00000080: 15fe 83bc d5f1 fcbd 59ef a1be 7e48 d4be
00000090: d053 a8be b92e 5a3b b554 eabd 5acd 81bd
000000a0: d6f4 9bbe 6986 4ebe e66c 733c 8fc1 a4bc
000000b0: 8cda 23bf 998a b53d b3a4 913b 547b a6bd
000000c0: f528 cebe 5abd c7be 56ab debd df71 55be
000000d0: 5970 ddbe 6eb9 26be 5de9 14be 8ade 83bd
000000e0: 12ff b6bd dcf1 16be 677a bdbd c7ee bb3d
000000f0: 8732 62bf 7e0d adbd 561f aabe ce46 e2bf
00000100: 8c4b 22be 987d aa3f abf6 f03f d9bc 1abe
00000110: f4a6 073f e2e3 ea3f 6125 903d c903 a9bc
00000120: 9240 90bd dda2 303f 1833 4f3e d166 9ebf
00000130: 5bea b5bd 55a6 95be a31f 213d edd5 a8be
00000140: 2657 b03e e717 60be 8062 f1be d81a 5a3e
00000150: 5147 56bf b63e 3ebe a376 49bf 27fe 133e
00000160: f8de 2abe 4587 a5bd 6990 5abe 2250 2ebf
00000170: 725e e6bd e794 c0bd 2468 b8bd 924f 133c
00000180: f853 b1bd 75aa 623f c4d5 86bc 977c 783e
00000190: 65b3 913f dbde 213e bbe7 1940 21b8 d7be
000001a0: 3fac f1be 4829 e8bd 2d11 22bf 5e73 2bbe
000001b0: 3d17 803d 52a7 fabe 7aea 78bc ff72 81be
000001c0: 3078 24bf 1d62 b8bd 926e a33d 9f84 01be
000001d0: cd32 88be afb1 c3bf b1f6 61be 3dd7 debb
000001e0: 7bd9 cfbd 7038 823f 34e6 2cbe 63e9 30bd
000001f0: b23a 383f 1c9a 083d 7460 bfbd e742 2ebe
00000200: 883d 18bd 55f7 c83e 345d 313e 1207 3ebd
00000210: 1657 88bf 2f9a 17bf dfd7 cc3f 01b1 cfbe
00000220: 030c c0bd 5b07 0cbe 48d8 01be e977 5abd
00000230: ee0f 363e 50d5 4bbe 86a4 b0be e10f 9ebd
00000240: 352d 96bd db83 06c0 e6f2 d83f 3cec 1640
00000250: f76c 623e 5a82 2bbf f8ba eebc e2df fdbd
00000260: 02b8 dcbd 3300 b4be 43f1 3abf 110b d0bd
00000270: 0a13 20be 1cdf dfbd 7315 dbbd 668f 313f
00000280: 0136 12bf ce4d 043b 5198 91bd b247 76bf
00000290: fd14 f6bd 8184 85be 8972 4fbe 19fb efbd
000002a0: 54bc 8fbd 8cd6 2fbe 1a89 37bd 94cb 80bc
000002b0: 46fe 40be 58bb 0bbf 5069 58be 691e aebd
000002c0: d228 b5bd 7874 053f 1343 2bbe 830f 85be
000002d0: b23b 62bb b982 04be 821b ba3e c78d 053f
000002e0: de25 94bd f3ec f1be 404c e63f fb95 97be
000002f0: 4645 e63e 5541 f3bd eab9 89be b02e 65bf
00000300: 1dc0 ecbd 3ee2 eebd c9c7 543e 1e72 523e
00000310: efe2 eabd 905a 86be 6aa2 1cbf b8d8 d7bf
-0.05914753 -0.8806483 -0.06862778 0.038556527 -0.16387786 -0.18798845 0.0049391678 0.08219347
0.9285901 -0.25453544 0.8613086 -0.58479846 -0.06548132 -0.055052195 -1.0749296 -0.66601163
-0.022911385 -0.2558641 -0.16660674 -0.040562667 -0.3826402 -0.07658505 0.029769603 1.4685059
-0.21095239 -0.10798672 0.08025496 -0.10758602 -0.23922527 -0.009510147 -0.237991 -0.07295391
-0.016112367 -0.12350813 -0.3162792 -0.41461557 -0.32876444 0.003329201 -0.11441938 -0.06337996
-0.30460232 -0.20168461 0.014857506 -0.020111827 -0.6400535 0.08864326 0.0044446825 -0.08128992
-0.40265623 -0.3901165 -0.108725235 -0.2084422 -0.43249777 -0.16281673 -0.14542146 -0.0643893
-0.089353696 -0.147407 -0.09251862 0.091764025 -0.8835835 -0.08449839 -0.33227032 -1.7677858
-0.15849131 1.3319578 1.8825277 -0.15111102 0.52989125 1.8350794 0.070383795 -0.020631688
-0.07043566 0.6899851 0.20234334 -1.2375127 -0.088825904 -0.29228464 0.03933681 -0.32975712
0.3444149 -0.21884118 -0.47145462 0.21299303 -0.8370257 -0.1857861 -0.7869665 0.1445242
-0.16686618 -0.08082441 -0.2134415 -0.6809102 -0.11248483 -0.09403401 -0.09004238 0.008991139
-0.08658594 0.88541347 -0.016459353 0.24266277 1.1382872 0.15807669 2.4047687 -0.42132667
-0.47201726 -0.11335999 -0.6330746 -0.16743228 0.06254432 -0.4895578 -0.015192622 -0.25283048
-0.6424589 -0.090030886 0.07980074 -0.12648247 -0.26601258 -1.52886 -0.22066762 -0.0068005607
-0.10148903 1.0173473 -0.1688469 -0.043191325 0.7196456 0.033350095 -0.09344569 -0.17017709
-0.037168056 0.392512 0.1732071 -0.04639346 -1.0651577 -0.5921964 1.6003379 -0.4056473
-0.09377291 -0.13674681 -0.12680161 -0.05333701 0.17779514 -0.19905591 -0.3450052 -0.077178724
-0.07332841 -2.1017978 1.6949127 2.3581686 0.2211188 -0.66995776 -0.029141888 -0.12396218
-0.10777284 -0.35156402 -0.73024386 -0.10158361 -0.15632263 -0.109312266 -0.106974505 0.69359434
-0.57113653 0.0020187977 -0.0710913 -0.9620315 -0.12015722 -0.26077655 -0.20258535 -0.11717815
-0.070183426 -0.17171687 -0.044808485 -0.015722074 -0.18846998 -0.5458274 -0.21133924 -0.08501894
-0.088456765 0.5213084 -0.16724806 -0.25988397 -0.0034520444 -0.12940492 0.36349112 0.5216946
-0.07233785 -0.4725109 1.799202 -0.29606614 0.44974726 -0.118776955 -0.26899654 -0.89524364
-0.1156008 -0.11664246 0.20779337 0.20551345 -0.114690654 -0.2624097 -0.61185324 -1.6863012

reward_fun.4.weight f4 [1, 200]
00000000: 1c7a b7bd 90fc 57be 02d9 a0bd a5a4 00c0
00000010: 0364 15bf c139 0fbf f4d9 9cbc 19b2 7d3e
00000020: 1307 e7be f200 0abe 73d9 963e 222c 8abc
00000030: e03e e7bd 5811 17bd b24b 41bf c313 b9be
00000040: 8a5c 94b6 22dd 023e 1892 a23c 24c8 bd3c
00000050: 504c 983d 4041 a63c bd62 0c3d 99c8 d03e
00000060: 7514 dbbd 0ad5 623b 3c22 d23e ad8c f13c
00000070: f953 163e 0a06 ba3c 9243 8c3c 4a8d cebc
00000080: 1a50 56bf 1940 d43b c546 6fbd ba2c abbc
00000090: bcf9 d93d 37af a7bd 1bd9 2ebc 7d03 c5bc
000000a0: d64c 02bf c962 9abf ad60 933b 7e66 5d3c
000000b0: 0984 9bbf 2a79 54bf 42ed 1fbb 1377 f3bc
000000c0: ba4e 013b 33cb 4f3f 41ff ddbd f727 37bf
000000d0: f40e ea3d 3e7b 01bc 3822 5cbd 0bc0 71bd
000000e0: 84ff 8d3d 382c c5bd 92b0 83bd efea 943e
000000f0: b321 cebe 8a13 1dc0 d8e8 42bc e193 4dbf
00000100: 9ef5 eb3d 597b b0be 11a3 e0be 149f 14bd
00000110: 4fba 3e3f dffc 0c3e 7c27 943e 5ba4 2c3f
00000120: 12ba 7e3c 31a1 26bf f4f0 dabf 9d8c d23e
00000130: b790 943e 8847 2abe 456c 533c 094b 4bbf
00000140: 4472 9f3e 4958 d3bc 8b33 7fbd 970e 2ebe
00000150: dfec 9d3d 575a b8bd 69f9 e83b 711a bbbd
00000160: 889d 333d b801 af39 1b9a 5e3e 1bc8 bcbf
00000170: c14b 87be 72ca 82bc b717 2b3c a57e b0be
00000180: 38c3 903d 4e1a 3ebf d6c5 f43c be4f a5bf
00000190: 6af3 afbe d5bc 053f 80b0 4cbe dcfa 093d
000001a0: c948 2fbe 101e 543d a214 b63d 4c32 943c
000001b0: aafc f0be ea6b bd39 5689 2f3c 26f5 3dbd
000001c0: e83e 5a3d ae02 9cbc d64a 893f 034c 45bd
000001d0: 5e4b 7ebf 8202 703e 62ee 103f d1a2 39bc
000001e0: ad4c 493c 4a09 22bf bf5f 51bc 27f0 a43c
000001f0: 45ee 1fbf a6ba ee3e 916a 36bf e396 053d
00000200: 552c 2bbf 24bb e2bf 3b07 a0bf bdd2 883b
00000210: 55fe 35bf c9ad cdbf 6cd4 a53e 1d31 32bf
00000220: 49e5 91bd 99c1 7e3d 8318 95bd 48d0 a4ba
00000230: 0874 a23e a39a 82bd 06db 973d 5256 353d
00000240: 2874 0bbe 155e c2be 13e4 d0be 12e9 9bbe
00000250: 77f3 c4be 517c a53d 9c2f 40bc 0441 743b
00000260: f159 bd3c 9155 a33d 95a1 24bf 7ec5 c33e
00000270: 526f 93bc 65dc 84bd b1c9 953d 6a27 31bf
00000280: 816e 55bd ccbc 18bd 4d10 e6bc 21e4 89be
00000290: 1b68 34bc ab89 093c 69ca 4e3d 5acb 573b
000002a0: a710 cd3c 1435 b03d 6e12 d13c 235e b53c
000002b0: 5259 a93d 8cc9 08c0 2720 ad3d a77a a23b
000002c0: 1e40 173d f6cd 783f 6833 2cbf e60b a83c
000002d0: 4810 483d eb35 e1bc 9019 02bf eb9e 13c0
000002e0: f1d3 273d 7976 233e 96c9 bcbe ff37 8abf
000002f0: 9d19 023f ddba c63c 3c99 ccbe 22aa edbb
00000300: 7453 5abc 4457 a4bd 9ecb 7cbe 22ea e13b
00000310: 5765 19bd ee57 3fbd c37b a73d daf5 bbbe
-0.089588374 -0.21092439 -0.07853891 -2.010049 -0.5835573 -0.559475 -0.019146897 0.2477497
-0.45122585 -0.13476923 0.29462776 -0.016866747 -0.11291289 -0.036881775 -0.75506127 -0.3614789
-4.4215167e-06 0.12779668 0.019845054 0.023166724 0.074364305 0.020294785 0.03427385 0.40778044
-0.10697261 0.0034611844 0.41041744 0.029486025 0.1468047 0.022707958 0.017122064 -0.025213856
-0.83715975 0.0064773676 -0.0584171 -0.02089535 0.10643336 -0.081877165 -0.010671879 -0.024049515
-0.5089849 -1.2061397 0.0044976086 0.013513206 -1.2149669 -0.8299738 -0.0024402891 -0.029719865
0.0019730763 0.8116943 -0.108397014 -0.71545357 0.11428633 -0.007902918 -0.05374357 -0.059021037
0.06933501 -0.09627575 -0.064301625 0.2908549 -0.40260085 -2.4543176 -0.011896335 -0.8030377
0.11521457 -0.34469107 -0.4387441 -0.03628452 0.74503034 0.13768338 0.28936374 0.67438287
0.015547292 -0.6508971 -1.7104783 0.41122904 0.2901666 -0.1662885 0.012904231 -0.7941137
0.31141865 -0.025798934 -0.062305015 -0.16997753 0.07711195 -0.09001606 0.00710981 -0.09135903
0.043851405 0.00033379882 0.21738474 -1.4748567 -0.26424983 -0.015965674 0.010442666 -0.34471622
0.07068485 -0.7425889 0.029879492 -1.291496 -0.34365398 0.5224126 -0.19989204 0.033686504
-0.17117609 0.051786482 0.08890654 0.01809039 -0.47067767 0.0003612929 0.010713896 -0.04637637
0.05328265 -0.019044247 1.0725963 -0.048168194 -0.9933375 0.23438457 0.56613743 -0.011330322
0.012286347 -0.63295424 -0.012779175 0.020134045 -0.62472945 0.46626776 -0.7125636 0.0326146
-0.6686452 -1.7713361 -1.2502207 0.0041755126 -0.71091205 -1.606866 0.32388628 -0.6960619
-0.07123811 0.062196348 -0.07280066 -0.001257428 0.3172915 -0.06377151 0.07414822 0.044271775
-0.13618529 -0.37962404 -0.40799007 -0.30451256 -0.38467 0.08080352 -0.011730101 0.0037270198
0.023114176 0.07975305 -0.64309055 0.38236612 -0.017997418 -0.064873494 0.0731386 -0.69200766
-0.052107338 -0.037289426 -0.028083945 -0.2693186 -0.011011149 0.008394639 0.050486002 0.0032927603
0.025032355 0.08603874 0.025521483 0.022139614 0.082689896 -2.1373014 0.08453398 0.004958469
0.03692638 0.9718927 -0.6726594 0.020513486 0.048843652 -0.02749153 -0.50820255 -2.3065746
0.040973607 0.15963162 -0.36872548 -1.0798339 0.5082033 0.024259025 -0.3996066 -0.0072529474
-0.013325561 -0.08024457 -0.24687049 0.006894366 -0.03745016 -0.046714716 0.081779025 -0.36711007
