data/sac__/InvertedPendulumRoboschoolEnv/seed_913/policy_15000.pt (torch, 5883 bytes, 4 tensors)

mu.0.weight f4 [128, 5]
0.028366357 0.0011403462 -0.0024385727 0.13757746 0.009457998 1.0795476 0.53582823 0.10352109
0.16998431 -0.025495986 -0.014770774 -0.19399232 0.7639003 0.7266206 0.051174145 -0.023039548
0.6490364 -0.050712604 1.1443832 -0.038336482 0.16432543 -0.10136215 0.7701851 0.4285688
0.48921463 0.07198086 0.3167579 0.6667662 -0.37531042 0.07215561 0.41593817 -0.49320117
0.89343417 -0.6566106 0.11766105 0.13730164 -0.4927757 0.15489414 0.5210515 -0.124776945
-0.08279729 -0.7024166 -0.94813406 -0.47562075 -0.279565 -0.10320731 -0.30443668 1.0988122
0.5398306 -0.627489 0.17481118 -0.063139684 1.0847446 0.30884254 0.17681025 -0.34680924
0.21828663 0.82081395 -0.13639271 -0.3676384 -0.13172664 0.357577 -0.72744757 0.72574097
-0.06810092 -0.5240457 0.63890344 -0.02386321 -0.39944065 -0.27038732 0.11001573 -0.014995799
0.0215185 0.13394263 0.0069214646 0.27492872 -0.576541 -0.5939034 0.2022495 -0.02432441
0.30698046 -0.08867585 -0.70025223 0.6645765 -0.104459554 -0.091900066 -0.13154005 -0.45043418
1.9856 0.36489695 -0.025916358 0.026952159 -0.14721747 0.15326662 0.0018043733 0.52782774
0.37425107 0.3156336 0.06797221 -0.12088968 0.105382465 -0.30021852 0.3711594 -0.10474813
0.122458234 0.7553071 -0.303524 0.32244495 0.63895315 0.06433292 -0.116889 -0.5648474
0.04991558 0.06594395 0.05492834 -0.16645761 0.36674657 0.18308206 0.5974093 -0.18500276
0.22870933 -0.4912886 0.2549871 -0.25698206 -0.5924105 -0.30757055 -0.40764707 0.6527195
-0.21020553 -0.044382364 0.45076278 -0.30512625 -1.1315631 0.8323265 -0.08010465 -0.020648543
-0.18214065 -0.13569936 -0.47305578 0.80621827 0.4641442 0.4673925 1.1602025 0.5156791
0.18392956 0.40478405 -0.3267743 0.9497199 -0.70679206 -0.10375766 -0.097276084 0.10029518
0.4601799 -0.4949146 -0.6045311 0.13550359 0.72874385 0.18271637 -0.61256117 -0.05326228
0.17618753 0.15384175 0.089178525 -0.73506176 -0.42006466 -0.8651065 0.6301253 0.09691512
0.92649233 -0.15877333 -0.073262654 -0.2473039 -0.531416 -0.09285156 0.4653992 0.24373008
-0.5532694 0.10072921 0.0677771 0.17208074 0.5505906 0.27800852 0.29708534 -0.6787446
-0.06849065 -0.2527207 0.22152264 0.59802264 -0.64224154 -0.13911796 0.11261485 0.55196303
0.49061662 -0.43646064 -0.082605936 0.87883115 -0.31214106 -0.48438746 -1.0315889 -0.050408818
0.27885908 -0.16914214 -0.026995089 1.6697886 -0.28520364 0.065848775 0.041970253 0.69194514
-0.36209375 0.06286159 -0.16411924 -0.124003366 0.878995 -0.056296144 -0.23587261 -0.806375
-0.20651713 0.73600954 -0.11871715 -0.04804756 0.022474999 -0.20937572 0.7820966 0.238291
0.35877237 0.14238586 -0.3632772 1.2932231 -0.49773782 -0.15880387 0.35413334 0.17135333
1.1139644 0.8423248 -0.060676496 -0.2928003 -0.20708993 -1.2208397 1.4380935 0.19533698
-0.107129194 -0.045903474 -0.5906179 -0.22475803 0.37198463 0.6318985 -0.22636 0.6818035
-0.500858 -0.09410497 -0.2683422 0.87043077 -0.04730478 -0.78817326 0.1271665 -0.03228099
00000000: 9060 e83c ab77 953a 76d0 1fbb 1be1 0c3e
00000010: b8f5 1a3c 9e2e 8a3f 0a2c 093f dd02 d43d
00000020: 5e10 2e3e f5dc d0bc 1e01 72bc eca5 46be
00000030: f88e 433f cf03 3a3f fb9b 513d 6fbd bcbc
00000040: 4027 263f 05b8 4fbd 267b 923f b706 1dbd
00000050: ed44 283e f596 cfbd da2a 453f 5f6d db3e
00000060: 577a fa3e b36a 933d 172e a23e 31b1 2a3f
00000070: b028 c0be 52c6 933d d9f5 d43e dd84 fcbe
00000080: 1ab8 643f a217 28bf 47f8 f03d cd98 0c3e
00000090: 194d fcbe 929c 1e3e a263 053f 0e8b ffbd
000000a0: a091 a9bd 93d1 33bf eab8 72bf 9084 f3be
000000b0: 2523 8fbe 5b5e d3bd 20df 9bbe e1a5 8c3f
000000c0: 5732 0a3f 1ea3 20bf b401 333e 614f 81bd
000000d0: e9d8 8a3f 9c20 9e3e bf0d 353e fb90 b1be
000000e0: 8886 5f3e dd20 523f 88aa 0bbe 1a3b bcbe
000000f0: 59e3 06be 5514 b73e 013a 3abf 29ca 393f
00000100: 7f78 8bbd dc27 06bf 2d8f 233f c77c c3bc
00000110: 7c83 ccbe 3570 8abe ed4f e13d f1b0 75bc
00000120: 9147 b03c 4228 093e 74cd e23b 75c3 8c3e
00000130: 3198 13bf 0e0a 18bf 7e1a 4f3e fc43 c7bc
00000140: 8b2c 9d3e af9b b5bd bb43 33bf af21 2a3f
00000150: e4ee d5bd 1a36 bcbd 6fb2 06be 4f9f e6be
00000160: 2428 fe3f c6d3 ba3e 8b4e d4bc c6ca dc3c
00000170: 2dc0 16be edf1 1c3e b980 ec3a b81f 073f
00000180: d69d bf3e ba9a a13e 0435 8b3d 0295 f7bd
00000190: c3d2 d73d 3eb6 99be 9b08 be3e 3086 d6bd
000001a0: 62cb fa3d ce5b 413f 7f67 9bbe 8117 a53e
000001b0: 6f92 233f fac0 833d 8063 efbd d799 10bf
000001c0: 4774 4c3d 9f0d 873d 8afc 603d dd73 2abe
000001d0: 35c6 bb3e dd79 3b3e d1ef 183f 5d71 3dbe
000001e0: c732 6a3e 2e8a fbbe ab8d 823e 2793 83be
000001f0: 37a8 17bf e379 9dbe 1eb7 d0be a018 273f
00000200: 1e40 57be 48ca 35bd 61ca e63e 8239 9cbe
00000210: 0fd7 90bf 5913 553f e80d a4bd 2227 a9bc
00000220: 1483 3abe c6f4 0abe 5e34 f2be 5264 4e3f
00000230: 4fa4 ed3e 124e ef3e 8481 943f 8c03 043f
00000240: 0858 3c3e db3f cf3e f64e a7be d820 733f
00000250: 53f0 34bf e57e d4bd af38 c7bd 8f67 cd3d
00000260: b39c eb3e 7265 fdbe 8dc2 1abf 74c1 0a3e
00000270: f58e 3a3f 001a 3b3e cfd0 1cbf 8c29 5abd
00000280: 816a 343e b188 1d3e 3ba3 b63d 022d 3cbf
00000290: b712 d7be 9f77 5dbf e44f 213f 6f7b c63d
000002a0: 9a2e 6d3f 7a95 22be bb0a 96bd 3c3d 7dbe
000002b0: e10a 08bf f528 bebd ce48 ee3e 6194 793e
000002c0: 10a3 0dbf 1e4b ce3d b8ce 8a3d ef35 303e
000002d0: 81f3 0c3f 2257 8e3e 921b 983e 35c2 2dbf
000002e0: d344 8cbd 9c64 81be d5d6 623e 0318 193f
000002f0: f169 24bf f074 0ebe 9da2 e63d 734d 0d3f
00000300: 1a32 fb3e c577 dfbe 4d2d a9bd 14fb 603f
00000310: f4d0 9fbe a201 f8be 1b0b 84bf 7a79 4ebd
00000320: 9ec6 8e3e 9933 2dbe ce24 ddbc a2bb d53f
00000330: 3606 92be b9db 863d 00e9 2b3d 5123 313f
00000340: 5a64 b9be 94bd 803d e00e 28be 7af5 fdbd
00000350: d105 613f c996 66bd 9788 71be 986e 4ebf
00000360: 3a79 53be 1f6b 3c3f fa21 f3bd 85cd 44bd
00000370: 7d1d b83c 9766 56be 7c37 483f 8e02 743e
00000380: 03b1 b73e 99cd 113e 78ff b9be 5688 a53f
00000390: 7ed7 febe 7b9d 22be f750 b53e 3f77 2f3e
000003a0: 6396 8e3f 99a2 573f eb87 78bd ece9 95be
000003b0: 620f 54be 7a44 9cbf 7313 b83f 6b06 483e
000003c0: 8d66 dbbd 4805 3cbd bc32 17bf f826 66be
000003d0: c574 be3e 1ac4 213f eaca 67be ad8a 2e3f
000003e0: 3b38 00bf 1bba c0bd 2664 89be 8dd4 5e3f
000003f0: a8c2 41bd b9c5 49bf ef37 023e 1239 04bd

mu.0.bias f4 [128]
-0.5726666 -0.7573455 -1.0240527 -0.6130487 -0.38960704 -0.41770238 -0.31092477 -0.7692583
-0.6676075 -0.4136274 -0.74566513 -0.1846563 -0.84648544 -0.3796757 -0.37977207 -0.95967823
-0.48489973 -0.14289156 -0.40899447 -1.4727978 -0.8179567 -0.18356922 0.4958007 -0.18881027
-0.18373525 -1.1716529 -0.56678563 0.597216 0.048338868 -1.0737878 -1.016547 -0.61633
-1.2316115 -0.9271823 0.5263903 -0.45724517 -0.766709 -0.9551583 -0.81958807 -1.2136446
0.18116511 -1.1061239 0.12311541 -0.17863749 -0.6628554 0.08314446 -1.0094887 -0.094266064
0.18798478 -0.89371574 -0.87657374 -0.96032417 -0.19201478 -1.3889537 -1.1613207 -0.51522946
-0.2306405 -0.37874502 0.29926574 -1.1672837 0.59347504 -0.66287357 -0.76175183 -1.0568652
-0.48473462 -0.85644823 0.8362805 -0.18933685 -0.09476871 -0.9521792 -0.8795278 0.38728347
0.0352959 -0.9337879 -0.8480932 -1.2166935 0.17517251 -1.0851353 -0.8696034 -1.3534433
-0.4183905 -0.9923932 0.14530508 -0.664392 -0.9709964 0.12716268 -0.6186465 -0.6016023
-0.79191405 0.31297517 -0.2758291 -0.819519 -0.7161204 -0.4503164 -0.55072784 -0.9505767
-1.3815857 -0.94596 -0.9524381 0.44785526 0.2192791 -0.15017353 -0.4150568 -0.06643956
-1.1616489 -0.7993965 -0.1567219 -0.3862697 0.44032454 -1.2673026 -0.087692335 -0.88681906
0.34137937 -0.25121248 0.055677105 0.23716977 -0.6389183 -0.2177597 -0.66335094 0.10659064
-1.5293843 -0.7911561 -0.79632294 -0.81779695 0.5514814 -0.054531462 -0.030828815 -0.79465634
00000000: 479a 12bf 65e1 41bf 2914 83bf c2f0 1cbf
00000010: 937a c7be 16dd d5be 8831 9fbe 1dee 44bf
00000020: 53e8 2abf f8c6 d3be e9e3 3ebf 8b16 3dbe
00000030: 45b3 58bf da64 c2be 7c71 c2be 79ad 75bf
00000040: c744 f8be 2a52 12be b967 d1be a384 bcbf
00000050: 9c65 51bf 92f9 3bbe 97d9 fd3e 7b57 41be
00000060: 1825 3cbe b9f8 95bf dd18 11bf 26e3 183f
00000070: fafe 453d e171 89bf 361e 82bf cec7 1dbf
00000080: 72a5 9dbf d25b 6dbf 84c1 063f 0a1c eabe
00000090: 0b47 44bf 4185 74bf 86d0 51bf b558 9bbf
000000a0: 5983 393e 7895 8dbf ef23 fc3d bfec 36be
000000b0: e4b0 29bf a547 aa3d ed36 81bf 910e c1bd
000000c0: 157f 403e 8eca 64bf 2367 60bf ced7 75bf
000000d0: 869f 44be 3cc9 b1bf 28a6 94bf 14e6 03bf
000000e0: 062d 6cbe deea c1be 5c39 993e 8d69 95bf
000000f0: fbed 173f 15b2 29bf 2b02 43bf 5c47 87bf
00000100: 232f f8be 3140 5bbf 7b16 563f 85e1 41be
00000110: 1916 c2bd 04c2 73bf bc28 61bf 054a c63e
00000120: 6f92 103d b90c 6fbf a31c 59bf 9dbc 9bbf
00000130: 6c60 333e b7e5 8abf 549e 5ebf a13d adbf
00000140: 4837 d6be 7b0d 7ebf dbca 143e 9815 2abf
00000150: 3893 78bf ef36 023e 9e5f 1ebf 9c02 1abf
00000160: e1ba 4abf 483e a03e 7939 8dbe ffcb 51bf
00000170: ab53 37bf df8f e6be 80fc 0cbf ff58 73bf
00000180: cdd7 b0bf 6f2a 72bf fcd2 73bf 494d e53e
00000190: b38a 603e 17c7 19be 5382 d4be 7711 88bd
000001a0: e9b0 94bf 40a5 4cbf b57b 20be 24c5 c5be
000001b0: 3872 e13e f936 a2bf 0a98 b3bd 9306 63bf
000001c0: 47c9 ae3e ec9e 80be ad0d 643d a2dc 723e
000001d0: 2690 23bf 66fc 5ebe 5ed1 29bf 324c da3d
000001e0: ddc2 c3bf 3589 4abf d2db 4bbf 245b 51bf
000001f0: e32d 0d3f 625c 5fbd b68c fcbc 996e 4bbf

mu.2.weight f4 [2, 128]
-0.0002297518 0.46077278 0.62101007 0.32356134 0.57300407 0.012036585 0.24552809 0.4545677
-0.48666024 0.57603294 0.2733086 -0.24864623 0.27846387 0.33754566 -0.0566374 0.52682835
0.29336688 -0.4607399 0.03220186 -0.79414326 -0.12791377 -0.13269354 -0.13775118 0.107186995
-0.39895576 -1.0885615 0.49530104 -0.63334286 -0.2877555 -1.1665336 0.75242305 0.31291693
0.69972247 -0.913715 0.33181542 -0.12826467 -0.3032462 0.72993916 0.09982544 0.8919998
0.38655815 -0.4231346 0.19580473 0.18194358 0.4798051 0.40372208 -1.1944278 0.54479355
0.23483178 0.29987252 -0.41794658 0.3527686 0.27083024 0.7955367 -0.78446364 -0.19497523
0.47008708 -0.27650535 -0.56422234 -0.6353603 0.35799223 0.051021926 -0.23426421 -0.7302889
-0.2669288 -0.54432416 -0.3689841 -0.42697176 0.12849428 -0.32323214 -0.6678688 0.32742524
-0.38921624 0.6667772 0.48207745 1.0679317 -0.30964357 -0.33492675 -0.30710265 -0.78096795
0.3466249 0.8180564 -0.45382267 -0.22948812 0.5028696 0.38021153 -0.40162224 -0.59773797
0.42647895 0.2639459 -0.39218774 -0.058421582 -0.07320878 -0.013910149 0.42926306 0.3952397
-0.82208806 -0.6194101 0.4022716 -0.31003514 0.15735292 -0.43747988 0.7137565 0.27174094
-0.7969871 -0.59559613 -0.28553495 -0.3630304 -0.4239802 -0.6226223 0.01542668 -0.58031094
0.289153 0.49415728 -0.2504309 0.2266081 -0.4038698 0.50593656 -0.61297786 0.08468205
-1.8221881 0.46597427 0.4591598 0.59932446 0.29094324 -0.563021 0.33162022 -0.7722028
-0.020890452 0.02640278 -0.027015764 0.12789068 0.019781655 -0.20862603 -0.007951209 -0.037698057
-0.2908895 -0.08457456 0.07858144 -0.070986755 0.17949508 0.06835998 -0.0054427413 0.06850403
-0.0047734785 0.17824328 -0.03472474 0.2177307 -0.08178389 0.016895428 -0.10265511 -0.063072935
0.10479995 0.591237 0.077826984 -0.0007470021 -0.080993146 0.16613096 0.03819612 0.12888987
-0.034365866 0.119695745 -0.036966138 0.043758288 -0.4230295 0.5318527 -0.26325274 -0.13222831
-0.04441236 -0.03001129 -0.16729368 -0.11440803 0.35114524 -0.15110114 0.23113137 -0.047248006
0.0016152966 -0.52260923 0.04982931 0.020262139 -0.006761454 -0.041966345 -0.26777008 -0.16834842
-0.08628225 -0.07105607 0.1116133 0.20093493 0.029876495 0.0023449052 -0.033414584 0.022525769
-0.06335487 0.03729297 -0.16826312 0.060299814 -0.07711415 -0.011695929 0.17520076 -0.049707815
0.014876512 0.2602468 -0.06318335 0.22443627 -0.029540956 0.015423759 -0.13627906 0.15228254
0.0018509461 0.29023093 -0.06938533 0.051207308 0.19043258 -0.02945456 -0.045614265 0.004913124
-0.12321271 -0.016580105 0.49193436 0.1690086 -0.02561372 -0.031423133 -0.23097146 -0.32676354
0.15843652 -0.13093501 0.26247936 0.054943804 -0.1483644 0.19107825 -0.049332853 0.07297786
-0.17274293 -0.04371734 0.013987371 -0.12714072 -0.088170946 -0.24703175 -0.021138724 -0.0066027846
-0.03774977 0.07260658 -0.14422745 -0.3917973 -0.19202481 -0.014059857 0.2650156 -0.027540104
0.26948687 0.18535899 0.47871467 -0.018730164 -0.03443049 -0.21244803 0.025315233 -0.03949223
00000000: 87e9 70b9 69ea eb3e 84fa 1e3f d5a9 a53e
00000010: 65b0 123f 1935 453c b76b 7b3e 19bd e83e
00000020: 882b f9be e576 133f 1bef 8b3e 1e9d 7ebe
00000030: d192 8e3e c9d2 ac3e 9efc 67bd 39de 063f
00000040: 2f34 963e 1ae6 ebbe 19e6 033d f94c 4bbf
00000050: d4fb 02be d1e0 07be a50e 0dbe db84 db3d
00000060: ee43 ccbe fc55 8bbf 1998 fd3e c222 22bf
00000070: b054 93be f950 95bf cc9e 403f a636 a03e
00000080: 0321 333f 3ae9 69bf b6e3 a93e d057 03be
00000090: 1643 9bbe 4bdd 3a3f 4871 cc3d 195a 643f
000000a0: f3ea c53e 19a5 d8be 0981 483e 6b4f 3a3e
000000b0: 04a9 f53e a9b4 ce3e 03e3 98bf 9777 0b3f
000000c0: be77 703e e488 993e 18fd d5be 169e b43e
000000d0: 43aa 8a3e 4ba8 4b3f 9cd2 48bf 96a7 47be
000000e0: 41af f03e 1c92 8dbe e070 10bf f9a6 22bf
000000f0: c24a b73e 5efc 503d f5e2 6fbe 37f4 3abf
00000100: e4aa 88be d458 0bbf 7ceb bcbe 0b9c dabe
00000110: 0194 033e af7e a5be 73f9 2abf 48a4 a73e
00000120: 5a47 c7be e9b1 2a3f dbd2 f63e fcb1 883f
00000130: 9a89 9ebe 857b abbe 8f3c 9dbe 84ed 47bf
00000140: d278 b13e 256c 513f 725b e8be effe 6abe
00000150: 10bc 003f 16ab c23e 6ea1 cdbe 5b05 19bf
00000160: 735b da3e eb23 873e d5cc c8be 784b 6fbd
00000170: 7cee 95bd 65e7 63bc 5ec8 db3e dc5c ca3e
00000180: 5d74 52bf a991 1ebf 8bf6 cd3e edbc 9ebe
00000190: 2021 213e 5dfd dfbe bfb8 363f a121 8b3e
000001a0: 5907 4cbf fd78 18bf a331 92be 1fdf b9be
000001b0: ef13 d9be 2d64 1fbf 30c0 7c3c 428f 14bf
000001c0: dd0b 943e 2f02 fd3e 7b38 80be f40b 683e
000001d0: 06c8 cebe 0f85 013f 1eec 1cbf c86d ad3d
000001e0: 763d e9bf 2e94 ee3e fe16 eb3e 546d 193f
000001f0: 83f6 943e 2522 10bf 20ca a93e 15af 45bf
00000200: 7422 abbc a54a d83c 2a50 ddbc c6f5 023e
00000210: 230d a23c 10a2 55be ca45 02bc 4769 1abd
00000220: 78ef 94be 6d35 adbd 4eef a03d 8161 91bd
00000230: 8fcd 373e 5100 8c3d 0659 b2bb d74b 8c3d
00000240: d76a 9cbb 6885 363e 873b 0ebd ccf4 5e3e
00000250: 507e a7bd 4868 8a3c d83c d2bd 622c 81bd
00000260: 5ba1 d63d 4f5b 173f c163 9f3d 76d2 43ba
00000270: bcdf a5bd 3c1e 2a3e 8973 1c3d b5fb 033e
00000280: 39c3 0cbd 0b23 f53d ce69 17bd e43b 333d
00000290: 5397 d8be 8027 083f 10c9 86be dc66 07be
000002a0: bce9 35bd 3dda f5bc 094f 2bbe c24e eabd
000002b0: 4fc9 b33e 42ba 1abe b4ad 6c3e 2087 41bd
000002c0: 5cb8 d33a b8c9 05bf d219 4c3d c9fc a53c
000002d0: 308f ddbb e7e4 2bbd 2919 89be 8763 2cbe
000002e0: c0b4 b0bd d885 91bd 8495 e43d e3c1 4d3e
000002f0: 8dbf f43c fbac 193b bbdd 08bd f687 b83c
00000300: 33c0 81bd 83c0 183d 2b4d 2cbe f0fc 763d
00000310: 06ee 9dbd 48a0 3fbc d467 333e 6c9a 4bbd
00000320: 9dbc 733c 123f 853e 4666 81bd 9fd2 653e
00000330: e0ff f1bc efb3 7c3c bd8c 0bbe f4ef 1b3e
00000340: 729b f23a 2699 943e e519 8ebd c1be 513d
00000350: c200 433e b04a f1bc 06d6 3abd 45fe a03b
00000360: f256 fcbd 00d3 87bc d2de fb3e 9710 2d3e
00000370: ddd3 d1bc 8bb5 00bd c883 6cbe 8d4d a7be
00000380: 2f3d 223e d413 06be b263 863e c10c 613d
00000390: d6ec 17be 04aa 433e 3f11 4abd 6b75 953d
000003a0: 86e3 30be f410 33bd 492b 653c 2d31 02be
000003b0: f892 b4bd e4f5 7cbe 1e2b adbc 2c5c d8bb
000003c0: 819f 1abd c2b2 943d 5cb0 13be a899 c8be
000003d0: 27a2 44be 515b 66bc 20b0 873e c99b e1bc
000003e0: 2ffa 893e bfce 3d3e 171a f53e 0070 99bc
000003f0: fc06 0dbd fa8b 59be e461 cf3c 9bc2 21bd

mu.2.bias f4 [2]
0.19659081 -0.15854342
00000000: 1a4f 493e 3559 22be
