data/hlt_stoch/InvertedPendulumRoboschoolEnv_sin/seed_413/policy_40000.pt (torch, 10183 bytes, 6 tensors)

mu.0.weight f4 [128, 5]
000000 71 fb 8a bb a1 59 52 bc 57 19 47 3c 22 ab 6a bd
       -0.0042414 -0.012838752 0.012152038 -0.05729211
000010 84 16 ac bb 20 36 ee bc cf 8d 1e bd 1e 70 0f 3c
       -0.0052517075 -0.029078543 -0.038709458 0.008754758
000020 ee cc 16 bc af ea ad 3b c6 39 8a bc e1 ac 17 bd
       -0.0092041325 0.0053075175 -0.016873252 -0.037030105
000030 33 cb 70 3c 3a 96 8d bc 59 9d e0 3b 94 00 16 bd
       0.014696884 -0.017283548 0.006854695 -0.036621645
000040 4f fc 32 bd 9a f1 04 3c f1 97 0b bc a1 a7 d5 3b
       -0.04369765 0.008114243 -0.008520112 0.006520227
000050 59 3c f8 bc 93 69 3b bd fb 7c b4 3c b7 5a 63 bc
       -0.030302214 -0.04575498 0.022032252 -0.013876609
000060 5e 87 6a 3c 76 db 6e bb be 88 32 3c 89 ea 14 bc
       0.014314501 -0.0036446727 0.01089686 -0.009089121
000070 06 1b 0c 3d cf a7 0e 3b 4e 88 d1 bb ef 41 00 bd
       0.03420546 0.0021767502 -0.0063944226 -0.03131288
000080 5b c4 6c 3c cf 3f b5 bb 0d ef eb 3b 2a 32 f4 bb
       0.014451112 -0.005531288 0.007200128 -0.007452269
000090 6e 41 c8 bc 54 00 d6 3b 65 54 3a bd 10 3a f1 bb
       -0.024445262 0.006530801 -0.04549064 -0.007361658
0000a0 78 84 10 bd 87 ef 28 bd 21 13 3e 3c 0e 8c 16 bc
       -0.035282582 -0.041244056 0.01160124 -0.009188665
0000b0 27 e5 d4 3b c8 78 94 3f bb 56 20 40 16 cb 4a be
       0.0064970437 1.159936 2.5052936 -0.19804034
0000c0 df 6c 59 40 39 37 68 bf af 69 13 3c ef 24 0d 3d
       3.39727 -0.90709263 0.008997365 0.03445905
0000d0 5b 65 49 bc 63 9c e1 3b b7 bc 02 bc 96 20 81 bf
       -0.012292231 0.006885098 -0.007979563 -1.008807
0000e0 58 e1 37 bf bb d2 93 3e 9e 50 8e 3e 8e 01 b1 bc
       -0.7182822 0.28871712 0.2779588 -0.021607187
0000f0 00 eb 46 3b 02 97 ad ba fd 3d e9 ba c1 1d 54 3c
       0.0030352473 -0.0013243856 -0.0017794963 0.012946547
000100 e5 30 7f bb fd 5f c5 bc 35 24 31 bd 0c 87 a1 3c
       -0.0038939056 -0.024093622 -0.04324742 0.019717716
000110 6c a3 34 bc 09 1e 68 3c dd 7b 8f 3d 63 1d ca 3e
       -0.011025291 0.014167317 0.07006047 0.39475545
000120 99 62 62 be ff e1 eb 3f 4d d3 78 3e e7 0a 44 3d
       -0.22107925 1.8428344 0.24299355 0.04786196
000130 c9 40 b4 3d b2 31 ee 3e 0d 60 69 3f 7e 31 80 3e
       0.08801419 0.4652229 0.91162187 0.2503776
000140 77 e9 b7 3f d2 95 96 3e ee 6e 15 c0 ca 77 62 40
       1.4368123 0.2941118 -2.3348956 3.5385613
000150 24 a3 5a 3f 87 7a 83 3f 66 3c 54 bd 7a a8 bb 3e
       0.8540518 1.0271767 -0.051815413 0.36651975
000160 b8 1d 19 bf df 7d 54 3f 08 a6 a7 3e f1 f8 0c bf
       -0.5981097 0.83004564 0.3274386 -0.55067354
000170 30 2e f1 bf 32 83 8d 3f 32 5f 31 be 84 fb d2 be
       -1.884222 1.1055663 -0.1732147 -0.41207516
000180 14 95 63 3f d2 27 97 bf 77 b4 18 3f fb 0c b5 bc
       0.8889935 -1.1809027 0.5965037 -0.022100916
000190 8d fd 1d 3b 9d 8f b0 3c e2 d1 32 bc 6d 4e 37 3a
       0.0024107427 0.021552855 -0.010914298 0.00069925823
0001a0 e8 16 1f b8 40 4f 0a 3d 39 24 23 3d ce cd 4e bc
       -3.7929887e-05 0.033766985 0.039829466 -0.01262231
0001b0 24 32 bf 3c 9a e5 87 bb 6e 3e 86 3f 11 16 21 be
       0.023339339 -0.0041472437 1.0487802 -0.15731074
0001c0 04 cc c7 3f ac 8e db 3f 7e d1 99 be ab 65 c5 3e
       1.5609136 1.7152915 -0.30042642 0.3855413
0001d0 b4 b7 9f bf 56 fe 4f 3f d6 74 9a bf 29 84 40 3e
       -1.2477937 0.8124746 -1.2066905 0.18800415
0001e0 d9 d1 93 3c c3 3e 28 3d a7 5c 96 bc 0c 06 ca 3b
       0.0180444 0.04107548 -0.018354727 0.0061652716
0001f0 a8 f1 6d bc 10 3e b2 3f b3 5c 94 3e 33 34 90 be
       -0.014522947 1.392519 0.28976974 -0.28164825
000200 8d c1 cc 3e 2e be 85 3f 8c f7 39 3f f4 61 a6 be
       0.39991418 1.0448663 0.7264335 -0.32496607
000210 3e c0 b5 bf b0 dc 14 be f4 0e a1 be 83 f9 9f 3f
       -1.4199293 -0.1453731 -0.3145672 1.249802
000220 c1 6f f8 3e 65 10 26 be e7 24 05 be 20 07 99 3c
       0.4852276 -0.16217192 -0.13002358 0.018680155
000230 ba 5f dd 3e 44 30 64 3f 1e c4 13 3f a2 d8 01 40
       0.43237096 0.8913615 0.57721126 2.0288472
000240 85 70 39 be 19 33 8c bf ad 18 c2 be 07 ee d7 3f
       -0.18109329 -1.0953094 -0.3790945 1.6869515
000250 8e 6e 10 c0 e9 a0 ac 3e 2f 91 fc 3b e9 8a 9c 3e
       -2.2567477 0.33716515 0.007707737 0.3057473
000260 0c e7 04 bf fc 88 44 3f fd 2c 93 3e b2 15 fd bc
       -0.5191505 0.7677152 0.2874526 -0.030894134
000270 81 09 1e bd 05 86 8a 3c df 50 b0 bc a3 d6 a3 3b
       -0.038583282 0.016909609 -0.021522937 0.004999952
000280 e4 72 0e bd a2 96 24 bd ed 2a 53 3c 6e 66 44 bc
       -0.034777537 -0.040182717 0.012888652 -0.011987312
000290 db 9e bf 3b c7 c4 2e bb ca f7 86 bc 13 d3 25 3c
       0.0058477945 -0.0026667581 -0.016475577 0.010121125
0002a0 c8 83 fe ba f2 dc 45 bb 7e 69 08 c0 32 d9 32 3d
       -0.0019417936 -0.0030191508 -2.1314387 0.043664165
0002b0 0a 08 70 3f 9c b6 14 be f6 29 84 3e 6a c5 3f bb
       0.93762267 -0.14522785 0.25813264 -0.0029261955
0002c0 7b f9 85 ba ca de ac 3b b7 05 dc 3b c2 98 df b9
       -0.0010221446 0.005275582 0.0067145484 -0.00042647688
0002d0 5c 3b ae 3f 24 b8 21 3d 42 4a d6 bd 79 7e be 3e
       1.3611865 0.03948225 -0.10463382 0.37205866
0002e0 02 3a b5 bd 4d e0 1b 3f 63 4a 14 40 14 9f cb 3e
       -0.08848955 0.6088913 2.3170402 0.39769804
0002f0 5f f6 b5 be 86 1b 6b be d9 10 15 bb 36 75 e2 bc
       -0.3553953 -0.22959718 -0.0022745638 -0.027643781
000300 6b 59 d6 3b 65 19 26 3b bd 0f 8c 3b 90 7e f7 bc
       0.006541421 0.0025344726 0.004274337 -0.030211717
000310 0b 5d 21 bd b7 47 62 3c 17 a9 a1 bc 86 7f a4 3b
       -0.039395373 0.013811043 -0.019733949 0.005020085
000320 47 38 91 bf e4 37 aa 3f e0 f5 1f 3e 05 48 12 40
       -1.13453 1.3298306 0.15621138 2.2856457
000330 ad 97 d4 bd 7a 58 74 bb 4d ff dd 3b 53 80 90 39
       -0.10380492 -0.0037284181 0.006774819 0.0002756143
000340 f6 6f 92 3c cd 4e 42 3b 8c b0 5a bf 2a a7 27 bf
       0.017875653 0.002964902 -0.8542564 -0.6548945
000350 3f fd d7 bf 65 86 91 bf 03 91 de 3d 5f 8d 06 40
       -1.687416 -1.1369139 0.108675025 2.1023786
000360 02 0c 06 3f a8 1c 8c 3e e7 68 04 40 2f 63 b3 3e
       0.5236207 0.27365613 2.0689027 0.3503661
000370 00 ef 30 bb fc 50 f1 bb 48 c0 0c bf 55 73 93 40
       -0.0026997924 -0.0073643904 -0.549809 4.6078286
000380 db 85 44 3f 5b 79 ae be de 8b 98 3e f6 f4 1a c0
       0.7676675 -0.34076962 0.2979421 -2.4212012
000390 56 d4 19 40 5e 74 03 3f 14 b8 8b 3f bd 8f c4 3f
       2.403585 0.5134944 1.0915551 1.5356365
0003a0 e3 ed c4 3f c3 b7 ac 3f 7b 1f 89 bd 46 43 c1 bd
       1.5385097 1.349358 -0.066954575 -0.094366595
0003b0 64 93 5f be 34 0a 42 bf 58 d9 86 be 69 7a 36 be
       -0.21833569 -0.7579682 -0.26337695 -0.17820133
0003c0 20 53 05 c0 3c 62 29 bf e5 78 c9 3f 23 23 c7 3e
       -2.0831985 -0.6616552 1.5740019 0.38893995
0003d0 5e 6d a2 3e ae f8 b6 3c 70 d3 18 3d 47 ee 88 bc
       0.31724066 0.022335377 0.037311018 -0.016715182
0003e0 12 f1 b1 3c 2d f3 bc bb b8 90 ea 38 01 2e d1 3b
       0.021721397 -0.0057662935 0.000111849455 0.006383658
0003f0 a9 9d 40 bb c8 1e b9 3a 02 06 97 3b 30 9f 8e bb
       -0.0029390848 0.0014123553 0.0046088705 -0.0043524727

mu.0.bias f4 [128]
000000 b3 92 4b bc 17 6d 14 bc 17 56 8a bc 5a 10 03 bc
       -0.012425113 -0.009059212 -0.016886754 -0.007999504
000010 e9 67 c6 bc 13 9a 2c 3c 33 9f 8e bc 6e 5e fa bb
       -0.02421947 0.010534781 -0.017409896 -0.0076406514
000020 37 15 3c bc c1 ad 06 bf e1 7e 7a 3c 2c a9 52 be
       -0.011479667 -0.5260888 0.015289039 -0.20572346
000030 07 98 39 3a 62 61 b7 bc 48 a7 60 3e d4 03 ef be
       0.0007079844 -0.022385303 0.21938813 -0.46682608
000040 51 a9 69 bf 61 2c e2 be 49 57 e1 3f ff b4 f2 bf
       -0.9127398 -0.44174483 1.7604762 -1.8961486
000050 ff bb 56 3c 08 0e 4b 3c 9e 64 ba bf 29 35 54 bf
       0.013106345 0.012393482 -1.4561956 -0.82893616
000060 69 42 b0 3c 19 21 e8 bf 1d 9d a2 3f e4 ff e3 3d
       0.021516042 -1.8135101 1.2704197 0.11132792
000070 47 bc 1f bf f0 f2 b6 3d e1 1f f8 3e 7b 1f 8c bc
       -0.62396663 0.089330554 0.48461822 -0.017104855
000080 f9 c2 4f bc 0f ba 41 bc 77 4c 2f 3f 1e 7e b0 bb
       -0.012680762 -0.011824145 0.6847605 -0.005386128
000090 39 5b e9 3b 8c 76 2d bf fb 0d 19 bc 01 53 67 bc
       0.0071214703 -0.67759013 -0.009341712 -0.014118911
0000a0 55 5e 49 3e ff a1 17 3a ef b6 06 3f 66 4f ff be
       0.19664891 0.0005784332 0.52622885 -0.49865264
0000b0 b8 ae 92 3e 4e 1e 4e bf 04 ce 6c 3f c8 23 46 3f
       0.28648925 -0.8051499 0.92501855 0.7739835
0000c0 3b e8 08 bf 40 6d 94 3c 89 72 7e 3b 01 b6 bc bc
       -0.53479356 0.0181185 0.0038825592 -0.023036005
0000d0 3b 0d 18 bc 26 fd 6c 3e b1 20 8d ba c1 de 8a bc
       -0.009280498 0.23143443 -0.0010767189 -0.01695192
0000e0 3a 32 1a bc c7 a9 a2 3e df fa 50 bf db ae 5e bf
       -0.009411389 0.31770155 -0.816328 -0.8698556
0000f0 b0 a1 72 3c 4c 15 51 bc 6b 92 15 3b f3 c7 ab be
       0.014809057 -0.012761425 0.0022822868 -0.33550987
000100 97 63 ea 3a 65 bd a5 bc 44 17 64 3e 93 22 de bb
       0.0017882463 -0.020231912 0.222745 -0.006779024
000110 cb db cc bc 00 6a ad bf 6c b7 b3 3e 83 7b 05 3c
       -0.02500715 -1.3547974 0.35100877 0.008147123
000120 07 85 9a bc 0f 00 53 bb de 40 82 be 9e c0 04 bf
       -0.01886226 -0.003219608 -0.25440115 -0.5185641
000130 7d fb ec 3d 79 6e 3f 3c 1c ce 96 bb 85 b4 a5 3b
       0.11571405 0.011684054 -0.004602207 0.00505692
000140 57 5f 87 bc 5d 7d 00 bc 80 ee f1 3b 23 f2 65 3f
       -0.016524954 -0.007842389 0.0073831677 0.89822596
000150 23 db 87 bb 4e e4 06 3b 29 73 d6 bb e3 10 01 39
       -0.004145996 0.0020582858 -0.00654449 0.0001230869
000160 64 bc 9b bf fb bc b0 bc 65 f8 c4 bd 7b 31 9c 3c
       -1.2166867 -0.021574488 -0.0961769 0.019066563
000170 55 02 32 bf 93 14 c3 3b 25 fe 07 3f 3c cb 89 3b
       -0.6953481 0.0059533804 0.5312217 0.0042051356
000180 00 68 78 bc 17 af 44 be c8 64 09 bf c9 e3 6e 3c
       -0.015161514 -0.19207416 -0.53669405 0.014580675
000190 55 d5 4c bc 2a b8 2e 3f e4 94 39 3c c4 fc 2d 3f
       -0.012502034 0.6824976 0.011327002 0.67963815
0001a0 09 ed 81 3c 54 d2 83 3c 51 4e 04 3f 3c 39 87 bd
       0.015860097 0.016091503 0.51682 -0.066027135
0001b0 b6 fb d1 3b b0 f0 da 3f 44 b2 f3 3a ef 65 c1 ba
       0.00640818 1.7104702 0.0018592556 -0.001475511
0001c0 fd 62 1f bc 02 05 a9 bf 13 22 c4 39 cf 14 6b bc
       -0.0097281905 -1.3204653 0.0003740942 -0.014348223
0001d0 15 4b ed bb af 72 af bb bf 9c d4 bc 9a 5a 49 3c
       -0.0072416165 -0.0053542475 -0.025953649 0.0122896675
0001e0 ce 66 51 3e 74 81 a7 3f 3f 2c eb bb c6 45 5b be
       0.20449373 1.3086381 -0.0071769054 -0.21413335
0001f0 9d 45 a5 bb 41 0c a1 3c 84 64 44 3f 8d 7a a1 3e
       -0.005043699 0.019659163 0.76715875 0.3153881

mu.2.weight f4 [1, 128]
000000 a9 04 a9 3a 59 6f 46 3b 35 68 66 3b f7 4f 69 3b
       0.0012895066 0.003027877 0.0035157327 0.0035600641
000010 15 87 b4 3b fa 50 77 ba d2 9f 3b 3b 95 fc 89 3a
       0.005509267 -0.00094343687 0.0028629196 0.0010527546
000020 79 53 68 3b 03 c2 0a be 35 c9 4c bb 5d df 24 3e
       0.0035450144 -0.13550572 -0.0031247858 0.16100831
000030 df 3c 8e ba e9 41 ad 3b 37 78 00 3c c9 91 8d 3c
       -0.0010851881 0.005287398 0.007841161 0.01728143
000040 60 c9 df bd a4 b4 3f 3d 84 a5 b7 3e 26 00 bd 3e
       -0.10927081 0.04680313 0.35868466 0.36914176
000050 7e f3 66 ba 8e d7 65 bb bd 48 ca 3e bd b8 a0 3c
       -0.0008810087 -0.0035071108 0.3950862 0.01961934
000060 3a db 9f bb ec a8 97 3e 80 d3 5c 3e de 63 70 be
       -0.0048784288 0.29621065 0.21565056 -0.23475596
000070 19 cb 7a bd d5 f6 12 3f 8f ed 02 3e fe bd 6a 3b
       -0.061228845 0.57407886 0.12785934 0.003581881
000080 e8 03 67 3b 06 d8 8b 39 84 8a 6c 3e 7b 27 84 b8
       0.003525013 0.00026673096 0.23099715 -6.301604e-05
000090 6c 8c 8c be 75 73 c2 3e 60 0e d7 3a 5a 44 64 3b
       -0.27450883 0.37978712 0.0016407482 0.003483078
0000a0 fc eb 66 3e 8b f5 05 b9 f0 5e ec 3e 54 18 08 3f
       0.22550958 -0.0001277534 0.46166182 0.5316212
0000b0 32 1d 14 3f 30 17 2e bf 65 b3 71 be 4a 8d 9b bc
       0.5785705 -0.6800413 -0.2360359 -0.01898827
0000c0 a6 9d 98 be a7 2f 68 bb 8e 88 de 39 00 54 06 bd
       -0.29807776 -0.0035428794 0.0004244488 -0.032794952
0000d0 24 86 58 3b 89 fe 98 be ce 18 9d 39 f4 0a 40 3b
       0.0033038938 -0.29881695 0.00029963854 0.0029303404
0000e0 31 a9 ad 3a f3 2b 00 3f ad f6 bf 3c 78 63 ba be
       0.0013249276 0.5006706 0.023433054 -0.36404014
0000f0 ba 87 21 bb da 2b 68 3b e1 9c 73 39 ab 30 18 3d
       -0.002464755 0.0035426528 0.00023232728 0.03715579
000100 ec 82 5b 3a 5c f6 00 3b 79 14 e0 bd c1 9c 29 b9
       0.0008373696 0.0019678092 -0.10941405 -0.00016175491
000110 11 49 be 3b 38 c5 97 bd 58 5d 5e be 7c f3 d0 39
       0.00580705 -0.07410663 -0.21715295 0.00039854262
000120 16 87 88 3b a6 42 83 b9 2a 17 61 be 59 6b 0c bf
       0.004166494 -0.00025035924 -0.21981493 -0.548513
000130 39 78 ba 3e eb 8d 26 bb b7 7e 02 3a b2 5c 77 bb
       0.36419848 -0.002541418 0.00049779884 -0.003774446
000140 ea 66 64 3b 71 98 83 3a 42 fb e1 38 1b b7 e5 3e
       0.003485138 0.0010039938 0.000107756365 0.4486626
000150 a6 1c f1 39 58 c7 f0 b9 18 21 a0 38 5b ff 2a ba
       0.00045988447 -0.0004592489 7.635559e-05 -0.0006523036
000160 5c 42 ad 3e d3 11 a2 3b 27 6b e7 3e 89 0a a2 bb
       0.3383969 0.0049459725 0.45198938 -0.0049451035
000170 e9 c6 8d be 69 05 ea 39 04 47 96 be af ef 17 bb
       -0.2769082 0.0004463599 -0.29351056 -0.0023183634
000180 11 99 8b 3b c0 d1 26 be 94 93 40 3f 78 70 af bb
       0.0042601903 -0.16290951 0.75225186 -0.0053539835
000190 53 cf e6 3a 66 ee 3a be 8c a6 91 ba 5c f7 fe be
       0.0017609395 -0.18255004 -0.0011112257 -0.49798095
0001a0 a9 1c 9f bb a2 fa 69 bb fd d3 af 3e c6 5b 8e be
       -0.0048557115 -0.0035702367 0.34341422 -0.27804393
0001b0 17 e9 9d b9 11 2b 59 3e 61 8c 00 ba 45 dc 39 b9
       -0.0003011904 0.21207835 -0.00049037306 -0.00017725032
0001c0 47 d2 ed 3a ba 2d e5 3d 18 77 9a ba 43 a2 83 3a
       0.0018144333 0.11190362 -0.001178476 0.0010042865
0001d0 b6 c5 a0 3a e4 2d 7d 3b d1 cf b8 3b 7a 8a 71 bb
       0.0012265954 0.003863209 0.005640008 -0.003685622
0001e0 3a 79 76 be 87 1b d7 3e 0c 8e c1 3a 6e 0d c2 3e
       -0.24069682 0.4201319 0.0014767065 0.3790087
0001f0 f5 fc a3 b9 5f 18 c6 bb 23 9f 6a 3e 37 66 9d be
       -0.0003127825 -0.0060453857 0.22912268 -0.30742046

log_std.0.weight f4 [128, 5]
000000 87 98 85 3e 82 84 ff 3d 72 26 3d 3f a0 07 e7 3e
       0.26092932 0.12476446 0.7388679 0.45123005
000010 1b 58 71 bc f8 81 81 3f 1c 30 37 3f 82 b7 bf 3e
       -0.014730479 1.0117788 0.71557784 0.37444693
000020 bb bf 21 be c0 c5 f0 bd 0a 65 1f bd 82 0d 81 bc
       -0.15795796 -0.11756468 -0.038914718 -0.015753511
000030 0e 96 20 3e 80 95 07 3e e7 e8 94 3a 36 b0 25 3d
       0.15682241 0.13240623 0.0011360914 0.04045125
000040 17 8a 95 bd f8 3a 95 3e 55 fe 90 be df d3 a9 ba
       -0.07301729 0.29146552 -0.2831904 -0.0012956819
000050 5c bb 3f be f6 6b 30 be 95 aa f1 bb 1d 83 23 bf
       -0.18723816 -0.17228684 -0.0073750713 -0.6387194
000060 b0 93 a9 bc b8 6f 22 be 09 31 d6 bc 43 fb bf 3c
       -0.020700306 -0.1586293 -0.026146429 0.02343524
000070 54 c1 14 bd dd d4 19 ba 69 a3 23 bd a7 4c 29 3e
       -0.036317185 -0.0005868206 -0.039950762 0.16533147
000080 d3 1d ed 3e e9 b3 13 be 66 c1 a2 3c 73 8a 7f 3f
       0.46311817 -0.14424099 0.01986761 0.9982063
000090 db 71 2b bd b2 d0 de 3e 7a 3c 7f 3e 69 26 66 bd
       -0.041856628 0.43518597 0.24925414 -0.056188975
0000a0 64 4b 82 bc 6c 51 00 be 83 b6 a5 3e eb a9 c9 3e
       -0.01590509 -0.1253106 0.32365808 0.3938745
0000b0 13 b5 31 3c 7a 35 13 3f 68 9e c7 3c 30 55 bf bc
       0.010846394 0.57503474 0.024367526 -0.02335605
0000c0 67 53 e3 be 22 bf 89 bb b0 66 1a bf 01 3d 1a 3d
       -0.44399568 -0.004203693 -0.6031294 0.037655834
0000d0 73 d3 5c be 24 4b ab be d7 1b 4f ba 94 b5 87 be
       -0.21565036 -0.33455765 -0.0007900572 -0.2650572
0000e0 26 d3 8f bd a2 64 28 3f 83 0e 0a 3f 9d d2 ac 3b
       -0.07022695 0.65778553 0.53928393 0.0052741305
0000f0 d0 8a 02 3f 9f ae 05 be f0 f4 10 3f 5d 22 60 3e
       0.5099306 -0.13054894 0.56623745 0.21888109
000100 4f 5f 54 b9 85 1b d4 3f 23 d4 35 bb a4 8a 03 3e
       -0.000202534 1.6570898 -0.0027744852 0.12845856
000110 eb 17 14 3f 16 20 7c bc 70 d1 07 be 98 2b 24 3d
       0.57848996 -0.015388509 -0.13263488 0.040080637
000120 f8 42 e0 3d 3b 17 4f be ab 21 ca 3c 05 3f 53 be
       0.10950273 -0.20223705 0.024674257 -0.20629509
000130 be f0 5e 3e d9 fc 91 3f 42 4c c4 bf d2 bc 04 bf
       0.21771523 1.1405288 -1.5335772 -0.51850617
000140 ec dd a0 3f 42 98 90 be 8f 26 df 3e 35 dd 12 3f
       1.2567725 -0.28241163 0.43584105 0.57368785
000150 f0 57 b9 3c b2 54 de 3b 37 bb c2 3b e3 ec 88 bd
       0.02262494 0.006784999 0.005942728 -0.066858076
000160 3e 15 7e 3d 63 47 62 ba 67 f1 97 3d 26 8e 1e 3a
       0.062031977 -0.0008631853 0.07419091 0.00060484034
000170 67 a6 d8 3d f9 05 53 bf ec 8f f3 ba 4f 12 d3 3e
       0.10578614 -0.8243099 -0.0018582321 0.41224906
000180 da 93 32 3f 64 09 17 3f e8 3a a7 3e 01 d1 41 bf
       0.69756854 0.58998704 0.3266213 -0.7570954
000190 4f af d7 bd 20 37 14 3d cf 08 12 3f df 61 02 3f
       -0.10531484 0.036185384 0.5704469 0.5093059
0001a0 68 bd 6b 3c 9e 3b 29 3e c7 80 fa bc 21 07 6f 3e
       0.01438842 0.16526648 -0.030578984 0.23342563
0001b0 19 82 a5 3e c3 0b 9c 3c 67 56 f4 3c de 30 19 3b
       0.3232582 0.019048577 0.029826356 0.0023375074
0001c0 a0 e6 ef bc 16 3c 73 bd b9 56 20 3a b4 55 a1 bf
       -0.029284775 -0.059383474 0.00061164383 -1.260428
0001d0 9e 15 9e be 5a ed 6d 3f c2 07 c4 be 10 d8 aa bd
       -0.30875868 0.92940295 -0.3828717 -0.08341992
0001e0 7c 26 62 bd 94 c0 07 be f2 f1 25 bc 77 d3 6d be
       -0.055212483 -0.13257056 -0.010128485 -0.23225199
0001f0 65 5f 54 bd d4 ca 88 be 92 fe 71 bc cb 50 00 be
       -0.051848788 -0.26717246 -0.014770167 -0.1253082
000200 ce 9a 18 bd 01 20 75 3b 47 60 b3 bf f0 76 ea 3d
       -0.03725701 0.003740311 -1.4013757 0.11448467
000210 ee 9c 7c 3f 37 0b 26 bf 08 d5 d5 be cd 08 94 bf
       0.98676956 -0.6486086 -0.41764092 -1.1565186
000220 6d 11 09 3f 4a 36 23 3e 52 b5 8e bf 1f be ba 3d
       0.53542215 0.15938678 -1.1149085 0.09118294
000230 82 17 d3 bc 50 3a 94 3d 37 46 c4 3d 07 1d 4a 3c
       -0.025768045 0.07237685 0.09583705 0.012336022
000240 55 0a 65 ba 22 e5 6e 3e 0e 6c 7c 3d 7c c3 94 3e
       -0.00087371963 0.23329595 0.061626486 0.29055393
000250 6b d8 2d 3d 12 81 48 bb ac 0d d7 be 80 49 c9 be
       0.04244272 -0.003059451 -0.42002618 -0.3931389
000260 90 cd 8a 3f 2a 17 e2 3f 69 96 e0 3e ef b6 b2 bd
       1.0843983 1.7663319 0.43864754 -0.08726298
000270 f9 1f ea be bf 8d 72 3f e6 e6 3f 3f c5 d8 97 be
       -0.45727518 0.9474754 0.749617 -0.2965757
000280 a8 2d d5 bd 4f 86 40 37 b9 80 cb 3e bf f2 4a 3c
       -0.10409099 1.1475363e-05 0.39746645 0.012386977
000290 25 6f 17 ba 5e df b7 3f 88 37 28 3e 17 bf ce be
       -0.00057767547 1.4365041 0.16427433 -0.40380165
0002a0 f9 ee 0c bf d5 38 cf bd 2d fa 8c 3c 70 49 b6 3c
       -0.55052143 -0.10118262 0.017209137 0.022251815
0002b0 b5 bc 39 3e 1a 31 92 bb 5b 46 c1 3a a5 8f c3 bd
       0.18138392 -0.00446142 0.0014745699 -0.095488824
0002c0 cb 34 f2 3c c2 42 04 3e 67 a9 6e 3e 6d dc 88 3b
       0.02956619 0.12916091 0.2330681 0.0041766674
0002d0 60 d4 ba 3e e4 16 d5 3c c0 b0 70 3d 16 fb c3 3e
       0.36490154 0.026011892 0.058762312 0.382775
0002e0 eb 6f 5c bc 2c 90 7c 3f a4 be 2f be 6c 70 b8 3e
       -0.013454418 0.9865749 -0.17162567 0.3602327
0002f0 b6 df d1 bd 01 f6 b8 ba 40 6a 7c 3f af 92 9a be
       -0.102477476 -0.0014111401 0.98599625 -0.30190036
000300 6d 39 36 3f 6d 0e 38 3f 39 fa 30 3e 14 8d 25 bd
       0.71181375 0.7189701 0.17282952 -0.040417746
000310 f4 a1 0f bd 65 08 1b 3e c5 af 8e be 01 f2 8c 3c
       -0.03506656 0.15139921 -0.27868477 0.01720524
000320 03 1f ca 3c ed 0e 42 bb e0 8a 21 3d bc ea b7 bc
       0.02467299 -0.0029610947 0.039439082 -0.022450797
000330 f1 3f 24 bb f2 0a 73 bd f7 2c ab be 18 d7 15 3f
       -0.0025062526 -0.05933661 -0.33432743 0.5853133
000340 7d e5 a1 3e a7 4d 0d bd 4d f4 8c 3e 70 95 7c 3e
       0.31620398 -0.034497883 0.27530137 0.24666381
000350 f5 37 10 3f 82 9c 93 3e 2c a4 e7 3c 86 02 51 3f
       0.56335384 0.28830343 0.028276525 0.81644475
000360 8e 51 d4 bd 33 86 63 3f 97 b9 4a 3f 32 7c ad bd
       -0.10367118 0.88876647 0.7918944 -0.08470954
000370 09 89 30 3d c4 0f 18 be b2 50 27 3f 73 a6 2e 3f
       0.043099437 -0.14849764 0.65357506 0.6822273
000380 69 0a 28 bc 81 25 cc 3c 5b 75 3b bf aa 3a ab 3e
       -0.010256388 0.024920227 -0.73225945 0.33443195
000390 90 10 67 bf c6 84 8b bc f9 0d f0 bd dd 5f 66 3c
       -0.9025965 -0.017031085 -0.11721415 0.0140609415
0003a0 06 26 7e 3e b8 cf b0 3d e8 e1 01 3a b4 7a ac 3d
       0.24819192 0.08633369 0.0004954622 0.08421841
0003b0 6f c9 8d bd 30 3b 2d be c7 bd cb bd 4f 62 f9 3b
       -0.06923186 -0.1691711 -0.099483065 0.0076105963
0003c0 39 66 02 be 64 c6 7f 3d 2e 63 86 3e 16 ec 6d 3e
       -0.12734307 0.06244506 0.26247543 0.23234591
0003d0 cb 76 25 3b b8 cd 8f 3d 6c 9e 22 3c 04 76 80 3d
       0.0025247808 0.070216596 0.009925466 0.0627251
0003e0 e8 01 81 3d 3e a1 1e 3c 06 97 c5 3f ba a1 5c 3d
       0.06299192 0.009681998 1.5436714 0.053865172
0003f0 e4 cd e8 3e 19 7b 32 3f 89 e5 30 be 56 c1 c4 3c
       0.45469582 0.6971908 -0.1727506 0.024017971

log_std.0.bias f4 [128]
000000 66 54 bf bf df 59 67 bf 5f 02 8f be 76 95 12 bf
       -1.4947631 -0.9037151 -0.27931497 -0.5725931
000010 07 ad 21 bf 15 59 8d be d2 1f 80 bf e6 9f 8e bf
       -0.63154644 -0.27607027 -1.0009711 -1.1142547
000020 f5 70 75 bf 1a f9 81 bf 67 de 82 bf cc 4f 9f bf
       -0.95875484 -1.0154145 -1.0224122 -1.2446227
000030 33 00 a5 bf 5a 10 72 bf 64 d4 31 bf 47 a8 ac bf
       -1.2890686 -0.945562 -0.6946471 -1.3488854
000040 71 d9 61 bf e5 06 e5 bd 14 ed 68 bf 36 93 8a 3c
       -0.88222414 -0.11182956 -0.9098675 0.016915899
000050 79 18 8c bf 04 f4 3e bf 91 7e dd bd 04 bc 99 bf
       -1.0944968 -0.7459109 -0.10815156 -1.2010503
000060 b8 77 61 be e6 39 df be 16 61 25 bf 95 e9 96 bf
       -0.22018325 -0.4359886 -0.64601266 -1.1790034
000070 eb a1 d0 be 21 62 2d bf a2 23 94 bf e6 79 b4 bf
       -0.40748534 -0.6772786 -1.1573374 -1.40997
000080 27 26 01 bf 73 75 3c bf 60 76 82 be fa a9 d5 be
       -0.5044884 -0.73616713 -0.25480938 -0.41731244
000090 84 af 3d bf e2 54 ba bf 27 c8 cd bf 9e 21 1e bf
       -0.7409594 -1.4557154 -1.6076707 -0.61770046
0000a0 c1 6b bd bd 69 99 d0 bf 72 69 d2 bf 3c ea b1 bf
       -0.09249068 -1.6296817 -1.6438429 -1.3899608
0000b0 9d 16 a8 bf f8 24 d9 be fa da c5 be 6a 14 d3 be
       -1.3131901 -0.42411017 -0.38643628 -0.41226512
0000c0 ff 5d 15 bf 72 f4 e9 be c9 dd 87 bf 18 e8 48 bf
       -0.5834655 -0.4569431 -1.0614558 -0.78479147
0000d0 53 68 42 bf 40 1e 4b bf 5d e4 6f bf fe c2 95 bf
       -0.75940436 -0.7934303 -0.9370783 -1.1700132
0000e0 51 e9 70 bf 38 de 8b be e7 ed e7 be 24 6d a2 3d
       -0.9410601 -0.27317977 -0.45298693 0.07930973
0000f0 0d d6 7d bf af 85 44 bf e4 57 73 bf 4a 44 a4 be
       -0.9915474 -0.76766485 -0.95055985 -0.3208335
000100 c2 d9 f3 be 8d 9c 8b bf 9f c5 0a bf 40 14 23 3f
       -0.47627074 -1.090715 -0.54207796 0.63702774
000110 dd fa b8 bf 12 0f 8a be ae de 36 be 5c df 4e bf
       -1.4451557 -0.26964623 -0.17858383 -0.8080957
000120 67 0f 13 bf 5f 13 a3 bf f1 c4 a3 bf ce 1a 9f be
       -0.5744538 -1.2740287 -1.2794477 -0.31075138
000130 14 04 75 bf cb 32 61 bf 10 26 8c bf 08 4b 99 be
       -0.9570935 -0.8796813 -1.0949116 -0.29940057
000140 e2 9e a2 3d 30 97 c2 3e 30 9e e8 be 66 72 58 bf
       0.07940461 0.38005972 -0.45433187 -0.8454956
000150 0d 70 68 bf c7 4b 0f bf 1b b4 4d bf 67 ba 08 bf
       -0.90795976 -0.55975 -0.80352944 -0.5340943
000160 ef 1a c7 be 91 3f 08 bf ac 7b ae bf 51 3b 16 bf
       -0.38887736 -0.53221995 -1.3631492 -0.5868426
000170 3d d4 97 bf ff f1 8b bf 7c 2b 70 bf 86 6c a1 bf
       -1.1861645 -1.0933226 -0.9381635 -1.2611244
000180 d2 76 9c bf cd 35 5b 3e ca 57 b7 bf 21 ba c3 be
       -1.2223761 0.21407242 -1.4323666 -0.38227943
000190 c8 d8 25 bd d4 86 93 bf 08 df c6 be 42 7a 92 bf
       -0.04048994 -1.1525521 -0.38842034 -1.144356
0001a0 92 91 9a be 80 cc 93 bf ee 8e bc be a4 02 c6 be
       -0.30189186 -1.1546783 -0.36827797 -0.3867389
0001b0 03 d7 85 be 42 f6 28 bf d7 44 08 bf 0c f1 0b bf
       -0.26140603 -0.6600076 -0.5323004 -0.54664683
0001c0 0d 20 6a bf 67 90 29 bf ae df 24 bf db 85 ab bf
       -0.91455156 -0.66235965 -0.6440381 -1.3400224
0001d0 b3 dd 99 bd 0e e9 3a bf 09 3e 42 bf f2 83 b4 be
       -0.07512989 -0.73011863 -0.7587591 -0.35256916
0001e0 63 21 7d bf 72 40 93 bf f9 ef 08 bf c1 4c 88 bf
       -0.9887907 -1.1504042 -0.5349117 -1.0648423
0001f0 a5 0b 8f bf a2 75 01 bf ac 3f a7 bf 9a 64 24 bf
       -1.1175429 -0.5057012 -1.3066306 -0.64216006

log_std.2.weight f4 [1, 128]
000000 1e 0f fd 3d 7f 9d ff be 93 86 ea ba e2 89 cb bc
       0.12356399 -0.49924847 -0.001789289 -0.024846021
000010 14 f6 47 3c 4c 50 86 bb 20 1a 34 bd d7 3d fe be
       0.012204666 -0.0040989276 -0.043970227 -0.49656555
000020 30 f0 7a bb 73 b8 47 3d 66 02 ba bc b1 f5 50 bb
       -0.0038290136 0.04875989 -0.022706222 -0.0031884725
000030 7a 00 a1 bc ea c5 82 bf 16 8c 61 3c a5 cf 72 3f
       -0.019653548 -1.0216649 0.013766309 0.9484809
000040 e7 92 3c be 55 40 16 39 dd 40 4a bd e0 63 de be
       -0.18415414 0.0001432908 -0.049378265 -0.43435574
000050 fa 47 dc bc be ce 21 bd e3 78 f3 bb 29 45 c5 be
       -0.02688979 -0.039503805 -0.0074301823 -0.38529328
000060 24 ff dd bb 19 22 ae bb ab 59 dd be 7c fb 48 3e
       -0.0067748 -0.0053141234 -0.43232474 0.19627184
000070 34 96 05 bd 65 56 92 bc 8b 60 4a 3f 41 9f 42 3e
       -0.032613948 -0.017863462 0.7905356 0.19006063
000080 db d1 9c bc 09 f6 9a 3e 94 54 59 3a ae 74 91 ba
       -0.019143036 0.30265835 0.0008290496 -0.0011097395
000090 48 30 9f bb a7 18 8a 3e 49 e0 a7 3e a8 4b 29 bc
       -0.0048580505 0.26971933 0.32788303 -0.010332979
0000a0 d0 55 2b bc 8d 57 0d 3b d6 4a 31 3d 21 9e a8 bb
       -0.010457471 0.0021567077 0.04328426 -0.0051458036
0000b0 aa 9b 21 3c e5 2a 39 be 7b b0 c9 3a 3f 6e 9f 3a
       0.009863773 -0.18082769 0.0015387678 0.0012163593
0000c0 34 be 88 bb e9 87 cd 3c 6d b5 37 3f 52 cf 44 3f
       -0.0041730646 0.025089221 0.7176121 0.76878846
0000d0 b3 88 1b bc 15 15 2b bd fb b9 2e bd d9 7a 9f be
       -0.009493041 -0.041768152 -0.042657834 -0.31148413
0000e0 bf bf b2 bc c9 5c 2d 3b 0a f1 15 3a 96 6c 3d be
       -0.021819947 0.002645301 0.00057198165 -0.18498453
0000f0 0e 83 7d bb ed 7e ec bc ed 8b 92 bc 6d a3 2b 3b
       -0.003868285 -0.028869117 -0.017888987 0.0026189939
000100 a4 09 8f bc d0 07 45 bd 1f 04 39 be 2e c4 ac be
       -0.017460652 -0.048103154 -0.18067978 -0.33743423
000110 85 a4 27 bd 5e 6f f0 ba c2 2a 9c bd 3d 48 9e be
       -0.040928382 -0.0018343737 -0.07625343 -0.30914488
000120 29 4e fd bc df 4f cd bc 99 07 ba 3e bb a1 00 bb
       -0.030921059 -0.0250625 0.36333922 -0.001962765
000130 be 4a bf bc 1a 55 95 bd 9f c5 7f bf 53 8a 9f ba
       -0.02335107 -0.072916225 -0.9991092 -0.0012171961
000140 29 71 c9 be 44 f0 a6 3e ad 5f 7f bc 90 ef 32 bf
       -0.39344147 0.32605183 -0.015586776 -0.69896793
000150 0f 70 da 3e 6d 81 27 bd 6d 1f aa bc 8d 67 07 bc
       0.4266362 -0.040894914 -0.020766938 -0.0082644345
000160 8a 78 5b bc 6e 24 6e bc 85 0e 0d 3e 6f f5 a9 3e
       -0.013395438 -0.014535053 0.1377507 0.33195063
000170 50 24 87 bd 40 85 f2 3d 1c 82 ee 3b ba d6 3e bd
       -0.06598723 0.11841822 0.007278694 -0.046591498
000180 04 07 23 3e 85 7a 8a be 6b 7c a7 bb f0 a4 5a bc
       0.15920645 -0.270466 -0.0051112673 -0.013344988
000190 78 59 9e ba 57 9a 30 bd 05 10 2d bd 69 0b 0a 3e
       -0.0012081107 -0.04311594 -0.042251606 0.13480915
0001a0 3e 17 2c ba df f3 ea bc 0f bc 5e bb de f2 e3 3a
       -0.00065647427 -0.02868074 -0.0033986603 0.0017391106
0001b0 0a 50 8e bb e0 db 1b bf a2 8f 45 bc 2d e8 4c bd
       -0.0043430375 -0.6088238 -0.0120581705 -0.050026108
0001c0 0e d1 3e 3d 6b 70 33 bc 4a 5b db 3b b3 12 7a bd
       0.04658609 -0.0109520955 0.006694232 -0.06105299
0001d0 44 23 4d ba d0 93 bc be 74 a3 47 bd 52 07 85 bb
       -0.00078253844 -0.36831522 -0.048739865 -0.0040597105
0001e0 8f 9c be bd 04 c1 3f 3e 2b 9a 4d bd d8 d7 08 3e
       -0.09307205 0.18725973 -0.050195854 0.13363588
0001f0 0e d8 2b bf 84 b3 92 bd 5b 9d 02 bc 78 f8 94 3e
       -0.6712655 -0.07163146 -0.007972087 0.29095817
