data/hlt_deter/InvertedPendulumRoboschoolEnv_sin/seed_713/policy_15000.pt (torch, 10183 bytes, 6 tensors)

mu.0.weight f4 [128, 5]
000000 f5 a2 d1 be 97 8e 21 3f 64 68 3d bf b3 14 75 3f
       -0.4094464 0.631082 -0.7398741 0.9573471
000010 ae b8 74 bd d9 aa 26 3f 70 f1 10 3e c1 06 90 3f
       -0.059746437 0.6510444 0.14154601 1.1252061
000020 7f f6 70 40 5e c2 1b 3f 69 bd be be 53 a7 13 be
       3.765045 0.60843456 -0.37253883 -0.14419298
000030 fd b9 84 be 05 58 21 40 b9 87 bd 3e e7 5b 3e 3f
       -0.25923148 2.5209973 0.3701761 0.7435898
000040 47 d5 9c 3d 60 02 7f bf 2b 2a 2a be 38 f6 4b 3d
       0.07657867 -0.99613 -0.16617648 0.04979536
000050 57 6b b6 bb c1 1b b3 bc 3e 0a d1 3b 75 b6 ed 3c
       -0.005566995 -0.02186382 0.006379395 0.029017666
000060 7f 12 ba 3b 05 81 b1 3b f8 38 ec bb 1b 59 2f bc
       0.0056784744 0.0054169917 -0.0072089396 -0.010702397
000070 be c4 06 bb 81 ee 22 3a 33 21 d0 be e5 56 e6 bd
       -0.0020564045 0.00062153494 -0.4065033 -0.112470426
000080 12 af 90 bf 8b f8 e5 3f e2 03 f4 3e 84 18 82 3d
       -1.1303427 1.7966474 0.47659212 0.06352332
000090 56 4c a6 3e e9 fd 26 3f 90 26 08 c0 ef eb b5 bc
       0.32480115 0.65231186 -2.1273537 -0.022207228
0000a0 e5 32 fd be d7 92 d3 be d3 18 a2 be c6 e2 4e be
       -0.49452892 -0.41322967 -0.31659564 -0.20203695
0000b0 25 bc a2 bc 52 c3 10 be 34 32 91 bd 54 80 12 be
       -0.019865105 -0.14137009 -0.070896536 -0.14306766
0000c0 72 87 56 be 28 33 4e bc 06 2e 2c bc 3b 3c 0c ba
       -0.20950106 -0.012585439 -0.01050902 -0.0005349551
0000d0 9d 87 97 bc 2b 29 71 bd d3 72 a9 bb a0 d6 a2 be
       -0.018497283 -0.05887715 -0.005171159 -0.3180437
0000e0 8d 95 48 3e 53 d5 85 3d 75 ca 81 bf d8 dc 11 be
       0.19588299 0.06534829 -1.013991 -0.14244401
0000f0 d7 0b 0f bf cf cb 40 3f 62 49 a5 bd 3e 7f 9b bf
       -0.5587744 0.7531099 -0.08070637 -1.2148206
000100 3c 27 35 be 7a ab b0 bb 3d 36 96 3c 8b 7c ab bd
       -0.17690748 -0.0053915353 0.01833641 -0.08373364
000110 2f 6d 78 bd fe a1 bc 3b 82 96 de 3e a0 ca 83 be
       -0.060651 0.0057566157 0.43474203 -0.25740528
000120 7c e6 de 3d 46 ad f6 bd cf 05 d1 bd 27 bb 4f be
       0.10883805 -0.12044768 -0.10206186 -0.20286237
000130 55 96 53 be f7 30 07 c0 08 cd 3e c0 fe 9f 28 bf
       -0.20662816 -2.1123636 -2.981264 -0.6586913
000140 bd 3e 57 3b d4 85 59 bc c1 d2 8d 3c 9d 57 63 3d
       0.0032843791 -0.013276536 0.01731241 0.055503476
000150 84 d1 c7 3b 88 bb 56 bb 8a ea 8c bc b2 64 f6 3b
       0.0060979743 -0.0032765586 -0.01720168 0.007519328
000160 6e b7 0a 3d d1 de bd 3b 23 17 a4 bc d7 ea 62 bc
       0.03386634 0.005794384 -0.020030564 -0.0138499355
000170 35 98 9e bc f9 ee 51 bd d5 b5 7c bb 88 c2 7d 3f
       -0.019359687 -0.051253293 -0.0038560529 0.99124956
000180 ed 90 d5 be 0e 9b 34 be 10 8d 80 3f de b7 2c 3e
       -0.41712132 -0.17637274 1.0043049 0.16867015
000190 b7 40 ce 3f 76 92 59 3f 81 e9 01 40 49 c8 42 40
       1.6113499 0.84989107 2.029877 3.0434744
0001a0 14 4a 74 3f f3 ee 4c 3c a4 ea 10 bc 26 d5 b3 be
       0.95425534 0.012508142 -0.008845005 -0.35123557
0001b0 7c 08 18 3f 65 dd 22 3e a5 19 af bb c3 07 c3 3b
       0.59387946 0.15904768 -0.0053436332 0.005951853
0001c0 ab b0 89 bc a3 fd 60 bd 02 b9 bb bb 2f c8 0d c0
       -0.016807875 -0.054929387 -0.0057288418 -2.2153432
0001d0 09 49 07 bf fb d4 85 3f 4d 6c 73 bf 08 86 c0 be
       -0.5284582 1.0455621 -0.9508713 -0.37602258
0001e0 8e 7f 2e be 0e 00 49 3f dd 41 31 bf a5 83 74 bf
       -0.17040846 0.7851571 -0.69241124 -0.95513374
0001f0 03 46 8a be cc 22 91 3f d9 6d fe 3e a4 3a 61 3d
       -0.2700654 1.1338744 0.49693182 0.054987565
000200 93 6b b3 40 c2 ba 62 3f 79 3e 3b 3c 63 e4 1f 3b
       5.6068816 0.8856622 0.011428469 0.0024397604
000210 02 08 b3 3c 69 95 82 3d 4c 08 b8 3b 4a a8 5b 3f
       0.021854404 0.06376154 0.0056162234 0.85803664
000220 47 18 41 3e f4 3d 0c 3f 24 50 19 bd 09 bd 0e bf
       0.18856917 0.5478203 -0.037429944 -0.55757195
000230 49 75 9a bf 78 f3 97 3e 2a fa 04 be db 3b 55 bf
       -1.2067043 0.2967794 -0.12986055 -0.8329446
000240 6b 50 d8 bd e6 60 14 bc 64 e0 9e ba 46 e5 ce bc
       -0.105622135 -0.0090563055 -0.0012121317 -0.02525581
000250 fd 79 8e bd 04 a2 e5 bb 05 46 41 3d be 38 49 be
       -0.06956861 -0.007007839 0.047185916 -0.19650552
000260 7a df 9e be 71 58 8d be 3a f8 8e bf b7 65 99 be
       -0.31029874 -0.27606538 -1.1169503 -0.29960415
000270 e3 60 06 be 2b ad ab bc 8a e8 6e be e6 2d 87 bc
       -0.13122897 -0.020956596 -0.23330894 -0.016501378
000280 15 12 89 3f 30 d3 d5 bf 7d ec 55 bf f9 3a 1e 3f
       1.0708643 -1.6705074 -0.8356398 0.61808735
000290 ab d2 a3 3f 17 53 ca 3a cf 7d 5f bd 57 99 a2 bd
       1.2798666 0.001543614 -0.05456334 -0.079394035
0002a0 30 4a 2f c0 08 59 0f bf 02 d0 25 bc d6 db b5 bb
       -2.738903 -0.55995226 -0.010120394 -0.005549888
0002b0 9e eb 70 3c 47 7f 31 3c e9 32 97 3a 53 cf 32 3c
       0.014704613 0.010833568 0.0011535558 0.010913688
0002c0 57 38 83 bb 7a f8 a0 3c d6 25 74 3d 3d 09 aa 3b
       -0.004004519 0.019649733 0.059606396 0.0051890896
0002d0 48 05 5e c0 c7 7c b3 3f 02 23 8a 3f 07 75 df bf
       -3.4690723 1.4022454 1.0791934 -1.7457589
0002e0 6b 29 c4 be 0f d6 37 be 74 44 cf 3e b0 00 56 3f
       -0.3831285 -0.1795275 0.40481913 0.835948
0002f0 bc 5a b4 be 4d 7e 45 3d 8f 0c 36 bc 06 ee 8c 3b
       -0.35225475 0.048216153 -0.011111393 0.0043008355
000300 ed cd 94 bc d0 f5 75 bd cd 53 93 bb 8b c6 12 3b
       -0.0181646 -0.06004888 -0.004496074 0.0022396173
000310 b2 8f cd bc c8 b2 86 3d 7e 4b 53 3d 95 51 18 bb
       -0.025092933 0.065770686 0.051585667 -0.0023241986
000320 00 ec 90 3e 0e b2 38 bf 85 41 b4 be 77 0f 6d 3f
       0.28305054 -0.7214669 -0.35206237 0.9260172
000330 b3 72 3e 3f dd ca fa 3c 98 6d a2 3c 03 f4 a1 3d
       0.7439377 0.03061431 0.019827649 0.0790787
000340 15 45 08 3e cc 3c 12 3a 43 b8 ec 39 26 03 02 3c
       0.13307603 0.00055785174 0.00045150713 0.007935321
000350 d6 61 b0 3c 2d f6 37 3d 9c 8e f3 3b 32 cd 88 3e
       0.021531027 0.044912506 0.007432772 0.26719052
000360 ca 35 83 3e a9 96 12 40 71 7a 00 3f 45 79 61 3e
       0.25626975 2.2904456 0.5018683 0.22018917
000370 2f 0a 50 3f 48 02 8c 3d 4f 2a e2 3e 4c 5a 0b c0
       0.8126554 0.068363726 0.44172904 -2.1773863
000380 02 03 d2 3d 83 7e 2b 3c 49 65 94 39 2b f6 80 3c
       0.1025448 0.010467174 0.00028304223 0.015742382
000390 3b 0d 62 3d 63 f1 9e 3b ee 2e a9 3e ff 30 ca bd
       0.0551884 0.004850553 0.33043617 -0.098726265
0003a0 57 0a 89 3e fb 19 9f 3e 68 c9 96 3d f4 b9 c4 3a
       0.267657 0.3107451 0.07362634 0.0015009032
0003b0 74 9a 98 3c c7 8b 75 bc 75 b3 4a bd 0d 2a d7 bb
       0.018628336 -0.014986939 -0.04948755 -0.006566292
0003c0 a8 d7 1f bf 0d 51 81 3d eb 86 e3 bf a0 d9 a5 c0
       -0.6243844 0.06314287 -1.7775549 -5.1828156
0003d0 5a 8f 7b bf 27 3f 4d 3b 21 88 31 3d bd d1 90 3c
       -0.9826561 0.003131816 0.043342713 0.017678136
0003e0 d7 e3 6a 3d 1f 55 19 3c 48 60 fe ba df e0 91 bc
       0.05734619 0.009358673 -0.0019407356 -0.017807422
0003f0 3a ef 4c 3c 18 2f 37 3d 3f c4 d0 3b 11 41 b5 3d
       0.012508208 0.044722646 0.0063710506 0.08850301

mu.0.bias f4 [128]
000000 cd 14 3f 3f e7 a5 66 bf 99 20 20 3f 95 9c 5f 3f
       0.74641114 -0.90096897 0.6254974 0.873483
000010 44 0b ee bb 2a 21 d5 3b 3a 7d 51 3f fd 23 97 be
       -0.0072645266 0.0065041976 0.81831706 -0.29519644
000020 96 88 92 3e 4e b6 15 3e 96 70 13 3c 5a cd 74 bc
       0.28619832 0.14620325 0.008999011 -0.014941538
000030 8b 4a bf 3e 81 3c 94 3d 85 fc 82 be b1 b5 2c bf
       0.3736156 0.07238103 -0.25583282 -0.6746474
000040 df 15 34 bc f8 e8 d7 bb 83 02 09 3c 89 ed f7 3d
       -0.010991543 -0.0065890513 0.008362415 0.12105853
000050 3d bd 4f bf 08 39 c5 3e b0 ba 17 3c 3a 97 a0 3e
       -0.8114813 0.38520074 0.009260818 0.31365377
000060 fe 98 74 bf 69 48 1d bd 0c 7f 39 bc 04 98 02 bf
       -0.9554595 -0.038399134 -0.011321794 -0.5101321
000070 74 6d 1b be 91 44 6c 3c ba 7d 15 3f 8d 60 17 3d
       -0.15178472 0.014420644 0.5839497 0.036957312
000080 c7 d6 55 bf 51 4b 80 3e 04 ac 67 bc 3f e2 31 bc
       -0.8353085 0.25057462 -0.014140133 -0.010857164
000090 98 4e d0 3f de c5 34 bf cb 9c 11 3c 52 56 64 bd
       1.6273985 -0.7061442 0.00888748 -0.055746384
0000a0 62 59 67 3e ad 04 6f bd 5c e9 61 bc bd e8 23 bf
       0.2259269 -0.05835407 -0.013788547 -0.64027005
0000b0 55 ea 3c be 29 7c e4 bb 05 76 83 be e4 f2 32 3c
       -0.18448766 -0.006972809 -0.2567598 0.010922167
0000c0 15 7d 99 bf 25 76 c6 ba 52 92 1a bc 83 db 3e 3e
       -1.1991297 -0.0015141411 -0.0094343 0.18638425
0000d0 35 f3 ec 3e 82 2b 53 bc 69 52 28 bc 80 92 55 3e
       0.46279302 -0.012888791 -0.010273554 0.20856667
0000e0 b8 dc 11 3e 53 4c 39 bf 6d a7 1c 3f 6c cc d8 3c
       0.14244354 -0.72382087 0.6119297 0.026464663
0000f0 05 8e 2f 3c ff 2c 40 be fd 36 b6 bc 67 3a c0 3d
       0.010715012 -0.18767165 -0.022243017 0.09386139
000100 d7 83 38 bf fb 33 21 3d ae cd 4f 3e 51 38 6a 3c
       -0.7207617 0.039356213 0.20293304 0.014295653
000110 fe af 2a 3f 91 3a 28 bc 40 89 3b 3c 04 bc 63 ba
       0.6667479 -0.01026787 0.011446297 -0.00086873793
000120 02 f0 4c bc d1 ef 57 bc db 27 fd bb fd 80 14 3c
       -0.012508394 -0.013179735 -0.0077256984 0.009063956
000130 15 86 d7 bf b7 6f 12 3c 5b 32 4a 3c 0d 12 66 3e
       -1.6837794 0.008937768 0.012341107 0.22467823
000140 9b c6 84 3f e7 3f 20 bc 89 2d b7 bb 32 30 fe 3e
       1.037311 -0.0097808605 -0.005590145 0.49646145
000150 2f 8a 3b 3c e9 2f 15 bc ae e4 e2 bc d4 6b 35 bc
       0.01144652 -0.009105661 -0.027696934 -0.0110730715
000160 c0 d1 47 bc e4 9f c4 bd 7e 3c 04 be 2f a8 1a bc
       -0.012196004 -0.09600809 -0.12913701 -0.009439512
000170 57 df 29 be af 07 2b bf 87 ea a8 3f d4 a8 24 3d
       -0.16589104 -0.668086 1.3196572 0.04020007
000180 ba a6 7a 3e 3a b4 68 3c e4 19 3a 3c 6f 3d 40 bc
       0.24477664 0.014203126 0.011358712 -0.011733397
000190 0e 5e 03 3b 2d 0f 47 3c 3d 16 1d bf 9c 36 93 3e
       0.0020045075 0.012149614 -0.6136206 0.287526
0001a0 61 da 29 3c 46 84 1e bb ff 43 25 3c 4c ef 3d bc
       0.010367007 -0.0024187728 0.010087012 -0.011592697
0001b0 1e 83 e2 3b 0d c4 ab 3e 0e bb 6d 3e 7c 52 1d bf
       0.006912603 0.33548012 0.23215887 -0.61453986
0001c0 bc 29 dc 3b 77 5f 21 3c 9c f7 84 3d 85 2a 02 3c
       0.0067188423 0.009849421 0.0649254 0.007944708
0001d0 9f 90 f7 be d0 f7 99 3f ba 80 93 be d9 8b ee 3d
       -0.48352525 1.2028751 -0.28809148 0.116477676
0001e0 f5 a1 6a bd bc 85 13 3e b5 15 24 bd ed 12 de bf
       -0.05728336 0.14406484 -0.040059764 -1.7349526
0001f0 22 0a 11 3e b2 cd c6 bd b0 a8 ad be 56 84 41 bc
       0.14164022 -0.09707202 -0.3391776 -0.0118113365

mu.2.weight f4 [1, 128]
000000 6b 92 4c 3c 93 9d 1b 3f 3c 2b 04 3f a4 d7 13 3f
       0.012486081 0.60787314 0.5162847 0.57750916
000010 1b e2 bc 3a 00 72 6e 39 c3 0e 99 3e 0a b1 2d 3e
       0.0014410646 0.00022739917 0.29894075 0.16962066
000020 dd a6 98 3d 5e 14 98 3c 31 cd 7b b9 bf e3 20 3d
       0.07453702 0.0185644 -0.00024013665 0.039279696
000030 fc 73 80 3e 97 cb e5 3b da 10 5d 3d 66 f8 0b 3f
       0.2508849 0.007012795 0.05397115 0.546759
000040 72 57 9c 3a 2a 12 97 3a 0c b5 89 3a 70 28 7b be
       0.0011927916 0.0011525799 0.0010506227 -0.24527144
000050 06 1f 9c be b9 8e 14 bd b6 2e 22 ba ae 6a 3f be
       -0.3049242 -0.036268923 -0.000618677 -0.18693039
000060 3f 9a d5 be d6 75 fa 3e f4 a1 5a b9 d7 1a cd bd
       -0.41719243 0.48918027 -0.00020850432 -0.10014885
000070 e8 72 71 3e 00 a6 1f 3a 80 be 10 be d5 94 46 3c
       0.2357899 0.00060901046 -0.1413517 0.012120445
000080 90 35 3f be ff a1 e6 3d f3 56 a1 b9 07 ce 0c 3a
       -0.18672776 0.11261367 -0.00030773095 0.00053712766
000090 ca 7a 34 3e f7 98 8b be 5c f8 8f ba 59 24 46 bb
       0.17624965 -0.2726514 -0.0010984051 -0.0030234067
0000a0 24 40 7e be 14 80 d0 bb 0d 72 16 bb ec 2a 63 bf
       -0.24829155 -0.0063629244 -0.0022956163 -0.8873737
0000b0 ac 21 4c 3e c8 bb f2 39 0e 53 f6 bc 76 dc b8 ba
       0.1993472 0.00046297745 -0.0300689 -0.0014103788
0000c0 d6 9d 84 3e cd 8e 9b bb c2 7d ad 3a e6 0c 8e be
       0.2590167 -0.004747248 0.0013236331 -0.27744216
0000d0 68 b5 01 3f b7 66 aa 3a 9d 7f bc 3a dc 21 33 3f
       0.5066743 0.0013000582 0.0014381293 0.6997354
0000e0 e7 b7 52 be 4b 1b 1c bf d3 79 be 3e 39 1e a2 ba
       -0.20577966 -0.60979146 0.3720232 -0.0012368626
0000f0 1d 0c 58 ba c7 f9 58 bd aa 3b 09 3e 5a e4 72 3c
       -0.0008241551 -0.05297258 0.13401666 0.014824951
000100 a6 4e 9e 3e ae e5 20 b9 8c fa 30 3e 35 f8 c1 b9
       0.3091938 -0.00015344351 0.17283076 -0.00036996757
000110 15 2d b2 3e ad 06 b0 3a 92 5f 9f 39 be be bd 3a
       0.3480002 0.0013429724 0.0003039805 0.0014476401
000120 4e 38 c3 3a a4 72 62 3b ea ba 8a ba 90 2a 8a 3a
       0.00148941 0.0034553194 -0.0010584269 0.0010541249
000130 c5 f4 09 3f 97 65 b8 ba 0f 98 b0 ba 2c ae 5e be
       0.53889114 -0.0014068362 -0.0013473051 -0.21746129
000140 80 83 b6 3e 05 8e d9 3a b7 01 e9 ba d9 6f fa be
       0.35647202 0.0016598111 -0.0017777 -0.48913458
000150 a7 29 c7 ba 16 e7 ab ba 6a d6 67 bd 83 3d 6a bb
       -0.0015194908 -0.0013115134 -0.056600966 -0.003574223
000160 3e 1f b0 3e 68 29 0c be 77 3b 6d bd 16 10 c8 3a
       0.34398836 -0.1368767 -0.05791804 0.0015263583
000170 14 d1 40 bd 66 9b ad be bd cb 12 bf 7d eb c7 39
       -0.047074392 -0.33907622 -0.5734213 0.0003813169
000180 3a 73 f1 3c 8e d7 14 39 15 89 55 3a b5 84 a9 3a
       0.02947389 0.0001419468 0.0008145732 0.0012933227
000190 ac e7 2d 3b 99 e0 ae ba 16 cd 55 3e ab 15 90 3d
       0.0026535792 -0.0013342082 0.20879015 0.07035383
0001a0 64 3f c8 ba f7 c5 a6 3a a8 63 84 ba 93 60 a5 ba
       -0.0015277681 0.0012723793 -0.0010100501 -0.0012617282
0001b0 27 52 76 ba fe b8 15 be 5c 02 94 3e ab b0 83 be
       -0.0009396397 -0.1462135 0.2890805 -0.25720724
0001c0 03 f5 93 3a c3 70 ac ba 21 c8 54 3e b8 31 b2 ba
       0.0011288229 -0.0013156164 0.20779468 -0.001359514
0001d0 b9 39 fe 3e be 96 cd 3e d5 cb 99 3d 79 29 a5 3c
       0.49653414 0.4015407 0.07509581 0.020161377
0001e0 61 b4 92 3d e6 0e 1d 3e 5e 3b bb b9 f0 95 03 be
       0.07163311 0.15337715 -0.0003571165 -0.12850165
0001f0 40 4d 5c bd 20 24 2d bd 6f 71 15 be 62 db c5 3a
       -0.05378461 -0.04227078 -0.14594053 0.0015095288

log_std.0.weight f4 [128, 5]
000000 a9 08 8b bc 64 85 93 3d 40 9a ae 3e 02 1c 16 3e
       -0.016971903 0.072031766 0.34102058 0.14659122
000010 21 43 b1 ba 6e f5 55 be f1 06 9d bd dc 31 58 3f
       -0.0013524034 -0.20894405 -0.076673396 0.8445108
000020 04 32 94 bf b2 87 96 be 22 84 41 be 21 72 d4 3c
       -1.1577764 -0.29400402 -0.18898061 0.025933327
000030 c5 fd 15 3e a4 02 54 3d 11 d8 b3 38 32 18 78 be
       0.14647587 0.05176033 8.5756306e-05 -0.2422798
000040 eb 5e 03 3d 74 64 ba bc 20 72 25 bd 7a 29 8b 38
       0.032072943 -0.022752978 -0.04039204 6.635762e-05
000050 8d 48 a7 be 7e e7 04 be ef f6 21 3f e1 50 31 bf
       -0.3267254 -0.12978932 0.63267416 -0.69264036
000060 9d 00 01 3e aa 06 88 be 29 7a 9a be bb 30 71 3f
       0.1259789 -0.26567584 -0.30171326 0.9421498
000070 7c 0b 46 bf 8d 0d 4e be a4 ec 38 be 89 5b dd 3c
       -0.77361274 -0.20122357 -0.18059021 0.027021186
000080 8c fc 28 3f 09 fe 8e 3a 9b 5c 63 bc 77 f5 bb bd
       0.66010356 0.0010909449 -0.013877059 -0.09177678
000090 6d 12 bb bd 70 f7 15 3f 69 39 62 be e5 4c a3 bd
       -0.09134374 0.58580685 -0.22092213 -0.07973651
0000a0 9b d0 f1 3c 92 c8 b5 be b5 04 1a 3e d0 00 82 bd
       0.029518416 -0.35504586 0.15040858 -0.06347811
0000b0 30 18 38 be ae 5c 60 be 62 5e f6 bd f9 16 1e 3f
       -0.17977977 -0.21910354 -0.12029721 0.61753803
0000c0 a2 52 a1 bf 30 35 7f be 01 57 b7 3e 30 ed 2b be
       -1.2603343 -0.24922633 0.35808566 -0.16789699
0000d0 de a7 89 3e 55 0c 6b 3e fd 8f f4 bb 7f 66 6e bd
       0.26885885 0.22953923 -0.007463454 -0.058203217
0000e0 e6 bd fc bd 51 3c 0d 3f 8e a7 29 be ed 0b 25 ba
       -0.12340908 0.5517016 -0.16567823 -0.00062960276
0000f0 cd 96 66 bc e4 40 9d 3d a4 b1 ff 3e 97 30 b6 3a
       -0.01407404 0.076783925 0.49940217 0.0013899979
000100 3f 86 ad 3b 2a 59 4f bd 9d 0f c6 bb 34 d8 27 3e
       0.0052955444 -0.050622143 -0.0060443417 0.16391069
000110 ac ab bb 3d 61 58 90 3a c5 7f be bd 27 55 83 bc
       0.09163603 0.0011012667 -0.09301714 -0.016031815
000120 72 cf e8 bd 3b 7c f7 bd 71 99 2d 3a b6 94 75 bf
       -0.11367692 -0.12084242 0.0006622291 -0.9593004
000130 d0 c6 04 bf 21 03 dc 3d 78 be 34 3e 64 8c fb bd
       -0.51865864 0.10742784 0.17650783 -0.12282637
000140 65 cc 57 be 3a 8e 8c 3d db 3f ab be bb 63 a5 bf
       -0.21074064 0.06863065 -0.33447155 -1.292106
000150 d6 29 2f be 06 a2 2d 3c 4a 9e 41 bf c2 c8 6c 3e
       -0.17105803 0.010597711 -0.75632155 0.23123458
000160 09 da 40 3f 62 34 c3 3d 95 0b 5b be c7 ef a3 be
       0.75332695 0.095314756 -0.21391137 -0.32018873
000170 5f 17 20 3f 83 a6 31 3e e5 86 40 be da cd 35 3f
       0.6253566 0.17348675 -0.18801458 0.7101723
000180 72 7d 94 bc 22 41 3c 3e cd f5 a5 bf 3b c8 9d bc
       -0.018126223 0.18384221 -1.2965637 -0.019260516
000190 d5 a3 e2 3d 31 87 8a 3c 1b c1 af 3d 79 6f 02 bf
       0.11066405 0.016910167 0.08581754 -0.50951344
0001a0 ee 9d 20 bb f0 ad 97 be fa 35 98 3d df 8a b0 3e
       -0.0024508196 -0.2962489 0.0743217 0.3448095
0001b0 f1 8f ed bc 1f ed ae 3c e0 3f d9 3e b8 30 cd 3c
       -0.0289993 0.021353303 0.42431545 0.025047645
0001c0 60 cf 4f 3e dc f2 8e 3d c3 75 0a 3c 79 66 2b 3e
       0.20293951 0.069799155 0.008450928 0.16738309
0001d0 7f 2b 03 3f de 7c 1b be 05 10 84 be 3d a8 1c 3c
       0.51238245 -0.15184352 -0.25793472 0.0095615955
0001e0 68 2c d8 be a2 4d f0 bd 82 f0 96 be 7e f2 c2 bf
       -0.4222138 -0.11733557 -0.29480368 -1.5230253
0001f0 44 92 35 bd 5b 49 5c be fd 20 5a 3c c3 be 73 be
       -0.044328943 -0.21512358 0.013313529 -0.23803239
000200 d9 26 51 be d3 09 f7 bb bd a9 21 be 7b 8e 34 3c
       -0.20424975 -0.007539013 -0.15787406 0.011020298
000210 25 b4 fb 3d 47 fa 55 bd f0 cb b0 bb 26 e4 c1 be
       0.12290219 -0.052240636 -0.005395405 -0.37869376
000220 e3 e0 92 3e c3 36 e8 bd e8 01 e8 3e b4 d1 50 bc
       0.286872 -0.1133857 0.45313954 -0.01274531
000230 88 ff 0d 3e 8c 33 a0 3d b3 ee 26 3e 6a 66 b0 3f
       0.13867009 0.07822332 0.16301994 1.3781254
000240 0a cf 59 3e d5 8d d4 be 25 32 53 be c8 fd 5a 3f
       0.21270385 -0.4151446 -0.20624597 0.8554349
000250 78 4e 02 bf cf f3 1a be 6e 64 91 be a6 09 30 be
       -0.50900984 -0.15132068 -0.28396934 -0.1719118
000260 71 9d 81 be 1c 44 d6 bf e7 17 54 be b2 61 d7 3d
       -0.2531543 -1.6739535 -0.20712243 0.10516681
000270 09 c5 86 bd 15 d6 10 3d 0e 4d 3c bd 3d 14 7b bb
       -0.0658055 0.035360415 -0.045971923 -0.0038311624
000280 60 81 3e be 69 b6 c9 bd 15 e7 0e bd ce ef b9 bc
       -0.1860404 -0.09849245 -0.034888346 -0.022697356
000290 67 8c 12 3d 12 d3 01 3e 01 90 a7 3d ca 71 6a 3f
       0.03577843 0.12678173 0.081817634 0.9157988
0002a0 ed c1 a6 3e 82 31 e7 3d d6 b8 3a bd 09 0b ef bc
       0.3256983 0.1128874 -0.04558643 -0.029180067
0002b0 2a 80 84 3d b4 f9 05 bd 50 bc b3 bb 89 98 d9 3d
       0.06469758 -0.03270884 -0.005485095 0.10624797
0002c0 49 a4 ae 3d a0 7c db 3d 87 71 80 3e bc c9 3f bc
       0.08527429 0.1071713 0.25086614 -0.011705812
0002d0 3f a4 71 3f 07 73 46 3f 3a 93 17 3f 05 fd d4 3d
       0.94391245 0.7751927 0.59209025 0.10399822
0002e0 af 88 b5 bd 6c 23 bf bd 14 60 24 bd a5 70 5c 3c
       -0.08863961 -0.09332928 -0.04013069 0.013454591
0002f0 f0 46 4d 3d 60 d7 1e 3c bd c4 de 3d c4 fb 18 bd
       0.05011648 0.009694904 0.108773686 -0.037349477
000300 bf 2d 15 bd 61 47 a8 be 85 e8 af ba de 8c 2f be
       -0.03642058 -0.32866958 -0.0013420737 -0.1714358
000310 85 f5 da be a0 a1 65 3f 00 80 ab bc 55 4c 2a be
       -0.42765442 0.89699745 -0.020935059 -0.16630681
000320 8e 49 83 3f 34 13 e5 3e 0f 6a 2b 3e f2 27 be bf
       1.0256822 0.44741213 0.16739677 -1.485594
000330 8f ff 26 be 2f 16 ba 3e 4a e0 ce be f7 3b 17 bf
       -0.16308425 0.3634505 -0.40405494 -0.59075874
000340 39 aa 00 3f 04 22 ad 3d 43 a6 cc 3e f0 6b 9c bd
       0.5025974 0.084537536 0.39970598 -0.07637775
000350 e5 2d d3 3e 4f 73 64 3d c9 66 08 bb 9f bb 82 bd
       0.41245952 0.05577403 -0.0020813218 -0.06383442
000360 13 a5 b3 3e c0 89 8c bd a8 e2 f3 3e 6b dc b0 bc
       0.3508688 -0.06862211 0.47633862 -0.021589478
000370 c0 32 96 3f 08 8d 12 3f 23 cc 15 bd d6 fd 81 3e
       1.1734238 0.57246447 -0.036571633 0.25388974
000380 73 4a 31 be 82 20 30 3f e7 c3 f5 bd 1b 53 bd bd
       -0.17313556 0.68799603 -0.12000256 -0.09244367
000390 90 57 01 3e c7 18 c4 3b eb e8 99 be 23 69 3b 3e
       0.12631059 0.005984399 -0.30060515 0.18301825
0003a0 ea 70 ed 3d a8 47 b5 3d d0 ae 66 3b 99 41 ac 3e
       0.11593802 0.08851558 0.0035199411 0.33643797
0003b0 78 4f 8b bc 65 0e 22 3e 36 30 09 be e3 ff 90 3b
       -0.017005667 0.15825804 -0.13397297 0.0044250353
0003c0 1f 83 2c bf f9 7a 88 be 19 33 1e 3f 28 e2 88 3e
       -0.67387575 -0.2665632 0.6179672 0.26735044
0003d0 8b 61 83 bd 3e db a6 be b5 26 0d 3b 58 b0 37 3f
       -0.06415089 -0.32589144 0.0021537964 0.71753454
0003e0 37 97 60 be 25 41 13 bd 01 75 0b bd a2 8e 04 bd
       -0.21932684 -0.0359508 -0.03404713 -0.032362588
0003f0 d0 50 78 bd fd cb 07 be fe f2 3b 3a e4 cc 9d be
       -0.060623944 -0.13261409 0.00071696925 -0.30820382

log_std.0.bias f4 [128]
000000 55 8d 19 bf 76 24 3e bf 30 c7 bc be b1 cb 9b be
       -0.5998128 -0.74274385 -0.36870718 -0.30428842
000010 e2 09 a3 be 67 34 a1 3a 7a 3c 39 bf ad 4a 0f bf
       -0.31843477 0.0012298942 -0.72357905 -0.5597332
000020 4d 1c fc 3e 58 c2 06 bf 12 16 5c bf c6 0d 0e bf
       0.49240342 -0.52640295 -0.85971177 -0.55489767
000030 57 de 40 bf ec dd 94 be 45 84 89 be 39 62 e0 3c
       -0.75339264 -0.29075563 -0.26858726 0.027390586
000040 53 51 3c bf 01 de 64 bf cf 29 73 3e 98 1b 9c be
       -0.7356159 -0.8940125 0.23746417 -0.30489802
000050 b3 c2 2f bf 39 ae 92 be 65 8c 41 bf df b3 5e bf
       -0.6865646 -0.28648546 -0.7560485 -0.8699321
000060 2c c0 47 bf 31 78 28 bf eb 3e ae be 0c d1 80 bf
       -0.78027606 -0.658084 -0.34032378 -1.0063796
000070 3f 58 89 be 36 e7 ec 3b d7 c1 88 bf 78 4c 97 be
       -0.2682514 0.007229711 -1.0684155 -0.2955053
000080 d6 0e 94 bf a7 43 a9 bf b1 1a 7c be 0d a2 82 bf
       -1.1567028 -1.3223771 -0.24619557 -1.0205704
000090 32 1a 22 bf 28 24 da be d5 b7 f6 be 4a b9 f3 bd
       -0.6332122 -0.4260571 -0.48187128 -0.119005755
0000a0 0f 43 88 be 9f 16 06 bf 85 28 60 bf bc c7 75 bf
       -0.26613662 -0.5237827 -0.8756183 -0.96007895
0000b0 70 22 24 bf aa a9 24 bf 14 65 46 bf 38 f9 39 bf
       -0.6411505 -0.64321387 -0.7749798 -0.726459
0000c0 3f a7 d1 be 77 d9 5a bf d4 59 86 be 9f b4 c7 be
       -0.4094791 -0.85488075 -0.26240408 -0.3900499
0000d0 49 84 f0 be 0a dc 59 bf fb 4b 97 bf cf b2 14 bf
       -0.46975926 -0.8510138 -1.1820062 -0.5808534
0000e0 87 98 3b bf 28 02 76 be 5c 24 43 be cc 6a 8b bf
       -0.73279613 -0.2402426 -0.19056839 -1.0891967
0000f0 5d 77 1d bf cf 03 72 bf 15 d4 a6 bb 6b 4a fe bd
       -0.6151026 -0.9453706 -0.0050912 -0.12416538
000100 8a f3 61 be 47 86 80 bf 1a 80 6f bf b2 3f 82 bf
       -0.22065559 -1.0040978 -0.9355484 -1.0175688
000110 12 a4 f3 be ea 6d 76 bf b8 61 82 bf 0d bb a5 be
       -0.47586113 -0.96261466 -1.0186071 -0.3236927
000120 52 36 70 bf 6a b7 7c be 76 9e ef 3d 04 35 52 bf
       -0.93832886 -0.24679342 0.11700146 -0.82112145
000130 9f 06 5f bf 78 76 2a bf c4 93 7e be f5 51 9f bf
       -0.8711948 -0.6658702 -0.24861056 -1.2446886
000140 90 d3 9d be 7f 0e ac be aa ed 3c bf d2 62 2d bf
       -0.30825472 -0.3360481 -0.73800147 -0.6772891
000150 fa 46 21 bf 97 a5 25 bf b5 45 82 be 21 93 95 bf
       -0.62998927 -0.64705795 -0.25443807 -1.1685525
000160 4b c0 7d bf 43 d8 79 bf 73 f8 2f bf 72 ae 84 be
       -0.9912154 -0.97595614 -0.6873848 -0.2591434
000170 43 a0 08 be 50 ef 7a bf f3 78 86 bf e1 27 06 bf
       -0.13342385 -0.9802141 -1.0505661 -0.524046
000180 08 f4 02 be f5 3b 8b bf a3 01 8a 3c 5d 33 c5 bd
       -0.12788403 -1.0877672 0.016846484 -0.096289374
000190 83 ae b3 3d 54 1e 3c bf aa 0b 6d bf ed 06 13 be
       0.0877352 -0.7348378 -0.9259592 -0.1435811
0001a0 da ee 4c bf 94 ad 78 bf 40 dc 8c be 02 c1 5a be
       -0.8005196 -0.9713986 -0.27511787 -0.21362689
0001b0 4c 9e e0 be 3e 1e 3a bf 36 c4 2a bf 12 8e c0 be
       -0.4387077 -0.72702396 -0.66705644 -0.3760839
0001c0 d6 57 2f bf 78 c6 39 bf 32 a5 b6 be 62 f0 f5 bd
       -0.684934 -0.72568464 -0.3567291 -0.1200874
0001d0 71 e7 0a bf ea 57 e9 be f6 25 de be 23 23 39 bf
       -0.542594 -0.45574886 -0.43388337 -0.7231924
0001e0 1b 41 33 bf 30 3b 4e be f6 2f 0a bf df 83 9c be
       -0.7002122 -0.20139766 -0.5397943 -0.3056936
0001f0 bd ab 8c be ca a6 82 bf 5b ab 8b bf e6 4b 44 bf
       -0.27474776 -1.020715 -1.0911669 -0.7667831

log_std.2.weight f4 [1, 128]
000000 b1 9b 64 bc 88 3e a4 3e bd 6f 81 bb 5e 29 00 bc
       -0.013953135 0.32078958 -0.003950088 -0.007822363
000010 57 fd 7f bd e9 92 8a be 0b d6 9c 3c 32 cc 79 3c
       -0.062497463 -0.2706521 0.019145032 0.015246438
000020 67 ab e6 bd fe d2 8d 3e bb 54 fc bc 97 df 31 bc
       -0.11263161 0.27700037 -0.030802121 -0.010856531
000030 b0 2d 0f 3d 1d c9 ed bb 47 57 42 ba f8 5e 55 be
       0.03495568 -0.0072566406 -0.0007413518 -0.20837009
000040 26 02 9b be 41 83 78 3e 72 fc 17 be 95 4d 20 be
       -0.30275077 0.2426882 -0.14842394 -0.15654595
000050 13 a9 7e ba c6 58 25 bc 65 0b 8b bc 76 48 d0 3d
       -0.0009714525 -0.010091966 -0.016973207 0.10170071
000060 f7 4c cd bd f0 2b 68 bc 29 f1 2d bb dc a4 c2 3b
       -0.100244455 -0.014170632 -0.0026541448 0.005940063
000070 bd 9c 59 3e ab 04 34 be 0d de af be d9 5d 22 ba
       0.21251197 -0.17579906 -0.343491 -0.0006193794
000080 5a f1 1e be aa 28 c5 be 60 f8 e1 bb 58 04 77 bc
       -0.15521756 -0.38507587 -0.0068960637 -0.015076719
000090 86 0c 08 bf d3 3a 48 3b b5 d7 38 bc fc f0 1a be
       -0.5314411 0.003055264 -0.011281897 -0.1513099
0000a0 6b 33 e3 be 76 bd b3 3d 6e f4 74 bc d7 2b 0c 3d
       -0.44375166 0.08776371 -0.014950855 0.034221496
0000b0 d0 d5 9a 3e ab bb 26 3c 16 b6 4b 3c 0a 8c e2 3c
       0.3024125 0.0101765795 0.012433549 0.027654666
0000c0 f9 6f 0c 3d 3e a9 61 3d 3b c6 d6 ba 43 89 03 3f
       0.034286473 0.055093043 -0.0016385982 0.5138132
0000d0 e8 19 0a bc 02 92 97 3e ee a5 4e 3f 27 1f 82 38
       -0.008429028 0.29603583 0.8072194 6.2046856e-05
0000e0 ab 6d 52 3e 5f 50 0c be 04 c2 12 bb 7d b2 4f bd
       0.20549648 -0.13702534 -0.0022393474 -0.05070733
0000f0 57 d2 c5 bc 7f b4 22 3e 2c 1b 38 bd ee 25 d0 b9
       -0.02414815 0.15889166 -0.044947788 -0.0003970111
000100 33 3b b7 bb e5 fb 1b 3d b6 a5 a1 3d 38 01 7d 3e
       -0.005591774 0.038082022 0.07892935 0.24707496
000110 00 f3 cc bb f1 27 0a 3f d2 51 ba bd c9 16 3c bc
       -0.006254554 0.53967196 -0.09097637 -0.011480042
000120 cc 21 46 3c 4f 2b 54 bc 49 02 f2 3e 88 80 fb bc
       0.012093019 -0.012949779 0.47267368 -0.030700937
000130 21 8a 9b 3e a9 7a 89 3e 85 b2 13 bf fc e4 be bd
       0.30378821 0.26851395 -0.57694274 -0.09321019
000140 f0 93 b2 bb 14 5b 9e bb c5 b3 6f 3e ce 63 18 bf
       -0.0054497644 -0.0048326347 0.2340842 -0.5952729
000150 96 9d 60 bc e6 49 85 3e 5f 8c ca bb ca 3a a9 3d
       -0.013709446 0.26032943 -0.0061812843 0.08263166
000160 02 52 d7 3e 72 4b 0d bf 63 93 70 bd b8 57 a5 ba
       0.42054754 -0.55193245 -0.05873431 -0.0012614643
000170 11 e5 35 be 55 80 9a 3e 5e f8 5a 3c 6c 2b ce 3d
       -0.17763163 0.30176035 0.013364879 0.10066876
000180 f5 1a 7d bb ea c7 19 bf 1d d0 e4 bd 5a 91 a9 b9
       -0.0038620804 -0.6007067 -0.11172507 -0.00032342487
000190 73 91 82 be bc 67 9c bd 5d 59 be 3e ad 60 5c bc
       -0.25501594 -0.07636973 0.37177554 -0.013450784
0001a0 e3 d3 47 3e 3e bc 7e bb 0b 6b 2f 3e 72 04 c5 ba
       0.19514422 -0.0038869525 0.17130677 -0.0015031232
0001b0 b1 53 52 bc 32 ca a6 3e b7 8b 4b 3e 71 d6 a6 be
       -0.012837336 0.32576138 0.19877516 -0.3258548
0001c0 21 12 95 bb 58 5f 8e bc 5e c7 2c 3c 5a e4 c0 bd
       -0.0045492803 -0.017379448 0.01054558 -0.094185546
0001d0 f1 14 32 3b 54 51 c3 ba df 3b 2a be 4b 65 a3 3e
       0.0027173127 -0.0014901557 -0.16624402 0.31913218
0001e0 15 27 0b 3d 86 c4 04 bf d2 44 15 be 1b 09 62 be
       0.03397282 -0.5186237 -0.14577034 -0.22073786
0001f0 74 9d fa ba 36 68 57 bd c5 39 92 3e 8e 73 36 3e
       -0.0019120411 -0.052589618 0.285597 0.17817518
