data/hlt_stoch/InvertedPendulumRoboschoolEnv_sin/seed_913/policy_35000.pt (torch, 10190 bytes, 6 tensors)

mu.0.weight f4 [128, 5]
0.4537697 0.07477587 0.72982234 0.8934225 0.091851726 0.028880822 -0.0274326 -0.031682976
0.014746672 -0.014081208 -0.019416401 0.022453034 0.04840856 -0.03185527 0.01640432 0.35629985
0.071874544 -0.2237079 0.5480002 0.07294861 -0.017576277 -0.024356512 -0.020242065 0.04875863
-0.019088252 -1.4205582 -0.1724042 1.3074054 -0.82906395 0.079421334 0.018942483 0.041936472
1.4059406e-05 -0.0018289333 0.0027590904 -0.009609125 -0.04712156 -0.042730097 0.075666 -0.030722551
-0.21663038 -0.075294316 0.56520927 -2.2155492 -0.3025816 -0.2457295 -0.7070946 -1.0737877
-1.596974 -0.03946093 -0.018487677 -0.014852279 -0.008773831 0.035892587 -0.011651743 0.010768737
0.03390892 0.029950906 -0.055234652 0.024923755 0.021999279 -0.006310448 -0.011329664 0.005803288
-0.006210601 -0.60289407 -0.5014558 0.33722335 -5.3528886 -0.82248336 0.025972523 0.021460326
0.017802795 -0.02260823 0.00017675999 -0.011215884 -0.041446622 -0.03999005 0.07078795 -0.022894442
-0.021834865 0.03173144 0.051666558 -0.041040197 0.019047217 -0.014948861 -0.02159129 -0.013789936
0.0424382 -0.016815089 0.39964864 0.24083172 -0.08687331 1.5678598 0.3079362 -0.24929927
-0.40054688 0.4744936 -1.3212799 -0.26712775 -0.022913188 0.02322011 0.008687845 -0.031839415
0.018313112 -0.026648704 0.009119617 0.009413931 0.002280638 0.0074492902 0.017947547 -0.014283772
-0.037289254 0.016044574 -0.012172619 -0.34595945 0.85062593 0.303816 1.3605659 0.35785612
0.020370847 0.02042227 0.024958802 -0.028608315 0.006097094 -0.29222277 -0.9022126 -0.7699774
-1.9336232 -0.953294 0.42126963 0.5686333 1.2639524 0.08713049 -0.6849421 -0.070781246
-0.2975834 -1.9841548 1.9686607 -0.18020602 1.8350818 1.3186612 1.095461 0.38329065
-0.84607345 0.61117697 -0.10331758 0.5743754 2.0840435 -0.28505167 0.04361604 -0.003231481
-0.009249474 -0.00017513699 -0.0061521754 0.010093642 0.03571981 0.022353806 -0.050424363 0.020690389
-0.44503495 0.07523231 -0.20900026 -1.2409916 0.3048802 0.6176234 -0.21099181 -0.100879386
1.7748059 -0.6573782 0.06596349 2.8697677 -0.11673056 -0.15109386 0.22400913 -1.6138916
0.96329933 1.6361773 3.785494 -0.035923276 -0.013544323 -0.02357388 -0.013421424 0.04545485
-0.018490214 0.008551287 -0.025817301 -0.026176961 0.02378321 -0.005321406 0.041755367 -0.016181236
0.017961996 -0.0016720588 -0.010900844 0.01634979 0.025059514 0.050916538 -0.0655598 0.021152975
-0.03247227 0.018407093 0.03048506 -0.018809041 0.0144016 0.008528058 0.02436457 0.010808844
-0.041128285 0.018580552 1.1473244 0.023261668 -1.3323522 -0.05116893 0.014517175 -1.0327046
-1.4480084 -0.121988714 -0.73845744 -0.34870347 0.041420355 0.020353902 0.010683819 -0.0061066975
0.0013985854 0.01747874 0.026294513 0.02581149 -0.051966287 0.020115161 -0.39233008 -0.11841955
1.002743 -0.9748972 0.037902568 0.650095 -0.097191274 0.010251424 1.4722967 -0.24830216
-0.011834623 -0.025053883 -0.018152406 0.0433719 -0.019208018 -0.38459396 0.2203038 -0.19011945
1.4557393 -0.2515239 -0.16361953 0.20047171 1.8555329 3.087481 0.48934108 0.4238864
00000000: 8154 e83e 1724 993d a3d5 3a3f 56b7 643f
00000010: c21c bc3d 7997 ec3c 55ba e0bc 02c6 01bd
00000020: 069c 713c deb4 66bc 250f 9fbc 6def b73c
00000030: 0e48 463d ac7a 02bd 5a62 863c ef6c b63e
00000040: f632 933d af13 65be be49 0c3f 1566 953d
00000050: 20fc 8fbc 4f87 c7bc b0d2 a5bc 21b7 473d
00000060: f75e 9cbc dad4 b5bf ba8a 30be 0f59 a73f
00000070: 893d 54bf a7a7 a23d 442d 9b3c 94c5 2b3d
00000080: b0e0 6b37 d1b8 efba dbd1 343b 976f 1dbc
00000090: 8902 41bd c105 2fbd c7f6 9a3d dcad fbbc
000000a0: 5bd4 5dbe e833 9abd 8eb1 103f 8fcb 0dc0
000000b0: faeb 9abe 84a0 7bbe 2704 35bf e071 89bf
000000c0: a569 ccbf c9a1 21bd 7873 97bc f956 73bc
000000d0: 1dc0 0fbc 1b04 133d f4e6 3ebc 5b6f 303c
000000e0: 14e4 0a3d 9a5b f53c bb3d 62bd e72c cc3c
000000f0: d537 b43c e0c7 cebb 0ea0 39bc 8229 be3b
00000100: 4c82 cbbb 4457 1abf 685f 00bf 8aa8 ac3e
00000110: dd4a abc0 458e 52bf 54c4 d43c 91cd af3c
00000120: 2bd7 913c e534 b9bc a658 3939 d4c2 37bc
00000130: efc3 29bd 9bcc 23bd 46f9 903d 208d bbbc
00000140: 08df b2bc d4f8 013d 50a0 533d c419 28bd
00000150: e908 9c3c 11ec 74bc 38e0 b0bc 2fef 61bc
00000160: aed3 2d3d ccbf 89bc bf9e cc3e 979c 763e
00000170: a2ea b1bd a1af c83f d0a9 9d3e 4f48 7fbe
00000180: 7b14 cdbe d3f0 f23e b31f a9bf f8c4 88be
00000190: 70b4 bbbc 1a38 be3c 7757 0e3c 0c6a 02bd
000001a0: 6105 963c 624e dabc 726a 153c e33c 1a3c
000001b0: c276 153b 2d19 f43b bc06 933c 7b06 6abc
000001c0: 9ebc 18bd e96f 833c aa6f 47bc 9921 b1be
000001d0: 9fc2 593f c58d 9b3e 0627 ae3f eb38 b73e
000001e0: c3e0 a63c 9b4c a73c 6776 cc3c fc5b eabc
000001f0: 22ca c73b 399e 95be 68f7 66bf 3d1d 45bf
00000200: f780 f7bf 130b 74bf a7b0 d73e f491 113f
00000210: 31c9 a13f 7871 b23d 5e58 2fbf c2f5 90bd
00000220: da5c 98be c9f8 fdbf 13fd fb3f ed87 38be
00000230: f6e3 ea3f e4c9 a83f 1138 8c3f ac3e c43e
00000240: 4598 58bf 1876 1c3f 2b98 d3bd 440a 133f
00000250: f860 0540 4bf2 91be bca6 323d 41c7 53bb
00000260: 1b8b 17bc faa4 37b9 3098 c9bb ce5f 253c
00000270: ef4e 123d 541f b73c c789 4ebd e47e a93c
00000280: 9fdb e3be 6613 9a3d 2a04 56be d0d8 9ebf
00000290: 4219 9c3e 911c 1e3f 3d0e 58be da99 cebd
000002a0: d72c e33f f049 28bf de17 873d 46aa 3740
000002b0: 6f10 efbd 59b8 1abe a662 653e 0094 cebf
000002c0: c99a 763f 426e d13f 8945 7240 4924 13bd
000002d0: 02e9 5dbc 021e c1bc 88e5 5bbc dd2e 3a3d
000002e0: ca78 97bc b31a 0c3c ce7e d3bc 1171 d6bc
000002f0: 02d5 c23c 305f aebb ad07 2b3d 838e 84bc
00000300: 0925 933c fc28 dbba 7499 32bc ffef 853c
00000310: 9c49 cd3c dc8d 503d 3744 86bd 0149 ad3c
00000320: a501 05bd 79ca 963c cebb f93c 6b15 9abc
00000330: b0f4 6b3c 45b9 0b3c 3598 c73c 9417 313c
00000340: 2276 28bd 3e36 983c 87db 923f 418f be3c
00000350: 848a aabf 8396 51bd 72d9 6d3c aa2f 84bf
00000360: 5758 b9bf 38d5 f9bd 8c0b 3dbf 4389 b2be
00000370: 64a8 293d 3abd a63c 2f0b 2f3c b11a c8bb
00000380: bd50 b73a 932f 8f3c 9767 d73c 9e72 d33c
00000390: 9ada 54bd 8dc8 a43c 7ddf c8be f385 f2bd
000003a0: e259 803f dd92 79bf b93f 1b3d a06c 263f
000003b0: 380c c7bd 97f5 273c 3874 bc3f ec42 7ebe
000003c0: 02e6 41bc cd3d cdbc 5bb4 94bc bca6 313d
000003d0: 225a 9dbc 80e9 c4be 5297 613e acae 42be
000003e0: aa55 ba3f bec7 80be e18b 27be 7548 4d3e
000003f0: 1a82 ed3f 4a99 4540 ea8a fa3e a307 d93e

mu.0.bias f4 [128]
-0.61736095 -0.0020157008 -0.032368097 0.31575653 -0.022305641 0.13000947 0.023329208 -0.0049831974
-0.30385396 1.2509097 -0.022955602 0.018257514 0.013142903 -0.43049115 -0.0038091943 -0.017576553
-0.031243328 -0.024448376 0.11413038 0.6965028 0.009926496 -0.011198246 0.024997782 -0.42587703
-0.006699127 0.22656588 1.9430888 -1.1262037 -0.26686805 -0.12000564 0.030287305 0.011574279
0.06295433 0.2789033 0.22778149 1.4957513 -0.025433276 0.027140068 -0.013164161 -0.0046820478
-0.02601892 0.026182363 -0.7113437 -0.62777746 0.021358583 0.020042459 -0.48810327 0.15128686
-0.02317178 0.16518417 0.73895466 0.33864722 0.016627545 -0.39587325 -0.022626292 -0.023517758
-0.015277559 -0.45908275 -0.020759426 0.013138276 0.07359273 -0.77779406 -0.016991088 -0.08651581
0.27786902 -0.02397735 0.024641765 0.02767024 -0.01352214 -0.021646477 1.5027912 1.238918
-1.4376513 -0.022857202 -0.014996813 0.016821014 -0.27698827 -0.040331505 -0.017978692 0.021152984
0.0014807719 -0.021419426 -0.6998168 -0.019420983 -0.23773037 -0.015820732 -0.10790181 0.73089063
1.115037 0.02385594 -0.02430578 -0.026380787 0.6824806 1.0733162 0.008412717 0.93740684
-0.019589515 -0.0048523755 0.013666093 -0.039823584 -0.23149802 0.018450543 0.41423252 0.00694462
-0.12584317 -0.018039487 -0.017667301 0.02174502 0.00093411945 0.084440775 -0.0048056403 0.017760577
-0.13684748 -0.027692191 0.021033077 -0.01706767 0.027058596 0.01679756 0.016043693 -0.004448309
0.022372786 -0.79327935 -0.062061425 0.013828069 -0.9128032 0.0034647107 -0.0073783826 0.023618924
00000000: 5e0b 1ebf d919 04bb 6994 04bd d7aa a13e
00000010: 52ba b6bc 3421 053e e51c bf3c 174a a3bb
00000020: bf92 9bbe cf1d a03f 630d bcbc c890 953c
00000030: 5555 573c 5669 dcbe ada3 79bb b4fc 8fbc
00000040: 02f2 ffbc f647 c8bc 30bd e93d 024e 323f
00000050: bea2 223c d978 37bc 26c8 cc3c 8e0c dabe
00000060: 5a84 dbbb e300 683e 22b7 f83f 7127 90bf
00000070: eea2 88be 84c5 f5bd 151d f83c 0ba2 3d3c
00000080: 33ee 803d 6acc 8e3e 8d3f 693e c774 bf3f
00000090: 7259 d0bc d954 de3c 7eae 57bc dd6b 99bb
000000a0: a125 d5bc 657c d63c 9f1a 36bf 06b6 20bf
000000b0: 32f8 ae3c 1530 a43c ace8 f9be f1ea 1a3e
000000c0: bfd2 bdbc 0a26 293e 222c 3d3f 2b63 ad3e
000000d0: 7d36 883c e6af cabe c65a b9bc 50a8 c0bc
000000e0: ba4e 7abc e50c ebbe ac0f aabc ec41 573c
000000f0: c9b7 963d 831d 47bf e530 8bbc 332f b1bd
00000100: d944 8e3e 266c c4bc 87dd c93c b3ac e23c
00000110: f78b 5dbc f453 b1bc 765b c03f dd94 9e3f
00000120: f504 b8bf 073f bbbc 31b5 75bc 39cc 893c
00000130: 68d1 8dbe a632 25bd 0d48 93bc 0649 ad3c
00000140: 7616 c23a cb77 afbc 3227 33bf c118 9fbc
00000150: 976f 73be 7b9a 81bc a0fb dcbd a61b 3b3f
00000160: 88b9 8e3f 886d c33c ea1c c7bc 851c d8bc
00000170: 0cb7 2e3f 6d62 893f 7ed5 093c e5f9 6f3f
00000180: 317a a0bc ad00 9fbb c0e7 5f3c 0e1e 23bd
00000190: d10d 6dbe 9825 973c 4916 d43e b28f e33b
000001a0: 08dd 00be 8cc7 93bc 04bb 90bc 9d22 b23c
000001b0: b2df 743a 49ef ac3d a278 9dbb a17e 913c
000001c0: bf21 0cbe bcda e2bc 8f4d ac3c 80d1 8bbc
000001d0: fda9 dd3c 099b 893c 106e 833c 1fc3 91bb
000001e0: 2247 b73c 5b14 4bbf 1f34 7ebd 208f 623c
000001f0: 78ad 69bf 3310 633b 5cc6 f1bb 797c c13c

mu.2.weight f4 [1, 128]
0.004287016 -0.009320725 0.009931213 -0.004861814 -0.008969216 0.61651254 0.00380466 -0.010946466
-0.17729448 0.94225657 -0.006088741 0.011661209 -0.00503857 -1.0812914 8.390905e-05 -0.012154027
0.011393662 -0.008844185 0.028929152 -0.6962252 0.012497538 0.006083063 -0.0075065996 0.19700253
0.0021340025 -0.29085404 -0.5272332 -1.0960958 0.3537881 -0.53523767 -0.0074394024 0.0091064945
-0.017129084 -0.26189747 -0.21599579 -0.20544745 -0.009359717 -0.0067468146 -0.01081818 0.008274979
0.010540207 0.01020221 -0.7261398 0.13777168 -0.002812404 0.009836231 0.27289635 0.025223782
-0.010419108 -0.06841529 -1.0067528 0.006760913 0.005797488 -0.4192018 -0.011976139 -0.010002883
-0.005503262 -0.3107493 -0.008416998 0.0035845581 -0.35509688 0.28881395 -0.012326048 0.00064532727
-0.4519106 -0.010621059 0.009737821 -0.011727025 -0.007431176 -0.0028235237 -0.4060698 -1.1912794
0.43792075 -0.008578726 0.005288864 0.009289636 -0.2857546 0.015795032 -0.011724833 -0.0031115909
-0.0029370096 -0.0106877005 0.20851883 -0.00036742227 0.39341632 0.014338973 -0.002005872 -0.06657772
-1.0434482 0.008765507 -0.011889436 0.01167619 -0.3929414 0.40121114 0.0010300785 -0.50845724
-0.0052936147 0.00211607 -0.0054067858 0.010981297 -0.43254635 0.010662454 -0.059411254 -0.001335538
0.33378965 0.0042097024 -0.006735431 -0.0044996883 0.008179195 -0.0012338259 0.0011602378 0.009481578
0.021603132 -0.007773585 -0.0069849323 -0.01158756 -0.00883965 0.006893192 0.012364652 -0.0060285656
0.011910294 -0.8874841 -0.5253027 0.0040612286 0.7028546 -0.0028032523 0.0033381276 0.010011681
00000000: 197a 8c3b f4b5 18bc 87b6 223c da4f 9fbb
00000010: 9ef3 12bc c4d3 1d3f 9a57 793b ce58 33bc
00000020: af8c 35be ba37 713f 1084 c7bb a80e 3f3c
00000030: 971a a5bb c267 8abf 54f8 af38 af21 47bc
00000040: 7bac 3a3c 33e7 10bc d4fc ec3c d13b 32bf
00000050: 79c2 4c3c 6e54 c73b ecf9 f5bb 08bb 493e
00000060: 9fda 0b3b d2ea 94be c1f8 06bf de4c 8cbf
00000070: b723 b53e 5605 09bf 3bc6 f3bb 6833 153c
00000080: 4b52 8cbc 6d17 86be 002e 5dbe d160 52be
00000090: 8059 19bc 6214 ddbb bc3e 31bc c793 073c
000000a0: d5b0 2c3c 2c27 273c 4ce4 39bf 0514 0d3e
000000b0: 4f50 38bb 2528 213c 12b9 8b3e 1ba2 ce3c
000000c0: e8b4 2abc 511d 8cbd 47dd 80bf a68a dd3b
000000d0: dbf8 bd3b 9ea1 d6be 9137 44bc 22e3 23bc
000000e0: b554 b4bb 881a 9fbe 73e7 09bc e8ea 6a3b
000000f0: 42cf b5be 6cdf 933e 31f3 49bc 2e2b 293a
00000100: d360 e7be f303 2ebc 628b 1f3c b522 40bc
00000110: 3981 f3bb de0a 39bb 61e8 cfbe d87b 98bf
00000120: 2637 e03e c98d 0cbc 354e ad3b 8f33 183c
00000130: 6d4e 92be 9564 813c 8419 40bc d5eb 4bbb
00000140: d87a 40bb 771b 2fbc f685 553e 95a2 c0b9
00000150: dd6d c93e 03ee 6a3c f374 03bb e659 88bd
00000160: b68f 85bf 339d 0f3c e9cb 42bc 7e4d 3f3c
00000170: 9d2f c9be 8c6b cd3e b303 873a 412a 02bf
00000180: 0f76 adbb c3ad 0a3b 682b b1bb e6ea 333c
00000190: b776 ddbe 93b1 2e3c 3759 73bd 380d afba
000001a0: 7ae6 aa3e 8bf1 893b e4b4 dcbb 1f72 93bb
000001b0: 0802 063c 54b8 a1ba 1f13 983a 9f58 1b3c
000001c0: 0df9 b03c 8fb9 febb dce1 e4bb c0d9 3dbc
000001d0: 2ed4 10bc 49e0 e13b 1c95 4a3c 468b c5bb
000001e0: 6523 433c 2832 63bf 3d7a 06bf 0e14 853b
000001f0: 47ee 333f c5b6 37bb 7dc4 5a3b 0908 243c

log_std.0.weight f4 [128, 5]
0.061334044 -0.0775888 -0.040333282 -0.004405071 0.017407794 -0.5429326 -0.70694035 0.45086247
0.49067426 0.19286792 0.7021953 1.4536505 0.36003244 1.0086651 0.35753766 -0.11747118
0.013920504 -0.08246015 0.31023082 -0.0032735097 0.08560707 0.6460228 -0.33109835 0.013126043
-0.0876116 0.018678503 0.005787252 0.07437614 0.14703652 0.00045779053 -0.041227516 -0.0064456435
0.12710252 0.2208503 -0.005908395 0.090377115 -0.11126431 -0.25106582 0.014615247 0.01531096
-0.07388429 0.17234868 0.15372348 0.16569245 -0.0019263928 0.4841132 0.17613426 0.4243636
0.2373414 -0.016895283 -0.020980917 -0.022920348 -0.26748022 0.20751204 0.005275709 0.07720122
-0.035790913 0.23840223 0.16000128 -0.0023400958 0.13531028 0.25357372 0.3627764 0.5076181
0.02883188 0.3783357 -0.15717395 0.27886644 -0.5370227 -0.006113739 0.19627616 0.07813753
-0.18652487 -0.14289843 -0.00076246756 0.25496274 0.02959925 0.28126872 0.06841321 -0.0022962517
-0.23573625 -0.57717997 0.46553442 -0.8796392 0.16235863 0.104090214 0.01243688 0.18622507
-0.13467948 0.01010029 0.12763251 0.012469912 0.031894986 -0.022556292 0.004279467 0.14321807
-0.14303824 -0.08138186 -0.1166168 0.013722304 0.10663897 -0.07594901 0.16708848 -0.12297714
0.01459003 0.25014144 -0.059251837 0.40408146 -0.045343988 -0.00040436568 0.14007935 0.066682644
0.2276583 -0.06715424 0.0072133592 -0.90942603 -1.4228066 0.5022899 0.46479195 0.37929523
-0.055539276 0.22782394 0.5536957 0.48364392 0.0025513628 -0.7308343 0.2591536 -0.19933188
-1.5995339 0.23312905 -0.057314854 -0.0181892 -0.16663145 -0.05937078 0.011336873 1.3874736
-0.07252092 0.6612025 1.5823449 0.1676776 0.09855296 0.0685955 0.25758034 0.2559473
-0.005102964 -0.32746762 0.008360844 -0.0317455 -0.026426522 0.006387897 0.17325284 1.6443976
0.64665097 -0.1178992 -0.08617794 0.22407766 0.09216578 0.25500277 0.6996925 0.008215939
-0.53770405 0.10091481 -0.030440884 -0.051092688 0.0054762335 0.764932 -0.045283128 0.84088373
1.1392298 0.46776414 -0.3506599 -0.011058031 -0.14261828 -0.1075831 0.00927603 -0.275052
-0.0029651118 0.18008801 -0.13095833 -0.0043901773 -0.060584128 -0.7578577 0.301072 0.32299554
-0.14113313 -0.079950765 0.06435059 0.32513207 -0.017979817 0.042588565 -0.320927 -0.3542006
0.7007873 0.60033196 0.0833971 -0.08546398 -0.08179309 0.16722813 -0.29811198 0.027180586
0.06918967 0.0013866847 0.015510554 0.039102294 0.0011855961 -0.5417657 0.074270524 0.75323087
-1.4694787 -0.26051673 0.19058335 -0.10387567 0.19018778 -0.1545218 0.006325362 -0.07604123
-0.23917024 -0.06846931 -0.34503067 0.00024115977 0.05524897 0.053814948 0.14611405 0.36774513
0.0061575095 -0.027421484 0.042840898 0.42522663 0.6142742 -0.0077808197 0.038566243 -0.21527502
-0.3907491 -1.1953835 0.20917454 -0.37473014 -0.064075865 0.14351527 -0.13091427 0.025364114
0.072766796 0.021843612 0.091234334 -0.2724015 0.004341511 -0.07396991 -0.83190155 0.3193188
-0.5866891 0.30638286 0.30675063 0.03583237 0.370351 -0.07598652 0.011437163 0.0029348107
00000000: 6839 7b3d e0e6 9ebd 8334 25bd 6a58 90bb
00000010: ca9a 8e3c a2fd 0abf 0bfa 34bf 72d7 e63e
00000020: a839 fb3e 2b7f 453e 12c3 333f 3811 ba3f
00000030: 2c56 b83e f01b 813f 2d0f b73e bb94 f0bd
00000040: d312 643c dee0 a8bd 93d6 9e3e 6188 56bb
00000050: c252 af3d c061 253f b985 a9be 9d0e 573c
00000060: b66d b3bd a903 993c fda2 bd3b 8552 983d
00000070: be90 163e 9b03 f039 2fde 28bd fa35 d3bb
00000080: 2a27 023e 9526 623e 369b c1bb a317 b93d
00000090: 8bde e3bd b38b 80be ca74 6f3c d2da 7a3c
000000a0: a650 97bd 2c7c 303e b069 1d3e 48ab 293e
000000b0: 047f fcba afdd f73e 8a5c 343e 3046 d93e
000000c0: a009 733e fa67 8abc 2ce0 abbc 74c3 bbbc
000000d0: 2bf3 88be 097e 543e dbdf ac3b ac1b 9e3d
000000e0: 7e99 12bd b71f 743e 60d7 233e 4b5c 19bb
000000f0: c78e 0a3e 6ad4 813e d4bd b93e 43f3 013f
00000100: d630 ec3c 38b5 c13e 35f2 20be 95c7 8e3e
00000110: 527a 09bf c355 c8bb 9efc 483e 9206 a03d
00000120: 6000 3fbe f753 12be 55e0 47ba 7a8a 823e
00000130: 207a f23c 7402 903e 3a1c 8c3d b67c 16bb
00000140: d864 71be 11c2 13bf 875a ee3e 0930 61bf
00000150: 5741 263e 402d d53d 0ec4 4b3c c9b1 3e3e
00000160: 6be9 09be b07b 253c 19b2 023e 9a4e 4c3c
00000170: 51a4 023d f9c7 b8bc c53a 8c3b c2a7 123e
00000180: 9e78 12be 88ab a6bd cad4 eebd 84d3 603c
00000190: 8865 da3d 288b 9bbd 3e19 2b3e 70db fbbd
000001a0: 050b 6f3c 8a12 803e 0eb2 72bd c4e3 ce3e
000001b0: 9eba 39bd 0b01 d4b9 f670 0f3e e990 883d
000001c0: 421f 693e 2a88 89bd 0b5e ec3b 25d0 68bf
000001d0: 871e b6bf 1296 003f 36f9 ed3e fc32 c23e
000001e0: 277d 63bd ae4a 693e 00bf 0d3f 2da0 f73e
000001f0: c434 273b f517 3bbf c8af 843e a81d 4cbe
00000200: 87bd ccbf 62b9 6e3e fbc2 6abd 8401 95bc
00000210: 6fa1 2abe c62e 73bd 4bbe 393c bc98 b13f
00000220: d985 94bd 9144 293f 478a ca3f adb3 2b3e
00000230: 22d6 c93d cc7b 8c3d 92e1 833e 860b 833e
00000240: c436 a7bb d6a9 a7be ecfb 083c 9207 02bd
00000250: 6f7c d8bc 9051 d13b 3169 313e 9f7b d23f
00000260: eb8a 253f 2375 f1bd 0f7e b0bd 9d74 653e
00000270: 6ac1 bc3d b98f 823e 0c1f 333f 259c 063c
00000280: f9a6 09bf 6dac ce3d 295f f9bc 9146 51bd
00000290: fa71 b33b 95d2 433f cd7a 39bd 2844 573f
000002a0: 48d2 913f c87e ef3e b289 b3be be2c 35bc
000002b0: 870a 12be 8754 dcbd 7dfa 173c 9ed3 8cbe
000002c0: 5252 42bb fe68 383e f119 06be 7adb 8fbb
000002d0: 1027 78bd f602 42bf 1c26 9a3e ac5f a53e
000002e0: 3485 10be 3abd a3bd 3eca 833d b677 a63e
000002f0: 694a 93bc 5971 2e3d 8b50 a4be c859 b5be
00000300: cc66 333f 5baf 193f 19cc aa3d bd07 afbd
00000310: 2383 a7bd da3d 2b3e 22a2 98be d2a9 de3c
00000320: 50b3 8d3d 6bc1 b53a fb1f 7e3c ba29 203d
00000330: 0166 9b3a 28b1 0abf 251b 983d bdd3 403f
00000340: e117 bcbf 7362 85be 4828 433e c4bc d4bd
00000350: 96c0 423e f63a 1ebe fb44 cf3b 81bb 9bbd
00000360: 0be9 74be a339 8cbd dca7 b0be d5df 7c39
00000370: be4c 623d 106d 5c3d ec9e 153e 1749 bc3e
00000380: efc4 c93b 05a3 e0bc f079 2f3d 4eb7 d93e
00000390: 1341 1d3f 3ff6 febb a3f7 1d3d 0e71 5cbe
000003a0: 4410 c8be 5402 99bf da31 563e a1dc bfbe
000003b0: 353a 83bd abf5 123e 640e 06be 67c8 cf3c
000003c0: c206 953d 60f1 b23c 11d9 ba3d 3678 8bbe
000003d0: 3c43 8e3b 897d 97bd 80f7 54bf c17d a33e
000003e0: 4231 16bf 37de 9c3e 6b0e 9d3e f7c4 123d
000003f0: a59e bd3e d29e 9bbd f062 3b3c f455 403b

log_std.0.bias f4 [128]
-0.4190422 -1.360651 0.15444897 -0.47981286 -1.1270092 -0.20395407 -0.40555754 -0.5478781
-0.7453719 -1.2252831 -0.4438035 -0.38930485 -1.134991 -1.217916 -0.56718713 -0.6546907
-1.6055005 -0.39124867 -0.1995999 -0.4944544 -0.5336945 -0.70224714 -0.53529406 -0.25757393
-1.4025887 -0.9389506 -0.36455047 -0.659068 -0.6641988 -0.58815825 -0.4504225 -1.0886332
-0.7399696 0.052395258 -0.61341155 -0.5496371 -0.7206955 -0.79454994 -1.3866864 -0.69921887
-0.14032695 -0.8075698 -0.5736333 -1.3127695 -0.5857794 -1.0047764 -0.7324457 -0.7408688
-0.40965456 -0.87741774 -0.7574131 -0.20009263 -0.49442387 -0.40471917 -0.48072964 -1.1874284
-0.21418476 -0.5529156 -0.7370018 -1.5853404 -0.62493193 -0.54481894 -0.7216369 -0.38702324
-0.43602046 0.16028164 -0.33785945 -0.6352113 -0.13417265 -0.8979523 -0.57126087 -0.4182509
-1.1641906 -0.6014962 -0.8266551 -0.44693542 -0.46924138 -0.7035344 -0.69864064 -0.68724364
-0.17837645 -0.416023 -0.79840666 -0.51617277 -0.5751674 -0.8339624 -1.1070908 -0.5905145
-1.3074265 -1.1041223 -1.2952157 -0.87650156 -1.01954 -0.50988436 -0.32615334 -0.65546924
-0.55822086 -0.74863744 -0.83983195 -0.86800504 -1.6856172 -0.14862877 -0.68417305 -0.7845775
-0.8069179 -0.517898 -0.49525076 -0.58474284 -0.9170568 -0.3608261 -0.45741484 -0.8149923
-0.65397924 -0.8161852 -0.88997966 -0.47141114 -0.6702405 -0.30444175 -0.23487319 -0.49279293
-1.3126822 -1.0060455 -0.7317383 -1.2723639 -0.96760774 -0.7379812 -1.2263033 -1.3096623
00000000: b38c d6be d029 aebf df27 1e3e 08aa f5be
00000010: d641 90bf 56d9 50be 3da5 cfbe bd41 0cbf
00000020: b1d0 3ebf 14d6 9cbf 363a e3be f752 c7be
00000030: 6347 91bf ace4 9bbf 2d33 11bf cf99 27bf
00000040: 0a81 cdbf bf51 c8be eb63 4cbe 2129 fdbe
00000050: 34a0 08bf 78c6 33bf 0809 09bf bbe0 83be
00000060: 0788 b3bf 115f 70bf 5ca6 babe aeb8 28bf
00000070: ef08 2abf 8a91 16bf c79d e6be 5558 8bbf
00000080: a66e 3dbf 699c 563d 8a08 1dbf 04b5 0cbf
00000090: 807f 38bf a067 4bbf f17e b1bf 0200 33bf
000000a0: deb1 0fbe e5bc 4ebf a2d9 12bf d508 a8bf
000000b0: a4f5 15bf 839c 80bf 9081 3bbf 94a9 3dbf
000000c0: 3ebe d1be 739e 60bf d3e5 41bf 15e5 4cbe
000000d0: 2025 fdbe 5a37 cfbe 3222 f6be a7fd 97bf
000000e0: 4053 5bbe e08b 0dbf 26ac 3cbf 6fec cabf
000000f0: 8afb 1fbf 4179 0bbf 32bd 38bf e927 c6be
00000100: 133e dfbe df20 243e eafb acbe 359d 22bf
00000110: 8e64 09be 34e0 65bf 273e 12bf fb24 d6be
00000120: 3304 95bf a8fb 19bf ab9f 53bf b8d4 e4be
00000130: 6840 f0be d51a 34bf 1dda 32bf 33ef 2fbf
00000140: 51a8 36be f700 d5be 6164 4cbf e623 04bf
00000150: 2c3e 13bf 8f7e 55bf 27b5 8dbf f52b 17bf
00000160: c059 a7bf e153 8dbf a1c9 a5bf 6862 60bf
00000170: 4980 82bf c887 02bf 92fd a6be d5cc 27bf
00000180: 90e7 0ebf b4a6 3fbf 3aff 56bf 9435 5ebf
00000190: 4ec2 d7bf 2432 18be f725 2fbf 12da 48bf
000001a0: 2c92 4ebf f794 04bf 8291 fdbe b5b1 15bf
000001b0: 3cc4 6abf 33be b8be 4732 eabe 56a3 50bf
000001c0: 2f6b 27bf 83f1 50bf b5d5 63bf cd5c f1be
000001d0: e294 2bbf cadf 9bbe 9982 70be 5b4f fcbe
000001e0: f805 a8bf 19c6 80bf 3453 3bbf d2dc a2bf
000001f0: 24b5 77bf 56ec 3cbf 82f7 9cbf 04a3 a7bf

log_std.2.weight f4 [1, 128]
-0.08325113 0.5266022 -0.37841874 0.007894232 -0.12116515 -0.003142044 -0.037576087 -0.0105905775
-0.0066532074 0.028384805 0.0035863034 -0.0059067924 -0.08087956 0.013142753 -0.014125239 -0.030041154
0.4594087 -0.028296819 -8.9896144e-05 -0.0070165424 -0.015692605 -0.016541647 -0.0067574633 0.29823476
0.009627642 0.17997943 -0.004986619 -0.5213281 -0.061548915 0.008459907 -0.23434527 -0.012559423
0.015932968 -0.31974277 -0.011125732 -0.0031259465 -0.09785054 -0.009654003 0.08516332 0.018742694
-0.00087913446 0.2352166 -0.01375166 0.015976338 -0.00570442 -0.018395467 0.15107171 -0.051394176
-0.008274698 -0.33578777 -0.021509869 -0.0145201115 -0.0291828 -0.011216496 -0.017082185 0.013281218
-0.004326199 -0.3483259 -0.002653164 0.23045717 0.69544715 -0.04483343 -0.33266976 -0.0030305148
-0.013474214 -0.13486083 -0.051641252 -0.30830872 -0.3925239 -0.37849617 0.08265511 0.0048900545
-0.26184845 -0.042148918 -0.08099688 -0.010449722 -0.013530706 -0.013871975 -0.0014630493 0.2026466
-0.011340607 -0.43825138 -0.010617071 -0.004114329 -0.04900039 0.011336424 -0.011784856 0.012294119
0.34017774 -0.014777278 -0.13346548 -0.35409537 -0.38189217 -0.04108439 0.0017476649 -0.039397903
-0.033492498 0.0058560385 0.13443309 0.26258183 0.11192856 -0.0005684076 0.05345846 -0.07906376
-0.0036947788 0.015693568 -0.004553574 0.20651701 -0.24187551 -0.0034248822 -0.017320655 -0.085210055
-0.00074554194 0.11440941 -0.19701232 -0.037500873 -0.17341451 -0.04313582 0.06515771 -0.01246579
0.3300348 -0.048428837 -0.41124088 -0.19988452 -0.042574808 0.5658089 -0.03982658 -0.042498816
00000000: 927f aabd 67cf 063f 1ac0 c1be cf56 013c
00000010: 6f25 f8bd c0ea 4dbb 62e9 19bd 1a84 2dbc
00000020: 2603 dabb 4087 e83c 3008 6b3b c48d c1bb
00000030: 2fa4 a5bd b454 573c 8c6d 67bc de18 f6bc
00000040: 9e37 eb3e bbce e7bc a086 bcb8 06eb e5bb
00000050: c78d 80bc 5982 87bc b66d ddbb 3ab2 983e
00000060: 42bd 1d3c 874c 383e cb66 a3bb c275 05bf
00000070: b71a 7cbd 6c9b 0a3c 35f8 6fbe 0ac6 4dbc
00000080: db85 823c 53b5 a3be b448 36bc aedc 4cbb
00000090: dd65 c8bd d32b 1ebc 1b6a ae3d 478a 993c
000000a0: b775 66ba 9fdc 703e a44e 61bc cfe0 823c
000000b0: 25ec babb 17b2 96bc 8bb2 1a3e b382 52bd
000000c0: 9992 07bc 60ec abbe 7735 b0bc c3e5 6dbc
000000d0: c410 efbc 65c5 37bc f0ef 8bbc 7799 593c
000000e0: cac2 8dbb c657 b2be b5e0 2dbb f7fc 6b3e
000000f0: d308 323f 42a3 37bd b153 aabe 9a9b 46bb
00000100: f3c2 5cbc f518 0abe c785 53bd a4da 9dbe
00000110: e5f8 c8be 40ca c1be 1547 a93d c03c a03b
00000120: 0011 86be 58a4 2cbd b1e1 a5bd 5035 2bbc
00000130: e5af 5dbc 4847 63bc cac3 bfba 9782 4f3e
00000140: f4cd 39bc 7c62 e0be 39f3 2dbc 7ed1 86bb
00000150: a2b4 48bd 69bc 393c 4515 41bc 466d 493c
00000160: c72b ae3e 651c 72bc 2dab 08be fd4b b5be
00000170: 5f87 c3be 1b48 28bd e711 e53a b25f 21bd
00000180: 6e2f 09bd 03e4 bf3b d4a8 093e 2071 863e
00000190: cd3a e53d 3001 15ba 42f7 5a3d 2eec a1bd
000001a0: 1a24 72bb cc8f 803c 2636 95bb 3279 533e
000001b0: 37ae 77be fd73 60bb 0ce4 8dbc 9c82 aebd
000001c0: 7970 43ba 7b4f ea3d 99bd 49be 849a 19bd
000001d0: 9393 31be 30af 30bd 6871 853d 503d 4cbc
000001e0: 52fa a83e 515d 46bd 2a8e d2be 87ae 4cbe
000001f0: ec62 2ebd dad8 103f 3221 23bd 3d13 2ebd
