data/hlt_stoch/InvertedPendulumBulletEnv/seed_413/model_final.pt (torch, 180560 bytes, 10 tensors)

log_std f4 [1, 5]
0	0xc09fb383	-4.990663
1	0xc016bfc0	-2.3554535
2	0xc096e8f1	-4.715935
3	0xc0962fba	-4.693326
4	0xbfde321c	-1.7359042

mu.0.weight f4 [200, 6]
0	0x3aea9bcc	0.0017899214
1	0x39f467f6	0.00046616764
2	0x3a8b9a64	0.001065087
3	0x3a3efb3e	0.0007285363
4	0x39447677	0.00018736148
5	0x3b0ef0b1	0.0021810944
6	0xbc17ebe9	-0.009272554
7	0xbb110c16	-0.0022132448
8	0xbc6dc81f	-0.014513045
9	0xbb90d339	-0.004419711
10	0xba97addd	-0.0011572201
11	0x3c09389d	0.008375314
12	0xbecfed28	-0.40610623
13	0x3f1bce7e	0.6086196
14	0x3e322a7c	0.17399019
15	0x3ebeffd8	0.37304568
16	0xbc2b7310	-0.010464445
17	0x3f78dd4c	0.9721267
18	0xbf3bb440	-0.73321915
19	0xbea4de77	-0.32200977
20	0x3ece2a45	0.40266624
21	0x3eaca39a	0.33718568
22	0x3d0d259a	0.034459688
23	0xbf914eb2	-1.1352141
24	0x3eeaa0c4	0.4582578
25	0x3e229988	0.1587888
26	0x3f8b18e9	1.0866977
27	0x3e558bb5	0.20854075
28	0x3c6d6f41	0.014491857
29	0xbb8ffa2b	-0.004393836
30	0x3e975d51	0.29563382
31	0xbe699aee	-0.22813007
32	0x3da4d987	0.080493025
33	0xbe94377a	-0.28948575
34	0xbab96f57	-0.0014147562
35	0x3d7c686e	0.06162303
36	0xbfab49f7	-1.3381947
37	0x3e060324	0.13087136
38	0x3e3db5d0	0.18526387
39	0xbe32714e	-0.17426035
40	0xbc3ab88d	-0.011396539
41	0x3f1be86e	0.60901535
42	0x3e52f12a	0.2059981
43	0x3e2c62e4	0.16834599
44	0xbf341d04	-0.70356774
45	0xbfc35020	-1.5258827
46	0xbe567d4b	-0.20946233
47	0x3eaa68ce	0.33283085
48	0x3a254586	0.000630461
49	0xb90fb540	-0.00013705064
50	0x396d0422	0.00022603621
51	0x3a230cb6	0.00062198506
52	0xb90e3c40	-0.0001356462
53	0x3a341d33	0.0006870806
54	0x3f5dcbad	0.8663891
55	0x3f4a66a3	0.7906286
56	0xbf20741b	-0.6267716
57	0xbeea6111	-0.4577718
58	0xbe7f1f9f	-0.24914406
59	0x3f207754	0.6268208
60	0xbd7ca5e9	-0.06168166
61	0x3d800ce8	0.06252462
62	0x3faa39c8	1.3298883
63	0xbf388a48	-0.72086
64	0xbf79ddf5	-0.97604305
65	0x3f65009a	0.8945404
66	0x3ff42088	1.9072428
67	0x3e876db4	0.26450884
68	0xbef27f74	-0.47362864
69	0x3e475e93	0.19469671
70	0x3d4f2721	0.050574426
71	0xbf22250b	-0.63337773
72	0xbecbc4fb	-0.39798722
73	0xbe2a8ec5	-0.16656025
74	0xbeaee9f4	-0.34162867
75	0xbf80398f	-1.0017565
76	0x3d85b0d5	0.06527869
77	0xbf342bc5	-0.70379287
78	0x3fa6d0c0	1.3032455
79	0xbd8d1da8	-0.06890422
80	0xbe25aa48	-0.16178238
81	0x3f0e674a	0.55626357
82	0xbe9ed55f	-0.31022164
83	0x3fb8a9c7	1.4426812
84	0x399ef1da	0.00030316302
85	0xb9d353d8	-0.00040307525
86	0x39c84e75	0.00038205428
87	0x3b32de74	0.0027293237
88	0xb986957b	-0.00025669843
89	0x3b292038	0.0025806557
90	0x39bcf765	0.00036042478
91	0x38e015d8	0.00010685221
92	0x395c6396	0.00021017934
93	0x39f5196c	0.00046748982
94	0x395329c3	0.00020138086
95	0x38c735b7	9.4990646e-05
96	0x39b807f4	0.0003510114
97	0xb9860a09	-0.00025565948
98	0xba409d33	-0.0007347643
99	0x3b2f202a	0.0026722052
100	0x3a46ab66	0.0007578641
101	0x3afdfd4b	0.0019377855
102	0x3aa3065a	0.0012437806
103	0x39c2b01b	0.00037133772
104	0x3a8528ac	0.0010159216
105	0xbb275759	-0.002553424
106	0xb9da1693	-0.0004159702
107	0xb969da78	-0.00022301998
108	0x3ae3cdc6	0.0017380051
109	0x38e7560b	0.00011030965
110	0xb9a4af8c	-0.0003141131
111	0x3a49a2da	0.0007691808
112	0xb946779a	-0.00018927307
113	0x3ab54c67	0.0013831974
114	0x3f920c51	1.1410009
115	0x3ee985c8	0.4560988
116	0x3ebb3439	0.3656328
117	0x3f80f41e	1.0074499
118	0xbd4fd5ef	-0.050741132
119	0x3ea01c56	0.3127162
120	0xb8e406ba	-0.0001087314
121	0xb8bb5491	-8.9326066e-05
122	0x346859c7	2.1639345e-07
123	0x394d5259	0.00019581
124	0xb8ea2010	-0.000111639616
125	0x38a3d8b4	7.81281e-05
126	0x3aa5f261	0.0012660736
127	0x3a93c1c2	0.0011272954
128	0x3a5c6eb7	0.0008408832
129	0xbb923846	-0.0044622747
130	0x398ea19b	0.00027204756
131	0xbac74c1b	-0.0015205176
132	0x39d31b37	0.00040265333
133	0x38a945f9	8.0715814e-05
134	0xba09c798	-0.0005255877
135	0x3a67c956	0.0008841952
136	0x399c044c	0.0002975784
137	0x39d55301	0.0004068837
138	0x3ea41e6c	0.3205446
139	0x3eeba4e8	0.4602425
140	0xbf15ce3e	-0.58517826
141	0xbf23a2a6	-0.63920057
142	0x3e24c9ac	0.16092557
143	0xbf183b0c	-0.594651
144	0x3a2c3415	0.000656904
145	0xb99c370b	-0.0002979565
146	0xbacbf04f	-0.0015559288
147	0xbb08a0d0	-0.0020847805
148	0xba74fcd2	-0.00093455345
149	0xbadb0ee5	-0.0016712813
150	0xbe4eba0e	-0.20188162
151	0x3e1cad85	0.15300567
152	0xbce6af6c	-0.02815982
153	0x3fa9d918	1.3269377
154	0x3e608ef5	0.21929534
155	0x3b33f997	0.0027462
156	0x38faf574	0.00011966648
157	0xb68a0463	-4.113231e-06
158	0xb93722a6	-0.00017465148
159	0xb9117ae3	-0.00013874056
160	0xb8b525f8	-8.637825e-05
161	0x38a351a1	7.78765e-05
162	0xbcce0874	-0.025150515
163	0xbcb2fe8f	-0.021849899
164	0x3c1aedda	0.009456122
165	0xbd450bd3	-0.04810698
166	0x3a3b6269	0.0007148148
167	0xb98db547	-0.00027028678
168	0xbb7445c2	-0.0037273024
169	0x3a1cbc1a	0.0005978957
170	0xba114858	-0.0005542091
171	0xbafbe80f	-0.0019218939
172	0x392cca2f	0.00016478518
173	0xbacdff38	-0.001571632
174	0x393b4cee	0.00017862368
175	0xb7dfe14b	-2.6688582e-05
176	0xb8f863fa	-0.000118441836
177	0x34eb9c61	4.3885942e-07
178	0xb84cde9a	-4.8844704e-05
179	0x38f06da3	0.00011464513
180	0x3d6d8c4c	0.057995126
181	0x3e101a2c	0.14072484
182	0x3fa0e64f	1.2570285
183	0xbf386a61	-0.7203732
184	0x3e675218	0.2258991
185	0x3da2d2cb	0.07950362
186	0xbd96b16e	-0.07358061
187	0xbc8c7ccf	-0.017149357
188	0x3e041cb1	0.1290157
189	0xbfe3f3ed	-1.7808815
190	0xbdee1771	-0.11625565
191	0x3e17ded0	0.1483109
192	0x39f5ca0a	0.00046880572
193	0x39762899	0.00023475512
194	0xba5bac36	-0.00083798484
195	0x3b574648	0.0032848287
196	0x3a95ad66	0.0011419475
197	0x3b6db8e8	0.0036273543
198	0x3e5ea260	0.21741629
199	0x3e87b503	0.26505288
200	0x3f958484	1.1681066
201	0xbf8fab28	-1.1224108
202	0x3db25bc3	0.087089084
203	0xbdfca7ac	-0.12336668
204	0x3eb0ebbc	0.3455485
205	0x3e099ef5	0.13439544
206	0x3f9b56ed	1.2135903
207	0xbf6e7f63	-0.93163127
208	0xbd255920	-0.0403682
209	0xbe2a973d	-0.16659255
210	0xb9f7eead	-0.0004728934
211	0xbaa5b11d	-0.0012641285
212	0x3b773104	0.0037718425
213	0x3c0a0b4f	0.008425548
214	0xb9f3f36b	-0.00046529932
215	0x3993783b	0.00028127604
216	0xb7d1510c	-2.4952482e-05
217	0xb89b66a3	-7.4100935e-05
218	0x3a72b147	0.0009257984
219	0xbb492e82	-0.0030697887
220	0xba6143c4	-0.0008593167
221	0xbb1674c0	-0.0022957772
222	0x3a9288c0	0.0011179671
223	0x3a806c2a	0.000979786
224	0x3a93ff00	0.0011291206
225	0xbbd3d93f	-0.0064651067
226	0x397d912c	0.00024182041
227	0xba3a1585	-0.00070985436
228	0x3a0ddf97	0.00054120406
229	0x3a02e62d	0.00049934053
230	0x3ad783c2	0.0016442465
231	0xbb38961c	-0.0028165644
232	0x3987fcdc	0.00025937601
233	0xb9a6f1de	-0.00031842192
234	0xbbc67016	-0.006055842
235	0xbb4f4159	-0.0031624644
236	0x3b533846	0.0032229587
237	0x3a85c987	0.0010207155
238	0xbb2caeb2	-0.0026349244
239	0xbbe963a9	-0.007122476
240	0x3eb5b2aa	0.35487872
241	0xbe4456d1	-0.19173743
242	0xbe5e9fcf	-0.2174065
243	0xbeb4d2f4	-0.35317194
244	0xbec56d3e	-0.38559908
245	0x3e9863ce	0.29763645
246	0xbe2faa3a	-0.1715478
247	0x3aeab1b2	0.001790574
248	0xbf8f5fa3	-1.1201061
249	0x3f136d19	0.57588345
250	0x3e0fa9fd	0.14029689
251	0x3c977772	0.018489573
252	0x3a402ea1	0.0007331167
253	0x3a4cfc00	0.00078195333
254	0x3a985e9f	0.0011624879
255	0xbbcd4d16	-0.006265293

mu.0.bias f4 [200]
0	0xba674c85	-0.0008823353
1	0x3bb04ec3	0.005380483
2	0x3eb65ff0	0.3562007
3	0xbe038dc8	-0.12847054
4	0xbf50f9a3	-0.81630915
5	0xbd8d86b0	-0.06910455
6	0x3d05ea40	0.0326941
7	0x3f20401e	0.62597835
8	0xb9843bbe	-0.00025221513
9	0x3efc860e	0.49321026
10	0x3fe58ec2	1.7934191
11	0xbec5409d	-0.3852586
12	0x3f068aab	0.5255534
13	0xbe83a612	-0.2571264
14	0xba383645	-0.000702713
15	0xb8cf713f	-9.891623e-05
16	0x394ad387	0.00019343021
17	0xb9f71630	-0.00047128042
18	0xb90228cb	-0.00012412963
19	0xbe9489e1	-0.29011443
20	0x38a1604e	7.6950164e-05
21	0xb91f2213	-0.00015176115
22	0x39363904	0.00017378113
23	0x3f1c690d	0.61097795
24	0x3a35d1a1	0.0006935839
25	0x3e4fab7d	0.20280261
26	0x3858a384	5.16507e-05
27	0x3a07ba77	0.0005177627
28	0x3a4e0b52	0.0007859963
29	0x374e446f	1.229449e-05
30	0x3f9e1114	1.2348962
31	0x3ef85c1a	0.48507768
32	0xb8884d9d	-6.499442e-05
33	0xbfa8f7cf	-1.3200625
34	0xbf982d23	-1.1888775
35	0xbb3f9d1b	-0.002923793
36	0x364fe25f	3.097717e-06
37	0x38a8b6a4	8.044884e-05
38	0xb9646118	-0.00021779945
39	0x39cbb658	0.00038855034
40	0xbe1b9525	-0.15193613
41	0xbeeda972	-0.4641834
42	0x39421bac	0.0001851159
43	0x3fb36d58	1.4017744
44	0xba48b11f	-0.00076557876
45	0xbbb1b92d	-0.005423686
46	0xb9c8a34c	-0.00038268638
47	0x3ba8946b	0.005144646
48	0x3a4d8c63	0.00078410486
49	0x3fc5fecc	1.5468383
50	0xb95ef564	-0.00021262985
51	0xba9a7e5b	-0.0011786924
52	0x401be68e	2.435947
53	0x3a33368d	0.0006836437
54	0x39e061b5	0.00042797407
55	0x393c3869	0.00017950092
56	0xb8e830af	-0.0001107169
57	0x3fa0ddd9	1.2567703
58	0x39def1e7	0.0004252337
59	0xb9a58dc2	-0.0003157687
60	0xbe582ca0	-0.21110773
61	0xb2199680	-8.939992e-09
62	0x3d348cda	0.04407964
63	0xba1b50da	-0.00059248286
64	0xbe50d642	-0.20394233
65	0x3dac6632	0.0841793
66	0xbae376da	-0.0017354146
67	0x3a585730	0.0008252738
68	0x3b807392	0.003920027
69	0x3eeb00f6	0.4589917
70	0x39d17894	0.00039953424
71	0x3e0e85ab	0.13918178
72	0xbe11f271	-0.1425264
73	0x3fa238ab	1.2673544
74	0x3fb4ad6c	1.4115424
75	0x387d55e6	6.03999e-05
76	0xbb8e723c	-0.004347114
77	0xbe7dec35	-0.24797137
78	0xbf769578	-0.9632182
79	0xbeac44d3	-0.3364626
80	0x3a366125	0.00069572247
81	0x39447b9c	0.00018738065
82	0x3ab8013c	0.0014038454
83	0xb3bc3ba5	-8.7652815e-08
84	0xbb986cc2	-0.004651637
85	0xba830f99	-0.0009999155
86	0xb8f2de9e	-0.00011580925
87	0x368a1753	4.115436e-06
88	0x39b8ee3a	0.00035272707
89	0xb94bb45f	-0.00019426782
90	0x3a5b37c7	0.00083624985
91	0x39153234	0.0001422845
92	0xc0045b26	-2.0680633
93	0x3ece78aa	0.40326434
94	0xbf089682	-0.53354657
95	0x3a586454	0.0008254696
96	0xbf729dc0	-0.9477196
97	0x3fa3a38f	1.2784289
98	0x3a2d664f	0.00066146714
99	0x353b9b3b	6.988882e-07
100	0xbead1ce1	-0.33811095
101	0x388aa7c5	6.611602e-05
102	0x37b66780	2.1744287e-05
103	0x38e1d858	0.00010769133
104	0xbf3224ae	-0.6958722
105	0x3c3365f4	0.0109496005
106	0xb8540007	-5.0544764e-05
107	0x3752aff4	1.2557943e-05
108	0xb96ab64d	-0.00022383891
109	0x3e6550b0	0.22394061
110	0x3a32fcc0	0.0006827824
111	0xb7e6ce6c	-2.751426e-05
112	0xbf04dc02	-0.51898205
113	0xbab88c94	-0.0014079981
114	0xba36f2ff	-0.0006978958
115	0x3e90e8e7	0.2830269
116	0x371bf987	9.296818e-06
117	0x3dabdc5d	0.0839164
118	0xbf91396d	-1.134565
119	0x39dbacd5	0.00041899705
120	0x3924884d	0.00015691035
121	0x386ac48e	5.5973003e-05
122	0x3b82a684	0.0039871354
123	0x3e3c8fcb	0.18414228
124	0x3e0468d6	0.12930617
125	0x3a853135	0.001016176
126	0x384ebf13	4.929218e-05
127	0x3a36ccc6	0.00069732626
128	0x3c808b55	0.015691439
129	0xbb8288b6	-0.0039835824
130	0xbf38080d	-0.71887285
131	0xbf1da7c9	-0.61584145
132	0x3aa0f498	0.0012279926
133	0xbdfaf49b	-0.12253686
134	0xba55c35e	-0.0008154417
135	0x39d4cf98	0.0004059046
136	0x3996f26c	0.00028790848
137	0x390b395f	0.00013277445
138	0xb8ff1e8a	-0.00012165036
139	0x39eab7d5	0.00044768924
140	0x3d97e86e	0.07417379
141	0x34bc900a	3.512253e-07
142	0x3aa74108	0.001276047
143	0x3e9a9876	0.30194443
144	0xbd4729bd	-0.04862379
145	0xb75cd388	-1.3162273e-05
146	0x3eeec51e	0.46634763
147	0xb91089ef	-0.00013784294
148	0xbae18810	-0.0017206687
149	0xbaa93405	-0.001290918
150	0x39598915	0.000207458
151	0xbee45485	-0.44595733
152	0x3843aada	4.665074e-05
153	0x3f8e1792	1.1100943
154	0xb873ebda	-5.815537e-05
155	0x36ca58ca	6.0304055e-06
156	0xb9994a0f	-0.00029237612
157	0x3a6c4b3d	0.0009013897
158	0xb92207a0	-0.00015452364
159	0x394ef3f5	0.00019736572
160	0x3998064f	0.000289964
161	0x3e01e0d6	0.12683424
162	0x3f8ee483	1.1163486
163	0x3df34149	0.118776865
164	0xba099dd3	-0.0005249653
165	0x37b34a74	2.1373133e-05
166	0x359dd38f	1.1758983e-06
167	0x36939fa0	4.399524e-06
168	0x39d94764	0.00041442655
169	0xbed89c79	-0.4230688
170	0x3aa45187	0.0012536504
171	0xbf64d777	-0.89391273
172	0xbf833e54	-1.0253396
173	0x3e0dbea4	0.13842255
174	0xbc93c143	-0.01803649
175	0xb9889ecb	-0.0002605825
176	0xba50bdd7	-0.00079628587
177	0xb986adee	-0.0002568806
178	0xb978cc35	-0.00023727196
179	0x3bfcc5cd	0.0077140094
180	0x3dc56eb7	0.09640258
181	0x3e00a3b0	0.12562442
182	0x3f6736cb	0.9031798
183	0x38d40b06	0.00010111001
184	0x3eb97f65	0.36230007
185	0x3f38544f	0.72003645
186	0xbf86f513	-1.0543541
187	0xb95f8a5f	-0.00021318485
188	0x3f5cdc5e	0.86273754
189	0x34be1dd7	3.541197e-07
190	0x3efb2144	0.49048817
191	0xb904c3e3	-0.00012661474
192	0xbe31627a	-0.17322722
193	0x30714d32	8.778499e-10
194	0xbe8e4385	-0.27785888
195	0xb96f0161	-0.0002279333
196	0xbf1ee19a	-0.6206299
197	0x3caa6388	0.020799413
198	0xbf87ace4	-1.0599637
199	0x37aee455	2.0848742e-05

mu.2.weight f4 [5, 200]
0	0x3a11e44b	0.00055653293
1	0x3b1026cf	0.0021995788
2	0xbc99bd90	-0.018767148
3	0xba1fe015	-0.00060987595
4	0xbb0b772f	-0.0021280756
5	0xbd8ef367	-0.06980019
6	0x3cf8aea0	0.030356705
7	0x3b1210b0	0.0022287779
8	0xb81a920b	-3.6852474e-05
9	0x3baba3ce	0.005238033
10	0x39b7d8c9	0.00035065998
11	0x3c9da2cb	0.019242665
12	0xbb8bccbc	-0.0042663496
13	0xbb7659aa	-0.0037590065
14	0xba138af1	-0.0005628309
15	0x39c8ab24	0.00038274482
16	0x39c884b1	0.00038245835
17	0x38b43c16	8.594261e-05
18	0x3853b247	5.0472354e-05
19	0x3bd443e7	0.006477821
20	0xb912b662	-0.00013991588
21	0x3a30a79c	0.0006738843
22	0xb886824f	-6.41389e-05
23	0x3b90ca26	0.004418629
24	0xbacc08ce	-0.0015566589
25	0x3b664115	0.0035134007
26	0xb91f97f0	-0.00015220023
27	0xbb000ccf	-0.0019538885
28	0xb909ab31	-0.00013129112
29	0xb8ef0550	-0.000113973976
30	0x3b9b4c59	0.004739326
31	0x3b4ac408	0.0030939598
32	0x39cae3d8	0.000386982
33	0x3a87e59a	0.0010368109
34	0xbb5108e8	-0.0031896178
35	0xb9bb79b0	-0.00035758084
36	0xb928c581	-0.00016095304
37	0x3a86bfcf	0.0010280552
38	0x3a8a792b	0.0010564675
39	0x39ad2489	0.00033024352
40	0xbac4ad0a	-0.0015005183
41	0xbb1e9e85	-0.0024203372
42	0x3a83e553	0.0010062851
43	0xbb2cb8c4	-0.0026355246
44	0x3aa2a91f	0.0012410021
45	0x3b9a42ee	0.0047076857
46	0x3aac6a54	0.0013154247
47	0xbd9b2d3b	-0.075769864
48	0x3aee79e4	0.0018194285
49	0xbb400c6c	-0.002930428
50	0x39cabab2	0.0003866754
51	0xba5486f0	-0.00081072655
52	0xbc2b0c1d	-0.0104399
53	0xb9bc9f58	-0.00035976875
54	0xb900da94	-0.00012288458
55	0x39799c26	0.0002380466
56	0x399c6606	0.00029830652
57	0x39931ce5	0.00028059553
58	0xba4656f8	-0.000756606
59	0xba9cd1a1	-0.001196433
60	0x3baf0b43	0.0053419187
61	0x32139791	8.590988e-09
62	0x3c40cbed	0.01176737
63	0x3a8fe4ce	0.0010978223
64	0xba545a02	-0.00081005704
65	0x3d4cc15f	0.0499891
66	0xb599e583	-1.1466185e-06
67	0x3b02a48c	0.0019934503
68	0xbbda1852	-0.0066557312
69	0x3bfc5e4c	0.0077016708
70	0xb9c1b63f	-0.00036947613
71	0xbb45345b	-0.003009102
72	0xbc8ea378	-0.017411932
73	0xbc02e972	-0.007990228
74	0x3a59954f	0.0008300142
75	0x3942edaf	0.00018589826
76	0x3c444657	0.011979661
77	0x3b801545	0.0039087855
78	0x3a5581b1	0.00081446307
79	0xbcc1ba4a	-0.0236484
80	0xba9cbc00	-0.0011957884
81	0x3a8bdf04	0.0010671322
82	0x3af53602	0.0018708112
83	0x33168f58	3.5054967e-08
84	0xbce59356	-0.028024357
85	0xba83420e	-0.0010014193
86	0x3a555b85	0.00081389426
87	0xb7a87781	-2.0082809e-05
88	0xba3c59ce	-0.0007185013
89	0xba55a5ab	-0.00081499916
90	0xbab25579	-0.0013605795
91	0xba506eec	-0.0007951099
92	0xb9b570f9	-0.0003460718
93	0x3b405db0	0.0029352717
94	0xbb3d0b96	-0.0028846017
95	0x3ac75efd	0.0015210804
96	0x3b33bb11	0.0027424733
97	0x3b056696	0.0020355335
98	0x3a9bfed0	0.0011901502
99	0xb50e2ad2	-5.2961434e-07
100	0x3c0f8491	0.008759634
101	0xb8982135	-7.25411e-05
102	0x39daf382	0.00041761628
103	0x37b048c9	2.1014728e-05
104	0x3b7c3e72	0.0038489369
105	0xbb5ae62a	-0.0033401349
106	0x38a8ffbd	8.058499e-05
107	0x37388306	1.0997761e-05
108	0xb8a0ad80	-7.6617114e-05
109	0x3a32845a	0.0006809883
110	0xbb5ab4e6	-0.0033371984
111	0x383f3501	4.5587312e-05
112	0x3a21a337	0.00061659835
113	0xbaeeda98	-0.0018223105
114	0x3a318394	0.0006771621
115	0x3d3ad201	0.04561043
116	0xb7abe86d	-2.049302e-05
117	0xbd8400a0	-0.06445432
118	0x3c069080	0.008213162
119	0x3a6975ad	0.00089057797
120	0x39c0a2fe	0.00036742532
121	0xb80c6914	-3.3476463e-05
122	0xbb8a9802	-0.0042295465
123	0x3a06dc1b	0.00051444926
124	0xbc2b4302	-0.010452988
125	0xbae403ec	-0.0017396188
126	0xb90f1bb5	-0.00013647864
127	0x3a5dd9eb	0.0008462953
128	0x3bcad158	0.0061895065
129	0x3afdc78f	0.0019361841
130	0x3c22516c	0.009907108
131	0x3c13a270	0.009010896
132	0xba368d0d	-0.0006963767
133	0x3b938bdd	0.004502757
134	0x3b00b886	0.0019641235
135	0x38a94880	8.072052e-05
136	0xb90f52b5	-0.00013668353
137	0xb93d7988	-0.00018069718
138	0xba1e8720	-0.0006047357
139	0x3718bc1f	9.103706e-06
140	0xbc5963db	-0.013268436
141	0xb466bcea	-2.1489146e-07
142	0xba5bdbfd	-0.0008386968
143	0x3ae0a0b1	0.0017137734
144	0xbba40f6f	-0.0050067226
145	0x39864dfe	0.0002561658
146	0xbac90434	-0.0015336336
147	0x3a0b7848	0.00053203525
148	0xbb5fc433	-0.0034144043
149	0x3ae026c1	0.0017101393
150	0x3871a095	5.760843e-05
151	0x3c65266f	0.013986214
152	0xba841524	-0.0010077101
153	0xbbe4b7d5	-0.0069799223
154	0x37cce3d8	2.4424793e-05
155	0x37783b63	1.4795779e-05
156	0x3a5b45a3	0.00083645637
157	0x3b30ca2f	0.002697598
158	0xb907a5bc	-0.00012936344
159	0x3aab2b63	0.0013059195
160	0x3a4bce5b	0.0007774585
161	0x3ac32202	0.0014887454
162	0xbc2e6db5	-0.010646273
163	0xbc911285	-0.017709026
164	0x3a27ed3b	0.00064058945
165	0xb715be35	-8.925378e-06
166	0x390ae8f8	0.00013247493
167	0x39223172	0.00015467944
168	0x3a41e89b	0.00073970266
169	0xb7e39f4f	-2.7134693e-05
170	0xbb59e114	-0.003324573
171	0x3b6ad214	0.0035830783
172	0xbbde4b49	-0.006783877
173	0x3cd1a989	0.025593536
174	0xbc946226	-0.018113207
175	0xb93bf09c	-0.00017923344
176	0xbae44eec	-0.001741854
177	0xb8b35b44	-8.552385e-05
178	0x3a923bc8	0.0011156732
179	0xbab9956f	-0.0014158915
180	0x3b9a6e89	0.004712884
181	0xbd05d65e	-0.03267514
182	0x3c145535	0.009053518
183	0xb9c1a2b7	-0.0003693306
184	0xbb296934	-0.002585006
185	0x3b8c7d56	0.004287402
186	0xbbf712ca	-0.0075400816
187	0xba03b432	-0.00050241046
188	0x3beb196d	0.007174662
189	0x34e3352b	4.232073e-07
190	0x3a33d2ed	0.00068597385
191	0xb85e01d9	-5.2930645e-05
192	0x3be5480a	0.006997113
193	0x2f0a9aa1	1.2605962e-10
194	0x3c140f14	0.009036798
195	0x3906dd8a	0.00012861766
196	0x3a82be13	0.000997486
197	0xbd2c52f4	-0.042071298
198	0x3beb2dad	0.007177076
199	0xba057016	-0.00050902495
200	0xb998ce15	-0.00029145242
201	0x3a9ca2c4	0.0011950363
202	0xbef96410	-0.48709154
203	0x3d182277	0.037142243
204	0xbea2ebcf	-0.31820533
205	0x3e261be0	0.16221571
206	0x3f276615	0.6539014
207	0x3d896217	0.06708162
208	0x3813eb7f	3.5266854e-05
209	0x3e21a1b4	0.15784341
210	0x3ac8d312	0.0015321693
211	0x3ec023e4	0.37527382
212	0xbdcd5c06	-0.10027318
213	0xbd29a28f	-0.041414794
214	0xbb51b376	-0.0031997836
215	0xba78c04e	-0.0009489105
216	0xba8e7b33	-0.0010870456
217	0x3b476f15	0.00304312
218	0x3ab5eec1	0.0013880358
219	0x3c588b68	0.013216831
220	0xb9a587d3	-0.0003157245
221	0x3b49d8bf	0.0030799357
222	0xb98cfc33	-0.00026890784
223	0x3e38e5b4	0.18056375
224	0x3b861222	0.004091517
225	0x3db17ae7	0.0866602
226	0x3a2b854f	0.0006542997
227	0x3e08caf0	0.13358665
228	0xb969453a	-0.000222464
229	0x3947347a	0.00018997668
230	0x3dc0901a	0.09402485
231	0x3e43b432	0.19111708
232	0xbb29a75a	-0.0025887103
233	0xbcb28455	-0.021791616
234	0xbe113744	-0.14181238
235	0xbbd3c04e	-0.0064621335
236	0x3b58074f	0.003296334
237	0x3bcd630f	0.006267912
238	0x3a8a89ca	0.0010569629
239	0xbaf56d95	-0.0018724675
240	0xbd25d6fd	-0.040488232
241	0xbd131fba	-0.03591893
242	0x3bbada45	0.0057022893
243	0xbd94dae9	-0.07268316
244	0xbb347c75	-0.0027540002
245	0x3b105d0d	0.002202812
246	0xba0dc939	-0.00054087077
247	0x3f0d75d7	0.55257934
248	0xb7d9cf17	-2.596485e-05
249	0xbd6bdf5f	-0.05758607
250	0xbb93fdf3	-0.004516357
251	0x3b83ddca	0.004024242
252	0xbe7183d9	-0.23585452
253	0x3b522c53	0.0032069876
254	0xbb1b34ab	-0.0023682516
255	0x39b518e2	0.0003454155

mu.2.bias f4 [5]
0	0x3c3726c2	0.011178674
1	0x3e16a5b3	0.14711647
2	0xbd5089b7	-0.050912585
3	0xbd0204e1	-0.031742934
4	0x3d495aa1	0.049158696

reward_fun.0.weight f4 [200, 6]
0	0xbdac3d0d	-0.08410082
1	0xbfb3aacb	-1.4036497
2	0x3f82ad17	1.0209073
3	0xbfc388c0	-1.5276108
4	0x3daf5315	0.085607685
5	0xc0076640	-2.1156158
6	0xbf35e874	-0.7105782
7	0xbe9b5f83	-0.30346307
8	0x3ded173c	0.11576697
9	0x3d8ac735	0.06776277
10	0xbe6209a8	-0.22073996
11	0x3eaecb6b	0.3413957
12	0x3e9c5073	0.30530128
13	0xbd1c63d1	-0.03818113
14	0x3effa3ef	0.4992976
15	0x3df78ca2	0.120873705
16	0xbd5c63af	-0.053806003
17	0xbc9ae8e8	-0.018909886
18	0xbe87e281	-0.26539996
19	0x3dadf83d	0.08494613
20	0xbf2d9461	-0.67804533
21	0xc071273e	-3.7680202
22	0xbefb1828	-0.49041867
23	0x3f0a4611	0.5401316
24	0xc039bbbe	-2.9020839
25	0xbef0900f	-0.46984908
26	0xbf78d7dd	-0.9720438
27	0xbe40e349	-0.18836702
28	0x3dc2c5df	0.09510397
29	0xbd20af5f	-0.039229747
30	0x404ae303	3.1701057
31	0xbf02a2e0	-0.5102978
32	0x3f7435ef	0.95394796
33	0x3f10c1c9	0.5654569
34	0x3ed836b6	0.4222924
35	0xbe13edea	-0.14446226
36	0x3fb5aa36	1.4192569
37	0x3e93a17c	0.2883414
38	0xbebb1a7e	-0.3654365
39	0xbf614677	-0.87998146
40	0xbc0c9c99	-0.008582258
41	0x3f2c12f3	0.67216414
42	0xbed9c051	-0.42529538
43	0xbf175791	-0.5911799
44	0x3f9b4875	1.2131487
45	0xc0784a25	-3.8795254
46	0xbee413cb	-0.4454635
47	0x3e5d9797	0.21639858
48	0x3fec2341	1.8448259
49	0xbd8bb6de	-0.068219885
50	0x3dfaa141	0.12237788
51	0x3f29b9cb	0.6629912
52	0x3dcfdb3e	0.10149239
53	0xbfc86686	-1.5656288
54	0xbeee33a8	-0.46523786
55	0xbe9c7327	-0.30556604
56	0x3f1d8dc5	0.6154445
57	0x402269fe	2.5377192
58	0x3e8136ef	0.25237224
59	0xbf657955	-0.89638263
60	0xbff89080	-1.9419098
61	0xbef67d9d	-0.4814271
62	0x3f9998fa	1.199981
63	0xbfbf662e	-1.4953058
64	0xbc917c3a	-0.017759431
65	0x3faac796	1.3342159
66	0xbfb9836c	-1.4493232
67	0xbf5d864b	-0.8653304
68	0xbd7ec349	-0.062197957
69	0xbea0a24e	-0.3137383
70	0x3d064839	0.03278372
71	0x3f4216f9	0.75816303
72	0x3e8372a1	0.25673392
73	0xbda805b2	-0.08204211
74	0xbfa69a92	-1.3015921
75	0xbe9c8289	-0.3056834
76	0x3e6e7069	0.23285069
77	0xbf7ae8ca	-0.9801146
78	0x3e14293c	0.14468855
79	0xbecba7ce	-0.39776462
80	0x3f1b2a2d	0.6061123
81	0xbe9dfba4	-0.3085605
82	0x3e2ae34a	0.16688266
83	0xc0002755	-2.0024006
84	0xbe98196f	-0.29706904
85	0xbeb68a98	-0.35652614
86	0x400ceae8	2.2018375
87	0xc0338c92	-2.8054547
88	0xbee40ae5	-0.44539562
89	0x3e8a12e7	0.26967546
90	0xbd2eb256	-0.042650543
91	0xbdade8e1	-0.08491684
92	0xbd29bc45	-0.041439313
93	0x3c824efd	0.015906805
94	0x3c1cd608	0.009572513
95	0x3a2100d4	0.0006141786
96	0xbe918221	-0.28419593
97	0xbe7133dd	-0.2355494
98	0xbec80a2b	-0.39070258
99	0x3eab3bb0	0.33443975
100	0x3cae0b91	0.02124575
101	0x3e5af1af	0.21381257
102	0xc0046302	-2.068543
103	0xbf679e69	-0.9047609
104	0xbf905fca	-1.1279233
105	0xbe65de29	-0.22448029
106	0x3e42ea76	0.19034752
107	0xbd8489ef	-0.06471621
108	0x3f1b3cc3	0.6063959
109	0x3e17d5d6	0.14827666
110	0x40003918	2.0034847
111	0xbf55a13d	-0.83449155
112	0xbeba6c02	-0.36410528
113	0x3f2df194	0.67946744
114	0xc01be98e	-2.43613
115	0xbf98ebde	-1.1946981
116	0x3f588530	0.8457823
117	0xbf35257c	-0.7076032
118	0xbe64e460	-0.22352743
119	0xbfaf237f	-1.3682708
120	0x3d0f7eb2	0.035032935
121	0xbdc2c896	-0.09510915
122	0x3cd22627	0.025652958
123	0x3d972372	0.073798075
124	0xbcd3596a	-0.025799472
125	0x3eb6aee3	0.35680303
126	0xbdef51ae	-0.11685501
127	0x3ea74379	0.32668665
128	0x400868ea	2.1314034
129	0xbfa2c0ba	-1.2715065
130	0xbf25e8e5	-0.64808494
131	0x3f5d14ad	0.86359674
132	0xbe7605b4	-0.24025613
133	0xbeb55232	-0.35414273
134	0x3c21695f	0.009851783
135	0x3e8317c9	0.25604084
136	0x3ccdc5f3	0.025118804
137	0x3cdc9957	0.026928587
138	0x3da9c348	0.082892
139	0x3d2da3ae	0.042392425
140	0x3e00bc18	0.12571752
141	0xbcab808e	-0.020935323
142	0xbc392b0d	-0.011301768
143	0x3e921ba0	0.285367
144	0x3e8d60ff	0.27613065
145	0xbeb0bd20	-0.3451929
146	0x3f31f36f	0.69512075
147	0xbf5ff558	-0.8748374
148	0xbe82d423	-0.25552472
149	0x400413db	2.063712
150	0xbda2600f	-0.07928478
151	0xbe6aff63	-0.22948985
152	0xbd8ca4f7	-0.06867402
153	0x3d8e0f06	0.06936459
154	0x3d5f01e0	0.054445148
155	0xbf157738	-0.5838504
156	0xc00864f2	-2.1311612
157	0xbed6ba78	-0.4193914
158	0xbeb1ac53	-0.34701785
159	0x3f494576	0.78621614
160	0x3c7a7644	0.015286986
161	0x3e5ffabf	0.21872996
162	0x3f678c97	0.904489
163	0x3e1ceef7	0.15325533
164	0x3f18b5c6	0.59652364
165	0xc02054b9	-2.505171
166	0xbde4e10c	-0.11175737
167	0x3d622b10	0.05521685
168	0xbdda33b7	-0.10654395
169	0x3dafb264	0.08578947
170	0xbe247baf	-0.16062807
171	0xbecb9f94	-0.39770186
172	0xba2949bb	-0.0006457825
173	0x3e9fcc65	0.31210628
174	0xbec8b416	-0.39199895
175	0xbdc310f1	-0.09524716
176	0xbe787036	-0.24261555
177	0x3d2300a3	0.03979553
178	0x3c0c53f7	0.008564941
179	0x3e3a6964	0.18204266
180	0x3ed3e707	0.41387197
181	0x3fd9a804	1.7004399
182	0x3f2fc26c	0.6865604
183	0xbf951002	-1.164551
184	0xbe9467e1	-0.28985503
185	0x3f5bd843	0.85876864
186	0x3f01fff5	0.50781184
187	0x3ecf25ba	0.4045847
188	0x400b7011	2.178715
189	0xbefaa271	-0.48952058
190	0xbf1bdf8d	-0.60887986
191	0xbde519f5	-0.111865915
192	0xbf8f23da	-1.1182816
193	0x3f8599c3	1.0437549
194	0x3fd0d3bd	1.6314617
195	0x3f18d8be	0.5970572
196	0x3e4582af	0.19288133
197	0xbeee43e5	-0.46536174
198	0xbe3a22a3	-0.18177275
199	0x3f452d86	0.7702259
200	0x3fb1cc00	1.3890381
201	0xbfe20400	-1.7657471
202	0x3b330092	0.0027313572
203	0xbeb71046	-0.35754603
204	0xbf676d7d	-0.9040144
205	0xbdad1448	-0.08451134
206	0x3f450b03	0.7696993
207	0x3fc1f93b	1.5154184
208	0xbe825682	-0.25456625
209	0x3f91eac1	1.1399766
210	0x3c87da91	0.016583713
211	0x3e26c924	0.16287667
212	0x401ab2ba	2.4171586
213	0xc00238bb	-2.0347126
214	0xbf0b91ba	-0.54519236
215	0x3e32c049	0.17456163
216	0x3f811eb9	1.0087501
217	0x3e6a93e0	0.22907972
218	0xbe5ff132	-0.21869352
219	0xbf80e2de	-1.0069234
220	0xbebecc34	-0.3726517
221	0x3fbf6259	1.4951888
222	0xbdcbc60b	-0.09949883
223	0xbe25dd5e	-0.16197726
224	0x3f87bb90	1.0604115
225	0x3e2de248	0.1698085
226	0x3dbb1942	0.09135677
227	0xbe8d1191	-0.27552465
228	0xbf051518	-0.5198531
229	0x3dcadb9a	0.09905167
230	0xbf57922b	-0.8420741
231	0x3eacc071	0.3374057
232	0xbd93dae2	-0.07219483
233	0x40310919	2.7661803
234	0xbf5d8e6f	-0.8654546
235	0xbd461bb6	-0.04836627
236	0x3ec8b572	0.39200932
237	0xbe60a796	-0.21938929
238	0x3dc7b54c	0.097513765
239	0x400ec5f3	2.2308319
240	0xbeb26686	-0.34843844
241	0xbc866e39	-0.01640998
242	0xbd9e525b	-0.07730552
243	0xbda5915a	-0.08084364
244	0x3b639dc6	0.0034731491
245	0x3f3e9d55	0.7445882
246	0xbd700c3f	-0.05860543
247	0xbca81758	-0.020518944
248	0x3f83dfbe	1.0302656
249	0x3e739c8f	0.23790191
250	0xbc7bd4fa	-0.015370602
251	0x3fc702d6	1.554774
252	0x3e6ad31f	0.22932099
253	0xbf1fad84	-0.6237414
254	0x3f35ea8a	0.71061003
255	0xbf7d0a91	-0.9884425

reward_fun.0.bias f4 [200]
0	0xc00e526d	-2.2237809
1	0xc0096a25	-2.1471035
2	0xbfc305ad	-1.5236107
3	0xbf1e6b27	-0.6188225
4	0xc01e877d	-2.4770195
5	0xbf687610	-0.9080515
6	0xbfdb1b90	-1.7117786
7	0xbfb14bec	-1.3851295
8	0xc021bf53	-2.5273025
9	0xbff81c1d	-1.938358
10	0x3eebf6ae	0.4608664
11	0xc0049316	-2.0714774
12	0xc003c682	-2.058991
13	0xbf7a7c53	-0.97845954
14	0xbffea073	-1.9892715
15	0xbe95aa18	-0.29231334
16	0xbfa18445	-1.261849
17	0xbfc9f5b5	-1.5778109
18	0xc01a1320	-2.4074173
19	0xbf9cff24	-1.2265363
20	0xbf815ecd	-1.0107056
21	0xbfce9db4	-1.6141877
22	0xbfadb868	-1.3571901
23	0xbf4b1092	-0.7932216
24	0xbc1ebcc7	-0.009688563
25	0xbfb04205	-1.3770148
26	0xc00715c2	-2.110703
27	0xbfb9861f	-1.4494056
28	0xbf6592b7	-0.89676994
29	0xbf4b1bfb	-0.7933957
30	0xc0076c41	-2.1159823
31	0xc047d5de	-3.1224284
32	0xbf588213	-0.8457348
33	0xbf93ffd2	-1.1562445
34	0xc003acb5	-2.0574162
35	0xbf65e236	-0.89798295
36	0xc000a8cc	-2.0103025
37	0xbfb1963c	-1.3873973
38	0xbf9a44e0	-1.2052269
39	0xbfd02e53	-1.6264137
40	0xbf96d02e	-1.1782281
41	0xbeda7b98	-0.4267242
42	0xbfca01a9	-1.5781757
43	0xbfe80632	-1.8126891
44	0xbfb3e0ad	-1.4052941
45	0xbe122685	-0.14272507
46	0xbf9d1c46	-1.2274253
47	0xc0207db0	-2.5076714
48	0xbf9007e3	-1.1252407
49	0xbfb0c720	-1.3810768
50	0xc0342e86	-2.8153396
51	0xc0087a98	-2.1324825
52	0xc0239bd3	-2.5563858
53	0xbf8dfaae	-1.1092126
54	0xbea5df9f	-0.32397172
55	0xbf94e92c	-1.1633658
56	0xc02a6e5e	-2.6629863
57	0xbf8e8a81	-1.1136018
58	0xbf8dfa7c	-1.1092067
59	0xc0332819	-2.7993224
60	0xbe8f889a	-0.28033906
61	0xbf8f020d	-1.1172501
62	0xbfc0d2f8	-1.5064383
63	0xbfe92810	-1.8215351
64	0xbfa9ccfe	-1.3265684
65	0xbf39a1c8	-0.72512484
66	0xbf518520	-0.8184376
67	0xbfa3d8bd	-1.2800518
68	0xbf9338c4	-1.1501698
69	0xbf1aa89c	-0.6041353
70	0xbfd9a1ef	-1.7002543
71	0xbff34e94	-1.9008355
72	0xc031212e	-2.7676501
73	0xc01038ec	-2.2534742
74	0xbfc0871b	-1.5041231
75	0xc00947c2	-2.1450047
76	0x3c7a1c2f	0.015265509
77	0xbfe0d2ea	-1.7564366
78	0xbf8146a3	-1.0099682
79	0xc0164c54	-2.3484087
80	0xbfb25b16	-1.3934047
81	0xbfa06b8c	-1.2532821
82	0xbfc4b66f	-1.5368174
83	0xbf829973	-1.0203079
84	0x3d1b0c57	0.037853565
85	0xbff3aa0e	-1.9036272
86	0xbfb2ac0e	-1.3958757
87	0xc029f7f0	-2.655758
88	0xc071589c	-3.7710333
89	0x3b84d009	0.00405312
90	0xbf70e8e2	-0.9410535
91	0x3e92a375	0.28640333
92	0xbfccc53b	-1.599769
93	0xc00e9612	-2.2279096
94	0xc01b46ef	-2.4262044
95	0xbfdca954	-1.7239175
96	0xbf8fc961	-1.1233331
97	0xc00fe40c	-2.2482939
98	0xbff85a4e	-1.9402559
99	0xbf83e2b0	-1.0303555
100	0xbf97e636	-1.186713
101	0xc02d8e83	-2.7118232
102	0xbf20b6e6	-0.6277908
103	0xbfff9c08	-1.9969492
104	0xbfc6d98a	-1.5535138
105	0xbfc129b6	-1.5090854
106	0xc0274254	-2.6134233
107	0xbf453e71	-0.77048403
108	0xbf9d74e0	-1.2301292
109	0xbf7fe3d1	-0.99956995
110	0xbf847340	-1.0347672
111	0xc0491e5b	-3.1424778
112	0xc00175cd	-2.022815
113	0xbf1a7030	-0.60327435
114	0xbfacbc59	-1.3494979
115	0xbff033b6	-1.8765781
116	0xc01135b1	-2.268902
117	0xbfb952a4	-1.4478345
118	0xc00b67f0	-2.1782188
119	0xbeaa0c3c	-0.3321246
120	0xbffd4ed0	-1.9789677
121	0xbfaec148	-1.3652735
122	0xbf291b49	-0.6605726
123	0xc018b1d4	-2.3858538
124	0xc049437d	-3.1447442
125	0xbf01ed73	-0.50752944
126	0xc026e616	-2.6077933
127	0xc0014227	-2.0196626
128	0xc027d108	-2.6221333
129	0xbee012b1	-0.4376426
130	0x3ec5e119	0.38648298
131	0xbf9eb94a	-1.2400296
132	0xbe8e660b	-0.27812228
133	0xbfcb8767	-1.5900697
134	0xbfcccf0e	-1.6000688
135	0xbf9839b5	-1.1892611
136	0xc006c023	-2.105477
137	0xbfb407dc	-1.4064898
138	0xbf724244	-0.94632363
139	0xbff97112	-1.9487631
140	0xbfd42245	-1.6572958
141	0xbfaf9451	-1.3717138
142	0xbfc33455	-1.5250345
143	0xbf61582e	-0.88025177
144	0xc042cd95	-3.0437977
145	0xbf41cd4d	-0.7570389
146	0xbf5e5951	-0.86855036
147	0xc02df179	-2.7178633
148	0xbfe789e9	-1.8088962
149	0xbf5637d6	-0.8367895
150	0xbf9cd7e7	-1.2253388
151	0xbef647d7	-0.48101684
152	0xbf06c7ed	-0.5264881
153	0xbf8f355c	-1.1188159
154	0xbfe6cf14	-1.8031945
155	0xbfcdb13a	-1.606971
156	0xc022234c	-2.5334044
157	0xc02b4f54	-2.6767168
158	0xc005c837	-2.0903451
159	0xbfa4786f	-1.2849253
160	0xbfddee53	-1.7338356
161	0xbfb335d6	-1.4000804
162	0xc01e71f4	-2.4757051
163	0xc00dd726	-2.2162566
164	0xbfda62e9	-1.7061435
165	0xbf7d34ed	-0.98908883
166	0xbf273db4	-0.65328526
167	0xbf5710d8	-0.84010077
168	0xbf797119	-0.974382
169	0xc0071496	-2.1106315
170	0xbf83ed77	-1.0306844
171	0xbfe940ae	-1.8222864
172	0xbf7469ad	-0.9547375
173	0xbff5a24e	-1.9190156
174	0xbe5474f3	-0.20747738
175	0xc03ae76e	-2.9203753
176	0xc034f7cb	-2.827624
177	0xbfe74a6b	-1.8069586
178	0xbf289d73	-0.6586525
179	0xbfee0abf	-1.859703
180	0xbf28558b	-0.6575553
181	0xbf75798c	-0.9588859
182	0xbf64289d	-0.8912447
183	0xbd62ed8a	-0.055402316
184	0xbf7f0a51	-0.99625117
185	0xbfdf19b6	-1.7429721
186	0xc00d1afd	-2.2047722
187	0xbfe5733d	-1.7925793
188	0xbffbe536	-1.9679325
189	0xc001e537	-2.0296152
190	0xbf800af4	-1.0003343
191	0xbefb62bd	-0.4909877
192	0xbf5d55a0	-0.8645878
193	0xbfc9692b	-1.573522
194	0xbf9f8414	-1.2462182
195	0xc02f123d	-2.7354882
196	0xbffc1be2	-1.9696009
197	0xbfc6e52f	-1.5538691
198	0xbfdd8576	-1.7306354
199	0xbfe3c844	-1.7795491

reward_fun.2.weight f4 [200, 200]
0	0xc0ac45fe	-5.383544
1	0xbf7f2a7a	-0.9967419
2	0xbd98237a	-0.074286416
3	0x3f218a1b	0.6310136
4	0xbf360c2e	-0.71112335
5	0x3dc08eea	0.09402259
6	0x3f529e67	0.8227295
7	0xbf53e69f	-0.82773775
8	0x3f7dd7a1	0.9915715
9	0x3e177084	0.14789015
10	0x3e06e056	0.13171515
11	0xbecc7e05	-0.39939895
12	0xbfb41b64	-1.4070859
13	0xbfcf63ab	-1.6202291
14	0x3d458006	0.048217796
15	0x3eb2ab86	0.34896487
16	0x3db9514a	0.09048708
17	0x3e4a3a98	0.19748914
18	0xbfd8bf92	-1.6933463
19	0xbfa8a32a	-1.3174794
20	0x3d7b6857	0.061378803
21	0x3e1cd51a	0.15315667
22	0xbec72454	-0.38894904
23	0xbe46012d	-0.19336386
24	0x3f4362ae	0.7632245
25	0x3e7ea20e	0.24866506
26	0x3f6ec06b	0.93262357
27	0xbf2a34ea	-0.6648699
28	0x3e30b58f	0.17256759
29	0x3e31172b	0.17293994
30	0x3f343e37	0.7040743
31	0xbf06c328	-0.52641535
32	0x3f024cb8	0.50898314
33	0x3e64e082	0.22351268
34	0x3ed287dc	0.41119277
35	0x3e66102e	0.2246711
36	0x3ecf031b	0.40432057
37	0x3eb71054	0.35754645
38	0x3e45c4f9	0.1931342
39	0xc0ad5a15	-5.4172463
40	0xbe562976	-0.20914254
41	0x3ddae6ff	0.1068859
42	0x403125e3	2.7679374
43	0xbeeedf50	-0.4665475
44	0xbe77b448	-0.24189866
45	0x3cf1e59b	0.02952843
46	0xc074f671	-3.8275416
47	0x3ff0b4cf	1.8805178
48	0xbf7b5d53	-0.98189276
49	0xbc88d916	-0.016705077
50	0xbf1e48a8	-0.61829615
51	0x3eb31e47	0.34984037
52	0x3ff01298	1.8755674
53	0x3cf116b0	0.029429764
54	0x3f1d08f4	0.61341786
55	0xbe34e2d8	-0.17664659
56	0xbf42dcea	-0.7611834
57	0xbf608d65	-0.8771575
58	0x3eccd9c8	0.40009904
59	0xbf598a66	-0.84976804
60	0x3ea8da07	0.32978842
61	0xbeaeeb2d	-0.341638
62	0xbf6d5494	-0.9270718
63	0x3f59d2fb	0.85087556
64	0xbf9ccc7a	-1.2249901
65	0xbf4bdbcf	-0.79632276
66	0xbd88a68e	-0.06672393
67	0xbdaf83b6	-0.08570044
68	0xbf91f77f	-1.1403655
69	0x3db76ac3	0.0895591
70	0xc05f1655	-3.485738
71	0xc038def9	-2.8886092
72	0xbf2068e1	-0.6266003
73	0xc05c00a5	-3.4375393
74	0xc09dbc08	-4.929203
75	0x3f3ea9ec	0.7447803
76	0x3f7c3403	0.98516864
77	0xbeac5adb	-0.33663067
78	0xbf744abb	-0.9542653
79	0xc02be941	-2.6861117
80	0xbedf24b6	-0.43582696
81	0xbc250555	-0.010072072
82	0xbf3c77df	-0.7362041
83	0xc022ae74	-2.5418978
84	0x3f9551c6	1.166558
85	0x3fb049ce	1.3772523
86	0xbe84839a	-0.25881654
87	0xbf882d74	-1.0638871
88	0x3e3ac9a4	0.18240982
89	0x3ee0d269	0.4391053
90	0xbe5a429e	-0.21314475
91	0x3ef556d6	0.47917813
92	0xbea0747d	-0.31338874
93	0xbf8451a6	-1.0337417
94	0xbf935a72	-1.1511977
95	0xbea13291	-0.31483892
96	0xbe80102e	-0.25012344
97	0xbf3cabca	-0.7369963
98	0xbf28e1a0	-0.65969276
99	0xbea57e2c	-0.32322824
100	0x3e028231	0.12744977
101	0xbfecd8e7	-1.8503693
102	0x3d84281b	0.06452962
103	0xbed1930d	-0.40932503
104	0xbf9dbc09	-1.2323009
105	0xbe47ce46	-0.19512281
106	0xbf884865	-1.0647093
107	0xbf3da2f9	-0.740768
108	0xbca24e06	-0.019812595
109	0xc0040d99	-2.06333
110	0xbdbc2d43	-0.091883205
111	0xbf4877b5	-0.7830766
112	0xbef95340	-0.48696327
113	0x3dfdaf04	0.12386897
114	0xbe83dfba	-0.25756627
115	0xbfa56d76	-1.292403
116	0xc0890b68	-4.2826424
117	0xbe85b815	-0.26117006
118	0xbe8644d0	-0.26224375
119	0x3e3c0abd	0.18363471
120	0xbff2a63c	-1.8956981
121	0xbf234be9	-0.63787705
122	0x3c5e414e	0.013565375
123	0xbd500d6a	-0.050794043
124	0xbfe5e478	-1.7960348
125	0x3d43d0bf	0.047806498
126	0xbee92f64	-0.4554397
127	0x3ff58acf	1.9182986
128	0xbfba2dc6	-1.4545219
129	0xbd5561ea	-0.05209533
130	0xbec0274b	-0.37529978
131	0xbcb7ef5b	-0.022453
132	0x3d485a84	0.048914447
133	0xbeb1ef85	-0.3475305
134	0xbe459406	-0.19294748
135	0xbe86c50a	-0.26322204
136	0x3f69f73a	0.9139286
137	0xbf50de28	-0.81588984
138	0xbe041c2f	-0.12901376
139	0xc0185231	-2.3800166
140	0xbf6d581f	-0.9271259
141	0xc0126d83	-2.287934
142	0xbf32d87e	-0.6986159
143	0xbf0d29ce	-0.55141914
144	0xbefcc054	-0.49365485
145	0x3d39ee58	0.045393318
146	0xbeb6b3ee	-0.3568415
147	0xc0059049	-2.0869315
148	0xbe5035f1	-0.20333077
149	0x3faffbba	1.3748696
150	0xbf77c214	-0.96780515
151	0x3d64762b	0.055776756
152	0xb9c9e14a	-0.0003850556
153	0xbf1ce3d0	-0.61285114
154	0xbfcc8d8c	-1.5980697
155	0x3ea619da	0.32441598
156	0x3f28a82f	0.6588163
157	0xbe9fa113	-0.31177577
158	0x3faac331	1.3340818
159	0xbf138ed0	-0.5763979
160	0xbfcba009	-1.5908214
161	0xc086ddda	-4.2145815
162	0xbfdd9e92	-1.7314017
163	0x3e9960f7	0.2995679
164	0xbf5565a6	-0.8335823
165	0x3f347622	0.70492756
166	0xbe1d0cf3	-0.15336971
167	0xbefeabf8	-0.49740577
168	0x3d0ee7d7	0.03488907
169	0xbc8c3dfd	-0.017119402
170	0xbd0d2b33	-0.034465026
171	0xc03086c7	-2.7582262
172	0xbd2850c5	-0.041092653
173	0xbf353743	-0.7078745
174	0x3e3fc675	0.18728049
175	0xbf1b274e	-0.6060685
176	0xbd770365	-0.06030597
177	0x3e54a1e7	0.20764886
178	0x3e125f53	0.14294176
179	0xbe55f7b7	-0.20895277
180	0x3f069eda	0.5258614
181	0xbea94e00	-0.33067322
182	0xbfe34da6	-1.7758071
183	0x3f1c6a70	0.6109991
184	0xbe0e6c0d	-0.13908406
185	0xbe81eb17	-0.25374672
186	0xbf20c7b2	-0.6280471
187	0xc07a2697	-3.9086053
188	0xbff475e1	-1.9098474
189	0xbc311efd	-0.010810611
190	0xbe050d45	-0.12993343
191	0xbd5696ef	-0.052390035
192	0x3f1b3d38	0.6064029
193	0xc0078687	-2.117586
194	0xbff3d6f9	-1.904998
195	0xbf10fe6a	-0.56638205
196	0x40412b14	3.0182543
197	0xbf97cd95	-1.1859614
198	0xbf090904	-0.5352938
199	0x3f2faf5c	0.6862695
200	0x3d5d9ce5	0.054104704
201	0xbe8d44a6	-0.27591437
202	0x3eb6d41a	0.35708696
203	0xbf12ecaa	-0.5739237
204	0xbef089ad	-0.46980038
205	0xbedbfa25	-0.42964283
206	0xbddb6241	-0.107121
207	0xbf548c7b	-0.83026856
208	0x3eb66e7e	0.35631174
209	0x3e7dfd71	0.24803711
210	0xbedec863	-0.43512258
211	0xbdce435f	-0.10071444
212	0x3db041db	0.08606311
213	0xbf6de1cf	-0.9292268
214	0xbf4be74f	-0.79649824
215	0xbd217c15	-0.039424974
216	0xbdf7a33c	-0.12091681
217	0xbeba3295	-0.36366716
218	0x3ccd7bae	0.02508339
219	0xbd83144b	-0.06400355
220	0x3dd3547b	0.10318848
221	0x3d140fda	0.03614793
222	0xbe8096fc	-0.25115192
223	0x3df0a2cd	0.11749802
224	0xbe5150e1	-0.20441009
225	0xbc90ade1	-0.017661037
226	0xbcb17881	-0.021663906
227	0xbf185f35	-0.59520274
228	0xbcd2b22c	-0.025719725
229	0xbdb43dd0	-0.08800852
230	0xbec40847	-0.38287565
231	0xbdd20072	-0.10253991
232	0xba55892f	-0.0008145747
233	0x3ebecb56	0.37264508
234	0xbf18ac02	-0.59637463
235	0xbedcac91	-0.43100408
236	0x3e3346b3	0.17507438
237	0x3dc078e6	0.093980595
238	0x3d4307ff	0.047615048
239	0x3e7f766d	0.2494752
240	0xbd10ef41	-0.03538442
241	0x3e522d1a	0.20525017
242	0xbec7ddd5	-0.39036432
243	0xbf1e4fe6	-0.61840665
244	0xbee2e035	-0.4431168
245	0xbec31723	-0.3810359
246	0xbcded9bd	-0.027203435
247	0xbdec8c50	-0.115502
248	0xbe8d8cfa	-0.2764662
249	0xbeb2e494	-0.34940016
250	0xbd0fa0e6	-0.035065554
251	0xbf3882a8	-0.72074366
252	0xbebecc8d	-0.37265435
253	0xbe3ccbc2	-0.18437102
254	0x3dee03e9	0.116218396
255	0xbddd104d	-0.10794125

reward_fun.2.bias f4 [200]
0	0x3ff55521	1.9166604
1	0xbd92810a	-0.071535185
2	0x3d07102f	0.03297442
3	0xbd848b1f	-0.06471848
4	0xbe5f6d55	-0.2181905
5	0x3d9560f0	0.0729388
6	0x3ada0afc	0.0016635354
7	0xbd54630a	-0.051852264
8	0xbd37267f	-0.044714447
9	0xbd8120b0	-0.06305063
10	0xbde78afc	-0.11305806
11	0x3f54b31f	0.8308582
12	0x3f4db4f4	0.8035424
13	0xbe2d1caa	-0.16905466
14	0xbdbf62ca	-0.093450144
15	0xbf500af0	-0.8126669
16	0xbccbc26d	-0.024872983
17	0xbe34d2c6	-0.17658529
18	0x3f709917	0.93983597
19	0xbe981145	-0.29700676
20	0x3f8406d7	1.0314587
21	0xbe1c297c	-0.152502
22	0xbdf38e00	-0.11892319
23	0xbe558902	-0.20853046
24	0x3fd5530f	1.6665972
25	0x3dc15f5b	0.09442016
26	0xbe9b497f	-0.3032951
27	0xbe20f9ee	-0.1572034
28	0xbe6c771a	-0.23092309
29	0xbd93562c	-0.0719417
30	0xbc8fdc07	-0.017560972
31	0xbe91ba0d	-0.28462258
32	0xbe1ef8e6	-0.15524635
33	0xbd954431	-0.07288397
34	0xbdb694aa	-0.08915074
35	0xbdad9734	-0.08476105
36	0xbdc68f98	-0.09695357
37	0xbeda9a3c	-0.42695796
38	0xbe0a390b	-0.13498323
39	0xbe22cce3	-0.1589847
40	0xbe5429b2	-0.2071903
41	0xbeb93468	-0.36172795
42	0xbeb76efb	-0.3582686
43	0xbc38bc0f	-0.011275305
44	0xbde9c791	-0.114150174
45	0xbe02c9f1	-0.12772347
46	0xbfb9e1a5	-1.4521986
47	0x3e35234c	0.17689246
48	0xbe4521ef	-0.19251226
49	0xbdd553a7	-0.10416346
50	0xbd90f36b	-0.07077678
51	0xbe020a9b	-0.12699358
52	0xbe73cb3a	-0.23807994
53	0xbe46ec44	-0.19426066
54	0x3dc4c267	0.09607392
55	0xbe51de42	-0.20494941
56	0x3e080cd7	0.13286148
57	0x3e2d15e0	0.16902876
58	0xbc6951d4	-0.014240701
59	0x3ccc0e5f	0.024909196
60	0x3fc342da	1.5254776
61	0x3f60355e	0.8758143
62	0xbe061bdb	-0.13096564
63	0x3ad0a78e	0.0015919076
64	0xbe089d79	-0.13341321
65	0xbd273aa0	-0.040827394
66	0xbee979d6	-0.45600766
67	0x3e869460	0.26285076
68	0x3f34c320	0.7061024
69	0xbe2b4211	-0.16724421
70	0xbeca10ae	-0.3946585
71	0x3fb2f1c9	1.3980037
72	0xbe86953c	-0.26285732
73	0xbdb77403	-0.08957674
74	0x3de27ca5	0.1105893
75	0xbe121443	-0.14265542
76	0xbf207e15	-0.62692386
77	0xbe4625e1	-0.19350387
78	0xbe8d7e74	-0.2763554
79	0xbd80d454	-0.062904984
80	0xbd19b3b9	-0.037524913
81	0xbd92d9aa	-0.071704224
82	0xbe3f2095	-0.18664773
83	0xbddced6c	-0.10787472
84	0xbe4eb0c1	-0.20184614
85	0xbe7061aa	-0.23474756
86	0xbdd3cf2a	-0.10342248
87	0x3e3c74c8	0.18403924
88	0x3f9871b0	1.1909695
89	0x3fa9eb9d	1.3275028
90	0xbed31d00	-0.41233063
91	0x3fc1d006	1.5141609
92	0x3e677e35	0.22606738
93	0xbcaaf338	-0.020867929
94	0xbd45d4ff	-0.048298832
95	0xbe38e611	-0.18056513
96	0xbf29e8ca	-0.6637083
97	0x400a836c	2.1642714
98	0xbd63e047	-0.05563381
99	0xbe4fc3f9	-0.20289601
100	0xbe526179	-0.20544995
101	0xbea3d6c0	-0.3199978
102	0xbeb19462	-0.3468352
103	0xbdb0540c	-0.08609781
104	0x3f819b72	1.0125563
105	0xbecacb51	-0.39608243
106	0xbddb0c48	-0.10695702
107	0x3fd86171	1.6904737
108	0xbe103083	-0.14081006
109	0x3f5bdd7a	0.8588482
110	0x3fbd3cc9	1.4784175
111	0xbea8ca50	-0.32966852
112	0xbd874b61	-0.06606174
113	0x3ca8f6f6	0.020625573
114	0xbed912b4	-0.42397082
115	0xbbdbdfd4	-0.006710032
116	0x3d24a23e	0.04019379
117	0xbd74fa8f	-0.059809264
118	0xbd33a36d	-0.043857027
119	0xbea204e1	-0.31644347
120	0xbd4f6549	-0.050633702
121	0xbf112eb5	-0.56711894
122	0xbe3a6ff3	-0.18206768
123	0xbe16ad84	-0.14714628
124	0x3e31d71e	0.17367217
125	0xbba4e11b	-0.0050317175
126	0xbe9c20fb	-0.30493912
127	0xbf7cf37f	-0.98809046
128	0xbe26e9d5	-0.16300137
129	0xbdb9160c	-0.09037408
130	0xbe9fbb94	-0.31197798
131	0xbd39fc37	-0.045406546
132	0x3c310258	0.010803781
133	0xbf0b8875	-0.5450509
134	0xbdefa81f	-0.117019884
135	0x3d979bfe	0.074028
136	0x3e8107e6	0.2520134
137	0x401b9c24	2.431405
138	0xbf2bf99b	-0.6717774
139	0xbed3639f	-0.41286942
140	0xbe290721	-0.16506626
141	0x3fa6f25b	1.3042711
142	0xbda5ff4c	-0.08105335
143	0xbf0e1b4f	-0.5551042
144	0xbdf9beb4	-0.12194577
145	0xbfc0f827	-1.507573
146	0xbdabd71c	-0.08390638
147	0xbdef6dd4	-0.1169087
148	0xbee16916	-0.44025487
149	0xbea770a9	-0.3270314
150	0xbe192d0e	-0.14958593
151	0x400813d4	2.1262102
152	0xbf01f72f	-0.507678
153	0xbe2f54d2	-0.171222
154	0x3e0fae11	0.14031245
155	0xbd4b63cc	-0.04965572
156	0xbed9b660	-0.42521954
157	0x3f6eb00c	0.93237376
158	0xbe8b4197	-0.2719848
159	0xbf95b750	-1.1696568
160	0xbd50d10c	-0.050980613
161	0xbe6c0678	-0.23049343
162	0xbece4190	-0.40284395
163	0x3dd1be80	0.10241413
164	0xbf0deda7	-0.55440754
165	0x3fbab061	1.4585077
166	0xbed02b04	-0.40657818
167	0xbe4ef2d3	-0.20209818
168	0xbed3b545	-0.41349235
169	0xbf84092d	-1.03153
170	0xbbc21f65	-0.0059241527
171	0x3e788782	0.24270442
172	0xbe187ccf	-0.1489136
173	0xbdba0305	-0.09082607
174	0x3caebe26	0.021330904
175	0xbf4ba5cd	-0.79549867
176	0xbee02e1b	-0.43785176
177	0xbdb33966	-0.08751182
178	0x3eaf6109	0.3425372
179	0xbe0020e8	-0.12512553
180	0x3c0bca58	0.008532129
181	0x400b3b58	2.175497
182	0xbf69be67	-0.91306156
183	0xbd3a4be4	-0.04548253
184	0xbe0f7f13	-0.14013319
185	0xbddfe52b	-0.10932382
186	0x3ffbd4b1	1.9674283
187	0xbf60981b	-0.87732095
188	0xbd88942a	-0.06668885
189	0xbc970d9f	-0.018439112
190	0xbd4484db	-0.047978263
191	0x3d2a0846	0.041511796
192	0xbd869648	-0.065716326
193	0x3f406023	0.75146693
194	0x3ed7bc36	0.4213578
195	0xbe3b4764	-0.18288952
196	0xbe2c817e	-0.16846272
197	0x3d031505	0.032002468
198	0x3de941aa	0.113894776
199	0xbd8f281d	-0.06990073

reward_fun.4.weight f4 [1, 200]
0	0xbf18c554	-0.596761
1	0xbc4c9c07	-0.012488372
2	0x3f21c1cd	0.6318634
3	0xbd7b3a4d	-0.061334897
4	0x3c8bf408	0.017084137
5	0xbc527047	-0.012844152
6	0xbbb9aca4	-0.0056663323
7	0x3daaec1e	0.08345817
8	0xbd05007d	-0.03247117
9	0xbd8daae4	-0.069173604
10	0x3ce4d9e6	0.027935933
11	0xbec293e5	-0.3800346
12	0xbf80b47d	-1.0055081
13	0x3dba809a	0.0910656
14	0xbb143fb4	-0.0022620978
15	0x3cde0576	0.027102213
16	0x3c8a82ce	0.016908076
17	0xbd62dade	-0.05538451
18	0x3ed533bf	0.41641042
19	0xbf967f03	-1.1757511
20	0xbf4e1caf	-0.8051252
21	0x3dd9f63f	0.10642671
22	0x3da0eef4	0.07858077
23	0x3c2c5892	0.010519164
24	0xbf491d6b	-0.78560513
25	0x3c27b59a	0.010236168
26	0xbc9087d8	-0.0176429
27	0x3cc45237	0.023964984
28	0xbc86300d	-0.016380334
29	0xbcb5aff6	-0.022178631
30	0xbc0f1e6b	-0.00873528
31	0xbc8e4e92	-0.01737145
32	0xbd03d45e	-0.03218495
33	0xbd8d4565	-0.068980016
34	0xbd97f1d1	-0.0741917
35	0xb9849092	-0.00025284715
36	0xbbbed7e5	-0.0058240765
37	0xbd4195d4	-0.047262028
38	0x3b8373a5	0.0040115886
39	0x3d3b8fb7	0.045791354
40	0xbc26091f	-0.010134011
41	0xbd81990e	-0.06328021
42	0xbda4124a	-0.08011301
43	0x3b9d60ab	0.0048027835
44	0x3e0dbd6b	0.13841788
45	0xbd4ac0cf	-0.049500283
46	0xbee469d4	-0.4461199
47	0xbe048437	-0.12941061
48	0x3ea42ab0	0.32063818
49	0xbd2fb7ec	-0.04290001
50	0xbd819e0c	-0.06328973
51	0x3dbf79cf	0.09349405
52	0xbd43f8fc	-0.047844872
53	0xbe49d177	-0.19708811
54	0xbf06b5ef	-0.5262136
55	0x3d7f824b	0.062380116
56	0x3f5db025	0.865969
57	0xbdcd1c61	-0.100151785
58	0x3d0e998f	0.034814414
59	0xbc885b2e	-0.01664504
60	0x3e48f9c9	0.19626535
61	0x3e862b59	0.26204947
62	0xbd07ff0a	-0.03320221
63	0x3dae4883	0.08509924
64	0x3d683f15	0.056700785
65	0xbd4bb842	-0.04973627
66	0xbdcc5888	-0.099778235
67	0xbeb999ff	-0.36250302
68	0x40135ae5	2.3024228
69	0x3d9f107d	0.07766817
70	0xbcbd33b2	-0.02309594
71	0xbf963e82	-1.1737826
72	0x3cb8d4f7	0.022562487
73	0x3a60bbc6	0.00085729023
74	0x3e9a274f	0.30108115
75	0xbd9ae78b	-0.075636946
76	0xbbaebb16	-0.005332361
77	0x3df79e5d	0.12090752
78	0x3e803946	0.25043696
79	0xbd87c7d7	-0.06629913
80	0x3da7b468	0.08188707
81	0xba666fc8	-0.00087904604
82	0x3d445025	0.047927994
83	0xbda85094	-0.08218494
84	0x3dcc5315	0.09976784
85	0x3dd22f5a	0.10262938
86	0x39cda3ee	0.00039222784
87	0x3eb28fc1	0.348753
88	0xbeee97c4	-0.46600163
89	0xbf7c5b53	-0.9857685
90	0x3c8dc902	0.017307762
91	0xbebeb320	-0.37246037
92	0xbf1f735f	-0.6228542
93	0x3d616ec1	0.055037264
94	0xbc31c92b	-0.010851185
95	0x3d514612	0.051092215
96	0x3ed26e28	0.41099668
97	0x3e2a605c	0.1663832
98	0xbd0b5d29	-0.03402439
99	0x3d5406d6	0.05176433
100	0x3c2647f1	0.010148988
101	0xbd3117a1	-0.043235425
102	0x382eafa2	4.1648404e-05
103	0x3c94928b	0.018136283
104	0x3ead8052	0.33886963
105	0xbd117ea0	-0.03552115
106	0xbd51526a	-0.051103987
107	0xbf101b6d	-0.5629185
108	0x3b13c808	0.0022549648
109	0x3ed3d907	0.41376516
110	0xbf0defd1	-0.55444056
111	0xbd1730c0	-0.036911726
112	0x3cdeaf9f	0.027183352
113	0x3ca02669	0.019549565
114	0x3d5ffdb9	0.05468533
115	0x3f470c75	0.7775338
116	0xbc920e6a	-0.017829139
117	0xbd12230f	-0.035677966
118	0x3d848e10	0.06472409
119	0xbf104789	-0.56359154
120	0x3d16f470	0.036854208
121	0xbea61af6	-0.32442445
122	0x3e462971	0.19351746
123	0xbd354944	-0.044259325
124	0xbf65d942	-0.89784634
125	0xbd7e89c7	-0.062143113
126	0x3ddf6050	0.10907042
127	0x3eff2b2d	0.49837628
128	0xbd810acf	-0.0630089
129	0x3c217bed	0.009856206
130	0xbed48ca3	-0.41513547
131	0x3d31b367	0.043383982
132	0x3d5192fc	0.051165566
133	0xbaa46f7b	-0.0012545431
134	0x3b21a6be	0.0024666036
135	0xbf13a046	-0.5766643
136	0x3d69b535	0.057057578
137	0xbeaabdd9	-0.33347967
138	0x3e347b95	0.17625268
139	0xbf3aa0bb	-0.72901505
140	0xbecd4beb	-0.40096983
141	0xbf4a4f5b	-0.79027337
142	0x3cd7e3a2	0.026353661
143	0xbd84c710	-0.06483281
144	0x3d6849ee	0.05671113
145	0xbe643052	-0.22284058
146	0xbf0ad1fa	-0.5422665
147	0x3db05526	0.08609991
148	0x3d1fbc3c	0.038997874
149	0x3c7e7503	0.015530827
150	0x3da60f4b	0.08108386
151	0xbe779e81	-0.24181558
152	0xbedc59f8	-0.4303739
153	0xbb8b133e	-0.004244237
154	0x3f29138c	0.6604545
155	0x3d957cad	0.07299171
156	0xbd658e35	-0.056043822
157	0xbdeaf459	-0.11472387
158	0x3df143f6	0.11780541
159	0xbc9b6770	-0.018970221
160	0x3d581e6a	0.05276338
161	0x3d9823f0	0.074287295
162	0xbd15d2a6	-0.036577843
163	0x3eb152c4	0.34633458
164	0x3eb3908d	0.3507122
165	0x3e100345	0.14063747
166	0xbf7d475d	-0.98937017
167	0xbc9c5ba6	-0.01908667
168	0x3f7a0eff	0.9767913
169	0x3db1f307	0.08688932
170	0xb97cf5c6	-0.0002412415
171	0x3eadf3cb	0.33975062
172	0x3da41089	0.08010966
173	0xbdb07adf	-0.08617186
174	0xbd808f8c	-0.062773794
175	0xbf01d344	-0.5071299
176	0xbed98f77	-0.42492267
177	0xbd93a68b	-0.072095
178	0xbf424de2	-0.7590009
179	0xbb8cdd55	-0.004298846
180	0x3cf7ac29	0.03023346
181	0xbf381127	-0.7190117
182	0xbf02f6c9	-0.51157814
183	0xbc8b58ca	-0.017010111
184	0x3c6e7547	0.014554328
185	0xbd9ab7d1	-0.075545914
186	0xbe8414fe	-0.25797266
187	0x3ea7365d	0.32658663
188	0xbd792d18	-0.06083402
189	0x3d9919ee	0.07475649
190	0x3b859e44	0.0040777046
191	0xbd542c93	-0.05180032
192	0xbd0193cd	-0.031635094
193	0x3f211339	0.62919956
194	0x3e5d477e	0.21609303
195	0xbb05004c	-0.0020294366
196	0x3d69bda6	0.05706563
197	0x3d59d8c0	0.053185225
198	0xbd06596b	-0.03280012
199	0x3cf07562	0.029352847
