data/hlt_deter/PendubotEnv/seed_113/policy_4000.pt (torch, 6415 bytes, 4 tensors)

mu.0.weight f4 [128, 6]
0	0x3db4f2f7	0.08835404
1	0xbe0c8aa3	-0.1372476
2	0x3e8bd119	0.27307966
3	0x3e9d81bd	0.30763045
4	0xbf11188d	-0.56678087
5	0xbe6a6086	-0.22888383
6	0x3ee5c8ba	0.44879705
7	0x3fe11b27	1.7586411
8	0x3ee9cb64	0.45662987
9	0xbdd7b6d2	-0.10532917
10	0x3e153295	0.14570077
11	0xbe43df39	-0.19128121
12	0xbd4fba4d	-0.05071478
13	0x3f14bd4e	0.58101356
14	0x3e791b98	0.24326932
15	0xbdfd5579	-0.12369818
16	0xbd9c4f72	-0.076323405
17	0xbe51e8cb	-0.2049896
18	0x3d863e02	0.06554796
19	0xbf6c7112	-0.9236003
20	0x3f032cd7	0.51240295
21	0x3f2283a0	0.63482094
22	0xbf106c8c	-0.5641563
23	0xbe450d53	-0.19243364
24	0xbdaf1adf	-0.08550047
25	0xbf58b24a	-0.8464705
26	0x3d832387	0.06403261
27	0x3e5fb6ff	0.21847151
28	0xbe917c92	-0.28415352
29	0xb9941817	-0.00028246708
30	0x3e8cbd89	0.27488354
31	0x3f6a82f0	0.91606045
32	0x3e2f7728	0.17135298
33	0xbe73e0ee	-0.23816273
34	0xbe0f4e79	-0.13994779
35	0x3d8ac3f9	0.0677566
36	0x3e20d413	0.157059
37	0xbe8f2fac	-0.27966058
38	0xbdb92f00	-0.09042168
39	0xbcbab5ef	-0.02279183
40	0x3df9ae94	0.12191501
41	0x3daaccde	0.083398566
42	0xbf24a09e	-0.6430758
43	0x3d9dd098	0.07705802
44	0x3f03a6bf	0.5142631
45	0x3dea3ea1	0.11437727
46	0xbedcf0cf	-0.43152472
47	0xbeaf96d8	-0.34294772
48	0x3d4dd20a	0.050249137
49	0xbfb60f61	-1.4223443
50	0x3d83b8b9	0.064317174
51	0xbd6f922d	-0.058489013
52	0x3e28cc0f	0.16484092
53	0x3ebe74d1	0.371985
54	0xbf3c016b	-0.73439664
55	0xbc9e8489	-0.019350307
56	0x3f00910f	0.5022134
57	0x3d8e6e38	0.06954616
58	0xbee7f1ff	-0.45301816
59	0xbec24b9d	-0.37948313
60	0xbdb2d597	-0.08732145
61	0xbf603525	-0.8758109
62	0x3ecad96f	0.39619014
63	0x3f7d1da1	0.98873335
64	0xbdfc3ea2	-0.12316634
65	0xbe4b4c3a	-0.19853297
66	0xbdc2a705	-0.09504513
67	0x3f8744dd	1.056789
68	0x3ed6c087	0.41943762
69	0xbf075aa8	-0.52872705
70	0x3eab10fe	0.33411402
71	0xbe56984e	-0.20956537
72	0xbed5b0e2	-0.41736513
73	0xbe69a5e6	-0.22817191
74	0xbe943b7d	-0.28951636
75	0xbf0694a2	-0.52570546
76	0xbd312bf2	-0.0432548
77	0xbe8ccd56	-0.2750041
78	0x3e0e6dd1	0.13909079
79	0x3f8bef37	1.0932378
80	0x3d01d59d	0.031697858
81	0xbf4dfa5d	-0.8046015
82	0xbddad9c9	-0.106860705
83	0x3e14c18a	0.14526954
84	0xbef1780a	-0.47161895
85	0xbf67a3b9	-0.90484196
86	0x3f3c3318	0.7351546
87	0xbf32c4cc	-0.6983154
88	0x3e92a04d	0.28637925
89	0xbd05c2b4	-0.032656386
90	0x3ea536f6	0.32268494
91	0x3f46f6da	0.77720416
92	0x3d85efe3	0.065398954
93	0xbd13da17	-0.03609666
94	0x3ed24e09	0.4107516
95	0xbe763335	-0.24042971
96	0x3ec5c580	0.38627243
97	0x3f38803c	0.7207067
98	0x3ea71d36	0.32639474
99	0x3f2ceb1c	0.6754625
100	0x3eee7cda	0.4657963
101	0x3ec56688	0.38554788
102	0xbd9ca798	-0.076491535
103	0xbf4c83a9	-0.798884
104	0x3f4828d5	0.78187305
105	0xbeaf5513	-0.34244594
106	0xbe7f55cf	-0.24935077
107	0xbe4bdb6d	-0.19907923
108	0x3f1d2fa2	0.61400807
109	0x3efa451b	0.48880848
110	0x3e3edd8b	0.186392
111	0xbe9f9510	-0.31168413
112	0xbe8e0fbf	-0.27746388
113	0xbda1ddac	-0.07903609
114	0x3f214be3	0.6300642
115	0xbe8cf44b	-0.2753013
116	0x3d2e3594	0.042531565
117	0xbf2aa469	-0.6665712
118	0xbe405bed	-0.18785067
119	0x3cc2cc3d	0.023779029
120	0x3e606513	0.21913557
121	0xbe8b8d32	-0.2725616
122	0xbe74ef84	-0.23919493
123	0xbe3dea61	-0.1854644
124	0x3ec1eced	0.37876073
125	0x3e9e8756	0.30962628
126	0x3ea4ffa9	0.32226303
127	0x3faf2f1e	1.3686254
128	0xbcb91d3a	-0.022596944
129	0xbf2674df	-0.6502208
130	0x3b526278	0.003210215
131	0xbd99d4dd	-0.075113036
132	0x3e906a6a	0.28206187
133	0xbf33d659	-0.70248944
134	0xbdf64e29	-0.120266266
135	0x3f09158b	0.53548497
136	0x3e2a7d47	0.16649352
137	0x3e2061f2	0.15662363
138	0xbcf77cfe	-0.030210968
139	0x3f1b88e6	0.60755765
140	0xbe89c45e	-0.2690763
141	0xbe180c9e	-0.14848563
142	0xbea11633	-0.3146225
143	0xbe283f00	-0.16430283
144	0xbd9d3efc	-0.07678029
145	0x3e4192d3	0.18903665
146	0xbebb0e11	-0.3653417
147	0xbeba2110	-0.3635335
148	0xbe6763db	-0.22596686
149	0xbed12780	-0.4085045
150	0xbf3f1c6a	-0.7465273
151	0x3f0dc8c6	0.5538448
152	0x3df06532	0.117380515
153	0x3f158352	0.58403504
154	0xbdd05ecc	-0.10174331
155	0xbe147522	-0.14497808
156	0xbc8d21cd	-0.017228032
157	0x3f23a1d7	0.63918823
158	0xbdb36bfe	-0.08760832
159	0x3f1b71e6	0.6072067
160	0xbe56b793	-0.20968466
161	0xbe4f780a	-0.20260635
162	0xbc303394	-0.010754485
163	0x3f4b4f58	0.79417944
164	0x3ed5246b	0.41629347
165	0xbe377cd1	-0.17918707
166	0x3e027586	0.12740144
167	0xbe318d1d	-0.17338987
168	0xbe82445c	-0.2544278
169	0xbfbf0d91	-1.4926015
170	0x3eedddac	0.46458185
171	0x3f2eedce	0.6833161
172	0xbe47b831	-0.19503857
173	0x3e03ab0d	0.1285822
174	0xbe3d16e4	-0.18465763
175	0x3ece0c77	0.40243885
176	0x3d810c8f	0.063012235
177	0x3ea6a062	0.32544237
178	0xbdf6aa14	-0.120441586
179	0xbde9b72a	-0.11411889
180	0xbeae9524	-0.3409816
181	0xbb7b3377	-0.0038330236
182	0x3dd0be16	0.10192506
183	0xbf22d86b	-0.6361148
184	0x3eafd4f2	0.34342152
185	0x3dc3af39	0.095549054
186	0x3d58a114	0.05288799
187	0x3d94c461	0.07264019
188	0x3ebb1cae	0.36545318
189	0xbedcb61d	-0.4310769
190	0x3f0125ab	0.504481
191	0x3e18cf6d	0.14922877
192	0xbe831f92	-0.25610024
193	0xbf1d0a23	-0.6134359
194	0xbecffb56	-0.40621442
195	0x3dae5c34	0.0851368
196	0xbc00d98a	-0.007864365
197	0x3e490f74	0.19634801
198	0x3e56715c	0.2094168
199	0xbf99a096	-1.2002132
200	0xbbf376d4	-0.007429937
201	0x3e7152a1	0.23566677
202	0xbea992ed	-0.33119908
203	0x3ea9685b	0.3308743
204	0x3d8efdd6	0.06982009
205	0xbf3ad9ef	-0.7298879
206	0x3eea7760	0.457942
207	0xbe7704c5	-0.24122913
208	0x3eced58b	0.40397295
209	0x3e880de5	0.265731
210	0xbe2b1fc6	-0.1671134
211	0x3fa69415	1.3013941
212	0xbe093e07	-0.13402568
213	0x3ce39667	0.027781678
214	0xbdc3c3f8	-0.095588624
215	0x3e80cb52	0.2515512
216	0x3eaf2849	0.34210423
217	0xbec9c396	-0.39407033
218	0x3eb5f509	0.3553851
219	0x3e2d8f21	0.1694913
220	0x3c5183c4	0.012787763
221	0x3e04e088	0.12976277
222	0xbf048d1e	-0.5177783
223	0xbedfff37	-0.437494
224	0x3f748b60	0.9552517
225	0xbf231208	-0.6369939
226	0xbc62dbe5	-0.013846372
227	0x3d904ddb	0.070461
228	0x3dfcadfc	0.123378724
229	0xbf0a3cf4	-0.5399926
230	0xbedd2f0d	-0.4319996
231	0x3e8133f9	0.25234964
232	0xbe734222	-0.23755696
233	0xbe0f70fb	-0.14007942
234	0x3e3f919e	0.18707892
235	0x3fa2e927	1.2727402
236	0x3eac795a	0.33686334
237	0xbe2beeb5	-0.16790278
238	0x3ea4d9fe	0.32197565
239	0x3e005bf5	0.12535079
240	0x3d7e4354	0.062075928
241	0xbf6785a8	-0.9043832
242	0x3ebeb4ed	0.3724741
243	0x3ea1a1ed	0.31568852
244	0xbeaed44c	-0.34146345
245	0xbd9dbb41	-0.077017315
246	0x3bbf1952	0.005831876
247	0x3f1b58e8	0.60682535
248	0x3edfd2a5	0.43715397
249	0xbeab3429	-0.33438233
250	0xbe07baac	-0.13254803
251	0xbea45bba	-0.32101232
252	0xbe8d793f	-0.27631566
253	0xbf7b529d	-0.9817293
254	0x3f0c3d4f	0.5478105
255	0xbe5a18b3	-0.21298485

mu.0.bias f4 [128]
0	0xbf4c1466	-0.79718626
1	0xbf2ee5cf	-0.6831941
2	0xbd9246c8	-0.07142407
3	0xbf4436e7	-0.76646274
4	0x3e36bb8b	0.1784498
5	0xbf28926d	-0.6584843
6	0xbe097910	-0.13425088
7	0xbf6b67db	-0.91955346
8	0xbea78796	-0.3272063
9	0xbf84fb0d	-1.0389115
10	0xbf0d0dea	-0.55099356
11	0xbdd66982	-0.10469343
12	0xbf0b5006	-0.5441898
13	0x3d129776	0.035788976
14	0x3d0fe257	0.035127964
15	0xbf13fbd6	-0.57806146
16	0xbecd8aa5	-0.4014484
17	0xbf4d46ab	-0.80185956
18	0xbe47b726	-0.1950346
19	0xbedb3b2b	-0.4281858
20	0x3f17056f	0.58992666
21	0xbf07e3f9	-0.53082234
22	0xbdb06507	-0.086130194
23	0xbf2b4631	-0.6690398
24	0xbe63e8db	-0.22256796
25	0xbe181117	-0.1485027
26	0xbef7fb2b	-0.48433813
27	0xbe8642fc	-0.2622298
28	0x3d4a58a2	0.049400933
29	0xbe9d75af	-0.30753848
30	0xbf315a40	-0.69278336
31	0xbf40ed99	-0.75362545
32	0x3f4577b6	0.7713579
33	0xbecd5c9d	-0.4010972
34	0xbf0b3736	-0.5438112
35	0xbe9433f5	-0.2894589
36	0xbf19dbdf	-0.6010112
37	0xbeccb094	-0.39978468
38	0x3ed9ff81	0.42577747
39	0xbecaa55d	-0.39579287
40	0xbf02e8da	-0.51136553
41	0xbe96756e	-0.29386467
42	0xbcf16941	-0.029469134
43	0x3ea2107e	0.31653208
44	0xbe1acb49	-0.1511661
45	0xbe58b4da	-0.2116274
46	0x3e34433e	0.17603776
47	0xbe150ba7	-0.14555226
48	0xbe84569f	-0.25847337
49	0xbf0fdd5c	-0.5619714
50	0x3e839a33	0.25703582
51	0x3f0dbb48	0.55363894
52	0xbf4a4977	-0.7901835
53	0xbf1424d7	-0.57868713
54	0x3e93aa3a	0.2884081
55	0xbe9661a8	-0.2937138
56	0xbe6fa5c5	-0.2340308
57	0x3ea37203	0.31922922
58	0xbd6d08f6	-0.057869874
59	0xbefdcafb	-0.49568924
60	0x3e2d6d04	0.16936117
61	0x3e236c12	0.15959194
62	0xbe062a0b	-0.13101976
63	0xbf0c6b8e	-0.54851615
64	0xbe9eb074	-0.30993998
65	0xbddd7121	-0.10812593
66	0xbe0f8c03	-0.14018254
67	0xbe98ce5e	-0.29844946
68	0xbe3b32dd	-0.18281122
69	0x3e6e9781	0.23299982
70	0x3ea029ad	0.31281796
71	0xbf25c44b	-0.64752644
72	0xbeb22212	-0.3479162
73	0x3d92c772	0.071669474
74	0xbf18fe62	-0.5976316
75	0xbf04e60c	-0.51913524
76	0xbe9b84fd	-0.303749
77	0xbe6112d5	-0.2197984
78	0xbd948399	-0.07251663
79	0xbed9ef74	-0.425655
80	0xbf15e876	-0.5855783
81	0xbed63080	-0.41833878
82	0x3deefa06	0.11668782
83	0xbf7f2489	-0.99665123
84	0x3d058b54	0.032603577
85	0xbe5a023e	-0.21289918
86	0xbeb2efc0	-0.3494854
87	0xbee39a66	-0.44453734
88	0xbf052cc1	-0.52021414
89	0xbea37970	-0.31928587
90	0xbf2c5d59	-0.6732994
91	0xbf58b1f3	-0.8464653
92	0xbf39a78f	-0.725213
93	0xbe3483e2	-0.17628434
94	0x3f0e3969	0.5555635
95	0xbf0ed642	-0.5579568
96	0xbf0ec0a2	-0.55762684
97	0xbf8f3fb1	-1.1191312
98	0xbec9ef60	-0.3944044
99	0xbf3bf6ee	-0.7342366
100	0xbf92bb56	-1.146342
101	0xbec49da6	-0.38401526
102	0xbf7eb704	-0.9949801
103	0xbe802794	-0.25030196
104	0xbf0e7af3	-0.55656356
105	0xbf14b872	-0.5809394
106	0xbd047f7b	-0.032348137
107	0xbe57aff2	-0.21063212
108	0xbec0d434	-0.37661898
109	0xbe05b7fd	-0.13058467
110	0xbe943bda	-0.28951913
111	0xbeefdbb6	-0.46847314
112	0xbeadb61b	-0.33927998
113	0x3e7e9582	0.2486172
114	0xbf56ee4e	-0.83957374
115	0xbeff8d28	-0.4991238
116	0xbd027127	-0.03184619
117	0xbf25be11	-0.64743143
118	0x3e1743fc	0.14772028
119	0xbe946aef	-0.28987834
120	0xbf0e738b	-0.55645055
121	0xbee3c58a	-0.44486648
122	0x3ee06c39	0.43832567
123	0xbf090a94	-0.53531766
124	0xbd030e51	-0.031996075
125	0xbe552126	-0.20813426
126	0xbf12a206	-0.5727848
127	0x3d7cd4be	0.061726324

mu.2.weight f4 [2, 128]
0	0xbef50172	-0.47852665
1	0xbf206255	-0.6265004
2	0xbdc32e16	-0.095302746
3	0xbf0e4043	-0.55566806
4	0x3e0b6bfc	0.13615412
5	0x3ea39131	0.3194671
6	0xbb9cd2d1	-0.0047858735
7	0x3f5d8484	0.8653033
8	0xbe5f685e	-0.21817157
9	0x3ed2c4bd	0.41165724
10	0xbe9083e9	-0.2822564
11	0xbe81ca7c	-0.25349796
12	0xbe025d04	-0.12730795
13	0xbe24835b	-0.16065733
14	0x3e6f70ca	0.2338287
15	0x3e3cef2d	0.18450613
16	0xbf227b0f	-0.6346902
17	0xbf0538a5	-0.5203956
18	0xbe224353	-0.15845995
19	0x3dac7bc6	0.084220454
20	0x3da465d4	0.08027235
21	0x3f0545de	0.52059734
22	0x3de2d8d1	0.11076511
23	0x3def818a	0.116946295
24	0xbe8aa113	-0.27076015
25	0x3e157440	0.14595127
26	0x3e85f977	0.2616689
27	0xbe033e60	-0.12816763
28	0x3e90d85f	0.28290078
29	0x3d9215b7	0.07133048
30	0x3e9b2594	0.30302107
31	0x3edba879	0.42901972
32	0x3e37820c	0.17920703
33	0xbec77cd5	-0.38962427
34	0xbe9db286	-0.30800265
35	0x3eb92960	0.3616438
36	0x3e3e4ae0	0.1858325
37	0xbe071924	-0.13193184
38	0x3e3ec7f3	0.18630962
39	0xbedba5ad	-0.42899838
40	0xbef9e753	-0.488093
41	0xbdf1ee46	-0.11813025
42	0x3e0b49bb	0.13602345
43	0xbdcab83b	-0.098984204
44	0xbe82317e	-0.25428385
45	0x3edb0258	0.42775226
46	0xbe2d5140	-0.16925526
47	0xbef81829	-0.48455933
48	0x3d875541	0.06608058
49	0x3e65ec46	0.22453412
50	0x3cf7d521	0.030252995
51	0x3e431d65	0.19054182
52	0x3e566e24	0.20940453
53	0x3e5567f0	0.2084043
54	0x3e89d84f	0.26922843
55	0x3e8ced66	0.2752487
56	0xbe1aa936	-0.15103611
57	0x3e3041a4	0.1721254
58	0x3e4c2b91	0.19938494
59	0xbe539632	-0.20662764
60	0x3e28074b	0.16409032
61	0xbd349d26	-0.04409518
62	0xbef248b1	-0.47321084
63	0xbe662684	-0.2247563
64	0xbe9cc5d7	-0.3061969
65	0xbe4f1861	-0.20224144
66	0x3dd42593	0.10358729
67	0xbebfb314	-0.37441313
68	0xbf131ab3	-0.57462615
69	0x3e319fea	0.17346159
70	0x3e1f2b60	0.1554389
71	0x3ea16f0e	0.3153004
72	0x3e6e7dc7	0.23290168
73	0x3e5190c5	0.20465381
74	0xbe8cbb86	-0.2748682
75	0xbdffaa49	-0.12483651
76	0x3e279a73	0.16367511
77	0x3f0609b2	0.52358544
78	0x3e84dd96	0.25950307
79	0xbeb1c600	-0.34721375
80	0x3efedbb2	0.4977699
81	0xbe82c98a	-0.25544387
82	0x3ca810a5	0.02051575
83	0x3f22b308	0.6355443
84	0xbdc23804	-0.094833404
85	0xbdfdda42	-0.12395145
86	0xbeda2db2	-0.42612988
87	0x3cb07d3d	0.021544093
88	0xbe54dbc4	-0.20786959
89	0x3ee215e2	0.4415732
90	0x3c93b78c	0.018031858
91	0x3f491cae	0.78559387
92	0xbe9ba0a6	-0.30396003
93	0xbe6cbcb4	-0.2311886
94	0x3dfd5bcb	0.12371024
95	0x3e8495a6	0.25895423
96	0xbdec7a3b	-0.11546751
97	0x3e41bff1	0.18920876
98	0x3de7a970	0.113116145
99	0xbe29b286	-0.16572008
100	0x3f056933	0.52113646
101	0xbf0ccd0e	-0.5500039
102	0x3efba38a	0.49148208
103	0xbe7b5ca5	-0.2454706
104	0x3daf3ec8	0.085568964
105	0xbdf86a48	-0.121296465
106	0xbb923ba2	-0.004462675
107	0xbe9bbe10	-0.30418444
108	0xbe37b82b	-0.17941348
109	0x3d9349fa	0.07191844
110	0x3e975697	0.2955825
111	0xbe0b81be	-0.13623711
112	0x3d2038da	0.039116718
113	0x3dd49abe	0.10381077
114	0xbe34d8bc	-0.17660803
115	0xbd4f94c0	-0.05067897
116	0xbe2ef909	-0.17087187
117	0x3e932154	0.28736365
118	0x3e22d538	0.15901649
119	0xbe670cec	-0.22563523
120	0x3e8b3a3e	0.27192873
121	0x3e9a9436	0.301912
122	0x3e19feaf	0.1503856
123	0x3eda2381	0.42605212
124	0x3eb95e63	0.36204824
125	0x3ea4d8f5	0.32196775
126	0x3e98baa8	0.29829907
127	0xbf2816b8	-0.65659666
128	0x3dd43c13	0.10363021
129	0x3de4dc80	0.111748695
130	0x3d592d8e	0.05302196
131	0xbc7fa313	-0.015602845
132	0xbce729dd	-0.028218204
133	0x3d19486d	0.037422586
134	0xbc1a26fd	-0.00940871
135	0xbd9f4418	-0.0777666
136	0x3db7db00	0.08977318
137	0xbc47dadf	-0.012198179
138	0x3c5ecf13	0.013599175
139	0xbdaf1450	-0.08548796
140	0xbd54f3ca	-0.051990308
141	0xbd30c5ae	-0.043157272
142	0xbccd465e	-0.025057968
143	0xbb3d3e02	-0.002887607
144	0xbd986262	-0.0744064
145	0x3d04368b	0.03227858
146	0xbda6bfa9	-0.08142025
147	0x3db5417c	0.08850381
148	0xbdedc703	-0.11610224
149	0x3bc36e27	0.005964059
150	0x3d77c483	0.060490143
151	0xbd2f3761	-0.042777423
152	0x3bc0cae8	0.0058835633
153	0xbe10a7e3	-0.14126544
154	0xbe41905c	-0.18902725
155	0x3bb1ff76	0.0054320646
156	0xbcd31694	-0.025767602
157	0xbd687c8b	-0.0567594
158	0x3e1e055f	0.15431736
159	0x3d23fb34	0.040034488
160	0xbd0b87cf	-0.034065064
161	0x3d6e34c1	0.05815578
162	0x3c72390e	0.014784111
163	0xbd72cce2	-0.059277423
164	0xbdf1e443	-0.118111156
165	0xbd9da2c9	-0.076970644
166	0xbd8ade6e	-0.06780706
167	0xbd9f360b	-0.0777398
168	0x3d024a07	0.03180888
169	0x3cc5f042	0.024162415
170	0x3d1d16ee	0.038351946
171	0xbdeaa469	-0.1145714
172	0x3cdf7177	0.027275784
173	0x3d2a5257	0.04158243
174	0xbde183d0	-0.11011469
175	0x3d0270fb	0.031846028
176	0x3bcd0271	0.0062563946
177	0xbd05c220	-0.032655835
178	0xbb825782	-0.003977717
179	0xbd81daa9	-0.06340534
180	0x3dac72fc	0.08420369
181	0x3d761250	0.060076058
182	0xbd466f59	-0.048446033
183	0x3d952378	0.07282156
184	0xbca4926d	-0.020089353
185	0xbcf95b2d	-0.030438984
186	0x3c78b12a	0.015178958
187	0xbd80ca5d	-0.06288598
188	0xbc560e24	-0.013064895
189	0xbc3dd78b	-0.011587034
190	0x3d49c72b	0.049262207
191	0x3e11436f	0.1418588
192	0x3b244bbe	0.002506956
193	0xbd871afc	-0.06596944
194	0xbc689b05	-0.014197116
195	0x3cc4c850	0.024021298
196	0x3c4b6bb0	0.012415811
197	0xbd8d3788	-0.06895357
198	0xbcda332e	-0.026635733
199	0x3cb1cefd	0.021705145
200	0x3d5d504b	0.05403165
201	0xbcd4f295	-0.025994578
202	0x3d800e7e	0.06252764
203	0xbcac7211	-0.021050485
204	0xbc4fa52b	-0.012673656
205	0xbd89dcf4	-0.067315966
206	0x3d6c7287	0.05772641
207	0x3d708e50	0.05872947
208	0xbd8a3d52	-0.06749977
209	0xbbef8cb9	-0.0073104766
210	0xbd7e67bd	-0.06211065
211	0x3da08395	0.07837597
212	0xbd6073cf	-0.054797944
213	0xbc9db8c5	-0.019253144
214	0x3d88f550	0.06687415
215	0x3d4c7fcf	0.049926575
216	0x3d98c5e2	0.07459618
217	0x3caad815	0.020854989
218	0x3d82e59d	0.063914515
219	0xbdeab4a5	-0.114602365
220	0x3d8dd44e	0.069252595
221	0x3d394d67	0.045239832
222	0xbd90c181	-0.07068158
223	0x3d61904c	0.055069253
224	0xbd891e63	-0.06695249
225	0x3c594830	0.01326184
226	0xbcc2fb4e	-0.023801472
227	0xbd881be0	-0.06645942
228	0x3dbbdff2	0.091735736
229	0x3daf87d2	0.085708275
230	0x3dd01b2e	0.10161434
231	0xbab0c05b	-0.0013485061
232	0x3d44b10b	0.048020404
233	0xbd7d69e0	-0.06186855
234	0xbe37cc9e	-0.17949149
235	0x3cd1af1e	0.025596198
236	0x3d5afcbf	0.053463694
237	0xbd148a62	-0.036264785
238	0xbd092c0c	-0.033489272
239	0xbdd86b8e	-0.105673894
240	0xbdbb03bf	-0.09131574
241	0x3d78770d	0.06066041
242	0x3c78fb57	0.015196643
243	0xbd02949b	-0.031880002
244	0x3d3cf1d3	0.04612906
245	0xbc1e76ff	-0.009671926
246	0xbb8286cb	-0.0039833537
247	0xbd52863c	-0.051397547
248	0x3e37ff47	0.17968474
249	0xbcf84256	-0.030305069
250	0xbd47361a	-0.04863558
251	0xbd7f29e9	-0.062295828
252	0x3c7828e1	0.015146465
253	0x3d034933	0.03205223
254	0x3c8fe5c8	0.017565623
255	0xbd46e66e	-0.0485596

mu.2.bias f4 [2]
0	0x3c9a70d7	0.018852634
1	0xbe78423f	-0.24244021
