data/mpc_stoch/PendubotEnv/seed_913/model_1000.pt (torch, 183047 bytes, 10 tensors)

log_std f4 [1, 6]
00000000: 1e30 0ac0 35e9 0dc0 3879 ccbf 837d c9bf
00000010: bdd9 04c0 0d8a bcbf
-2.1591868 -2.2173588 -1.5974493 -1.5741428 -2.0757897 -1.472963

mu.0.weight f4 [200, 7]
00000000: 74e2 9a3d b5e3 b4be 3677 e2be eaed bc3d
00000010: f61f 883e 464e ba3e d9b0 113d ce29 b6be
00000020: bffe 4ebf ed1b e5be f743 68bf 2751 fdbd
00000030: 351b c03e 4763 29be ed54 22bf e117 f7be
00000040: 6631 103f a937 153e befb 9f3e 9b5c f03d
00000050: 6c2d fabd c7d9 183f 3e4b d43e 450e aa3c
00000060: 8df2 fabd bed3 a03e e261 903d 7541 a03e
00000070: ade7 12be 58f4 173f 09a1 09bf 0783 bcbe
00000080: 7d77 743e 5fbd 79be 10e8 1fbe 1c30 12bf
00000090: 8ec6 223f 5c94 debe 4e93 e73e 704f 933e
000000a0: cfd0 7fbe e8d8 dabd 3b49 79bf 01c6 5abf
000000b0: 7099 05bf 1f17 8dbd 7281 d9be 81e6 883e
000000c0: b9c9 fbbd 912e eebe 25b5 1d3f e43c 933e
000000d0: 3645 c43d ca8f 573e 06e3 e93e 997c 8a3d
000000e0: 54fa fdbd d9d7 fe3e c944 d3be 2789 66bf
000000f0: 42e4 433e bf28 c33e 1b39 10bf 8a33 aa3e
00000100: 9a24 7c3f 3fc3 953e 5587 3a3f 9484 9f3e
00000110: c6c2 42be 5303 9cbd d1d7 6b3f 62f1 d3bd
00000120: 8ae9 af3e f29c 29bf 76b7 823e 762c 943e
00000130: ca09 87be f427 35bf 5fe6 233f a146 09bf
00000140: 142b 1f3d 8f85 0bbe be6d 18be 29fb 083e
00000150: 75a4 4bbe 449a 3d3f dc7c 82be 2d90 11be
00000160: 076a 1e3f b399 583e 43c9 66be 24d9 5bbb
00000170: 5e80 84bf 7dc1 a53e 9307 c8bd 0142 7bbe
00000180: 2074 bb3e 353f 943c a0b6 133f 5a86 e9be
00000190: 36f9 883d 2dbc 83bf e900 323e 7c92 973e
000001a0: 6428 a03d 6e8b 863e 27ae a9bf f975 94be
000001b0: be2d 993e 647b efbe d9c1 57bd 9f0d c0bd
000001c0: 9b06 273f 367f 5cbf e66b 23bf 3afa bcbe
000001d0: 55c7 84be 9030 f03e bcd3 c53e ccf6 973d
000001e0: 82aa ae3e 7cd2 0cbd a866 11bf 6da0 f2be
000001f0: 1f18 c1be 0e43 c83d f31c 4cbf ea6f 8bbe
00000200: e734 99be 89dd 9fbb 7249 b23e bddc 6bbd
00000210: 5873 0fbe 6e22 c43d 69d5 57bf 5b09 833e
00000220: c243 db3e e8d6 b43e a54a c7bb b451 49be
00000230: 7580 af3e 4a58 2e3f e018 3fbe aef4 873f
00000240: 4cde 673d 9508 0fbf 1156 a83b 2eaf 3abf
00000250: 69d7 9ebd 4006 343e 6bd9 82be 8803 fa3e
00000260: e45f 16be aebb a53c 0d21 4dbf 0245 a73e
00000270: 1465 08bf 96de b3be 97a4 efbd 2c7f 9fbd
00000280: a6a7 53b9 f25a 3fbf 8281 223f 53da 8fbe
00000290: 6e89 1bbf cd99 b8be a5ee 99be f18e a73d
000002a0: 54df 573e a021 a2bd 8028 52bf 2822 2abf
000002b0: 7451 85be d93d 05bf d6b1 8abd 0962 433f
000002c0: 807f 1dbf 0ca5 6cbe 930e 67bf 3cea b7bd
000002d0: 7592 043f 89b2 08bd 0e88 053d 5019 3c3f
000002e0: c3a4 7d3f 4333 62be 96fc 433e 395c 98be
000002f0: 69cb dbbd f2da 1fbf 4cf4 cd3d 5f9f 8d3e
00000300: b4bb fdbe 4ef8 1e3e 5e8e f4be 31e4 27be
00000310: f9b9 2ebf 5198 70bf cb4a 1dbf b5cc 57be
00000320: 9f6f c9be 4f55 1ebe ffcd dd3e 54fd d93c
00000330: 7a06 363f 35f1 1dbf 8584 5abf 7ab8 c43e
00000340: d2f8 4a3e b9e4 5f3e db13 3bbf d571 573e
00000350: eec7 a33e a28f 0b3e 8148 8cbe 949c 033d
00000360: c75e 33bf d83f 1bbe fa75 a23c ab61 063f
00000370: 0ca5 913d 71ac 85be 589a 053e 3765 b8be
00000380: c4f7 83be a8ba 5d3f 9a9f 47be 8662 333f
00000390: 382e c7bd 57ec 39be 7c02 a3bd b3de 3cbf
000003a0: f455 1b3e bdc1 8b3d 92a9 17be 700b 97be
000003b0: 5cf1 fd3c b422 56bd f890 a6be a889 103f
000003c0: 4826 62be 01a4 5dbe 35b7 e0be 8d3c 9cbd
000003d0: 6c4e 613e 54c8 41ba dfb4 6b3f b0d2 74be
000003e0: 0e65 223f 49cb 9cbe 1fc9 5cbe 8ec6 b03b
000003f0: db8d 0cbf dc87 823f 464a 673f 3b95 093d
0.07562724 -0.35329977 -0.44231576 0.09225066 0.26586884 0.36387843 0.035569046 -0.3557877
-0.8085746 -0.44747868 -0.90728706 -0.12368994 0.37520757 -0.16541778 -0.63410836 -0.48260406
0.56325376 0.14572014 0.31246752 0.11736413 -0.12215695 0.597073 0.41463655 0.020758757
-0.12253294 0.31411546 0.0704992 0.3129994 -0.1434619 0.59357214 -0.53761345 -0.36818716
0.23873706 -0.24388646 -0.15615869 -0.5710466 0.6358422 -0.43472564 0.45229572 0.28771544
-0.24981998 -0.10685903 -0.97377366 -0.8545838 -0.5218725 -0.068891756 -0.4248157 0.2673836
-0.12294335 -0.46519902 0.6160453 0.28757393 0.095835134 0.21050945 0.45681018 0.06762046
-0.12401262 0.49774054 -0.41263416 -0.9005303 0.19130042 0.38117024 -0.56337136 0.33242446
0.9849335 0.29250523 0.7286275 0.31155837 -0.19019613 -0.076178215 0.92126185 -0.103487745
0.34357864 -0.66255105 0.25530595 0.2894017 -0.26374656 -0.7076409 0.64023393 -0.53623396
0.038859442 -0.13625167 -0.14885613 0.1337706 -0.19886954 0.74063516 -0.25485885 -0.14215155
0.61880535 0.21152382 -0.22537713 -0.0033546174 -1.0351675 0.32374182 -0.0976707 -0.24536897
0.36612034 0.018096546 0.5770054 -0.45610315 0.06688158 -1.0291802 0.1738316 0.29603946
0.07820204 0.2627825 -1.3256272 -0.28996256 0.2991771 -0.46773827 -0.052675102 -0.09377598
0.65244454 -0.8613161 -0.63836515 -0.36909658 -0.25933328 0.4691205 0.38638103 0.0742012
0.34114462 -0.03438042 -0.56797266 -0.4738802 -0.37713715 0.09778415 -0.79731673 -0.2723382
-0.29923174 -0.004878704 0.3482166 -0.05758356 -0.14008844 0.095768794 -0.84310013 0.25593075
0.42825133 0.3532021 -0.0060818964 -0.19660074 0.34277692 0.6810347 -0.18661833 1.0621545
0.056608483 -0.5587247 0.005137213 -0.72923553 -0.0775593 0.17580509 -0.25556502 0.4883082
-0.14685017 0.020231094 -0.80128556 0.32669836 -0.5327923 -0.35130757 -0.11701315 -0.07787928
-0.00020184982 -0.74748147 0.63478863 -0.28096256 -0.60756576 -0.3605484 -0.30064884 0.08181561
0.21081287 -0.0791657 -0.8209305 -0.6645837 -0.26038706 -0.520475 -0.06772201 0.76321465
-0.61522675 -0.23109835 -0.90256613 -0.089802235 0.51785976 -0.03337339 0.032600455 0.73476124
0.9907953 -0.22089867 0.19139323 -0.2975786 -0.10732157 -0.6244346 0.100563616 0.27660653
-0.4955727 0.15524408 -0.47764868 -0.16395642 -0.6825252 -0.93982416 -0.6144225 -0.21074183
-0.39342973 -0.1546223 0.43321225 0.026610054 0.7110363 -0.6169618 -0.8535846 0.38421994
0.1982148 0.21864595 -0.7307717 0.21039517 0.31988472 0.1362901 -0.27399066 0.032131746
-0.70066494 -0.15161073 0.019831646 0.5249278 0.07111558 -0.26108125 0.13047159 -0.3601472
-0.25774968 0.8661294 -0.19494477 0.7007221 -0.097256124 -0.18156563 -0.07959458 -0.7377731
0.15169507 0.06824062 -0.1481078 -0.29500914 0.030998878 -0.05227919 -0.32532477 0.56460047
-0.22084916 -0.21644594 -0.43889776 -0.07628737 0.22002572 -0.0007392217 0.9207286 -0.23908496
0.6343545 -0.30623844 -0.21561097 0.0053947633 -0.54903954 1.0197711 0.9034771 0.033589583

mu.0.bias f4 [200]
00000000: 229d ecbe 9b3e 113f 4eef 043f 3df0 173f
00000010: fa81 dc3d 11cf 2dbf 716e 6e3e 7eaf a6bb
00000020: e828 1e3b 053a 653d 6fda d5be b0ef 31bf
00000030: 7836 e33e f407 c1be 6a1d d4ba 36d6 bb3e
00000040: 3ada 59be e57f 5fbf 5777 043f 8669 56bf
00000050: 2144 14bf bbee 29bf 9d5f 1d3f e58f 5c3d
00000060: cd92 02bf 55a8 56bf a60d 9fbe b5cd 2cbe
00000070: b9fc ae3e 107c bd3e 7c15 9b3d 4492 51bf
00000080: 3733 683e 0d3b 71bf f32c a1bf d05d 37bf
00000090: d1e8 e2be 7c43 003e ebf8 bdbf 8a0b 0c3f
000000a0: f148 d1be 46e4 593d 5ead 133f fc1a 063f
000000b0: a009 013f ab43 2dbe 8be8 15bf 6ab0 0bbf
000000c0: 94d4 ee3e a5ee 3f3f 20b9 a0bd a5df 6fbe
000000d0: 528c d5be e398 63bd b128 063f 3c10 d5bd
000000e0: 91a7 25bf 6d66 3abf f245 41be 1859 a8be
000000f0: 5e84 c2be c424 0ebf 1a1a 053f 314f 86be
00000100: 1b52 e1be a46d c0be ec69 c0be 9501 8dbe
00000110: ef9e 31be 3deb b83e d138 613e c521 f3be
00000120: 1602 ddbe ccee 2c3e ae44 4cbe d23c 9f3e
00000130: c383 15bf 331f 32bf 70ea 243f d425 24bd
00000140: 2e3a b9be f1e6 e23d 67f3 213f b04b 0dbf
00000150: c5ce 18bf b65b cb3e 3b43 3d3f 6713 333f
00000160: 1eac e23e 003a 00bf baaf a2be f928 1ebf
00000170: e0a1 41bf 4a53 11be af2c 57bf 2058 96be
00000180: e7ae 823f 6eac 11be 5e1f b2bd aefc 02bf
00000190: 7493 b2be 01c8 373f 75bb c4bd 1694 d03d
000001a0: cd1c debe 018f 5ebf 73cb 273f 4977 e2be
000001b0: 3259 47be 01fb 7c3f 755f 2c3e a8f4 67bf
000001c0: 1e39 59be e70b 9f3e 7c50 4ebf 7f32 afbe
000001d0: ed56 c8bd 3e17 98bd 17d9 3f3f 24b4 033c
000001e0: fd2f ff3e ffc4 48bd 3460 bebe aa28 00bf
000001f0: 18d4 013f 700a e7bc f520 52bd 0d99 2a3e
00000200: 554c a4be 11ef 93bd c9e8 4f3e 9b51 ddbe
00000210: 323c 85be b42f 843e c1f2 3c3e 52d2 e2be
00000220: b350 e1bd 3ee8 04be 4d55 aa3e b7f5 273f
00000230: 5f68 f7bc 4896 bcbe f15a c63e e36e 52bf
00000240: cb00 b73e d6bf 56bd 15b7 4cbe 828e 50bf
00000250: 90e1 85be 2d48 2fbf b0cd 103f 6b59 13bf
00000260: 0e58 ccbc 3cdb 43bf 5db7 87be d235 3fbf
00000270: ed05 57be 39c0 c2be 114c 3c3d ba6f 443f
00000280: c4ae 9fbd 0406 d6be 2a10 cfbe 72e7 ca3e
00000290: 310b c83e 9538 7cbe bfa4 10bf f505 cbbd
000002a0: 24b3 58be 0a05 103f 39a7 2abf 3a9a a43e
000002b0: 4e1f 8fbe 7282 59be 9015 8fbf c89f ab3e
000002c0: 0ac0 a4bd 921d 96be fb72 79be bfa0 54bc
000002d0: d0bb 1bbf b450 e7be d009 6dbe c636 34bf
000002e0: 24a1 763e 5e3c 853e 3c5e 9fbe dcb2 683d
000002f0: f81c cdbf 455c a93e 2576 283f 5c9f e1bd
00000300: e4ec 1dbe 00cb d0be c10d 74be 6506 3dbf
00000310: 8aa5 a33e aa4f 9a3d 54dd 5abb 3877 b83e
-0.46213633 0.56736153 0.5192765 0.5935095 0.107669786 -0.67894083 0.23284318 -0.0050868383
0.0024133269 0.055963535 -0.41768214 -0.6950636 0.44377494 -0.3770138 -0.0016183082 0.36686867
-0.21274653 -0.87304527 0.517446 -0.83754766 -0.57916456 -0.663799 0.6147402 0.053848166
-0.5100525 -0.83850604 -0.310651 -0.16875346 0.34177187 0.37008715 0.07572457 -0.8186381
0.22675787 -0.9423073 -1.2591842 -0.7162752 -0.4431825 0.12525743 -1.4841589 0.5470511
-0.40875962 0.053196214 0.5768641 0.52384925 0.5040531 -0.16920345 -0.5855796 -0.5456606
0.4664656 0.7497352 -0.0784781 -0.23425157 -0.41708618 -0.055565726 0.5240584 -0.10403487
-0.6470881 -0.7281254 -0.18874338 -0.32880473 -0.37991613 -0.5552485 0.5199295 -0.26232293
-0.44007954 -0.3758365 -0.37580812 -0.2754027 -0.17345785 0.36116973 0.2199433 -0.47486702
-0.43165654 0.16887969 -0.19948074 0.3110109 -0.5840418 -0.69578856 0.64420223 -0.04007514
-0.361772 0.11079205 0.6326203 -0.55193615 -0.59690505 0.39718407 0.7393071 0.6995148
0.4427194 -0.500885 -0.31774694 -0.6178127 -0.75637627 -0.14191929 -0.84052557 -0.2936411
1.0209626 -0.14225933 -0.08697389 -0.5116681 -0.34878123 0.71789557 -0.09606067 0.10184495
-0.43381348 -0.86936957 0.65544814 -0.44231632 -0.19467619 0.988205 0.16833289 -0.9060769
-0.21213195 0.31063768 -0.8059156 -0.34218213 -0.09782205 -0.07426308 0.7494063 0.008038554
0.498413 -0.049015995 -0.37182772 -0.5006205 0.50714254 -0.02820322 -0.05130096 0.16659947
-0.32089487 -0.07223333 0.20303644 -0.43226323 -0.26022488 0.25817645 0.18451978 -0.44301087
-0.1100172 -0.12979218 0.33268204 0.65609306 -0.030201135 -0.36833405 0.38741258 -0.8220045
0.35742792 -0.052429043 -0.19991715 -0.8146745 -0.26148653 -0.68469507 0.56563854 -0.57558316
-0.024944331 -0.765064 -0.26507083 -0.746915 -0.20998354 -0.3803728 0.04597098 0.7673298
-0.07797006 -0.41801465 -0.4044202 0.39629704 0.39071038 -0.2463096 -0.5650138 -0.099132456
-0.21162087 0.5625769 -0.6666141 0.32148916 -0.2795357 -0.21241167 -1.1178455 0.3352034
-0.08044441 -0.29319435 -0.24360268 -0.012977778 -0.60833454 -0.4517876 -0.23148274 -0.7039608
0.24084908 0.2602262 -0.31126583 0.0568112 -1.6024466 0.3307821 0.65805274 -0.110167235
-0.15422398 -0.40779877 -0.23833372 -0.7383788 0.31962234 0.07534726 -0.0033396082 0.36028457

mu.2.weight f4 [6, 200]
00000000: c393 12be 516b 3b3b 2813 e7bc 0faf b33e
00000010: ae27 35be b4b3 1f3e 1b1c bcbd 68a7 273e
00000020: 78d9 813c 252f 27be ef55 50be 03d7 2d3e
00000030: 1311 cebe 36ea 68be c55e 813e ac4d 8b3d
00000040: 0db6 94bd 1af9 c6be 9e8a 92be efb3 0cbd
00000050: 1794 323d 670f 803d a203 fb3e 5c85 89be
00000060: 3260 7c3d ad96 97bb aeef 1d3e 4b36 e2bd
00000070: 5d14 103d 836d a33d 9a8c c5bc 1a7d 51be
00000080: ba3e b7bd d373 c33e fb8a d3be 84e4 b8be
00000090: 50ce f4bd f77f 523d d210 b2be 90cb 543e
000000a0: e2d0 5a3e bdee 23bd af18 e0bd f4c4 81be
000000b0: 4f02 163e bae0 c33d ce99 ab3e 9c4b 673d
000000c0: 5628 30be b17b 66bd c009 8fbd e944 083e
000000d0: a7f7 673e 2e1d f6bd 7d40 7c3e b91a 453e
000000e0: 604a 333e 90f9 a63e 3b1f 23bf 7692 a3bc
000000f0: ae64 173d b177 81be ae24 91be 60ac 41bd
00000100: bb68 423e 9708 683c d9d7 243f 40be 54be
00000110: 832a 0ebe ebeb e63d a005 1c3d 2428 2c3d
00000120: b7c5 233d 2b00 22be fe74 593e bf74 ccbe
00000130: 8b15 363e 77fd a03d a94a 87be a90a d2bd
00000140: a13c 923e b924 b93d 9b35 f43c 573f 843e
00000150: b0f7 8dbe f861 0d3e 1b60 c93d 2cf1 55be
00000160: 9f5a 7dbd 17fa 5a3b 93e0 50bd e8a7 94be
00000170: 0442 943c c4e6 0fbe af18 ab3e a91e cabe
00000180: 5402 30bd bea5 f33c ef86 903c 8870 7b3a
00000190: 0e8c e7be 98cb 5b3e 0f19 8ebe 7ae1 a83e
000001a0: 6b4a 403e 8321 17bd 6818 32be 9811 b93e
000001b0: 724b c7be b7ba a33e 8452 d93d f802 743e
000001c0: b022 843e 4128 2ebc a27b 91be 27ca c33e
000001d0: f0a4 b1bd 2013 25be 6bde a43c 7ee2 253e
000001e0: 1c05 43be 7692 2a3d 7d28 f03e 8564 9e3d
000001f0: fe79 323e 0b08 03bf 0ace bf3e 0a52 32bd
00000200: f1dc 89bd 58ab 94bc c00c f43c d376 4d3d
00000210: 8261 973d e8b9 5d3e ca4a d23d fc6b 623e
00000220: baeb d23e 3efa 9bbd cffa 833e d157 593e
00000230: f2f5 173e 2410 62be 7cc1 983c 0eeb 86bd
00000240: bbf1 fbbe f8a9 3c3d 68e7 18be c281 d23e
00000250: 43db 47be 90fe 9f3e 071b f63d 2d17 e73d
00000260: 0402 973c 0b78 0e3f 450a 613e 15d6 b13e
00000270: 0ad7 14bd 63a6 2abe c672 96be 1994 393e
00000280: 798e 243d ba1b 9d3e 26f5 d83a 79a0 9e3d
00000290: dd7f 1e3e 69ee b33d 2d9f 3539 dfb2 dcbe
000002a0: 998f 793e 9b85 41be e493 253e 6310 173d
000002b0: 895a 86be a456 b33e 702e febd f52e aabd
000002c0: 9f81 39be ddda ecbd 664d acbc f6a3 f1bd
000002d0: 7811 12be ab2c b8bd 48dd b6bc ae62 babd
000002e0: d81b 54be 4a36 ea3e c5ff 023c e378 3ebd
000002f0: 2902 c3bf 0043 c4be 35c5 31be 078c 62be
00000300: f381 d7bc 3f61 703d 5548 e3bc c139 67bd
00000310: da07 c03d afb9 7a3e f5e8 10be b8da b23d
00000320: 4e14 1e3f b665 123e 1ac3 a73e c430 1ebe
00000330: 217f 22bd dbe2 8a3d 50bd 0e3e cf87 9bbe
00000340: 9bcf 0b3d f387 6c3d 090e 9fbe fe3a 5a3f
00000350: d7fd 7e3e d36b 083e 6742 0b3e 1ded 8ebe
00000360: ecfa dc3d e837 6dbd d398 25be 5cb0 c53e
00000370: 2a62 303d 601b 2f3d e278 febd ee2f 45be
00000380: 5f51 5e3e 063d 453d 24d9 983c 4b63 03be
00000390: aa43 6ebe 4a41 38bd 6183 c13c 15f1 5abe
000003a0: 6754 3d3e 2112 b0be a74b 16bf 47b8 07be
000003b0: 7102 873e af4d 693d c85d ea3e 004b 6cbe
000003c0: fd97 cebe 346b 0e3e 9f6d 913e 226d 033e
000003d0: 288d cb3c 9795 e03d eab5 243e 89a8 2ebc
000003e0: 0c9e 95bd d027 9abc b77d 9d3d ebac d0bd
000003f0: 99d3 42bc 0a3f e13e 2a7b ba3d 2430 043e
-0.14314179 0.00285979 -0.028207377 0.35094497 -0.17690918 0.15595895 -0.09185048 0.16372454
0.015850767 -0.16326578 -0.20345281 0.16976552 -0.40247402 -0.22745594 0.25267616 0.06801924
-0.07261286 -0.38861924 -0.28621382 -0.034351286 0.04359826 0.06252938 0.4902621 -0.26859558
0.061615176 -0.0046261162 0.15423462 -0.11045512 0.03517567 0.07979872 -0.024114896 -0.20457879
-0.08947511 0.38174304 -0.4131697 -0.36111844 -0.119534135 0.051391568 -0.34778458 0.20780778
0.21368745 -0.0400226 -0.10942208 -0.25345576 0.14649318 0.095643476 0.3351578 0.05646859
-0.17202887 -0.056270305 -0.069842815 0.13307537 0.22653066 -0.12017284 0.24633975 0.19248475
0.1750884 0.32612276 -0.6371953 -0.019967299 0.03696125 -0.2528663 -0.28348297 -0.04728353
0.18985264 0.014162204 0.6439186 -0.207757 -0.13883404 0.112754665 0.038091302 0.04203047
0.039983477 -0.15820377 0.21236035 -0.3993282 0.17781655 0.078608446 -0.2642415 -0.102559395
0.2856188 0.090402074 0.029810717 0.25829574 -0.27728033 0.13806903 0.09832784 -0.20892781
-0.061854 0.0033413225 -0.05099542 -0.29034352 0.018097885 -0.14052874 0.3341727 -0.39476517
-0.04297097 0.029742118 0.017642466 0.00095916586 -0.4522404 0.21464384 -0.27753493 0.32984525
0.18778388 -0.036897194 -0.17392123 0.36146235 -0.38924748 0.3197839 0.10611442 0.23829257
0.25807714 -0.0106297145 -0.28414637 0.38240167 -0.086740375 -0.16120577 0.020125588 0.16199681
-0.19044918 0.041643582 0.4690589 0.07734016 0.17429349 -0.5118415 0.37461883 -0.04353527
-0.06731594 -0.01814811 0.029791236 0.050162148 0.07391645 0.21652949 0.10268171 0.22111505
0.4119547 -0.07616089 0.2577729 0.21224906 0.14839914 -0.2207647 0.018646948 -0.06587802
-0.49207863 0.046060532 -0.14932024 0.41114622 -0.19517235 0.31248903 0.12016874 0.11283717
0.018433578 0.5565192 0.21976574 0.34733644 -0.03633789 -0.16665034 -0.2938444 0.18122901
0.040174935 0.30685216 0.0016552552 0.077454515 0.15478463 0.087857075 0.00017320803 -0.43105218
0.24371184 -0.18898623 0.16169697 0.036880862 -0.26240948 0.3502704 -0.12411201 -0.083097376
-0.18115853 -0.11565182 -0.021033 -0.11798851 -0.14264476 -0.08992895 -0.022322312 -0.09100853
-0.20713747 0.45744544 0.0079955505 -0.046502005 -1.5235034 -0.38332367 -0.17360385 -0.22123729
-0.026307082 0.05868649 -0.027744452 -0.056451563 0.093764976 0.24484895 -0.14151366 0.087331235
0.6174973 0.14296612 0.32766038 -0.1544829 -0.03967202 0.067815505 0.13939404 -0.3037705
0.034133535 0.05774684 -0.31065395 0.85246265 0.2490152 0.13322382 0.13599549 -0.27915278
0.10790047 -0.057914644 -0.16171579 0.38611114 0.043062367 0.042750716 -0.124254 -0.19256565
0.21710728 0.0481539 0.018658228 -0.12830846 -0.23268 -0.04498414 0.023622217 -0.21381028
0.18489228 -0.3438883 -0.58709186 -0.1325389 0.2636905 0.05695885 0.45774674 -0.23075485
-0.40350333 0.13908082 0.28403947 0.128346 0.024847582 0.10966032 0.1608502 -0.010660299
-0.07305536 -0.018817812 0.07689994 -0.101892315 -0.011891269 0.43993407 0.09105523 0.12908989

mu.2.bias f4 [6]
00000000: 27a8 4abd 6a70 f73c 03f3 873d b022 b03d
00000010: 6966 233e 4e86 0ebd
-0.04947677 0.03020497 0.06638148 0.08600366 0.15957035 -0.03479605

reward_fun.0.weight f4 [200, 7]
00000000: 20f8 c53e 3754 1c3d e604 103e fc62 353e
00000010: 9e17 173d c58a 1cbe cc51 9d3e 192a a03e
00000020: ff96 09bf 1c72 603d f424 093c 2f5d aabd
00000030: 95c7 553c c457 493f e592 9e3d 110f 61be
00000040: 92e5 5d3e 69a9 85bb 9920 b93c a21f 2abd
00000050: 21a7 8abd 6766 853e c8de 0abf 42ef b73c
00000060: 31c9 ffbd 8781 a03e fd4c 683e a4f7 ca3e
00000070: b62b 0c3f 8801 9ebc 61e4 8ebe 8cf9 bdbd
00000080: e482 0dbe 13d2 af3d d9c0 1b3f 530b 0e3f
00000090: a76c 313e aadb 0fbf 03cc 3dbe 2387 84bc
000000a0: 963c cdbc 5613 a9bc ef6b efbe f462 453f
000000b0: 6bd9 343e b2d0 403e 100c 263e 0709 a13d
000000c0: 1b20 bd3e c556 38bf 338f abbe 78d6 86bf
000000d0: cb27 ad3d 7c7b 57be 92c5 acbd e867 4f3f
000000e0: 49bf 3a3e 486b bf3e 4b3d 04bf e1aa 873d
000000f0: 4f18 a0bd 7114 e1bc 1052 e13e b1b3 603e
00000100: f87d 9e3e bda8 6fbe 66a7 b83e 99fd 603e
00000110: 1940 773e 8e2c 8fbe 89cc b6be 1c3a 2a3f
00000120: 2827 f83e 2743 afbe 2d9f 66bd c741 ebbd
00000130: b4e1 4b3f 7562 763e ade2 483c 64c6 11bf
00000140: 3d3a 43bd a8ae 093e 1ec5 373e e0f2 6d3f
00000150: da73 b13e 9e90 983e a6fa 093e cc37 1f3f
00000160: 42b8 69bd 4e30 1cbe 45fb 8fbf 7d06 54bd
00000170: 8c79 07bf 3c1c 43bf 047f 013f e0f7 90be
00000180: a152 91be 7a40 30bf 7ea7 4e3d 856b a43e
00000190: 8dc6 ba3e 8aa1 4d3e 95af 313d 4d62 a9bd
000001a0: 94bf 5dbf 595c 1fbd 8e6d 86be b159 7ebe
000001b0: 6487 c4be a914 bc3c 11b6 9ebd 52af 9dbe
000001c0: 91cc 81be 2086 ca3e 6a26 0fbf 91c1 7fbf
000001d0: 8d11 233e ef06 a83e d96a 8a3e 932f 0ebf
000001e0: b44b ff3e c90f 45be 669a c7be 04e9 ea3d
000001f0: 8a98 563e f23f bf3e 2c4e 813e 4ed4 81ba
00000200: 3072 3d3d bd75 f73e f0d4 a73c 8780 e6bd
00000210: 9863 04bf 375d 123f 0019 163e dab2 61bd
00000220: d382 b4bd c677 19be 4408 2a3e ee5d ba3d
00000230: 70cf 143d cb1e adbe b9d9 bb3d 2871 fdbe
00000240: 72d4 2abe af55 2c3d d8ed da3f 82dc c0be
00000250: 032c 7bbe 75e1 0a3f 6657 203f c47d eabc
00000260: 6d2b 82be 91d6 913e 3021 34be 0ae4 9f3e
00000270: d542 2c3e b8b0 c83e 1399 e63e a9cd 833e
00000280: 06f2 74bf d7f7 293e ac55 f03c 5c2c 0abe
00000290: eec8 40be e464 5bbd 5086 58bd 4714 413e
000002a0: ad2d cf3c a049 23bf 9967 b33e 64a4 923e
000002b0: dd28 abbe b682 d0be 5cf7 3fbf 09a9 acbc
000002c0: 4c6d 823e 0b34 843e f850 c53e e4ad 32be
000002d0: 11ff 423e 0192 063f b323 3c3e 46d1 af3e
000002e0: 7c0c 073f ee05 c73e 4afb 903d d0db d83d
000002f0: 428b ad3e bb4b 103f 04e9 04bf 8554 033f
00000300: 4bf1 0bbf c8ff 5dbe 9c68 2abe e4ce 1c3f
00000310: 8789 b93e 534a 363f b2c8 033d 1d7a 2c3f
00000320: 3e5d 26be 1649 14bd e39e a6be e16f 0a3f
00000330: adce a93e d163 adbe 19cc e9bd 7074 67be
00000340: 9357 d93d 35a9 803f 1de2 84be ec4a 273f
00000350: e70f 65be a4a3 a9be e546 993e b26e 353e
00000360: 61dc 84bf 2363 55bd b761 19be fb62 abbe
00000370: bd06 93be 22d4 1bbe 49ae d2be ff86 283d
00000380: 2729 473f 7518 c03e a8e7 e43e 4844 babe
00000390: 0d9c 0a3e 971c b23e 3cd1 763e 2db5 b73e
000003a0: 7105 7e3e 1dab b03e 4518 a3be 9494 5e3e
000003b0: bb48 903e 9782 11bd 6612 0f3f 41d6 37bf
000003c0: a786 0ebf e384 08be 7bc1 b7be 3b5a 72be
000003d0: 9c4a 6d3e 4294 c0bd 14c8 1f3f 6b8f f83e
000003e0: 71f4 d43e 5a1f 073d 514e 4abd 426b 57be
000003f0: b66a 8abe 489e c93e 48c0 163f 339a 93bc
0.38665867 0.03816625 0.14064369 0.17713541 0.036887757 -0.15287311 0.3072647 0.31282118
-0.53746027 0.054796323 0.008370627 -0.083185546 0.013048072 0.78649545 0.07742862 -0.21978404
0.21669605 -0.004079033 0.022598552 -0.041534074 -0.067701586 0.2605469 -0.5424619 0.022452954
-0.12489546 0.31348822 0.22685619 0.3964206 0.547542 -0.01928784 -0.27908614 -0.09276113
-0.13819462 0.0858499 0.6084114 0.5548603 0.17326604 -0.56194556 -0.18534856 -0.01617772
-0.025053304 -0.020639103 -0.46762034 0.77104115 0.17661063 0.18829611 0.16215539 0.0786305
0.36938557 -0.720074 -0.3350769 -1.0534201 0.084548555 -0.210432 -0.08436121 0.81017923
0.18237032 0.37386537 -0.51656026 0.066243894 -0.078171365 -0.027475568 0.4400792 0.21943547
0.30955482 -0.23404212 0.36065215 0.2197174 0.24145545 -0.2796368 -0.35702923 0.6649492
0.48467374 -0.3423092 -0.056304146 -0.114871554 0.7964127 0.24060996 0.012261075 -0.56943345
-0.047662962 0.13445532 0.17946288 0.9294872 0.346587 0.29797834 0.13474521 0.62194514
-0.057060488 -0.15252802 -1.1248556 -0.051764 -0.5291984 -0.7621496 0.50584435 -0.28314114
-0.28383353 -0.68848383 0.0504527 0.3211328 0.36479607 0.20081154 0.04338034 -0.082707025
-0.8662045 -0.03890643 -0.2625546 -0.24838902 -0.38384545 0.02295907 -0.0774957 -0.3079782
-0.25351384 0.39555454 -0.5591799 -0.99904734 0.15924664 0.3281779 0.27034643 -0.5554134
0.49862444 -0.19244303 -0.38984984 0.114702255 0.20956627 0.37353474 0.25254953 -0.0009905191
0.046251476 0.48332015 0.020487279 -0.112549834 -0.5171447 0.57173485 0.14657974 -0.055102207
-0.08814015 -0.14987096 0.16604716 0.09099947 0.03633064 -0.33812556 0.09172387 -0.49500394
-0.16682604 0.0420739 1.7103834 -0.37668234 -0.24528508 0.5425027 0.6263336 -0.028624423
-0.25423756 0.28484014 -0.17590785 0.31228667 0.1682237 0.39197326 0.4503866 0.25742844
-0.956818 0.1659845 0.029337727 -0.13493484 -0.18826649 -0.053563014 -0.052862465 0.18855391
0.025290335 -0.6378422 0.35039976 0.28641045 -0.33429614 -0.40724725 -0.74986815 -0.021076696
0.25474012 0.25820956 0.38538337 -0.17449147 0.19042613 0.52566534 0.18372993 0.3433935
0.52753425 0.38871711 0.070791796 0.10588801 0.33895308 0.56365556 -0.51918054 0.5130084
-0.5466506 -0.21679604 -0.16641468 0.6125319 0.36237738 0.7120716 0.03217382 0.6737383
-0.16246507 -0.036202513 -0.32543096 0.54076964 0.33165494 -0.33865216 -0.11415882 -0.22603011
0.106124066 1.0051638 -0.2595376 0.65348697 -0.22369348 -0.3313266 0.299369 0.17718008
-1.0379754 -0.052096497 -0.14978682 -0.33473954 -0.28716078 -0.15217641 -0.41148594 0.041144367
0.7779717 0.3751866 0.4470799 -0.3638022 0.13536091 0.34787437 0.24103254 0.35880414
0.24806763 0.3450555 -0.31854454 0.21736366 0.2818049 -0.03552493 0.5588745 -0.718113
-0.55674213 -0.13331942 -0.358898 -0.23667233 0.23172992 -0.09403278 0.6241467 0.4854692
0.41592744 0.032988884 -0.049391095 -0.2103701 -0.2703454 0.39378572 0.5888715 -0.018017864

reward_fun.0.bias f4 [200]
00000000: 0079 eebe e3b5 dbbe ed83 b6be ff0f 73be
00000010: a02e b0be 9fec 873e aa08 56be 9d8a 223e
00000020: 30e0 6d3e c582 203b a829 01bf 65cf 3ebf
00000030: b8bb 5bbf 6a3f f4be 64bf b9be 9128 08bc
00000040: 525e 09be f4bf a83d 75f1 ddbe a5a8 11bf
00000050: 69d7 04bf fe13 b4bd 29ee ba3d 10dc 53be
00000060: f11c a13d 4a9d 04bf 2c82 e4be 0119 2abf
00000070: 4de0 4ebe fa03 78be 7684 ecbe 9ee3 33bd
00000080: e16d 05bf b236 4abe a2f2 9cbe 8e85 cabd
00000090: 826b 86be 2de4 d0be 18e8 d43e 6b8c ad3e
000000a0: 0ea4 f7be 33af 4cbd 8fe7 733e 1a2d 7fbd
000000b0: 6c4e 8a3d 570c ffbe 9a57 a4bd b80b 7f3d
000000c0: 814e 533e 8697 aabe ec79 e1be 1e54 093d
000000d0: 809b 693c 3341 33bf ffa1 15be 0233 493e
000000e0: 988f 8e3d f3c3 63bd ad24 9abe 67be 85be
000000f0: 6583 543e c6a8 47be ebb4 14be a317 e7bd
00000100: 775e 06bf 8c23 b73d 7d5c ad3c ce76 0dbd
00000110: 8b56 adbe da7f d13d 2b2b e33d c154 47bf
00000120: dd63 0fbd 6011 48be a5b1 c2be 9dc9 01bf
00000130: c75b 52be 42b8 4dbe bc95 9e3d 2d0a 16be
00000140: c735 80be 1096 b4be dee7 92bc 1b90 f7be
00000150: df49 debe b31d 03bf 03a5 63bf fb62 72be
00000160: 13cd d6be 74fb a2be 6f1b 43be d62a 89bd
00000170: 2c29 58be 033e 01bf 6230 60bf 239b 92be
00000180: 4bb1 57be d2f9 11bf c2d4 73be 67d7 dfbe
00000190: bb4c f7be b19b 0fbf b7ce 553e 627c 16bf
000001a0: 586e 9bbe 6d6d 62bd e51f 12bf fbf9 4dbf
000001b0: 40eb 57bc eff3 a0be 7dd3 8cbd a528 8cbe
000001c0: 06bb f93c 13fa b4be bb24 ebbe ddf2 b4be
000001d0: 8f80 b5be 2168 59be a89f 83be f38a 86bc
000001e0: 280a 89be ad30 79be f890 a13d 5ccc d5be
000001f0: 7e13 d8be 4d20 303c 2a84 8bbe c916 45be
00000200: 4b4a ed3a fe4a 1bbf eaec 1dbf 0519 9dbe
00000210: 9124 3cbf ee73 85be 76e9 5a3e 9a10 babd
00000220: f469 dbbe e12a 3d3e 933e ec3d 6e74 0dbf
00000230: 71a7 0ebe 36f1 c4be b563 4cbe fbb8 cb3d
00000240: 082e 2abf d3af 1bbf 5b66 98be 0c9a 4abc
00000250: 54cb 33be 8682 d7be 4a1d 90be a2ee 62bd
00000260: ab95 533e affd 453d 5141 0bbf ceee 11bf
00000270: 0894 53be 215e d3be ecef 5abe c35b e63e
00000280: da3f a03d c089 68be aa92 9bbe 95cf 8ebe
00000290: 9731 debe ff44 1b3e 2242 0d3e 0dde 08bf
000002a0: 1d8d 00bf 52ac d6bd 79be 07bf e350 15bf
000002b0: 1a6a 3cbf 57a1 3cbf 1c85 c9be 7cd8 563c
000002c0: d814 7d3d e798 23bc 95e3 73be ee1d 4ebe
000002d0: b641 a7be 7c20 41be f362 1fbd 1a0d 04bf
000002e0: 5123 c03d b929 a4be c222 30be 1fc9 263d
000002f0: 5a7c f4bd 5c71 063d 4fae e5be b24f 18bf
00000300: 1d28 033e 2b3a 63be 3b7a ba3e 547f 2dbe
00000310: e530 d7be 8a6d 523e ab55 1abf 1bd0 aebe
-0.4657669 -0.42912206 -0.35647526 -0.23736571 -0.34410572 0.26547715 -0.20901743 0.1587319
0.23230052 0.0024492007 -0.5045419 -0.7453521 -0.8583331 -0.4770463 -0.36278832 -0.008310453
-0.13414887 0.08239737 -0.4334828 -0.56897956 -0.5189119 -0.08792876 0.09127457 -0.20689416
0.07866848 -0.51802504 -0.44630563 -0.664444 -0.20202751 -0.24220267 -0.4619481 -0.043918245
-0.52120787 -0.19747427 -0.30653864 -0.09888755 -0.26253897 -0.40799084 0.41583323 0.33896193
-0.4836735 -0.04997177 0.23818801 -0.06229887 0.06753239 -0.49814102 -0.08024521 0.062267035
0.20635416 -0.33318728 -0.44038332 0.033527486 0.0142582655 -0.7002136 -0.14612578 0.19648364
0.06960982 -0.055606794 -0.30106106 -0.26121828 0.20753248 -0.19497976 -0.1452214 -0.11283805
-0.5248789 0.08942327 0.021162266 -0.03453713 -0.3385509 0.10229464 0.11092218 -0.778637
-0.035007346 -0.19537878 -0.38026157 -0.5069826 -0.20542823 -0.2008982 0.07743403 -0.14652319
-0.2504103 -0.3527074 -0.017932829 -0.4835213 -0.43415734 -0.5121719 -0.8892366 -0.2367057
-0.41953334 -0.31832469 -0.19053434 -0.066976234 -0.21109456 -0.5048525 -0.87573826 -0.28633985
-0.21063726 -0.5702182 -0.2381163 -0.43719026 -0.48300728 -0.5609694 0.20879637 -0.58783543
-0.30357623 -0.055280138 -0.5707992 -0.80459565 -0.013178647 -0.31436107 -0.06876276 -0.2737476
0.030484688 -0.3534704 -0.4592646 -0.3534154 -0.35449645 -0.21231128 -0.25707746 -0.016423678
-0.2676556 -0.24334975 0.07888979 -0.41757476 -0.4220237 0.010749889 -0.2724927 -0.19246973
0.0018103806 -0.60661304 -0.6168963 -0.3068315 -0.73493296 -0.2606501 0.21378121 -0.09085198
-0.42854273 0.18473388 0.115353726 -0.5525578 -0.13931061 -0.3846528 -0.1995991 0.099473916
-0.6647649 -0.6081516 -0.2976559 -0.012365829 -0.17558032 -0.4209177 -0.28147346 -0.05540336
0.20662563 0.048337635 -0.5439654 -0.5700501 -0.20661938 -0.41282752 -0.21380585 0.44991884
0.07824679 -0.22708797 -0.30385333 -0.27892748 -0.4339721 0.15163039 0.13794759 -0.5346382
-0.5021532 -0.10482086 -0.53025013 -0.5832655 -0.735994 -0.73683685 -0.39359367 0.013113137
0.061787456 -0.009985185 -0.23817284 -0.20128605 -0.3266732 -0.18860048 -0.038912725 -0.5158249
0.09381736 -0.32063082 -0.17200759 0.040719148 -0.11937781 0.03282295 -0.4485955 -0.59496605
0.12808271 -0.22190158 0.3642138 -0.16943103 -0.4202949 0.20549598 -0.6028697 -0.34143147

reward_fun.2.weight f4 [200, 200]
00000000: 035c 453d ea99 55bc 2b50 2d3d 40fc 033e
00000010: 7cb2 edbb 02f1 8ebd 77c1 52be 5f15 a7bd
00000020: 9543 73bc 608e 4dbe 8bbe 863d a871 87bd
00000030: c5d5 09be 0730 13be 9e2b c1bd 4b8c 10bd
00000040: b8ec d2bc 4ec7 b5bd 8649 8b3c b3f3 95bd
00000050: 46eb 983d 0802 0fbe 0aef debd fbe6 073d
00000060: 8be6 493d cb6a 063d 5540 82bd aa47 193e
00000070: 3ded 2dbe 8387 30bb a0be 00be f3dd d9bd
00000080: ab87 9b3c 06cf f8bc 237f 153e 9887 9dbd
00000090: 1166 87bd 62f8 d5bc a094 87bd 7964 f7bc
000000a0: 42af 3ebd 5770 12bd 2a63 bbbd 2f60 04be
000000b0: aae2 abbd da59 2cbd ef44 f13d 8599 d9bd
000000c0: fafc 2d3c 4dc2 7a39 f794 d3bd fd86 d43d
000000d0: 09a4 a7bd 9724 873d 11da b7bd b62b b6bd
000000e0: 9b5f 003d f645 043d 5014 dd3d 8e51 57be
000000f0: 8f1d 6f3d 7b82 753d 739a 64bd 618d c73d
00000100: f3fb 133e 369d 3dbd 7f04 14bc eaed 0bbd
00000110: 237b b23c 6319 b9bd 4562 14be c2a0 193d
00000120: a6a5 d3bd fb52 bdbc 69d1 dbbc 2a56 073e
00000130: de2a 7bbd 6bee 0cbe 0995 04be 45e7 313d
00000140: d150 20be 1763 fa3c b0e7 febd 881a 503c
00000150: 04b9 dfbd 09ba 853d cefc 373d 147b 453e
00000160: 0fcd e6bd e871 1dbe a169 753d 7db8 24bc
00000170: e12b 33be dcff 9abd bf36 13bc 57ce b9bd
00000180: d002 ab3c fa09 3dbd 3df4 eabd 8a5b b93d
00000190: b794 3ebe 32a8 0f3d 6f97 443c 5e9d 3ebc
000001a0: 7b0e acbd f47a 3abe 94fc a0bd 4aae 9abd
000001b0: fbd2 40be 7a3e cdbb 8dfd 20bc 4f31 02bd
000001c0: d0d6 51bc fd54 35bd 82f4 91bd 451b 7fbc
000001d0: c24a a2bd a8e5 873d 8432 973c 6771 423c
000001e0: 616f 023e 8c37 02bd 170d e33b 9836 673a
000001f0: 0b9a 2dbd 1f0e fc3d 3292 b1bc 2624 1f3d
00000200: 4516 4d3d 7a6f 50bd 0c40 5dbd 679f 90bd
00000210: 4ffb a73d 3e80 02bd a7fb 903d b75b 583d
00000220: 4047 1c3d ce58 8ebe 7d77 143e 4cb0 383e
00000230: 1faa 44bd 8700 cbbd 7474 9ebd e513 953c
00000240: d33d e8bd 9c45 6dbd c223 bebd 0eae c8bc
00000250: b22d a0bb f6ef 84bd 9f44 8fbd bf97 7abc
00000260: b6bf 06be f92d d7bd 0d9a 4c3d f575 9fbd
00000270: 6ad1 2d3d 079c 9c3d 2b5f bbbd acad f9bc
00000280: e777 c6bc 507d 99be 3712 00be 9ef7 703e
00000290: 1215 90bc 556e 913d 75ba d33d 21e5 e6bd
000002a0: d63e 08be e62e da3c afc9 5b3d c8f2 88bd
000002b0: ae5e 0b3e e03b a2bd 13e0 79bd 28be d5bc
000002c0: 82e8 7fbd 4cdb 9abd 08d9 803d f410 2cbd
000002d0: b174 ce3c 913e 9bbc eb5c dcbd 6df3 bbbd
000002e0: 8b1f 2cbe 9586 ae3c 82b2 ecbd a536 0c3d
000002f0: a5c3 07be 1f5e 343b cb79 8ebe 143a f53d
00000300: 0c3d dfbd b40e 3d3d 63b0 27bc 08b3 0bbe
00000310: 0b1b 983c f56a a1bd 9eeb 1b3d b679 5abd
00000320: c438 3cbb 86c6 f4be 909f 003d 6d13 6b3d
00000330: 2f9f 543d 5c52 873c 4ca3 68bd 1984 1c3d
00000340: 256e 283d fe55 323d cc2f 76bd f9c8 c2bc
00000350: cd78 493e b111 043f 70aa bc3d bf94 a13d
00000360: 2aed 403e faac 3fbd 7014 65bd 94a0 49bf
00000370: 5f31 8fbe 9cf4 8d3d d5d4 a33d 54ab d73c
00000380: 6849 5bbd a800 55be a68b 01bd d601 34be
00000390: 2515 c43e 04f3 1abc 93a9 c4bc eadf 9fbd
000003a0: a3d7 aebc e7c1 bdbb 8b3e 0cbe f2a3 dfbd
000003b0: 3146 ce3c 7236 babd 622f 2d3e dd32 1c3c
000003c0: b972 333d 4911 883d 4fa9 2b3e 9aaf c73d
000003d0: 594c fe3d 928c e5be 3e30 6fbe cab3 e33b
000003e0: 3c52 443d a05a c8bd 9bf2 033f 7dd3 41be
000003f0: 88fc 7d3d c4a8 243d 97cb 013d 0b3d 9bbd
0.048183452 -0.013037184 0.042312782 0.12889194 -0.007253943 -0.06979562 -0.20581613 -0.08158373
-0.014847656 -0.20073843 0.06579312 -0.06613475 -0.13460453 -0.1437379 -0.094321474 -0.035290044
-0.025747642 -0.08875905 0.017002832 -0.073218726 0.0746675 -0.13965619 -0.10885437 0.033179265
0.04929213 0.03281669 -0.063599266 0.14968744 -0.1698503 -0.002693624 -0.12572718 -0.106380366
0.01898559 -0.030372154 0.1459928 -0.07691878 -0.066112645 -0.026119415 -0.06620145 -0.030199276
-0.046553858 -0.035751667 -0.091497734 -0.12927316 -0.08392842 -0.042077877 0.11780726 -0.10624985
0.010619396 0.0002391424 -0.10331147 0.103773095 -0.08185584 0.06598776 -0.0897714 -0.08895056
0.031341176 0.032293282 0.1079489 -0.21027204 0.0583778 0.05993889 -0.055811357 0.09743763
0.1445158 -0.046292506 -0.009034275 -0.03416244 0.021787232 -0.09038045 -0.14490612 0.037506826
-0.10334329 -0.023110857 -0.026833253 0.13216463 -0.06132018 -0.13762824 -0.12947477 0.043433446
-0.15655829 0.030564828 -0.12446535 0.012701638 -0.10923961 0.06529624 0.044918828 0.19285232
-0.112695806 -0.15375483 0.05991519 -0.010053751 -0.17497207 -0.075683326 -0.00898522 -0.09072559
0.020875365 -0.046152093 -0.11472366 0.09050663 -0.18611418 0.035072513 0.011998995 -0.011634199
-0.084011994 -0.18210965 -0.078606755 -0.07552774 -0.18830483 -0.0062635513 -0.009826076 -0.031785306
-0.012807563 -0.044270504 -0.07126714 -0.015570466 -0.07924415 0.066356 0.018456705 0.011867858
0.127378 -0.031791255 0.0069290507 0.0008820086 -0.042383235 0.12307381 -0.021676157 0.038852833
0.050070066 -0.050887562 -0.054016158 -0.070616536 0.0820223 -0.031860583 0.07079249 0.05282184
0.038153887 -0.27802128 0.14498706 0.18036002 -0.048013803 -0.0991221 -0.077370554 0.018197963
-0.11339917 -0.057927713 -0.09284164 -0.024497058 -0.00488826 -0.064910814 -0.0699551 -0.015294968
-0.1315907 -0.105068155 0.0499516 -0.077861704 0.04243604 0.07646947 -0.09149011 -0.030478321
-0.024227096 -0.29978418 -0.12506948 0.23531958 -0.017588172 0.07101122 0.10338298 -0.112741716
-0.1330522 0.026633691 0.053659137 -0.06686932 0.13610336 -0.079215765 -0.06100471 -0.02609165
-0.062477596 -0.07561359 0.062913954 -0.042008355 0.025202127 -0.018950732 -0.1075991 -0.09177289
-0.16808908 0.021304408 -0.11557485 0.0342318 -0.13258226 0.002752192 -0.27827296 0.11973968
-0.10900316 0.0461566 -0.010234925 -0.13642514 0.018567583 -0.078817286 0.0380665 -0.05333873
-0.0028720358 -0.4780771 0.03140217 0.057391573 0.05190962 0.016518764 -0.056796357 0.038211916
0.041120667 0.04353904 -0.060104176 -0.023777472 0.19674988 0.51589495 0.09212196 0.07889699
0.18840471 -0.046795823 -0.055927694 -0.7876065 -0.27967355 0.06931421 0.07999579 0.026326813
-0.053536803 -0.20801032 -0.03162732 -0.17578825 0.38297382 -0.0094573535 -0.02400664 -0.0780638
-0.021343058 -0.005790937 -0.13695733 -0.10919942 0.025179954 -0.09092416 0.16912606 0.009533611
0.04381058 0.06643922 0.16763805 0.0975029 0.12416906 -0.4483381 -0.23358247 0.0069489228
0.047929987 -0.0978291 0.5154206 -0.18928333 0.06200841 0.04020001 0.0316883 -0.075800024

reward_fun.2.bias f4 [200]
00000000: e72e edbb 4f6d 973d 7f70 6d3d e945 8e3e
00000010: abfc 873c 6fda 123e 481a e3bd 5978 ae3e
00000020: 2556 ee3d d7d5 993b a148 94bd 32db 8b3e
00000030: 54ca 99bc b2d4 ad3d 9a47 e83d 11c7 8dbd
00000040: 59ca bfbd 6ecf 99ba 739b babd e9cb cb3d
00000050: a14f 1f3e f1f2 f0bd f9ba 143e 3046 b3bd
00000060: fc51 b23d dcd1 173e 36eb b8bd ad70 a6bc
00000070: fcc9 28bd 9c8f 433e dba1 13be 4920 f7bd
00000080: 225c 62bd e72d 1d3d 5d04 273b 364d 343d
00000090: 6a47 503e 709c ecbd 0fe1 9d3d e90a 36bc
000000a0: 74e2 8dbe 854c 68bc 2488 67bd 8ef6 b3bd
000000b0: 5e65 c83d e819 f7bd 4017 3c3d fe93 303c
000000c0: 8a72 59bc 3347 3cbd dbef 2f3e 878f 853d
000000d0: 1a80 f2bd 3c3f 3b3e bdf6 f53d c545 d83d
000000e0: 0add 993d 1e3b b8bd d210 983c d586 46bd
000000f0: 2af5 a83e 4e78 a93d e7b2 2fbd 6c5d c5bc
00000100: 1f91 033d 8a41 01be 22c9 4abd b992 9b3e
00000110: 9790 b33c 4a61 063e 30fd bc3e ecf4 76bd
00000120: d835 8e3e 3622 13be efa0 55bb 1765 bebd
00000130: c1f1 80bd cec8 e4bc 1257 a63c a99e 0fbd
00000140: 92cb df3c b639 c43d f3e3 1a3d becb 7dbe
00000150: 03e2 c33d c468 e7bc f829 61bd 750a 873c
00000160: b8cd 233e d249 1cbd e87a 29bc 3a6f 4ebe
00000170: 0f88 a83d 3ae4 7ebd f39e ccbd 00bf 7dbd
00000180: a6f4 953d 877e 933d 2599 283e b125 b6bc
00000190: 7f63 243e fd85 133e a8d0 da3d 9426 3c3e
000001a0: 0d29 54bd 966c c33c a349 dabd ec2c 4d3e
000001b0: 1bc0 903d 9042 9bbd 8953 59bd 1ed6 153d
000001c0: 3f6e 02be 28bc 463d abee 853d 14b7 f43d
000001d0: 4e51 853d e2fe 673c 54dc f33d 092d 4bbd
000001e0: fc19 433d f84b 30be 6f89 99bd f838 b9bd
000001f0: 33a5 77bd 04a8 66be 495e 523e 994e 7bbd
00000200: 5a11 d33c 603f 0c3c 97ab d0bd 07e4 e2bd
00000210: 54d5 c3bc fe43 9d3e d6da 25be 99bf 353e
00000220: cd68 943d 3346 a9bc e7bb 0abe ff60 d93c
00000230: 22aa 0b3e 75e1 aa3e ba45 69bd d12c 2c3e
00000240: 22d6 183e 205e d6bd f42b 92bd ac9d 4abd
00000250: b407 b1bd a0f6 31bd 4c14 863e 10ad 243d
00000260: 2e13 c8bd 745f 8cbc ee0a 9abd 54f9 fb3c
00000270: 326e 4c3d 307a 4c3d 5395 353e 8cba 3b3d
00000280: d10c 043e 2da3 24bd 0635 51bd 3d4a 213e
00000290: fe6e e5bd f110 f2bd 51af ac3e dd07 643a
000002a0: 120c cbbd b6be 08be f055 d4bd 3487 dabd
000002b0: 2793 133e 6f11 f6bc c820 d9bd 6c92 87be
000002c0: c9aa 293e 6514 8e3e 2eb6 bdbd 0974 043c
000002d0: d2ea f2bd b118 32bd e8ea e5bc 73a9 eabc
000002e0: 891e 813c 73d9 573d decb f73c ddfe 1fbd
000002f0: 8f99 303e 4565 8d3d 1298 a6bd 7394 a73c
00000300: 8895 0ebe 1665 3bbe 0b52 fcbc 75db d83c
00000310: 100a a2bd cc12 9c3c 29f0 bbbc 58a1 08be
-0.007238257 0.07393896 0.057968613 0.27787712 0.016599974 0.14341138 -0.11088997 0.34076193
0.116375245 0.004694681 -0.07240415 0.2731567 -0.018773235 0.08487834 0.11341782 -0.069227345
-0.09364767 -0.0011734792 -0.09111681 0.09951002 0.1555772 -0.117650874 0.1452445 -0.087536216
0.087070435 0.14826149 -0.09029238 -0.0203174 -0.041208252 0.19097751 -0.14417212 -0.12066705
-0.055263646 0.038373854 0.0025484778 0.044018947 0.20339742 -0.115532756 0.07708942 -0.011111
-0.27711833 -0.0141784 -0.05652632 -0.08787261 0.09784959 -0.12065488 0.04592061 0.010777472
-0.013271937 -0.04596634 0.17181341 0.06521516 -0.1184084 0.18285841 0.12009952 0.105601825
0.07512863 -0.08995651 0.018562708 -0.04846843 0.32999545 0.082748994 -0.042895224 -0.024092399
0.03212082 -0.12622657 -0.04950822 0.30385378 0.021919532 0.1312305 0.36911917 -0.06029217
0.27775455 -0.14368519 -0.0032597145 -0.09296625 -0.06296111 -0.027927782 0.02030519 -0.03506342
0.02731875 0.0958132 0.037815046 -0.24784753 0.09564593 -0.028248198 -0.054971665 0.016484478
0.15996444 -0.038156338 -0.010344245 -0.20159617 0.08229076 -0.062229373 -0.09991255 -0.06194973
0.073220536 0.072018676 0.1646467 -0.02223477 0.1605358 0.14406581 0.10684329 0.18374091
-0.05179696 0.023855489 -0.10658576 0.20036668 0.07067891 -0.07581055 -0.05305818 0.03658115
-0.12737368 0.048519284 0.06539663 0.11948982 0.06509648 0.01415989 0.11907259 -0.049603496
0.047632203 -0.1721648 -0.074969165 -0.09044069 -0.06046028 -0.2252503 0.2054378 -0.061354253
0.02576511 0.008560032 -0.10188978 -0.11078649 -0.023905434 0.30715936 -0.1619676 0.1774887
0.07246552 -0.020663356 -0.13548242 0.02653551 0.1363912 0.33375135 -0.056951262 0.16813971
0.14925435 -0.10467172 -0.0713729 -0.049466774 -0.086440474 -0.04344809 0.2618736 0.040204108
-0.09769283 -0.01713536 -0.07521616 0.030758537 0.049909778 0.049921215 0.17732744 0.0458322
0.12895514 -0.04019468 -0.051075958 0.15750976 -0.11202811 -0.118196376 0.33727506 0.00086986815
-0.099144116 -0.13354 -0.10367954 -0.10670319 0.14411603 -0.03003761 -0.10601956 -0.264789
0.16569056 0.27749935 -0.09263264 0.008084306 -0.11861195 -0.04348058 -0.028066114 -0.028645253
0.01576163 0.05269761 0.030248579 -0.039061416 0.17246078 0.06904081 -0.08134474 0.020456528
-0.13924229 -0.1830028 -0.03080084 0.026471833 -0.079120755 0.019051932 -0.022941666 -0.13342798

reward_fun.4.weight f4 [1, 200]
00000000: e21e 713d b0da e0bc d9fa 31be 2488 d3bd
00000010: 817c ce3b fce5 a93e 7b0e 153d adc4 edbd
00000020: a16d 1ebe 05f1 423d 114a d8be 8df9 89bd
00000030: 01af 36bd 641a 5cbd 3c40 893e 071b 093d
00000040: 05aa b63e 408c 013c 4c07 023c f7a5 68bf
00000050: e161 ce3d 6d2e b43e 14e3 7e3e ae27 b73c
00000060: bc3f 4c3f 806f 6c3d 9629 533c 5039 82bc
00000070: b42e 96bb c283 9d3d 39f2 d63d 5e3f 69bc
00000080: e963 293d 4201 abbe 9b64 c9ba 0f0e 67bb
00000090: 9f1d 043e 5022 a83e 70ab 9f3e d7df d9bd
000000a0: c7ad b03e 35e4 bd3d cd3b c23e 7d27 cfbb
000000b0: 1dfe f1be fd9b fe3c 604e 023e 8ffd 713c
000000c0: a86b 063d e7dc bd3b ece5 05bf 633a acbd
000000d0: 0655 22bd 4189 733e 701d 54be a308 8abf
000000e0: 8980 91bd 694b 0abc aca3 b93e 11e9 413c
000000f0: df52 673e aada ad3e 7e2a fabc f4bb 6abf
00000100: 74b0 0f3d cbe6 19be 700a ab3e 09d0 ad3d
00000110: 43a8 babe 86e8 9ebe 4268 a53d aef0 62bb
00000120: c103 db3d 8ebb a33b 99ab 49be bed3 8abe
00000130: c0e3 53ba 30ce 05be 6369 343d cefc 59bc
00000140: af9b e3be ac23 e03d 87ab 21bf 7ad4 a7bc
00000150: 883f b23d b8e3 063d 61f8 7e3c 7c0f d93c
00000160: f563 adbe 26c9 02be f7df 2a3e 7682 c1be
00000170: ecce 073d 8edb 943c 4de1 9b3c fa16 c23c
00000180: ffb7 8c3d b7c9 f4bc b477 bf3d 1992 de3c
00000190: 3136 3d3e 1389 b13e af92 773e 9040 f6bd
000001a0: f5aa b23c d951 96be c79c dc3c e7c6 b6be
000001b0: d5c6 d4be 1463 173c 8f06 9c3d 5db9 57bc
000001c0: 3f41 d13c 4b03 d13c 0de4 1e3d a349 41be
000001d0: 0597 8abc 82b3 a13e a735 acbe ad56 413c
000001e0: a3e9 163d 4a4f ccbd 1129 cebd ff7e efbc
000001f0: 50e9 c33a 8ef1 423e b6df 06be 43ed 903b
00000200: 635a cbbd 7ef0 e43c 7437 b23c 2a7f d23b
00000210: 6deb 693e fb23 0bbe fe5a 08be 31c4 88be
00000220: aac6 85bd 4019 11bd 3561 96bc aa0c 9d3c
00000230: 9398 15bd 0165 093e 3223 223d b734 043e
00000240: 3eeb 47bf 903f 18b9 0468 db3b a94d a53b
00000250: 3306 f6bc 7cea 0bbd 2b9d abbd ad04 e63e
00000260: b40e 78be cead 55bc 8539 dcbd 50df f53a
00000270: 6085 3fbd cf8f 3d3c a270 06be 50eb c53d
00000280: 3040 183e c73e 07be d3e7 1ebd 80af f33e
00000290: ec5e e6bc b0a7 82bc 0f2f 38be c3fd 6d3d
000002a0: 536a d8bb 8c27 9abc e095 cc3c e383 f03c
000002b0: c066 153f 49ec 933c 56c6 95bd b0df 8bbc
000002c0: 5356 723d fce5 0c3e e9f0 74bc fdb7 89bd
000002d0: ddab b9bd 195e 87bd 3c9d dfbc fab6 33be
000002e0: 4253 70bc 1fa0 4d3d 4d6e 83bd 9863 8dbb
000002f0: ee51 9e3e 464e 05bc eaa2 083f 8c6d 253f
00000300: f3a6 9ebd 7699 5abd 6a68 9f3a b7d1 023f
00000310: 70b7 6e3c 16b5 34bb e68f 03bd 20ff 4d3c
0.058867343 -0.027448028 -0.17380847 -0.10328701 0.006301463 0.33183277 0.036390763 -0.116097786
-0.15471508 0.047593135 -0.42244008 -0.06737051 -0.04460049 -0.053736106 0.2680682 0.03347304
0.3567659 0.007906973 0.00793631 -0.9087824 0.10077263 0.3519167 0.24891311 0.022357788
0.7978475 0.057723522 0.012888333 -0.01589647 -0.004583204 0.076911464 0.10495419 -0.014236299
0.041355047 -0.33399397 -0.0015365066 -0.0035256182 0.12901925 0.32838678 0.31185484 -0.10638397
0.34507582 0.09272043 0.3793625 -0.006321846 -0.47264186 0.03108024 0.1272521 0.014769926
0.032817513 0.005794156 -0.5230396 -0.08409574 -0.039631866 0.23782827 -0.20714355 -1.0783886
-0.07104594 -0.008440831 0.36257684 0.0118353525 0.22590207 0.3395589 -0.03053784 -0.91693044
0.03508039 -0.15029447 0.334064 0.08486945 -0.36456499 -0.31036776 0.08076526 -0.003462832
0.106940754 0.0049967235 -0.19694366 -0.2711467 -0.00080829486 -0.13066936 0.044045817 -0.013304902
-0.44454715 0.10944304 -0.63152355 -0.020487059 0.08703524 0.032932013 0.015562148 0.026496641
-0.33865324 -0.12772045 0.16686998 -0.37794846 0.03315632 0.018171098 0.01902833 0.023692597
0.06871032 -0.029881341 0.093490034 0.027169274 0.18477704 0.34674892 0.24177049 -0.12024033
0.021810034 -0.2935932 0.026930226 -0.35698625 -0.41557947 0.009239931 0.076184385 -0.013166753
0.025543807 0.025514266 0.038791705 -0.18875746 -0.016917715 0.31582266 -0.33634683 0.01180045
0.036843907 -0.09976061 -0.100664265 -0.029235361 0.0014946852 0.19037458 -0.13171276 0.004422815
-0.09929349 0.027946707 0.021754958 0.0064238505 0.22843714 -0.13587944 -0.13315961 -0.26712182
-0.06532033 -0.03542447 -0.018356899 0.019171078 -0.03652246 0.13417436 0.039584346 0.12910734
-0.78093326 -0.00014519528 0.0066957492 0.005044658 -0.030032253 -0.03415917 -0.08379587 0.44925442
-0.24224359 -0.013041927 -0.107531585 0.0018758569 -0.046758056 0.011569931 -0.13128904 0.09664023
0.14868236 -0.13207541 -0.038795304 0.47594833 -0.028121434 -0.0159491 -0.17986701 0.058103334
-0.0066044717 -0.018817686 0.02497381 0.029359763 0.5835991 0.018057005 -0.0731322 -0.017074436
0.059164356 0.13759607 -0.014950016 -0.06724546 -0.090659834 -0.066097446 -0.027296655 -0.17550269
-0.014668288 0.05020153 -0.064175226 -0.004314851 0.30921882 -0.008136338 0.5337359 0.6462028
-0.07746687 -0.053369008 0.0012161855 0.5110125 0.014570102 -0.0027573756 -0.032119654 0.012573034
