data/mpc_deter/HopperEnv/seed_913/model_20000.pt (torch, 198160 bytes, 10 tensors)

log_std f4 [1, 11]
00000000: dcbc b5c0 02eb a9c0 3246 adc0 0ee0 a1c0
00000010: bc5e 91c0 54d4 30c0 2ba5 03c0 63da c3bf
00000020: 99e7 d6bf b3b5 a3bf b58c 47bf
-5.679304 -5.3099375 -5.414819 -5.0586004 -4.5428143 -2.7629595 -2.056956 -1.5301021
-1.6789428 -1.2789825 -0.77949077

mu.0.weight f4 [200, 14]
00000000: dc9a 16bf a8ac 2fbd 08d6 a93f 1ad6 88b9
00000010: 7b39 393e 75e6 473d 15f6 a5be 2e07 43bd
00000020: 159c 593d 71ce 1b3d 0844 e2ba a1ad b9bd
00000030: b9d7 b6be b043 623e 82cd cfbf 694a 81bf
00000040: 0ff2 bdbf ad7e 06bf 05c0 203e a9b0 0cbf
00000050: 8fb8 b13e e2d2 33bc 0b01 223e 71f7 b23b
00000060: 45f8 503c 6425 e8bd d590 983d 3863 363d
00000070: 587d 32bf 17d6 b1be f6b8 aebe eae1 303f
00000080: ea0b bd3e 8b28 f8be 6405 553e 3a75 013e
00000090: e232 c1bd bc00 93bd 3bc4 ca3c 7f09 1bbd
000000a0: 6697 a6bd 225d ea3d f2e5 a2bf 864c fdbd
000000b0: eb32 383f 3871 f7be 3547 60be 2858 4abd
000000c0: 1bfb 393e e535 40be e898 e43d 9393 083e
000000d0: 95d1 303b 46bc 02be f43a a93e 1ee9 44bd
000000e0: 4aaf 98bf b657 37bf b031 db3e 849b af3f
000000f0: f338 b03c 5cf6 48bd 306f ac3d 3617 5f3e
00000100: d14f 51be d741 85be 4b0d 553c 4631 02bd
00000110: bc3a 88bf 6d97 6f3d 5937 acbf 3c6e 66bf
00000120: ff0b 6a3f d396 333f e503 983e 5faa 153e
00000130: 43a2 eabd d079 1ebe 9ff8 093e a9df 973d
00000140: 49c7 423c 3249 143c ac67 dc3d e7b2 bc3d
00000150: 4c8d b8bf 2a34 b13f 59b2 5abf 8590 24bf
00000160: 413e fdbe d985 4b3e 1ede a13d 090a c03a
00000170: 954e 73bd af72 9ebc 241d 95bc 8d57 f2be
00000180: 27b9 43bd 8830 343d cf3c 33bf 7711 48be
00000190: 9d6e 773f 764e 42be f786 05bf d912 a2be
000001a0: c1a2 9bbe a40d 0a3e 4b06 53bd 0784 d43c
000001b0: 6ef1 bebc 4ec0 b03e b905 813e 25b6 78be
000001c0: da26 923f ddb4 633f bbb9 3cbf 718f 02bf
000001d0: affb a53e 8f1f e73d d932 b7bd f9f8 97be
000001e0: 2a22 823e 932a 9ebc 7803 af3b 74d3 f6bb
000001f0: 1716 463d 5f1c 23bd 1a0c 98bf c860 6bbf
00000200: 955a 583f d42a 1f3f ab3e 603e 62cc 28bd
00000210: f979 ccbd 01f6 923d 9792 51bd 90eb bfbc
00000220: 9759 e63b a4e2 cdbb 9cf1 28bc 9a13 8f3c
00000230: ce91 2ebf dad1 ad3f 2ee6 2f3e 7181 0a40
00000240: d83f 97bf 5a53 d1bb badd 4fbe 24de 013d
00000250: 692a 033d 74f7 eabc 2ec8 6bbc 73d1 3e3d
00000260: 28c8 183d 7e14 a2bd ff09 b2bf 78ed 01c0
00000270: ed2e ea3f a2ea b23c 262a a5be 8866 803f
00000280: 7328 21bf 0d69 afbe abb8 803e 09ff b13d
00000290: 62c6 d9bd f47d 0cbe 9ae8 22bd f0d5 0fbb
000002a0: 6a8d 243f 7072 f1bf ce54 3940 ed0d 5140
000002b0: 60c5 1ebf 721d a4bd d1c5 b0bc e9d5 853e
000002c0: 8183 5bbe 61de aebd e8d7 37bc fcda 883c
000002d0: 26d9 ec3d d6cf 783e db47 88bf 9fc7 aabf
000002e0: 9cf8 3e40 8c4f 023f 0485 5ebf 44ed c83d
000002f0: 1aa3 27be 3340 443d 2b2a 8cbc bb8b e7ba
00000300: df9e 22bd 2c68 d93d cc85 16be 934d 51bd
00000310: 57d6 65bf 59d2 c5be ebdf 553f 3fef 1a3f
00000320: e46d 3ebe 9bcc b6be 8272 8a3e 1994 4b3c
00000330: 9502 41bd d1f1 fb3b d750 8c3d 5c73 653e
00000340: 0f7c 86bd 3524 7e3c 8e35 34bf 778d 48bf
00000350: 3ed3 2d3f 1de9 d73f 0f8e 51bf b05b 9abe
00000360: 460e 28bf fcb2 d0bc 433e 0d3e c1ac ce3d
00000370: 5244 c43c fa52 753e d103 8a3c 1531 01be
00000380: 7755 e83e 4e56 33be d17e 9e3c 8574 2bbd
00000390: b889 003d ceb9 663d 2d91 d0bc 8990 4cbd
000003a0: a0e8 1f3d 1e02 c83c 6c64 9f39 8b3e 94be
000003b0: 733e 843c ba8a 40be 6f40 6fbf 1679 8cbf
000003c0: cf17 ff3e 4003 993f cc81 0dbf cd4c 293e
000003d0: 33cc c6bd 0b4a d13d 3d7f 193d 2476 933c
000003e0: aef6 af3c 0aa6 30be 80ec e03c 24a5 203e
000003f0: 3b86 b4be 4f51 19be d8e2 3e41 8972 e33d
-0.58830047 -0.042889267 1.3268442 -0.0002609946 0.18088333 0.048803765 -0.32414308 -0.04761427
0.053127367 0.038038675 -0.0017262707 -0.0906632 -0.35711458 0.22096133 -1.6234591 -1.0100833
-1.4839495 -0.5253704 0.1569825 -0.5495706 0.3471112 -0.010975571 0.1582071 0.005461626
0.012754505 -0.11335257 0.074494995 0.044528216 -0.6972251 -0.3473365 -0.3412549 0.6909472
0.36923152 -0.48468432 0.20802838 0.12642375 -0.09433533 -0.071778744 0.024751773 -0.037850853
-0.08134346 0.11443545 -1.2726424 -0.12368111 0.71952695 -0.48328567 -0.21902163 -0.04940048
0.18162195 -0.18770559 0.11161977 0.13337545 0.002698039 -0.12767133 0.3305279 -0.04807388
-1.1928494 -0.7161821 0.42811346 1.3719335 0.02151153 -0.04906307 0.08419645 0.21786198
-0.20440604 -0.26026794 0.013003658 -0.031785272 -1.0642924 0.05849402 -1.3454391 -0.90011954
0.91424555 0.70152014 0.2969047 0.14615773 -0.1145673 -0.15476155 0.13473748 0.07415707
0.011888334 0.009050654 0.10761961 0.092138104 -1.441812 1.3844044 -0.85428387 -0.6428302
-0.49461558 0.19875278 0.079036936 0.0014651428 -0.059401114 -0.019341795 -0.018202372 -0.4733242
-0.047783997 0.043991596 -0.7001466 -0.19537912 0.9665316 -0.18975243 -0.52159065 -0.31655005
-0.3039761 0.13481766 -0.051519673 0.025941862 -0.023308482 0.34521717 0.2519968 -0.24288233
1.1418107 0.8894785 -0.737209 -0.51000124 0.32418582 0.11285316 -0.08945245 -0.2968214
0.2541669 -0.01930741 0.0053409897 -0.0075325314 0.04836091 -0.03982198 -1.1878693 -0.9194455
0.8451322 0.62174726 0.21898906 -0.04121054 -0.09984202 0.07175828 -0.05116519 -0.023427755
0.007029723 -0.006283121 -0.01031151 0.017465401 -0.6819123 1.3579667 0.1717765 2.1641505
-1.1816359 -0.00638811 -0.20299426 0.03170599 0.032022867 -0.028682448 -0.014390988 0.046586465
0.03730026 -0.07914065 -1.39093 -2.030119 1.8295571 0.021840397 -0.3225872 1.003129
-0.62952346 -0.34259835 0.2514089 0.08691222 -0.10633542 -0.13719922 -0.039772607 -0.0021947585
0.6427828 -1.8863049 2.895801 3.266475 -0.6201992 -0.08013429 -0.021578701 0.26139763
-0.21436884 -0.08538509 -0.01122091 0.016705982 0.11564855 0.24298033 -1.0646929 -1.334217
2.983924 0.5090263 -0.86921716 0.0981088 -0.16370812 0.047912788 -0.017109951 -0.0017665544
-0.039702293 0.10615572 -0.14699477 -0.05109937 -0.8978018 -0.38637045 0.83544797 0.6052131
-0.18596607 -0.35702977 0.27040488 0.012425446 -0.047121603 0.007688739 0.068513565 0.22407287
-0.06566631 0.015511562 -0.7039422 -0.7834086 0.67900455 1.6868016 -0.8185739 -0.30148077
-0.6564678 -0.025475971 0.13793282 0.10091544 0.023958359 0.23957434 0.016847523 -0.1261638
0.45377705 -0.17513391 0.01934758 -0.04185917 0.03138134 0.05632954 -0.02545985 -0.049942527
0.039040208 0.024415072 0.00030401663 -0.28953966 0.01614306 -0.1880292 -0.9345769 -1.0974452
0.49822852 1.1954117 -0.5527618 0.16533203 -0.09706917 0.10219201 0.03747486 0.01800067
0.02147993 -0.17250839 0.027456522 0.15687996 -0.3525866 -0.14972423 11.930382 0.1110583

mu.0.bias f4 [200]
00000000: ed89 6fbf 2d7d 72bf 773a 3bbf 56cf 04bf
00000010: 439d 88bf 2685 c33f a3a2 86bf 4ce0 8cbf
00000020: 121c 54c0 3eac bb3f 8f24 dabe b778 55bf
00000030: 6c5e 79bf e446 0cbf c7ca 91bf da99 03bf
00000040: c4a1 a5bd 1623 73bf fec9 b03d eb68 1bbe
00000050: f1c2 fabe 8636 49bf 351e 7bbe dd5d 87bf
00000060: c1fc 25bf d4d7 e7bf 3060 1340 6c65 a53e
00000070: c349 f2be 903a 1abf f90e f4be 601b 02bf
00000080: 854a 1ebf de75 38bf 0340 82bf c1f2 0d3f
00000090: c33a cabe be6b 2ebf 3c13 06c0 6d29 73bf
000000a0: 006f 95bf 440b 66bf 781f 5abf b3ca 00c0
000000b0: 7a57 d6be 290f 10bf db1a 47bf c01c 0640
000000c0: 605e d1bf a202 cabf a41d 243d 0c79 65bf
000000d0: f860 7bbf 6e00 f5bf 4140 e4be 1d02 6ebf
000000e0: 983c 40bf b343 1bc0 147c 46be 6604 8f3f
000000f0: 8b09 a0bf a81e b9be 5e03 143d b537 b33e
00000100: ae61 f3bf 4d78 5bbf 409c b2be e131 0ebf
00000110: 35c6 b13f af82 81bf fa02 01be 2606 d7bf
00000120: 8d08 78bf ff53 49bf 7f3e 26bf 7fcc 19be
00000130: e1f0 5ebf 310b ff3d 8f3e 26bf 06ce 62bf
00000140: 447e 29bf fb13 1cc0 10f7 d1bd 72e2 3fbf
00000150: a906 34be f4b9 0ac0 b554 46c0 2254 a83d
00000160: 9464 87be cfb7 cf3e 8a0c 59bf a334 40bf
00000170: 7ee0 50bd 5c74 5cbf 368e c5bd b8f2 2abf
00000180: 6351 bbbd 0f73 96bf 4d01 23bf 58f5 90bf
00000190: 9663 703d 10f6 03bf 3bd9 52bf 2f08 0ebf
000001a0: 6014 f4be 20ba 27bf cef4 5cbf 8f25 18bd
000001b0: 072d 75bf 216b 2abf 6968 86bf bda9 e2bd
000001c0: 4f7b 48bf abc0 b6bf ffe6 58be 4276 49bf
000001d0: a038 8dbf 1503 713d 035c 28bf 4671 dcbf
000001e0: be9f 28bf ecb2 45bf ec1d 3d3f b6df 86bf
000001f0: 95a7 57bf 6334 dabf 76e6 95bf f418 6cbf
00000200: 3976 86bf 0975 8bbf c121 a6be 530a e1bf
00000210: ed0b 9c3e 2269 7ebf 8d24 a23e d7ab 56bf
00000220: 2be7 32bf 434c cfbf ca0b b2bd fd9f 0ebf
00000230: bec8 5bbf 2fdd b6bf 7b28 1240 cf98 8ebf
00000240: 4cb8 d03d 9bf8 39bd 7c0b 8cbf 7aae 80bf
00000250: 0c48 54bf 5bbe b3bd 3e7e 0dc0 0e27 013d
00000260: 2c6f 3abf 9ccf 19bf 0009 a73d 9ddb c1be
00000270: bd5f c8bd 46aa f5bf 14aa 4fbf 7e42 d73f
00000280: 1884 1cbf ecf7 bdbf a7a5 44bf 3563 42bf
00000290: ec1a 403c 2371 9bbf f023 f9be 3ff6 47bf
000002a0: 2e34 78bf a2d0 77bf 50d4 bcbe 17c8 92bf
000002b0: 4a80 7ebf 61f1 b33e 9d12 92bd 0484 abbf
000002c0: 94cb 48bf 5dcc 7dbf 6e74 52bf 27ce 84bf
000002d0: 232b d8bf 04ce cabf 5f62 633f 7c58 23c0
000002e0: 93a0 73bf 45d3 8ebf 0436 603f 1756 3cbe
000002f0: bb89 65bf 6e76 a6be 80d4 5e3d 3639 08c0
00000300: 2af5 913f 9671 febe 0f46 b3be b66a 743f
00000310: 33ca dcbd e86a a3bf 6e51 b2bf 5438 c2bf
-0.93569833 -0.94722253 -0.73136085 -0.5187887 -1.0672992 1.5275009 -1.0518383 -1.100595
-3.3142133 1.4661939 -0.42606017 -0.8338732 -0.974097 -0.5479567 -1.1390008 -0.51406634
-0.08087495 -0.9497541 0.08632277 -0.15176742 -0.48976853 -0.7859882 -0.24523242 -1.057552
-0.64838797 -1.811274 2.3027458 0.3230394 -0.473219 -0.6024561 -0.47667673 -0.5082302
-0.6183246 -0.7205485 -1.0175785 0.5544854 -0.39497957 -0.6813315 -2.094924 -0.94985086
-1.16745 -0.8986094 -0.8520427 -2.0123718 -0.41863614 -0.5627313 -0.77775353 2.0955048
-1.6356926 -1.5782053 0.04006733 -0.8963783 -0.9819484 -1.9140756 -0.44580272 -0.92971975
-0.7509246 -2.426007 -0.1938327 1.1173217 -1.2502912 -0.361562 0.036136024 0.3500344
-1.9014184 -0.8573044 -0.34884834 -0.5554486 1.3888613 -1.0118006 -0.12598792 -1.6798751
-0.9688805 -0.7864379 -0.6493911 -0.15019415 -0.870863 0.124533065 -0.64939207 -0.88595617
-0.6620829 -2.4387195 -0.102522016 -0.74954903 -0.17580666 -2.1675997 -3.09892 0.08219172
-0.26443923 0.40569922 -0.8478476 -0.7508032 -0.050995342 -0.8611505 -0.09646265 -0.6677661
-0.09146383 -1.1753863 -0.6367386 -1.1324873 0.058688723 -0.51547337 -0.8236272 -0.5548124
-0.47671795 -0.6551838 -0.8631104 -0.037145194 -0.9577183 -0.66569716 -1.0500613 -0.11067531
-0.78313154 -1.4277548 -0.21181868 -0.7869607 -1.1032906 0.05884083 -0.657654 -1.7222068
-0.6586875 -0.7722614 0.7387378 -1.0537021 -0.84240085 -1.7047237 -1.1710956 -0.92225575
-1.0504829 -1.0895091 -0.32447627 -1.7581276 0.3047785 -0.9937917 0.3166851 -0.83855957
-0.69883984 -1.6195148 -0.08693655 -0.5571287 -0.85853183 -1.428625 2.2837207 -1.1140383
0.10191402 -0.045403104 -1.0941005 -1.0053246 -0.82922435 -0.08776542 -2.2108302 0.031531386
-0.72825885 -0.6008241 0.081560135 -0.37862864 -0.09783886 -1.9192588 -0.81118894 1.6817167
-0.6113906 -1.4841285 -0.76815265 -0.7593263 0.011725169 -1.2143902 -0.4866023 -0.78110117
-0.9695462 -0.96802723 -0.36880732 -1.1467313 -0.99414504 0.35145095 -0.071324565 -1.3399663
-0.78435636 -0.9913996 -0.8220891 -1.0375413 -1.6888164 -1.5844121 0.8882198 -2.5522757
-0.9516689 -1.1158224 0.8758242 -0.18392216 -0.89663285 -0.3251223 0.054401875 -2.1284919
1.1402943 -0.49696034 -0.35014388 0.9547533 -0.10780754 -1.2767 -1.39311 -1.517344

mu.2.weight f4 [11, 200]
00000000: 50b5 5bbc 6da7 c0bd 858b 3abe 5ff4 b9bc
00000010: 8018 a3bb a28a c03b bc12 cf3c ec09 b83c
00000020: 0382 8ebc d482 3d3d 4dab 273d 8765 2dbc
00000030: 5965 91bb eab8 0e3d 21c8 293c a9cc 68bc
00000040: 5fed 7eba fa64 32bd 2f16 28ba c3ec 22bd
00000050: d257 a23c 4390 993b c17c d43b efdc 093c
00000060: 4754 dd3b 63db 85ba 825c 943c 47fa f0ba
00000070: 8dff 9abc 4906 353d ac5e 9ebc f900 e83b
00000080: 73fd 76bd f768 13bd e734 87bd 3920 b53b
00000090: 7e32 d1bc 5616 5bbd 46e5 843c 53d2 a0bd
000000a0: acdf 1a3b 3c12 783c 8ca8 d63c 5f16 f23b
000000b0: 217a a8bb eea4 2ebc 70f5 17bd fd50 b73b
000000c0: 26a3 e2bb 6922 e8ba 1933 cbbc bb4e 853c
000000d0: 4030 b33d d2a6 833b 1911 ae3c 3c1b ff3c
000000e0: 784a 88bc 0dbf 3e3b c30f c03a 1818 8e39
000000f0: 5d6b bd3b 30d2 403c 4466 723c 86d3 52bc
00000100: c732 88ba 0231 7f3c 6ece 17bd 1997 fa3c
00000110: fe2d 233c 3edb 67bb 8944 4dba f713 c1bb
00000120: e19f 24be 6db7 bb3d f79c b73c 63be 033b
00000130: 1bb4 783c fdb7 50bb 3d2f c9bc 8770 c73d
00000140: 93c8 4dbc 23b7 2c39 c59d f83a 0f5d aabc
00000150: 8b5f cc3b e33d ddbb 00e8 2f3c 8fee 7abc
00000160: 748d 1ebc c58d 87ba 5bbe 823d 9997 98bc
00000170: e916 e03c a75a 4abc d032 6dbc 2cc5 a33c
00000180: c190 d6ba 00b1 f3b9 328d ee3c 2e08 7abd
00000190: 2c49 9539 f7dc 58bc 5bb7 cf3d 0386 0dbc
000001a0: 97d5 fe3c 3b7d 773a 0c6c bfbd fb05 daba
000001b0: f531 c53c 133a bfba bb16 ccbb cd48 183d
000001c0: 6ded 333c 6228 43bd 5057 b5bc 54bd 9f3d
000001d0: 7a9e 20bd c377 3abb 9d06 9d3d dc41 233c
000001e0: 77ee de3b 9869 86bb 2654 1ebb 7a85 b33c
000001f0: e90d d23b 4187 c6bc 76a2 403d e41b 863d
00000200: d888 04be 3813 4939 3160 c23b 8310 20bc
00000210: d2c4 813c 2694 8cbc 8be2 a3bb 67b0 f03b
00000220: 2d84 56bd eb6c 573d a3fa 50bc 3e99 66bd
00000230: 34c5 d23d fb64 6fbb ec1e 553d b1ce 183d
00000240: 9f57 973b f8cb ba3b 1330 92bc f864 97bc
00000250: bbc1 ed3c 1e68 243a 9e73 c83a 4b3b 0cbd
00000260: b249 c239 646f 703b acfb 303d 4e16 a1bc
00000270: 8c90 9dbb 7c25 4a3a f231 663d 7411 b23d
00000280: b6d0 02bc a6f3 15bd c9e2 4c3d 1ba1 3cbc
00000290: 3e49 563c 3af9 b23d 20da d9bd 2141 86ba
000002a0: 2db2 8cbc 908f 2f3c 01f8 50bc d135 bb3d
000002b0: c2f2 583a 568c 2eba 381e 9bbb d795 07bb
000002c0: cf88 48bd 8d5c 5b39 db3b 293c 451c 1bbd
000002d0: f07d 5b3d b732 febb b3b1 473c 0bb7 da3b
000002e0: c6b0 9d3d 5d28 70bb 8d33 843c 6bba 64bd
000002f0: 50cc 593a 3a44 91bc 0b41 cab9 4784 e2bb
00000300: 9ec5 be3a 57c4 17bc 85bc f0bb 9141 743c
00000310: 4772 50bc 0a93 4c3c c181 6abc 2978 2f3b
00000320: 61eb a5bb ea4e 2cbd e0a3 20bc d4a8 d0bc
00000330: 8903 2d3b 097d e03b 7df5 ab3c 7840 8b3d
00000340: 228e 9abc 55ab 0fbd 5148 3f3c 1063 90bb
00000350: 1a81 35bc 64ef 5cbd 7198 dbbc 413b 24bc
00000360: 8bfc 9abb 3402 95bc d6a4 a2bc 0bc9 62bd
00000370: 3860 793d 7453 06bd be0c 23bc 52ce 073d
00000380: 7b3a f63b 4f55 5b3c cb1a e93b 2a98 213d
00000390: 1490 d9bb b93a 2e3d e36d a63c 69d9 563d
000003a0: 9607 383d be3f bc3d af5e cabc d55a cabb
000003b0: 7e35 273c e055 1ebd 8784 f3bc 0c4a 04bd
000003c0: c22b 493d d01a 10ba ed5f 70bc f011 a9bc
000003d0: 1921 8e3a 9a11 b9bb 7f86 6ebc 58fc 53bc
000003e0: 9626 dfbc de3e e3bb 69a3 72b8 6a0c a43d
000003f0: 3a82 ae3d 4f8d 8dbc 2db3 bdbc e364 8abc
-0.0134099275 -0.09406934 -0.18217285 -0.022699533 -0.004977286 0.0058759013 0.025277488 0.022465669
-0.017395979 0.046267346 0.04093485 -0.010583288 -0.0044371304 0.034844317 0.010362656 -0.014208951
-0.0009724702 -0.04355333 -0.0006411997 -0.039776575 0.019817267 0.004686387 0.0064845984 0.008414491
0.0067544314 -0.0010212477 0.018110517 -0.0018385135 -0.018920684 0.044195447 -0.019332252 0.007080194
-0.0603003 -0.035988774 -0.06601887 0.005527523 -0.025536772 -0.053488098 0.016222607 -0.07852616
0.0023631854 0.015141066 0.026203416 0.0073879207 -0.005141512 -0.0106594395 -0.0370993 0.0055943714
-0.0069164215 -0.001771045 -0.024804639 0.016272893 0.08749437 0.0040176893 0.021248387 0.031140916
-0.016637072 0.0029105574 0.0014653135 0.00027102302 0.005780621 0.011768863 0.01479489 -0.012867814
-0.0010391109 0.015575649 -0.0370621 0.030589627 0.009959696 -0.0035378481 -0.0007830342 -0.0058922726
-0.16076614 0.09165845 0.022413714 0.0020102493 0.015179659 -0.0031847947 -0.024558658 0.0973826
-0.012560028 0.00016471422 0.0018967917 -0.020796327 0.0062369755 -0.0067517622 0.010736465 -0.015315666
-0.00967728 -0.0010341933 0.06383964 -0.018626975 0.027354674 -0.012350715 -0.014477447 0.01999148
-0.0016370044 -0.00046480447 0.029120062 -0.061042957 0.00028474012 -0.013236276 0.10142394 -0.008637908
0.031107707 0.0009440963 -0.0934678 -0.0016633862 0.024071673 -0.0014589451 -0.0062282956 0.037178803
0.0109819 -0.047645934 -0.02213636 0.07799783 -0.039213635 -0.0028452731 0.07667277 0.009964433
0.0068033296 -0.004101943 -0.0024159043 0.021914233 0.0064103496 -0.024234416 0.047029935 0.065482885
-0.12942827 0.00019176013 0.005931877 -0.009769562 0.015840922 -0.017160486 -0.0050013713 0.0073452475
-0.052372146 0.052594107 -0.012755069 -0.056298487 0.1029152 -0.0036528695 0.052031443 0.03730649
0.0046185995 0.0057005845 -0.01784519 -0.018480763 0.029023042 0.0006271618 0.0015293246 -0.034236234
0.0003705747 0.0036687488 0.043208763 -0.019663956 -0.004808491 0.0007711274 0.056199975 0.08694735
-0.007984331 -0.036609314 0.050020967 -0.01151302 0.013078986 0.087389424 -0.10637307 -0.0010242799
-0.017174805 0.01071538 -0.012754441 0.09141124 0.000827592 -0.0006658485 -0.004733827 -0.0020688677
-0.048958596 0.00020919945 0.010329212 -0.037868757 0.0535869 -0.0077575105 0.012188363 0.0066746525
0.076997325 -0.0036645152 0.016137863 -0.055841845 0.0008308338 -0.017732728 -0.00038576903 -0.0069127413
0.0014554744 -0.00926312 -0.007346692 0.01490821 -0.012722558 0.012486229 -0.014313162 0.0026774502
-0.0050634597 -0.042067446 -0.009804696 -0.025471129 0.0026399812 0.006850843 0.020991081 0.06799406
-0.018866602 -0.035075504 0.011674956 -0.0044063404 -0.0110781435 -0.05393924 -0.026806088 -0.010023893
-0.0047298125 -0.018189527 -0.01985399 -0.05536751 0.060882777 -0.03279443 -0.009951768 0.033155747
0.0075142956 0.013387038 0.0071137897 0.039451756 -0.00663949 0.04253647 0.02031607 0.052453432
0.04492911 0.09191845 -0.024703352 -0.006175379 0.010205625 -0.038656116 -0.02972628 -0.03229718
0.049113996 -0.00054971594 -0.014671308 -0.020638436 0.0010843604 -0.00564785 -0.014558434 -0.012938581
-0.027240079 -0.0069349846 -5.7849484e-05 0.0801018 0.085209325 -0.017279295 -0.023156727 -0.01689381

mu.2.bias f4 [11]
00000000: 761c b23b bf8f 683c b4de 4fbd 835d 0a3e
00000010: 83ca 20bd c06b 653e b6a4 1e3f 68a0 ddbf
00000020: b448 6bc0 51c0 1d40 7efd a1bf
0.0054355217 0.014194428 -0.050749496 0.13512234 -0.03925563 0.22404385 0.6197008 -1.7314577
-3.6763124 2.464863 -1.2655485

reward_fun.0.weight f4 [200, 14]
00000000: c7e2 54bf 5b87 1d40 d280 2cbf 79ac 4f3f
00000010: f09f 22c0 104d b63e 341b 5a3d 4af0 073f
00000020: d291 c53e 9eb8 6e3f e140 f63e 1063 05c0
00000030: 97fc 22bf ac4c ca3f ede1 d7be 09cb 133f
00000040: 921a b93f 7f8f 2440 4892 483e f61d a63e
00000050: bde1 ad3d 4123 4b3f 9418 a73f 4fb6 343f
00000060: 8bcf e8be 4a20 0040 7679 b5be 33ec db3e
00000070: 9b28 e4bf 1597 fe3e 4ee3 7abf 8624 9dbf
00000080: 3efc c0bf 3a0c 3c3e f0ee 203e 2a67 2a3d
00000090: efc5 b6bd 6001 1e3f 7bee 3cbd e562 8d40
000000a0: 586b 663e 9f95 45bf e05e 87bd 62d2 7340
000000b0: 648f 6640 6496 0640 5319 38c0 bc12 08c0
000000c0: 28fe d4bd 3cb2 00bf fbcb 1cbd c235 803f
000000d0: 69a2 233d 0fd6 ca3e 1c00 70bf 1b79 e0be
000000e0: bbc2 d6be 822a 04c0 2070 5abd 6e4a 1040
000000f0: 8d3d b7bf 4ad3 b3bf 1144 2bc0 7f64 703f
00000100: b1c9 8a3f c6b2 15be a286 00bf d487 3c3f
00000110: 395c 8ebf 2e22 4f3e 42c0 fbbf 335d 86bf
00000120: 6b63 85c0 6029 4cbf 7e99 253e c19d 833e
00000130: 987c 39c0 12ea 723e 8be1 f83e e2b3 2ebf
00000140: d577 bb3e 7298 65be b213 2cbf e257 bebf
00000150: 3157 56bf 3c92 9140 4cf5 8640 f988 4740
00000160: 3bf9 5fc0 e147 3bbe a5dc 31bf 5771 17be
00000170: 78e7 bc3e bc8c 1e3e 6afc 54bf 5dae 4a40
00000180: 770e ff3e 85cb f4be ef63 983e 7659 7340
00000190: 6398 b340 bb80 d43f 07fd 8ec0 054e 8ac0
000001a0: 798c d23f 659d 2f3d 2147 ff3e 31e1 763f
000001b0: 9dc2 f3be 1236 8d3f 813d 1bbf e3ec b8bf
000001c0: d1ee aebf a034 f1bf 143c 173f 5279 f13d
000001d0: 4847 1c3f 9841 a9bf b282 b53e 00d4 d03d
000001e0: 238f 12be aa91 57be cd91 a23e b6c8 07bf
000001f0: 9e00 a63f da16 2fc0 022a 8bbf 5a24 0740
00000200: 6f32 26c0 a943 f93f 36b2 b4bf 9a3a c83d
00000210: 70ca 3cc0 d130 ec3d 38b0 dd3e 2d9f eb3e
00000220: 12ef a5be f3d4 d4be 3ab1 ef3f 9963 f5bf
00000230: 2070 aa3d 8f32 52c1 96bf 9741 e3f7 ba40
00000240: f05e 4f40 bf5f a6c0 df72 1c3f 03bf 98be
00000250: e1c7 223f f11a 553f 8101 7ebf 8f3b b03f
00000260: 8948 82be c8cb 393e 5f82 12bd 07b2 f2bf
00000270: 50ce ae41 38ab 1241 0188 2f40 817e 9ac0
00000280: 6ed1 0ebe a9c3 df3e f6b9 653f 1678 933e
00000290: 26c2 24be eafa 62bf d0ff 2abd 8083 98be
000002a0: ac1c 11bf d6f2 b8bf 2b31 16c0 3ab9 9140
000002b0: cfec 69c0 86b3 bcbf a0b1 da3e e70e 0c3f
000002c0: 60d1 ef3e 5aac 423f 2165 b03e 8038 b9bf
000002d0: f094 abbf 6c07 ffbf 50b6 c2be a2d9 a53e
000002e0: 224e e93f 177d 243e 4d50 2ac0 69e3 00bf
000002f0: 113b 75bd 5db0 0b3f 4046 103f 12d0 0f3f
00000300: 78b8 d8be 0729 f23f 02c2 17c0 a6d2 81bf
00000310: 7893 1fbf 5b9e 12c1 bd81 8ec0 18e9 96bf
00000320: 124c db3f 2467 d9bf 7775 d23d 9d00 4cbf
00000330: a113 45bf 8b44 0e3e 85ef f9be 20ec 68c0
00000340: 48eb 1ebf 24ca 97bf 0562 9fbe 83c2 2dc0
00000350: fe79 3cbc c580 363f aa2c a93f 26e6 6fbf
00000360: 99e5 6740 74ed 8d3e 1bcd a2be 3789 9f3e
00000370: 5fd0 97be eaaf 453f 0248 0a3f e7b9 6c3e
00000380: bf41 f83e da78 4d40 a371 1741 89d8 c13f
00000390: 8300 f0bf 2fd9 44c0 1325 543e b246 dabc
000003a0: 5d70 be3e 2c6e 75be dae8 6ebc c3a1 d03f
000003b0: 50d0 c8be 2d8c 97bf fb3d 1bbf 877b 0840
000003c0: 4331 0941 463b 7cbf 125c 15c0 9786 e13e
000003d0: 4da3 f3bf 851d d7be 0d40 383f 2d80 e93d
000003e0: 2d1a 86bf d322 1a3f 36cb 57bf bf7a 0bbf
000003f0: 2fa2 f8be d8c7 6b41 896e d13f 8b08 c23f
-0.83158535 2.4613864 -0.67384064 0.8112255 -2.5410118 0.3560567 0.0532486 0.53101027
0.38587815 0.93250453 0.48096374 -2.0841713 -0.6366667 1.5804648 -0.42164555 0.5773168
1.4461234 2.5712583 0.19587052 0.32444733 0.08490322 0.7935067 1.3054376 0.7059068
-0.45470843 2.0019708 -0.3544423 0.42953643 -1.7824892 0.4972464 -0.9800309 -1.2276771
-1.5076978 0.18364039 0.15716147 0.04160229 -0.089244716 0.6172085 -0.04612587 4.418322
0.22501886 -0.7718143 -0.06609893 3.8097157 3.6025019 2.102929 -2.8765457 -2.1261435
-0.10400039 -0.50271964 -0.03828047 1.0016406 0.03994981 0.3961644 -0.93750167 -0.43842396
-0.41945443 -2.0650945 -0.053329587 2.2545428 -1.4315659 -1.4048855 -2.6760294 0.93903345
1.0842801 -0.14618978 -0.50205433 0.7364476 -1.1121894 0.20227882 -1.9668047 -1.0497192
-4.168386 -0.79750633 0.16171834 0.25706294 -2.8982296 0.23722103 0.48609576 -0.6824323
0.36614862 -0.22421435 -0.6721755 -1.487057 -0.83726794 4.549101 4.2174435 3.1177351
-3.4995868 -0.18289138 -0.694773 -0.1478933 0.36895347 0.15483373 -0.83197653 3.1668923
0.49815723 -0.47811523 0.29763743 3.8023353 5.612352 1.6601785 -4.468387 -4.322024
1.6449119 0.042874712 0.49858955 0.96437365 -0.47609416 1.1032126 -0.6064072 -1.4447292
-1.3666631 -1.8844185 0.59076047 0.11790718 0.61046267 -1.3223143 0.35451275 0.10196686
-0.14312415 -0.2105166 0.31751862 -0.53040636 1.2968938 -2.7357697 -1.0872195 2.1115937
-2.5968282 1.9473773 -1.4116886 0.09776802 -2.9498558 0.115327485 0.43298507 0.4601988
-0.3240896 -0.41568717 1.872596 -1.917102 0.083221674 -13.137343 18.968548 5.8427596
3.2401695 -5.1991878 0.6111278 -0.2983323 0.6358624 0.83244234 -0.99221045 1.3768176
-0.25445965 0.18144143 -0.035768863 -1.896058 21.850739 9.166801 2.742676 -4.8279424
-0.13947079 0.43703964 0.8973688 0.28802556 -0.16089687 -0.88664114 -0.041747868 -0.29787827
-0.56684375 -1.4449108 -2.346751 4.5538607 -3.6550786 -1.4742286 0.42713642 0.5471024
0.46839428 0.7604424 0.34452155 -1.4470367 -1.3404827 -1.992414 -0.38029718 0.32392603
1.8226969 0.16063343 -2.6611512 -0.50347 -0.059870783 0.54565984 0.56357193 0.56176865
-0.42328238 1.891877 -2.3712163 -1.014241 -0.62334394 -9.163661 -4.453337 -1.1789885
1.713259 -1.6984601 0.10276311 -0.79688436 -0.76983076 0.13893335 -0.4881555 -3.639412
-0.6207776 -1.1858563 -0.3112947 -2.714997 -0.011503695 0.71290237 1.3216755 -0.93710554
3.6233885 0.27720225 -0.31797108 0.31159374 -0.29651162 0.7722155 0.54016125 0.23117791
0.4848766 3.2105012 9.465243 1.5144206 -1.8750156 -3.0757558 0.20717268 -0.026645038
0.371951 -0.23967808 -0.014581883 1.6299366 -0.3922143 -1.1839653 -0.6064145 2.1325395
8.574527 -0.98527944 -2.3337445 0.44047996 -1.903421 -0.4201471 0.71972734 0.11401401
-1.0476738 0.6020939 -0.8429445 -0.5448417 -0.48561236 14.73629 1.6361858 1.5158857

reward_fun.0.bias f4 [200]
00000000: c4b1 95bf bc48 db3d 82ed ebbf dec9 923e
00000010: ea2b 03bf 9402 04c0 8b22 0bbf 8fe1 3e3f
00000020: be7e a4bf 6720 9dbf 8462 ef3e c5dc 603d
00000030: b4b9 16bf 56fe 37bf 854c 7ebf 80de 30bf
00000040: 1036 a0ba 6339 dabe 2ae1 04bf 0041 6fbf
00000050: f622 83bf 324d 30bf 402e 16bf 34f3 95bf
00000060: c5d0 a8bf 4832 b3bf 2f74 48bf 3078 87bf
00000070: cefb 7abf 3cbc 99bf c8ca 1ebf 75b4 0cbf
00000080: 0f4f fdb9 df43 33c0 ecbd 5bbe 3dc8 e1bf
00000090: 2df5 23be da15 57bf cbda f03d 4efb e2be
000000a0: 8225 d8be eda2 66bf 469d e5bd b652 43bf
000000b0: 8cdc dcbe c3d6 60bf cbdb 24be 8bf4 ef3c
000000c0: b9f7 2abf b1cd 91bd 2b06 6dbf 42dc 99bf
000000d0: 7736 91bf c654 4ebe 1f8c 4ebf ba0a fcbe
000000e0: 911e d7bf a708 0ebe d2d0 31bd a183 00bf
000000f0: 16b7 59bf 8956 b4bf ecc0 38bf 9840 c03d
00000100: f071 7cbf d515 48bf 7a62 46bf 1972 a6bf
00000110: 9237 15bf 7a77 fcbe 0402 6fbf 0b85 3abf
00000120: 8ef7 00be 4b2d d1bd a247 e5be 3fda 17bd
00000130: e9e7 a03e e7f9 05bf 1e0c fdbf 4661 6abf
00000140: 114b 9cbf d328 64bf 4376 88bf 16b7 53bf
00000150: 027e 41bf 8ac3 f5be 0617 443e 8e76 c4bc
00000160: 85c9 82bf 7d36 113e f67b 26c0 4e24 89bf
00000170: ab8f b0bf f80d f8be 758d f9be 7e94 34bf
00000180: 7150 86bf c3ef 63bf d3be 4fbf dafb a5bf
00000190: 547a e5be ae67 bcbd cabf 953d 1da7 93be
000001a0: 01ca 1f3d b008 edbe 94e8 91bf cda2 c8be
000001b0: 90e5 ffbe 5d30 8bbf bba1 0cbe 6641 c0be
000001c0: 5a17 a1be 91db 8c3e 4501 c5bf 102c cbbe
000001d0: c2d7 b6bf 8760 c5bf 0c96 77bf 81f9 09c0
000001e0: 5532 5dbf efa0 f9be 6919 963d d6ec 75bf
000001f0: 4d2c 9f3d bd8d 05bf e779 4cbf 45d1 d7bf
00000200: 18bd fabe 9e6d 3bbf 8484 4abf acbb 88bf
00000210: b6c5 bf3e 121d 87bb 4d37 18be 4fd8 05bf
00000220: 0007 323e 8556 82bf 494c cabf 196f 15bf
00000230: 8102 17bf 02c9 e3bf 784b 66bf 75d5 acbf
00000240: dcd7 78bf ecb9 30bf a5d1 7abf 3c28 22bf
00000250: d332 53bf 55cf c0be 22c5 c2be bd36 d4bf
00000260: 6a13 dfbf 168a 5cbf 7b86 0ebf 57f7 25bf
00000270: 1891 ccbe 0493 adbf 4e79 b3bf f166 27be
00000280: cce2 3cbf c8f2 52bf 9e4a c0bf e4fe cbbe
00000290: 24d3 483d 0751 27bf 92b7 a4bd e088 cebe
000002a0: f631 1dbf e678 93bf 115d 04bc 257c 25bf
000002b0: 429e 98bf 7175 98be 8b48 bbbf 116c 4bbf
000002c0: b4be 94bf 32f2 08bf d067 2cc0 f1a7 11bf
000002d0: 39d7 e6bd 4f0f e7be 2ec2 cebe 0882 4e3e
000002e0: 6d2d 1dbf bf86 06bf 760c 02be cfa2 07be
000002f0: ae8c eebe ddde adbf d1bc e83d 5be0 c1bd
00000300: 2695 26be ba82 67bf 8ed3 56bf 47f5 98bf
00000310: 2b08 03c0 d9eb 91bf 4a7c 283e afb2 6bbf
-1.1694875 0.10707232 -1.8431857 0.28669637 -0.5123888 -2.0626574 -0.54349583 0.74562925
-1.2851179 -1.2275513 0.4675485 0.054898042 -0.5887711 -0.7187246 -0.9933551 -0.6908951
-0.0012223143 -0.42621908 -0.51906073 -0.9345856 -1.0245044 -0.6886779 -0.5866432 -1.1714845
-1.3188711 -1.399972 -0.7830228 -1.0583553 -0.98040473 -1.201057 -0.6202817 -0.54962856
-0.00048314824 -2.8010175 -0.21459168 -1.7639233 -0.16011496 -0.8401772 0.117604814 -0.44332355
-0.42216116 -0.90092355 -0.11211638 -0.7629808 -0.43137014 -0.878277 -0.1609947 0.029291412
-0.66784245 -0.07119311 -0.92587537 -1.2020342 -1.1344746 -0.20149526 -0.8068256 -0.49226934
-1.6806203 -0.13870488 -0.043412037 -0.5020085 -0.8504499 -1.4088908 -0.72169375 0.0938732
-0.98611355 -0.78158313 -0.77494013 -1.300357 -0.5828792 -0.49309903 -0.9336245 -0.7285926
-0.12594435 -0.10213717 -0.44781214 -0.03707337 0.31426933 -0.52334446 -1.9769323 -0.9155468
-1.2210408 -0.8912479 -1.0661091 -0.8270124 -0.755829 -0.48000747 0.19149408 -0.023982313
-1.0217749 0.14180942 -2.601316 -1.0714204 -1.3793844 -0.48448157 -0.48740736 -0.7053908
-1.0493299 -0.8903772 -0.8115055 -1.2967484 -0.4481989 -0.09199463 0.073119715 -0.28838435
0.039011005 -0.4629569 -1.1399102 -0.39186707 -0.4997983 -1.0874134 -0.1373357 -0.37549895
-0.31463128 0.27511266 -1.5391012 -0.39682055 -1.4284594 -1.5420083 -0.9671333 -2.1558535
-0.86404926 -0.48755595 0.07329065 -0.9606451 0.077721216 -0.521694 -0.7987351 -1.6860739
-0.48972392 -0.7321414 -0.7910845 -1.0682273 0.3745553 -0.0041233385 -0.14864846 -0.52283186
0.17385483 -1.0182654 -1.580453 -0.58372647 -0.58988196 -1.7795718 -0.89958906 -1.3502642
-0.97204375 -0.69033694 -0.9797614 -0.6334264 -0.82499427 -0.37658182 -0.38041025 -1.6579205
-1.74278 -0.861482 -0.5567395 -0.64830536 -0.39954448 -1.3560491 -1.4021394 -0.16347863
-0.73783565 -0.82401705 -1.5022771 -0.39842904 0.049029484 -0.6535801 -0.08042826 -0.40338802
-0.6140436 -1.152127 -0.008078829 -0.64642555 -1.1923296 -0.297771 -1.4631513 -0.7946177
-1.1620698 -0.5349456 -2.6938362 -0.56896883 -0.11271519 -0.45128867 -0.40382522 0.2016679
-0.6139744 -0.52549356 -0.12700066 -0.132457 -0.46591705 -1.3583637 0.11364139 -0.094666205
-0.16267833 -0.9043385 -0.83916557 -1.1949853 -2.0473735 -1.14001 0.16453663 -0.92069525

reward_fun.2.weight f4 [200, 200]
00000000: 8ff8 943d fdf4 b03d d2c7 09be 7c83 abbe
00000010: c52e 27be 797c 10be c73d b0be df8b c6bf
00000020: 483b cebd 37bc f23d 0a6f a1c0 f90c afbf
00000030: f495 c6bd 93e4 12c0 e479 2cc0 c051 91be
00000040: 9390 ddbe 3077 b1bd b0c6 76be 082c c0bd
00000050: 8970 d1bb 7c12 82bd 244c 99be 460f f4be
00000060: 8866 72be 9d09 dabe 4617 c2bc b091 d9be
00000070: 7370 75be 352c 433d 3bd1 743d 1db2 153d
00000080: ec61 20c0 a250 88be b20c b1bd 0022 dbbe
00000090: 8584 8fbd 2957 a6bd 228b 89c0 4c5f dcb9
000000a0: 04c2 e0bf 15c6 51be d545 9bbb 0d04 cf3c
000000b0: 7d42 1dbd f0f2 87be 09be 253e a9f6 22bf
000000c0: 5216 00bf 963e 91be 9fc2 a2be f4cb c8be
000000d0: 7a84 03c0 4c36 943c 18e6 8ebe 68c6 1abe
000000e0: aca6 99bd 25aa e1bd e68f 20be ce8b 6dbe
000000f0: 05e5 79bc 21b7 a93c f5d4 49be 86a6 efbd
00000100: 5fa2 8abf bf72 c63c 05c0 033e 841a 80bd
00000110: f4ff a33d 4fb6 57be e1ed 8cc0 cc24 3cbe
00000120: f400 35be e02f 1bbe aa0b 3fbf de94 2a3e
00000130: ed9b e6bd e6c4 e2be bf10 d23d d254 063c
00000140: d855 ff3d c155 49be 5384 18bf 80cc 213e
00000150: 5adc de3d 3311 01be 8eaf 2b3e d803 38c0
00000160: 4942 163d f257 debe abbe 94bd b38c 0abf
00000170: 927c 873d be0d 9abe 8b8c 65c0 6874 32be
00000180: fa79 c7bd ccaa 5e3b ff77 94bd 754f d5bd
00000190: c420 6bbe 84de 33be 2418 853c f6e6 53be
000001a0: b921 62bd 25f7 85c0 7436 87bd 5ab1 a5be
000001b0: af7f 9fbe b960 81be 77ed 1dc0 b6b3 22be
000001c0: 2dc6 16bf 9118 e9be 109e 82bd 1352 643c
000001d0: dd90 aabe ae71 c8bb 31e8 a2be 1b7d 97be
000001e0: 83bf 0abf 7089 9fbe 827f 23bf a86a c0be
000001f0: cbaa 25bf 3e9a b5be baf8 d6bd ed3e 28be
00000200: 3a68 7abe 1cee 2cbe 59d1 bbbe 96d6 88be
00000210: 7e55 c9be bd0c b3bc 2ebd 3b3c da10 c83c
00000220: 2017 933d b474 16bd 1f3a e13d d798 95bf
00000230: ae40 6cbe f5e6 c6be 3cbb cabf bb2f 2a3d
00000240: 4d87 44bf c626 02bf e3d3 80be 619d 30be
00000250: 5101 fdbe 8960 63bc 3c87 02c0 fdbf 5abe
00000260: d10a c8bd 4a88 96be c315 debf 4a98 2fbe
00000270: 4201 62be a1c7 b0bd 8a3b 793e 315a f2bd
00000280: a385 9fbe be3b fbbd 3c79 cb3c 95b1 90bd
00000290: 4eeb 96ba b338 41be 6d3a 31bf 6bf2 2dbf
000002a0: 8e93 96bc 89ea 86be fdf8 ffbf 41cc 33be
000002b0: 1e9f 16be e414 70bc f8ea d2bd be57 26bd
000002c0: 04a5 2e3e dc49 3abd 530a de3a 4817 cbbc
000002d0: b073 17c0 f529 c4bd 0889 56bd fa10 70be
000002e0: 9c0e 9fbe 7fc4 f4bd b0aa e5bd fb74 c3bd
000002f0: 817b 5dbe 6635 e4bf fcdb b93c df16 8cc0
00000300: 6fed 61be 2c87 f9bf 31f2 05bd 79c5 0a3c
00000310: 57dc f8bd d9c7 0dbf 26d1 4ebd c000 55be
00000320: 8763 12bf 4ee3 e43e 5a14 2abf 3d87 23bf
00000330: ea57 863f 56c1 38bf 023d 8a3e 2f3b 97bf
00000340: 6bfd e7bf b179 10c0 de27 793d f22f d83c
00000350: bffc 353e b0f4 383f 1652 dabc b9d0 4bbf
00000360: 0bf3 82be c099 8a3f e956 cdbd 35ce 20be
00000370: b89f 2fc0 d636 e7be a263 be3d 0410 33bf
00000380: 01f7 bdc0 c131 8ec0 ff9b 313d 2214 dd3f
00000390: f718 85bf aac4 b6bf 9e66 cc3f 7b30 ed3e
000003a0: 5a1d 5a3f e898 9b3e c211 7d3f 3bc7 22bf
000003b0: f398 22bf d0e2 f83f c9a6 8ebe eec4 f3bf
000003c0: 37a6 ce3e 39ef 81bf 2da1 41bf 0d6d ed3f
000003d0: 77af 5ec0 8cd5 873f c2e3 abbc 6a6f 6b3f
000003e0: 98ea e8be 7ccd 823e 73ec 6bbf ca46 eebe
000003f0: 1e12 b9bd a263 313f 31ed 6abf 6212 9a3f
0.07273971 0.08640478 -0.13455132 -0.33498752 -0.16326435 -0.14109983 -0.34422132 -1.5511435
-0.10069901 0.118523054 -5.0448046 -1.3675834 -0.0969657 -2.295201 -2.6949396 -0.28382683
-0.43274364 -0.08665311 -0.24099231 -0.09383398 -0.006391589 -0.06351182 -0.29940903 -0.47667903
-0.23671925 -0.4258546 -0.023692738 -0.42493963 -0.23968677 0.04764958 0.05976985 0.036546815
-2.5059767 -0.26624018 -0.086449996 -0.42799377 -0.07007698 -0.08122093 -4.298234 -0.00042032672
-1.7559209 -0.20485719 -0.0047385492 0.025270486 -0.038393486 -0.26552534 0.16185774 -0.63657624
-0.5003406 -0.28368062 -0.3178911 -0.39218104 -2.0549607 0.018092297 -0.27909923 -0.15114748
-0.07502493 -0.110187806 -0.15679893 -0.23197863 -0.015252356 0.020717205 -0.19710143 -0.11701684
-1.0830802 0.024224637 0.12866218 -0.062550575 0.080078036 -0.21065639 -4.404038 -0.18373412
-0.17676145 -0.15154982 -0.7462717 0.16658351 -0.11260209 -0.44290847 0.102571 0.008198934
0.12467545 -0.19661619 -0.5957691 0.15800667 0.108818725 -0.12604217 0.16766188 -2.8752346
0.03668431 -0.43426472 -0.072629295 -0.5412094 0.06615557 -0.3008861 -3.586703 -0.17427218
-0.09740062 0.0033976315 -0.0724945 -0.10415546 -0.22961718 -0.17565352 0.016246863 -0.20693573
-0.05520794 -4.186419 -0.06602183 -0.3236187 -0.31152102 -0.25269106 -2.4676187 -0.15888867
-0.5889614 -0.45526555 -0.06377804 0.013935584 -0.33313647 -0.0061170673 -0.31817773 -0.29587635
-0.54198474 -0.31159544 -0.63866436 -0.37581372 -0.64713734 -0.3546924 -0.104966596 -0.16430254
-0.24453822 -0.16887707 -0.36683157 -0.26726216 -0.39323038 -0.02185666 0.011458678 0.024422098
0.07182145 -0.03673239 0.10997414 -1.1687268 -0.23071548 -0.3884808 -1.5838389 0.041549426
-0.7676895 -0.50840414 -0.25161657 -0.17247535 -0.49415067 -0.013877996 -2.039504 -0.213623
-0.09767688 -0.29400855 -1.7350391 -0.17147937 -0.22070792 -0.08631826 0.24339119 -0.11833609
-0.31156644 -0.12267254 0.024838082 -0.07065121 -0.0011514218 -0.18869285 -0.69229776 -0.67948025
-0.018380906 -0.2635081 -1.999786 -0.17558385 -0.14709136 -0.014653418 -0.10298723 -0.04061102
0.17055136 -0.045480594 0.0016940333 -0.024791375 -2.366436 -0.09578315 -0.052376777 -0.23443976
-0.31065834 -0.11951541 -0.11214197 -0.09543797 -0.21629144 -1.7828796 0.022687905 -4.377792
-0.2206323 -1.9494376 -0.032701675 0.008469933 -0.121514015 -0.5538307 -0.05049243 -0.20801067
-0.57183117 0.4470467 -0.66437304 -0.6387823 1.0495579 -0.7217001 0.2699967 -1.1814936
-1.8124212 -2.2574275 0.060829036 0.02639005 0.17772196 0.72248363 -0.02665047 -0.7961536
-0.25576052 1.0828171 -0.100263424 -0.15703662 -2.7441235 -0.45159024 0.09296347 -0.6994631
-5.936402 -4.4435735 0.04336166 1.7271769 -1.0398244 -1.4278767 1.5968816 0.4632605
0.85201037 0.30390096 0.9885522 -0.6358525 -0.6351463 1.9444218 -0.27861622 -1.9044473
0.40361187 -1.015113 -0.7563656 1.8548905 -3.4794595 1.0612044 -0.020982627 0.9196688
-0.4549148 0.25547397 -0.9215767 -0.46538383 -0.09036659 0.6929265 -0.91768175 1.203686

reward_fun.2.bias f4 [200]
00000000: ab8c f5bd 7b31 f13e b7e1 71be bbd3 03bf
00000010: 73b3 92be 40a7 2abe 2631 a6bc 6ffe cc3e
00000020: 3feb 77be 0c73 ecbd 4f58 15be 2aa1 a6bd
00000030: c02a 813f 56ad d5bd 15d4 78bc 3abb b2bd
00000040: e5a7 23be 71fb 36bd be95 3ebd 5e63 593d
00000050: 3f03 b43d 01db 3cbe 7adb 05be cf1d d93e
00000060: aaea 693e f272 5ebe 0f5a bd3e 7f1c 17be
00000070: 3421 863f db2a 0940 464f 00be c22e e2bd
00000080: d57c e3bd e17b 1f3f aecf 29be a256 37bd
00000090: a707 67bd 4c42 063f b98d 44be 206d 0fbf
000000a0: 8e15 46be 0f97 42be f6e1 623f b7dd 30bd
000000b0: 0a34 1f3f c177 2f3f b9af a03e 507b 37be
000000c0: 4c01 a0be 7ff7 273f 59d5 4a3e 4b16 54be
000000d0: 9f35 1ebf 553f 22bf ae6c 47be f850 b4bd
000000e0: 4403 c93c 1521 10be 2bc1 87be 5892 a3bc
000000f0: 1562 03be e844 d1bd b1a7 72be a429 85be
00000100: e065 67be 9e66 c93f e172 83bc 2930 86bc
00000110: 9796 eabf 68bc 1abe 58c1 7cbe ef4c 4cbe
00000120: f8ad ed3f ba42 1cbe eb4a 0fbe 2c12 8ebe
00000130: df30 2abd 4304 1fbf 09a3 873f 1fde 10be
00000140: 7534 0f3d a307 64be 42b8 933f 0d96 f03f
00000150: 5b36 4d3f 9ee8 c13e 2b71 8dbd a3fc 3fbd
00000160: d70b babd a91e 40bd 6f18 cfbe 3060 28be
00000170: 0af5 f53e d945 453f 80ea 7fbe 9fc8 e7bd
00000180: 255b c2bd 66f4 4dbe 4cc4 9cbe e824 10be
00000190: 6e97 adbc eca3 803e ed4f 26bf 4d8b a43f
000001a0: 9d0a 3540 f0ec 883f aa80 b2bd f57d a040
000001b0: 6800 15be 38bf 8c3f 1dd0 e6bd dfff 38bc
000001c0: e6d9 773e ff21 1cbe 6055 02be 8929 813e
000001d0: 7ada f3bd 97ce f23e ee8f 8d3f 4efb 863f
000001e0: a3ed b4bc b12c 59bd 4462 ca3f ea05 4ebf
000001f0: 3080 263f de4e e4bd 11f5 7cbd 7948 32be
00000200: 8bbb 00be d5d5 803c 3dcf 9bbd 19c0 91bb
00000210: 8a93 4bbe e9b0 dd3e a7d5 4d3f e49a 0f3f
00000220: be51 dcbb fd0d 163e 0815 be3e 497f 613f
00000230: 0784 eabf 014e 55bd 6fde fb3c 061d 2f3f
00000240: 1982 1d3f ccd4 1fbd e775 29be 4ae1 c73f
00000250: 453d 99bd 4477 7c3f 15ee 983d b73d c3bd
00000260: 1159 49be ae77 f3bd 6790 ad3e 2356 5fbe
00000270: 39c0 ea3e ee0a b33a 826d 06be 5613 17be
00000280: 21f0 2cbf 76dc e63e 5671 cb3e b94b 553f
00000290: 177c 97bc d397 f9bc 5b38 0abe 14f0 2cbe
000002a0: 7473 063e d459 90bd 9419 8d3e 32c6 07be
000002b0: a734 44be 8c79 043f 45e4 ea3d 9fe6 adbd
000002c0: 4358 9cbe 2b3c 143f 05a0 b3bd 933e 96be
000002d0: f011 21bd a527 4fbd 1be4 f2bd 15c6 b23f
000002e0: c5eb 08be ca84 033f 0e49 e2bf 026c 98bd
000002f0: c2ac 31be 1e73 be3f f859 883f 1b2d 4e3f
00000300: 5fc2 003f 3c12 0ebe ece0 d4be b4fd 2dbe
00000310: 94f9 a43f 2115 38bc 3b3b 0dbf 47da d3be
-0.11989721 0.47108063 -0.2362126 -0.5149495 -0.28652534 -0.16665363 -0.020287108 0.40037867
-0.24210833 -0.11545381 -0.14584468 -0.08136208 1.0091171 -0.10433452 -0.015187283 -0.08727117
-0.15982015 -0.044673387 -0.046529524 0.05307328 0.08789682 -0.18442918 -0.13072005 0.42405555
0.22843423 -0.21723536 0.36982772 -0.14756964 1.0478883 2.1432407 -0.1253024 -0.110440746
-0.11107794 0.622984 -0.1658313 -0.044760354 -0.056403782 0.5244491 -0.19194688 -0.56025887
-0.1934416 -0.19002937 0.8862604 -0.043180194 0.6218878 0.68542105 0.31384066 -0.17918134
-0.3125099 0.65612024 0.19807948 -0.20711629 -0.6180057 -0.63377887 -0.19475052 -0.08804506
0.02453769 -0.1407512 -0.26514563 -0.019967243 -0.12830384 -0.10218221 -0.23696782 -0.26008332
-0.22597456 1.5734441 -0.01604599 -0.016380386 -1.8327206 -0.15110934 -0.2468313 -0.19951223
1.8568716 -0.15259829 -0.13993423 -0.2774824 -0.041550513 -0.6211588 1.0596629 -0.14147232
0.034962136 -0.22268538 1.1540606 1.8795792 0.80161065 0.37872785 -0.06906351 -0.046871793
-0.090842895 -0.04690424 -0.4044833 -0.16442943 0.48038512 0.77059704 -0.24991798 -0.11317562
-0.09490041 -0.20112762 -0.30618513 -0.14076579 -0.021190371 0.25125062 -0.6496571 1.2855011
2.8287728 1.0697308 -0.08715947 5.0153756 -0.14550936 1.0995855 -0.11270163 -0.011291473
0.24204215 -0.15247343 -0.1272788 0.25227 -0.119069055 0.4742324 1.1059549 1.0545442
-0.02208597 -0.053021137 1.5811238 -0.80477774 0.6503935 -0.11147855 -0.06175715 -0.17410459
-0.12571542 0.015726963 -0.07607887 -0.0044479487 -0.198805 0.43299034 0.8040413 0.5609572
-0.0067236116 0.14653774 0.3712542 0.88084847 -1.8321542 -0.052076343 0.030745713 0.6840366
0.6152664 -0.0390213 -0.16548882 1.5615628 -0.07482389 0.98619485 0.074672855 -0.095332555
-0.19662882 -0.118880615 0.33899233 -0.21810202 0.4584978 0.0013659874 -0.13127711 -0.1475347
-0.6755391 0.45090073 0.39734906 0.8331867 -0.018491788 -0.030467903 -0.1349806 -0.16888458
0.1312998 -0.07048383 0.27558577 -0.132592 -0.1916071 0.51747966 0.1146932 -0.08491253
-0.30536088 0.5790431 -0.08770756 -0.29344615 -0.039323747 -0.050574917 -0.11859914 1.39667
-0.13371189 0.51374495 -1.7678545 -0.07442476 -0.17351058 1.4878881 1.0652456 0.80537575
0.50296587 -0.13874143 -0.41577852 -0.16991311 1.2888665 -0.011235506 -0.55168504 -0.4137747

reward_fun.4.weight f4 [1, 200]
00000000: 839c ef3f f946 eebe db99 55bd 8dc3 353f
00000010: 3b3c 91bd 82bd 00bc ac11 c83c 797f fe3e
00000020: cbd7 28bd e962 ed3b 0caa acbd 2eca 553d
00000030: eb4e 81bf 5ca4 a73d 6fc7 e53c 00ea 123d
00000040: e219 6b3d 6552 303d 5865 f9bc b0b3 5b3f
00000050: ac62 123f b765 913c b652 a3bd a330 9f3f
00000060: 5311 c2bf 0c3c 6e3d 8eff 203f a899 213b
00000070: 18b9 473f faa1 373f 451b 81bc fb35 a9bd
00000080: 02f2 a7bd 29dc 32be 8727 3bbd f051 b23c
00000090: 80a5 92bb a644 5a3f 8bc9 2cbd 02e7 033f
000000a0: 8c96 51bc 9a6c 973d 6336 5c3f 9085 d43d
000000b0: be3c d23e b82f 433f e773 9a3f c01e dd3c
000000c0: 08a2 f4bd 7cfb de3f 3191 f3be fa95 25bd
000000d0: 58cf 00be b385 9dbe c3be 0fbc 5fa0 a53d
000000e0: 1da4 e1be 7613 923d 07a2 ea3c 8f26 813e
000000f0: 7df6 7dbd 313d 45bd 8dde 433c 03ab 833d
00000100: 6c80 2cbb 96bd 0abf e191 b03d 0e5f 3f3d
00000110: 321c eebe b7a7 87bc 56f9 45bd af4f 3cbd
00000120: fce6 18bf b69c 653c 9868 a43d 1079 4d3f
00000130: c9f4 c83d 04fe a33f 47a1 573f b599 98bc
00000140: d70e 4d3f 50c3 17bd a562 79bf 9c02 623f
00000150: 66e5 693f 206f debe 1d16 a23d cae5 653c
00000160: a01e 64bb 30c4 c33a 904b e13d 0a1e 883d
00000170: 124b 223f cbde cd3e e798 6c3c ce32 1d3d
00000180: 04ef 683e 1b09 88bc a599 64bd 76e6 e83d
00000190: eb61 65bf 3b6a be3f 26c9 e63e fab0 80be
000001a0: 8ad4 a13e 0e67 a93f 1cec 443d 3337 12be
000001b0: 491a b9bb a713 8e3f 3f85 84bc 306d 2d3d
000001c0: e7c0 f53e 5583 e13d 056b 8f3d c93d 173f
000001d0: 1f64 1d40 676d a93f 3891 3f3f b9b3 5f3f
000001e0: ebc3 c53d b484 873d 16ec aabf 39ca 073f
000001f0: d97b 553f c76d edbc 3519 a03e 65ae 1c3f
00000200: d18e e5bc 0b12 513e a212 013e 9a1c 3e3d
00000210: c900 a5bd 0085 403f 31c9 d63f 6078 f13e
00000220: dba7 933e 32a6 113f 0560 ab3f 2b89 a7bf
00000230: 02d9 d53e 097d 67bd 5677 4b3f 4d57 113f
00000240: 491a a1bf e581 38bd 39bf a6bd 928b a0bf
00000250: 3d62 d9bc 9fe9 173f 9b8c 4540 d15e babd
00000260: 79b1 53bd 8905 75bd c7e1 b7bf eb7e d3bc
00000270: 5fe7 e83e 48b1 9d3d 6290 54bd 3754 a6bb
00000280: ea72 3c3f 4c67 39bf 700f 273f be94 4c3f
00000290: f4b8 733d 8b63 5dbd ed62 923e 137c 913d
000002a0: a760 773f 7400 5fba e16d 863f bfc1 b7bd
000002b0: 9c83 583c 31c7 193f 6616 bcbf f9be db3d
000002c0: 1353 84bf 3572 3d3f c33a 01bc 09b3 f03e
000002d0: fb04 463e d447 b43d 3e14 203b 86a4 44c0
000002e0: 0ef5 1f3f 119a 473f 52fd ca3e 5dcb f63c
000002f0: f34d a73d 44d4 743f 2cf1 883f ca99 7fbf
00000300: 5975 a9be fb76 7e3b 7872 9c3c 237f fe3f
00000310: 9416 893f 761a e53d 60f0 063f 47d6 5b3f
1.8719639 -0.46538523 -0.05214868 0.7100151 -0.07091566 -0.007857682 0.02442249 0.4970663
-0.04122142 0.007244457 -0.08430871 0.052194767 -1.0102209 0.08185646 0.028049199 0.03586769
0.05739773 0.043047328 -0.030443832 0.85821056 0.5718181 0.017748697 -0.0797476 1.2436718
-1.5161537 0.058162734 0.62889946 0.0024658237 0.78016806 0.7173153 -0.015760073 -0.08262249
-0.08200456 -0.17466797 -0.045691993 0.021767586 -0.0044752955 0.85261 -0.042184394 0.51524365
-0.012792241 0.07393761 0.8602049 0.103770375 0.41061968 0.7624469 1.206662 0.026992202
-0.119449675 1.7420497 -0.4757171 -0.040426232 -0.12579095 -0.30766067 -0.0087735085 0.08087229
-0.4407052 0.07132618 0.028641714 0.2522473 -0.062002648 -0.04815406 0.011954916 0.06429102
-0.0026321663 -0.54195535 0.08621574 0.04672151 -0.46505886 -0.016559465 -0.04833349 -0.04597443
-0.59727454 0.014014414 0.08027762 0.8026285 0.09812314 1.2811894 0.84230465 -0.01862798
0.8010077 -0.0370515 -0.97416145 0.8828523 0.9136566 -0.43444157 0.07914374 0.014031837
-0.0034808293 0.0014935788 0.110007405 0.066463545 0.633958 0.4020904 0.014440752 0.03837853
0.22747427 -0.016605904 -0.05581059 0.11372082 -0.89602536 1.4876169 0.4507534 -0.25135022
0.31607467 1.3234575 0.048076734 -0.1427887 -0.0056488854 1.1099747 -0.016176818 0.042340457
0.47998735 0.11011378 0.07002834 0.5907865 2.459236 1.3236512 0.7483096 0.8738361
0.09656509 0.06617108 -1.3353298 0.5304294 0.833921 -0.02898301 0.3126923 0.61203605
-0.028022202 0.20417039 0.12604764 0.046413995 -0.080567904 0.7520294 1.6780149 0.4716215
0.28839 0.5689422 1.3388678 -1.3088735 0.41767126 -0.056515727 0.7947897 0.56773835
-1.2586147 -0.045045752 -0.081419416 -1.2542593 -0.026536101 0.5934085 3.0867069 -0.09100116
-0.051682923 -0.05981973 -1.4365777 -0.025817355 0.45489022 0.07699829 -0.051895507 -0.005075957
0.73612845 -0.72423244 0.6525793 0.7991446 0.059502557 -0.05405001 0.285911 0.071037434
0.96631855 -0.00085068424 1.0502282 -0.08972501 0.013214972 0.60069567 -1.4694335 0.107297845
-1.0337852 0.7400239 -0.007887545 0.47011593 0.19337837 0.08802763 0.0024426128 -3.0725417
0.624833 0.7796946 0.39646393 0.030126268 0.081691645 0.9563639 1.06986 -0.9984404
-0.33097342 0.0038828242 0.019097552 1.9882549 1.0710015 0.11186688 0.52710533 0.85873836
