data/mpc_deter/PendubotEnv/seed_613/model_10000.pt (torch, 183047 bytes, 10 tensors)

log_std f4 [1, 6]
0	0xc01e0ecc	-2.4696531
1	0xc023afd5	-2.557607
2	0xbff06efc	-1.878387
3	0xbfef6624	-1.8703046
4	0xc019660f	-2.3968542
5	0xbff2ccc0	-1.8968735

mu.0.weight f4 [200, 7]
0	0x3ec588db	0.38580975
1	0xbeaf5a1b	-0.34248433
2	0x3ef58c4e	0.47958606
3	0xbd31b650	-0.043386757
4	0xbe97595e	-0.2956037
5	0x3e9ffa75	0.3124577
6	0x3d4efc66	0.050533675
7	0x3d9e5fc5	0.0773311
8	0x3f73e235	0.9526704
9	0x3f0acdd9	0.5422035
10	0xbee06c19	-0.43832472
11	0x3eae4550	0.34037256
12	0x3ea42a97	0.32063743
13	0x3c67cc7e	0.014147876
14	0x3f46ffae	0.77733886
15	0xbd66487a	-0.056221463
16	0x3e6f22ef	0.2335317
17	0xbed42df3	-0.41441306
18	0x3d82d90b	0.06389054
19	0xbe0d4363	-0.13795237
20	0x3c5d7c79	0.013518446
21	0xbee18a20	-0.44050694
22	0xbf064354	-0.52446485
23	0xbe81f553	-0.2538248
24	0x3eb353c4	0.35024846
25	0x3e569a1a	0.20957223
26	0x3eaf8474	0.3428074
27	0x3c23eb03	0.010004762
28	0xbf16984d	-0.5882614
29	0x3f05065c	0.5196283
30	0xbf1dfac8	-0.61710787
31	0x3f19aeed	0.6003254
32	0x3de3c8a9	0.11122257
33	0xbec7f617	-0.3905494
34	0xbd080dea	-0.033216394
35	0x3ec4ed16	0.38462132
36	0x3f772c2e	0.9655179
37	0x3d84128a	0.064488485
38	0xbe77630e	-0.2415888
39	0x3ec7e12b	0.39038977
40	0x3d88f26e	0.06686865
41	0xbd18784e	-0.037224106
42	0xbf0711c6	-0.52761495
43	0xbdfa2ee4	-0.12215975
44	0x3d42b314	0.047534063
45	0x3f163130	0.58668804
46	0xbe2af410	-0.16694665
47	0x3e8a7981	0.27045825
48	0x3c60737a	0.013699407
49	0xbf131516	-0.5745405
50	0xbf67cea3	-0.9054968
51	0xbf26afaf	-0.6511182
52	0x3de37dcf	0.111079805
53	0xbe848f35	-0.25890508
54	0xbd718a04	-0.058969513
55	0x3d77bf3c	0.06048511
56	0x3f249af1	0.6429892
57	0x3f0825cc	0.53182673
58	0x3f77ed88	0.9684682
59	0x3f673af2	0.9032432
60	0x3e329dc0	0.1744299
61	0xbeb6ac67	-0.35678408
62	0xbd54e40b	-0.05197529
63	0xbcbaf10b	-0.022820016
64	0x3f663c2c	0.89935565
65	0x3ee7646c	0.45193803
66	0xbf19b799	-0.6004577
67	0xbece3f49	-0.40282658
68	0xbe9eecbb	-0.31039986
69	0xbc8964ee	-0.01677176
70	0xbf38c2cb	-0.7217223
71	0xbf38aff7	-0.721435
72	0x3d19fdaa	0.03759543
73	0x3f4cebd2	0.80047333
74	0x3eb1c498	0.34720302
75	0x3d976ea0	0.07394147
76	0xbbd1993d	-0.0063964413
77	0x3e852aa2	0.2600909
78	0x3f896071	1.0732557
79	0xbed79a38	-0.42109847
80	0xbe86feaa	-0.26366168
81	0x3ef7d0bd	0.48401442
82	0x3d63b033	0.05558796
83	0xbd8eb68d	-0.069684125
84	0x3f5ab8bd	0.8543814
85	0x3e2e1ead	0.1700389
86	0xbf649986	-0.8929676
87	0xbdf7cb12	-0.120992795
88	0x3e3eed4a	0.18645206
89	0x3e9e1919	0.30878523
90	0xba4339c2	-0.0007447266
91	0x3f4ff22c	0.812289
92	0x3f88d016	1.0688503
93	0x3e6505d3	0.22365503
94	0xbe0060b3	-0.12536888
95	0x3f1bd3af	0.6086988
96	0x3c4d146b	0.012517075
97	0x3ac165ce	0.0014755072
98	0xbf7dc180	-0.9912338
99	0x3ecc0bdb	0.39852795
100	0xbf10f20e	-0.56619346
101	0xbedfc3bd	-0.43704024
102	0xbec37ed4	-0.381827
103	0xbea80aeb	-0.3282083
104	0xbcc7e605	-0.024401674
105	0xbe8cd8b3	-0.27509078
106	0x3ebd8bd6	0.3702075
107	0xbf0abd63	-0.5419523
108	0xbe9c803d	-0.30566588
109	0xbe4c41ef	-0.19947027
110	0xbefb9479	-0.49136713
111	0xbdfcfd98	-0.12353057
112	0xbacb7cec	-0.00155249
113	0xbf954fae	-1.1664941
114	0x3e87a8c1	0.26495937
115	0xbd7e4873	-0.06208081
116	0xbec4727c	-0.38368595
117	0xbba943f9	-0.0051655737
118	0x3c9a2b37	0.018819435
119	0x3ea56525	0.3230373
120	0x3d76bac0	0.060236692
121	0x3fa27df5	1.2694689
122	0x3e70ae5d	0.23504014
123	0x3eb8b785	0.36077514
124	0xbecfb6ce	-0.40569156
125	0xbde4d9de	-0.11174367
126	0x3f4dccae	0.8039044
127	0xbf02bb9b	-0.51067513
128	0x3f3a2a2d	0.72720605
129	0xbeb83c92	-0.3598371
130	0x3e8f7bdf	0.28024194
131	0x3e8af7bd	0.27142134
132	0xbb568366	-0.0032732128
133	0x3f2322cf	0.6372499
134	0xbefe3dd3	-0.49656543
135	0xbecf49e8	-0.40486073
136	0xbf8f1c3e	-1.1180494
137	0xbe49ed91	-0.1971953
138	0x3ee779c3	0.45210084
139	0x3db677e1	0.08909584
140	0xbf1dea63	-0.6168577
141	0xbecc5983	-0.39912042
142	0xbeb9a8de	-0.36261648
143	0xbfcdc9f7	-1.607726
144	0x3d96f901	0.073717125
145	0x3ebb477a	0.3657797
146	0x3d7a2859	0.061073635
147	0x3f3e240d	0.7427376
148	0xbf0a8dfd	-0.54122907
149	0x3f131084	0.57447076
150	0xbf46951a	-0.7757126
151	0xbe1de496	-0.1541923
152	0x3ee78934	0.45221865
153	0x3cc50fbc	0.024055354
154	0x3e8997e5	0.268737
155	0x3ef5d8ca	0.4801696
156	0xbf136653	-0.5757801
157	0x3f85c2e4	1.0450101
158	0x3b395ee4	0.002828532
159	0xbe2d750e	-0.16939184
160	0x3b296328	0.0025846455
161	0x3d4b682d	0.049659897
162	0xbee6e780	-0.45098495
163	0xbf26cab7	-0.6515307
164	0x3deb3e23	0.11486461
165	0xbd5dac91	-0.05411965
166	0x3e6c60c2	0.23083785
167	0x3baed45a	0.005335373
168	0xbedb3b73	-0.42818794
169	0x3e03da99	0.12876357
170	0xbf14ffb6	-0.58202684
171	0xbd96bf2c	-0.07360682
172	0x3ecfa65d	0.40556613
173	0x3df867cc	0.12129173
174	0xbda7066f	-0.08155524
175	0xbde8987b	-0.11357208
176	0xbf6e9a02	-0.9320375
177	0x3f3095f4	0.6897881
178	0x3e211dfa	0.15734091
179	0xbd6f8cc6	-0.05848386
180	0xbd5a8c70	-0.053356588
181	0x3cee5a22	0.029095713
182	0x3e1ba496	0.15199503
183	0xbe5ac948	-0.21365845
184	0xbf6b64bc	-0.91950583
185	0xbeb55a84	-0.3542062
186	0xbe022709	-0.12710203
187	0xbeabc037	-0.33545086
188	0xbd8644d8	-0.065561
189	0x3f003067	0.50073856
190	0xbecffd7a	-0.40623075
191	0x3ea6d9e6	0.32588118
192	0xbebbf43c	-0.36709774
193	0xbe8fa5a9	-0.28056076
194	0xbe9e145b	-0.30874905
195	0xbd08300a	-0.03324894
196	0x3f0d00dd	0.5507944
197	0xbf6e4e29	-0.9308801
198	0x3d93ad2b	0.072107635
199	0x3d8a198c	0.06743154
200	0xbea12e3c	-0.31480587
201	0xbd09c46f	-0.0336346
202	0x3ae23ec6	0.001726114
203	0x3efdb7df	0.49554345
204	0x3eb8bdae	0.36082214
205	0x3f37bfca	0.7177702
206	0x3f913944	1.1345601
207	0x3e499a1b	0.19687693
208	0xbea2ccaa	-0.3179677
209	0xbc6a1d3d	-0.0142891975
210	0x3efb37c6	0.4906599
211	0x3fa5ea2b	1.2962087
212	0x3e5a1bf1	0.21299721
213	0xbf2cc670	-0.6749029
214	0x3e96e916	0.29474705
215	0xbce0dffd	-0.027450556
216	0xbcb6b201	-0.022301676
217	0x3f176d21	0.5915089
218	0x3e0e300b	0.13885514
219	0xbde490bb	-0.11160418
220	0xbe71850a	-0.23585907
221	0xbe73a17b	-0.23792069
222	0x3e1af3c5	0.15132053
223	0x3d38e4b5	0.045139987
224	0x3e3dd6ed	0.18539019
225	0x3f4b1b85	0.79338866
226	0xbee23c8d	-0.44186822
227	0xbf14ae44	-0.5807841
228	0xbe02bb70	-0.12766814
229	0x3bcaebaf	0.0061926465
230	0x39a8f2af	0.0003222427
231	0xbd2c777b	-0.042106133
232	0x3f8eb007	1.1147469
233	0x3e022855	0.12710698
234	0xbef9082e	-0.48639053
235	0x3e02337d	0.12714954
236	0xbeb32483	-0.34988794
237	0xbda44935	-0.08021776
238	0x3edcabdf	0.43099877
239	0x3f515a41	0.8177834
240	0x3daff435	0.08591501
241	0x3d83daba	0.06438203
242	0x3d78b702	0.060721405
243	0xbe5dbc19	-0.21653785
244	0xbd4a311c	-0.04936324
245	0x3f1ff570	0.6248388
246	0x3e2e41fd	0.1701736
247	0xbf5fd205	-0.8742984
248	0x3f649667	0.89291996
249	0xbe29445f	-0.16529988
250	0xbef44dc9	-0.47715595
251	0xbdb48edd	-0.088163115
252	0x3dd30fea	0.1030577
253	0x3f1ebaff	0.62004083
254	0x3c2b3dbf	0.010451733
255	0xbf0eb124	-0.55739045

mu.0.bias f4 [200]
0	0xbf775a43	-0.96622103
1	0xbe1b0bce	-0.15141222
2	0x3dc49baa	0.09600003
3	0x3db415ee	0.08793245
4	0x3f076486	0.5288776
5	0x3ec2e28b	0.38063464
6	0xbf35d090	-0.71021366
7	0x3f2b4d30	0.66914654
8	0xbf9d034f	-1.2266635
9	0x3e1ab9cd	0.1510994
10	0xbefaca20	-0.48982334
11	0x3e5a9190	0.2134459
12	0xbf8cc89b	-1.099872
13	0xbfb12a82	-1.3841097
14	0x3ec3e50f	0.38260695
15	0xbe1c9eea	-0.15294996
16	0xbf8324c2	-1.0245593
17	0xbf324b87	-0.69646496
18	0x3f0aa344	0.54155374
19	0xbfc404c2	-1.5313952
20	0x3dc5fa84	0.09666923
21	0xbf970513	-1.1798424
22	0x3f4880cd	0.78321534
23	0xbfbe2bd0	-1.485712
24	0xbf488986	-0.78334844
25	0xbd708dd7	-0.05872902
26	0xbeda7a5a	-0.42671472
27	0xbd91fcbf	-0.071282856
28	0xbf7ba04f	-0.98291487
29	0xbf4d8ebf	-0.8029594
30	0xbe6ae123	-0.22937445
31	0xbfe2af61	-1.7709771
32	0xbf90a71d	-1.1300999
33	0x3ece9b2b	0.4035276
34	0xbf31585c	-0.6927545
35	0xbf8f2e3b	-1.1185983
36	0xbf656c4c	-0.8961837
37	0xbd9fd825	-0.07804898
38	0x3f628ff6	0.88500917
39	0x3e1dee28	0.1542288
40	0xbf97081d	-1.1799351
41	0xbe17cf10	-0.14825082
42	0xbf1973cd	-0.5994232
43	0xbf9bdd29	-1.2176868
44	0x3f0aa5b7	0.5415911
45	0xbf3f8865	-0.74817497
46	0xbf2ec6bf	-0.6827201
47	0xbf9c0544	-1.2189107
48	0xbfc92d5f	-1.5716971
49	0x3f5cceb0	0.8625288
50	0xbfaddb4c	-1.3582549
51	0xbf91e2a4	-1.139729
52	0xbf130ad8	-0.5743842
53	0x3f1e9e55	0.61960346
54	0xbfb5a8c7	-1.4192132
55	0x3f5a7873	0.8534004
56	0x3e5783c3	0.21046357
57	0xbfbdd969	-1.4831973
58	0x3eb40b9e	0.35165113
59	0xbf4b3f71	-0.7939368
60	0x3f730de4	0.9494307
61	0x3e603126	0.21893749
62	0x3f4836cf	0.7820863
63	0xbfbc5a53	-1.4715065
64	0x3f4d90ad	0.8029888
65	0xbeb28532	-0.34867245
66	0xbf418e4d	-0.7560776
67	0x3eebac08	0.46029687
68	0x3f8a9fef	1.0830058
69	0x3f27b7aa	0.65514624
70	0x3e3e3147	0.18573485
71	0xbe377978	-0.1791743
72	0x3e36dcf9	0.17857732
73	0xbeb6997c	-0.35663974
74	0xbe538f7c	-0.20660204
75	0xbf7c96b7	-0.9866747
76	0xbf368dd5	-0.7131017
77	0xbfc76bf5	-1.5579821
78	0x3c55e086	0.013054019
79	0xbf289cba	-0.65864146
80	0x3ea1f930	0.31635427
81	0xbf076310	-0.5288553
82	0xbecbe382	-0.39822012
83	0x3e41b2b6	0.18915829
84	0x3d454de2	0.048169978
85	0xbfc831f3	-1.5640243
86	0xbf402b9d	-0.7506655
87	0xbfd2fc9d	-1.6483341
88	0x3d30fceb	0.04320995
89	0x3da6321c	0.08115026
90	0xbf34d577	-0.7063822
91	0x3f4a288e	0.7896813
92	0xbe55ff2c	-0.20898122
93	0xbe8ada26	-0.2711956
94	0x3ea344ef	0.3188853
95	0xbf884545	-1.0646139
96	0xbdd03377	-0.10166066
97	0xbfa56235	-1.2920595
98	0x3e3c5c49	0.18394579
99	0xbd8a23c2	-0.067451015
100	0xbf08ec64	-0.53485703
101	0x3ec00014	0.3750006
102	0x3ede0565	0.4336349
103	0x3f7651f8	0.96218824
104	0x3eb7e788	0.35918832
105	0x3ed3df9e	0.41381544
106	0xbfebb5e3	-1.8414882
107	0xbf3e565d	-0.7435053
108	0x3f14a7e7	0.580687
109	0x3f84e56a	1.0382512
110	0x3f42914d	0.7600296
111	0xbf1df819	-0.6170669
112	0xc0219e71	-2.5252955
113	0xbfc82226	-1.5635421
114	0xbdfd7ddd	-0.12377522
115	0xbf422b8e	-0.7584771
116	0x3e076154	0.13220721
117	0x3cecd50c	0.028910182
118	0xbf2ad317	-0.6672835
119	0xbe8629bf	-0.26203725
120	0x3f2740d7	0.6533331
121	0x3f008d3a	0.50215495
122	0x3e2b170a	0.16708007
123	0x3f4609f2	0.77358925
124	0xbd457f39	-0.048217032
125	0xbf29030a	-0.6602026
126	0xbf4f23b6	-0.80913866
127	0xbeb80a93	-0.35945567
128	0xbf94b9d9	-1.1619216
129	0xbdded853	-0.10881104
130	0x3f684947	0.9073681
131	0xbf3e3b7f	-0.74309534
132	0xbfa9d85d	-1.3269154
133	0xbff37e4e	-1.902292
134	0xbf5bf19c	-0.8591554
135	0x3e4f6203	0.20252232
136	0xbfc4262e	-1.5324152
137	0x3f71bee5	0.94431907
138	0xbfecd38e	-1.8502061
139	0xbe540738	-0.20705879
140	0x3ee54bf6	0.44784516
141	0xbf326609	-0.69686943
142	0xc008b581	-2.1360781
143	0xbf258808	-0.6466069
144	0x3e740f30	0.23833919
145	0xbfadf45d	-1.3590199
146	0x3d808fac	0.06277403
147	0x3e847cf0	0.2587657
148	0xbe86fa9a	-0.2636307
149	0xbf7e856f	-0.99422354
150	0xbf25a287	-0.6470112
151	0xbe0982bf	-0.13428782
152	0xbef420b7	-0.4768121
153	0x3d87734b	0.06613787
154	0x3dde6229	0.10858566
155	0xbc7704e1	-0.015076847
156	0xbe5e630e	-0.21717474
157	0x3f00ff88	0.5038991
158	0x3f0aaedc	0.54173064
159	0x3ec46d95	0.38364854
160	0xbf019998	-0.5062499
161	0xbf69e829	-0.91369873
162	0x3f7e8eba	0.99436533
163	0x3f407826	0.7518333
164	0xbffd3114	-1.9780602
165	0x3ea61620	0.32438755
166	0x3e928e01	0.28623965
167	0x3e21ea20	0.15811968
168	0xbf73cbaa	-0.9523264
169	0xbe13c340	-0.1442995
170	0xbdd5e7b3	-0.10444584
171	0xbf84230d	-1.0323197
172	0xbf798a34	-0.97476506
173	0x3f84cc12	1.0374777
174	0xbe9890c6	-0.29797953
175	0x3e15be5f	0.14623402
176	0x3f229102	0.63502514
177	0x3facb4e2	1.3492701
178	0x3ee52f79	0.4476278
179	0xbc1bfe86	-0.009521132
180	0xbed74ba2	-0.4204989
181	0xbf455c85	-0.770943
182	0x3f02c413	0.51080436
183	0xbf1437db	-0.5789773
184	0x3ed04b8e	0.40682644
185	0xbf908533	-1.1290649
186	0xbf863b6c	-1.0486884
187	0xbf465809	-0.7747808
188	0xbf089969	-0.53359085
189	0x3e9634df	0.29337212
190	0xbf27a6a8	-0.6548867
191	0x3f09cdee	0.5382985
192	0xbf391300	-0.72294617
193	0xbfb3080b	-1.398683
194	0x3e805790	0.25066805
195	0xbe8184f7	-0.25296757
196	0xbf73647d	-0.9507521
197	0xbfd25287	-1.6431435
198	0xbdf88718	-0.12135142
199	0xbef0cd5d	-0.4703168

mu.2.weight f4 [6, 200]
0	0xbc81527c	-0.015786402
1	0x3dc247bc	0.094863385
2	0x3d356dcc	0.044294164
3	0x3e44b094	0.19207984
4	0x3bddb81b	0.006766332
5	0x3e007280	0.12543678
6	0x3cc9c268	0.024628833
7	0x3e9ac13b	0.30225548
8	0x3e17a149	0.14807619
9	0xbdd41ae2	-0.1035669
10	0x3dfe298e	0.1241027
11	0x3dc646e1	0.09681488
12	0xbd6d30d6	-0.0579079
13	0xbedd283d	-0.43194762
14	0x3e60c071	0.2194841
15	0xbdc77047	-0.09738212
16	0x3e5c3546	0.21504697
17	0x3d9b03ce	0.07569085
18	0xbb6d501b	-0.0036211077
19	0xbd160a0f	-0.036630686
20	0x3d866dad	0.06563888
21	0x3bc91d70	0.0061375424
22	0x3d89f5b4	0.06736317
23	0xbcd66c51	-0.026174696
24	0x3e608c88	0.21928608
25	0xbdef7e5c	-0.11694023
26	0x3d05e60d	0.032690097
27	0x3d816ac0	0.06319189
28	0x3ec4dfe9	0.3845208
29	0xbead0f15	-0.3380057
30	0xbdcca4fc	-0.09992406
31	0x3eb9f5cb	0.36320338
32	0x3e80fb54	0.25191748
33	0x3e324fa5	0.17413194
34	0x3e8c54e4	0.27408516
35	0xbe4d8d15	-0.2007335
36	0xbdb4f397	-0.088355236
37	0xbcddfc19	-0.027097749
38	0xbd48d90e	-0.049035124
39	0xbdbe75ee	-0.09299837
40	0x3d0478d4	0.032341793
41	0x3e605fb5	0.2191151
42	0xbe3d0d8c	-0.18462199
43	0xbdee6ebb	-0.11642214
44	0x3f000de7	0.50021213
45	0x3de58393	0.112067364
46	0x3cc730a2	0.024315182
47	0xbb9ea82f	-0.0048418264
48	0x3d64e404	0.055881515
49	0x3e714831	0.23562695
50	0x3f16cc9a	0.5890595
51	0xbe05536c	-0.13020104
52	0x3ed2118b	0.4102901
53	0xbde68287	-0.11255365
54	0xbe5b8a57	-0.21439491
55	0xbe13821c	-0.14405102
56	0xbd9bc2b4	-0.07605496
57	0x3d5ecafc	0.0543928
58	0x3de005ab	0.10938581
59	0x3e9c8d4a	0.30576545
60	0xbd877b60	-0.06615329
61	0xbef53246	-0.47889918
62	0x3e220edc	0.15825981
63	0x3d79762d	0.060903717
64	0x3e849d12	0.25901085
65	0xbdade482	-0.0849085
66	0x3c32aa97	0.01090493
67	0xbebbb9c2	-0.3666516
68	0xbf04a839	-0.5181919
69	0x3f06e160	0.52687645
70	0xbe9e8571	-0.30961183
71	0x3deccd21	0.11562563
72	0x3d090cdd	0.033459533
73	0x3cb7813c	0.022400491
74	0x3ce0c332	0.027436826
75	0xbf11d414	-0.5696423
76	0xbec51398	-0.3849151
77	0x3fb05810	1.3776875
78	0xbe0b58cb	-0.1360809
79	0xbce10a52	-0.027470741
80	0xbcd27c8e	-0.025694158
81	0xbe3c67bd	-0.18398948
82	0x3d4e4b9d	0.05036508
83	0xbd9cc5f5	-0.07654945
84	0xbe361931	-0.17783047
85	0xbdf57ede	-0.119870886
86	0x3ab46936	0.0013764265
87	0xbf061599	-0.52376705
88	0xbc912afe	-0.017720696
89	0x3df7d522	0.12101199
90	0x3d31c1f7	0.04339787
91	0xbe9e7b70	-0.3095355
92	0xbd68ff69	-0.056884203
93	0x3dfaa9f6	0.12239449
94	0xbdc17f4f	-0.0944811
95	0xbf24fed0	-0.64451313
96	0xbe226d35	-0.15861972
97	0x3f8a4905	1.0803534
98	0xbe734cb0	-0.23759723
99	0xbbf7ea90	-0.007565804
100	0x3dd65235	0.104648985
101	0x3d28a9a8	0.04117742
102	0xbe16c858	-0.14724863
103	0x3e2bb772	0.16769198
104	0xbe56e9a9	-0.20987572
105	0xbd8b6eea	-0.068082646
106	0x3e0dbfd2	0.13842705
107	0xbeb1c3da	-0.34719735
108	0x3ee432b3	0.4456993
109	0x3dd0d0da	0.10196085
110	0x3cf9afb3	0.030479288
111	0xbdfe999b	-0.12431642
112	0xbfa1b24b	-1.2632536
113	0x3e8d8892	0.27643257
114	0xbed2abbc	-0.41146648
115	0xbd783c83	-0.060604583
116	0xbe2e7d8f	-0.17040084
117	0x3df88f6c	0.121367306
118	0x3db863cb	0.09003409
119	0xbd57af93	-0.052657675
120	0x3d6ffc10	0.058589995
121	0x3ef81c9b	0.48459324
122	0x3c2ec9ea	0.010668257
123	0xbe5fb157	-0.21844994
124	0xbd8d02cb	-0.06885298
125	0xbcf9f95f	-0.030514417
126	0x3dd76343	0.105169795
127	0x3dbd521e	0.09244178
128	0xbe4b0837	-0.19827352
129	0xbf13eb82	-0.5778123
130	0xbe8784af	-0.26468417
131	0xbd8be38c	-0.068305105
132	0xbd392c89	-0.045208488
133	0x3d97042c	0.073738426
134	0x3d58eae7	0.052958395
135	0xbdd7eca8	-0.105431855
136	0xbc3145c5	-0.010819857
137	0x3efda5d0	0.49540567
138	0xbdbd15c9	-0.09232671
139	0xbd9b3c13	-0.075798176
140	0xbe8edd99	-0.2790344
141	0x3d7535d8	0.059865803
142	0xbfc4aa38	-1.5364447
143	0xbf1db4c4	-0.6160395
144	0x3deece27	0.11660414
145	0x3e0a3e50	0.13500333
146	0x3d81a404	0.063301116
147	0x3ea731fc	0.32655323
148	0xbe4a39f2	-0.19748667
149	0xbc556a95	-0.013025899
150	0x3f170d3a	0.5900456
151	0x3e70fdd6	0.2353433
152	0x3e445d7c	0.19176286
153	0xbe1ca934	-0.15298921
154	0xbddfd741	-0.10929728
155	0xbdd941b9	-0.10608239
156	0x3dbad487	0.091225676
157	0xbc40b014	-0.01176073
158	0xbde6fd8a	-0.112788275
159	0xbd4d9b91	-0.050197188
160	0x3e380bb6	0.17973217
161	0xbb810179	-0.003936943
162	0x3e02a09a	0.12756577
163	0x3df6cf58	0.120512664
164	0x3c7df931	0.015501306
165	0xbdc76fd1	-0.09738124
166	0x3db8f37b	0.09030815
167	0xbeb9dec9	-0.36302784
168	0x3d5d5b67	0.054042246
169	0xbdcba5c7	-0.09943729
170	0xbc66b47a	-0.014081115
171	0x3bf6ecef	0.007535569
172	0x3ec41b7f	0.38302228
173	0x3e42c3e8	0.19020045
174	0x3e9c67c6	0.30547923
175	0x3e394280	0.18091774
176	0x3e1b14f0	0.15144706
177	0xbd4f308c	-0.050583407
178	0xbf0acb34	-0.54216313
179	0xbe73adc7	-0.2379676
180	0xbd4ff4a6	-0.050770424
181	0x3d3f9db6	0.046781264
182	0xbe83f65b	-0.25773892
183	0xbd63ebf1	-0.055644933
184	0x3d354722	0.04425729
185	0xbd831211	-0.0639993
186	0xbdcba09e	-0.09942745
187	0xbd746813	-0.059669565
188	0xbe694290	-0.22779298
189	0x3ea20403	0.31643686
190	0xbdb9410e	-0.09045611
191	0xbdb8d1b9	-0.090243764
192	0xbe3446c6	-0.17605123
193	0x3e159cf1	0.1461065
194	0x3e2134cd	0.15742798
195	0x3d85b029	0.065277405
196	0xbb11e7c3	-0.0022263385
197	0x3f5c60f8	0.8608546
198	0x3e268af9	0.16263951
199	0x3e134955	0.14383443
200	0xbdb7aba3	-0.08968284
201	0xbd380766	-0.04492893
202	0xbcfea59d	-0.03108483
203	0xbdbd8255	-0.092533745
204	0x3cac9b05	0.021070013
205	0x3e98441e	0.2973947
206	0xbdb9e032	-0.09075965
207	0x3dee7dcb	0.11645087
208	0xbddbf4de	-0.10740064
209	0xbd638a55	-0.055551846
210	0xbe3a798e	-0.18210432
211	0x3ec73608	0.3890841
212	0xbe01f076	-0.12689385
213	0xbf797f0e	-0.97459495
214	0xbdaf4b63	-0.08559301
215	0x3e191c8a	0.14952293
216	0xbe878fa8	-0.2647679
217	0x3d8cdc4c	0.06877956
218	0x3e50544f	0.20344661
219	0xbdf813e1	-0.121131666
220	0xbe0129f0	-0.12613654
221	0x3d958a6a	0.07301791
222	0x3e0128f1	0.12613274
223	0xbe36e67b	-0.17861359
224	0xbdea04a0	-0.114266634
225	0xbb795c63	-0.0038049452
226	0x3c7bd2e9	0.015370109
227	0xbe2a8286	-0.16651353
228	0xbe8f8e20	-0.2803812
229	0x3d934041	0.0718999
230	0x3e65836a	0.22413412
231	0x3f309154	0.68971753
232	0x3e9865d9	0.29765204
233	0xbba00540	-0.0048834383
234	0x3e7536ed	0.23946734
235	0xbe1c2325	-0.15247782
236	0xbd84f400	-0.06491852
237	0xbdb8e286	-0.09027581
238	0x3eab6c15	0.33480898
239	0x3db6d897	0.0892803
240	0xbcf7bee4	-0.03024239
241	0xbecf75b5	-0.4051949
242	0x3e32f50c	0.1747629
243	0xbdf1e139	-0.11810536
244	0xbe6211ba	-0.22077075
245	0x3e6d0670	0.23146987
246	0xbe355539	-0.17708291
247	0x3dfcc8a8	0.1234296
248	0x3e05d7b3	0.13070564
249	0x3e5f53d7	0.21809326
250	0xbecbf24c	-0.39833295
251	0xbe0a69c4	-0.13516909
252	0x3e057900	0.13034439
253	0x3e56980d	0.2095644
254	0xbf1915ea	-0.59799063
255	0xbd7bd8fb	-0.061486226

mu.2.bias f4 [6]
0	0xbd768b24	-0.06019129
1	0xbd2d13b7	-0.04225513
2	0xbd21dc4e	-0.03951674
3	0xbb9fd563	-0.0048777326
4	0xbe570a2e	-0.20999977
5	0xbe6ea405	-0.23304756

reward_fun.0.weight f4 [200, 7]
0	0x3f3c9f2f	0.73680395
1	0xbf196da9	-0.59932953
2	0xbeed0360	-0.46291637
3	0xbe198181	-0.14990808
4	0xbf7592ac	-0.9592693
5	0xbf1a2460	-0.60211754
6	0x3f7183d6	0.9434179
7	0x3d11ddf7	0.035612073
8	0x3f76bb97	0.9637999
9	0x3f1b3266	0.60623777
10	0xbfb57380	-1.4175873
11	0xbe93b5b3	-0.28849563
12	0xbe3b7ba1	-0.1830888
13	0x3e8ca718	0.27471232
14	0x3f7125cd	0.94198304
15	0x3f1bbc3d	0.60834104
16	0xbeaa8454	-0.33304083
17	0x3f2eecb3	0.68329924
18	0xbda68108	-0.081300795
19	0xbea2cf26	-0.31798667
20	0xbfc28ed3	-1.5199836
21	0xbefa392e	-0.4887175
22	0x3f16eace	0.58952034
23	0x3e5e1980	0.21689415
24	0xbf11d6e6	-0.56968534
25	0x3e3f5a30	0.18686748
26	0x3ec248bb	0.37946114
27	0xbf2a9922	-0.6663991
28	0x3fdda9c1	1.731743
29	0x3e85f685	0.26164642
30	0xbf515124	-0.81764436
31	0x3ec80eae	0.390737
32	0xbf6c6017	-0.9233412
33	0xbf798745	-0.9747203
34	0xbe4b306e	-0.19842693
35	0x3edc4f2c	0.43029153
36	0x3f633a61	0.88760954
37	0x3e0b80ba	0.13623324
38	0xbfb82c4f	-1.4388522
39	0x3e93cc71	0.28866914
40	0x3f1722cb	0.59037465
41	0x3f229647	0.63510555
42	0x3eb1e35e	0.3474378
43	0xbf4f4af9	-0.80973774
44	0xbedd86bb	-0.43266854
45	0x3ee50b8d	0.44735375
46	0xbf3f0b9a	-0.7462708
47	0xbec867fc	-0.39141834
48	0xbeba51b2	-0.36390454
49	0xbcfd18ae	-0.030895557
50	0x3f889518	1.06705
51	0xbb01581f	-0.0019736362
52	0x3f670a17	0.9024977
53	0x3f65fb03	0.8983614
54	0x3efc95ad	0.49332944
55	0x3f98b682	1.1930697
56	0x3f88683d	1.0656811
57	0x3e26b282	0.16279033
58	0xc0004a72	-2.0045438
59	0x3d9b13a9	0.07572109
60	0x3efddd08	0.49582696
61	0x3f115673	0.56772536
62	0xbfa19205	-1.2622687
63	0xbfcc0b62	-1.5940974
64	0xbd63e975	-0.055642564
65	0x3feb2ea2	1.8373606
66	0xbed0d170	-0.40784788
67	0x3efed0bc	0.49768627
68	0x3ecd110f	0.40052077
69	0xbeae3785	-0.34026733
70	0xbd890e42	-0.066921726
71	0x3f7ee7d0	0.9957247
72	0x3f4cb47f	0.79962915
73	0x3fbd2346	1.477639
74	0x3ec76bf9	0.38949564
75	0x3eaedb0c	0.34151495
76	0xbf6a25c5	-0.9146388
77	0x3f48c8fa	0.78431666
78	0x3e2c8644	0.16848093
79	0xbe5c36e4	-0.21505314
80	0xbd21839b	-0.03943215
81	0x3e825049	0.25451878
82	0x3ec27723	0.3798152
83	0xbe14a3f3	-0.14515667
84	0x3f4f2f41	0.8093148
85	0xbf1c557d	-0.61067945
86	0xbe937cfd	-0.28806296
87	0x3eceff81	0.4042931
88	0x3f02ec75	0.51142055
89	0x3f29a519	0.66267544
90	0xbfc1f974	-1.5154252
91	0xbf9615ca	-1.17254
92	0xbe190757	-0.14944206
93	0x3e74993b	0.23886578
94	0xbe61ad15	-0.22038682
95	0xbec481c8	-0.38380265
96	0xbea66b4c	-0.32503736
97	0x3fccbe17	1.5995511
98	0xbf278c3e	-0.6544837
99	0x3fdf9f62	1.7470515
100	0xbf41242a	-0.75445807
101	0x3f21a28d	0.6313866
102	0x3ea25134	0.31702578
103	0x3edbdfc4	0.42944157
104	0xbe139260	-0.14411306
105	0x3ebdcbf7	0.37069675
106	0x3e38565c	0.18001693
107	0x3f561336	0.83623064
108	0x3fbe33a4	1.485951
109	0xbe3bd178	-0.18341625
110	0xbe828097	-0.2548873
111	0xbf8f4758	-1.1193647
112	0x3ef980e6	0.48731154
113	0x3fab7058	1.339366
114	0xbf1a52f1	-0.6028281
115	0xbea2f53f	-0.31827733
116	0x3f924765	1.1428038
117	0x3f7ecd0b	0.9953162
118	0x3e1fe049	0.15612902
119	0xbdf434e9	-0.11924154
120	0x3fa24b53	1.2679237
121	0x3f3d95ab	0.740565
122	0x3f775bda	0.9662453
123	0xbf032390	-0.5122614
124	0xbea1cad9	-0.31600073
125	0xbdadf359	-0.084936805
126	0x3f1c02bb	0.60941666
127	0x3f28b2b2	0.6589767
128	0xbf3a5ab6	-0.72794664
129	0xbe9864cb	-0.297644
130	0xbe36f254	-0.17865878
131	0xbdcec79a	-0.10096665
132	0xbff07baf	-1.8787745
133	0xc0005a85	-2.0055249
134	0xbf0e7b4e	-0.556569
135	0xc022688a	-2.5376306
136	0x3f1d1b59	0.61369854
137	0x3da07fd3	0.078368805
138	0x3e65ae08	0.22429669
139	0xbf03c5f1	-0.5147391
140	0xbf06757c	-0.52523017
141	0x3fde5ff9	1.7373039
142	0x3f4c9285	0.7991107
143	0x3fd11ef2	1.6337569
144	0xbe250d49	-0.16118349
145	0x3e40ac99	0.18815841
146	0xbfb05dc6	-1.3778617
147	0x3f8274b8	1.019187
148	0x3ef80b80	0.48446274
149	0x3e72a7ac	0.23696774
150	0xbf524766	-0.82140195
151	0xbf058f8a	-0.5217215
152	0xbc179427	-0.009251631
153	0xc003543d	-2.0520165
154	0x3fbb5e22	1.4638102
155	0x3efcbfd5	0.49365106
156	0xbfc3d4a4	-1.5299268
157	0x3f6671c2	0.9001733
158	0x3e1910ee	0.14947864
159	0x3bfbed3c	0.0076881927
160	0x3f9a794e	1.2068269
161	0x3f6af358	0.91777563
162	0xbf297959	-0.66200787
163	0x3f73e354	0.9526875
164	0x3c038035	0.008026172
165	0x3f7f4ad9	0.99723583
166	0x3f3e86fd	0.74424726
167	0x3edac060	0.42724895
168	0x3d1076c2	0.035269506
169	0xbf958813	-1.1682152
170	0xbdc6cb91	-0.09706796
171	0x3f0987b4	0.5372269
172	0xbf333d52	-0.7001544
173	0xbe59657f	-0.21230124
174	0xbf1ee62d	-0.6206997
175	0x3f10c62a	0.56552374
176	0x3f6c485f	0.9229793
177	0x3db37e31	0.087643035
178	0xbebf3a73	-0.3734928
179	0xbf3daa03	-0.7408754
180	0xbf2b09ff	-0.6681213
181	0x3fa5ab12	1.2942832
182	0x3dbf7eda	0.09350367
183	0xbfae5b27	-1.3621567
184	0xbe643dfa	-0.22289267
185	0xbedc8984	-0.43073666
186	0x3dbff9ca	0.09373815
187	0x3df0c8c0	0.1175704
188	0x3f824555	1.0177408
189	0x3f6e0f9d	0.92992574
190	0xbda542d8	-0.0806939
191	0xbed2a663	-0.41142568
192	0x3cdabb9b	0.026700785
193	0xbcfc0eb7	-0.030768735
194	0x3f37344c	0.71564174
195	0x3f368728	0.7129998
196	0xbe37185d	-0.17880388
197	0xbf1484d9	-0.5801521
198	0x3e102242	0.14075568
199	0xbfb7b3db	-1.4351763
200	0xbf253481	-0.6453324
201	0xbf1b1338	-0.605762
202	0x400635aa	2.0970254
203	0x3f144fe1	0.57934386
204	0x3f878127	1.0586289
205	0xc000d3d8	-2.01293
206	0x3fb499d8	1.4109449
207	0xbd79abe4	-0.060954943
208	0xbdba5447	-0.09098106
209	0xbe569493	-0.20955114
210	0x3f7d125f	0.9885616
211	0xbf05ae8c	-0.5221946
212	0xbf12b873	-0.573127
213	0xbd91592b	-0.070970856
214	0xbe47aa8b	-0.1949865
215	0xbf39ae4d	-0.72531587
216	0x3ee4ab9d	0.4466218
217	0x3f02bf8b	0.5107352
218	0x3f35dd6e	0.71041
219	0xbeaccc5f	-0.33749673
220	0xbe92e3cd	-0.28689423
221	0x3ecbe25c	0.39821136
222	0x3e1ee112	0.15515545
223	0xbe04c9c2	-0.1296759
224	0x3f1b44a0	0.6065159
225	0x3fde6e1b	1.7377352
226	0x3ed4badc	0.41548812
227	0x3e6e1c1e	0.23252913
228	0x3f053845	0.52038985
229	0x3ef53979	0.4789541
230	0x3fa2d290	1.2720509
231	0x3f15fb19	0.5858627
232	0x3f4cab55	0.7994893
233	0xbf9ea558	-1.2394209
234	0xbe31261a	-0.17299691
235	0x3f15d66a	0.58530295
236	0x3ed73010	0.42028856
237	0x3fd7b1f9	1.6851188
238	0xbcc252ba	-0.023721088
239	0x3e374600	0.17897797
240	0x3d407727	0.046988633
241	0x3d050347	0.03247383
242	0x3d011d66	0.031522177
243	0xbcb151a8	-0.021645382
244	0xbd383460	-0.044971824
245	0x3e4afe08	0.19823468
246	0x3e8416e4	0.25798714
247	0xbe7e7577	-0.24849497
248	0xbf5db68b	-0.86606663
249	0xbe6f14ee	-0.23347828
250	0x3f2650e4	0.6496718
251	0x3e974df5	0.29551664
252	0xbf038c5a	-0.51386034
253	0xbf9b3ed9	-1.2128555
254	0xbfbdce49	-1.4828578
255	0xbed305d1	-0.41215375

reward_fun.0.bias f4 [200]
0	0xbfa60cd9	-1.2972671
1	0xbe78a80d	-0.24282856
2	0xbfbdf826	-1.4841354
3	0xbe79d915	-0.24399216
4	0xbfac9836	-1.3483951
5	0xbf9983c2	-1.1993334
6	0xbd99f93d	-0.075182416
7	0xbff39a59	-1.9031478
8	0xbfdf9580	-1.7467499
9	0xbf80395d	-1.0017506
10	0xbfc9d5c5	-1.5768362
11	0xbf1026ab	-0.56309
12	0xbfb615c9	-1.4225398
13	0xbf5187cf	-0.8184785
14	0xbf5c99d2	-0.8617221
15	0xbfbc2c91	-1.47011
16	0xbfd4349e	-1.6578557
17	0xbf52c213	-0.82327384
18	0xbfd83356	-1.6890666
19	0xbfc0dc6f	-1.5067271
20	0xbfb2e855	-1.3977152
21	0xc015c47f	-2.3401182
22	0xbfdfe63b	-1.7492136
23	0xbfd0b038	-1.6303778
24	0xbf963c10	-1.173708
25	0xbf4e2978	-0.80532026
26	0xbf74aba7	-0.9557442
27	0xc04e2b42	-3.2213902
28	0xbfe49e76	-1.7860858
29	0xbfc47f14	-1.5351281
30	0xbfec3567	-1.8453797
31	0xbe9d588d	-0.3073162
32	0xbfe6309b	-1.7983583
33	0xbfdffc6d	-1.7498909
34	0xbf2173f1	-0.6306754
35	0xc02a6b4d	-2.6627991
36	0xbf83c860	-1.0295525
37	0xbf9a1b2a	-1.203954
38	0xbeccd21c	-0.4000405
39	0xbee6bd73	-0.45066413
40	0xbf2f85b4	-0.6856339
41	0xbfa7e687	-1.3117226
42	0xc019f526	-2.4055877
43	0xbff9f32e	-1.9527338
44	0xbf475f50	-0.7787981
45	0xbfd5bb27	-1.6697739
46	0xbea71705	-0.3263475
47	0xbfe5fac5	-1.7967154
48	0xbf8370ad	-1.0268761
49	0xbe8f8447	-0.28030607
50	0xbe891d4e	-0.2678017
51	0xbfdaf898	-1.7107115
52	0xbfdf564e	-1.7448213
53	0xbedb6088	-0.42847085
54	0xbe75c347	-0.24000274
55	0xbf1f8272	-0.6230842
56	0xbee64870	-0.4497714
57	0xbddca175	-0.10772983
58	0x3de21951	0.11039985
59	0xbfa840d8	-1.3144789
60	0xbfcde345	-1.6084982
61	0xbfd83769	-1.689191
62	0xbfc7f864	-1.5622678
63	0xbff3ae72	-1.9037611
64	0xbf88984c	-1.0671477
65	0xbf841f67	-1.0322083
66	0xbf90d6fc	-1.1315608
67	0xbf965126	-1.1743515
68	0xbf948542	-1.1603167
69	0x3d1106ef	0.035407003
70	0xbea29e4e	-0.31761402
71	0xbf284c23	-0.65741175
72	0xbf8123b1	-1.0089017
73	0xbfe2b506	-1.7711494
74	0xbf533c1b	-0.8251359
75	0xbf9842d2	-1.1895392
76	0xbf99fa28	-1.2029467
77	0xbf8f6a86	-1.1204383
78	0xbfc873e5	-1.5660368
79	0xbf7fac21	-0.9987202
80	0xbf8e78e8	-1.1130648
81	0xbfa36bff	-1.2767333
82	0xbff11370	-1.8834057
83	0xbfba586b	-1.4558233
84	0xbfad7680	-1.3551788
85	0xbf87dbdf	-1.0613974
86	0xbf9a7021	-1.2065469
87	0xbfa034e2	-1.2516139
88	0xbf8a0590	-1.0782948
89	0x3d2fe95a	0.04294715
90	0xbf875a64	-1.057446
91	0xbfaa4cd6	-1.3304698
92	0xbfa39256	-1.2779033
93	0xbf01ce5e	-0.50705516
94	0xbfbbf083	-1.4682773
95	0xbfcdd28b	-1.6079878
96	0xc010b438	-2.2609997
97	0xc00ee264	-2.2325678
98	0xbf3a67ff	-0.72814935
99	0xc0186b92	-2.3815656
100	0xbee6e0e0	-0.4509344
101	0xbfb0ad3b	-1.3802866
102	0xbf9cd5ff	-1.2252806
103	0xc0150f65	-2.3290646
104	0xbf53de4f	-0.8276109
105	0xbf51ac0a	-0.81903136
106	0xc01fffb1	-2.4999812
107	0xbf97f424	-1.1871381
108	0xbf9b5126	-1.213414
109	0xbe860d7c	-0.26182163
110	0xbf52f936	-0.82411516
111	0xc00648d3	-2.0981948
112	0xbfa0dce6	-1.2567413
113	0xbf65a0cb	-0.89698476
114	0xbf6345cf	-0.88778394
115	0xbf6e5da9	-0.93111664
116	0xbf331c9b	-0.69965523
117	0xbf5d2c1a	-0.8639542
118	0xbf9b4cb7	-1.2132787
119	0xbf75fe5a	-0.96091235
120	0xbffa5e26	-1.9559982
121	0xc00698b9	-2.1030715
122	0xbf8d3f42	-1.103493
123	0xbf0d80df	-0.55274767
124	0xbed5e4ad	-0.41776028
125	0xbfae3db4	-1.361258
126	0xbf868751	-1.0510045
127	0xbfa69768	-1.3014956
128	0xbf9d61e2	-1.2295496
129	0xbf417e5f	-0.7558345
130	0xbebc63cb	-0.36794886
131	0xbf7bb20e	-0.98318565
132	0xbee293b9	-0.44253328
133	0xbf798605	-0.9747012
134	0xbf8c1378	-1.0943441
135	0xbf5a7514	-0.853349
136	0xbf89446a	-1.0724003
137	0xbf80288b	-1.0012373
138	0xbfb96586	-1.4484107
139	0xbf18d126	-0.59694135
140	0xbf810524	-1.0079694
141	0xbe8952ef	-0.26821086
142	0xbf81c678	-1.0138693
143	0xbf199f36	-0.6000856
144	0xbff412f1	-1.906828
145	0xbfa2ac54	-1.270884
146	0xbf1c3b71	-0.610282
147	0xbfed4df9	-1.853942
148	0xbfc97257	-1.5738019
149	0xbe26d341	-0.16291524
150	0xbcad3b2b	-0.021146378
151	0xbfdb6392	-1.7139761
152	0xc02cc8ac	-2.699748
153	0xbeca10cc	-0.3946594
154	0x3d807841	0.062729366
155	0xbf55cdb2	-0.8351699
156	0xbfa24a24	-1.2678876
157	0xbf603ffc	-0.8759763
158	0xbf3451ce	-0.70437324
159	0xbea848bf	-0.32868
160	0xbf357409	-0.7088018
161	0xbf77c440	-0.9678383
162	0xbfd73fc2	-1.6816332
163	0xbf764a4f	-0.96207136
164	0xbe5ae99d	-0.21378179
165	0xbf3cbb24	-0.73723054
166	0x3e287029	0.16449036
167	0xbf68d3ef	-0.90948385
168	0xbf538bc5	-0.82635146
169	0xbf845b63	-1.0340389
170	0xbf9aa606	-1.2081916
171	0xbeece472	-0.4626804
172	0xbf3c3ef7	-0.73533577
173	0xbfb381ed	-1.4024025
174	0xbf19cd2f	-0.6007871
175	0xbfb8ff0a	-1.4452832
176	0xbfe2c4fb	-1.7716364
177	0xbf8cc445	-1.0997397
178	0xbfabc3b9	-1.3419105
179	0xbee40efd	-0.44542685
180	0xbef8976e	-0.48553032
181	0xbf1b0335	-0.6055177
182	0xbe962d44	-0.2933141
183	0xbee4660a	-0.446091
184	0xbfd79f25	-1.6845442
185	0x3b2278e8	0.0024791304
186	0xbfd6d4b3	-1.6783661
187	0xbf44fcef	-0.76948446
188	0xbf4f4925	-0.80970985
189	0xbff92779	-1.9465171
190	0xbfb53ea0	-1.4159737
191	0xbedae5d2	-0.42753464
192	0x3e4bb98f	0.19895004
193	0xbf72555c	-0.946615
194	0xbf958c01	-1.1683351
195	0xbf3bdabb	-0.7338063
196	0xbf8c7f49	-1.0976344
197	0xbfe7743f	-1.808235
198	0xbf6b9f76	-0.92040193
199	0xc00e5923	-2.2241905

reward_fun.2.weight f4 [200, 200]
0	0x3fa096ba	1.2545998
1	0x3e24a64f	0.16079067
2	0x3f694d5f	0.91133684
3	0xbd827af1	-0.063711055
4	0x3ea5607c	0.32300174
5	0xbe76988a	-0.24081627
6	0xbf90e7d4	-1.1320748
7	0xbf27ee7a	-0.6559826
8	0xbe0e15a1	-0.13875438
9	0x3e480bdb	0.19535773
10	0x3f21a170	0.6313696
11	0x3f6a97cd	0.9163788
12	0xbed13adf	-0.40865228
13	0x3f80db03	1.0066837
14	0x3d91ad5a	0.07113142
15	0xbee8c743	-0.45464525
16	0x3f898291	1.0742971
17	0x3f0d6707	0.5523533
18	0x3f3dbbf6	0.7411493
19	0x3ee794cd	0.45230713
20	0xbfce2a69	-1.6106693
21	0xc0940781	-4.625916
22	0x3ed7681b	0.42071614
23	0xc027b651	-2.6205027
24	0xbff0c7e7	-1.8811005
25	0x3f7bc8de	0.98353374
26	0xbf0ee92a	-0.5582453
27	0xbf774807	-0.9659428
28	0xbf53020b	-0.8242499
29	0xbb941da6	-0.004520136
30	0xbfd0a35f	-1.6299857
31	0xbc9be2f3	-0.019029116
32	0xc089cf54	-4.3065586
33	0xbf987c49	-1.1912929
34	0xbde8e605	-0.11371998
35	0xc0228191	-2.539158
36	0x3eadfbb6	0.33981103
37	0x4016f935	2.3589604
38	0xbe1605ec	-0.14650697
39	0xbd7c3f97	-0.06158408
40	0xc0175387	-2.364473
41	0x3e9220cc	0.28540647
42	0xbfecc675	-1.8498064
43	0x3ee2109e	0.44153303
44	0xbfa1fddb	-1.2655596
45	0xbee24bfe	-0.44198602
46	0xbeac4524	-0.336465
47	0xbf803d3e	-1.001869
48	0x3dfa0fdc	0.12210056
49	0xbd70fee8	-0.058836848
50	0xc0001e2b	-2.0018413
51	0xbea953c3	-0.33071718
52	0x3eb8b2bc	0.36073864
53	0xbdc0273b	-0.093824826
54	0xbb84d2a6	-0.0040534316
55	0xbe76bd1b	-0.24095576
56	0x3f26a323	0.65092677
57	0x3ef49e72	0.47777134
58	0xc023b348	-2.5578175
59	0xbe778b03	-0.24174123
60	0xbfcc0332	-1.5938475
61	0x3e77b459	0.24189891
62	0x3da6868f	0.08131134
63	0x3fe1eba4	1.7650037
64	0xbf3be101	-0.73390204
65	0xc0686dc6	-3.6317
66	0xc08c37ea	-4.3818254
67	0xbd4e55da	-0.050374843
68	0xbfdf0ddd	-1.7426106
69	0xc00a2392	-2.158421
70	0x3d684c18	0.056713194
71	0xbe12ac44	-0.14323527
72	0xbf86ba9f	-1.0525702
73	0xc079490a	-3.895083
74	0xbed4dae6	-0.41573256
75	0xbf1857f8	-0.5950923
76	0x3f57e324	0.84330964
77	0x3e97f3b0	0.29678106
78	0xc07c22d3	-3.9396255
79	0x3eadc275	0.3393742
80	0x3db5f38b	0.08884343
81	0x3fc0ec8e	1.5072191
82	0x3f20df7a	0.62841
83	0xbffccdc3	-1.9750293
84	0x3f21c76c	0.6319492
85	0xc01e9eab	-2.4784343
86	0x3d993ca1	0.07482267
87	0xbfba2ad5	-1.4544321
88	0x3f58b3a1	0.8464909
89	0x3e955908	0.29169488
90	0xc00f4533	-2.2385986
91	0xbe19b386	-0.15009889
92	0xc0890308	-4.28162
93	0x3cd0b32b	0.025476059
94	0xbfc99de0	-1.5751305
95	0xbfb9cc2b	-1.4515432
96	0x3e38bcb1	0.1804073
97	0xbfd052fc	-1.6275325
98	0x3e6992fc	0.22809976
99	0xbf59f7a1	-0.85143477
100	0x3f481ae3	0.78166026
101	0xbd8cec38	-0.06880993
102	0x3f1729d2	0.5904819
103	0xc00b5131	-2.1768305
104	0xbf28282a	-0.65686285
105	0xbcdeec6d	-0.027212346
106	0xbf3c1c8c	-0.7348106
107	0x3e18a9e8	0.14908564
108	0x3eb857ce	0.3600449
109	0xbe9bf9c8	-0.30464005
110	0xc11cf985	-9.810918
111	0xbfb3f387	-1.4058694
112	0xbed163f0	-0.4089656
113	0xbe35d00f	-0.1775515
114	0xbe7cdcec	-0.2469365
115	0x3e97246d	0.29519978
116	0x3ec70fb3	0.38879165
117	0xc0adc7dd	-5.4306474
118	0x403aef95	2.920873
119	0x3f70e302	0.94096386
120	0x3ed1e457	0.40994522
121	0x3f934705	1.1506048
122	0xc006eb16	-2.1080985
123	0xbeea121d	-0.45716944
124	0xbf4d9bcd	-0.8031586
125	0x3f4499e4	0.7679732
126	0xbd6eb691	-0.058279578
127	0x400aedf8	2.1707745
128	0xc03b6b71	-2.9284327
129	0xbe6199f5	-0.22031386
130	0x3f18557e	0.5950545
131	0x3ea8ba88	0.32954812
132	0x3ec98ca4	0.39365113
133	0x3f84ec1f	1.0384558
134	0x3fa35bde	1.2762411
135	0xbfe5eb24	-1.7962384
136	0x3d7a6b2c	0.061137363
137	0x3f90bad7	1.1307019
138	0xc0ce7f43	-6.453035
139	0xbe3846af	-0.17995714
140	0xbf3b0017	-0.7304701
141	0x4023c9f7	2.559202
142	0xbcc82a0b	-0.02443411
143	0xbecf06e0	-0.40434933
144	0x3f96f9ec	1.179502
145	0x3f080b22	0.5314199
146	0x3ef11523	0.4708644
147	0x3f1a01cb	0.60158986
148	0x3e80901a	0.2510994
149	0xbf1a69f0	-0.603179
150	0xbf34a3c2	-0.70562375
151	0xbfd2c830	-1.6467342
152	0xbe3c9987	-0.18417941
153	0x3cfbb39c	0.030725293
154	0x3e8c13ef	0.27358958
155	0xbeb65636	-0.3561265
156	0x3fe595e3	1.7936367
157	0x3f009245	0.5022319
158	0xbf211b58	-0.6293235
159	0x3e55e6c0	0.20888805
160	0x3dbffbb9	0.09374184
161	0xbe84bce3	-0.2592536
162	0xbfbc31b7	-1.4702672
163	0xbe3f1b1c	-0.18662685
164	0xbc917fc7	-0.017761124
165	0xc037c0b4	-2.8711367
166	0xc06a3a33	-3.6598022
167	0x3d853549	0.06504304
168	0xc0210608	-2.515993
169	0xc03f9f88	-2.994112
170	0xbf86078d	-1.0471054
171	0xbd8f0743	-0.06983807
172	0x3e95b597	0.29240105
173	0x3e01b848	0.12667954
174	0xbe027557	-0.12740074
175	0xbe84a5ba	-0.2590769
176	0x3e7825a1	0.24233104
177	0xbe5b7531	-0.21431424
178	0x3d9f7f93	0.07788005
179	0x3f9fea8b	1.2493452
180	0xbbf0d083	-0.0073490753
181	0xbf622f5e	-0.88353527
182	0x3e22b617	0.15889774
183	0x3dfd3618	0.12363833
184	0x4001e2e0	2.0294724
185	0x3f5af2ea	0.8552691
186	0x3e97a2e3	0.2961646
187	0xbe2d480a	-0.16922012
188	0xbee52b8a	-0.4475978
189	0xc0238bae	-2.5554004
190	0xbf0fd51f	-0.5618457
191	0xbe255923	-0.16147284
192	0xbd8715c0	-0.06595945
193	0xbc3f288d	-0.011667383
194	0x3f95b1c9	1.1694881
195	0xbf421151	-0.7580767
196	0xbfc5b960	-1.5447197
197	0x3f9f3ddb	1.2440752
198	0x3dea093c	0.114275426
199	0xbf4b5a05	-0.79434234
200	0xbe65d3eb	-0.22444122
201	0xbec6c7b5	-0.3882424
202	0xbea3e253	-0.3200861
203	0xbeb02489	-0.34402874
204	0xbee77f5a	-0.4521435
205	0xbdaddf03	-0.08489802
206	0x3f7c625f	0.985876
207	0xbe0917f6	-0.13388047
208	0x3e9408af	0.28912875
209	0xc0073af1	-2.1129725
210	0xbf8b772a	-1.0895741
211	0x3e3634aa	0.17793527
212	0x3f86f6ba	1.0544045
213	0x3e70ef72	0.23528841
214	0xbf1cade4	-0.61202836
215	0x3e912574	0.28348887
216	0xbeeb0230	-0.45900106
217	0xbe8bc572	-0.27299076
218	0xbe53933a	-0.20661631
219	0xbf9b5e92	-1.2138236
220	0xbe9190f8	-0.28430915
221	0xbf843e9d	-1.0331608
222	0xbeae67ef	-0.3406367
223	0x3f608470	0.87702084
224	0xbee91c41	-0.4552937
225	0x3d8544d2	0.06507267
226	0xbf4f8297	-0.8105864
227	0xbec86b1a	-0.39144212
228	0xc018c52b	-2.3870342
229	0xc021a769	-2.525843
230	0x3e5610a0	0.2090478
231	0xbe4aaaff	-0.19791792
232	0x3e76314d	0.24042244
233	0x3f234fa8	0.6379342
234	0x3d0f05c9	0.034917627
235	0xbe0bcd8b	-0.13652627
236	0xc0721303	-3.7824104
237	0xbf682de9	-0.90695053
238	0xbe2b37aa	-0.16720453
239	0x3f95b0ed	1.1694618
240	0xbfcb1202	-1.586487
241	0x3ecfcbd0	0.40585184
242	0x3e08992b	0.13339679
243	0x3ea36a92	0.31917244
244	0x3f9c36d5	1.2204233
245	0xbf9c37a4	-1.220448
246	0x3f3e7b0b	0.744065
247	0x3ec24d8a	0.37949783
248	0xbfd3cf30	-1.6547604
249	0x3e16b73c	0.14718336
250	0x3eed85ec	0.46391237
251	0x3cf399c3	0.029736405
252	0x3e7827a4	0.24233872
253	0xbe82d195	-0.25550523
254	0xc04f433b	-3.2384784
255	0xbf860d5a	-1.0472825

reward_fun.2.bias f4 [200]
0	0x3e9d388f	0.30707213
1	0x3e588e99	0.21148147
2	0xbea618ad	-0.324407
3	0xbe47177d	-0.19442554
4	0x3eafd2d6	0.34340543
5	0xbe4c8c1a	-0.1997532
6	0xbe680eda	-0.22661915
7	0xbd3f7b18	-0.04674825
8	0xbf1e1e30	-0.6176481
9	0xbed981bb	-0.4248179
10	0x3eb3c105	0.351082
11	0xbef1844a	-0.4717124
12	0x3f67e8a4	0.90589356
13	0x3f263fc1	0.6494103
14	0xbd81a6ba	-0.06330629
15	0xbf788256	-0.97073877
16	0xbbc4200b	-0.005985265
17	0xbda3fd17	-0.080072574
18	0xbec5c995	-0.38630357
19	0xbd3d7b42	-0.046260126
20	0xbe7bd576	-0.24593148
21	0xbd84b460	-0.06479716
22	0x3f5285b4	0.82235265
23	0xbdd4c258	-0.10388631
24	0xbfd14c17	-1.6351346
25	0xbe1279f7	-0.14304338
26	0xbccb7e75	-0.024840573
27	0xbe0a0346	-0.13477811
28	0x3ebf79b9	0.37397555
29	0x3d9d557d	0.07682321
30	0x3b4fd55c	0.0031712865
31	0xbe1529c2	-0.1456671
32	0xbd86af29	-0.06576378
33	0x3eaf72d1	0.34267285
34	0xbe6b1052	-0.22955444
35	0x3f255a52	0.6459094
36	0xbe6dba0a	-0.232155
37	0xbdaad812	-0.083419934
38	0xbe838189	-0.25684765
39	0xbd1f878c	-0.038947627
40	0xbe8818d7	-0.2658145
41	0x3deefc8d	0.11669264
42	0x3f131a3a	0.57461894
43	0xbe863220	-0.26210117
44	0x3f734e1d	0.95041066
45	0xbe3111f7	-0.1729201
46	0xbde22340	-0.1104188
47	0x3edc1c48	0.42990327
48	0x3a4cc37c	0.0007811112
49	0x3e0e35a3	0.13887648
50	0xbda8a112	-0.08233847
51	0xbe722daf	-0.2365024
52	0x3e44d02b	0.19220035
53	0x3fbb10a3	1.4614452
54	0x3fbb2e3e	1.4623487
55	0xbeb120b1	-0.34595254
56	0xbe487c79	-0.19578733
57	0xbf42a1e4	-0.76028275
58	0x3e8657b6	0.26238793
59	0x3eb8adb6	0.3607003
60	0xbd2a8d58	-0.041638702
61	0xbe274359	-0.16334285
62	0xbf457dd1	-0.77145106
63	0xbda41daa	-0.080134705
64	0xbdc7bf8a	-0.0975333
65	0xbd2a904f	-0.04164153
66	0xbed30cd5	-0.41220728
67	0xbe77ad2f	-0.24187158
68	0x3f382b65	0.71941215
69	0xbe24ee72	-0.16106585
70	0xbd2daefd	-0.04240321
71	0x3f2e5e91	0.68113047
72	0xbe70fbed	-0.23533602
73	0xbeaeb0ed	-0.3411936
74	0xbe295d26	-0.1653944
75	0xbe7f39f0	-0.24924445
76	0xbd4a2849	-0.049354825
77	0xbdb096bf	-0.086225025
78	0xbd85b9f7	-0.065296106
79	0xbcc8b317	-0.02449946
80	0xbd7a9e9f	-0.06118643
81	0xbdaef29a	-0.08542366
82	0x3d9ff42c	0.07810244
83	0xbda819f8	-0.08208078
84	0x3e58213d	0.2110643
85	0xbc3298b8	-0.010900669
86	0xbd0eaf58	-0.03483519
87	0xbe1141e9	-0.14185299
88	0xbdf75c41	-0.12078143
89	0x3d9c7ad9	0.07640619
90	0x3db3b386	0.08774476
91	0x3de94502	0.11390115
92	0x3cb1e4bf	0.02171552
93	0x3d7b7498	0.06139049
94	0xbdbebcdf	-0.09313368
95	0x3f9e08b4	1.2346406
96	0xbdffd1b2	-0.12491168
97	0x3dfc0659	0.12305898
98	0xbd99ccd3	-0.0750977
99	0xbdca8b4d	-0.09889851
100	0xbe7e4b0c	-0.24833316
101	0xbca3dddb	-0.02000325
102	0xbe2f25bc	-0.17104238
103	0x3e49655f	0.19667576
104	0x3ea3ddf0	0.32005262
105	0x3ef81638	0.48454452
106	0xbdcb23c2	-0.0991893
107	0xbe675bbe	-0.2259359
108	0xbe0d978d	-0.13827343
109	0x3d8f7e7c	0.07006547
110	0xbd31c2da	-0.043398716
111	0xbf3d30b3	-0.73902434
112	0x3f63c2f5	0.88969356
113	0x3e9b7ec8	0.30370164
114	0x3f96779a	1.175525
115	0x3d7e22f1	0.06204504
116	0x3f4dfc0e	0.8046273
117	0x3b14ac6c	0.002268578
118	0xbe2f2361	-0.1710334
119	0xbcee0f01	-0.029059889
120	0xbe58a96d	-0.21158381
121	0xbd99aacc	-0.0750328
122	0xbe94a046	-0.2902853
123	0x3f1a010e	0.6015786
124	0xbf478e26	-0.77951276
125	0xbd8ae3ad	-0.06781707
126	0xbdd87cef	-0.10570704
127	0xbe7aab23	-0.24479346
128	0x3a033595	0.0005005238
129	0xbec46373	-0.38357124
130	0xbdd6134f	-0.104529016
131	0xbdfe2899	-0.12410087
132	0x3f1324a8	0.5747781
133	0xbe86627d	-0.26247016
134	0xbea0d473	-0.31412086
135	0xbdf3fa10	-0.1191293
136	0x3e508249	0.203622
137	0xbeb1340f	-0.3461003
138	0x3f4cdfde	0.80029094
139	0xbd55c43d	-0.0521891
140	0xbcceee20	-0.025260031
141	0x3d978ffd	0.074005105
142	0xbd57cef0	-0.052687585
143	0xbea811bb	-0.32826027
144	0x3ead1df2	0.3381191
145	0xbd981ced	-0.07427392
146	0x3d7d4e57	0.06184229
147	0xbe19c8da	-0.15018025
148	0x3f0ffdee	0.5624684
149	0xbf09de19	-0.5385452
150	0x3ec8aa2e	0.39192337
151	0xbdb0fb32	-0.08641662
152	0xbe1d8789	-0.15383734
153	0x3f867fa3	1.0507702
154	0xbf867856	-1.0505474
155	0x3f0645a2	0.5245
156	0xbe87d4e0	-0.26529598
157	0xbdacd6d9	-0.084394164
158	0xbe4161b3	-0.18884926
159	0xbd667f92	-0.056274004
160	0x3f41e3fc	0.757385
161	0xbe2259e0	-0.15854597
162	0xbe6fda5a	-0.23423138
163	0xbe08b839	-0.13351525
164	0x3e28d7ed	0.16488619
165	0xbd3e4cfc	-0.046460137
166	0xbc92222a	-0.017838556
167	0xbf675769	-0.9036775
168	0xbd8aee10	-0.06783688
169	0xbda7aee5	-0.08187655
170	0xbeb2a75b	-0.34893307
171	0xbe18dfa0	-0.14929056
172	0xbda82304	-0.08209804
173	0xbe805730	-0.2506652
174	0xbe1e9482	-0.15486339
175	0x3e4452fd	0.19172283
176	0x3b743592	0.0037263376
177	0xbe85159b	-0.25993046
178	0x3ceeb16a	0.029137332
179	0x3d864bcc	0.06557426
180	0xbd265bb1	-0.040614787
181	0xbdc22a94	-0.094807774
182	0xbecf2874	-0.4046055
183	0xbcaffd5a	-0.021483112
184	0x3f42d5fe	0.76107776
185	0x3f3791e2	0.71706975
186	0x3fec8a1b	1.8479646
187	0xbb416490	-0.0029509403
188	0xbd862809	-0.06550605
189	0xbeaa9183	-0.33314142
190	0xbec483bd	-0.38381758
191	0x3d2020fc	0.039093956
192	0xbf3d917c	-0.74050117
193	0xbe126440	-0.14296055
194	0x3e7dd15a	0.24786893
195	0x3f674591	0.90340525
196	0xbe73c6d0	-0.2380631
197	0x3a8cdcaf	0.0010746921
198	0xbd0219ba	-0.031762816
199	0x3df62f71	0.120207675

reward_fun.4.weight f4 [1, 200]
0	0xbebccd68	-0.36875463
1	0xbf39e1cc	-0.72610164
2	0xbd8e803a	-0.06958051
3	0xbd2a0d1c	-0.04151641
4	0xbe0fcc0b	-0.1404268
5	0xbf5887fa	-0.84582484
6	0xbe37c7cb	-0.17947309
7	0x3b892327	0.0041850987
8	0xbf8ddb5a	-1.1082566
9	0x3d5f024b	0.054445546
10	0xbfe7c77c	-1.8107753
11	0x3dff0040	0.124512196
12	0xbeb37724	-0.35051835
13	0xbe68d86e	-0.22738811
14	0x3d13a392	0.036044665
15	0x3ed3d8b3	0.41376266
16	0x3cc2341d	0.02370649
17	0xbbd46915	-0.0064822533
18	0xbe8d2177	-0.27564594
19	0x3cc0f4f6	0.023554306
20	0x3c81fbef	0.015867202
21	0xbd1c167a	-0.038107373
22	0xbeab03d7	-0.33401367
23	0x3e739144	0.23785883
24	0x3e7837b9	0.24240007
25	0xbc88305a	-0.016624618
26	0xbc1036c9	-0.008802124
27	0x3dbc4d26	0.091944024
28	0xbecf2a03	-0.4046174
29	0xbe23c5db	-0.15993445
30	0xbfa60145	-1.2969137
31	0xbd7ff14a	-0.06248597
32	0x3c94ada4	0.018149205
33	0xbee73850	-0.4516015
34	0x3e023e4e	0.1271908
35	0xbfa0abf1	-1.2552472
36	0xbdec279a	-0.11530991
37	0xbd3f22f9	-0.046664212
38	0xbeb839ef	-0.359817
39	0x3caa589f	0.020794211
40	0x3e33fb17	0.17576252
41	0x3f13d051	0.5773974
42	0xbeeaa097	-0.45825645
43	0x3d1f41c1	0.038881067
44	0xbdd90f92	-0.10598673
45	0xbb137000	-0.0022497177
46	0xbe052a1c	-0.13004345
47	0xbe65fad4	-0.22458965
48	0x3caf856c	0.021425925
49	0xbe86ac2b	-0.2630323
50	0x3cb61bdf	0.022230087
51	0xbad5dfa9	-0.0016317266
52	0xbdeb5cde	-0.114923224
53	0xbe9dd1c8	-0.30824113
54	0xbe4f528b	-0.20246331
55	0xbeaa590d	-0.33271065
56	0xbb2de90f	-0.0026536619
57	0xbe8c5e2b	-0.27415594
58	0xbf9e3656	-1.2360332
59	0x3e5a4e8b	0.21319024
60	0x3c3f4fc3	0.0116767315
61	0x3f34d01f	0.7063007
62	0xbeadd798	-0.33953547
63	0x3da8553b	0.082193814
64	0xbd74d8a0	-0.059776902
65	0xbe9c9702	-0.3058396
66	0xbe89b62b	-0.26896796
67	0x3ba77a3a	0.005111006
68	0xbec13843	-0.37738237
69	0xbd9541eb	-0.072879635
70	0x3c59686b	0.013269524
71	0xbd956c70	-0.072960734
72	0xbca92b1f	-0.020650445
73	0x3d2c0bd6	0.042003475
74	0x3d3dd6a8	0.04634729
75	0x3c92ef57	0.017936392
76	0x3ea571a4	0.32313263
77	0xbe2bd1cc	-0.1677925
78	0x3d0cf407	0.03441241
79	0xbc408ded	-0.011752588
80	0xbf308d70	-0.68965816
81	0xbd75d2e7	-0.060015585
82	0xbf29fd9f	-0.6640262
83	0xbe5efe55	-0.21776707
84	0xbf478e1b	-0.7795121
85	0x3c8a9cbd	0.016920442
86	0x3d37559a	0.04475937
87	0x3c974a9a	0.01846819
88	0x3a5f4fb0	0.0008518649
89	0x3f1b89ec	0.6075733
90	0xbf04678e	-0.5172051
91	0xc00567f8	-2.0844707
92	0xbed173e3	-0.40908727
93	0xbf0bf392	-0.54668534
94	0x3f07ea31	0.5309172
95	0xbe863d01	-0.26218417
96	0x3c8a1a2d	0.016858185
97	0xbf3faeec	-0.74876285
98	0xbeae9d2c	-0.34104288
99	0xbdbd363b	-0.09238859
100	0x3e2ef001	0.17083742
101	0xbedab5c1	-0.42716792
102	0x3d67b83d	0.056572188
103	0x3e8843bb	0.26614174
104	0x3f1e1dca	0.61764205
105	0x3f476f2d	0.77904016
106	0x3dbbdc33	0.09172859
107	0x3bd2c946	0.006432685
108	0xbd3d792b	-0.046258133
109	0x3f365fd7	0.7123999
110	0xbcfc9613	-0.03083328
111	0xbec32281	-0.38112262
112	0x3e6966a3	0.22793059
113	0xbe930a8c	-0.28718984
114	0xbe535864	-0.20639187
115	0xbf8f73b7	-1.1207188
116	0xbe7ef387	-0.24897586
117	0x3c338ed5	0.010959347
118	0x3cd2bb11	0.025723966
119	0x3c250cdf	0.0100738695
120	0xbd6f5d1b	-0.0584384
121	0xbdf0b783	-0.11753752
122	0xbb04fe9f	-0.0020293368
123	0x3f30f50e	0.69123924
124	0x3df2e257	0.11859577
125	0xbdbfe921	-0.09370638
126	0xbd870ac8	-0.06593853
127	0xbf8d2115	-1.1025721
128	0x3d9e0a0c	0.0771676
129	0xbf873b66	-1.0565002
130	0xbe4be6d4	-0.19912273
131	0xbe86a602	-0.2629853
132	0xbe9c28ee	-0.30499977
133	0x3de4aa21	0.11165262
134	0xbe06604e	-0.13122675
135	0xbef8660c	-0.48515356
136	0x3eec40af	0.461431
137	0xbf0016f5	-0.5003503
138	0xbe8d28f6	-0.27570313
139	0xbe3725a9	-0.1788546
140	0xbd387a0b	-0.045038264
141	0xbf44fa47	-0.7694439
142	0xbc1b97fd	-0.009496686
143	0x3d90ecc8	0.070764124
144	0xbfb2e851	-1.3977147
145	0x3cf5e6b5	0.030017236
146	0xbf02ba2f	-0.51065344
147	0x3e657c94	0.22410804
148	0xbe1edd51	-0.15514113
149	0x3dd6910c	0.10476884
150	0x3f713c6a	0.9423281
151	0xbd1c1fa2	-0.038116105
152	0xbd9aa4ea	-0.07550986
153	0x3e413ec1	0.18871595
154	0x3e2c62d2	0.16834572
155	0xbe812d5a	-0.25229913
156	0x3a01869c	0.0004941018
157	0xbd8862d8	-0.06659478
158	0xbd22b496	-0.039723
159	0xbbaa95e4	-0.0052058566
160	0xbee4c61a	-0.4468239
161	0x3c072be1	0.008250208
162	0xbebd2ee4	-0.36949837
163	0x3da30cdc	0.07961437
164	0xbe6a1052	-0.22857788
165	0xbebdd9bc	-0.3708018
166	0x3eb178d3	0.34662494
167	0xbef81e20	-0.48460484
168	0xbe1d963b	-0.1538934
169	0xbd6f69f9	-0.058450673
170	0xbf80c066	-1.0058715
171	0xbbfa8e05	-0.0076463246
172	0x3c42fd4d	0.011901212
173	0xbdbf3860	-0.093369246
174	0xbd6ae71d	-0.057349313
175	0xbfdcd1d5	-1.7251536
176	0x3ede74d1	0.434485
177	0xbe9447e8	-0.2896111
178	0xbec73d18	-0.38913798
179	0x3ebb8bfb	0.36630234
180	0xbdbff0b4	-0.09372082
181	0x3cdf7924	0.027279444
182	0xbead1b46	-0.3380987
183	0x3cb33c73	0.02187941
184	0xbe67cf2f	-0.22637628
185	0xbd697cbf	-0.057003733
186	0xbeade8ec	-0.33966768
187	0xbdbb4ccd	-0.09145508
188	0xbda4e5cd	-0.080516435
189	0xbc890e51	-0.01673046
190	0x3e946b1b	0.28987965
191	0xbf52fa4a	-0.8241316
192	0x3dcf173e	0.10111855
193	0x3da7e13e	0.081972584
194	0x3ed819fa	0.4220732
195	0xbe5855f6	-0.21126541
196	0x3d2d1185	0.042253036
197	0xbd3e967a	-0.046530224
198	0xbf350465	-0.7070983
199	0xbf0259a3	-0.50918025
