data/mpc_deter/PendubotEnv/seed_613/model_7000.pt (torch, 183047 bytes, 10 tensors)

log_std f4 [1, 6]
0	0xc01ad2a1	-2.4191058
1	0xc01f0cff	-2.4851682
2	0xbfefbd53	-1.8729652
3	0xbfe8787a	-1.8161767
4	0xc017aeca	-2.3700433
5	0xbfec969f	-1.8483466

mu.0.weight f4 [200, 7]
0	0x3ee1fe46	0.44139308
1	0xbea8df6f	-0.32982966
2	0x3e85c4d6	0.26126736
3	0xbd0048ee	-0.03131955
4	0xbe81e2e7	-0.25368425
5	0x3ea674ad	0.32510892
6	0x3e0e63c9	0.13905253
7	0x3e50436f	0.20338224
8	0x3f65dd28	0.8979058
9	0x3f0ed3a7	0.55791706
10	0xbecb09a4	-0.39655793
11	0x3eab3fba	0.33447057
12	0x3ea84282	0.3286324
13	0x3d224e74	0.0396256
14	0x3f77854f	0.9668779
15	0xbd92ceec	-0.071683735
16	0x3ecb2122	0.39673716
17	0xbec2f742	-0.38079268
18	0x3d46cb7f	0.048533913
19	0xbe3bd097	-0.1834129
20	0xbc869f60	-0.016433418
21	0xbf260a43	-0.6485941
22	0xbf24499d	-0.64174825
23	0xbedf6348	-0.43630433
24	0x3e4c6be4	0.19963032
25	0x3e316302	0.17322925
26	0x3eafce5d	0.3433713
27	0xbd31ded6	-0.043425404
28	0xbf0aae94	-0.54172635
29	0x3f18da1f	0.59707826
30	0xbf349946	-0.70546377
31	0x3f1390c5	0.57642776
32	0x3db4db82	0.0883093
33	0xbedda35b	-0.43288693
34	0x3c628165	0.013824795
35	0x3ed9f9c8	0.4257338
36	0x3f7f9c58	0.99847937
37	0x3dd9f338	0.106420934
38	0xbe1b1d17	-0.15147816
39	0x3ec98296	0.39357442
40	0x3d964b68	0.07338601
41	0xbdc21983	-0.09477522
42	0xbef1ce5e	-0.47227758
43	0xbde99146	-0.11404662
44	0x3d1a3538	0.03764841
45	0x3f0f4099	0.55957943
46	0xbe2d080b	-0.168976
47	0x3e7bc154	0.24585468
48	0x3cd9d92e	0.026592817
49	0xbeefe216	-0.46852177
50	0xbf6eda55	-0.933019
51	0xbf4afce8	-0.79292154
52	0x3e28ca9c	0.1648354
53	0xbe906291	-0.282002
54	0xbcf818e9	-0.030285316
55	0x3d153dbc	0.036435828
56	0x3f275d36	0.65376604
57	0x3f17718c	0.59157634
58	0x3f7b4147	0.9814648
59	0x3f6d66d8	0.9273505
60	0x3e453686	0.1925908
61	0xbebd889f	-0.37018296
62	0xbda13840	-0.07872057
63	0xbc4c21fb	-0.012459273
64	0x3f78c078	0.97168684
65	0x3f03270f	0.51231474
66	0xbf07c588	-0.53035784
67	0xbec953fd	-0.3932189
68	0xbea5262f	-0.32255694
69	0x3bd0cb23	0.006371872
70	0xbf75cf1c	-0.9601915
71	0xbf366997	-0.7125487
72	0xbd0c236e	-0.034213476
73	0x3f0324bb	0.5122792
74	0x3e90b5a6	0.28263587
75	0x3ce704e0	0.028200567
76	0xbd946530	-0.072458625
77	0x3e9d2664	0.30693352
78	0x3f892fd1	1.0717717
79	0xbec4f263	-0.38466176
80	0xbeaf0d89	-0.34190014
81	0x3f0162a3	0.5054113
82	0x3d6bbf59	0.05755553
83	0xbdaadd47	-0.083429866
84	0x3f59e2d9	0.8511177
85	0x3e77a97e	0.2418575
86	0xbf4f9580	-0.81087494
87	0xbe15b88d	-0.14621182
88	0x3e316bae	0.17326233
89	0x3e848a4a	0.25886756
90	0x3ce22a20	0.027607977
91	0x3f4f922f	0.81082433
92	0x3f7f577d	0.9974287
93	0x3e717ca9	0.2358271
94	0xbdb6a05d	-0.089173056
95	0x3f1640c2	0.5869256
96	0xbb4ca729	-0.0031227565
97	0xbc174d79	-0.0092347795
98	0xbf8650e4	-1.0493436
99	0x3eb58590	0.35453463
100	0xbeed2d27	-0.4632351
101	0xbecbefd9	-0.39831427
102	0xbecc0453	-0.3984705
103	0xbeb3c583	-0.35111627
104	0xbbd2431c	-0.0064166915
105	0xbe4856a6	-0.19564304
106	0x3eb03cb2	0.34421307
107	0xbf02eb40	-0.51140213
108	0xbea772c7	-0.32704756
109	0xbe4e07c0	-0.20120144
110	0xbef015c5	-0.4689161
111	0xbda4a61b	-0.080394946
112	0xbdc00cb7	-0.09377425
113	0xbfa3dd56	-1.2801921
114	0x3e3c1e2b	0.18370883
115	0xbd98abbb	-0.0745463
116	0xbed46307	-0.41481802
117	0xbc478074	-0.012176622
118	0x3cc0fea1	0.023558917
119	0x3e8d9209	0.27650478
120	0x3e146327	0.14490949
121	0x3f94e981	1.163376
122	0x3e8123a2	0.25222498
123	0x3eb11a1e	0.34590238
124	0xbec3a44e	-0.38211292
125	0xbdc87437	-0.09787791
126	0x3f4fa27b	0.811073
127	0xbeeebe5d	-0.4662961
128	0x3f2a4f39	0.66527134
129	0xbecf3ee4	-0.4047767
130	0x3e9339aa	0.28754932
131	0x3e8b808a	0.27246505
132	0xbcbdc86d	-0.02316686
133	0x3f26f25d	0.65213567
134	0xbf1251a2	-0.5715581
135	0xbec63486	-0.38711947
136	0xbf8db2a9	-1.1070148
137	0xbe23671e	-0.15957305
138	0x3eedd815	0.4645392
139	0x3d37431b	0.04474173
140	0xbf1db2ae	-0.6160077
141	0xbec34ed4	-0.3814608
142	0xbec265d8	-0.37968326
143	0xbfd3ead6	-1.6556041
144	0x3d7b95a1	0.061421994
145	0x3ec810f7	0.39075443
146	0x3d97367f	0.07383441
147	0x3f3ba30d	0.7329567
148	0xbf1f9c7e	-0.62348163
149	0x3ef878bc	0.48529613
150	0xbf339b31	-0.7015868
151	0xbe0c3c0e	-0.13694784
152	0x3ede2f43	0.43395433
153	0x3db750f3	0.08950987
154	0x3eae80f5	0.3408276
155	0x3f0a4b39	0.5402103
156	0xbf245586	-0.64193
157	0x3f79e407	0.9761357
158	0xbcc4359a	-0.02395134
159	0xbe3754f0	-0.17903495
160	0xbcb265cb	-0.021777054
161	0xbd4bceff	-0.049757954
162	0xbed3d9d9	-0.41377142
163	0xbf342b25	-0.70378333
164	0x3e03844b	0.12843435
165	0xbd1a05e7	-0.037603285
166	0x3e69c933	0.22830658
167	0xbc4c8612	-0.012483137
168	0xbe970a1a	-0.29499894
169	0x3dfda3d6	0.12384765
170	0xbf29af2c	-0.66282916
171	0xbd13bccd	-0.036068726
172	0x3ecd4efc	0.40099323
173	0x3ddcb5e6	0.10776882
174	0xbc2f1982	-0.010687234
175	0xbe3a0b00	-0.18168259
176	0xbf6d0568	-0.92586374
177	0x3f51c0ef	0.8193502
178	0x3dd01686	0.10160546
179	0xbcf97d5e	-0.030455288
180	0xbd799d52	-0.060941048
181	0x3d1fbe88	0.039000064
182	0x3e40c54f	0.18825267
183	0xbe40232c	-0.18763417
184	0xbf81642b	-1.0108694
185	0xbe947dcd	-0.29002228
186	0xbdf86c09	-0.12129981
187	0xbeb696bb	-0.35661873
188	0xbe187350	-0.14887738
189	0x3ed319be	0.41230577
190	0xbf12845c	-0.57233214
191	0x3e89baef	0.26900432
192	0xbe867c46	-0.26266688
193	0xbe43cc33	-0.19120865
194	0xbe8ed18b	-0.27894244
195	0xbdf1b134	-0.11801377
196	0x3ef4bd0b	0.47800478
197	0xbf6734a2	-0.90314686
198	0x3cb09596	0.021555703
199	0x3b04f2d8	0.0020286348
200	0xbe989368	-0.29799962
201	0xbd5fc970	-0.054635465
202	0xbc5992b5	-0.013279607
203	0x3eee1695	0.46501604
204	0x3eb775d9	0.35832098
205	0x3f43e408	0.76519823
206	0x3f898c2c	1.0745902
207	0x3e756b15	0.2396663
208	0xbe9da7d1	-0.30792096
209	0xbd0195b0	-0.031636894
210	0x3f05f0c8	0.5232053
211	0x3fad89c4	1.3557668
212	0x3e4966e4	0.19668156
213	0xbf4185a3	-0.7559454
214	0x3e985cbd	0.29758254
215	0xbd195684	-0.037436023
216	0xbc8e10b6	-0.017341953
217	0x3f247a4d	0.64249116
218	0x3e787e2c	0.24266881
219	0xbdfced8b	-0.12349995
220	0xbeaa914f	-0.33313987
221	0xbe3d910a	-0.1851236
222	0x3e1a2475	0.1505297
223	0x3dccad9c	0.09994051
224	0x3de433da	0.111427024
225	0x3f3ff636	0.74985063
226	0xbf05ad1e	-0.5221728
227	0xbf042597	-0.5161986
228	0xbdd9f5fa	-0.106426194
229	0xbc7c5571	-0.01540123
230	0x3cf134b7	0.029444082
231	0x3cbfd41c	0.023416571
232	0x3f8c3ede	1.0956686
233	0x3e31f4d3	0.1737855
234	0xbee2d972	-0.44306523
235	0x3e091901	0.13388444
236	0xbea8e8f9	-0.32990244
237	0xbd834432	-0.064094916
238	0x3eb7c0da	0.35889322
239	0x3f48943b	0.7835118
240	0x3d63cffb	0.055618268
241	0x3e3163f7	0.1732329
242	0xbc4576ab	-0.012052218
243	0xbe655dd7	-0.22399078
244	0xbd63feb2	-0.05566282
245	0x3f195cc6	0.59907186
246	0x3d9fd53f	0.07804345
247	0xbf6f7def	-0.93551534
248	0x3f529241	0.82254416
249	0xbe306ca8	-0.17228949
250	0xbee7f919	-0.45307234
251	0xbd9cee6a	-0.076626614
252	0xbbe8d9f8	-0.007106062
253	0x3f23f02f	0.64038366
254	0xbd0cc48c	-0.03436713
255	0xbf01ff9a	-0.5078064

mu.0.bias f4 [200]
0	0xbf5a50ec	-0.85279727
1	0xbe13cbb9	-0.14433183
2	0x3d766fd7	0.060165253
3	0x3de47938	0.11155933
4	0x3ee4acd8	0.4466312
5	0x3ea46cf0	0.32114363
6	0xbf260fd4	-0.648679
7	0x3f26bb1f	0.65129274
8	0xbf9c5bce	-1.2215517
9	0x3e400db4	0.18755227
10	0xbf10379d	-0.5633486
11	0x3e902a12	0.28157097
12	0xbf9161c9	-1.1357967
13	0xbfb03dc5	-1.376885
14	0x3eaac8e9	0.33356407
15	0xbe074300	-0.13209152
16	0xbf77b8ab	-0.96766156
17	0xbf26d57e	-0.65169513
18	0x3eff87e1	0.49908355
19	0xbfb7cd44	-1.4359517
20	0x3e59e1e9	0.21277584
21	0xbf8776bb	-1.0583109
22	0x3f3364ef	0.7007589
23	0xbfa97f1e	-1.3241918
24	0xbf5d5e2d	-0.86471826
25	0x3e22d119	0.15900077
26	0xbecb6859	-0.39728048
27	0xbb07c935	-0.0020719294
28	0xbf4b7009	-0.7946783
29	0xbf6e42ef	-0.9307088
30	0xbe72ff12	-0.23730114
31	0xbfbb4372	-1.4629958
32	0xbf696d9d	-0.9118288
33	0x3ebe655a	0.371867
34	0xbf0475f8	-0.51742506
35	0xbf83c01e	-1.0293005
36	0xbf35cc65	-0.71015006
37	0xbddadba5	-0.10686425
38	0x3f6d7081	0.9274979
39	0x3e82f191	0.25574926
40	0xbf959fa4	-1.1689343
41	0xbdd61654	-0.104534775
42	0xbea80a75	-0.32820478
43	0xbf907adb	-1.1287493
44	0x3f0bb781	0.5457688
45	0xbf6e26ac	-0.9302776
46	0xbef88d35	-0.48545232
47	0xbf92a321	-1.1456033
48	0xbfb8d6e2	-1.4440577
49	0x3f65b342	0.8972665
50	0xbfa7fe6a	-1.3124516
51	0xbf5ff10c	-0.87477183
52	0xbf09ec59	-0.5387626
53	0x3f3488b9	0.7052112
54	0xbfafbe4f	-1.3729953
55	0x3f516538	0.8179507
56	0x3df490e7	0.119417004
57	0xbfbc3510	-1.4703693
58	0x3e898a8e	0.2686352
59	0xbf1d7089	-0.6149984
60	0x3f4f18f5	0.80897456
61	0x3e638799	0.22219695
62	0x3f366f99	0.71264035
63	0xbfa42e56	-1.2826641
64	0x3f5704cb	0.8399169
65	0xbe843a78	-0.25825858
66	0xbf3a0456	-0.72662866
67	0x3ea71894	0.3263594
68	0x3f8a7ca6	1.081929
69	0x3f28544c	0.65753627
70	0x3decc41f	0.11560845
71	0xbde6219b	-0.112368785
72	0x3e7e2435	0.248185
73	0xbec8415d	-0.39112368
74	0xbe9d81a0	-0.3076296
75	0xbf798f6d	-0.97484475
76	0xbf3edcc1	-0.74555594
77	0xbfbbfa1f	-1.4685706
78	0xbbc1e3a9	-0.005917032
79	0xbf0d33f6	-0.5515741
80	0x3e9d63c4	0.30740178
81	0xbedf6fee	-0.43640083
82	0xbe9a3f30	-0.30126333
83	0x3dc63181	0.09677411
84	0x3caa0635	0.020754913
85	0xbfaba3ec	-1.34094
86	0xbf2c3c53	-0.6727955
87	0xbfc588f3	-1.5432419
88	0x3df34023	0.118774675
89	0x3e132621	0.14370014
90	0xbf40abc5	-0.752621
91	0x3f2f7c2b	0.6854884
92	0xbe025e1d	-0.12731214
93	0xbe7ee6f7	-0.24892794
94	0x3e8bb4bf	0.27286336
95	0xbf8440e9	-1.0332309
96	0x3d2c55d9	0.04207406
97	0xbfa29b79	-1.2703696
98	0x3e263174	0.16229802
99	0xbd45742c	-0.048206493
100	0xbf10d68e	-0.56577384
101	0x3e9cd7fb	0.3063353
102	0x3efccdfa	0.49375898
103	0x3f63a913	0.8892986
104	0x3ea97eee	0.33104652
105	0x3ed60123	0.41797742
106	0xbfdf1228	-1.7427416
107	0xbf4f5ff6	-0.810058
108	0x3f14486d	0.5792301
109	0x3f741ee9	0.95359665
110	0x3f46c95a	0.7765099
111	0xbf0b8fd3	-0.54516333
112	0xc01be565	-2.4358761
113	0xbfa39b14	-1.2781701
114	0xbd8cbca9	-0.068719216
115	0xbf3303e3	-0.69927806
116	0x3e5dc0c9	0.21655573
117	0x3e03e9c7	0.12882148
118	0xbf092bac	-0.53582263
119	0xbdc51722	-0.09623553
120	0x3f1eaa64	0.61978745
121	0x3f046281	0.51712805
122	0x3e9baa11	0.30403188
123	0x3f4de5b7	0.8042864
124	0xbc4f28ac	-0.012643974
125	0xbf29ff1b	-0.66404885
126	0xbf4f0eed	-0.8088215
127	0xbeb8f602	-0.3612519
128	0xbf85dec2	-1.0458605
129	0xbe15b3f0	-0.14619422
130	0x3f796e8e	0.9743432
131	0xbf3bbf9c	-0.7333925
132	0xbfa006e3	-1.2502102
133	0xbfe26ddd	-1.7689778
134	0xbf5b0a23	-0.8556234
135	0x3e1e9734	0.15487367
136	0xbfb3c213	-1.4043602
137	0x3f7a98dc	0.97889495
138	0xbfccacf8	-1.5990286
139	0xbdc7d7d9	-0.097579665
140	0x3f0032cc	0.5007751
141	0xbf285b43	-0.65764254
142	0xc0005880	-2.0054016
143	0xbf1eaecd	-0.61985475
144	0x3e813cb0	0.25241613
145	0xbf9f8c5f	-1.2464713
146	0x3e0965e7	0.13417779
147	0x3ec8848c	0.39163625
148	0xbeb2c13e	-0.34913057
149	0xbf23f74a	-0.6404921
150	0xbee4e56c	-0.44706285
151	0xbd7be86c	-0.06150095
152	0xbf046273	-0.5171272
153	0xbc7593af	-0.014988824
154	0x3c177780	0.0092448
155	0x3c33c344	0.010971848
156	0xbd828ce2	-0.063745275
157	0x3ed71a0e	0.42012066
158	0x3f1c6b48	0.611012
159	0x3ebdffdd	0.3710927
160	0xbf019b62	-0.5062772
161	0xbf5597e5	-0.834349
162	0x3f85e769	1.0461246
163	0x3f33457c	0.700279
164	0xbfec2a7e	-1.8450468
165	0x3e4db5c6	0.20088872
166	0x3ea78977	0.32722065
167	0x3db0b1c1	0.08627654
168	0xbf5815ab	-0.8440806
169	0xbe1c7042	-0.15277198
170	0xbdeff2ad	-0.117162086
171	0xbf7c5022	-0.9855977
172	0xbf7714a0	-0.96515846
173	0x3f7b6a7b	0.9820935
174	0xbeaadf12	-0.33373314
175	0xbd312736	-0.043250285
176	0x3f13804f	0.5761766
177	0x3fa7550c	1.3072829
178	0x3f01e1ab	0.50734967
179	0x3cf2baf3	0.02963016
180	0xbe9539c3	-0.2914563
181	0xbf4a5975	-0.7904275
182	0x3f1249c0	0.57143784
183	0xbf102edd	-0.5632151
184	0x3eb1964c	0.3468498
185	0xbf728f3f	-0.94749826
186	0xbf8aa969	-1.083295
187	0xbf5cd517	-0.8626265
188	0xbf1b89f9	-0.60757405
189	0x3eb4f37c	0.35342014
190	0xbf02ec7b	-0.5114209
191	0x3f0ea803	0.55725116
192	0xbf17511b	-0.5910813
193	0xbfa92671	-1.3214856
194	0x3eb1fe40	0.3476429
195	0xbea20b74	-0.31649363
196	0xbf4c7c4c	-0.7987716
197	0xbfd33846	-1.6501548
198	0xbe1c01c4	-0.15235049
199	0xbef433e9	-0.47695854

mu.2.weight f4 [6, 200]
0	0x3ce0dc8a	0.027448911
1	0x3e2c1cbe	0.1680784
2	0x3dfff750	0.12498343
3	0x3e2600ce	0.16211244
4	0x3d5931c6	0.053025983
5	0x3d0a7a35	0.033807952
6	0x3cd7f7cd	0.026363278
7	0x3e5b2f12	0.21404675
8	0x3e22bcb7	0.15892301
9	0xbe0a21d4	-0.13489467
10	0xbbfc456b	-0.007698705
11	0x3e257438	0.16157615
12	0x3ccf3b7a	0.025296915
13	0xbf06ba92	-0.52628434
14	0x3e8d3d27	0.27585718
15	0xbd734fd4	-0.059402302
16	0x3eb54034	0.35400546
17	0x3dc9edf5	0.0985984
18	0x3d2b3dcc	0.04180698
19	0xbd4221b3	-0.04739542
20	0x3d82e27e	0.06390856
21	0x3ba54d5a	0.0050446214
22	0x3d8ad28b	0.06778439
23	0x3c1b43a9	0.009476581
24	0x3e8c626a	0.27418834
25	0xbd9fb271	-0.07797707
26	0x3d0e2433	0.03470249
27	0x3db642db	0.088994704
28	0x3dc009d3	0.09376874
29	0xbea6945b	-0.3253506
30	0xbd764bab	-0.060130756
31	0x3ddc5f42	0.107603565
32	0x3e9ffbd9	0.31246832
33	0x3e33c69d	0.17556234
34	0x3e5f53ae	0.21809265
35	0xbe680b59	-0.22660579
36	0xbd08da8a	-0.03341154
37	0xbdaa5c0a	-0.08318336
38	0x3b940c66	0.0045180796
39	0xbdcf84e6	-0.1013277
40	0x3d1e5710	0.038657248
41	0x3e1e53bb	0.15461628
42	0xbe0c9566	-0.13728866
43	0xbe0c9ed2	-0.1373246
44	0x3f003d78	0.50093794
45	0x3e0f72bc	0.14008611
46	0xbbe2cdb5	-0.006921495
47	0xbd53601f	-0.05160534
48	0x3d29de76	0.04147192
49	0x3eae1b25	0.34005085
50	0x3efd9d9d	0.49534312
51	0xbd82984e	-0.06376706
52	0x3ea94e98	0.33067775
53	0xbdfdca2a	-0.12392075
54	0xbe76c08d	-0.2409689
55	0xbe329c99	-0.1744255
56	0xbd35401f	-0.044250604
57	0x3c39fa86	0.011351233
58	0x3e18a509	0.14906706
59	0x3e74d285	0.23908432
60	0xbd7f1ae2	-0.062281497
61	0xbed70518	-0.41996074
62	0x3e03301b	0.1281132
63	0x3e73273d	0.23745437
64	0x3ea868b3	0.3289238
65	0xbd5971bf	-0.053086992
66	0xbd3360b6	-0.043793403
67	0xbe3e132f	-0.18562005
68	0xbf086de0	-0.53292656
69	0x3f048c8b	0.5177695
70	0xbe5e8e2c	-0.21733922
71	0x3df28526	0.11841802
72	0xbb866eba	-0.004102555
73	0x3c151dc6	0.009101337
74	0xbb2344a2	-0.0024912735
75	0xbf166984	-0.58754754
76	0xbeeda559	-0.46415213
77	0x3fad562e	1.3541925
78	0xbe0d0ac7	-0.13773642
79	0xbd83e4e6	-0.06440143
80	0xbd4dc8ac	-0.050240204
81	0xbe0f6917	-0.14004932
82	0x3da1c5f7	0.07899087
83	0xbe0230ac	-0.1271388
84	0xbe3c8119	-0.18408622
85	0xbdc1b4de	-0.09458326
86	0x3c151861	0.009100051
87	0xbefba58c	-0.4914974
88	0x3dc1757c	0.094462365
89	0x3cc470bc	0.023979537
90	0x3d8cb216	0.06869905
91	0xbea3dc82	-0.32004172
92	0xbe0389d4	-0.12845546
93	0x3df50517	0.119638614
94	0xbd6782b5	-0.056521136
95	0xbf2c1e52	-0.67233765
96	0xbe508088	-0.20361531
97	0x3f91559f	1.1354254
98	0xbe5b06e4	-0.21389347
99	0xbd9fb30f	-0.077978246
100	0x3df1a167	0.11798363
101	0xbc33f324	-0.010983262
102	0xbe1f4f68	-0.15557635
103	0x3e538b7f	0.20658682
104	0xbe7b85f3	-0.24562816
105	0xbd77aa18	-0.06046495
106	0x3e809bbc	0.25118816
107	0xbea224d2	-0.31668717
108	0x3ebafb85	0.3652002
109	0x3dc7ce8d	0.09756193
110	0x3d8d6ca5	0.06905488
111	0xbd940078	-0.07226652
112	0xbfafec16	-1.3743923
113	0x3ed2bb25	0.41158405
114	0xbeaa7c21	-0.33297828
115	0x3d887988	0.06663805
116	0xbe06ac7b	-0.13151734
117	0x3dd625b0	0.10456407
118	0x3c9945b8	0.018710002
119	0xbd928034	-0.07153359
120	0xbd443605	-0.04790308
121	0x3f02ca9c	0.5109041
122	0xbce6d957	-0.028179808
123	0xbe8a2faf	-0.26989505
124	0xbde8325d	-0.11337731
125	0x3d0439c9	0.03228167
126	0x3e0677bf	0.13131617
127	0x3d72ad65	0.059247393
128	0xbdc033c1	-0.09384871
129	0xbf0f3e95	-0.5595487
130	0xbea22608	-0.3166964
131	0xbd0e684f	-0.034767445
132	0x3b2e2b12	0.0026575965
133	0xbd4f1e7b	-0.050566178
134	0x3de104ec	0.10987267
135	0xbe2715d1	-0.16316916
136	0xbdbd4914	-0.09242454
137	0x3ef1d26b	0.4723085
138	0xbdd48794	-0.10377422
139	0xbd9e1254	-0.077183396
140	0xbe98dc3b	-0.29855523
141	0x3e0e3912	0.13888958
142	0xbfb9e4d7	-1.4522961
143	0xbf26127f	-0.6487197
144	0x3d3dee4b	0.046369832
145	0x3dff6928	0.12471229
146	0xbb92b829	-0.00447752
147	0x3eaf4088	0.3422892
148	0xbe43d98f	-0.19125961
149	0x3cdc67ae	0.026904907
150	0x3eed2d17	0.46323463
151	0x3e27aa1a	0.16373482
152	0x3e71a220	0.23597002
153	0xbdf6ff4f	-0.12060415
154	0xbe17a0e9	-0.14807476
155	0xbd6f84d6	-0.05847629
156	0x3d950060	0.07275462
157	0xbdc79a01	-0.09746171
158	0xbe46988f	-0.19394134
159	0xbd7947ef	-0.060859617
160	0x3df87c73	0.12133112
161	0xbd4787ea	-0.048713602
162	0x3e45e4a8	0.19325507
163	0x3df2fb32	0.11864318
164	0x3e1f930c	0.15583438
165	0xbd88bd11	-0.066766866
166	0x3d91499c	0.07094118
167	0xbebbfdbd	-0.36717024
168	0xbd0cac43	-0.03434397
169	0xbd06796c	-0.03283064
170	0x3d54c0ed	0.0519418
171	0xbc28d6a7	-0.010305083
172	0x3ead878c	0.33892477
173	0x3e0b2219	0.13587226
174	0x3ea2423d	0.3169116
175	0x3e2c3323	0.16816382
176	0x3e0947e0	0.13406324
177	0xbc353fdc	-0.011062589
178	0xbf16336c	-0.58672214
179	0xbe8f9da9	-0.28049973
180	0xbd3e0098	-0.046387285
181	0x3d967e4c	0.07348308
182	0xbe846fe5	-0.2586662
183	0xbdaaddc2	-0.08343078
184	0x3dace680	0.08442402
185	0xbdfa0f0a	-0.122099
186	0xbcc5095b	-0.024052313
187	0xbdb93b3f	-0.090445034
188	0xbe8e3682	-0.2777596
189	0x3eab6f56	0.3348338
190	0xbe34679d	-0.1761765
191	0xbd6db053	-0.058029484
192	0xbe628637	-0.22121511
193	0x3e500974	0.20316106
194	0x3e0d94cc	0.13826293
195	0x3ca77143	0.02043975
196	0x3d1f6006	0.038909934
197	0x3f5cf455	0.8631032
198	0x3e165af0	0.14683127
199	0x3e1060e7	0.14099465
200	0xbd4c64e9	-0.049900923
201	0xbc7d1047	-0.015445775
202	0xbdbcc621	-0.092174776
203	0xbe3189a6	-0.17337665
204	0xbc4d4fec	-0.012531262
205	0x3e796cce	0.24357912
206	0xbe2d7efe	-0.16942975
207	0x3e48470a	0.19558349
208	0xbdd2e23f	-0.10297059
209	0xbd5ac2d5	-0.053408463
210	0xbe5fcd5d	-0.21855684
211	0x3ecadbce	0.39620823
212	0xbe2e7b93	-0.17039327
213	0xbf6ff81d	-0.93737966
214	0xbde7e608	-0.11323172
215	0x3e2ec848	0.17068589
216	0xbe88f984	-0.26752865
217	0x3d86f06c	0.065888256
218	0x3e786a86	0.24259385
219	0xbdae76ba	-0.08518739
220	0xbe3ac679	-0.18239774
221	0x3d9d55af	0.076823585
222	0x3df8d83a	0.12150617
223	0xbde52952	-0.11189522
224	0xbd9810fe	-0.07425116
225	0xbcbed716	-0.02329592
226	0x3dc4bdef	0.096065395
227	0xbe177233	-0.14789657
228	0xbe4f7ad2	-0.20261696
229	0x3def1413	0.11673751
230	0x3e6ecc01	0.23320009
231	0x3ee29850	0.4425683
232	0x3e84f194	0.2596556
233	0xbd74de7c	-0.05978249
234	0x3e5ad2e9	0.21369518
235	0xbdeca07d	-0.11554048
236	0xbd77381a	-0.060356237
237	0xbd7ca53c	-0.061681017
238	0x3ea445ae	0.3208441
239	0x3df0c77d	0.11756799
240	0xbc3acb57	-0.011401019
241	0xbec30a70	-0.380939
242	0x3e41b253	0.18915682
243	0xbdd24535	-0.102671064
244	0xbe4b9945	-0.19882686
245	0x3ea7558e	0.3268246
246	0xbe674e21	-0.22588398
247	0x3cbf7ca4	0.023374863
248	0x3e26b3f2	0.16279581
249	0x3e3ba734	0.18325502
250	0xbed81f70	-0.42211485
251	0xbd3e5d52	-0.046475716
252	0xbd1c5e5b	-0.038175922
253	0x3e7e59a4	0.24838883
254	0xbf20caf4	-0.6280968
255	0x3c25d1c1	0.01012081

mu.2.bias f4 [6]
0	0xbd2911e3	-0.041276824
1	0xb8c72528	-9.49598e-05
2	0xbd64c497	-0.055851545
3	0xbc8264d1	-0.015917214
4	0xbe56f5cd	-0.20992203
5	0xbe34f80c	-0.17672747

reward_fun.0.weight f4 [200, 7]
0	0x3f23a594	0.6392453
1	0xbf0f54f7	-0.5598902
2	0xbedf3fde	-0.43603414
3	0xbe369b81	-0.17832758
4	0xbf6ac225	-0.9170249
5	0xbf10073b	-0.5626103
6	0x3f47db9d	0.7806948
7	0x3d81dad0	0.06340563
8	0x3f70babd	0.9403494
9	0x3f17f77e	0.5936202
10	0xbfb2b7bf	-1.3962325
11	0xbe79d93e	-0.24399278
12	0xbe37e25e	-0.17957446
13	0x3ebf6e2b	0.3738874
14	0x3f51d41a	0.81964266
15	0x3e97cb38	0.2964723
16	0xbe6acfe2	-0.22930863
17	0x3ee72e7a	0.45152646
18	0x3d0066aa	0.031347908
19	0xbe5d8dc6	-0.21636114
20	0xbf995265	-1.197827
21	0xbf1a9d33	-0.60396117
22	0x3f092809	0.53576714
23	0x3dca8f61	0.098906286
24	0xbedd0898	-0.4317062
25	0x3df93f3d	0.12170265
26	0x3e934d01	0.28769687
27	0xbf2dd48e	-0.6790246
28	0x3fbdce85	1.482865
29	0x3e3929ce	0.18082353
30	0xbf3dc732	-0.7413207
31	0x3ead8038	0.33886886
32	0xbf47fb28	-0.7811761
33	0xbf55dcdc	-0.8354013
34	0xbd5b9925	-0.053612847
35	0x3ea6b725	0.32561603
36	0x3f2a4a2d	0.66519433
37	0x3e30ec81	0.17277719
38	0xbf99f3bf	-1.202751
39	0x3e817236	0.2528245
40	0x3f0734f2	0.52815163
41	0x3f33fca1	0.70307356
42	0x3eb6474c	0.3560127
43	0xbf17cf96	-0.59301126
44	0xbe9f2d00	-0.3108902
45	0x3eb2fcff	0.34958646
46	0xbf1e2e56	-0.61789453
47	0xbec15786	-0.37762088
48	0xbdf15e01	-0.11785508
49	0x3cfe2c00	0.03102684
50	0x3f6349b2	0.88784325
51	0xbd8d3570	-0.06894958
52	0x3f0a9cf8	0.54145765
53	0x3f336ebb	0.70090836
54	0x3ec32ad7	0.38118622
55	0x3f840834	1.0315003
56	0x3f648553	0.89265937
57	0x3dff84c2	0.124764934
58	0xbfbbee5e	-1.4682119
59	0xbd1c77b1	-0.038200084
60	0x3ebb891d	0.36628047
61	0x3ef2c64b	0.4741691
62	0xbf92410c	-1.1426101
63	0xbfa0a3fe	-1.2550046
64	0xbe8fe606	-0.2810518
65	0x3fdac6fd	1.7091976
66	0xbef7451e	-0.4829492
67	0x3ec1fb56	0.37887067
68	0x3e9aaf2a	0.30211765
69	0xbe53b97f	-0.2067623
70	0x3d8cfc54	0.06884065
71	0x3f8ead10	1.1146564
72	0x3ef23683	0.47307214
73	0x3f7c227a	0.9849011
74	0x3e852b65	0.2600967
75	0x3e615265	0.22004087
76	0xbf477acb	-0.7792174
77	0x3f1581c1	0.58401114
78	0x3e3e4a28	0.18582976
79	0xbe827345	-0.2547857
80	0xbc632e62	-0.013866039
81	0x3e615e68	0.2200867
82	0x3ebcd473	0.36880836
83	0xbe4965f6	-0.19667801
84	0x3f2f426b	0.6846072
85	0xbedf34bc	-0.4359492
86	0xbe4fe170	-0.20300841
87	0x3eb02914	0.3440634
88	0x3eee01b2	0.46485668
89	0x3f178f2d	0.59202844
90	0xbfa3294c	-1.2746978
91	0xbf62a920	-0.88539314
92	0xbe3b82bf	-0.18311594
93	0xbdb46dc0	-0.08809996
94	0xbe90c643	-0.28276262
95	0xbe80b874	-0.25140727
96	0xbe64fa67	-0.22361146
97	0x3f7a2cd5	0.9772466
98	0xbebf6cfe	-0.37387842
99	0x3fbaaa28	1.4583178
100	0xbf315965	-0.6927703
101	0x3f2b4e47	0.66916317
102	0x3e4c9a80	0.19980812
103	0x3e9f0241	0.31056407
104	0xbe22bd76	-0.15892586
105	0x3ec91e95	0.39281145
106	0x3e7a63a5	0.24452074
107	0x3f17f966	0.59364927
108	0x3fb1a29f	1.3877753
109	0xbe2f5bed	-0.1712491
110	0xbe76c63c	-0.24099058
111	0xbf87cba6	-1.0609024
112	0x3ee71f84	0.45141232
113	0x3f9c6522	1.2218363
114	0xbf1099a0	-0.56484413
115	0xbe27d898	-0.16391218
116	0x3f8681ff	1.0508422
117	0x3f5e6789	0.8687673
118	0x3e140b60	0.14457464
119	0xbe11be4b	-0.14232747
120	0x3f7f4e0e	0.99728477
121	0x3f0ee4e8	0.55818033
122	0x3f2cc745	0.6749156
123	0xbefd2da3	-0.4944888
124	0xbea79099	-0.32727507
125	0xbee16607	-0.44023153
126	0x3e80035f	0.25002572
127	0x3f0b7019	0.5446792
128	0xbeb41d63	-0.3517867
129	0xbe4888b3	-0.19583397
130	0xbe2e9e63	-0.17052607
131	0xbdc0d9ce	-0.09416543
132	0xbfc2af07	-1.5209664
133	0xbffdc38b	-1.98253
134	0xbef54318	-0.4790275
135	0xc010ddca	-2.263537
136	0x3f05e94b	0.523091
137	0x3d6373bc	0.055530295
138	0x3e4d8d2b	0.20073383
139	0xbe118b16	-0.14213213
140	0xbee306fa	-0.4434126
141	0x3fc2603c	1.5185618
142	0x3f20ef7e	0.62865436
143	0x3fb69c56	1.426646
144	0xbdddc3be	-0.108283505
145	0x3e3c41df	0.18384503
146	0xbfb62e51	-1.4232885
147	0x3f60439d	0.8760317
148	0x3ed4b376	0.41543168
149	0x3e07cdb7	0.13262068
150	0xbf5b35aa	-0.8562876
151	0xbef88ada	-0.48543435
152	0xbab2337b	-0.0013595665
153	0xbfef14a4	-1.8678174
154	0x3f9a4bd5	1.2054392
155	0x3eca7156	0.39539593
156	0xbfa615ec	-1.297544
157	0x3f2f9b44	0.6859629
158	0x3e0a3de1	0.13500167
159	0x3cdaafe5	0.026695201
160	0x3fa4383a	1.2829659
161	0x3f3af1c7	0.7302517
162	0xbf1889a1	-0.59585005
163	0x3f602d94	0.87569547
164	0x3d6d2b47	0.0579026
165	0x3f668c6c	0.90058017
166	0x3f34f2ae	0.706828
167	0x3edec987	0.43513128
168	0x3d999519	0.07499141
169	0xbf2db641	-0.6785622
170	0xbe8352c8	-0.25649095
171	0x3ee80e83	0.45323572
172	0xbef7bed1	-0.4838777
173	0xbe0c48c5	-0.13699634
174	0xbf06ba1b	-0.52627724
175	0x3f1f0d87	0.62130016
176	0x3f49bfb9	0.7880817
177	0xbd0b2140	-0.033967257
178	0xbe9ff8b8	-0.31244445
179	0xbf49f287	-0.7888569
180	0xbf35407b	-0.70801514
181	0x3f9ea4dc	1.2394061
182	0x3e3a1540	0.18172169
183	0xbf9a4457	-1.2052106
184	0xbe48cf06	-0.19610223
185	0xbe9f9150	-0.31165552
186	0xbd40ef77	-0.04710337
187	0x3d518514	0.051152304
188	0x3f436fa4	0.76342225
189	0x3f5c02a1	0.8594151
190	0xbe08521e	-0.13312575
191	0xbe851f71	-0.2600055
192	0xbce88ac3	-0.02838648
193	0x3cf506d3	0.02991048
194	0x3f24d09a	0.643808
195	0x3f2c2f24	0.6725943
196	0xbe5f64b3	-0.21815757
197	0xbf0d68f1	-0.5523825
198	0x3e2ace16	0.16680178
199	0xbfaf5cfd	-1.3700253
200	0xbf17386a	-0.59070456
201	0xbf0f6302	-0.5601045
202	0x3fe1f295	1.7652155
203	0x3ef20bdb	0.4727467
204	0x3f773840	0.96570206
205	0xbfdf52d4	-1.7447152
206	0x3fadac20	1.3568153
207	0xbd89970c	-0.06718263
208	0xbda9465a	-0.082653716
209	0xbe9e9bc5	-0.30978218
210	0x3f4d7dde	0.80270183
211	0xbee88601	-0.45414737
212	0xbeede080	-0.46460342
213	0xbda548f3	-0.080705546
214	0xbe19c78e	-0.1501753
215	0xbf192eed	-0.5983723
216	0x3edee9f3	0.43537864
217	0x3e99d05c	0.30041778
218	0x3f140dca	0.5783354
219	0xbe5cf60f	-0.21578239
220	0xbe28fc8d	-0.1650259
221	0x3e6cdfc4	0.23132235
222	0x3d776ee1	0.060408477
223	0xbdde6bb9	-0.1086039
224	0x3f0010df	0.50025743
225	0x3fb9c802	1.4514163
226	0x3ea14dd4	0.3150469
227	0x3e4eef20	0.20208406
228	0x3ecca7c2	0.3997174
229	0x3ecfe0c4	0.4060117
230	0x3f60cd59	0.87813336
231	0x3ef39d8c	0.47581136
232	0x3f38ac94	0.72138333
233	0xbf80ed7a	-1.0072472
234	0xbe26ce14	-0.1628955
235	0x3ee93bc4	0.4555341
236	0x3eb21761	0.34783462
237	0x3fb4921c	1.4107089
238	0xbcc252ba	-0.023721088
239	0x3e374600	0.17897797
240	0x3d407727	0.046988633
241	0x3d050347	0.03247383
242	0x3d011d66	0.031522177
243	0xbcb151a8	-0.021645382
244	0xbd383460	-0.044971824
245	0x3e9dc9df	0.30818078
246	0x3e72163f	0.23641299
247	0xbe7677f2	-0.24069193
248	0xbf40813e	-0.7519721
249	0xbe33734f	-0.17524455
250	0x3f10c60d	0.565522
251	0x3ebba476	0.3664891
252	0xbed40135	-0.4140717
253	0xbf8b4d53	-1.0882972
254	0xbfb44c53	-1.4085792
255	0xbe53315c	-0.20624298

reward_fun.0.bias f4 [200]
0	0xbf99a624	-1.2003827
1	0xbe4c77af	-0.1996753
2	0xbfa32381	-1.274521
3	0xbd7eebdb	-0.062236648
4	0xbfa09620	-1.2545815
5	0xbf7683f7	-0.9629511
6	0xbe3e8d45	-0.18608578
7	0xbfd5d3ab	-1.6705221
8	0xbfb07422	-1.3785441
9	0xbf5792fa	-0.84208643
10	0xbf8fc29e	-1.1231267
11	0xbe890581	-0.26762012
12	0xbf99f7f8	-1.2028799
13	0xbf112aa1	-0.5670567
14	0xbf6d565c	-0.927099
15	0xbf9c536a	-1.2212956
16	0xbfcbbac2	-1.5916369
17	0xbf1e533d	-0.6184576
18	0xbf9b97ed	-1.2155739
19	0xbfb138c3	-1.3845447
20	0xbf9a0548	-1.2032862
21	0xc00a08fd	-2.1567986
22	0xbfaf5786	-1.3698585
23	0xbfaf6d46	-1.3705223
24	0xbf48020f	-0.7812814
25	0xbf34cf97	-0.70629257
26	0xbf502663	-0.81308573
27	0xc02c5f91	-2.693333
28	0xbfd95ecb	-1.6982054
29	0xbfa92c74	-1.3216691
30	0xbfcb11ca	-1.5864804
31	0xbe3229d6	-0.17398772
32	0xbfb5b164	-1.419476
33	0xbfb69fac	-1.4267478
34	0xbf2173f1	-0.6306754
35	0xc0155a2f	-2.3336294
36	0xbf813c3c	-1.0096507
37	0xbf81fa5c	-1.0154529
38	0xbe89ab1a	-0.26888353
39	0xbefa1f22	-0.48851877
40	0xbf137a76	-0.57608736
41	0xbf8c4bb1	-1.0960599
42	0xc00c60f2	-2.193417
43	0xbfd62888	-1.6731119
44	0xbf2e5582	-0.68099225
45	0xbfb767f0	-1.4328594
46	0xbe474e34	-0.19463426
47	0xbfa5105b	-1.2895616
48	0xbf365fd5	-0.7123998
49	0xbe6d7bac	-0.23191708
50	0xbe4945c8	-0.19655526
51	0xbfc0ee3c	-1.5072703
52	0xbfcaecb7	-1.585349
53	0xbeb80b39	-0.35946062
54	0xbe0b8ada	-0.13627186
55	0xbf1bb36d	-0.60820657
56	0xbe9c310f	-0.3050618
57	0xbd089639	-0.03334639
58	0x3e8dd155	0.2769877
59	0xbf85bc28	-1.0448046
60	0xbfbb6848	-1.4641199
61	0xbfade4ab	-1.3585409
62	0xbf9c30c5	-1.2202383
63	0xbfd1b483	-1.6383213
64	0xbf695d88	-0.9115834
65	0xbf4944e8	-0.7862077
66	0xbf7da733	-0.9908325
67	0xbf7e9a09	-0.9945379
68	0xbf89cd48	-1.0765772
69	0x3dc6c353	0.09705224
70	0xbe63999b	-0.22226565
71	0xbf1e8546	-0.6192211
72	0xbf7623de	-0.9614848
73	0xbfce229d	-1.6104313
74	0xbf2fe7ce	-0.6871308
75	0xbf852031	-1.0400449
76	0xbf9379b4	-1.1521516
77	0xbf7de802	-0.9918214
78	0xbfbc2957	-1.4700116
79	0xbf545f62	-0.8295804
80	0xbf592755	-0.8482564
81	0xbf954303	-1.1661075
82	0xbfd76761	-1.6828424
83	0xbfa20a6f	-1.2659434
84	0xbfa4fb08	-1.2889109
85	0xbf830545	-1.0235983
86	0xbf64dd72	-0.894004
87	0xbf982fc2	-1.1889575
88	0xbf3e2c29	-0.74286133
89	0x3d6ce571	0.057836
90	0xbf5e5ee6	-0.86863554
91	0xbf95a149	-1.1689845
92	0xbf93ae2b	-1.1537527
93	0xbf01ce5e	-0.50705516
94	0xbfb15bab	-1.38561
95	0xbfacd224	-1.350163
96	0xbfe7a209	-1.8096324
97	0xbff268bd	-1.8938214
98	0xbf42ef27	-0.7614617
99	0xbff40a3d	-1.9065624
100	0xbeb533b7	-0.35391018
101	0xbf8b340a	-1.0875256
102	0xbf7d746b	-0.99005765
103	0xbffdc850	-1.9826756
104	0xbf38b415	-0.72149783
105	0xbf442d4b	-0.7663161
106	0xbfff74cb	-1.9957517
107	0xbf815e4d	-1.0106903
108	0xbf82f5f7	-1.0231313
109	0xbea5e0f2	-0.32398182
110	0xbf3feb3a	-0.749683
111	0xbfe6e403	-1.8038334
112	0xbf74fafb	-0.95695466
113	0xbf50c087	-0.81543773
114	0xbf2ce31c	-0.6753404
115	0xbf3e4951	-0.7433062
116	0xbec30bd3	-0.3809496
117	0xbf39aa3d	-0.7252539
118	0xbf7d7fab	-0.9902293
119	0xbf148215	-0.5801099
120	0xbfd1d84f	-1.6394137
121	0xbfe9740b	-1.8238539
122	0xbf64b6c1	-0.8934136
123	0xbeef1e25	-0.46702686
124	0xbe589853	-0.21151857
125	0xbf9dbcc3	-1.232323
126	0xbf6ef199	-0.933374
127	0xbf9a0d90	-1.2035389
128	0xbf5ab703	-0.85435504
129	0xbf22aab1	-0.63541704
130	0xbe682ddc	-0.22673744
131	0xbf4e326e	-0.805457
132	0xbf009934	-0.5023377
133	0xbf39ac4d	-0.72528535
134	0xbf3dd1e7	-0.7414841
135	0xbf18eb71	-0.59734255
136	0xbf806ffd	-1.0034176
137	0xbf4c28fa	-0.79750025
138	0xbf93188c	-1.1491866
139	0xbeeef0dd	-0.4666814
140	0xbf86fc2a	-1.0545704
141	0xbe5af47c	-0.21382326
142	0xbf476b7b	-0.7789838
143	0xbee523fc	-0.44754016
144	0xbfd32ea3	-1.6498607
145	0xbf89f7e3	-1.0778774
146	0xbf09c55b	-0.53816766
147	0xbfd1e869	-1.6399051
148	0xbfacf8df	-1.351345
149	0xbe68f8be	-0.22751138
150	0x3c5be8c0	0.013422191
151	0xbfbdad61	-1.4818536
152	0xc00919fb	-2.1422107
153	0xbeeb3340	-0.45937538
154	0x3dc0f3ee	0.09421526
155	0xbf4aee50	-0.79269886
156	0xbf7d1e1c	-0.9887407
157	0xbf4724e7	-0.77790684
158	0xbf16de07	-0.58932537
159	0xbeacd6e9	-0.33757713
160	0xbf39dd8e	-0.7260369
161	0xbf6ace7a	-0.9172131
162	0xbfcba8f0	-1.5910931
163	0xbf391795	-0.7230161
164	0xbdba0ec6	-0.09084849
165	0xbf38be9e	-0.7216586
166	0x3e32d138	0.17462623
167	0xbf4ca1c8	-0.7993436
168	0xbf47c868	-0.7804017
169	0xbf5bee8a	-0.85910857
170	0xbf8e0fba	-1.1098549
171	0xbebfca4b	-0.37459025
172	0xbf078ba3	-0.52947444
173	0xbf96b441	-1.1773759
174	0xbecf3f34	-0.40477908
175	0xbfa5605b	-1.292003
176	0xbfbb3e90	-1.4628468
177	0xbf55b096	-0.83472574
178	0xbf91de21	-1.1395913
179	0xbe9900d5	-0.29883447
180	0xbe723803	-0.2365418
181	0xbf1b0335	-0.6055177
182	0xbe9076ae	-0.28215545
183	0xbe5dd6aa	-0.21663919
184	0xbfa954f4	-1.3229051
185	0x3d1a6d40	0.037701845
186	0xbf9fa9b6	-1.2473667
187	0xbf44fcef	-0.76948446
188	0xbf3b9c25	-0.7328513
189	0xbfd27f0b	-1.644502
190	0xbf9fdeec	-1.2489905
191	0xbed08587	-0.40726873
192	0x3e307318	0.17231405
193	0xbf5bd333	-0.8586914
194	0xbf8c38a2	-1.0954783
195	0xbefbd296	-0.49184102
196	0xbf7e12f6	-0.9924768
197	0xbfc72e19	-1.5560943
198	0xbf6b9f76	-0.92040193
199	0xbfdde4b0	-1.7335415

reward_fun.2.weight f4 [200, 200]
0	0x3fcd4211	1.6035787
1	0x3e304555	0.17213948
2	0x3f2d7706	0.6775974
3	0x3d5981ed	0.053102423
4	0x3dc5db82	0.096610084
5	0xbe97fafe	-0.2968368
6	0xbf3f8e89	-0.74826866
7	0xbed6a752	-0.4192453
8	0x3e3b8eff	0.18316267
9	0x3e464c10	0.19364953
10	0x3f4211be	0.7580832
11	0x3eb45db4	0.3522774
12	0xbebde609	-0.37089565
13	0x3f48b5d6	0.7840246
14	0xbea79ead	-0.32738248
15	0xbeee4bec	-0.465423
16	0x3ed7d736	0.4215638
17	0x3ed225b2	0.41044384
18	0x3f3727b4	0.7154496
19	0x3ec155bf	0.37760732
20	0xbfbc4cab	-1.4710897
21	0xc0876e20	-4.232193
22	0x3d5bf240	0.053697824
23	0xbffeeaba	-1.9915383
24	0xbfe12c06	-1.759156
25	0x3f8f58a2	1.1198924
26	0xc02279ec	-2.5386915
27	0xbf774807	-0.9659428
28	0xbfa6a72e	-1.3019769
29	0x3d41c817	0.04730996
30	0xbfc91d2d	-1.5712029
31	0x3d2c208c	0.042023227
32	0xc08a96be	-4.330901
33	0xbf1b27cb	-0.60607594
34	0xbde8e605	-0.11371998
35	0xc011f13a	-2.2803483
36	0x3fa10d2a	1.2582142
37	0x3ff729c0	1.9309616
38	0x3c6bad05	0.014384513
39	0x3e0077a8	0.12545645
40	0xbfef38a4	-1.868916
41	0x3ea770bd	0.327032
42	0xbf2b43a1	-0.6690007
43	0xbe5e2713	-0.21694593
44	0xbf7e7484	-0.9939654
45	0xbee24bfe	-0.44198602
46	0xbf416d9a	-0.75557864
47	0xbe76d9b1	-0.2410648
48	0xbd18102f	-0.03712481
49	0xbf2f33a9	-0.684382
50	0xc02eafca	-2.7294793
51	0xbee9b89f	-0.45648667
52	0x3e8146dc	0.25249374
53	0xbd965cbb	-0.07341906
54	0x3b56ed9a	0.003279543
55	0xbe4a339e	-0.19746253
56	0x3f80164f	1.0006808
57	0x3efa3276	0.48866624
58	0xbfce2d20	-1.6107521
59	0x3d8c3490	0.06845963
60	0xbfc34e2a	-1.5258229
61	0xbd198762	-0.037482627
62	0xbf9b34ad	-1.212545
63	0x3fac6b56	1.3470256
64	0xbed7ed70	-0.42173338
65	0xc0652847	-3.5805833
66	0xc081d3e3	-4.057115
67	0xbe470a26	-0.19437465
68	0xc02fbb82	-2.7458196
69	0xbfb33889	-1.4001628
70	0x3d07530e	0.03303819
71	0xbe12ac44	-0.14323527
72	0xbf4a4ce8	-0.790236
73	0xc070c491	-3.7619975
74	0xbdd5e9c3	-0.10444977
75	0xbf46c332	-0.77641594
76	0x3f710b21	0.94157606
77	0x3eb3cc0e	0.3511662
78	0xc075c3ff	-3.8400877
79	0xbe5168c7	-0.20450126
80	0x3ee023b8	0.4377725
81	0x3faff3f0	1.3746319
82	0x3f869036	1.051276
83	0xbfe6a005	-1.8017584
84	0x3f06e05e	0.5268611
85	0xbfc3c905	-1.5295721
86	0xbe92fcfc	-0.28708637
87	0xbfad5e30	-1.3544369
88	0x3e9f05e6	0.31059188
89	0x3d8aef4d	0.06783924
90	0xc0021f90	-2.0331764
91	0x3e46dbfa	0.19419852
92	0xc086408d	-4.1953797
93	0x3cd0b32b	0.025476059
94	0xbfc8127d	-1.5630642
95	0xbdc27c5b	-0.09496375
96	0x3f014f23	0.5051138
97	0xbfbb65e8	-1.4640474
98	0xbdf25d79	-0.11834235
99	0xbc045442	-0.008076729
100	0x3f52e3f3	0.8237907
101	0x3cdad29d	0.026711756
102	0x3f177336	0.5916017
103	0xbfb87f75	-1.4413897
104	0xbf3a7616	-0.72836435
105	0x3e6a113f	0.22858141
106	0xbf2aa93a	-0.6666447
107	0x3e6abb30	0.22922969
108	0x3e6a210e	0.22864172
109	0xbe657ff8	-0.22412097
110	0xc0e4cfa1	-7.1503453
111	0xbf9c45e0	-1.2208824
112	0xbf600e37	-0.8752169
113	0xbe138fe5	-0.1441036
114	0xbf04caa6	-0.51871717
115	0x3e3a0f36	0.18169865
116	0x3ef6b0d1	0.48181775
117	0xc081d6e8	-4.0574837
118	0x401ce764	2.451623
119	0xbe1d169f	-0.1534066
120	0xbe24e010	-0.16101098
121	0x3f8f0875	1.1174456
122	0xc006edf4	-2.1082735
123	0xc01a5a91	-2.4117777
124	0xbf5c3b35	-0.8602784
125	0xbfe3384b	-1.7751554
126	0x3dd6b8db	0.10484477
127	0x3f632d59	0.8874107
128	0xc02126a0	-2.5179825
129	0xbe445325	-0.19172342
130	0x3e52e1b3	0.2059391
131	0x3d903256	0.07040851
132	0x3e9a4e88	0.3013804
133	0x3f483f71	0.78221804
134	0x3f9c7b8c	1.2225204
135	0xbff7094a	-1.929971
136	0xbf2a1eba	-0.66453135
137	0x3f89e361	1.0772516
138	0xc05cc268	-3.4493656
139	0xbe72bce6	-0.23704872
140	0xbf3f22e8	-0.7466264
141	0x3fb52204	1.4151006
142	0xbd68ee3b	-0.05686782
143	0xbf46813a	-0.77540934
144	0x3fab9f6c	1.3408027
145	0x3ea228bd	0.31671706
146	0x3ea84e88	0.32872415
147	0x3e1af349	0.15131868
148	0x3dee5c15	0.11638657
149	0x3e0bd6fe	0.13656232
150	0xbf0bd3ad	-0.54619867
151	0xbfd2c830	-1.6467342
152	0xbe3c9987	-0.18417941
153	0xb9cdbc21	-0.00039240814
154	0x3ec39e61	0.3820677
155	0xbf09b0ee	-0.537856
156	0x3f1bbb08	0.6083226
157	0x3ed72ff8	0.42028785
158	0xbefae0b1	-0.4899955
159	0x3f16ce2c	0.58908343
160	0x3e20b340	0.15693378
161	0xbe5b46d4	-0.21413738
162	0xbf37934f	-0.7170915
163	0xbda4f506	-0.08054547
164	0xbf6bad73	-0.9206154
165	0xc030196c	-2.7515516
166	0xc051bc69	-3.2771246
167	0x3dc2e7be	0.095168576
168	0xbfcf6388	-1.620225
169	0xbfbf7d6d	-1.4960152
170	0xbf8482cf	-1.035242
171	0x3e7c4040	0.24633884
172	0x3f6616c6	0.898785
173	0xbd0ffa02	-0.035150535
174	0x3c7ed71b	0.015554215
175	0xbfd5ba12	-1.6697409
176	0x3e85d07d	0.26135626
177	0xbdab95a5	-0.08378152
178	0x3ec88ead	0.39171353
179	0x3fa83efd	1.3144222
180	0xbe4f650c	-0.2025339
181	0xbf622f5e	-0.88353527
182	0x3e96071d	0.29302302
183	0x3e0ad992	0.13559559
184	0x3fc46040	1.5341873
185	0x3f4886f9	0.7833095
186	0x3ebbdbf6	0.36691254
187	0xbe2d480a	-0.16922012
188	0x3e8f9709	0.28044918
189	0xbfd5131b	-1.6646456
190	0xbed09260	-0.40736675
191	0xbe26bb66	-0.16282424
192	0x3d51caf0	0.051218927
193	0xbe8f3f1e	-0.27977842
194	0x3f233703	0.63755816
195	0xbf822398	-1.0167112
196	0xc0248e8a	-2.5712
197	0x3f2ef48b	0.6834189
198	0x3dea093c	0.114275426
199	0xbe82edaa	-0.25571948
200	0x3ec143b4	0.37746966
201	0x3d9c29b3	0.07625141
202	0xbf8b725c	-1.0894275
203	0xbeb02489	-0.34402874
204	0xbeaf52be	-0.34242815
205	0x3da02bf0	0.078208804
206	0x3f9329ea	1.1497166
207	0xbdd4d72c	-0.10392603
208	0x3ed5331f	0.41640565
209	0xbfe083e4	-1.754025
210	0xbfa3e8b5	-1.2805392
211	0x3eb998f1	0.36249498
212	0x3f98482f	1.1897029
213	0xbe3501f2	-0.17676523
214	0xbf1cade4	-0.61202836
215	0x3e5bea69	0.21476139
216	0xbea35c91	-0.3190656
217	0x3eba3d3f	0.36374852
218	0xbe53933a	-0.20661631
219	0xbff84449	-1.9395839
220	0x3ccfd703	0.02537108
221	0xbb94fd51	-0.004546799
222	0xbe98d76a	-0.29851848
223	0x3f4877a5	0.78307563
224	0xbfdf4258	-1.7442122
225	0x3e8fa464	0.28055108
226	0xbf8c6708	-1.0968943
227	0xbec86b1a	-0.39144212
228	0xbfdbd42c	-1.7174125
229	0xbfbcb46f	-1.4742564
230	0x3d883ec4	0.066525966
231	0xbe634724	-0.22195107
232	0x3e6f30d9	0.23358478
233	0x3f058505	0.52156097
234	0x3d0f05c9	0.034917627
235	0xbe0bcd8b	-0.13652627
236	0xc02e4583	-2.7229927
237	0xbf608726	-0.8770622
238	0xbe594ff9	-0.21221913
239	0x3e88317b	0.2660025
240	0xbf9b7892	-1.214617
241	0x3eac1057	0.33606216
242	0x3e45e240	0.19324589
243	0xbd334969	-0.04377118
244	0x3f99ab3e	1.2005384
245	0xbf856ece	-1.042444
246	0x3f9ff7ba	1.2497475
247	0x3e30d81c	0.17269939
248	0xbf0e5b98	-0.5560851
249	0x3e031123	0.12799506
250	0x3ea31af2	0.31856495
251	0x3cf399c3	0.029736405
252	0x3f146d20	0.5797901
253	0xbef528e8	-0.47882771
254	0xc0352983	-2.8306587
255	0xbf40cd84	-0.7531359

reward_fun.2.bias f4 [200]
0	0x3e2787a5	0.16360338
1	0x3e1710f0	0.14752555
2	0xbea618ad	-0.324407
3	0xbdcb8e93	-0.09939303
4	0x3ef4df4b	0.4782661
5	0xbe8186b9	-0.25298098
6	0xbe680eda	-0.22661915
7	0xbd3f7b18	-0.04674825
8	0xbf08be4e	-0.5341538
9	0xbed981bb	-0.4248179
10	0x3e920d8f	0.2852597
11	0xbee48fc5	-0.44640937
12	0x3f5b7522	0.85725605
13	0x3f20a45a	0.6275078
14	0xbd81a6ba	-0.06330629
15	0xbf759bcc	-0.9594085
16	0xbbc4200b	-0.005985265
17	0xbda3fd17	-0.080072574
18	0xbdf8473d	-0.121229626
19	0xbd3d7b42	-0.046260126
20	0xbe76573f	-0.24056719
21	0xbd84b460	-0.06479716
22	0x3f29586e	0.6615056
23	0xbe0c14f4	-0.13679868
24	0xbfa977d9	-1.32397
25	0xbe1279f7	-0.14304338
26	0xbccb7e75	-0.024840573
27	0xbe0a0346	-0.13477811
28	0x3ec6ccd9	0.3882816
29	0x3d9d557d	0.07682321
30	0x3b4fd55c	0.0031712865
31	0xbe1529c2	-0.1456671
32	0xbd86af29	-0.06576378
33	0x3ed03f59	0.4067333
34	0xbe6b1052	-0.22955444
35	0x3f10187c	0.5628736
36	0xbe6dba0a	-0.232155
37	0xbdaad812	-0.083419934
38	0xbe3774cf	-0.17915653
39	0xbd1f878c	-0.038947627
40	0xbe677221	-0.2260213
41	0x3d29c34a	0.041446008
42	0x3f1f3908	0.621964
43	0xbe863220	-0.26210117
44	0x3f565170	0.83718014
45	0xbe3111f7	-0.1729201
46	0xbdca201f	-0.09869408
47	0x3eb3ee8b	0.3514293
48	0x3c96ced8	0.018409178
49	0x3cde63ec	0.027147256
50	0xbda8a112	-0.08233847
51	0xbe722daf	-0.2365024
52	0x3e2e783d	0.17038055
53	0x3f92690c	1.1438308
54	0x3f8f20fb	1.118194
55	0xbebf5e1c	-0.37376487
56	0xbe487c79	-0.19578733
57	0xbedab0fc	-0.42713153
58	0x3e524d13	0.20537214
59	0x3eab4e57	0.33458206
60	0xbd2a8d58	-0.041638702
61	0xbd749712	-0.059714384
62	0xbf2763db	-0.6538674
63	0x3a55dc42	0.0008158126
64	0xbdc7bf8a	-0.0975333
65	0xbd2a904f	-0.04164153
66	0xbe705d73	-0.23473148
67	0xbe77ad2f	-0.24187158
68	0x3f202f97	0.62572616
69	0xbe24ee72	-0.16106585
70	0xbd2daefd	-0.04240321
71	0x3f427f12	0.75975144
72	0xbe70fbed	-0.23533602
73	0xbeaeb0ed	-0.3411936
74	0xbe295d26	-0.1653944
75	0xbe1dbc0a	-0.15403762
76	0xbe6972a1	-0.22797634
77	0xbc8cdd7b	-0.017195454
78	0xbd85b9f7	-0.065296106
79	0xbcc8b317	-0.02449946
80	0xbd7a9e9f	-0.06118643
81	0xbdaef29a	-0.08542366
82	0x3dedda0e	0.11613856
83	0xbda819f8	-0.08208078
84	0x3e07f563	0.13277201
85	0xbc3298b8	-0.010900669
86	0xbd0eaf58	-0.03483519
87	0xbe1141e9	-0.14185299
88	0xbdf75c41	-0.12078143
89	0x3d6d4fdc	0.057937488
90	0x3e34138f	0.17585586
91	0x3da46634	0.08027306
92	0x3cb1e4bf	0.02171552
93	0x3d7b7498	0.06139049
94	0xbdee8757	-0.11646908
95	0x3f864503	1.0489811
96	0xbdffd1b2	-0.12491168
97	0x3e183e07	0.14867412
98	0xbe50d90d	-0.20395298
99	0xbdca8b4d	-0.09889851
100	0xbe14e9e5	-0.14542349
101	0xba99100f	-0.001167776
102	0xbd9b63c9	-0.07587392
103	0x3ddd20ae	0.10797249
104	0x3eaf898e	0.34284633
105	0x3f12309d	0.5710543
106	0xbdcb23c2	-0.0991893
107	0xbe675bbe	-0.2259359
108	0xbd3092ab	-0.043108623
109	0x3e33274b	0.17495458
110	0xbd31c2da	-0.043398716
111	0xbf2417ed	-0.6409901
112	0x3f3220aa	0.6958109
113	0x3e754fb4	0.23956186
114	0x3f7e9dea	0.9945971
115	0xbc13223d	-0.008980331
116	0x3f1ecb6f	0.62029165
117	0x3b14ac6c	0.002268578
118	0xbe2f2361	-0.1710334
119	0xbcee0f01	-0.029059889
120	0xbdee402b	-0.11633333
121	0x3ca5d83f	0.020244716
122	0xbe94a046	-0.2902853
123	0x3eefc9db	0.4683369
124	0xbf2bc145	-0.6709178
125	0xbd8ae3ad	-0.06781707
126	0xbdd87cef	-0.10570704
127	0xbe9e1b40	-0.30880165
128	0x3a033595	0.0005005238
129	0xbe434a81	-0.1907139
130	0xbdd6134f	-0.104529016
131	0xbdfe2899	-0.12410087
132	0x3f26defd	0.65184003
133	0xbe3e548c	-0.1858694
134	0xbea0d473	-0.31412086
135	0xbd989790	-0.07450783
136	0x3d47492b	0.048653763
137	0xbe74ebf3	-0.23918132
138	0x3f4c7c2d	0.7987698
139	0x3db0d641	0.08634616
140	0xbcceee20	-0.025260031
141	0x3d2a4b6f	0.041575845
142	0xbd57cef0	-0.052687585
143	0xbe6f2922	-0.23355535
144	0x3e69f7ea	0.22848478
145	0xbd981ced	-0.07427392
146	0x3d505709	0.050864253
147	0xbe55c132	-0.2087448
148	0x3ed979aa	0.42475635
149	0xbf09de19	-0.5385452
150	0x3eb97127	0.3621914
151	0xbdb0fb32	-0.08641662
152	0xbe1d8789	-0.15383734
153	0x3f803b27	1.0018052
154	0xbf528879	-0.8223949
155	0x3eeca978	0.46223044
156	0xbe43e814	-0.191315
157	0xbdacd6d9	-0.084394164
158	0xbe4161b3	-0.18884926
159	0xbd667f92	-0.056274004
160	0x3f100563	0.5625822
161	0xbe2259e0	-0.15854597
162	0xbe5ce053	-0.21569948
163	0xbd1ef4fa	-0.038807847
164	0x3e049606	0.12947854
165	0x3da441e0	0.08020377
166	0xbe517cb0	-0.20457721
167	0xbf5f2f40	-0.8718147
168	0xbd8aee10	-0.06783688
169	0xbc97090a	-0.018436927
170	0xbe51d423	-0.2049108
171	0xbe18dfa0	-0.14929056
172	0xbda82304	-0.08209804
173	0xbe805730	-0.2506652
174	0xbe1e9482	-0.15486339
175	0x3e3dd548	0.18538392
176	0x3d879b8e	0.066214666
177	0xbdc8d5bd	-0.09806392
178	0x3ceeb16a	0.029137332
179	0x3ddceb5d	0.107870795
180	0xbd265bb1	-0.040614787
181	0xbdc22a94	-0.094807774
182	0xbe9e92fd	-0.30971518
183	0xbcaffd5a	-0.021483112
184	0x3f267a9a	0.65030825
185	0x3f40e553	0.7534992
186	0x3fa9d796	1.3268917
187	0xbb416490	-0.0029509403
188	0xbd862809	-0.06550605
189	0xbeaa9183	-0.33314142
190	0xbded22b2	-0.11578883
191	0x3d0a81ab	0.033815067
192	0xbf3ef1d1	-0.7458773
193	0xbe126440	-0.14296055
194	0x3e43b212	0.19110897
195	0x3f30a3a0	0.6899967
196	0xbe73c6d0	-0.2380631
197	0x3a8cdcaf	0.0010746921
198	0xbd0219ba	-0.031762816
199	0x3daaf0dc	0.083467215

reward_fun.4.weight f4 [1, 200]
0	0xbeeecd93	-0.46641216
1	0xbf3c66e6	-0.7359451
2	0xbd8e803a	-0.06958051
3	0x3cc1c8ab	0.023655256
4	0xbe34aded	-0.17644472
5	0xbf689730	-0.90855694
6	0xbe37c7cb	-0.17947309
7	0x3b892327	0.0041850987
8	0xbf98e16c	-1.1943793
9	0x3d5f024b	0.054445546
10	0xc0014f9a	-2.0204835
11	0x3d939b3e	0.072073445
12	0xbeb3c60f	-0.35112044
13	0xbe817da0	-0.25291157
14	0x3d13a392	0.036044665
15	0x3f1ab4cd	0.6043213
16	0x3cc2341d	0.02370649
17	0xbbd46915	-0.0064822533
18	0xbe989f2a	-0.29808933
19	0x3cc0f4f6	0.023554306
20	0xbc6de2c3	-0.014519396
21	0xbd1c167a	-0.038107373
22	0xbef99e1c	-0.4875344
23	0x3e68f619	0.22750129
24	0x3e8d8166	0.27637786
25	0xbc88305a	-0.016624618
26	0xbc1036c9	-0.008802124
27	0x3dbc4d26	0.091944024
28	0xbed70f8d	-0.42004052
29	0xbe23c5db	-0.15993445
30	0xbfa60145	-1.2969137
31	0xbd7ff14a	-0.06248597
32	0x3c94ada4	0.018149205
33	0xbf01a7f9	-0.5064693
34	0x3e023e4e	0.1271908
35	0xbf9206b8	-1.14083
36	0xbdec279a	-0.11530991
37	0xbd3f22f9	-0.046664212
38	0xbec4e16b	-0.3845323
39	0x3caa589f	0.020794211
40	0x3e7b8432	0.24562147
41	0x3f5d6273	0.86478347
42	0xbeca8faa	-0.39562732
43	0x3d1f41c1	0.038881067
44	0xbdf29904	-0.11845592
45	0xbb137000	-0.0022497177
46	0xbe04dc39	-0.12974633
47	0xbe8e8e9f	-0.27843186
48	0xbde1288a	-0.1099406
49	0xbe9d6cbb	-0.30747017
50	0x3cb61bdf	0.022230087
51	0xbad5dfa9	-0.0016317266
52	0xbe02ef99	-0.12786712
53	0xbe9f7112	-0.31140953
54	0xbe68ea1e	-0.22745559
55	0xbef288e3	-0.4737006
56	0xbb2de90f	-0.0026536619
57	0xbe7f4260	-0.24927664
58	0xbf8da904	-1.1067204
59	0x3e969adc	0.29415023
60	0x3c3f4fc3	0.0116767315
61	0x3f520a75	0.82047206
62	0xbed5f3e5	-0.4178764
63	0xbb48059d	-0.0030520924
64	0xbd74d8a0	-0.059776902
65	0xbe9c9702	-0.3058396
66	0xbe9733c5	-0.29531685
67	0x3ba77a3a	0.005111006
68	0xbee0d004	-0.43908703
69	0xbd9541eb	-0.072879635
70	0x3c59686b	0.013269524
71	0xbd5f2916	-0.054482542
72	0xbca92b1f	-0.020650445
73	0x3d2c0bd6	0.042003475
74	0x3d3dd6a8	0.04634729
75	0xbd3dcafd	-0.046336163
76	0x3eaeb4f4	0.3412243
77	0xbe57ad9f	-0.21062325
78	0x3d0cf407	0.03441241
79	0xbc408ded	-0.011752588
80	0xbf308d70	-0.68965816
81	0xbd75d2e7	-0.060015585
82	0xbf3b31dc	-0.73122954
83	0xbe5efe55	-0.21776707
84	0xbf68e6fb	-0.9097745
85	0x3c8a9cbd	0.016920442
86	0x3d37559a	0.04475937
87	0x3c974a9a	0.01846819
88	0x3a5f4fb0	0.0008518649
89	0x3f4838ea	0.78211844
90	0xbec535f1	-0.38517717
91	0xc0120cff	-2.2820432
92	0xbed173e3	-0.40908727
93	0xbf0bf392	-0.54668534
94	0x3f3a4558	0.7276206
95	0xbea7a529	-0.32743195
96	0x3c8a1a2d	0.016858185
97	0xbf955ef7	-1.1669606
98	0xbed81a18	-0.42207408
99	0xbdbd363b	-0.09238859
100	0x3e3383af	0.17530702
101	0xbec614f5	-0.38687864
102	0xbd1d429c	-0.0383936
103	0x3ea285df	0.3174276
104	0x3f391117	0.722917
105	0x3f6a3b16	0.9149641
106	0x3dbbdc33	0.09172859
107	0x3bd2c946	0.006432685
108	0x3d4378bc	0.047722563
109	0x3f3c592d	0.7357357
110	0xbcfc9613	-0.03083328
111	0xbf027938	-0.50966215
112	0x3e97baa4	0.29634583
113	0xbf002c2a	-0.5006739
114	0xbe82fdd5	-0.25584283
115	0xbf81a83b	-1.0129465
116	0xbea0c9bc	-0.3140391
117	0x3c338ed5	0.010959347
118	0x3cd2bb11	0.025723966
119	0x3c250cdf	0.0100738695
120	0xbe1d2caf	-0.15349077
121	0xbe57dc66	-0.21080169
122	0xbb04fe9f	-0.0020293368
123	0x3f4a52c1	0.7903252
124	0x3e2c0528	0.16798842
125	0xbdbfe921	-0.09370638
126	0xbd870ac8	-0.06593853
127	0xbfa39a90	-1.2781544
128	0x3d9e0a0c	0.0771676
129	0xbf83a70b	-1.0285352
130	0xbe4be6d4	-0.19912273
131	0xbe86a602	-0.2629853
132	0xbea34feb	-0.3189691
133	0x3df2050b	0.11817368
134	0xbe06604e	-0.13122675
135	0xbe9c3967	-0.30512545
136	0x3eee8c74	0.46591532
137	0xbf229d99	-0.63521725
138	0xbe916ff8	-0.28405738
139	0xbe206d9a	-0.1566681
140	0xbd387a0b	-0.045038264
141	0xbee2b18a	-0.44276077
142	0xbc1b97fd	-0.009496686
143	0xbcba2972	-0.02272484
144	0xbfa63451	-1.2984716
145	0x3cf5e6b5	0.030017236
146	0xbf16c30a	-0.58891356
147	0x3e8e70d2	0.2782045
148	0xbe580e82	-0.21099284
149	0x3dd6910c	0.10476884
150	0x3f89fc2b	1.078008
151	0xbd1c1fa2	-0.038116105
152	0xbd9aa4ea	-0.07550986
153	0x3e54708e	0.20746061
154	0x3e49b9de	0.19699809
155	0xbe8f5a0c	-0.27998388
156	0xbda9af3e	-0.08285378
157	0xbd8862d8	-0.06659478
158	0xbd22b496	-0.039723
159	0xbbaa95e4	-0.0052058566
160	0xbeaa0e20	-0.33213902
161	0x3c072be1	0.008250208
162	0xbee4f9ea	-0.4472192
163	0xbc6ecff3	-0.014575946
164	0xbe8b8f8c	-0.27257955
165	0xbea147ea	-0.3150018
166	0x3edd299b	0.43195805
167	0xbed13d3d	-0.40867034
168	0xbe1d963b	-0.1538934
169	0x3cd753a3	0.026284998
170	0xbf59db10	-0.8509989
171	0xbbfa8e05	-0.0076463246
172	0x3c42fd4d	0.011901212
173	0xbdbf3860	-0.093369246
174	0xbd6ae71d	-0.057349313
175	0xbfff2083	-1.9931797
176	0x3f23a81c	0.6392839
177	0xbed3a293	-0.41334972
178	0xbec73d18	-0.38913798
179	0x3edcf6a4	0.43156922
180	0xbdbff0b4	-0.09372082
181	0x3cdf7924	0.027279444
182	0xbeef0166	-0.46680754
183	0x3cb33c73	0.02187941
184	0xbe78aa7b	-0.24283783
185	0xbd6be197	-0.057588186
186	0xbecc46ae	-0.39897674
187	0xbdbb4ccd	-0.09145508
188	0xbda4e5cd	-0.080516435
189	0xbc890e51	-0.01673046
190	0x3e8c99bd	0.27461043
191	0xbf683ed0	-0.90720844
192	0x3e110c4e	0.1416485
193	0x3da7e13e	0.081972584
194	0x3ed47346	0.41494197
195	0xbe50919f	-0.2036805
196	0x3d2d1185	0.042253036
197	0xbd3e967a	-0.046530224
198	0xbf350465	-0.7070983
199	0xbed26680	-0.41093826
