data/hlt_deter/InvertedPendulumRoboschoolEnv/seed_513/policy_10000.pt (torch, 5883 bytes, 4 tensors)

mu.0.weight f4 [128, 5]
00000000: 1ece a33e ad49 87be 0abe 943f 6dc9 cbbd
00000010: 4707 83bc 1b6b 70be 44ab f7bc cf1f 2d3e
00000020: f21f d8bf 69af 8bbe 172e 2bbe 653c f03d
00000030: 8aaf 123f 3e68 db3f 5598 a03e ff1b 723f
00000040: 6fdf 16bf 2d7a df3d a3af 75bf 31b0 663d
00000050: 4c99 06bd 4842 ffbc 202f b53e 562b bdbd
00000060: 9b89 8a3c 5095 583e 27dd 14bf f764 803e
00000070: c62b a7be a827 f4be 0dec ffbe b95f d2be
00000080: aba4 ab3e 54fc 23bf 741a 8a3e 4e4c 563e
00000090: c87d 973d 2ac3 b43d d94a 96bf 5848 91be
000000a0: 9b0e 89be 5279 353e a8fd 373f dde2 00bf
000000b0: 19cb d8be f5a3 63be dcfe 89be 55e8 853f
000000c0: 176f 3c3f 8790 ea3e 3857 d73c ccc1 df3d
000000d0: cff1 67bf 3bef 413e 020a cebe de69 693d
000000e0: 8aa7 713f 5730 38bf 82a2 7b3d 8df6 a1be
000000f0: 275e 7c3f 9a96 513e 8c2d 493f 56b3 963e
00000100: 957d 08be cc41 d0bd 0bea abbc 432a 84bf
00000110: 4f1e fabe 33fd e7bd fb21 14bf 5ebd 9bbe
00000120: 54e6 683f dc14 bdbe 6e67 84bd 3804 543f
00000130: 2af7 fcbe 6d53 3fbe 5e74 013e 67e9 e53d
00000140: cce6 bebd b75e 843e 5dc4 643f de9e 2d3c
00000150: 7109 23be 5da4 d3bd 1529 1d3f 0f81 353f
00000160: 1525 81bf fba7 34be 7c58 c4be a760 4a3e
00000170: 7c66 5cbf 9a18 b4be 5e09 83be 8b63 63bd
00000180: 2259 023e 43a6 78bf e2e0 cabc 734d c3be
00000190: 440f 053e c9ba 2f3e e681 1b3f f62e e03f
000001a0: da1f aa3e 05ab ee3d 3f5c 243e 7ce0 203f
000001b0: b357 9e3f 7599 903e 0295 b3be a4d4 3bbe
000001c0: 40f9 903f af69 c53d 38c5 fd3d 30c3 89be
000001d0: ea61 9bbe 31bd 383f eed0 70bf 2d17 5c3e
000001e0: 65f3 463e 63cf 243e 766e 4c3f 6fed 263f
000001f0: 7787 983e 0e82 c7be 67ad b83d 9fc2 403f
00000200: 67ce c13f cd93 4d3d 9a32 00bf 20a5 3f3f
00000210: c123 0fbe 733c 27be b18c 103d e67c 3fbc
00000220: a885 3b3d 8b35 3f3e bb96 673f 3486 033e
00000230: d537 933e 94b5 8a3e 0995 af3d a73d 8e3e
00000240: 3ab9 fabd c332 b5be 29e8 8bbe 46c8 253f
00000250: ba97 c0bf 3cbf 6ebe 1d96 adbe 5cb7 303f
00000260: ebe7 253f a227 293f 9986 a1bc 873c ddbc
00000270: 8c1e 6e3d 7386 953e ddd6 0c3f 8cec f23c
00000280: a752 85be e825 b23e 2aa3 9fbf ddd2 cebe
00000290: 5e38 cbbe 278c 4dbd d41f b43e 6323 c13e
000002a0: 9a98 e8be aaf6 cdbe fe36 fc3e 8ee8 0a3e
000002b0: f48a 313f 4c68 96be 3d5a ec3d e730 08bf
000002c0: a3a2 e0be 449d d83e 176d 40bf 65f2 913e
000002d0: 5a8b 843f c5f4 8e3e 4b6d 293f 0ca1 85be
000002e0: efaf 86bd 183e c6be 333a 47be 26d1 02bf
000002f0: e06a 0ec0 4933 d1be bf5d e9bc 4608 a7be
00000300: cf8f 773f 4762 e93e 6e83 56be fb04 393f
00000310: 48af 14bf d19d dd3e 6053 033f 478d 0cbe
00000320: 91c4 153d 22d3 f23e cb6e 6c3f ec4e d23f
00000330: 3431 293d 3489 103f b79e 8b3f 7692 a5be
00000340: 58ca 6a3f 715d 96be b11a 273f c794 e7be
00000350: 1efc 003f f97a bb3d bfca e83d 93c6 f23c
00000360: 0d09 e73d 27b9 70bf 4a78 4e3e 3ce1 d7be
00000370: 4da7 913d 9e53 013e f7fc 343f d74d d73f
00000380: fd66 aa3e 6a6d 5cbf 6900 583c b169 f43e
00000390: 45d6 8f3e 4063 28bc 7517 7abe 2d82 b6bd
000003a0: f2d8 e03e d856 d2bf 4cba 8bbe c5f0 6abe
000003b0: 03a4 193e 332b e3bf 9244 0f3f 7690 163e
000003c0: 2b67 e3be b033 17be 6df8 713e 7ecd eabf
000003d0: 1f87 91be f8be 90be 999e 58bd 6122 793f
000003e0: f0b9 50bf 89ae 88be bfb6 d73d 2e82 5fbe
000003f0: 98a6 59bf aa1a c0bf ea5c edbd 2949 7bbe
0.31993192 -0.26423398 1.1620495 -0.09950528 -0.015994681 -0.23478357 -0.030233033 0.16906665
-1.6884749 -0.27282265 -0.167168 0.11730269 0.572991 1.7141187 0.3136622 0.9457397
-0.5893468 0.10911975 -0.95971125 0.056320373 -0.03286104 -0.031159535 0.35387516 -0.09236781
0.016911319 0.21150708 -0.5814995 0.2507703 -0.32650584 -0.47686505 -0.4998478 -0.41088656
0.3352407 -0.640569 0.26973307 0.20927545 0.07397038 0.08826287 -1.1741592 -0.28375506
-0.26768956 0.17722061 0.71871424 -0.50346166 -0.4234245 -0.22230513 -0.26952255 1.0461527
0.7360701 0.4581339 0.026286706 0.10925636 -0.90603346 0.18938915 -0.4024201 0.05698573
0.9439627 -0.7194876 0.061434276 -0.31633416 0.98581165 0.20467606 0.78585124 0.29433697
-0.13329156 -0.101688 -0.020985624 -1.0325397 -0.4885125 -0.11327591 -0.5786435 -0.30417913
0.9097645 -0.36929977 -0.0646504 0.8281894 -0.4940732 -0.18684168 0.12642047 0.112261586
-0.09321365 0.25853512 0.89362127 0.010596959 -0.1592157 -0.10334084 0.6139081 0.7090005
-1.0089442 -0.17642204 -0.38348758 0.19763432 -0.8609388 -0.3517502 -0.25593084 -0.055514853
0.12729314 -0.97128695 -0.024765436 -0.38145027 0.12994105 0.17161097 0.60745084 1.7514331
0.33227426 0.11653713 0.16050814 0.62842536 1.2370514 0.28242078 -0.3507462 -0.18342835
1.1326065 0.09639298 0.12391132 -0.2690673 -0.3034814 0.72163683 -0.940688 0.21493216
0.19428785 0.16094737 0.7985605 0.65206045 0.2979085 -0.3896641 0.09017449 0.7529697
1.5141114 0.050189782 -0.5007721 0.74861336 -0.13978483 -0.16331653 0.035290424 -0.011687493
0.04578176 0.18672769 0.9046437 0.12844163 0.28753534 0.27091658 0.08573348 0.27781412
-0.122423604 -0.3539029 -0.27325562 0.6475872 -1.5046303 -0.23315138 -0.3390359 0.69029784
0.64807004 0.660761 -0.019717501 -0.0270064 0.0581346 0.2920414 0.55015355 0.02965381
-0.2603962 0.34794545 -1.2471669 -0.4039525 -0.39691442 -0.050182488 0.35180533 0.3772231
-0.45428926 -0.40227252 0.49260706 0.13565275 0.6935265 -0.29376447 0.11540649 -0.5319962
-0.43874082 0.42307484 -0.7516646 0.28505245 1.0355027 0.2792112 0.6618239 -0.26099432
-0.065765254 -0.3871925 -0.19455795 -0.51100385 -2.2252731 -0.4085944 -0.028487084 -0.326235
0.9670381 0.45582792 -0.20948574 0.72273225 -0.5807996 0.43284467 0.51299095 -0.13725768
0.036564413 0.47426707 0.92356557 1.6430335 0.04130669 0.56459355 1.0907811 -0.32338303
0.91715 -0.29368165 0.652751 -0.45230696 0.503847 0.091543145 0.11366796 0.029635703
0.11281023 -0.9403252 0.20163074 -0.42164028 0.07111988 0.12629554 0.70698494 1.682063
0.332817 -0.8610445 0.013183692 0.47736886 0.28093162 -0.010277569 -0.2442301 -0.08911548
0.43915516 -1.6432753 -0.2729057 -0.22943409 0.15003972 -1.7747558 0.55964005 0.14703545
-0.44414648 -0.14765811 0.23629923 -1.8343961 -0.28423402 -0.28270698 -0.052885626 0.97318083
-0.8153372 -0.2669566 0.10532903 -0.21827003 -0.85019827 -1.5008137 -0.115899876 -0.24539627

mu.0.bias f4 [128]
00000000: 674c 2dbf 853c ab3e c5e7 9dbf 22ae 3fbf
00000010: f483 ccbe 7830 86be 0e36 48bf 4e7a dd3c
00000020: 5294 123e 0e6d 9dbf 6ced 4e3e b22c 173f
00000030: 8980 83be b72d 66be 5811 1dbf e8bc 54bf
00000040: 00c2 1bbf 6199 e9be c018 89bd 592f 613e
00000050: 4836 7cbf 1197 a5be e3dc 2bbf 86c9 82bf
00000060: 122d 60bf e888 77bf ffde 15bf b709 fb3d
00000070: 616c 763e 9000 05bf 7b97 27be 33a0 55be
00000080: 6cb5 093e 2510 8f3d a359 31bd 0241 64bf
00000090: 5aed a8be 9952 06bd 8bc0 37bf d7b3 ccbe
000000a0: 1e94 4dbf 42f8 09bf f427 18bf 2eb3 5e3e
000000b0: 7d6f 90bf dbfb 3fbf 7356 123e abe1 29bf
000000c0: bd8f 9cbc d729 5abf 3675 34bf 0a3b 563f
000000d0: 8683 10bf 1723 123e 0fae 97bf 90c8 a2be
000000e0: 7cea bbbe 3845 47bf 0a77 d23e 510b 0fbf
000000f0: a5b3 40be b8ef 343a a3e8 f4be ab20 00bf
00000100: 280b 52bf 54e4 2cbf d265 00bf a67b 04bf
00000110: 2954 81bf 0619 8d3b f1d1 313e 91b9 f0bd
00000120: 987c 2e3e c2d9 0fbf 29ad b9bf 8118 81be
00000130: 39fc 13bf f1ce edbe c08e bebf 9910 f8be
00000140: 3f77 64be cbb5 4a3e 3043 2c3e a6ec 11bf
00000150: 2f2a 8bbf 9c26 cfbe 846e babe 0451 a1bf
00000160: 62af c5bd 32d5 7b3e 1a96 da3d 7bf3 673f
00000170: 5a3d bbbf 3a6b 24bf e5c9 c8be ecf1 a23c
00000180: 3277 c9be 637f 86bd aeca b5be 1cd7 19bf
00000190: f1a3 83bc a203 923e 88fd 1c3d 1305 6dbc
000001a0: d044 56bf a071 9b3e 37c5 793e f5dc 2ebf
000001b0: 01dd dabd 44d2 37bf 625f 00bd e646 1b3f
000001c0: ae21 593e 3c59 dcbe c71f 0cbf 2c26 96be
000001d0: e298 0c3e f782 bbbe e6d4 8ebc 1c4d ebbe
000001e0: 2cf7 84bf 5f1e babe abd3 64be 33e5 de3e
000001f0: f354 8cbd 56e3 6fbf 92c6 e23c c0c5 fbbe
-0.67694706 0.3344461 -1.2336355 -0.7487508 -0.39944422 -0.26208854 -0.7820748 0.027035858
0.14314392 -1.2298906 0.20207757 0.59052575 -0.25684002 -0.22478376 -0.6135459 -0.8310075
-0.60842896 -0.4562483 -0.06694174 0.21990718 -0.98520327 -0.32341817 -0.6713392 -1.021775
-0.8756877 -0.9669328 -0.5854339 0.12257712 0.24064781 -0.51953983 -0.16366379 -0.20861892
0.13448113 0.06985501 -0.043298375 -0.89161694 -0.32993585 -0.032793615 -0.7177817 -0.39980957
-0.80304134 -0.53894436 -0.59435964 0.21748039 -1.1284024 -0.74993676 0.1429079 -0.66359967
-0.019111509 -0.8522009 -0.7049135 0.83683836 -0.5645069 0.14271198 -1.1849993 -0.31793642
-0.36702335 -0.77839994 0.41106445 -0.5587664 -0.18818529 0.0006902176 -0.47833738 -0.5004985
-0.82048273 -0.675359 -0.50155365 -0.5175117 -1.0103809 0.0043059615 0.17365243 -0.11754144
0.17039716 -0.5619165 -1.4505969 -0.25214007 -0.57806736 -0.46446946 -1.4887314 -0.48450163
-0.22311114 0.19795911 0.16822505 -0.5700172 -1.0872248 -0.40459144 -0.36412442 -1.2602849
-0.09652592 0.24593046 0.10673161 0.90605897 -1.4628098 -0.64226115 -0.39216533 0.019890748
-0.3934875 -0.06567266 -0.35506195 -0.60093856 -0.016069384 0.28518397 0.038327724 -0.014466542
-0.8369875 0.30360126 0.24391638 -0.68305904 -0.106866844 -0.71805215 -0.031340964 0.6065506
0.21204254 -0.4303683 -0.5473599 -0.29325998 0.13730195 -0.36623356 -0.017435502 -0.45957267
-1.0387931 -0.36351296 -0.2234637 0.4353424 -0.0685214 -0.9370626 0.027682576 -0.4917431

mu.2.weight f4 [2, 128]
00000000: b352 ea3e f65d aebe 50db 1abf 0712 0f3f
00000010: 01d8 e83a 3dcb b33e e283 9abe 1353 393e
00000020: 2ebb 683e 2b1a 103f 8cfe 92be f21f c3be
00000030: f8d2 823e c940 d5bd dd66 8fbe 6983 84be
00000040: 0b61 a43e 7a46 d13e a2ce 6dbe b756 87be
00000050: 148e 20bf 1205 933e 110a 073f 7b51 39bf
00000060: a117 053f 4fbe 133f 3440 9e3e 2625 953d
00000070: 2b2a 7abd 3c12 e23e 07f8 a8be 2513 c8bc
00000080: 26bc a2be 4e4c 9a3e 1ea5 4dbe f88d bcbe
00000090: a37a a4be 196a 433f 8223 f33e 214d a6be
000000a0: 3a57 02bf 10a0 203f 0f9a 5dbe e225 a7be
000000b0: 8016 23bf 3632 a1be 59f9 37bf 6177 d83e
000000c0: 142a 73be 5a0d 1dbf b134 c23e a85a e03e
000000d0: 12c1 933e 0747 6ebe 8d93 1ebf dee5 063f
000000e0: f19a 553e c489 c33e 385c f23e 7a39 873e
000000f0: aec8 79be aab0 c1be 2cb2 ba3e f537 7cbe
00000100: 0fc1 d8be 4f24 0a3f 0cda 9a3e c728 143e
00000110: de0d 0f3f c2c5 d3be d020 2a3e eb2e e33d
00000120: 6ced c03d 45fe 9c3e aa97 39bf cb48 173f
00000130: da74 e53e d4bb 2fbd 2d86 40bf d2b4 0d3f
00000140: b73b d33d db59 7a3d f7aa 2fbe 4f99 3abf
00000150: 770b fc3e 8e94 0abf 9701 b9be 34ae 713f
00000160: be39 6ebe 4a46 6a3c 39f5 71be 5143 ba3e
00000170: 3190 4abf 5e42 4dbf 2570 223e b711 c3be
00000180: 0413 443b e667 9c3d 27bf 173d bb1a 02be
00000190: 6e62 aabe b483 a6be 948b bcbd 446c 193d
000001a0: 887e 06bf d471 a3be a610 c13b 05ad 21bd
000001b0: e57e f2be 4510 e0be c98d 9f3e 123a 58be
000001c0: 6130 90be 2760 0a3f a799 cd3e c1d9 44be
000001d0: 9e85 383e 8484 02bf 92e4 023f a270 d0be
000001e0: 698b 3bbf 1df5 afbe 18d0 d3bd 58c5 8abe
000001f0: fce9 1b3f fa3f 153f 374f 9ebe 4b12 483e
00000200: 7f46 22be 924f 273d b560 0cbe 3a8c 30be
00000210: 879b 1cbd eaea 1a3e 06b6 91bd 87dd f03d
00000220: 3edb 18be 28e0 c03e 7c4a febc 35f8 7a3e
00000230: a5b8 da3b d488 20be 314a 2b3e 46c3 2dbe
00000240: 7383 4fbe 2eef 6d3d 94d0 33be 4042 7bbd
00000250: 89a8 18bd 8981 0e3e 3f0f 6cbe 9896 313e
00000260: 51e9 923e 6f2b e4be 038a b4bc be3e 15bd
00000270: 8009 67bc 88ec 933e 018a 17be 0d95 cfbd
00000280: 8c9b 25bd 386b f5bc 4f78 dbbd 0b54 a6bd
00000290: 3de9 8c3e fe93 1e3e e01a 9dbc 8b84 853e
000002a0: aebc 783e 0a32 adbd e000 a9bc 7256 4bbd
000002b0: e609 69bd cba6 283f 9a1d 11bd 30c2 f03d
000002c0: 96b3 f23e 77a9 9d3e b63b 0bbe c533 6cbe
000002d0: cc00 9b3d 5d3a 91be b44b a0bd 6850 0bbd
000002e0: 7466 88bd c096 5a3d 9014 86be fe79 883d
000002f0: f1ee 1abe 447f 273c 69b1 ebbe d87b 19be
00000300: e520 8d3e 11c1 19bd 2e12 733e 0835 b8bd
00000310: b5f5 1cbd b878 86bd 4e5a 88bd fe35 4fbe
00000320: 52a4 e9bd d43e c73d d9c9 5dbe cafa 4cbd
00000330: 30ac f03d 4e5f 143d 65da eebe 2913 38be
00000340: 37ff 4fbe 376f 21be ca8d 633d 4c8b 773d
00000350: 3ec1 b73d 4df0 cbbd 5924 593d de08 4e3e
00000360: 5ba1 6cbc 2c95 2abe 3ed4 793b f525 c03c
00000370: a854 263e 45aa 51be 0e59 853d da5b c8bc
00000380: ff91 49bb 8949 8c3e a61e 603e baed 0ebe
00000390: 7ddf 383d cbaa 90bb 1950 c8be c8fd b8bd
000003a0: 0766 1abd 24df b83d 9868 82bd 5060 c0be
000003b0: 0169 3abe 5e57 46bd bde9 26bc 29ef b2bd
000003c0: 1d00 703d cf28 dcbb 812e a63c d778 83be
000003d0: a661 46be ee4c 083d 7e36 8e3e 3307 a2be
000003e0: d787 483e 10cc 153e 7620 33be 9e1f f73c
000003f0: c65c 9b3d 6814 953d abba cebc a2a0 85bd
0.4576622 -0.34056062 -0.60490894 0.5588688 0.001776457 0.35115996 -0.30178744 0.18098097
0.22727653 0.5628993 -0.2870983 -0.3811031 0.2555158 -0.104127474 -0.28008166 -0.25881508
0.32105288 0.40874082 -0.23223355 -0.26433346 -0.62716794 0.28714806 0.52749735 -0.72389954
0.5198918 0.5771226 0.30908358 0.07282476 -0.06107537 0.44154537 -0.3300173 -0.024423191
-0.3178417 0.3013634 -0.20082518 -0.36827064 -0.32124814 0.7633377 0.47488028 -0.3248072
-0.5091435 0.62744236 -0.216408 -0.3264609 -0.6370621 -0.3148362 -0.7186485 0.4227858
-0.2374652 -0.613485 0.37930825 0.43819165 0.28858238 -0.23269282 -0.61943895 0.526945
0.20859887 0.38191044 0.47335982 0.2641104 -0.2439296 -0.37830096 0.3646406 -0.24630721
-0.42334792 0.5396165 0.30244482 0.1446868 0.55880535 -0.41361815 0.1661408 0.11092933
0.09420285 0.30662742 -0.72497046 0.5909545 0.44815713 -0.042903736 -0.75204736 0.55354035
0.10314124 0.06112085 -0.17155062 -0.7289018 0.49227497 -0.54132926 -0.36134025 0.9440644
-0.23264214 0.014298985 -0.23628701 0.36379483 -0.7912627 -0.80179393 0.15863092 -0.38099453
0.002991856 0.076370046 0.03704753 -0.1270551 -0.3327822 -0.32522357 -0.0920631 0.037456766
-0.5253682 -0.3192278 0.005891877 -0.039471645 -0.47362438 -0.43762413 0.3116286 -0.21115902
-0.2816191 0.54052967 0.4015629 -0.19223692 0.18019721 -0.5098345 0.5113002 -0.40710932
-0.732596 -0.34366694 -0.10342425 -0.27103686 0.60903907 0.58300745 -0.3091981 0.19538228
-0.15847205 0.04084737 -0.13708766 -0.17240992 -0.03823426 0.15128675 -0.07114796 0.11761003
-0.14927384 0.37671018 -0.031041376 0.24508746 0.0066748434 -0.15677196 0.1672752 -0.16969022
-0.20264988 0.058089428 -0.17560035 -0.061342478 -0.037270103 0.13916601 -0.23052691 0.17342603
0.2869363 -0.44564387 -0.022038465 -0.03643679 -0.014101386 0.28891397 -0.14798738 -0.10135851
-0.040431544 -0.029958352 -0.107163064 -0.08121499 0.27521697 0.15486142 -0.019177854 0.26077685
0.24290726 -0.0845681 -0.0206303 -0.049642988 -0.056894206 0.65879506 -0.03542862 0.11755788
0.47402638 0.30793354 -0.13596997 -0.23066624 0.07568511 -0.2836484 -0.07826939 -0.03401223
-0.066601664 0.053366423 -0.26187563 0.06663893 -0.15130211 0.010223214 -0.4603379 -0.14988649
0.2756416 -0.037537638 0.23737404 -0.0899449 -0.038320262 -0.06565994 -0.06657849 -0.2023544
-0.11408295 0.097287804 -0.2165903 -0.05004386 0.11751592 0.036223702 -0.46650997 -0.17976059
-0.203122 -0.15765081 0.055555142 0.06043558 0.08972405 -0.09957943 0.05301318 0.2012057
-0.014442767 -0.16658467 0.003812089 0.0234556 0.16243231 -0.20475109 0.065111265 -0.02445786
-0.0030757186 0.27399853 0.21886691 -0.13957873 0.04513501 -0.0044148914 -0.3912361 -0.0903278
-0.037694957 0.09026936 -0.06367606 -0.3757348 -0.18204118 -0.048423164 -0.0101875635 -0.087370224
0.058593858 -0.006718732 0.020285847 -0.2567813 -0.19373187 0.03327649 0.2777595 -0.31646118
0.19583069 0.14628625 -0.17492852 0.030166443 0.075860545 0.07279283 -0.025235495 -0.06524779

mu.2.bias f4 [2]
00000000: 0458 a13d 8d12 83be
0.07878116 -0.2560009
