data/sac__/InvertedPendulumBulletEnv/seed_113/policy_5000.pt (torch, 10183 bytes, 6 tensors)

mu.0.weight f4 [128, 5]
0	0x3df91de4	0.12163904
1	0x3e15b856	0.146211
2	0x3fc3ac7a	1.5287011
3	0xbfc95f16	-1.5732143
4	0xbf1c7791	-0.61119944
5	0x3cce7585	0.025202522
6	0xbd27682f	-0.04087084
7	0x3d9d10ea	0.07669242
8	0xbdad7d50	-0.08471167
9	0xbccbbd7d	-0.024870628
10	0xbc82c04a	-0.015960831
11	0xbc2a7c39	-0.010405594
12	0x3ce895f4	0.028391816
13	0xbd79b303	-0.060961735
14	0x3ba8dcc4	0.0051532704
15	0xbfa0e57f	-1.2570037
16	0xbec44c6a	-0.3833955
17	0xbf0616ac	-0.52378345
18	0xbe535e7b	-0.2064151
19	0xbee902fa	-0.45510083
20	0x3d3d8dfc	0.046277985
21	0x3c5a84d8	0.0133373365
22	0xbd4390dc	-0.04774557
23	0x3bbe1117	0.005800377
24	0x3b523a79	0.003207831
25	0x3f2ba67b	0.67050904
26	0xbe6f8e90	-0.23394227
27	0x3e053f84	0.1301251
28	0x3f659d19	0.89692837
29	0x3de3214c	0.11090335
30	0x3fabad77	1.3412312
31	0x3eacbb9e	0.3373689
32	0xbfb55721	-1.4167215
33	0x3f8117c4	1.0085378
34	0xbec98529	-0.39359406
35	0xbf89ace8	-1.0755892
36	0xbf515b16	-0.8177961
37	0x3f3c222d	0.7348965
38	0xbeea5b39	-0.45772722
39	0xbe05c052	-0.13061646
40	0xbf313125	-0.69215614
41	0xbf1bd133	-0.6086609
42	0xbf1b2ad4	-0.60612226
43	0xbfc98e44	-1.5746541
44	0xbe3e18e0	-0.18564177
45	0x3f1f1fc7	0.62157863
46	0x3dfd7515	0.12375847
47	0x3ea8b8d8	0.32953525
48	0xbeb30d2e	-0.34970993
49	0x3f24452c	0.6416805
50	0xbcf2682c	-0.029590689
51	0x3ac62656	0.0015117626
52	0xbd5129f4	-0.0510654
53	0x3d01a784	0.031653896
54	0x3bf09582	0.0073420415
55	0xbec95cb4	-0.3932854
56	0x3e01c771	0.12673737
57	0xc01ed498	-2.4817257
58	0x3f4be393	0.79644126
59	0x3e9e0bab	0.30868277
60	0xbbb3dd65	-0.005489039
61	0x3b917cd8	0.0044399314
62	0xbc588513	-0.013215321
63	0x3d9f6664	0.07783201
64	0x3bf01541	0.0073267524
65	0xbfe0a870	-1.7551403
66	0xbfbfa0ae	-1.497091
67	0x3fcdaca0	1.6068306
68	0x3e52acdc	0.20573753
69	0xbf6dc56c	-0.92879367
70	0x3f982350	1.1885777
71	0x3eb8bbfb	0.36080918
72	0xbee5c5a9	-0.44877365
73	0xbf9f8009	-1.2460948
74	0x3f18cd1f	0.5968799
75	0xbbfc711e	-0.0077039143
76	0xba2a6c25	-0.00065011
77	0xbcb745eb	-0.022372207
78	0x3d40b250	0.047045052
79	0xbb879292	-0.0041373456
80	0xbf4e3bb1	-0.8055983
81	0x3fa17d3c	1.2616343
82	0x40001497	2.0012567
83	0x3e26bc5c	0.16282791
84	0x3f3a2b1c	0.7272203
85	0x3f27ee25	0.65597755
86	0x3fb14e11	1.3851949
87	0x3e82adbc	0.25523174
88	0xbf2d2262	-0.6763059
89	0x3e09065c	0.13381332
90	0xbc1149e8	-0.008867718
91	0x38ff1b15	0.00012164392
92	0xbd6be417	-0.05759057
93	0x3d5c970b	0.053854983
94	0x3ae62812	0.0017559549
95	0x3df85bae	0.121268615
96	0xbd1cc78f	-0.03827625
97	0x3d8d73e2	0.069068685
98	0x3ea97b44	0.33101857
99	0x3c9d54be	0.019205447
100	0xbb810e97	-0.003938507
101	0xbb49d0aa	-0.003079454
102	0xbbbd4d0c	-0.005777007
103	0x3d13650c	0.035985038
104	0x3b717f6b	0.0036849629
105	0x3c1c707c	0.009548303
106	0x3c6f7d1b	0.01461723
107	0x3bdec585	0.0067984485
108	0x3dae0325	0.084966935
109	0x3bbde275	0.005794818
110	0x3c6566b7	0.01400154
111	0xbb56d021	-0.0032777863
112	0x3c9231de	0.017846044
113	0x3b8ef9b9	0.0043632654
114	0xbb007242	-0.0019599353
115	0x3c47749e	0.0121738
116	0xbae5c165	-0.001752895
117	0xbb69c686	-0.0035671308
118	0x3d6396f0	0.055563867
119	0x3af68903	0.0018809143
120	0x3e9ef222	0.31044108
121	0x3e057730	0.13033748
122	0x3ec67aea	0.3876565
123	0x3e5d0849	0.21585192
124	0xbf5903d6	-0.8477148
125	0x3d3083d9	0.04309449
126	0x3ab28402	0.0013619664
127	0xbba9dc04	-0.0051836986
128	0x3d8de494	0.069283634
129	0xbc85647d	-0.016283268
130	0xbecca8e2	-0.39972597
131	0x3d509ea6	0.05093255
132	0xbecf5ec6	-0.40501994
133	0xbf01ed37	-0.50752586
134	0xbd4bbca1	-0.049740437
135	0xbd7eaafc	-0.062174782
136	0xbb8370eb	-0.0040112636
137	0xbdcec250	-0.10095656
138	0x3cafb292	0.021447454
139	0x3c844559	0.016146349
140	0xbf1b6bfc	-0.60711646
141	0xbed3c52e	-0.41361374
142	0x3fe237fe	1.7673337
143	0xbf56bfb4	-0.83886266
144	0xbe622b9a	-0.22086945
145	0x3cfc3c37	0.030790431
146	0xba8ae9f5	-0.0010598289
147	0x3d3bf4f6	0.04588791
148	0xbcf1ea22	-0.029530589
149	0xbc1c3591	-0.009534256
150	0x3ad2601c	0.0016050371
151	0xbc8887e3	-0.016666358
152	0x3ce0d168	0.027443603
153	0xbdc6363f	-0.09678315
154	0xbc5633d1	-0.013073877
155	0xbeaf7fb6	-0.34277123
156	0x3e0333b4	0.12812692
157	0xc0068278	-2.1017132
158	0xbf9115d5	-1.1334788
159	0xbe9233f3	-0.2855526
160	0x3f25e3cb	0.6480071
161	0x3dbaa614	0.09113708
162	0x3f004750	0.50108814
163	0x3f95b99d	1.169727
164	0xbdd13769	-0.10215647
165	0xbcc63c79	-0.024198757
166	0x395c6732	0.00021019278
167	0xbd023821	-0.03179181
168	0xbcc7a8ec	-0.02437254
169	0x3bc29cdb	0.005939109
170	0x3f3b1b6e	0.7308873
171	0x3f925641	1.1432573
172	0xbeda4876	-0.42633408
173	0xbf314881	-0.6925126
174	0xbdce5b98	-0.10076064
175	0xbf8d0d09	-1.1019603
176	0xbf941854	-1.1569924
177	0xbe122bab	-0.1427447
178	0xbfcbde4e	-1.5927217
179	0xbf1bbedb	-0.608381
180	0xbcd1d2a9	-0.025613146
181	0x3b2fe5d4	0.002683987
182	0xbd01d38e	-0.031695895
183	0xbbeb3fa0	-0.0071792156
184	0x3b869ab0	0.0041077957
185	0x3cb564be	0.022142764
186	0x3c36470f	0.01112534
187	0x3bd5f7dc	0.0065297913
188	0xbd55e55e	-0.052220695
189	0xba9a5d2b	-0.0011777034
190	0xbec90988	-0.39265084
191	0x3e181a7a	0.1485385
192	0xbf0f6e66	-0.5602783
193	0xbf9db618	-1.2321196
194	0xbef87883	-0.48529443
195	0x3c78fde4	0.015197251
196	0xbb26c0fe	-0.0025444622
197	0xbd292ef4	-0.041304544
198	0x3d59d650	0.0531829
199	0x39692060	0.00022232672
200	0xbcf57a57	-0.029965563
201	0xbab370a4	-0.0013690186
202	0xbd40a628	-0.04703346
203	0xbac937a4	-0.0015351665
204	0x3bbeabe7	0.005818832
205	0x3d62a35b	0.05533157
206	0xbedd72b3	-0.4325157
207	0xbf4906cb	-0.7852599
208	0xbf839c1b	-1.0282015
209	0x3e43c20c	0.19116992
210	0x3c6d603e	0.014488278
211	0xb9a44a4e	-0.0003133588
212	0x3d261660	0.040548682
213	0xbc6a3b35	-0.014296343
214	0xbb0bb7d9	-0.0021319299
215	0x3bf49daa	0.007465084
216	0x3a3cbfab	0.00072001916
217	0x3cc139ec	0.02358719
218	0xbd47147c	-0.04860352
219	0x3b7bffd4	0.0038452046
220	0xbbc0d33e	-0.005884557
221	0xbbe8dbfb	-0.007106302
222	0xbcea3cdb	-0.028593471
223	0xbae9c1ee	-0.0017834285
224	0x3b85bf38	0.004081633
225	0x3eaf42bc	0.34230602
226	0x3ee31c78	0.44357657
227	0x3fc64420	1.548954
228	0xbfbc743c	-1.4722972
229	0xbe9c1789	-0.30486706
230	0xbfe3a873	-1.7785782
231	0xbf2bf657	-0.6717276
232	0xbf9d6e84	-1.2299352
233	0xbf1f7eef	-0.6230306
234	0x3edcedbd	0.4315013
235	0x3e004f31	0.12530209
236	0x3c1156d3	0.008870798
237	0x3bd96825	0.0066347294
238	0x3c94cba9	0.018163519
239	0xbb8bc105	-0.004264953
240	0xbc04aecb	-0.0080983145
241	0xba455ea0	-0.0007529054
242	0xbcb44a26	-0.022008013
243	0x3d3f619b	0.046723943
244	0xbb8e183a	-0.004336384
245	0x3c9882a7	0.018616987
246	0x3adc0a98	0.0016787825
247	0x3be2d6d1	0.006922581
248	0x3d8ae677	0.06782239
249	0x3a1a41b3	0.0005884424
250	0xbf9c787d	-1.222427
251	0x3f42aab7	0.7604174
252	0x3ee1c667	0.4409668
253	0xbef949a2	-0.4868899
254	0x3ef457f3	0.4772335
255	0x3cfb3093	0.03066281

mu.0.bias f4 [128]
0	0x3f2a12bd	0.6643484
1	0xbd5ce383	-0.05392791
2	0xbce8563a	-0.028361429
3	0xbf4da982	-0.80336773
4	0x3d64d922	0.055871136
5	0xbdf84834	-0.12123147
6	0xbf4fbb2d	-0.8114498
7	0xbe669b70	-0.22520232
8	0xbf8268ee	-1.0188272
9	0xbe7fddb5	-0.24986918
10	0x3d3d9985	0.046288986
11	0x3f38864a	0.7207991
12	0xbb36d5e6	-0.002789849
13	0x3e13dfae	0.14440796
14	0xbf069781	-0.52574927
15	0x3be002ec	0.006836286
16	0xc00389d2	-2.055287
17	0x3f5d5c8d	0.86469346
18	0x3d1019d4	0.03518088
19	0xbc201dbf	-0.009772717
20	0x3b9f3809	0.004858975
21	0xbcd0ddba	-0.025496352
22	0xbc3b3e72	-0.011428462
23	0x3ad44606	0.0016195185
24	0x3f47fb38	0.78117704
25	0x3a8cb792	0.001073586
26	0x3d5019d4	0.05080588
27	0x3db690cc	0.089143366
28	0x3f7edc75	0.9955514
29	0xbd33bdff	-0.043882366
30	0xbbb94ace	-0.0056546694
31	0x3f2bc14b	0.67091817
32	0x3e3c82b8	0.1840924
33	0x3d05441b	0.032535654
34	0xbf32dbb5	-0.69866496
35	0x3e70efeb	0.23529021
36	0x3cce346d	0.025171483
37	0x3bffa202	0.0078012953
38	0x3f87975d	1.0593067
39	0x3cd903da	0.026491094
40	0x3d2e120b	0.042497676
41	0xbfa1eef5	-1.2651049
42	0xbcfada24	-0.030621596
43	0xbbf46785	-0.0074586296
44	0x3d10198e	0.03518062
45	0x3f1a4b33	0.60270995
46	0xbfcebd4b	-1.6151518
47	0x3cd4f9e9	0.025998073
48	0x3bf6b48a	0.007528846
49	0xbc854f66	-0.016273212
50	0x3f362055	0.71143085
51	0xbcecaedc	-0.028891973
52	0x3d1f7aac	0.03893535
53	0xbf37dcb1	-0.71821123
54	0xbf033598	-0.5125365
55	0xbf068357	-0.5254416
56	0xbce4c2f5	-0.027924994
57	0x3f2618bc	0.6488149
58	0x3eda18e5	0.42597118
59	0x3e00aa49	0.12564959
60	0xbed62990	-0.41828585
61	0xbdb0e44c	-0.08637294
62	0x3cb155f7	0.021647437
63	0x3e703faa	0.23461786
64	0x3f91f34e	1.1402376
65	0x3d1f39a4	0.03887333
66	0xbe90590f	-0.28192946
67	0xbeb644d8	-0.355994
68	0x3c73435d	0.014847604
69	0x3ef9d1e5	0.4879295
70	0x3c15b748	0.009137936
71	0xbf730091	-0.9492274
72	0xbd609ad6	-0.054835163
73	0xbcb149ed	-0.021641696
74	0x3cfc4cd3	0.030798351
75	0x3f0fac41	0.56122214
76	0x3e8776fb	0.26457962
77	0x3a941906	0.0011298961
78	0x3c12b033	0.008953142
79	0x3dbcfcbb	0.09227892
80	0xbe42cc2f	-0.19023202
81	0xbd4060e6	-0.04696741
82	0x3c962981	0.018330337
83	0xbd159655	-0.03652032
84	0xbf41cf8c	-0.75707316
85	0x3f0de4bc	0.55427146
86	0x3a049936	0.00050582306
87	0x3cab4789	0.020908134
88	0xbd81c311	-0.06336034
89	0x3cd9ee58	0.026602909
90	0x3d30b06b	0.043136995
91	0xbf590967	-0.8477997
92	0xbc0a2ff3	-0.008434284
93	0x3dd35117	0.10318201
94	0x3caac08f	0.020843772
95	0xbec78bc6	-0.38973826
96	0x3f5fad8c	0.87374187
97	0xbc827593	-0.015925204
98	0x3c886ef6	0.016654473
99	0xbd92a5b9	-0.07160515
100	0xbc9cac33	-0.01912508
101	0x3cc95c47	0.024580134
102	0xbc147860	-0.009061903
103	0xbd89d922	-0.06730868
104	0xbd48d319	-0.049029443
105	0xbed3e905	-0.41388717
106	0x3ac4de80	0.0015019923
107	0x3e51287a	0.20425597
108	0xbdf06c78	-0.11739439
109	0xbe08fea3	-0.13378386
110	0x3cbb34ba	0.02285229
111	0xbe3fdfb0	-0.18737674
112	0x3d01b700	0.031668663
113	0xbd07d6e8	-0.033163935
114	0x3fe009ec	1.7503028
115	0xbe78a703	-0.2428246
116	0x3d77ad54	0.060468033
117	0x3c8da2ec	0.017289601
118	0xbd5de02f	-0.054168876
119	0x3f2ff7c6	0.6873745
120	0xbcc5c524	-0.024141856
121	0xbf34c490	-0.7061243
122	0xbf851b3e	-1.0398939
123	0xbf08e1b3	-0.5346939
124	0x3d38fa7d	0.04516076
125	0xbee4603b	-0.44604668
126	0xbf92322e	-1.1421564
127	0x3d5d536f	0.054034647

mu.2.weight f4 [1, 128]
0	0x3e78b9d9	0.24289645
1	0x3b190889	0.0023351035
2	0x3b9d053f	0.004791885
3	0xbe8f0f10	-0.2794118
4	0x3b503d2e	0.0031774747
5	0xbd87461c	-0.06605169
6	0xbeb2cc59	-0.3492153
7	0x3e4cc3ee	0.19996616
8	0xbd29f3f0	-0.041492403
9	0xbcd50fd8	-0.026008531
10	0x3b8eab62	0.0043539265
11	0xbf110530	-0.5664854
12	0xbc079f33	-0.008277702
13	0x3bbcd2c9	0.0057624322
14	0xbdd1a8fd	-0.1023731
15	0xbb8b02d7	-0.004242282
16	0xbe3c2923	-0.18375067
17	0xbe17e95a	-0.1483511
18	0xba0d33a7	-0.000538642
19	0xbc4abda9	-0.01237432
20	0xbb79a4b5	-0.0038092558
21	0xbc445080	-0.011982083
22	0xbb7b6cca	-0.0038364404
23	0xbc05a8ae	-0.008157892
24	0xbe2c5dbd	-0.16832633
25	0xbc41acbc	-0.011820968
26	0x3d47cb21	0.048777703
27	0x3c17581c	0.0092373155
28	0xbe96f7fb	-0.2948607
29	0xbbb1075a	-0.0054024877
30	0x3c19c39d	0.009385017
31	0x3edcdc82	0.43136984
32	0xbe220368	-0.15821612
33	0x3c2061ae	0.009788914
34	0xbe92a38f	-0.2864041
35	0xbe8f82e6	-0.28029555
36	0x3bcb8b4d	0.0062116743
37	0x3b8e7cff	0.004348397
38	0xbe2126e2	-0.15737489
39	0xba651c48	-0.0008739871
40	0x3c017974	0.007902492
41	0x3ea3950d	0.31949654
42	0xbb6d5560	-0.0036214218
43	0x3b953179	0.0045530167
44	0x3b52a3df	0.0032141132
45	0x3dac59b2	0.084155455
46	0x3e618858	0.22024667
47	0xbb7b0c47	-0.0038306878
48	0xbb8a891a	-0.0042277696
49	0xbc442c30	-0.011973426
50	0xbad7289d	-0.0016415302
51	0xbbde5391	-0.0067848642
52	0x3c84ab76	0.01619504
53	0x3e4515de	0.19246623
54	0x3e056266	0.13025817
55	0x3e8742d6	0.2641818
56	0x3c09fa64	0.008421514
57	0x3e1a0945	0.15042599
58	0xbe1cc56b	-0.15309684
59	0xbdaffae6	-0.08592777
60	0xbed18ff7	-0.4093015
61	0xbc2c5e77	-0.010520569
62	0xbb92f431	-0.0044846763
63	0xbe5bcdab	-0.21465175
64	0xbf81149e	-1.0084417
65	0x3bfefe99	0.0077818152
66	0x3e486fca	0.19573894
67	0xbe005a85	-0.1253453
68	0xbbc178f5	-0.005904312
69	0xbe8df4fa	-0.27725965
70	0xbb8eb7ee	-0.004355422
71	0xbcef378f	-0.029201297
72	0xbbda4aef	-0.006661765
73	0xbd469ace	-0.048487477
74	0x3af06e88	0.0018343488
75	0x3e31a9bd	0.17349906
76	0xbd995428	-0.07486755
77	0x3c0e7f60	0.008697361
78	0xbba113f8	-0.0049157105
79	0xbe63891f	-0.22220276
80	0x3d216e11	0.039411608
81	0x3c29ec81	0.010371328
82	0x3ba408f7	0.0050059515
83	0x3c0030ae	0.007824106
84	0x3de3429a	0.110966876
85	0xbe76b507	-0.24092494
86	0x3c5994bf	0.013280093
87	0xbca75457	-0.020425959
88	0xbb07d2db	-0.0020725045
89	0x3c15395b	0.009107913
90	0x3c032c31	0.0080061415
91	0xbf685f22	-0.9077016
92	0xbba8917b	-0.0051442957
93	0x3c5ec8ab	0.013597648
94	0xbc08275a	-0.008310163
95	0xbebb7c73	-0.36618385
96	0x3e692a9a	0.22770157
97	0xbb1e91a8	-0.0024195705
98	0x3c00f7b3	0.007871556
99	0x3dab466a	0.0836304
100	0xbadf06b9	-0.0017015553
101	0x3c4588e9	0.012056568
102	0xbb8b6a88	-0.004254643
103	0x3e54b678	0.20772731
104	0xbb8c2f26	-0.0042780815
105	0x3e1cf80e	0.15329
106	0x3c5f8007	0.013641364
107	0xbd9530d1	-0.072847016
108	0xbdabb9bd	-0.08385036
109	0xbd908d87	-0.07058244
110	0xbba19b20	-0.0049318224
111	0x3e1392ef	0.1441152
112	0xba2e4edf	-0.0006649326
113	0x3a6edf50	0.00091122556
114	0x3f0c17f3	0.54724044
115	0x3e82ac40	0.2552204
116	0x3ac0dad0	0.0014713649
117	0x3c0b44e7	0.008500314
118	0xbc0182ce	-0.007904721
119	0x3e48a89b	0.19595568
120	0xb9502bce	-0.00019852744
121	0x3e8f5c10	0.27999926
122	0xbeade818	-0.33966136
123	0x3e1b0dae	0.15141937
124	0x3b2ee0b2	0.0026684222
125	0x3d0315b0	0.032003105
126	0xbebce8c0	-0.36896324
127	0x3b90a5b1	0.004414283

log_std.0.weight f4 [128, 5]
0	0xbe93b7bf	-0.28851125
1	0xbc822114	-0.015884914
2	0x3f79f5c8	0.9764066
3	0xbf818dc7	-1.0121392
4	0xbe53ca6f	-0.20682691
5	0xbee07845	-0.43841758
6	0xbe20ee7d	-0.15715976
7	0x3f622122	0.88331807
8	0xbdabc5af	-0.083873145
9	0xbdbdd0f8	-0.09268373
10	0x3d9bfe9f	0.076169245
11	0x3de8e7cd	0.113723375
12	0xbe505f82	-0.20348933
13	0x3f05026f	0.5195684
14	0xbd46d3da	-0.04854188
15	0x3e5b0406	0.21388254
16	0xbd37850b	-0.044804614
17	0x3ebb8b51	0.36629727
18	0xbe8efeb3	-0.27928695
19	0x3db22fa6	0.087004945
20	0x3d62e62d	0.055395294
21	0xbcf74f62	-0.03018922
22	0x3df3f001	0.119110115
23	0x3f13a892	0.5767909
24	0xbd0a0588	-0.03369668
25	0x3daa5b45	0.083181895
26	0xbe5c91a0	-0.21539927
27	0x3ecb6a1f	0.397294
28	0x3c4a03a0	0.012329966
29	0x3be45407	0.0069680247
30	0x3de992f3	0.114049815
31	0x3ee2c030	0.44287252
32	0x3e7fae50	0.24968839
33	0x3f41c163	0.7568571
34	0x3d81c0ac	0.06335577
35	0x3de64006	0.1124268
36	0x3de0dc7a	0.109795526
37	0x3efa2430	0.48855734
38	0x3f73f32b	0.9529292
39	0x3e57e8c3	0.21084885
40	0x3c7484dc	0.014924254
41	0x3bf19d67	0.0073735
42	0x3c9416d8	0.018077299
43	0xbbcd04c1	-0.00625667
44	0x3a9923e2	0.0011683668
45	0x3d885610	0.0665704
46	0xbd1346a0	-0.035956025
47	0x3b097406	0.0020973696
48	0xbe68be16	-0.22728762
49	0xbc5117be	-0.012762008
50	0xbeda3573	-0.42618904
51	0xbe3f05c5	-0.18654545
52	0x3f812662	1.0089839
53	0xbeb82ee8	-0.35973287
54	0xbddff032	-0.109344855
55	0x3e282af0	0.1642263
56	0x3d862935	0.06550828
57	0x3e34f654	0.17672092
58	0x3ee58b0f	0.44832656
59	0x3d73a81a	0.059486486
60	0xbe330cee	-0.17485401
61	0x3d8ba3a3	0.068183206
62	0x3ece6e5b	0.4031857
63	0x3e962e23	0.29332075
64	0x3e9d7f76	0.30761307
65	0x3e1ea04c	0.15490836
66	0xbe85baa7	-0.26118967
67	0xbe69c99a	-0.22830811
68	0xbe772259	-0.24134196
69	0xbd013e0e	-0.03155332
70	0x3eb1f092	0.34753853
71	0xbdeebdd3	-0.116573
72	0xbd1266ca	-0.03574256
73	0x3da1203f	0.078674786
74	0x3b839654	0.0040157232
75	0x3c9afd21	0.01891953
76	0x3d9d1e6d	0.07671819
77	0xbdde17f6	-0.10844414
78	0xbe4f2689	-0.20229544
79	0xbadb3657	-0.0016724569
80	0xbda05b04	-0.0782986
81	0xbe48966d	-0.19588633
82	0x3ecaad18	0.39585185
83	0xbe98e5c9	-0.29862812
84	0xbdb90e4a	-0.090359285
85	0x3db62f69	0.088957615
86	0xbcd06776	-0.025439959
87	0xbd1ca0fb	-0.03823946
88	0xbdf48c78	-0.11940855
89	0xbcd7cdf6	-0.026343327
90	0xbecc88fa	-0.39948255
91	0xbec11f68	-0.37719274
92	0xbe83fb47	-0.25777647
93	0x3cf45a82	0.029828314
94	0xba3eb4ef	-0.0007274886
95	0x3e5e544d	0.21711846
96	0x3e3189ed	0.17337771
97	0x3f4223d1	0.758359
98	0x3f23bac0	0.6395683
99	0x3e37052a	0.17873064
100	0x3b04cb32	0.0020262715
101	0x3cbe55cc	0.02323427
102	0x3e42a117	0.19006763
103	0xbd6fe693	-0.058569502
104	0xbc11f8dc	-0.00890943
105	0xbe23a508	-0.15980923
106	0xbe50372c	-0.20333546
107	0x3dc76817	0.097366504
108	0xbd978067	-0.07397538
109	0xbd76103f	-0.060074087
110	0x3dc5bb1a	0.096548274
111	0xbd618196	-0.055055223
112	0x3d5a8083	0.053345215
113	0xbdca8016	-0.09887712
114	0xbd01000c	-0.031494185
115	0x3d172428	0.036899716
116	0xbe0af843	-0.13571267
117	0x3c0ca4ed	0.008584243
118	0xbe8eb8d2	-0.27875382
119	0xbdb574df	-0.08860182
120	0x3df7f21f	0.12106728
121	0x3e2e9697	0.17049633
122	0x3f645af8	0.8920131
123	0x3f0205fc	0.5079038
124	0x3e09ef1c	0.13470119
125	0x3e8fe7e9	0.2810662
126	0xbe52f34c	-0.20600623
127	0xbebd4759	-0.36968496
128	0xbe381f8c	-0.17980784
129	0xbe8eef02	-0.27916723
130	0xbeab7252	-0.33485657
131	0xbd9d27c5	-0.07673601
132	0x3efda34d	0.4953865
133	0x3d5b3cca	0.05352477
134	0x3d8e06f1	0.06934918
135	0x3f1a20d9	0.6020637
136	0x3e51288b	0.20425622
137	0x3ea77906	0.3270952
138	0x3e0147b1	0.12625004
139	0xbbc37b95	-0.00596566
140	0xb9fdb0d9	-0.00048387682
141	0xbd805617	-0.0626642
142	0x3f0c1f34	0.5473511
143	0xbd256d6b	-0.040387552
144	0x3d73f5b3	0.05956049
145	0xbd937056	-0.07199161
146	0xbe9a96de	-0.30193228
147	0x3c896a0a	0.016774196
148	0xbec05f3f	-0.37572667
149	0xbe08ca89	-0.13358511
150	0xbda235ef	-0.07920443
151	0x3d2d985b	0.042381626
152	0x3eae87ac	0.34087884
153	0xbdae116c	-0.08499417
154	0x3caeea23	0.02135188
155	0x3ea59340	0.32338905
156	0x3e184c35	0.1487282
157	0xbea66dbb	-0.32505593
158	0x3ead6adb	0.33870587
159	0x3dad9f88	0.08477694
160	0x3d035d1c	0.032071218
161	0xbe8edc19	-0.27902296
162	0x3e959131	0.29212335
163	0x3d845a5f	0.064625494
164	0x3d8d78c0	0.06907797
165	0x3e00bbee	0.1257169
166	0x3dfbfd70	0.12304199
167	0x3f063814	0.5242932
168	0x3f5f0f34	0.87132573
169	0x3e3f9f41	0.18713094
170	0x3ddd81df	0.108157866
171	0xbd0b59df	-0.034021255
172	0xbe3aee9e	-0.18255088
173	0x3cc30045	0.02380384
174	0x3b1f3963	0.002429568
175	0x3c395f94	0.0113142915
176	0x3be77e20	0.007064596
177	0x3e006593	0.12538747
178	0x3d93c994	0.07216182
179	0x3a12e198	0.0005603074
180	0xbcd59c44	-0.02607549
181	0x3ba9cdb0	0.0051819906
182	0x3d78fc6e	0.06078761
183	0x3d9259a0	0.07146001
184	0xb9302b42	-0.00016800783
185	0xbceb5412	-0.028726611
186	0xbc60dbb5	-0.013724257
187	0x3dded255	0.108799614
188	0x3ba16370	0.004925184
189	0x3b9a85b2	0.0047156448
190	0x3e439604	0.19100195
191	0xbdf776cf	-0.12083208
192	0xbe664b75	-0.22489722
193	0xbe411c4d	-0.18858452
194	0xbbdaeb45	-0.0066808783
195	0xbee6135a	-0.4493664
196	0x3ed3743a	0.4129961
197	0xbf371bf2	-0.71527016
198	0xbf0d9a08	-0.5531316
199	0xbd98dcd2	-0.07463993
200	0x3f04eb07	0.51921123
201	0xbdd47466	-0.10373764
202	0x3cbadfd9	0.022811817
203	0xbe5d8705	-0.21633537
204	0x3d0002d4	0.031252697
205	0x3e2e29e9	0.17008175
206	0xbdd6c682	-0.10487081
207	0x3ee30cd5	0.44345728
208	0xbd500cd4	-0.050793484
209	0x3e6d8813	0.2319644
210	0xbcd6125e	-0.026131805
211	0x3baecc38	0.0053344034
212	0x3edf430a	0.43605834
213	0xbc032f1f	-0.00800684
214	0xba0aecc6	-0.0005299564
215	0x3ee16600	0.44023132
216	0xbdd9023f	-0.105961315
217	0x3f6c5ef5	0.9233239
218	0xbe110505	-0.14162071
219	0x3da88ea3	0.08230331
220	0xba99e47c	-0.0011741067
221	0xbeca027d	-0.39455023
222	0x3e9ded83	0.3084527
223	0x3ef38556	0.47562665
224	0x3e18330a	0.1486322
225	0xbd032f61	-0.032027606
226	0xbe22e439	-0.15907373
227	0xbeeb3539	-0.45939043
228	0xbf57a65b	-0.84238213
229	0xbe8cc23d	-0.27491942
230	0xbf1ca4a9	-0.6118875
231	0xbdb2e82c	-0.087356895
232	0x3f4523ed	0.77007943
233	0x3e93a9c4	0.28840458
234	0x3b4ba78e	0.0031075212
235	0x3e1b95fc	0.15193933
236	0x3ab5e72a	0.0013878096
237	0xbb38fb84	-0.0028226087
238	0xbb2baf58	-0.0026197042
239	0xbd0ae1f3	-0.03390689
240	0xbdeb75ae	-0.11497055
241	0x3e1a437b	0.15064804
242	0xbdf56c4e	-0.11983548
243	0xbd988cbc	-0.07448718
244	0x3c053dc4	0.008132402
245	0x3e7072a7	0.23481236
246	0x3e566dcd	0.20940323
247	0x3ea608cd	0.3242859
248	0x3f3efc57	0.7460379
249	0x3e0df0a3	0.13861327
250	0x3b0f1b0e	0.0021836194
251	0x3ac3f2dd	0.0014949698
252	0xbcd7a4cc	-0.026323698
253	0x3d106888	0.03525594
254	0xb6c96647	-6.0021734e-06
255	0x3e2ce202	0.1688309

log_std.0.bias f4 [128]
0	0x3e2d66e5	0.16933782
1	0xbf966cb9	-1.175193
2	0xbee4e304	-0.4470445
3	0xbf545a4c	-0.8295028
4	0xbe9f0208	-0.31056237
5	0xbf0121c0	-0.50442123
6	0x3d9caaeb	0.076497875
7	0xbeedce84	-0.4644662
8	0xbd654d94	-0.055982187
9	0xbed8e314	-0.42360747
10	0xbebdb936	-0.37055367
11	0xbe15f4fa	-0.14644232
12	0x3e37d05a	0.17950574
13	0xbf3d1e09	-0.73873955
14	0xbf089478	-0.53351545
15	0xbd2bbf91	-0.04193074
16	0xbf316e3f	-0.6930885
17	0xbe33041b	-0.17482035
18	0xbf3966a7	-0.7242226
19	0xbf119868	-0.5687318
20	0xbe5faa6b	-0.21842353
21	0xbf020c63	-0.5080015
22	0xbe1f12fe	-0.15534589
23	0xbe6df0b2	-0.23236349
24	0xbf486ec6	-0.78294027
25	0xbe48eb27	-0.19620954
26	0xbf47720a	-0.77908385
27	0xbf5a1748	-0.85191774
28	0xbf5bdb39	-0.8588138
29	0xbf082e74	-0.5319588
30	0xbf237d9a	-0.6386353
31	0xbe6a6d62	-0.22893289
32	0xbf33a32b	-0.7017085
33	0xbef3c06e	-0.4760775
34	0xbea36272	-0.31911045
35	0xbe2ed61b	-0.17073862
36	0xbe18aa78	-0.14908779
37	0xbe1afb42	-0.1513491
38	0xbf15d709	-0.5853124
39	0xbf2a5057	-0.6652884
40	0xbedb52ce	-0.42836612
41	0xbec3aeac	-0.38219202
42	0xbf040c93	-0.51581687
43	0xbe6bdb7d	-0.23032947
44	0x3ddb3fc9	0.107055254
45	0xbe9826b4	-0.29717028
46	0xbf62ca2d	-0.88589746
47	0xbef0515e	-0.46937078
48	0xbe31a323	-0.17347388
49	0x3e661d7b	0.22472183
50	0xbd4c56fe	-0.04988765
51	0xbee64aab	-0.44978842
52	0xbdfdeade	-0.12398313
53	0xbf2d6179	-0.67726856
54	0x3e2d865b	0.16945784
55	0xbea8cc69	-0.32968453
56	0xbef72e05	-0.48277298
57	0xbea0dbb2	-0.31417614
58	0xbf5f1e48	-0.8715558
59	0xbd84101a	-0.06448384
60	0xbe815dcf	-0.25266883
61	0xbe49ab23	-0.1969419
62	0xbe323510	-0.17403054
63	0x3d97178b	0.07377537
64	0xbe2e2ff4	-0.1701048
65	0xbebf10f1	-0.37317613
66	0xbd0614aa	-0.03273455
67	0xbe670dfb	-0.22563927
68	0xbf413aad	-0.7548016
69	0xbe2cbfc5	-0.1687003
70	0xbf9b0547	-1.2110986
71	0xbdb37925	-0.08763341
72	0xbf758cb2	-0.9591781
73	0xbf577479	-0.841621
74	0xbf0ff219	-0.56228787
75	0xbe0221e8	-0.12708247
76	0xbecb8b88	-0.3975489
77	0xbe6fffaf	-0.2343738
78	0xbe828198	-0.25489497
79	0xbe6b29ad	-0.22965117
80	0xbee470f4	-0.44617426
81	0xbeaab23f	-0.33339116
82	0xbebe6b60	-0.37191296
83	0xbf549965	-0.8304656
84	0xbe7d7168	-0.24750292
85	0xbe07ee32	-0.13274458
86	0xbe843461	-0.25821212
87	0xbe8ccad2	-0.2749849
88	0xbedc5897	-0.4303634
89	0xbf29439f	-0.66118807
90	0xbf1d55f8	-0.614593
91	0xbece363b	-0.4027575
92	0xbf1d32ba	-0.6140553
93	0xbd805101	-0.0626545
94	0xbe377438	-0.17915428
95	0xbf6e65d6	-0.9312414
96	0xbed86c0c	-0.42269933
97	0xbed07493	-0.4071394
98	0xbeef94f0	-0.46793318
99	0xbe0e66f4	-0.13906461
100	0xbf44de9a	-0.76902163
101	0xbe43af78	-0.19109905
102	0x3de116e7	0.109906964
103	0xbddd7ae3	-0.108144544
104	0xbf7c60a7	-0.9858498
105	0xbf1b2fe8	-0.60619974
106	0xbf2b7375	-0.6697305
107	0x3dc0e749	0.09419114
108	0xbdd1c3a6	-0.10242395
109	0xbf29c4a4	-0.66315675
110	0xbdff636c	-0.12470135
111	0xbe7cbbc6	-0.24681005
112	0xbed643d5	-0.41848627
113	0xbf02d29c	-0.51102614
114	0xbeffed12	-0.49985558
115	0xbdda339d	-0.10654376
116	0x3e0fe7f1	0.14053322
117	0xbee06849	-0.43829563
118	0xbe8fa4b5	-0.2805535
119	0xbe8430bb	-0.25818428
120	0xbe448c1d	-0.19194074
121	0xbe94e937	-0.2908418
122	0xbe82cb6e	-0.2554583
123	0xbf40960f	-0.7522897
124	0xbe0ed92e	-0.13950035
125	0xbf3a46bc	-0.7276418
126	0xbead3922	-0.3383265
127	0xbf01f82e	-0.5076932

log_std.2.weight f4 [1, 128]
0	0xbe1c2545	-0.15248592
1	0x3e44ab19	0.19205894
2	0xbd3f838b	-0.04675631
3	0x3cd7306e	0.02626821
4	0xbc98ce2a	-0.018652994
5	0xbc61d1c2	-0.01378292
6	0xbd9da353	-0.07697167
7	0x3de8ffe0	0.11376929
8	0xba00bcd6	-0.0004910951
9	0x3a603066	0.0008552134
10	0xbe8a7997	-0.2704589
11	0x3c1299dd	0.008947817
12	0xbdfd3143	-0.123629116
13	0xbbdacb62	-0.006677077
14	0xbcc0ac8d	-0.023519779
15	0xb7c93a90	-2.3988337e-05
16	0xbd83a2fb	-0.064275704
17	0x3a5c0322	0.0008392801
18	0xbe18d812	-0.14926174
19	0x3e331d88	0.17491734
20	0xbb2262f8	-0.0024778228
21	0xbccc328d	-0.024926448
22	0xbbf66388	-0.0075191893
23	0xbbf3c6d1	-0.0074394722
24	0x3cce362f	0.025172321
25	0xbdbbc859	-0.09169073
26	0x3d902c18	0.0703966
27	0x3e1cb8e2	0.15304902
28	0x3dcec0a5	0.10095338
29	0xbd5883d8	-0.05286011
30	0x3c2c4240	0.010513842
31	0xbc747ae8	-0.014921881
32	0x3b016d66	0.0019749044
33	0x3dc6d613	0.097088
34	0xbb547471	-0.0032418037
35	0xba9a2f89	-0.0011763434
36	0xbb7ceccd	-0.0038593293
37	0x3aa4108a	0.0012517136
38	0x3c01de96	0.007926604
39	0x3e510cc0	0.2041502
40	0xbd262809	-0.040565524
41	0xbd856baa	-0.06514676
42	0xbc097986	-0.00839079
43	0xbd33d19b	-0.043901067
44	0xbd034946	-0.0320523
45	0xbe0f8cca	-0.1401855
46	0x3e8c7129	0.27430084
47	0x39619e91	0.00021516743
48	0x39196e77	0.00014632368
49	0xbddf15ff	-0.10892867
50	0xba003be2	-0.0004891736
51	0x3ba0e7ec	0.0049104597
52	0xbbf1936d	-0.007372311
53	0x3d5b5b67	0.053553965
54	0xbd0241d6	-0.031801067
55	0xba29bfb7	-0.0006475406
56	0xbcd18f16	-0.025580924
57	0xbc54ab48	-0.01298029
58	0x3e47b584	0.19502836
59	0xbdec59ac	-0.11540541
60	0x3d467fd6	0.048461758
61	0x3acc3d11	0.0015582164
62	0xbc1cf99f	-0.009580999
63	0xbdb97712	-0.09055914
64	0xbc096196	-0.008385083
65	0xbd2a8078	-0.041626424
66	0xbd532b95	-0.051555235
67	0xb9f31fcd	-0.00046372265
68	0x3d87d907	0.066331916
69	0xbd1d9f35	-0.03848191
70	0x3e74ddfe	0.23912808
71	0x3a3fd493	0.0007317748
72	0x3d8f6101	0.07000924
73	0x3b7ce166	0.0038586496
74	0xbd161040	-0.03663659
75	0xbd961003	-0.07327273
76	0x3eb9f173	0.36317024
77	0xbc72767b	-0.014798756
78	0x3a9570d4	0.0011401423
79	0xbb19e24e	-0.0023480835
80	0x3bad7ec1	0.0052946513
81	0x3c876fd1	0.01653281
82	0xbc9e1898	-0.019298837
83	0x3e1bafd3	0.1520379
84	0xbce3799e	-0.027767953
85	0xbd936efa	-0.071989015
86	0xbcaed61c	-0.02134233
87	0x3b05677f	0.0020355878
88	0xb925ed63	-0.0001582406
89	0x38feb5d6	0.000121455334
90	0x3e66d055	0.2254041
91	0x3aa1f158	0.0012355251
92	0x3d1b36f1	0.037894193
93	0xbd112af0	-0.03544134
94	0xbdac1de8	-0.08404142
95	0x3e12eaf4	0.1434744
96	0xbcbc9e95	-0.023024837
97	0x3e765082	0.24054149
98	0x3d73307f	0.05937242
99	0xbd4c40fd	-0.049866665
100	0xbe697304	-0.22797781
101	0xbb8de46f	-0.00433021
102	0xbd9144e2	-0.070932165
103	0x37290180	1.0073534e-05
104	0x3f0788c4	0.5294306
105	0xbd913d1c	-0.07091734
106	0xbe40a3b8	-0.18812454
107	0xbe1004dd	-0.14064355
108	0x3e0fead3	0.14054422
109	0xbc034d1d	-0.008013991
110	0xbbb845ab	-0.0056235394
111	0xbd8a5b23	-0.06755664
112	0xbc99bb71	-0.018766137
113	0xbc6e525c	-0.014546003
114	0xbb088001	-0.002082825
115	0xbe054611	-0.1301501
116	0xbd6e4cf2	-0.05817885
117	0x3e1b802f	0.15185617
118	0xbd4324e2	-0.047642596
119	0xb71ad587	-9.228831e-06
120	0x3b40488b	0.0029340114
121	0xbb90304a	-0.0044002878
122	0xbb2ba846	-0.0026192828
123	0x3d1b8b6a	0.037974752
124	0xbe26494e	-0.16238901
125	0x3e1dd911	0.15414836
126	0x3e23244c	0.15931815
127	0xbc416e97	-0.011806152
