data/hlt_stoch/InvertedPendulumRoboschoolEnv/seed_213/model_40000.pt (torch, 180560 bytes, 10 tensors)

log_std f4 [1, 5]
00000000: b7ac bdc0 b010 4cc0 6604 aac0 bcfb a7c0
00000010: e22b 1cc0
-5.9273334 -3.1885185 -5.313037 -5.2494793 -2.4401784

mu.0.weight f4 [200, 6]
00000000: 4494 8a3f e4fb 6c3e e009 21bf f250 343f
00000010: 4236 ce3b 8d03 bc3e d0b5 e13d e313 a23a
00000020: c009 ea3e cb4f 0cbc 0f40 3c3c 366b 6cbe
00000030: dd06 1dbe a81b c4bc 493c 4f3e 88fd 65bf
00000040: 6a66 593e 4d62 983c 3e1f 61bd 9d76 90be
00000050: 7338 06bf ec62 0b3f 6083 553d 7c96 8cbe
00000060: cd4c 873d 4a13 b43c 0ea2 603f 8843 473f
00000070: 6faf 24be 20e8 5bbd 04fb 283e 69f4 07ba
00000080: 5a25 f9bd aa0d 083d 3dc2 94ba aaca 0c3c
00000090: e73f b93d 4cd6 d8ba 14e8 cabe ecb5 993f
000000a0: 492b f33d 9d4b 93bc a664 95bc ebdb 73bd
000000b0: edb3 1e3e 84ae 3d3d fb3f 90bc 8444 b13b
000000c0: ae47 a13c 012f ec3c ddde 34bf 9b7d ec3e
000000d0: 5383 c4bd da19 42bd fd92 c6bd 598d 98bb
000000e0: a906 133d 501f 24be fa28 263c ff89 d2bb
000000f0: d0f1 dfbc b2e6 11bd ba6b b53e a7ab df3d
00000100: 1179 f139 94ff 0a3e 2373 963f f6ac 123c
00000110: b198 083f 1581 01be ff52 353b 823b dc3e
00000120: 53dc 0a3e 356e 43bd 3fda 2ebf bad5 bcbf
00000130: 2478 90bc 5bb1 67be 7781 7cbd 35a5 773c
00000140: ebf6 e13e 0df6 9b3d fea6 033c 1f02 383e
00000150: aaac c7be 5c80 44bd 18d0 0f3c 4f32 1f3e
00000160: 4321 8c3c 0362 5bbd 92cf 2e3d 30ee bd3c
00000170: 2863 22bf 426f 3c3e 7e35 b2bb e6a6 a23e
00000180: f02c 49be 4007 b1bd 9f5d f9bc 8fd6 33be
00000190: 70eb 173d 3dfe c6bc edc5 a2bd 7b32 bebc
000001a0: 89ed 493d af09 be3d 1206 2eba 4b33 0f3c
000001b0: e071 6fbe f857 b3bd b091 c33e 76a5 e3bd
000001c0: 9fde 6d3d 6a00 283e 005d b5bb 6d83 cdbc
000001d0: f0e8 aa3d 0863 71be 373d 60bc 7df9 793e
000001e0: 84b7 933e e56a cbbd 4cfb 4cbf fb54 43bb
000001f0: b7e4 a7bb b438 19bf 457a d1bc 2b19 9abd
00000200: 6f51 5e3f a771 133f 5428 753d 6d4e 50bd
00000210: 246a 813f d442 513e 889e c53e 8366 a93d
00000220: 8f7d 713d 25f1 adbd 9f83 263d a91c 343d
00000230: f2f3 c5bc ab66 3b3e b967 cd3a 6ffd 41be
00000240: 5f86 063e 5f11 ac3c fa88 1e3e da28 2dbc
00000250: 4025 b03c 1c19 e4bd 42ab 833f 6ffb d23d
00000260: 9c75 95be c61b f13e 4de7 c33a 19f7 29bc
00000270: 31d1 1e3f d159 c83d e79d 193f 50c9 8c3e
00000280: e73c 3d3c e4c4 2c3f a935 41c0 9c9d 74be
00000290: 559e 2bbe 6bac 44be b772 1abc 7c5c 6ebd
000002a0: 5eb5 8bbc 6242 28bd 4724 6e3f 13ed 5dbf
000002b0: 22ef 293e f7fb 94bc 93d4 9b3d 954f 4abd
000002c0: 6ddf 1c3e 29e5 c03d 4601 0ebc 54bb 973c
000002d0: 797d 8dbc bb6a 08bd 7704 c33c 1919 19be
000002e0: fc30 53bc 89e2 f73e 900b 31bd 68a0 703c
000002f0: cd66 fd3c 488e 02bc 978e 2f3c 77f1 24be
00000300: 32be 0b3d ad9f d2bb 9d9c af3d 9173 44be
00000310: 4287 8abb 5f83 17be b134 bebd 1e0c 6f3c
00000320: 6044 04bd 8360 9a3d c70f 133b 0db9 1cbe
00000330: 7bc8 74bd 260e b03d 8a4c 39bd 2cf3 a13c
00000340: e0aa 97ba 0443 44be 5bbd 64bc 9549 2bbb
00000350: 5f8c 26bd 05f8 12bb d751 cbba 896c b03d
00000360: 74f5 9abc 9975 8dbc 76d4 24be 66c1 453f
00000370: 999f c0bd 70c8 a63b f343 57bd fa36 d3ba
00000380: 0027 cb3d ee5d 693e eefc 693c 0df9 a23c
00000390: 771d 0a3e df9f 52bd 97f8 2b3a 1117 5b3e
000003a0: 9ecc a53b ca77 1ebe 4c29 23bc 045c 47bb
000003b0: 65c1 143d 930c c2bd d0ba ab3c c488 90bd
000003c0: c6e4 a4bd 2129 f5bd c067 953e 779a d5be
000003d0: f701 9e3d 8260 0bba 46c8 6c3e 1547 7d3c
000003e0: b8ae e0bb d5e8 3c3e b648 1c3b cbf5 3dbd
000003f0: 0ba0 95bd 6170 cb3c 29a0 3d3e 6dfa 993d
1.0826497 0.23142964 -0.62905693 0.7043601 0.006293089 0.3672146 0.11021006 0.0012365546
0.45710564 -0.008563946 0.011489882 -0.23087773 -0.1533465 -0.023938969 0.2023784 -0.89839983
0.21230474 0.018601561 -0.054961435 -0.28215495 -0.52429885 0.5444782 0.052127242 -0.2745856
0.066064455 0.021981854 0.87747276 0.7783742 -0.16082548 -0.05368817 0.16502005 -0.0005186261
-0.12165327 0.033216156 -0.0011349391 0.008593241 0.090453915 -0.0016543358 -0.39630187 1.2008643
0.1187349 -0.017980391 -0.01823647 -0.059535902 0.15498324 0.04630901 -0.017608633 0.005409779
0.0196875 0.028831007 -0.7065256 0.4618958 -0.095953606 -0.047387935 -0.096960045 -0.004655522
0.035895023 -0.1602757 0.0101416055 -0.006425142 -0.027336985 -0.0356204 0.3543375 0.10921412
0.00046057304 0.13574058 1.1753887 0.00895237 0.5335799 -0.12646897 0.0027667878 0.4301415
0.1356061 -0.047712523 -0.6830177 -1.4752724 -0.017635413 -0.2262625 -0.061646905 0.015115072
0.44133696 0.0761529 0.0080354195 0.17969559 -0.3899892 -0.047973976 0.008777641 0.15546535
0.017105704 -0.053560268 0.042678423 0.023184866 -0.6343255 0.18401816 -0.0054385057 0.31767958
-0.19646049 -0.08643961 -0.03044015 -0.17562316 0.037089765 -0.024291152 -0.079479076 -0.02321743
0.049298797 0.09279191 -0.0006638478 0.008740257 -0.23383284 -0.08757013 0.38197088 -0.111155435
0.058073636 0.16406408 -0.005534768 -0.025087083 0.083452106 -0.23572934 -0.01368647 0.24411578
0.2885095 -0.09932498 -0.8007095 -0.002980529 -0.0051237005 -0.5985215 -0.025570998 -0.07524332
0.8684301 0.57595295 0.059852913 -0.050856043 1.0110517 0.20435649 0.38597512 0.08271506
0.058957633 -0.0849326 0.040652867 0.043972645 -0.024164174 0.18300883 0.001567117 -0.18944333
0.13137196 0.021004377 0.1548194 -0.010568822 0.021502137 -0.11137602 1.0286639 0.103018634
-0.2919129 0.47091502 0.0014946252 -0.010373854 0.6203795 0.09782756 0.60006565 0.2749734
0.011550165 0.6748793 -3.0189002 -0.23888248 -0.16759618 -0.19206397 -0.009426764 -0.05819367
-0.017054256 -0.041078933 0.93024105 -0.8668987 0.16595128 -0.018186552 0.07608905 -0.0493923
0.15319605 0.09418709 -0.008667296 0.018521942 -0.017271744 -0.03330491 0.02380584 -0.1495098
-0.012890097 0.4841502 -0.043223917 0.014686681 0.030932808 -0.007968493 0.010715148 -0.16107737
0.03411693 -0.0064277262 0.085747935 -0.1918471 -0.00422755 -0.14796208 -0.09287394 0.014590291
-0.03229177 0.075379394 0.0022439824 -0.15304966 -0.059761506 0.085964486 -0.04523901 0.019769274
-0.001157131 -0.1916619 -0.0139611615 -0.0026136388 -0.040661212 -0.0022425663 -0.0015512061 0.086144514
-0.01891587 -0.017267989 -0.16096672 0.7724823 -0.09405441 0.005089812 -0.052555036 -0.0016114407
0.09919548 0.22789738 0.014281495 0.019894147 0.13487802 -0.051421996 0.0006560175 0.21395518
0.0050597927 -0.15475383 -0.009958576 -0.0030419836 0.036317248 -0.094750546 0.020963103 -0.07057336
-0.080514476 -0.11970735 0.29180717 -0.4171941 0.077152185 -0.000531681 0.23123273 0.015458842
-0.0068567656 0.18448193 0.002384705 -0.046376985 -0.073059164 0.02483386 0.18518128 0.07518468

mu.0.bias f4 [200]
00000000: c5cc 4cc0 908b 50bf e0f1 f3bf b51c d7bf
00000010: f549 03bf e340 9cbe 26f6 6fbf a19b f8be
00000020: f427 22bf 5259 92be ee5b 10bf ad6c 09c0
00000030: 43bf adbf c291 28bf 1e35 41bf 4a35 8bbf
00000040: 1612 21bf b7a1 85be 7127 7dbf e773 45bf
00000050: 69f6 b8bf 3051 d7bf 81e4 11c0 e823 e8be
00000060: a8fb 0dbf ffc2 f9bf 314e 06c0 4421 4cc0
00000070: 5647 b0bf 009b b2be b158 c53e bb6a 91be
00000080: 7328 06bf 0eef a1be 64bf f9be 51d9 1cbe
00000090: 5075 05bf 7115 03bf 5947 04bf 92f7 debe
000000a0: c521 bcbf 2eff fabe 43bf 0fbf 8de2 b3be
000000b0: 040b 86bf ef26 3fbf 9ac4 2abf 9f5f e0bf
000000c0: b272 91bf 32af 9bbe bb53 0cbf 666d d4bf
000000d0: a877 0ec0 092f 40bf c912 f4be 017e 33be
000000e0: 7862 e0bf ed28 27bf ebe3 a0be 424c b1bf
000000f0: 56b6 dbbe 2370 e2be 90cb 83bd f8ed b1bf
00000100: 2b4f ccbe 1955 76be ca1a 5dbf 69f0 95bf
00000110: da99 3ebf e4bd 37c0 0e92 f2be 9e08 f1be
00000120: f3f2 a0bf a87b b8be 6d79 8cbf 69ec 57bf
00000130: 9d6f 2dbf 0331 55c0 b4a6 03c0 340d 21bf
00000140: 0f42 34bf 3283 2ebf 035a 8bbf 4e72 d9bf
00000150: 2e5c efbf bfa0 0abf 3b2e bfbf b88a 3abf
00000160: 634f aebe a498 54bf 1617 e5be f4d2 40c0
00000170: 84c2 72bf 97f1 3dc0 6cf9 7bbe a185 12c0
00000180: 6333 41bf e131 53bf 0d2c 2abf f82c 0cbf
00000190: dbea 09bf 065b f3be adb8 54c0 607a 34c0
000001a0: d6db a6be 3c0d 37c0 d05f 26be a820 d7be
000001b0: 4c39 04c0 fab3 15bf f09b 62bf 0dfb 82bf
000001c0: 4947 5fc0 1f84 bdbe 782c 3fbf aafb 26bf
000001d0: 9e5c 36bf 500d 16bf 1194 88bf a490 4dbf
000001e0: 0120 5dbe dbd8 05c0 64e8 2ebf 52da 37bf
000001f0: 9bbf b9bf 45cd cebe a188 83bf 6b70 1dbf
00000200: daee 6ac0 2060 dfbe 4a11 a7be 34c5 55be
00000210: 56d0 26bf 24bc c7bd 6512 4dbf 7dff 6dbf
00000220: 9753 0bc0 c52c 95bf adfc 5dc0 3009 47be
00000230: 3eaa 10bf f5db d1bd 1e5c 09c0 e6b2 b1be
00000240: a472 a8bf 0f07 03bf dd37 1bbf cd79 eebf
00000250: e6f8 06c0 e97c 08c0 ad5b 443f ecae 3fbf
00000260: e4cc 4ebf 46d5 b3be f112 66bf 3b93 4abf
00000270: ac72 5dbf f9d8 86bf 6cbb 13bf 2139 ebbe
00000280: fe0f 65bf 77dd 1bc0 0651 80bf 4dbd 69be
00000290: ba94 b5bf f54a acbf cd74 04bf 7664 18be
000002a0: 0189 33bf 1b39 b6bf b25d 1dbf ffea a4bf
000002b0: 2d12 09bf d8ed bbbe afc0 e3be 568e d7bf
000002c0: 3b8f 8fbf 1b07 abbe 3a5b 02c0 0031 7abf
000002d0: 2dd1 33bf ca0f cfbe 6861 b6be 11b2 adbf
000002e0: bf7e e7be 55da 0bc0 f440 a1bf fff4 2fc0
000002f0: 8852 35c0 bca3 4bbf 0faa a7bf e84b d2be
00000300: 4c29 57c0 273a 7ebf b0b0 a3be 534b e3be
00000310: 5066 7cbf fcab 67bf a344 06bf 6660 12bf
-3.1999981 -0.81462955 -1.9058189 -1.6805636 -0.51284724 -0.30518255 -0.9373497 -0.48556235
-0.63342214 -0.2858377 -0.56390274 -2.147258 -1.3573993 -0.6584741 -0.75471675 -1.0875638
-0.6291822 -0.2609994 -0.9888831 -0.7712998 -1.4450198 -1.6821651 -2.2795718 -0.45339894
-0.5546212 -1.9512633 -2.0985224 -3.1895304 -1.377177 -0.3488388 0.3854423 -0.2840174
-0.5240547 -0.31627697 -0.48778832 -0.15317275 -0.5213213 -0.5120459 -0.5167137 -0.43548256
-1.4697806 -0.49022812 -0.5615122 -0.35133782 -1.0472112 -0.7466878 -0.6670624 -1.7529181
-1.1363127 -0.304071 -0.5481526 -1.6595886 -2.2260532 -0.7507177 -0.47670582 -0.17528535
-1.753005 -0.6529682 -0.31423888 -1.3851397 -0.4291255 -0.4422618 -0.06435311 -1.3900747
-0.3990415 -0.240559 -0.86369 -1.1713992 -0.7445351 -2.870965 -0.47377056 -0.47076887
-1.2574142 -0.36031842 -1.0974556 -0.8434511 -0.67748433 -3.3311164 -2.0570498 -0.6291077
-0.704133 -0.6816894 -1.0886844 -1.6988008 -1.8700006 -0.5415153 -1.4935983 -0.7286792
-0.34044942 -0.8304541 -0.44744176 -3.0128756 -0.9482806 -2.9678705 -0.24606866 -2.289406
-0.75469035 -0.82497984 -0.66473466 -0.54756117 -0.53873986 -0.47530383 -3.3237717 -2.8199692
-0.32589597 -2.8601828 -0.16247487 -0.42017102 -2.0659971 -0.5847775 -0.8851919 -1.0232865
-3.488726 -0.37014863 -0.7467723 -0.6522776 -0.7123507 -0.58614063 -1.0670186 -0.8029883
-0.2159424 -2.0913608 -0.6832335 -0.71817505 -1.4511598 -0.40390983 -1.0276071 -0.6149966
-3.6708283 -0.43628025 -0.32630378 -0.20876008 -0.65161645 -0.09752682 -0.8010619 -0.9296797
-2.176977 -1.1654288 -3.468547 -0.19437099 -0.5650977 -0.102470316 -2.1462474 -0.347068
-1.3159986 -0.51182646 -0.60632116 -1.8630921 -2.1089416 -2.132624 0.76702386 -0.74876285
-0.8078139 -0.35123652 -0.8987265 -0.79130906 -0.865031 -1.0534965 -0.5770786 -0.45942023
-0.8947753 -2.4353921 -1.0024726 -0.22826119 -1.4186013 -1.3460375 -0.51740724 -0.14882073
-0.70130926 -1.4236177 -0.6147109 -1.2884215 -0.5354336 -0.36704898 -0.44482943 -1.6840312
-1.1215585 -0.3340386 -2.036818 -0.9773102 -0.7024105 -0.40441734 -0.3562119 -1.3569967
-0.45213887 -2.185201 -1.2597947 -2.7493284 -2.8331623 -0.79546714 -1.3098773 -0.41073537
-3.3618956 -0.99307483 -0.3197074 -0.44393405 -0.98593616 -0.904968 -0.5244848 -0.5717834

mu.2.weight f4 [5, 200]
00000000: 6f0d bcbd f325 fb3c 9146 3ebc a8b5 7fbb
00000010: d352 b6bb a6e7 0abb a4c5 e33b 8665 393d
00000020: bb09 153c 7f62 453a 85d0 6dbb c8a9 0ebd
00000030: ccd7 ca3b 53c1 84bb f103 03bc 3397 cf3c
00000040: 505a a6bd 3b58 893b cb71 e7bb 6f0e a43c
00000050: c3e1 f2bb 685b 50bc 1f40 913d 1128 a1bc
00000060: fc48 1f3c caf9 7fbe 6caf 35bc 476f 4e3e
00000070: 6661 c83a 23d9 c53c bffa e139 95c6 f23b
00000080: 7ec6 6e3b 2ef4 04bc 5c11 42bb 03d3 b4b8
00000090: b3f1 513c 0369 e83c 4739 e6ba b9de 24bd
000000a0: 676f 1e3d 688f 573c 29d2 58bd ce87 64ba
000000b0: 5ddb 16bd a761 9a3d 5501 ccbd 252d c8bb
000000c0: 66b6 573d 9133 0c3a 19d7 93bc f9dc 123d
000000d0: 4966 0f3d 0f95 8d3d 906d 5bbc 694f 0b3c
000000e0: 465f e03d 465c 17bd 000b 883b 2ba1 703c
000000f0: 5e21 17bd 7e77 b3bb 100c 1f38 2af3 753b
00000100: d329 9f3c 469c 8c39 63a0 9fbc 7682 153c
00000110: 76f7 ff3d 41b8 333e 313d 023c 8415 133b
00000120: 9ce4 2e3c a5d7 913c 30d5 9b3d 76a0 40bc
00000130: c2e6 1f3b d765 693c 9ff7 62ba 8aa3 23bc
00000140: 3a84 1fbb 2da8 823b 9e69 81bc a257 e13c
00000150: de1e 843c 7a43 413b 7f1e 813b 58f0 e63b
00000160: d640 b6bb caac adbc c1a0 16bd e33d e4bc
00000170: 0347 8b3b 0b1f 5d3b fd5f 8fbb 0797 fcbd
00000180: bf06 9fbd 36a1 3abb 5384 9aba 2fde 34bd
00000190: 5e18 99bb 00f4 c7bc 3432 dc3c 99a1 45be
000001a0: 16d0 0aba dc44 90bc 7aa0 43ba b45c 963b
000001b0: ec55 ad3c b96b 8ebc 21f7 4abc 763e 03bd
000001c0: 6dd1 fdbd 4916 ffbb 3337 9f3d b241 14bb
000001d0: 05e9 273b ded5 2e3c 0dc2 5cba 0b6c 2c3e
000001e0: 22a6 bebb d0cf edba a887 85bb 3640 5b3c
000001f0: 3b3d e8bb c61b 543d 0b19 663c e8dc 88bd
00000200: b7d5 89bd 0891 983c bc73 87bb c2ad 1fbb
00000210: 0bb2 d0bb 8511 bf39 a58f 7dbb 178e 253c
00000220: 6e03 843c e1fc 84bd ce24 77bb 87ee 373c
00000230: 6ede 66bb ca56 3e3b 5c3f 2abd 6748 5c3c
00000240: a638 923c 1495 90bd a2c6 e339 5b34 843d
00000250: 8f20 afbc 7a47 e4bb 10b4 02be 5929 39b9
00000260: cd9f 1fbc 6532 b83a e6f3 28bb ed7a 59bc
00000270: 07ed 203c 6b62 9c3d 8a4b 963d 143f e239
00000280: c7bd 24bd f2bf 8e3d 9d6c 283b 9ce9 9abc
00000290: fcde 573c 06d5 89bb 8422 debd 888e 013c
000002a0: b5cb ac3a 4d9d e7b8 b464 ab3c 418d 11bd
000002b0: e424 c43d 3906 93bb 4b0f 31bc 4757 8bba
000002c0: 90b9 f03b da6f df3b 45b2 f63c a979 b03a
000002d0: 2cd4 9abc cd5d a13c cdfb ffba a215 073d
000002e0: 5a52 4cbc eed8 11bd b9c1 993b c803 35bc
000002f0: 097c 60bd 2953 20bc a7ed 4d3d 88b6 af3b
00000300: ada2 86bd d22a b53b d8d5 773b 8d63 00bd
00000310: 7422 8bbb e85f 84bc b4dc 1fbc c93b 05bc
00000320: 60e9 873f e615 bc3e f86a a0be bff7 313f
00000330: 905f 01bd bac5 fc3d f096 003e 73e3 393b
00000340: 5aba c43d c54a 83bd a03a 11be 4d07 7ebf
00000350: f39a 15be b0e6 0c3e fab1 363d 3dba 343f
00000360: 9d72 a8be 4f30 6b3e 8639 43be 7462 c7be
00000370: 92b2 30be 3434 49be 8844 1d3f a0e3 663c
00000380: cb79 873e 9aa2 22bf b654 6abf 9c1e 8a40
00000390: 31fc 163d 2a79 023d a35d 4a3f 9e21 45be
000003a0: 65fc cdbc ec4b 86bd dd90 3f3e 7d20 c33d
000003b0: 6b52 943e 4a3e 093e 5ce7 87be e73a 3fbe
000003c0: f3a9 e6bd cb24 d33e b1d1 69bc ee11 14bd
000003d0: c2a4 e03d c500 1d3e bf25 863d 7252 aabe
000003e0: ad32 2b3e 66cc 3ebd f43d 183d ef51 dc3e
000003f0: 23cb 203f fa25 3cbf bb32 1abd 2816 4f3e
-0.0918225 0.030657744 -0.011613504 -0.0039018188 -0.0055640726 -0.0021195202 0.006951051 0.045262836
0.009096558 0.00075296307 -0.0036287617 -0.034829885 0.006190276 -0.0040513664 -0.007996545 0.025340652
-0.081226945 0.004191426 -0.0070631257 0.020026414 -0.007412167 -0.012717105 0.07092308 -0.019672425
0.009721991 -0.2499763 -0.011089187 0.20159636 0.0015287816 0.02415139 0.00043102165 0.0074089267
0.0036434229 -0.008114858 -0.0029612398 -8.622373e-05 0.012813973 0.028370386 -0.0017564677 -0.040251467
0.03868046 0.013156749 -0.0529348 -0.0008717746 -0.036830295 0.07538157 -0.099611916 -0.0061088973
0.052664183 0.000534826 -0.018046902 0.035855267 0.035009656 0.06913196 -0.013392821 0.00850282
0.10955672 -0.036953233 0.004151702 0.014686863 -0.036897056 -0.005476891 3.7919788e-05 0.003752897
0.019429123 0.00026819314 -0.019485658 0.009125343 0.12498371 0.17550756 0.0079491595 0.0022443244
0.010674622 0.017803023 0.07609022 -0.011757007 0.0024399017 0.014245472 -0.0008658114 -0.009987721
-0.0024340288 0.0039873333 -0.015797433 0.027507607 0.016128 0.0029489682 0.003940403 0.007047694
-0.0055619283 -0.021200556 -0.0367744 -0.027861541 0.0042504086 0.0033740427 -0.0043754564 -0.12333494
-0.077649586 -0.0028477437 -0.0011788703 -0.044157203 -0.0046720942 -0.02440834 0.026879407 -0.19299926
-0.00052952894 -0.01761096 -0.00074625725 0.004588688 0.021159135 -0.01738535 -0.012388022 -0.03204199
-0.123934604 -0.007784639 0.077742 -0.0022622165 0.0025621068 0.010671107 -0.000842125 0.1683809
-0.0058181444 -0.0018143598 -0.0040750094 0.013382008 -0.0070873774 0.0517843 0.014044057 -0.066827595
-0.06730216 0.018623844 -0.0041336697 -0.0024365042 -0.0063688806 0.00036443412 -0.0038690355 0.010104678
0.016114917 -0.06493545 -0.0037711146 0.011226303 -0.0035227793 0.002904343 -0.04156433 0.013444996
0.017849278 -0.070596844 0.00043444807 0.064552985 -0.02137783 -0.0069665285 -0.12764001 -0.00017658378
-0.009742689 0.0014053105 -0.002578014 -0.013273937 0.009822137 0.07635959 0.07338627 0.00043153076
-0.04022005 0.069702044 0.0025699504 -0.018910222 0.013175722 -0.0042063026 -0.10846427 0.007907517
0.0013183268 -0.00011044238 0.020922042 -0.0355351 0.09577349 -0.004486826 -0.010806869 -0.0010630869
0.0073463395 0.0068187537 0.030114302 0.0013463992 -0.0189 0.019698048 -0.0019529999 0.032979615
-0.012470806 -0.03560727 0.004692283 -0.011048265 -0.05480579 -0.009785452 0.05027547 0.0053623356
-0.06573997 0.005528786 0.003781667 -0.03134494 -0.0042460505 -0.016159013 -0.00975721 -0.00813193
1.0618095 0.36735457 -0.3133161 0.69518656 -0.031585276 0.12342401 0.12557578 0.002836433
0.09605856 -0.064107455 -0.1418252 -0.9922989 -0.1460989 0.13759875 0.044603325 0.7059668
-0.32899943 0.22967647 -0.19064912 -0.389423 -0.17255619 -0.1964882 0.61432695 0.014092356
0.26460108 -0.6352936 -0.9153551 4.3162365 0.036861602 0.031853832 0.7904913 -0.19251105
-0.025144765 -0.0655745 0.18707605 0.09527681 0.2896913 0.13402668 -0.265437 -0.18674813
-0.11262884 0.41239008 -0.014271186 -0.03614991 0.10968925 0.15332325 0.06550168 -0.33266026
0.1671855 -0.04658165 0.037168458 0.4303126 0.6280996 -0.7349545 -0.037646037 0.20223296

mu.2.bias f4 [5]
00000000: d2d1 c93d 9376 9cbe b04b 13bd 4733 de3b
00000010: 5a3f e5bd
0.09854473 -0.30559215 -0.035960853 0.006781015 -0.11193724

reward_fun.0.weight f4 [200, 6]
00000000: 7681 4cbf bc1c 4fbe 64b7 d2bc e56a 873e
00000010: b1e1 483d ff2f 25be c566 973f 32d7 8c3f
00000020: 5375 29be 8631 2b3f 3aa7 9fbe 4e01 0f40
00000030: c384 37bf 38e8 533e 9547 1440 ea0a e73f
00000040: 308a e73e 4b07 a3bd ad0b dcbf 9e7b d0bf
00000050: 7ff7 2bbe d33d 2bbf 1bf4 3c3f bdf2 3bc0
00000060: 1db7 2540 3bf7 753f 211c 0040 a438 273f
00000070: ee81 19bf 9fdb 043f eba2 a33f 1ed4 9e3f
00000080: e0c6 793f a0c7 493f 41b1 acbd 4c2d 1640
00000090: 687e 9f3f a159 983f 3d01 e93f 8d60 6ac0
000000a0: 6910 32be 4761 25be bb43 24be 9fcb f6be
000000b0: 6a40 2a40 c9c0 3fc0 d679 0bbf d958 973e
000000c0: 6d30 ebbd e85c 2dbc 5364 333d f17b 303e
000000d0: 7e58 4e3c 2fa5 b33e d59f 3fc0 10ff 393f
000000e0: 3251 7d3f bbff 9d3f a1cc ca3e 2777 a63c
000000f0: 83e4 eb3f f158 27bf ae2f 1340 a917 8bbe
00000100: 7cf1 22bd 4ec3 b3be ae6b 0abf db31 ebbf
00000110: 576d 3940 969a 70bd 75b4 4b3f ea74 12bf
00000120: 0565 913c 208d 873c e16e 46be fbc5 1e3f
00000130: d396 633c 474c dabb c871 8abf 7655 76bf
00000140: 1256 2240 968d c23f 1c5f 423e fbc8 aabf
00000150: e1fb 60bf 8955 a9bf 1c3f 77bf 96c5 bf3e
00000160: 7a58 b83e f318 09be 5230 50bf 63d6 083f
00000170: 490e 7c3e 81ca 85bf 82c7 c0be 824f ea3f
00000180: 6b00 1cc0 6a1a 88bf 99ab cbbf a8ee 84bf
00000190: 2e65 673e 8700 d93f 1375 c5bf 2693 bdbf
000001a0: 77a1 ea3f 04fb 13c0 fd2f 99bd 33a5 1cbf
000001b0: 31a8 7dbf 24f1 553e acb2 4cbf f153 0940
000001c0: 4fec 4bbd 4fc6 ec3f 02a9 0440 aef9 583e
000001d0: 2093 8bbf 2583 383c b494 27bf 35b6 8240
000001e0: 1b75 afbf 662f 65bb daba 3c40 827d 1b3d
000001f0: 2bb7 7a3f 7b82 a1bf 103c 14bf ee1d 66bf
00000200: 7e44 a33f b214 1440 19ee c93e 4b9e 16c0
00000210: 93b6 3dbf 0d43 a23f a1ea d5be d8cd 7bbd
00000220: a45c 903d 5670 5240 317a 2440 b468 bc3f
00000230: 3955 db3f ee2e 7e3e 6ad6 e7be a062 e73f
00000240: 07c6 8540 d27d 1bbf 25c0 a93a 8cfa b83f
00000250: 4952 2a3e dd77 e0bf 76d1 57bf 1aa2 a43e
00000260: e62d 5d40 663b 843f b561 633f 4f58 da3e
00000270: c5f7 893c 05d9 e9bf f861 d93f 4461 a93e
00000280: 088c c03e 66b4 33bf 0318 fcbf b2df c2be
00000290: fb24 0740 91c5 7bc0 5d27 de3c 32ee e9be
000002a0: e182 e8bf ad4e 75be 0a18 3c3f 4ce3 98bf
000002b0: 82ee 1bbd 3265 96bf d24b 24c0 fa32 bebf
000002c0: 3354 adbf 71dc 5bbf cf42 84bc 199f a6be
000002d0: dce7 3fbe 06eb d23f b66b d9bf bac0 b8bf
000002e0: df8f 63be 679a ab3e e0f6 0cbf a120 03bf
000002f0: 6965 ee3f f9ec fabd 1b80 36be 8a7b 3fc0
00000300: 8550 513f c56b d63f d3a0 ffbe 392c ca3f
00000310: 378e a7be 2e1f 3a40 888a c0bf 636b 1a40
00000320: 5aa1 0c3e 52c3 bebf 7053 fcbd e4f3 b63f
00000330: 8832 2cbc 30df c3bf 2a18 44bf d9ab 523b
00000340: 9044 833e fcd8 b23e 9a7a 0b3c 87a7 c0bd
00000350: 611f e9bd 7206 e83e e260 893c 95d2 a23c
00000360: 0051 0a40 e2ca 063f 9560 1040 1a3f 163f
00000370: 8931 b0be e1ab a2bd acbc 873e 07a6 fc3d
00000380: c378 a3be 00a1 513e aa3b 3cbc 4b61 413f
00000390: af93 1840 fe0f 84bf 5b62 983f 240a 34be
000003a0: f394 bdbd de24 a43f 851d 4f40 ab86 8d3f
000003b0: 86fa a63f 67ed b53f b4c5 e3bd c4a9 79be
000003c0: 5194 2340 71bb d83f eb4e e93e 6e6a 913f
000003d0: c181 e2be aa72 8f3f 4fb6 00bf 0b49 c5bf
000003e0: 98fa 90bf 715b 4c3f e85e 543e 9140 e4bf
000003f0: 9ae1 2540 555c f73f be0c 91be 5fab 3a3f
-0.7988504 -0.20225805 -0.025722213 0.26448742 0.04904336 -0.1613159 1.1828238 1.1003172
-0.16548662 0.6687244 -0.3118227 2.2344546 -0.71686953 0.20694053 2.316869 1.8050206
0.45222616 -0.079603754 -1.7191063 -1.6287725 -0.16793631 -0.6689121 0.73809975 -2.9366906
2.5893013 0.9608037 2.0017169 0.653208 -0.5996388 0.51897615 1.2784094 1.2408483
0.97569084 0.7882023 -0.08432246 2.3465147 1.2460451 1.1902353 1.8203503 -3.662143
-0.17389072 -0.1615039 -0.16041462 -0.48202226 2.6601815 -2.9961417 -0.5448278 0.29559973
-0.11483846 -0.010581233 0.04379685 0.1723478 0.01259434 0.35086963 -2.9941304 0.7265482
0.9895202 1.2343668 0.39609244 0.020320488 1.8429111 -0.6537009 2.2997851 -0.2716649
-0.03978108 -0.35109943 -0.54070556 -1.837459 2.8972986 -0.058741175 0.7957223 -0.57209647
0.017748365 0.016546786 -0.19378234 0.62020844 0.01389094 -0.006661925 -1.0815973 -0.96224153
2.5365033 1.5199459 0.18981594 -1.3342584 -0.87884337 -1.3229228 -0.9658067 0.37455434
0.36005002 -0.13388424 -0.8132373 0.5345213 0.24614824 -1.0452424 -0.37652212 1.8305514
-2.4375255 -1.0633061 -1.5911742 -1.0385332 0.2259719 1.6953286 -1.5426353 -1.4810531
1.8330525 -2.3121958 -0.07479856 -0.61189574 -0.99084765 0.20892769 -0.7996013 2.1457484
-0.04978591 1.8498019 2.0728154 0.21188995 -1.0904274 0.011261736 -0.6546128 4.084742
-1.3707613 -0.0034970879 2.9489045 0.03796149 0.9793574 -1.2617944 -0.5790415 -0.8988942
1.2755277 2.3137631 0.39439467 -2.3534114 -0.7410671 1.2676712 -0.4178057 -0.061475605
0.0704892 3.2881064 2.569958 1.4719453 1.7135383 0.2482259 -0.45280772 1.8076973
4.1804233 -0.6073886 0.001295094 1.4451461 0.16632952 -1.7536579 -0.8430399 0.32154924
3.4559264 1.0330627 0.88820964 0.426455 0.016841779 -1.8269354 1.6983023 0.3308202
0.37606835 -0.7019714 -1.9694828 -0.3806129 2.111632 -3.9339335 0.02711838 -0.4568954
-1.8164941 -0.23955794 0.7347418 -1.1944366 -0.038069256 -1.1749632 -2.5671277 -1.4859307
-1.354132 -0.8588324 -0.016145138 -0.32543257 -0.18740791 1.6477973 -1.6985996 -1.4433815
-0.22222851 0.33516237 -0.550642 -0.5122166 1.8624698 -0.1225223 -0.17822306 -2.9919152
0.8176349 1.6751639 -0.49927387 1.5794746 -0.3272569 2.908153 -1.5042276 2.4128044
0.13733426 -1.4903357 -0.12320602 1.429318 -0.010510094 -1.5302486 -0.7659937 0.0032145886
0.25638247 0.3493117 0.008513117 -0.09406953 -0.11382938 0.45317417 0.01676983 0.019875804
2.1611938 0.52653325 2.255895 0.58690035 -0.34412792 -0.079429395 0.26511133 0.12336355
-0.3192807 0.20471573 -0.011488834 0.7553908 2.384014 -1.031738 1.1905016 -0.17581993
-0.092569254 1.2823751 3.2361767 1.1056722 1.3045204 1.4213074 -0.11121693 -0.24381167
2.5559275 1.6932203 0.45568022 1.1360605 -0.4423962 1.1206868 -0.5027818 -1.5412916
-1.1326475 0.7982703 0.20739329 -1.7832204 2.5918946 1.9325052 -0.28330034 0.7291774

reward_fun.0.bias f4 [200]
00000000: f3d3 e4bf ef1c ecbf 5ce6 3ac0 e517 53c0
00000010: 427d 87c0 f752 05c0 4a5c 56c0 90ae 2dc0
00000020: ef91 2bbf 3a1e dabf 3136 b3be e038 5cc0
00000030: eafc 59bf 1753 4ac0 51f8 4cc0 ab70 4dbf
00000040: 5908 17c0 5c67 1fc0 e24b 66c0 a6cc 1dc0
00000050: 0ae6 57c0 ae27 01c0 ce03 adbf 4494 57c0
00000060: 5af9 64c0 3883 f3bf 3f60 25c0 f977 04c0
00000070: c702 97bf bb8b 72c0 5bfd 84c0 dcb6 84c0
00000080: e909 0dc0 ac80 fdbf b1c8 5ec0 b82b 47bf
00000090: 0919 62c0 91f9 dbbf 9772 65c0 402a 21c0
000000a0: a6f3 74bf b3f1 25c0 e70e f9bf 2f2f 23c0
000000b0: 78c7 77bf c337 28c0 d825 5bbf 1409 96c0
000000c0: c7b1 b6c0 589a dbbf 7317 5fbf 94d5 93bf
000000d0: cff7 3cbe e648 11c0 fc9a f1bf 0161 fcbe
000000e0: 98e8 75c0 07ba 98bf 6a63 81bf 8361 71c0
000000f0: 87af 15c0 5526 47c0 ad5c 02c0 c168 10bf
00000100: 5552 63c0 de98 76bf 4b5a 88c0 c3c4 43c0
00000110: 409e bc3e ea89 a7bf 91e4 80bf 1ce5 70bf
00000120: 3ecc 38c0 8108 51c0 a701 4bc0 3c8d f6bf
00000130: a488 64c0 be08 4cc0 7fcb 16c0 1745 4bc0
00000140: de59 fdbf 1a00 5ebf 3062 82c0 82eb 71c0
00000150: 0ab8 abbf 37a7 3abf 8c1b a2bf e0b5 68c0
00000160: 3cfd 51c0 8c5e 3fbf 2a7c 82c0 5a02 18c0
00000170: 232a 5ec0 411f 10c0 a46a bebf be55 6dc0
00000180: c00e 0ebf 50cf 54c0 8bfa 1cc0 7b95 ccbe
00000190: 7ed1 0fc0 9f80 b53f d0bf 54c0 0a8a 5dc0
000001a0: dfa3 15c0 1810 40c0 c691 78bf 36a1 45c0
000001b0: 956a 4fc0 473e 82bf 723d 1fc0 4b68 0fbf
000001c0: 1a56 4ebf ae27 9ec0 480a 0cc0 2609 1bc0
000001d0: 6c74 5bc0 d89e ffbf c415 07c0 4d1e 13c0
000001e0: 4244 313e 9c35 33bf e1d9 40bf 570d 20c0
000001f0: abca 65c0 26b2 77c0 4259 6fc0 c063 47c0
00000200: 5312 e4bf c510 ccbf b7ca c6bf 3bba 86c0
00000210: 5351 e2be 9bf7 55c0 ee58 6fc0 33d9 3fc0
00000220: 9512 92c0 6be0 31c0 1cd6 3fc0 192c 2fc0
00000230: 051f 29bf a5ad 83bf bd7f 8fc0 929a babf
00000240: 05ef 07c0 ffd4 29c0 9a8e 65c0 2aac 85c0
00000250: c5ab 04c0 f223 8ec0 c327 dabf 51dc 65c0
00000260: ca24 0ec0 238e 08bf ee02 3dc0 195a 56c0
00000270: 3f45 5ac0 54f3 c1bf 2dcb 22c0 046b 4ac0
00000280: 94dc cebf d85a 91c0 1180 59c0 4a07 2fbe
00000290: fe6d 8bc0 2086 88c0 3d7c 92c0 cb7c c4bf
000002a0: f788 48c0 bcc7 a2bf fc8b 42c0 cb6e abbf
000002b0: 0300 81bf 5581 6ec0 543b 97c0 3baa e6bd
000002c0: 75ee 85c0 fcc4 95bf aab8 01c0 ebd5 3cbf
000002d0: 7833 39bf 0d2c 71bf e5f8 24bf 362a 02c0
000002e0: 4380 77c0 3dfd fdbf 20f8 65c0 a255 35c0
000002f0: 1608 e6bf 5e81 5ec0 2966 a4bf 195d 35c0
00000300: bb6d 6fc0 09a8 2dbe d155 18c0 e93d a8c0
00000310: 52d5 92bf dafd 7fc0 e79e 8bbf e920 49c0
-1.7877182 -1.844633 -2.92031 -3.2983334 -4.2340403 -2.0831888 -3.3493829 -2.7137794
-0.6701955 -1.7040474 -0.35002282 -3.4409714 -0.8515154 -3.1613214 -3.202656 -0.8025004
-2.3598845 -2.4906836 -3.5983815 -2.4656157 -3.3734155 -2.0180469 -1.3516786 -3.3684244
-3.5777192 -1.902442 -2.5839994 -2.0698225 -1.1797723 -3.7897785 -4.155927 -4.1473217
-2.2037299 -1.9804893 -3.4809992 -0.77801085 -3.532778 -1.7185537 -3.585119 -2.5182037
-0.9568428 -2.5928771 -1.9457673 -2.5497549 -0.9678874 -2.6284034 -0.8560462 -4.688608
-5.7092013 -1.7156477 -0.87145156 -1.1549554 -0.18453906 -2.2700744 -1.8875422 -0.49292758
-3.8423214 -1.1931771 -1.0108464 -3.7715766 -2.3388383 -3.1117146 -2.0369065 -0.5640984
-3.5519001 -0.96327007 -4.261022 -3.0588844 0.36839485 -1.3088963 -1.0069753 -0.94099593
-2.887466 -3.266144 -3.1719759 -1.9261851 -3.57084 -3.1880336 -2.3561704 -3.176092
-1.979305 -0.86718905 -4.074486 -3.7799993 -1.3415539 -0.729114 -1.2664657 -3.6361008
-3.2810812 -0.7475364 -4.0776567 -2.3751435 -3.4713218 -2.2519076 -1.4876294 -3.7083583
-0.55491257 -3.3251534 -2.452792 -0.39957795 -2.2471614 1.4179877 -3.3242073 -3.4615502
-2.338127 -3.0009823 -0.9709743 -3.0879645 -3.2408803 -1.0175256 -2.4881253 -0.56018513
-0.8060013 -4.9423437 -2.1881275 -2.4224334 -3.4289808 -1.997035 -2.1107035 -2.2987244
0.17311195 -0.70003676 -0.75332457 -2.5008142 -3.5904949 -3.8702483 -3.7398229 -3.1154633
-1.7818092 -1.5942618 -1.5530614 -4.210233 -0.4420267 -3.3432376 -3.7398028 -2.9976318
-4.5647683 -2.7793224 -2.9974432 -2.7370665 -0.6606296 -1.0287367 -4.484343 -1.4578421
-2.1239636 -2.6536252 -3.5868287 -4.177266 -2.072984 -4.441888 -1.7043384 -3.591572
-2.2209954 -0.53341883 -2.9533038 -3.3492491 -3.4104764 -1.5152383 -2.5436509 -3.1627817
-1.6161065 -4.5423393 -3.3984416 -0.17092624 -4.357177 -4.2663727 -4.577666 -1.5350584
-3.1333597 -1.2717204 -3.039794 -1.3393186 -1.0078129 -3.7266438 -4.725992 -0.11262938
-4.1853585 -1.170074 -2.026896 -0.7376391 -0.7234416 -0.9420784 -0.6444228 -2.0338264
-3.8672035 -1.9842907 -3.5932693 -2.8333516 -1.7971218 -3.476646 -1.2843677 -2.8338072
-3.7410724 -0.16958632 -2.3802378 -5.2575574 -1.147135 -3.9998689 -1.0907868 -3.1426337

reward_fun.2.weight f4 [200, 200]
00000000: b573 26bc 3df9 cdbb 3415 523d abb1 8ebc
00000010: 4e6c 643d 9c21 48be e8fc 1fbe 5340 a5bd
00000020: d8f0 8d3d 07f8 eb3b 9795 ffbd 6e60 32be
00000030: 4c1c 7abe d4a5 32be 25a9 7e3c 95eb ff3d
00000040: 1586 d4be 0df3 91be 0a5f 1cbe e2e1 a8be
00000050: b725 09be 5c35 7fbe 01cd 05bf 9dbf e9be
00000060: a8ef c0bb 2fb4 fabd e3e1 70bc 84e9 e0bd
00000070: cfbc a5be c4a7 57bd 475e 85bd 5cb9 00be
00000080: ba7c bdbe 9fb7 ccbd 59f9 c8bd f694 41be
00000090: 9c58 52be 5148 ebbd d9a5 fdbd 5206 26be
000000a0: d0b7 dcbd 1b65 69be 51ed 4ebe 9f30 92be
000000b0: 2674 923c d4c3 d7bd e7cd 3fbd 17c8 513e
000000c0: c988 4bbc 4b66 2ebe 5639 6f3d 6fc9 893d
000000d0: f2b6 89be 3aec e6bd 8fc0 2cbe 0d43 dabe
000000e0: 876a abbb 4158 b3be 6f75 0a3e 758a b6bd
000000f0: 06cc 75be 0b98 c43b 9e23 15bd 19b1 b03d
00000100: 2a98 1c3e ccd3 efbd 48ad 2d3c b0e7 4b3e
00000110: 6c31 9abd ba38 6bbe 9f0d 8dbe 87e5 14be
00000120: 55ed 72bd 3400 16be fac2 e4be 44e9 16be
00000130: b19c 26be 4375 1d3e b825 9ebc 8f79 01be
00000140: e1bf e9bd 7913 5ebd f145 24be ecd1 a13c
00000150: ef37 afbd 2560 953d faf5 87be 7a17 6ebd
00000160: 94b8 bf3d 7a7c 2abe 7a28 7cbd 020e 04bd
00000170: 62d4 96be c0fc a8bd e7b5 4dbe df6a adbe
00000180: 3112 b73b 6d53 10bf abee f2bd f962 febc
00000190: 6ef7 b7bc ee62 76be 81ef a7bd 0929 fdbe
000001a0: 8c70 48bd 6a8a 36be 7736 57be 8e49 6b3e
000001b0: 0f74 bdbe 8301 18be 8e7e 1abf 05bf c03d
000001c0: 391c 2cbe 2fab 8d3b 79f4 10be 23b0 7c3d
000001d0: f5d8 203e ab50 31bf 1a05 3cbe 2191 9fbd
000001e0: c212 ac3c db33 ed39 775e 5e3c 205d 9b3e
000001f0: d911 853d 4726 40be cec7 ba3c 923c 833c
00000200: 486d 6ebd e2b4 06be f591 8e3c 1d5f a93c
00000210: 184c c7bd 8e18 aebe 91bb 34be e18b 91be
00000220: 7040 f4be bfb4 0ebe 9a55 3bbd 3b44 10be
00000230: 0c63 4fbd 2a25 4fbd d037 d0bd bec5 f1bd
00000240: 08ad 33be a0af 67be 74fd babd 9ab2 71bd
00000250: 15fb 433d 6b5e 00bf 23a7 dabd f1fc b0be
00000260: f407 12bf 64b5 c3bd f503 853d 4958 24be
00000270: cc0b d0bc 3605 54bc 844d 363d c92f 3fbe
00000280: 2499 49bc 6e3f dd3e 28c8 76bd 1782 8bbe
00000290: 99b8 ae3b cd20 9fbd cb7b 873e 3f97 87bd
000002a0: cd4b b53d 8726 bbbd 9f64 dabd ea7c 35bd
000002b0: 03a6 dbbe 0a72 ddbd 7ede 4f3d eca1 a6be
000002c0: 9a9e 91bd d2cf b2bd c2a4 99be e60e bbbd
000002d0: 3726 ffbd c87d 993c 2595 5fbd f498 68bc
000002e0: a474 17bf 3f7c 34bf bb6d 87bd 11c5 5abe
000002f0: 4ee9 1ebe 5a6e f6bd 7f13 62bd 0434 08be
00000300: 54f2 6b3c f403 02be cf21 d7be 86bd 84bd
00000310: e59b 7f3c 1d8d 343d d4df a6bd e94f 11bd
00000320: ba5c 993e 9fa8 4f3f 845c 4d3e a44b 1040
00000330: cd25 e1bf 3f9c a1bf bc66 b2be 8bd0 903d
00000340: 00dc 46bf 86c2 f73e 3511 86bf a39f 823f
00000350: 3120 f1bd 41af fabf 52d5 6fbe a0ba 1ebf
00000360: 6bea 37bf ee4d 0ac0 6ac9 403f ef82 973f
00000370: bef0 ad3f f8a3 7f3d 0619 d33e 930f bcbf
00000380: d0bb d2bf b355 2c3e 4a62 fd3e dca7 f13e
00000390: c639 17c1 67ce b0bf fcb6 88bf 66b5 3440
000003a0: f204 033e 432b 843f df75 b5bf 07ca 73bf
000003b0: 55be 443f 47c5 86bf 5fe9 0540 a954 303f
000003c0: e900 13bf efba 9dbf f87c d0be ccd4 63c0
000003d0: 371e 02bc 5a66 11bf 18db 90bc 8d5c 09bf
000003e0: 47d6 5f3f 25f8 b43f 64a1 d1bf 48b3 6d3a
000003f0: 47b1 b13f e235 97bd 4a4b 4fbe 7164 08c0
-0.010159423 -0.006285815 0.051289752 -0.017418703 0.05576735 -0.19544071 -0.1562382 -0.080689095
0.06930703 0.007201198 -0.12479704 -0.17419598 -0.24424857 -0.17446071 0.015543257 0.124961056
-0.41508546 -0.28505746 -0.1527063 -0.32984835 -0.13393293 -0.24922699 -0.52265936 -0.45654002
-0.0058879443 -0.122413985 -0.014702293 -0.109820396 -0.32370612 -0.05265023 -0.065121226 -0.12570709
-0.3700922 -0.099959604 -0.09813184 -0.1890448 -0.20541614 -0.11488403 -0.123851486 -0.16213349
-0.10777247 -0.22792475 -0.20207717 -0.2855272 0.01787765 -0.10535398 -0.046827223 0.20486484
-0.012422749 -0.17031209 0.05840429 0.067278735 -0.2689739 -0.112755254 -0.1687033 -0.4262928
-0.005231205 -0.3502827 0.1352136 -0.08913127 -0.2400361 0.0059995702 -0.03641092 0.08627529
0.15292421 -0.11710319 0.0106003955 0.199126 -0.07528958 -0.22970858 -0.27549455 -0.14540683
-0.05930837 -0.14648515 -0.44680005 -0.14737421 -0.1627071 0.15376763 -0.019305095 -0.12644027
-0.11413551 -0.05421779 -0.16042306 0.019753419 -0.0855559 0.07293729 -0.26554853 -0.058127858
0.09361377 -0.16649047 -0.06156204 -0.03223992 -0.2945891 -0.08251333 -0.20088921 -0.338706
0.0055868854 -0.563773 -0.118619286 -0.031053053 -0.02245685 -0.24061176 -0.081999786 -0.4944537
-0.048935458 -0.17826238 -0.2101687 0.22977278 -0.37002608 -0.14844327 -0.6034936 0.09411434
-0.16807641 0.004323385 -0.14155759 0.061691415 0.15707763 -0.69263715 -0.18361321 -0.07791353
0.021005038 0.00045242798 0.013572327 0.30344486 0.06497545 -0.18764602 0.022800352 0.016020093
-0.058209687 -0.13154939 0.017403582 0.020675236 -0.097313106 -0.3400311 -0.17649676 -0.28427032
-0.47705412 -0.13936137 -0.045735933 -0.14088528 -0.050631568 -0.05057255 -0.101668954 -0.118052945
-0.17546475 -0.2262559 -0.091303736 -0.05900822 0.047846872 -0.5014407 -0.1067641 -0.3456798
-0.57043386 -0.09556082 0.06494895 -0.16049303 -0.02539625 -0.0129406955 0.04450752 -0.18670572
-0.012304578 0.43212456 -0.060249478 -0.27247688 0.0053320643 -0.07769928 0.26461634 -0.06620645
0.088523485 -0.09138208 -0.10663723 -0.04430858 -0.42900094 -0.10812767 0.050749294 -0.32545412
-0.07110329 -0.08731045 -0.30008513 -0.09133701 -0.12458461 0.018736735 -0.054585595 -0.014196623
-0.59162354 -0.70502084 -0.06612726 -0.21364237 -0.15518686 -0.12032767 -0.055194374 -0.13301092
0.014401037 -0.1269682 -0.4201798 -0.06481461 0.015601133 0.04407989 -0.081481606 -0.0354766
0.29953557 0.8111667 0.20054823 2.2546167 -1.7589661 -1.2625808 -0.34844005 0.070710264
-0.77679443 0.48390597 -1.0474001 1.0204967 -0.11773718 -1.9584733 -0.23421219 -0.6200352
-0.7184207 -2.1610065 0.75307333 1.1836833 1.3589094 0.062412232 0.4123003 -1.4692253
-1.6463566 0.16829567 0.4948905 0.4719838 -9.451605 -1.3812989 -1.0680842 2.8235717
0.12794855 1.0325702 -1.4176596 -0.95230144 0.76852924 -1.0528954 2.0923688 0.6887918
-0.57423264 -1.2322673 -0.40720344 -3.559863 -0.007941774 -0.567968 -0.017682597 -0.53656846
0.87436336 1.4138228 -1.6377378 0.00090675475 1.3882226 -0.07383324 -0.20243564 -2.1311305

reward_fun.2.bias f4 [200]
00000000: 7bdf 05be 0aa7 dcbe 7c92 27bf 5e18 383c
00000010: da67 16be a853 7bbf d6fd cfbd f6a7 e1bd
00000020: eb51 a2be ff15 75be 1d75 b8be 4c10 5abe
00000030: 786f 543d f38e 93be ccd2 c8be 6982 af40
00000040: 39e6 e1bd a7e9 a5be 79ff 85bd 99e7 1ebe
00000050: ccc1 14be 7bdd 88be 8fad f2bc b079 85be
00000060: a2bc 4abf c669 d3be 7a53 c2bd b0c6 bbbd
00000070: aa93 0dbe 55e0 0bbf f14e b5be 51a8 1040
00000080: 06df d3be aaf7 a0bd b919 2c3f a7f2 5e3f
00000090: df00 4240 766f a4be 81f8 1abe b404 17be
000000a0: a05c d7be 564c efbd 2d92 bcbe 6041 1dbe
000000b0: 21f9 b03e 1b49 51bd f7f3 0abe 20c1 83bd
000000c0: 6367 53be 0a2c 8c3f f110 8c3f 5a93 3440
000000d0: 551a 8cbe b116 88be b10d a0bc c6e7 743f
000000e0: 0d21 8ebd a3a3 df3f 45d5 a6bd 8674 2b3f
000000f0: d6b2 55be 4331 36be 6898 15be 7b70 c5be
00000100: c002 7abe 57b2 3abf d4a9 51be 4f46 8bbd
00000110: 7915 84bf 21de 59be 85d8 e5be e3df f2bd
00000120: 6006 e0bd bc54 99bc 4a7e 1340 7318 adbd
00000130: 0d6f efbe 2e44 91be ea38 43be 6612 42be
00000140: ceff 11be 85db c8be e5c2 3cbe 1b81 32bf
00000150: 3924 babd 9d07 7abe 4376 d53f e69c 04be
00000160: bb4b 96bd 4810 2440 52d9 bfbb da51 1dbf
00000170: 15ab febc 75a8 29be 100f f1bd bc9b 0fbe
00000180: 7f13 16bf 73ac bdbe fdc1 19be 41c5 83bd
00000190: 0f4c f4bd 0586 6b3c 21b2 babd 446e f5bd
000001a0: 7414 243e 791c debd 8ea7 823f 1dc8 fd3c
000001b0: 61db 6cbe 0d56 3e40 5411 1fbe 80a4 27bf
000001c0: da98 c5bd c5bf 21bf 0565 cabd 307f 8fbe
000001d0: 0c95 02be f55c 06be 89cf 883f 921e acbe
000001e0: 58a2 e5be 19d3 fcbd cd5c 39bf b708 bdbd
000001f0: 168f 13be 0e88 71bd f156 9ebd a623 dcbd
00000200: b4f5 69bd 05bc 17be e56f 89bc c3db 09c0
00000210: a64c c7bd 65ef aebe f2e8 b53e 916b 04bd
00000220: d555 afbe fff7 30bd 3654 7dbe fc85 9fbe
00000230: 362f ddbd f401 a43f 1865 5c40 f353 28bf
00000240: bb7e ad3d e0bb 6d3e 62a8 dcbe d015 1a3d
00000250: d6a3 33bf 00b4 523d 18cf 17bd 3ab0 a7be
00000260: c53e a3bc 7c45 1dbe 5c03 1abf 1bcd 0f3e
00000270: 67b8 d5be 5059 243e cbb0 a5bc e024 6f40
00000280: bd5a c0be 3972 8ebe c0d2 c0bd 94a9 f8bd
00000290: b670 d2be 82da c9be f41a ccbf c15a 90be
000002a0: ad7a 87be cc8e 07bf db89 57be ad12 c5bf
000002b0: bb36 adbd 2bfb dc3e e223 40bf 5eaf ebbd
000002c0: f08f e2bd 67aa 4740 e351 84bd 1d86 90bf
000002d0: 48d8 80bd 5766 003d 6e03 3640 7e37 b2bd
000002e0: 8266 25bd ab85 4840 15d5 82bf b1de b2bd
000002f0: 1768 7fbf 6df2 0abe 5980 01c0 de16 2440
00000300: bc48 c6be 982e 0dbe 2383 88be e837 0940
00000310: 533f 75be 37cb a1bd c61e dfbe c8f6 94be
-0.13073532 -0.4309619 -0.6545789 0.011236278 -0.14688054 -0.98174524 -0.10155837 -0.11018364
-0.31703123 -0.23934172 -0.3602685 -0.2129528 0.051864117 -0.2882 -0.39223325 5.484669
-0.110302396 -0.32404825 -0.06542868 -0.15518035 -0.14527053 -0.26731476 -0.029623775 -0.26069403
-0.7919408 -0.41291636 -0.09488578 -0.09168756 -0.1382586 -0.5463918 -0.3541179 2.2602732
-0.4138109 -0.07859738 0.6722675 0.8708901 3.0313032 -0.32116288 -0.15133859 -0.14747888
-0.42062855 -0.11684482 -0.36830273 -0.1535697 0.3456507 -0.05109511 -0.13569628 -0.0643332
-0.20644908 1.095094 1.094267 2.8214936 -0.2736384 -0.26579812 -0.019537779 0.9566616
-0.06939898 1.7471813 -0.08146147 0.66974676 -0.20869002 -0.1779223 -0.1460892 -0.38562378
-0.24415112 -0.72928375 -0.2047494 -0.0680052 -1.0319053 -0.21276142 -0.44891754 -0.11859109
-0.10938716 -0.018717162 2.304583 -0.08451929 -0.46764413 -0.2837233 -0.1906468 -0.18952331
-0.14257738 -0.3922998 -0.18433721 -0.6972825 -0.0908894 -0.24416967 1.6676716 -0.12950477
-0.07338663 2.5634937 -0.005854764 -0.6145302 -0.031087438 -0.16568168 -0.11770451 -0.14024252
-0.586235 -0.3704563 -0.15015407 -0.064341076 -0.119285695 0.014375214 -0.09116007 -0.11983922
0.16023427 -0.108452745 1.0207384 0.03097921 -0.23130561 2.9740021 -0.15533954 -0.6548538
-0.09648295 -0.6318324 -0.09882549 -0.28026724 -0.1275217 -0.13121398 1.0688335 -0.33617073
-0.4485042 -0.12344951 -0.7240723 -0.09230178 -0.14410052 -0.058967642 -0.077314265 -0.10748987
-0.057119086 -0.14817818 -0.016776988 -2.1540382 -0.097314164 -0.3416702 0.35529286 -0.032329146
-0.34245172 -0.043205258 -0.24739155 -0.3115691 -0.108000204 1.2813096 3.4436703 -0.65753096
0.084714375 0.232162 -0.43097216 0.03761846 -0.7017187 0.051441193 -0.037062734 -0.32751638
-0.019927392 -0.15358537 -0.60161376 0.14043085 -0.4174225 0.16049695 -0.020225903 3.7366257
-0.37569228 -0.2782152 -0.09415197 -0.121417195 -0.41101617 -0.3942452 -1.5945725 -0.2819424
-0.26460782 -0.52952266 -0.21048681 -1.5396324 -0.08457705 0.43160376 -0.7505475 -0.11508058
-0.1106261 3.1197755 -0.06460931 -1.1290928 -0.062912524 0.0313476 2.8439593 -0.087019905
-0.040380962 3.1331584 -1.0221277 -0.08733881 -0.99768203 -0.1356904 -2.0234587 2.5638957
-0.38727367 -0.13787305 -0.2666255 2.1440372 -0.23949938 -0.07900088 -0.43578166 -0.2909453

reward_fun.4.weight f4 [1, 200]
00000000: 7df4 9c3d 7895 6e3d ddb7 cc3d af24 293d
00000010: 9928 70bd 7416 463f 0366 b43d fade 823d
00000020: 0be8 bf3c 96f8 bd3d c2ea 70bd 9195 26bc
00000030: f10d 1cbf 32f0 433d 83bb 903b 1710 463e
00000040: c445 223e a466 223c 0baf d9bb 92c0 abbc
00000050: b1ed cbbb d399 00bd 3dac 5d3d a4c5 a13c
00000060: 7b4d e6bc b5d0 b23c 3518 823b 0a0e 293c
00000070: 2b5f 6c3c 505c 753c 645f 0a3d 8143 61be
00000080: 0ad0 973b 6b6a d6be f2d4 28bf c54b c3be
00000090: f5ef babe 65e1 5fbd 3ca2 a83d fa35 073d
000000a0: fdcb dcbc 0c4d c03c 0010 3c3c 90b1 f23c
000000b0: 789f ca3d 846c 9e3d bc65 a03d 91ca 793d
000000c0: c0b0 75bd 54e7 5dbf afbe 69be 045d f6be
000000d0: 6a65 1d3d 0685 a83c b105 0f3d 2df1 39be
000000e0: ee4e c03d 9121 7f3e 08b2 50bc db3c d8be
000000f0: 5a83 e8bd 1657 a3bc 6d54 abbd 75ff 3abd
00000100: 1640 a3bc ac93 7a3d c3dd f03c 2336 de3c
00000110: abce cabb b019 933d bcbf 943d d0ca 363d
00000120: 9127 ab3b b371 8cbd 30c1 7dbe ad79 453c
00000130: e647 903d 89d7 4c3d c4c6 e43b 2ef0 4d3c
00000140: 0167 8cbd 45c5 10bd a5c5 91bd fddb b1bd
00000150: 8d92 2d3d 3655 47bd b751 b0be 1fb9 a93d
00000160: 4390 8d3d 5bf9 55be ec86 e7ba af22 95bc
00000170: b51b 923e 6de3 203d 2ae3 1f3b d57a b9bd
00000180: 9393 253d 33aa 673e bfaf b7bd 0c74 6ebd
00000190: 082a 5bbd 094b b53d bdbf 133d 3e11 b53d
000001a0: b568 3d3e 13af 1dbd 44a5 92be c69c ce3b
000001b0: f762 c13d e2e2 94be 1caf 84bd d306 03bf
000001c0: 0f72 b33c fe69 87bd 1800 943d 3f7f 13bd
000001d0: be3e af3d aed1 32bc 2b06 19bf 54a9 0fbc
000001e0: e28a 86bd 39dd 1cbd 33f2 593b 0a10 0ebd
000001f0: 6f7b a83d c536 81bd 7038 863c 8f96 1abd
00000200: 8c8b cebd c44f 8bbb 3f31 acbb a68e ca3e
00000210: 9371 8e3d a539 97bd fbbe 0cbf 9cbd 2d3d
00000220: 37e8 0ebd ecd7 753c 05c9 193c e57b 3cbc
00000230: 2062 bfbd 62ea 1f3f fc94 0a3e fe26 ca3a
00000240: 5a47 88bc 4db1 a9be 30b6 d4be 1b99 443c
00000250: f31d 56bd 773f e43c 79ff 77bb 0222 33bd
00000260: 0891 91bd 5b2d 71bd 0db7 023d 75dd d43e
00000270: 9c11 013c 0416 883e 824f ab3d 9ea8 09bf
00000280: 719a 29bd af21 993d 5797 163c ec17 b53b
00000290: b699 af3d efe0 1ebd 0f6e 963d 0de9 a0bd
000002a0: abad 233d 1880 fdbc df75 8e3e 7265 f53d
000002b0: 3583 473c e71a 9bbf f45b afbd 12e5 933d
000002c0: 333f d43c 96fa 12bf acc6 d2bb b176 1cbe
000002d0: 45ae a93d 38b3 2f3b efee 333e ef09 973c
000002e0: 5948 183c bf93 7bbe 0565 803d 64d7 97bb
000002f0: d869 38bd ab6d 693d fa2f 43be 66d2 1f3e
00000300: 86ff c3bd b22f ffbc 17bc d1bc 0ee5 c9be
00000310: 92d9 373d 08db 86bd d68f ee3c a252 b23c
0.0766382 0.058248013 0.09996007 0.04129475 -0.058632467 0.7737801 0.0880852 0.06390186
0.023426076 0.0927593 -0.058817632 -0.010167495 -0.6095877 0.04783649 0.0044168844 0.19342075
0.15846926 0.009912167 -0.006643181 -0.020965848 -0.0062234034 -0.0313967 0.054119337 0.019747563
-0.028113117 0.021828035 0.003970171 0.010318289 0.014426987 0.014975622 0.033782378 -0.21998407
0.0046329545 -0.41878065 -0.6594993 -0.38143745 -0.36511198 -0.054658312 0.08234069 0.03301046
-0.026952738 0.023474239 0.011478424 0.029625684 0.098936975 0.077355415 0.07831904 0.060984198
-0.059983015 -0.86681104 -0.22826646 -0.4811784 0.038426794 0.020571243 0.034917537 -0.18158408
0.09390055 0.24915148 -0.012737758 -0.4223393 -0.11353178 -0.019938987 -0.08365712 -0.04565378
-0.01992802 0.061175987 0.02940262 0.027125424 -0.0061891875 0.07182634 0.07263133 0.04462701
0.0052232225 -0.06857624 -0.24780726 0.012052936 0.070449635 0.050010238 0.0069817025 0.01256947
-0.06855584 -0.03534438 -0.07117776 -0.086845376 0.04237609 -0.048665248 -0.34437343 0.08287262
0.06912281 -0.20895903 -0.0017664111 -0.018205015 0.28536764 0.03927939 0.0024396875 -0.090566315
0.04042394 0.2262352 -0.08969068 -0.05821614 -0.05350688 0.088522024 0.036071528 0.08841179
0.18496974 -0.038497042 -0.28641713 0.00630531 0.09442704 -0.29079348 -0.06478712 -0.5118229
0.021904973 -0.06612013 0.072265804 -0.036010023 0.08556889 -0.010914249 -0.59775037 -0.008768398
-0.065694585 -0.038296912 0.0033255934 -0.034683265 0.08226668 -0.063092746 0.016384333 -0.03774124
-0.1008521 -0.004251452 -0.005254894 0.39561957 0.06955256 -0.07384042 -0.54978913 0.042417154
-0.034889426 0.015005093 0.009386306 -0.011504148 -0.09344888 0.62467015 0.13533396 0.0015422998
-0.016635586 -0.33143082 -0.41545248 0.011999394 -0.052274656 0.027862294 -0.0037841483 -0.043733604
-0.07107741 -0.058881145 0.031912852 0.41575208 0.007877734 0.26579297 0.08364774 -0.53772914
-0.041407052 0.07477128 0.009191356 0.0055265334 0.0857424 -0.038788732 0.07345211 -0.07856951
0.039960545 -0.030944869 0.27824304 0.1198224 0.012177278 -1.2117585 -0.085624605 0.07221426
0.025909042 -0.57413614 -0.006432375 -0.15279652 0.082851924 0.0026809704 0.17571615 0.018437354
0.009294593 -0.2456808 0.06269268 -0.004633831 -0.045022815 0.056989353 -0.1906127 0.15607604
-0.095702216 -0.031150673 -0.025602384 -0.39432567 0.044885226 -0.06584746 0.02912132 0.021767918
