data/hlt_deter/InvertedPendulumRoboschoolEnv/seed_913/model_40000.pt (torch, 180560 bytes, 10 tensors)

log_std f4 [1, 5]
-5.531046 -2.4436038 -4.71019 -4.6681356 -1.8071008
00000000: 54fe b0c0 0164 1cc0 e0b9 96c0 5e61 95c0
00000010: 144f e7bf

mu.0.weight f4 [200, 6]
-0.033272132 -0.023655055 -0.18797734 1.2130843 0.06269314 0.106813595 0.03688145 -0.031164331
-1.2591543 0.6282616 0.10614645 0.022104347 -0.008541993 -0.05413354 -0.18956389 0.95736927
0.055108603 0.13479602 0.17917204 0.006909656 0.312308 0.017779494 0.012847584 0.05348623
0.083396584 -0.1020575 -0.098190434 -0.043829367 0.013452292 0.056111228 -1.0268509 -0.20210333
0.09141348 0.18471071 0.013079844 -0.21112782 -0.00021307757 0.17240147 0.052118577 0.037845537
0.0030402017 -0.41357434 0.056916356 0.017515175 -0.83988714 -0.3847349 -0.022128586 -0.30562568
0.036344152 -0.15335321 0.045341752 -0.15682405 -0.0017768894 0.11750448 0.31006637 0.006369534
-0.03709682 -0.0071434197 -0.016952131 -0.080684006 0.08732281 0.010303603 0.368784 -1.451282
0.10150671 -0.06400172 0.11691197 0.08777706 0.97076917 0.14928468 0.12683052 0.16343364
-0.14982787 0.12847677 -0.10384592 0.046454124 0.0052204947 -0.08056049 0.083974615 0.053781766
-0.0024512175 0.90229243 0.0664253 -0.03298367 -0.055251762 -0.059606332 -0.26055658 -0.7915277
0.1398917 -0.04140603 0.011817179 -0.008219242 -0.59819156 0.30785325 0.0040858076 0.29061693
-0.12293796 0.016323755 0.033062294 0.08607202 0.0010586284 0.016298985 -0.030570038 -0.09392951
0.002632918 -0.10283115 0.010061077 0.15842058 0.53674316 0.06765541 -0.0912902 -0.09574389
-0.005251678 0.012719624 -0.0071390807 -0.004067449 -1.0178996 0.09096594 -0.13472216 -0.08111845
0.096454255 0.027790673 -0.19748643 0.086655304 0.0011126404 0.11100873 -0.013045039 0.011407566
-0.78751385 0.76799685 0.07693014 -0.018496517 0.08096838 0.07330524 -0.048512507 0.093202874
-0.0039256895 -0.028618341 0.05636826 0.012125482 -0.1319269 0.17337456 0.0007652937 -0.024688449
-0.32584032 0.0062864805 0.53148407 0.07885376 -0.009962358 -0.07586702 -0.23200698 -0.070923045
0.6230109 -0.14469911 -0.03319165 0.0014498227 0.44040808 0.30344355 -0.29680434 0.25519183
0.011968521 -0.10419168 0.0070541846 -0.009005067 -0.7180677 0.021400547 -0.062661864 -0.036683664
0.08232204 0.045452986 -0.18940043 -0.033325866 0.0138031095 -0.11026889 0.23397943 -0.008390164
0.4408475 -0.038272172 0.008864494 0.10547675 1.1123801 0.04302214 -0.0990427 -0.016260413
-0.0040091993 0.009106865 0.014000933 0.10234399 -0.3892236 0.07947359 -0.01794348 0.26099092
0.14475296 0.0718024 0.18650016 0.097583346 -0.013125192 -0.1550613 -0.03328578 -0.018845128
-0.4353591 -1.1827078 -0.0028975878 -0.26365992 -0.006164777 0.004709867 -0.1675402 1.2605537
0.0827681 0.24702698 0.006993907 0.039098866 0.8336175 -0.683519 -0.13809922 -0.07531287
-3.380488 -0.23752691 0.019156972 -0.1260548 0.007926928 -0.07233289 -0.006871306 0.63698494
-0.0015105531 -0.056952175 -0.00471106 0.18948005 -0.86739933 -0.124025136 -0.08842158 -0.23849137
-0.019583797 0.14174755 -0.0043413932 0.0025721507 0.52635497 -0.7858453 -0.0683954 0.054573823
-0.0071198465 -0.018912401 -0.80436414 1.5817375 0.08735269 -0.027792415 -0.03757794 -0.0218558
0.107672706 -0.0037298016 -0.02098449 0.03912888 -0.102918245 -0.0008152081 1.128191 -0.037530728
00000000: 5c48 08bd 3fc8 c1bc 227d 40be 5946 9b3f
00000010: 4365 803d 16c1 da3d 0111 173d 574c ffbc
00000020: f82b a1bf c1d5 203f 4f63 d93d 2d14 b53c
00000030: b7f3 0bbc 21bb 5dbd 091d 42be 2716 753f
00000040: 8fb9 613d f807 0a3e e078 373e 656a e23b
00000050: d6e6 9f3e 4da6 913c ac7e 523c 6114 5b3d
00000060: d4cb aa3d 8603 d1bd 1118 c9bd 6c86 33bd
00000070: 0167 5c3c e3d4 653d da6f 83bf 2df4 4ebe
00000080: fe36 bb3d ce24 3d3e d84c 563c e431 58be
00000090: 936d 5fb9 038a 303e 4a7a 553d ec03 1b3d
000000a0: 1f3e 473b 04c0 d3be 2021 693d fc7b 8f3c
000000b0: d802 57bf f9fb c4be 0247 b5bc f87a 9cbe
000000c0: 9bdd 143d a008 1dbe 46b8 393d 7c96 20be
000000d0: 84e6 e8ba 30a6 f03d 05c1 9e3e 86b7 d03b
000000e0: d6f2 17bd 5913 eabb 32df 8abc a83d a5bd
000000f0: 4dd6 b23d 71d0 283c 42d1 bc3e 9cc3 b9bf
00000100: c0e2 cf3d 5513 83bd 8b6f ef3d 76c4 b33d
00000110: 5484 783f 15de 183e dcdf 013e 265b 273e
00000120: 7a6c 19be 6a8f 033e 2bad d4bd ae46 3e3d
00000130: af10 ab3b e6fc a4bd e2fa ab3d 454a 5c3d
00000140: 9ba4 20bb a3fc 663f fd09 883d e219 07bd
00000150: ac4f 62bd c525 74bd ac67 85be 8fa1 4abf
00000160: c53f 0f3e 5f99 29bd d79c 413c 00aa 06bc
00000170: 1523 19bf f19e 9d3e 3de2 853b becb 943e
00000180: e6c6 fbbd 65b9 853c 546c 073d 8746 b03d
00000190: adc1 8a3a 7385 853c 046e fabc 1d5e c0bd
000001a0: 098d 2c3b 2399 d2bd 37d7 243c 0139 223e
000001b0: 0068 093f eb8e 8a3d 5bf6 babd 5f15 c4bd
000001c0: 4516 acbb f865 503c f3ee e9bb 3c48 85bb
000001d0: 894a 82bf 5a4c ba3d 9bf4 09be 6e21 a6bd
000001e0: cf89 c53d 44a9 e33c e239 4abe 5678 b13d
000001f0: 04d6 913a 8c58 e33d dcba 55bc cde6 3a3c
00000200: 829a 49bf 719b 443f 8d8d 9d3d 0286 97bc
00000210: c0d2 a53d 0f21 963d 0db5 46bd 26e1 be3d
00000220: 12a3 80bb 0371 eabc 68e2 663d f5a9 463c
00000230: d817 07be 1a89 313e fe9d 483a 6e3f cabc
00000240: 8bd4 a6be d2fe cd3b 570f 083f 157e a13d
00000250: 2839 23bc 2b60 9bbd 3d93 6dbe 1a40 91bd
00000260: a47d 1f3f 012c 14be f8f3 07bd fa07 be3a
00000270: 2b7d e13e f45c 9b3e bdf6 97be 81a8 823e
00000280: 9e17 443c 7362 d5bd ca26 e73b fd89 13bc
00000290: 49d3 37bf 3350 af3c dd54 80bd 9c41 16bd
000002a0: 7598 a83d e92c 3a3d 30f2 41be b480 08bd
000002b0: 7026 623c a8d4 e1bd 4e98 6f3e e676 09bc
000002c0: c3b6 e13e 48c3 1cbd 623c 113c 3204 d83d
000002d0: 7962 8e3f fc37 303d e6d6 cabd 8f34 85bc
000002e0: 9a5f 83bb f634 153c 2b64 653c ba99 d13d
000002f0: 5148 c7be 0dc3 a23d 34fe 92bc 9aa0 853e
00000300: 1f3a 143e 230d 933d e6f9 3e3e c7d9 c73d
00000310: 0c0b 57bc 64c8 1ebe ac56 08bd 1961 9abc
00000320: 63e7 debe f862 97bf 75e5 3dbb 6ffe 86be
00000330: e601 cabb 3a55 9a3b a88f 2bbe d359 a13f
00000340: 5282 a93d a4f4 7c3e 252d e53b 2226 203d
00000350: f567 553f 1afb 2ebf e269 0dbe a23d 9abd
00000360: ea59 58c0 413a 73be 15ef 9c3c 8214 01be
00000370: f2df 013c 4423 94bd b128 e1bb 7211 233f
00000380: c0fd c5ba af46 69bd 3c5f 9abb 0f07 423e
00000390: e20d 5ebf e400 febd 6016 b5bd 1537 74be
000003a0: 336e a0bc 4526 113e 3f42 8ebb 8791 283b
000003b0: 33bf 063f 282d 49bf e312 8cbd cd88 5f3d
000003c0: 9a4d e9bb 2eee 9abc cfea 4dbf 6076 ca3f
000003d0: f8e5 b23d ebac e3bc 53eb 19bd ef0a b3bc
000003e0: 8283 dc3d b06f 74bb aae7 abbc 9b45 203d
000003f0: cdc6 d2bd b1b3 55ba 9068 903f d2b9 19bd

mu.0.bias f4 [200]
-2.431678 -2.6877627 -2.0964367 -0.7192144 -0.46567887 -2.3099298 -0.16382895 -0.52817583
-0.81696117 -0.80569625 -2.5370052 -2.938355 -0.5996021 -2.0533152 -2.2580113 -0.22334662
-0.2576343 -0.5710279 -0.8840752 -2.3973734 -0.5990105 -0.72183436 -0.39884767 -0.31748497
-1.0063672 -1.2704965 -1.7202476 -1.9536889 -0.60453266 -0.85807836 -1.4457506 -1.0880256
-0.7920345 -1.0612456 -2.3234844 -2.206428 -3.39929 -0.1525004 -1.6061987 -0.14582033
-2.0256863 -0.65364915 -1.186263 -3.2466435 -0.7577462 -0.52568316 -0.44122547 -0.8373207
-0.34481448 -1.2846386 -1.7358586 -0.14659384 -0.63276935 -0.37884673 -0.35794905 -2.891979
-1.0117692 -1.5991957 -0.5227483 -1.1151185 -0.707747 -1.198381 -1.453603 -1.154943
-0.53175783 -0.33120826 -0.23685446 -0.4153106 -1.3556737 -2.1416435 -2.211337 -1.1239598
0.14632954 -3.7849097 -1.3488462 -0.40251002 -1.9716026 -1.0096873 -4.3678093 -0.7801168
-0.5442977 -0.60513 -1.7222861 -0.38409603 -0.5746402 -1.6739123 -0.3584025 -1.2654412
-0.23087296 -0.62558764 -1.3487092 -0.18335955 -2.8573241 -0.13326123 -1.2800561 -0.22550206
-0.48650151 -0.6396724 -1.3709507 -0.74724907 -3.6331384 -1.8612899 -1.3378389 -2.3463619
-0.83201295 -0.7463302 -0.54647964 -1.4735 -0.84837407 -1.2996606 -1.734374 -2.4564009
-1.4542274 -1.350419 -0.88567716 -0.2747543 -1.2982682 -1.4064726 -0.18706647 -0.23998699
-0.88249636 -2.1592596 -0.7526235 -0.91146374 -0.5295748 -0.7745682 -0.757028 -0.05716504
-0.28630507 -0.6459966 -1.5347948 -1.3372844 -1.251484 -0.591726 -0.6786065 -0.4257171
-0.9994027 -1.7032923 -0.9136068 -0.43388182 -0.48963776 -0.5238338 -0.919979 -3.6127815
-1.0756173 -2.3490772 -0.7486344 -1.3702203 -0.96515477 -0.8159131 -0.8108165 -0.8892784
-0.6127039 -0.56177664 -0.69566476 -0.62148106 -0.41224968 -0.47799253 -1.2489369 0.16170391
-1.179776 -0.71314776 -0.94313145 -3.36563 -3.4037924 -0.7782272 -1.6536872 -2.5885859
-1.0321199 -0.4513619 -0.099467225 -0.46197748 -1.5779732 -2.505778 -0.3994534 -0.51271176
-0.42585647 -1.5833576 -0.49369052 -0.33597097 -3.40515 -0.5703876 -0.6832389 -0.7563286
-1.5594965 -2.1479244 -0.784004 -0.82637995 -0.68275803 -0.38558158 -0.68485945 -0.6386551
-0.3373064 -1.203234 -0.45807853 -3.3504543 -0.9883403 -2.2600021 -1.7089932 -2.001369
00000000: 9da0 1bc0 4e04 2cc0 052c 06c0 6f1e 38bf
00000010: 766d eebe e4d5 13c0 c7c2 27be 8836 07bf
00000020: 5e24 51bf 1c42 4ebf 4b5e 22c0 020e 3cc0
00000030: 867f 19bf 8469 03c0 4283 10c0 fab4 64be
00000040: a5e8 83be e22e 12bf c152 62bf 916e 19c0
00000050: c158 19bf 23ca 38bf c335 ccbe 648d a2be
00000060: a4d0 80bf a19f a2bf 1331 dcbf 7a12 fabf
00000070: a7c2 1abf 06ab 5bbf 5b0e b9bf 6c44 8bbf
00000080: c6c2 4abf e5d6 87bf f8b3 14c0 1e36 0dc0
00000090: f88d 59c0 1129 1cbe eb97 cdbf ed51 15be
000000a0: d8a4 01c0 8d55 27bf 77d7 97bf 02c9 4fc0
000000b0: a8fb 41bf 2c93 06bf 4ee8 e1be a65a 56bf
000000c0: 868b b0be 0a6f a4bf 9d30 debf b21c 16be
000000d0: 2cfd 21bf 33f8 c1be 1945 b7be 2f16 39c0
000000e0: a781 81bf 72b2 ccbf d5d2 05bf 34bc 8ebf
000000f0: e82e 35bf 8c64 99bf aa0f babf 2cd5 93bf
00000100: 4821 08bf 2194 a9be fa89 72be 97a3 d4be
00000110: b786 adbf b010 09c0 8c86 0dc0 eadd 8fbf
00000120: 69d7 153e f63b 72c0 fea6 acbf cb15 cebe
00000130: 795d fcbf 6f3d 81bf 18c5 8bc0 bcb5 47bf
00000140: 1857 0bbf cde9 1abf df73 dcbf 3ca8 c4be
00000150: 9f1b 13bf c242 d6bf 8880 b7be faf9 a1bf
00000160: f669 6cbe 8326 20bf 81a2 acbf 9bc2 3bbe
00000170: 66de 36c0 a275 08be e1d8 a3bf 03ea 66be
00000180: ba16 f9be 92c1 23bf 507b afbf b74b 3fbf
00000190: 5785 68c0 bf3e eebf 4e3e abbf cb2a 16c0
000001a0: cdfe 54bf 7f0f 3fbf 17e6 0bbf a69b bcbf
000001b0: 0b2f 59bf 475b a6bf f8ff ddbf ac35 1dc0
000001c0: 2024 babf 88da acbf bdbb 62bf 98ac 8cbe
000001d0: a72d a6bf 4b07 b4bf 5a8e 3fbe 26bf 75be
000001e0: 48eb 61bf 4f31 0ac0 efab 40bf b055 69bf
000001f0: 3792 07bf 1a4a 46bf 96cc 41bf e425 6abd
00000200: 9496 92be 0860 25bf 2874 c4bf 232c abbf
00000210: a130 a0bf 5b7b 17bf 28b9 2dbf 97f7 d9be
00000220: dbd8 7fbf 7b05 dabf 23e2 69bf c225 debe
00000230: cdb1 fabe f919 06bf be83 6bbf d037 67c0
00000240: d4ad 89bf 4857 16c0 81a6 3fbf 6163 afbf
00000250: 6214 77bf aedf 50bf ac91 4fbf c0a7 63bf
00000260: 2ada 1cbf 98d0 0fbf 1617 32bf 6219 1fbf
00000270: 6412 d3be 70bb f4be 2add 9fbf b695 253e
00000280: e602 97bf da90 36bf 1071 71bf 7b66 57c0
00000290: bcd7 59c0 e639 47bf 06ac d3bf 64ab 25c0
000002a0: 811c 84bf e818 e7be 79b5 cbbd 5088 ecbe
000002b0: 07fb c9bf ab5e 20c0 2885 ccbe 1441 03bf
000002c0: dc09 dabe 76ab cabf 01c5 fcbe 6304 acbe
000002d0: faed 59c0 ec04 12bf bfe8 2ebf c09e 41bf
000002e0: 959d c7bf 9877 09c0 7cb4 48bf a38d 53bf
000002f0: 3bc9 2ebf f36a c5be f352 2fbf e77e 23bf
00000300: 6db3 acbe 9203 9abf 4589 eabe d86d 56c0
00000310: df03 7dbf e0a3 10c0 4ac0 dabf 6e16 00c0

mu.2.weight f4 [5, 200]
-0.0041064736 0.008632394 0.008724785 0.0061190836 0.005820377 0.043504234 0.0015841487 -0.0006066962
-0.050304953 0.0037975777 0.010756012 0.016164126 0.00071477203 0.003345852 -0.02334606 0.0021234856
0.0037639095 -0.032430485 0.022112507 0.015554111 -0.002208422 0.007660528 0.0039035992 -0.007551905
0.017658617 -0.014036281 -0.0040661586 -0.0014793214 0.009816556 -0.011631552 0.045714896 0.040193953
-0.045075804 0.0076403315 0.0138829 -0.00640592 0.2203037 0.10335841 0.007705082 0.00049846095
0.010386343 -0.041841734 0.0069433074 -0.046135888 -0.024954911 -0.03414121 -0.009906916 0.004244179
0.006616952 0.00016049811 0.0069969916 -0.0029924158 -0.005030888 0.06382715 -0.043192193 0.08003609
-0.004882968 -0.0044024345 -0.0012502411 0.011911857 -0.029676568 -0.027617613 -0.009077592 -0.05075414
0.008935585 -0.008823816 -0.011652078 0.015378481 -0.008965886 0.0053453785 -0.034251172 0.04017742
-0.10106096 0.03635947 -0.011627398 0.0054041324 0.0024964337 -0.034887694 0.0041784644 0.015787616
0.011668346 0.0009344197 -0.010686953 -0.016595168 -0.017947087 0.007362461 0.008072043 -0.0031307717
-0.0019892203 0.0061016916 0.017241566 0.012295996 -0.09369991 -0.0026394767 0.032442212 -0.01202948
0.0020486815 -0.0057248254 -0.04008547 0.01211511 0.082494564 0.01235342 -0.13107719 -0.056772996
-0.0016395015 0.01611095 0.013170271 -0.00057559815 -0.010311198 -0.025764814 -0.0033178634 0.048855573
-0.0044032643 -0.0004218941 0.0131981345 0.00608869 0.0043512606 0.015721228 0.0017397014 -0.0012474998
0.0038009742 -0.0003083439 -0.0028473015 -0.011485091 0.0009993776 -0.001070428 0.012287777 -0.0070862537
-0.0036976484 -0.0033208006 0.021418443 0.019714862 -0.0152323805 -0.0029633418 0.021137057 0.0065441723
-0.0032389143 0.015068676 0.04389812 0.0007299998 0.016716287 -0.011437955 -0.0061293202 0.024289161
-0.0826755 -0.0879142 -0.016153399 -0.05063845 0.02375743 0.011418698 -0.017300483 -0.0012940604
0.018126039 -0.0059942724 0.033847313 -0.00044551524 0.016817847 -0.014840668 0.008706085 -0.004161073
-0.0396436 0.009074078 0.01923937 -0.003749012 0.022312677 -0.029758839 0.008654184 -0.08551106
0.0172913 -0.0048906817 0.0031972534 0.0026085267 -0.034855988 -0.004711319 0.008531599 -0.0076302774
0.007998713 -0.10020894 -0.088280976 -0.003852286 -0.21990587 -0.01899424 -0.018704427 -0.012214872
-0.018800223 -0.026146354 -0.017441861 -0.043735683 -0.0106620835 -0.024402747 0.0062406086 -0.006471901
-0.002917102 0.029241854 0.007976756 0.021807792 -0.008269553 -0.021207107 0.013062053 -0.020901205
0.22504091 -0.1531499 0.3079847 -0.114931665 0.27906737 -4.281397 -0.7962247 -0.29991314
0.8176583 0.025165848 0.014420573 0.38708398 -0.09460485 0.23877403 -0.23094924 0.021364452
-0.10730313 0.3479207 -0.24844453 0.4988149 -0.29305503 0.083778016 -0.1367306 0.22661813
0.48319468 -0.5184676 -0.089067854 0.30647656 0.3155099 -0.74447775 2.1740284 -0.45377958
-0.44875413 0.10099068 0.25159615 -0.25978813 4.087475 0.20022343 0.4372604 0.008498386
0.34326342 -0.0316935 0.17653 -1.5735325 -0.024689393 -0.08049573 0.13713276 0.14847247
0.1308249 -0.11675693 -0.079671785 -0.14659373 0.46038705 -0.0063623097 0.04838539 2.662747
00000000: 998f 86bb e26e 0d3c 67f2 0e3c 9882 c83b
00000010: dcb8 be3b 7f31 323d 36a3 cf3a b10a 1fba
00000020: 910c 4ebd c8e0 783b fc39 303c a16a 843c
00000030: 8a5f 3b3a 1546 5b3b 3d40 bfbc 2d2a 0b3b
00000040: ecab 763b d4d5 04bd 4a25 b53c acd6 7e3c
00000050: 2cbb 10bb 2b05 fb3b 87d3 7f3b f875 f7bb
00000060: cea8 903c 6ef8 65bc 693d 85bb cae5 c1ba
00000070: 9fd5 203c 4492 3ebc 8b3f 3b3d 6aa2 243d
00000080: 68a1 38bd bf5b fa3b 1a75 633c c0e8 d1bb
00000090: 4b97 613e 93ad d33d ea7a fc3b 26ab 023a
000000a0: 7b2b 2a3c 3d62 2bbd af84 e33b fcf8 3cbd
000000b0: 3e6e ccbc a7d7 0bbd 9e50 22bc c112 8b3b
000000c0: 04d3 d83b 624b 2839 0547 e53b 681c 44bb
000000d0: 26da a4bb cfb7 823d 4cea 30bd f6e9 a33d
000000e0: 4e01 a0bb 4c42 90bb 21df a3ba f329 433c
000000f0: 461c f3bc 553e e2bc 2eba 14bc 93e3 4fbd
00000100: 8f66 123c c491 10bc 5be8 3ebc 06f6 7b3c
00000110: a7e5 12bc 4928 af3b f54a 0cbd 1491 243d
00000120: 0cf9 cebd abed 143d d880 3ebc 2615 b13b
00000130: 359b 233b 66e6 0ebd 80eb 883b 0855 813c
00000140: 972c 3f3c d8f3 743a 5418 2fbc 97f2 87bc
00000150: c505 93bc cd40 f13b 9a40 043c a22d 4dbb
00000160: 945d 02bb b3f0 c73b 2f3e 8d3c 2575 493c
00000170: bde5 bfbd 12fb 2cbb 20e2 043d 4c17 45bc
00000180: 2c43 063b 5197 bbbb a930 24bd 747e 463c
00000190: e9f2 a83d 0066 4a3c 1939 06be cd8a 68bd
000001a0: 8be4 d6ba 1cfb 833c 1fc8 573c bde3 16ba
000001b0: 4df0 28bc bb10 d3bc 8370 59bb c81c 483d
000001c0: 4249 90bb ab31 ddb9 fd3c 583c a283 c73b
000001d0: 0595 8e3b cec9 803c b106 e43a 2683 a3ba
000001e0: c419 793b 38a9 a1b9 cb99 3abb f72b 3cbc
000001f0: 8cfd 823a 9b4d 8cba ac52 493c ce33 e8bb
00000200: 3f54 72bb caa1 59bb bb75 af3c 1081 a13c
00000210: 3c91 79bc a034 42bb 9f27 ad3c 7f70 d63b
00000220: f743 54bb 9ce2 763c 84ce 333d 755d 3f3a
00000230: 98f0 883c 4366 3bbc 77d8 c8bb 10fa c63c
00000240: c651 a9bd 5c0c b4bd 2254 84bc 436a 4fbd
00000250: f19e c23c 7e15 3b3c beb9 8dbc 769d a9ba
00000260: 0f7d 943c 9a6b c4bb 7ba3 0a3d 0b94 e9b9
00000270: 95c5 893c 4626 73bc f8a3 0e3c 9c59 88bb
00000280: 5461 22bd 71ab 143c e29b 9d3c fcb1 75bb
00000290: 13c9 b63c cfc8 f3bc 47ca 0d3c 6c20 afbd
000002a0: 7ca6 8d3c 0342 a0bb 0389 513b d1f3 2a3b
000002b0: 27c5 0ebd 6961 9abb 1fc8 0b3c 6807 fabb
000002c0: 090d 033c 583a cdbd a8cc b4bd a276 7cbb
000002d0: 012f 61be cf99 9bbc 073a 99bc e320 48bc
000002e0: ed02 9abc e130 d6bc 3ce2 8ebc 3024 33bd
000002f0: 05b0 2ebc 45e8 c7bc 057e cc3b 3e12 d4bb
00000300: da2c 3fbb 9d8c ef3c f1b0 023c 41a6 b23c
00000310: 057d 07bc 87ba adbc 3902 563c 0139 abbc
00000320: 2071 663e 54d3 1cbe 2cb0 9d3e 4b61 ebbd
00000330: ebe1 8e3e 3401 89c0 62d5 4bbf 378e 99be
00000340: 0e52 513f 9c28 ce3c 4444 6c3c df2f c63e
00000350: 30c0 c1bd 2e81 743e f57d 6cbe 8104 af3c
00000360: bec1 dbbd a922 b23e 3e68 7ebe ab64 ff3e
00000370: 4f0b 96be cf93 ab3d 1b03 0cbe 950e 683e
00000380: 4b65 f73e 4bba 04bf 3569 b6bd 7fea 9c3e
00000390: 838a a13e 1896 3ebf 4823 0b40 cc55 e8be
000003a0: 1ac3 e5be 34d4 ce3d 36d1 803e f302 85be
000003b0: 98cc 8240 5f07 4d3e 98e0 df3e d03c 0b3c
000003c0: 39c0 af3e 0bd1 01bd 48c4 343e 8369 c9bf
000003d0: 6941 cabc f2da a4bd 886c 0c3e 2b09 183e
000003e0: f6f6 053e 421e efbd f62a a3bd ab1c 16be
000003f0: dab7 eb3e ec7a d0bb c22f 463d 726a 2a40

mu.2.bias f4 [5]
0.018132128 -0.058091626 -0.06959148 0.034604445 0.019097893
00000000: d489 943c 7cf1 6dbd fa85 8ebd 64bd 0d3d
00000010: 2f73 9c3c

reward_fun.0.weight f4 [200, 6]
-1.7887292 -0.81973565 3.6432855 -1.078855 -0.6556064 0.56848216 2.4941785 1.7688174
1.3607951 -1.9657496 -0.1575839 -0.70221275 1.9259061 1.9743041 0.42790246 0.23386738
-0.23332895 1.492182 0.51929146 -0.042749077 -0.6655141 0.22511911 0.02614904 0.5593588
-1.053226 0.51194054 0.49787202 0.5925509 0.5883933 -1.5742373 -0.89797914 -1.2060899
2.9892414 -0.56266016 -0.8888284 -0.5650328 -1.557622 0.37457702 -0.38631982 -2.2057362
0.18251337 -1.0326117 -1.9453478 -1.9756092 0.27443337 -2.9189012 -0.20208482 -1.0394137
1.968767 0.9528385 0.063575126 -0.15711296 -0.34172252 -0.094687164 1.5834429 0.9915005
2.6549826 -0.2508856 -0.64704156 -0.21641938 -3.9851103 -0.4042726 0.61983067 1.1117603
0.58818275 -0.08127799 3.4495986 -0.4747678 1.567662 0.89478093 0.089730784 -2.007686
-0.46909443 -1.4706758 3.71189 1.2035145 1.0597959 -0.9954989 2.2887824 0.24398436
2.3594146 -0.7455296 -0.6463592 0.31384182 -0.11855457 -0.12430585 -0.17825025 0.09395438
0.008897359 -0.07943572 0.55608857 0.44795266 3.56065 -1.0467043 -0.892916 0.004019913
1.2352967 -1.7485272 2.2922566 -2.417526 -0.21334238 -1.2181506 0.078151904 0.0059179203
0.31851324 0.20519842 0.0024514287 0.10153518 -0.6495509 -1.1115701 0.4732548 -1.8052247
0.21685228 -0.70609933 -0.2970705 -0.23558612 2.8983328 4.3514977 0.84248954 -1.1421599
-3.8643456 0.68341386 0.67125976 0.11341413 -0.17921816 -0.6626124 -0.848424 -1.3072224
-1.0234845 0.10925184 0.6104832 0.013001273 2.1832523 -0.32290876 -1.2912885 2.6058095
-0.009836111 0.27732286 -1.1178538 1.0543171 0.38187972 -1.4334824 -0.22442584 0.78049207
2.1158593 1.3905772 -0.7854281 1.1148943 -0.38407335 1.0346004 -0.028378092 0.028249672
0.25736138 0.25712335 0.008822693 -0.09186625 -1.6592535 -0.22615638 -1.0799104 -0.77617705
-0.039934892 0.8095399 1.253411 0.94629204 0.5019415 0.83797675 -0.28385007 2.7927754
-2.7608511 -0.04788196 0.09432639 -1.0169208 -0.36095795 0.8747677 1.1414675 1.0351231
-0.9476371 -0.90981495 0.07635069 0.2268226 -0.05383857 -1.8913406 0.5135573 -3.363776
0.18369703 -0.23369294 0.79921436 1.1542932 -2.1211464 3.1695046 -0.05322609 2.3449192
0.7261974 0.87965906 1.4701661 -2.7295282 0.32656968 -1.3076103 -1.7596822 1.3739293
-0.8290418 1.1990178 -0.11364245 -1.3418716 -2.5800405 2.0252244 -0.37999034 0.97570795
0.11802984 0.0042011878 -2.1632378 -1.5748129 2.2804873 -0.5619192 1.0183218 -0.12038588
0.6056653 0.04835137 0.01701528 0.16820015 0.0091209775 0.20274763 1.0902044 1.3492136
2.7144341 0.1943261 0.2855007 1.1851656 -2.2841132 -1.8696934 0.07775961 -1.4604739
0.2380605 -0.6233603 -2.961274 -0.9616907 0.9613778 3.1546326 0.17595546 -0.24907473
0.20448795 -0.19895364 0.7472372 0.32088375 0.14631103 -2.9458969 -2.0044184 -1.1457243
-1.5871865 -0.06427823 0.4060016 -2.052493 -0.015758166 -0.0033508623 -0.04449599 0.011310049
00000000: 14f5 e4bf 32da 51bf 972b 6940 ec17 8abf
00000010: d2d5 27bf 0c88 113f 9fa0 1f40 9c68 e23f
00000020: 892e ae3f af9d fbbf ad5d 21be 37c4 33bf
00000030: 1784 f63f ffb5 fc3f 0816 db3e ee7a 6f3e
00000040: c9ed 6ebe d2ff be3f 49f0 043f a819 2fbd
00000050: 225f 2abf a085 663e 8336 d63c 2332 0f3f
00000060: 1cd0 86bf 890e 033f 15e9 fe3e 6ab1 173f
00000070: f1a0 163f 9c80 c9bf f6e1 65bf 2761 9abf
00000080: bb4f 3f40 7f0a 10bf 428a 63bf fda5 10bf
00000090: 2860 c7bf 8fc8 bf3e b6cb c5be c82a 0dc0
000000a0: c9e4 3a3e 9f2c 84bf 2801 f9bf c3e0 fcbf
000000b0: 8882 8c3e 47cf 3ac0 53ef 4ebe 820b 85bf
000000c0: 8f00 fc3f 39ed 733f ad33 823d 38e2 20be
000000d0: 41f6 aebe 58eb c1bd 42ae ca3f fad2 7d3f
000000e0: 3ceb 2940 1474 80be 84a4 25bf 0b9d 5dbe
000000f0: 0c0c 7fc0 d1fc cebe 39ad 1e3f 294e 8e3f
00000100: 2593 163f 1375 a6bd 39c6 5c40 c414 f3be
00000110: 26a9 c83f 5d10 653f c6c4 b73d ed7d 00c0
00000120: 252d f0be 1b3f bcbf 9b8f 6d40 c30c 9a3f
00000130: 64a7 873f 04d9 7ebf 697b 1240 09d7 793e
00000140: a600 1740 07db 3ebf cc77 25bf e0af a03e
00000150: bdcc f2bd 1194 febd 3c87 36be 276b c03d
00000160: 3ac6 113c 32af a2bd d25b 0e3f 0d5a e53e
00000170: b1e1 6340 68fa 85bf 2596 64bf 79b9 833b
00000180: 341e 9e3f bdcf dfbf 55b4 1240 bfb8 1ac0
00000190: 6d76 5abe 5cec 9bbf 1b0e a03d 1deb c13b
000001a0: 2b14 a33e 891f 523e 26a8 203b adf1 cf3d
000001b0: f848 26bf ee47 8ebf 744e f23e 9a11 e7bf
000001c0: 860e 5e3e edc2 34bf a019 98be 7d3d 71be
000001d0: 497e 3940 783f 8b40 65ad 573f 4c32 92bf
000001e0: 7051 77c0 36f4 2e3f aed7 2b3f ab45 e83d
000001f0: f784 37be f7a0 29bf 5132 59bf 1053 a7bf
00000200: 8a01 83bf 6ebf df3d a148 1c3f 4b03 553c
00000210: 68ba 0b40 4c54 a5be f148 a5bf 95c5 2640
00000220: a427 21bc 43fd 8d3e d515 8fbf ddf3 863f
00000230: bd85 c33e 5a7c b7bf e3cf 65be 54ce 473f
00000240: 3d6a 0740 6ffe b13f d111 49bf dbb4 8e3f
00000250: 43a5 c4be c96d 843f 2c79 e8bc db6b e73c
00000260: dfc4 833e aca5 833e 0e8d 103c 5f24 bcbd
00000270: 6b62 d4bf 8a95 67be 813a 8abf 8ab3 46bf
00000280: c592 23bd 023e 4f3f c66f a03f 3240 723f
00000290: 3d7f 003f a585 563f cc54 91be d5bc 3240
000002a0: c9b1 30c0 e01f 44bd 322e c13d 762a 82bf
000002b0: 7bcf b8be c7f0 5f3f 9b1b 923f ea7e 843f
000002c0: 5898 72bf a2e9 68bf c05d 9c3d 2f44 683e
000002d0: d585 5cbd 7317 f2bf 7e78 033f 1b48 57c0
000002e0: 131b 3c3e 344d 6fbe 5099 4c3f e1bf 933f
000002f0: ddc0 07c0 2ad9 4a40 9a03 5abd 2813 1640
00000300: 13e8 393f 5631 613f 672e bc3f 97b0 2ec0
00000310: 2434 a73e c65f a7bf 443d e1bf eadc af3f
00000320: 153c 54bf 6a79 993f 5fbd e8bd 73c2 abbf
00000330: 621f 25c0 479d 0140 188e c2be ffc7 793f
00000340: a1b9 f13d 1eaa 893b 7d72 0ac0 7893 c9bf
00000350: 81f3 1140 f0d9 0fbf 5e58 823f df8c f6bd
00000360: e20c 1b3f 160c 463d a163 8b3c a93c 2c3e
00000370: 2770 153c 139d 4f3e d18b 8b3f 08b3 ac3f
00000380: 4ab9 2d40 6cfd 463e 262d 923e 82b3 973f
00000390: e92e 12c0 1d52 efbf 6e40 9f3d cff0 babf
000003a0: 22c6 733e 8a94 1fbf 8385 3dc0 5d31 76bf
000003b0: db1c 763f 80e5 4940 ab2d 343e 720d 7fbe
000003c0: 4a65 513e 81ba 4bbe f04a 3f3f e04a a43e
000003d0: 8fd2 153e 9389 3cc0 6448 00c0 18a7 92bf
000003e0: ed28 cbbf 4ea4 83bd 71df cf3e 0c5c 03c0
000003f0: 4517 81bc 249a 5bbb 6d41 36bd c94d 393c

reward_fun.0.bias f4 [200]
-3.0548518 -4.5079994 -2.3008575 -0.46198353 -3.6400099 -5.9533014 -2.8890882 -2.990945
-4.2676344 -3.0065198 -2.4160128 -3.8767233 -4.3644447 -4.383817 -0.75268316 -2.3577175
-3.0704997 -0.65654767 -3.8410637 -2.306459 -4.449466 -4.896951 -1.8918918 -2.5146794
-2.656408 -0.8517308 -1.3497957 -2.1277661 -4.9533606 -1.2991557 -1.1764851 -3.810177
-2.4512656 -3.917175 -3.6231613 -4.4352016 -1.1489731 -3.903184 -1.8091719 -2.2405353
-1.1822618 -3.4195833 -0.240782 -3.5988262 -0.8353272 -2.5780823 -4.388584 -5.18083
-2.8648343 -4.594293 -1.1333203 -3.1079307 -3.4713218 -3.4143689 -3.727094 -0.9417942
-1.1589326 -4.303696 -3.4373293 -3.31289 -0.5722765 -3.7824776 -0.39498952 -1.5762432
-2.5513499 -3.568746 -2.7379687 -3.7784762 -3.267739 -1.151803 -1.3219781 -4.1933722
-2.5109763 -1.6964241 -1.9206175 -3.6301148 -0.21351518 -0.7381394 -2.651513 -0.88355917
-4.8270864 -1.265507 -5.1243796 -4.4523773 -2.95586 -3.5415907 -1.2650886 -3.9843426
-0.7494179 -2.8269851 -3.7220583 -1.4927961 -3.3380563 -2.9300418 -1.7156867 -6.7190924
-1.2516983 -2.3931067 -3.6462357 -1.3539989 -0.64556533 -5.6047034 -1.1566617 -0.63463825
-2.2629077 -0.35270986 -1.8885084 -2.7739956 -4.3398066 -4.613708 -0.55362165 -1.3176646
-4.5317554 1.1823437 -3.567086 -5.3850555 -2.9158726 -1.1498196 -2.773512 0.10146713
-2.0795197 -4.226512 -0.47561496 -2.7317123 -1.1290662 -3.0709238 -1.2258831 -3.613762
-3.332545 -1.8804215 -5.452958 -3.2117803 -0.6193321 -1.9257151 -3.5106041 -2.6639118
-0.6419876 0.3487188 -4.4127584 -2.2767415 -0.8956683 -5.2791276 -1.2839594 -2.4302824
-4.33895 -2.9616694 -1.602373 -2.8640358 -3.9372306 -3.2583215 -2.826282 -0.8961169
-2.0039284 -0.022969037 -2.361692 -0.5110854 -3.2325835 -2.5291607 -3.4950345 -3.4003863
-5.090221 -2.3209608 -2.0827134 -2.016278 -5.2054863 -1.4963964 -3.6755059 -0.92351776
-0.6566962 -0.687095 -2.3926096 -2.901037 -2.5632513 -0.8430313 -4.843602 -2.599372
-2.087836 -2.6795423 -2.4587111 -0.28242996 -4.930853 -2.5981262 -4.17734 -2.3385932
-4.7335596 -2.2760243 -4.458339 -0.7015934 -3.2282274 -3.628441 -2.7752323 -2.4435658
-4.239554 -0.23126735 -3.2207847 -2.6689284 -3.527556 -3.2604947 -0.63987166 -2.0310926
00000000: b182 43c0 8841 90c0 4041 13c0 1b89 ecbe
00000010: ecf5 68c0 7281 bec0 d2e6 38c0 a56b 3fc0
00000020: 7690 88c0 d26a 40c0 f49f 1ac0 3c1c 78c0
00000030: 88a9 8bc0 3b48 8cc0 d8af 40bf d8e4 16c0
00000040: 1183 44c0 8213 28bf fdd3 75c0 069d 13c0
00000050: 0762 8ec0 d3b3 9cc0 8329 f2bf 82f0 20c0
00000060: 9702 2ac0 080b 5abf 1bc6 acbf 522d 08c0
00000070: ee81 9ec0 bc4a a6bf 1097 96bf f1d9 73c0
00000080: 89e1 1cc0 ffb2 7ac0 e0e1 67c0 2ced 8dc0
00000090: 8d11 93bf c4cd 79c0 f292 e7bf ee64 0fc0
000000a0: 5b54 97bf 74da 5ac0 8e8f 76be 2b53 66c0
000000b0: 01d8 55bf 4dff 24c0 486f 8cc0 5cc9 a5c0
000000c0: 7259 37c0 7304 93c0 a410 91bf 56e8 46c0
000000d0: 232a 5ec0 0585 5ac0 b588 6ec0 6d19 71bf
000000e0: e757 94bf e1b7 89c0 34fd 5bc0 6406 54c0
000000f0: b680 12bf 1d14 72c0 113c cabe 56c2 c9bf
00000100: 5149 23c0 5666 64c0 e13a 2fc0 8ed2 71c0
00000110: a322 51c0 486e 93bf 9436 a9bf 1b30 86c0
00000120: d6b3 20c0 6d24 d9bf cbd6 f5bf cd53 68c0
00000130: b9a3 5abe b4f6 3cbf 64b2 29c0 ef30 62bf
00000140: 7e77 9ac0 22fc a1bf ebfa a3c0 e079 8ec0
00000150: cf2c 3dc0 6ca9 62c0 6cee a1bf 78ff 7ec0
00000160: dad9 3fbf 53ed 34c0 3436 6ec0 f113 bfbf
00000170: b7a2 55c0 ce85 3bc0 9f9b dbbf ce02 d7c0
00000180: a637 a0bf a928 19c0 ed5b 69c0 d64f adbf
00000190: c543 25bf bb59 b3c0 7e0d 94bf a777 22bf
000001a0: 7bd3 10c0 6396 b4be a5ba f1bf 2589 31c0
000001b0: b2df 8ac0 7fa3 93c0 26ba 0dbf 3ca9 a8bf
000001c0: 2404 91c0 0a57 973f 234b 64c0 6052 acc0
000001d0: a89d 3ac0 4a2d 93bf 3881 31c0 00ce cf3d
000001e0: da16 05c0 963f 87c0 ce83 f3be 60d4 2ec0
000001f0: 3e85 90bf 048a 44c0 bde9 9cbf e047 67c0
00000200: 6b48 55c0 a7b1 f0bf a27e aec0 cf8d 4dc0
00000210: 8c8c 1ebf d57d f6bf bdad 60c0 887d 2ac0
00000220: 4d59 24bf 458b b23e 5135 8dc0 22b6 11c0
00000230: 854a 65bf 9dee a8c0 c858 a4bf bf89 1bc0
00000240: aed8 8ac0 fe8b 3dc0 8f1a cdbf 5d4c 37c0
00000250: 96fb 7bc0 5788 50c0 cee1 34c0 eb67 65bf
00000260: 5d40 00c0 9029 bcbc f625 17c0 7ed6 02bf
00000270: a6e2 4ec0 c5dd 21c0 a5ae 5fc0 ee9f 59c0
00000280: 17e3 a2c0 9f8a 14c0 2d4b 05c0 b30a 01c0
00000290: 5893 a6c0 eb89 bfbf 7d3b 6bc0 a96b 6cbf
000002a0: 3e1d 28bf 75e5 2fbf 8420 19c0 97aa 39c0
000002b0: 4f0c 24c0 e6d0 57bf cafe 9ac0 1c5c 26c0
000002c0: 1b9f 05c0 9f7d 2bc0 865b 1dc0 a99a 90be
000002d0: 8cc9 9dc0 b347 26c0 c5ac 85c0 83ab 15c0
000002e0: 5279 97c0 62aa 11c0 b7aa 8ec0 a09b 33bf
000002f0: 479b 4ec0 6138 68c0 689d 31c0 6263 1cc0
00000300: 6daa 87c0 59d1 6cbe 5621 4ec0 b9cf 2ac0
00000310: 7ac3 61c0 f2ab 50c0 a1ce 23bf 6cfd 01c0

reward_fun.2.weight f4 [200, 200]
-0.0037801089 0.042136375 -0.03232383 -0.14089288 -0.0275693 0.011202056 -0.0020880261 -0.023066103
0.0052316557 -0.0405727 -0.015634889 -0.12872955 -0.038658027 -0.035866342 0.042474397 -0.02763682
-0.055144425 -0.0020764123 -0.010367022 -0.019508816 0.038853593 -0.04645132 -0.07382711 -0.05361093
0.02341102 -0.06874554 -0.06664507 -0.011743912 0.031840827 -0.047750194 -0.064692155 -0.0025534325
-0.0773587 0.039439403 -0.0010213904 -0.07964757 -0.13544124 -0.013281946 0.025018796 -0.08940891
-0.0017852081 -0.02727713 -0.054927792 -0.06207636 -0.09525233 -0.015320459 0.038850073 0.041223772
-0.086572826 -0.096993215 0.0135395015 -0.031983305 -0.07684933 -0.08016182 0.032129243 -0.06821359
-0.0443599 -0.04187448 -0.14537437 0.04172347 -0.0019355759 -0.02210513 -0.028380664 0.022236498
-0.091089465 -0.05232912 -0.04893707 -0.09060906 -0.094193466 -0.054899614 0.018547164 0.0025968074
0.01500958 -0.051561635 0.0037188767 -0.04092088 -0.06702081 -0.067998335 0.02614318 -0.0054441034
0.007276235 -0.08618825 -0.059619244 -0.050495252 -0.07500958 -0.025831308 -0.029713998 -0.059412908
-0.018906603 0.03146913 -0.0346015 -0.058443047 -0.0030424206 -0.023117505 -0.040683817 0.00935604
-0.063750535 -0.059318405 -0.009114651 -0.0073280465 0.04111354 0.009898468 -0.028767584 -0.023367468
-0.012575201 -0.085201666 -0.041248474 -0.14929265 -0.007069973 -0.053446237 0.04019725 0.019780768
-0.038194556 -0.1520374 -0.07197927 -0.005056782 -0.087358184 -0.047243647 0.0072487537 -0.060455326
-0.06898043 -0.015908098 0.004392755 -0.0893874 -0.008991529 0.032861993 -0.0595987 -0.063808255
0.045588333 -0.17934096 0.026773872 0.028490083 -0.01715781 -0.11372233 -0.06611222 -0.048646566
-0.06457384 -0.07752174 -0.030177953 -0.07504333 -0.1277605 0.045471974 -0.07918824 -0.053154614
-0.024301851 -0.069172524 0.036477875 0.03379361 -0.096887596 -0.07619509 -0.02992993 -0.05887791
-0.05806116 -0.06945436 0.042339895 0.04450525 -0.06457675 0.0018704113 0.005649292 -0.046015367
0.04117871 -0.05339408 -0.1290373 -0.05149647 -0.07613078 -0.07305373 -0.04466269 -0.059179742
-0.03417073 -0.016683768 -0.049594875 0.0029763475 -0.08544485 -0.04163795 -0.092266224 -0.073339984
-0.04846644 -0.039485566 -0.05923798 -0.07839497 -0.054355 -0.05488965 -0.06112758 -0.019410435
-0.03843464 -0.07052557 0.040456254 0.029635934 -0.08049482 -0.0867787 -0.006046827 -0.003968504
-0.05976024 -0.03877312 -0.010606069 -0.0183109 -0.017657315 0.029618753 0.027044794 0.019088589
-0.21092494 -0.255116 -0.04376607 0.16829868 -0.03267344 -0.07516613 -0.14068218 0.005094937
-0.12301893 -0.07115769 -0.031923145 -0.32676798 -0.17044225 -0.18074778 0.12752004 -0.018828316
-0.24928614 -0.054583646 -0.079343215 -0.26078346 0.16905583 0.025488224 0.00723974 -0.27209282
0.05342323 0.031861994 -0.14634538 -0.036151502 -0.09762378 -0.027272023 -0.29869252 -0.17979124
-0.15372641 -0.2437114 -0.057479467 -0.20081352 0.04900234 -0.29623663 -0.36990342 -0.36366034
-0.33952135 -0.21579276 -0.049972292 -0.103143886 0.055392552 -0.08171611 -0.044634607 -0.1549554
0.1633674 -0.07298326 -0.013880327 -0.20351331 0.06668438 -0.015003859 -0.008974784 -0.30533978
00000000: b4bb 77bb 3197 2c3d fe65 04bd 3946 10be
00000010: 03d9 e1bc d488 373c 44d7 08bb 20f5 bcbc
00000020: 4f6e ab3b 8f2f 26bd bd14 80bc aed1 03be
00000030: e157 1ebd 96e8 12bd a2f9 2d3d 9d66 e2bc
00000040: 1fdf 61bd 6b14 08bb 71da 29bc f4d0 9fbc
00000050: f224 1f3d bd43 3ebd ab32 97bd 2297 5bbd
00000060: 78c8 bf3c 76ca 8cbd 367d 88bd 8969 40bc
00000070: 876b 023d b595 43bd 527d 84bd 7d57 27bb
00000080: 3d6e 9ebd 368b 213d 2de0 85ba 441e a3bd
00000090: 1cb1 0abe 859c 59bc 38f4 cc3c 051c b7bd
000000a0: a5fd e9ba 4a74 dfbc f7fb 60bd c843 7ebd
000000b0: a713 c3bd aa02 7bbc 4121 1f3d 42da 283d
000000c0: 184d b1bd 61a4 c6bd c9d4 5d3c ed00 03bd
000000d0: 2e63 9dbd e12b a4bd f499 033d 91b3 8bbd
000000e0: bab2 35bd 9384 2bbd 05dd 14be 3be6 2a3d
000000f0: 26b3 fdba d115 b5bc 917e e8bc 5129 b63c
00000100: 1d8d babd 0f57 56bd 3d72 48bd 3e91 b9bd
00000110: 81e8 c0bd 6bde 60bd 39f0 973c 332f 2a3b
00000120: beea 753c 4b32 53bd 66b8 733b a79c 27bd
00000130: 3542 89bd b642 8bbd 392a d63c 7364 b2bb
00000140: 7c6d ee3b 7783 b0bd 4f33 74bd 1cd4 4ebd
00000150: 9f9e 99bd 2e9c d3bc c56a f3bc f35a 73bd
00000160: 05e2 9abc c6e5 003d 4dba 0dbd fa61 6fbd
00000170: 5963 47bb ec60 bdbc 13a4 26bd 134a 193c
00000180: a48f 82bd dbf7 72bd 9e55 15bc 1c20 f0bb
00000190: ac66 283d 2f2d 223c ffa9 ebbc 226d bfbc
000001a0: 3708 4ebc 367e aebd 29f4 28bd 2ce0 18be
000001b0: 3bab e7bb 71ea 5abd dfa5 243d 470b a23c
000001c0: e571 1cbd b1af 1bbe de69 93bd 5db3 a5bb
000001d0: d9e8 b2bd 8e82 41bd f486 ed3b 01a0 77bd
000001e0: 9d45 8dbd b351 82bc 1af1 8f3b be10 b7bd
000001f0: 3551 13bc 4c9a 063d c41d 74bd e7ad 82bd
00000200: d5ba 3a3d 28a5 37be e154 db3c 0964 e93c
00000210: 898e 8cbc 41e7 e8bd d865 87bd 9f41 47bd
00000220: 4a3f 84bd b8c3 9ebd c137 f7bc 51b0 99bd
00000230: a6d3 02be d240 3a3d 722d a2bd a7b8 59bd
00000240: ad14 c7bc 53aa 8dbd d369 153d 2b6b 0a3d
00000250: 016d c6bd 2c0c 9cbd 9d2f f5bc f729 71bd
00000260: 8ad1 6dbd 163e 8ebd 996c 2d3d 234b 363d
00000270: d140 84bd 9728 f53a b21d b93b 9c7a 3cbd
00000280: 02ab 283d c0b3 5abd 5b22 04be f6ed 52bd
00000290: 74ea 9bbd 329d 95bd 3af0 36bd 7566 72bd
000002a0: 9bf6 0bbd 66ac 88bc ff23 4bbd d30e 433b
000002b0: b6fd aebd 8e8c 2abd 13f6 bcbd 4633 96bd
000002c0: bf84 46bd 9ebb 21bd 86a3 72bd 8b8d a0bd
000002d0: 59a3 5ebd f8d3 60bd ea60 7abd a202 9fbc
000002e0: a46d 1dbd b66f 90bd 75b5 253d 0fc7 f23c
000002f0: 78da a4bd 08b9 b1bd 7624 c6bb 390a 82bb
00000300: 27c7 74bd 90d0 1ebd 14c5 2dbc be00 96bc
00000310: 13a6 90bc 07a3 f23c 0b8d dd3c ac5f 9c3c
00000320: b5fc 57be 909e 82be 0d44 33bd 7d56 2c3e
00000330: 96d4 05bd b3f0 99bd fd0e 10be 6ef3 a63b
00000340: 59f1 fbbd 1fbb 91bd d8c1 02bd 224e a7be
00000350: 6a88 2ebe f215 39be 9d94 023e d73d 9abc
00000360: de44 7fbe 1a93 5fbd b27e a2bd 6985 85be
00000370: f91c 2d3e aecc d03c 573b ed3b c04f 8bbe
00000380: 51d2 5a3d b981 023d 90db 15be 9913 14bd
00000390: faee c7bd 9469 dfbc 3aee 98be 321b 38be
000003a0: 756a 1dbe 7b8f 79be 976f 6bbd 0fa2 4dbe
000003b0: adb6 483d 54ac 97be fb63 bdbe b031 babe
000003c0: bed5 adbe c7f8 5cbe bfaf 4cbd 1a3d d3bd
000003d0: 4de3 623d c75a a7bd c7d2 36bd a1ac 1ebe
000003e0: c949 273e 3f78 95bd 506a 63bc cb65 50be
000003f0: d291 883d bfd2 75bc f90a 13bc 7f55 9cbe

reward_fun.2.bias f4 [200]
-0.15297683 -0.17705461 -0.027340127 -0.14110361 -0.09253504 -0.22987512 -0.07629784 -0.060291238
1.5942814 -0.096298024 3.0349581 -0.0706549 -0.13454686 -0.34728238 0.064166985 -2.4459782
3.1464655 -0.31400156 -0.1687515 -0.06531873 -0.059376426 -0.7393361 -0.15325415 -0.1201494
1.1139562 -1.265356 0.6961238 -0.123850375 -0.04073565 -0.1248155 -0.37187055 1.124209
-0.21236922 -0.18367359 -0.16950954 -0.15711918 -0.17037779 -0.15001209 -1.8131629 1.421955
-0.13201211 2.3024504 -0.06248738 -0.24780986 -0.075906724 -0.05386979 -1.1557719 -0.10604751
0.24876139 -1.5440631 0.56934583 0.66929024 -0.626974 -0.16758159 -0.054481953 -0.7829216
-0.48182267 -0.5565195 -0.12814443 -2.0382578 -0.9852356 -0.3142396 -1.2678174 -1.9879178
-0.18508969 4.9948144 -0.10425714 1.2913563 -0.111095816 -0.12221619 -0.12662137 -0.120574355
-0.0618568 -0.05514516 -0.06384893 1.1855198 -0.15604319 -0.14192879 -0.1978163 0.00020170504
-0.17693628 -0.28160116 -0.13977855 -1.6536653 -0.096305825 -0.0071730693 -0.04405 1.1634325
-0.47842833 0.7675088 -0.06475504 -0.13537423 -0.0018762752 -1.1770277 -0.17700261 -0.14281735
-0.22963065 -0.19797575 -0.17326747 -0.1667059 -2.209566 1.26797 -0.066568434 -0.07049091
-0.2760189 -0.35522723 -0.14807764 -0.7739313 0.24616715 -0.1170458 -0.2924088 -0.07165723
-0.08102358 3.3621871 2.683288 -0.21348874 4.2041836 4.9367323 -0.011089901 -0.098236956
-0.16836022 0.10860149 -0.09469804 -0.17766187 -0.2565592 0.038470633 1.070696 -0.30637234
-0.0788991 0.009242094 -0.19725014 1.6941606 -0.8239396 -0.16670473 -0.048837032 0.027913889
-0.3576507 -0.45485258 -0.08622648 -0.12950048 -0.041253485 -0.4865235 1.0183262 2.7500148
-0.7561287 -1.7604381 -0.2051292 -0.1672079 -0.044502594 3.6474574 -0.080931395 -0.091517575
-0.020520726 -0.22744717 1.0380799 -1.6027995 4.2348866 -0.10027728 -0.10234726 -0.19234052
-0.25970718 -0.17641766 3.5064647 -0.2191593 -0.41381034 1.4585772 -0.15977418 -0.13506374
-0.1862517 1.7649868 -1.5442625 2.0226033 -2.377288 -0.513068 -0.16813836 -1.1766487
-0.033975363 0.3548533 -0.24324344 -0.20267801 -3.0249357 1.6337125 -0.0014453364 -0.116915174
-0.22094254 -0.42160222 -0.091052145 -0.13672751 2.7746947 -0.65387726 -0.021077977 0.4039027
-0.09108968 -0.5899145 -0.052145995 3.0680127 3.3024468 2.5805042 1.1130692 -0.07472449
00000000: f5a5 1cbe ce4d 35be 67f8 dfbc 777d 10be
00000010: 0383 bdbd 6264 6bbe 0b42 9cbd f2f3 76bd
00000020: 6a11 cc3f e637 c5bd c13c 4240 84b3 90bd
00000030: a7c6 09be ffce b1be fb69 833d e88a 1cc0
00000040: b15f 4940 d0c4 a0be 31cd 2cbe d4c5 85bd
00000050: b234 73bd 2145 3dbf a8ee 1cbe e310 f6bd
00000060: 1e96 8e3f 2ff7 a1bf 2b35 323f 44a5 fdbd
00000070: 6dda 26bd 459f ffbd d165 bebe 15e6 8f3f
00000080: 5177 59be ee14 3cbe e993 2dbe dae3 20be
00000090: 8477 2ebe c59c 19be b915 e8bf 9f02 b63f
000000a0: 2f2e 07be 595b 1340 c4f2 7fbd dec1 7dbe
000000b0: fc74 9bbd 92a6 5cbd 55f0 93bf 702f d9bd
000000c0: 4ebb 7e3e dca3 c5bf a6c0 113f 9b56 2b3f
000000d0: 5e81 20bf 829a 2bbe 7828 5fbd 8d6d 48bf
000000e0: 76b1 f6be 1078 0ebf 4b38 03be d172 02c0
000000f0: 6638 7cbf 03e4 a0be d747 a2bf 1774 febf
00000100: 2788 3dbe 85d5 9f40 c484 d5bd 2a4b a53f
00000110: 3486 e3bd 7b4c fabd 08a9 01be b0ef f6bd
00000120: 8e5d 7dbd e4df 61bd 3ac3 82bd 1dbf 973f
00000130: c9c9 1fbe c855 11be 5b90 4abe c980 5339
00000140: c92e 35be 072e 90be 1c22 0fbe 4eab d3bf
00000150: fd3b c5bd 110c ebbb c66d 34bd 5beb 943f
00000160: 8ff4 f4be 757b 443f 4a9e 84bd 8b9f 0abe
00000170: 59ed f5ba d8a8 96bf 2c40 35be b63e 12be
00000180: 4c24 6bbe 28ba 4abe 076d 31be f4b4 2abe
00000190: 8869 0dc0 d74c a23f 0855 88bd 8a5d 90bd
000001a0: 5952 8dbe 58e0 b5be aaa1 17be 5d20 46bf
000001b0: 3e13 7c3e b5b5 efbd 9bb6 95be 07c1 92bd
000001c0: b1ef a5bd 132e 5740 feba 2b40 cb9c 5abe
000001d0: ac88 8640 b6f9 9d40 6bb2 35bc 7530 c9bd
000001e0: 9f66 2cbe 756a de3d 0cf1 c1bd feec 35be
000001f0: ba5b 83be 6293 1d3d 910c 893f d6dc 9cbe
00000200: da95 a1bd 276c 173c f1fb 49be 41da d83f
00000210: b5ed 52bf a5b4 2abe 5709 48bd abab e43c
00000220: fe1d b7be 70e2 e8be 8297 b0bd c69b 04be
00000230: 6af9 28bd 9c19 f9be 8358 823f 3e00 3040
00000240: a791 41bf 0956 e1bf 640d 52be 8c38 2bbe
00000250: 5a48 36bd f16f 6940 5cbf a5bd 916d bbbd
00000260: 151b a8bc e9e7 68be cddf 843f 8928 cdbf
00000270: 3184 8740 2d5e cdbd 719b d1bd eaf4 44be
00000280: 57f8 84be d5a6 34be eb69 6040 4c6b 60be
00000290: f3de d3be a8b2 ba3f d89b 23be 264e 0abe
000002a0: c4b8 3ebe 16eb e13f 65aa c5bf 5572 0140
000002b0: 7d25 18c0 6d58 03bf 762c 2cbe 6d9c 96bf
000002c0: c029 0bbd 55af b53e cf14 79be d38a 4fbe
000002d0: 8c98 41c0 7e1d d13f 7171 bdba 3971 efbd
000002e0: c33e 62be 3fdc d7be 8c79 babd 4c02 0cbe
000002f0: 9994 3140 8064 27bf b9ab acbc 56cc ce3e
00000300: 3a8d babd a304 17bf 0a97 55bd 525a 4440
00000310: 4a5b 5340 fb26 2540 0d79 8e3f 2709 99bd

reward_fun.4.weight f4 [1, 200]
-0.04213367 -0.015749674 -0.002100026 0.07583715 0.010374132 0.02064978 -0.06722895 -0.03642753
0.23458202 -0.080905825 -0.49362528 -0.0068722046 -0.07835405 -0.0059020766 -0.31664407 0.22458704
-0.24395753 -0.051308263 0.0851411 -0.0481689 0.055227105 0.10518766 0.00040433148 0.053433575
2.2025754 -0.43881902 -0.12707731 -0.03277185 -0.0018103113 -0.036646284 0.05513892 -0.41385573
0.054041762 0.046731427 0.07663985 0.06373732 0.09075577 0.0886655 0.22283654 -0.33158112
-0.061363593 0.18710439 0.1552099 -0.03755734 0.02704535 0.013566731 -0.46094006 -0.06557377
-0.225906 0.14031999 -0.32390007 -1.1179776 0.14976108 0.009441686 0.03380152 -0.09054724
-0.0044200514 0.12689249 -0.07219139 0.35373992 0.34094405 0.0037818796 -0.96410173 0.20986214
-0.061532523 -0.15603529 0.076369405 -0.5321899 -0.007918784 0.08634044 -0.08944656 -0.039904725
0.060822546 0.014157206 -0.064880334 -0.52690005 -0.03911336 -0.09252074 0.02745702 0.011752639
-0.052549597 0.06698261 0.00022477754 -0.18582964 -0.84583855 0.017120758 -0.08643195 -0.25247312
-0.044626642 0.96772885 0.043362778 0.060709864 0.020893967 0.13234335 0.01212505 -0.06450673
0.09139804 0.08505433 -0.0870563 -0.076909535 0.311258 -2.1833878 0.041161325 -0.06663391
-0.02861206 0.027366225 -0.032324355 0.5799453 -0.7989667 -0.08382716 0.07532531 -0.07508604
0.007283224 -0.21328321 -0.4504441 -0.07081691 -0.29209995 -0.09194641 -0.035876248 0.09767612
0.06473425 -0.36124665 -0.088616244 -0.07130766 -0.07312454 0.0034317297 -1.2102995 0.009102582
-0.071693026 0.48287225 0.42566207 -0.07129063 -0.026989311 0.08566847 0.020272173 0.020988652
0.080837995 0.087049365 -0.08544291 -0.05377703 -1.628263 -0.11847166 -2.168745 -0.4102904
0.046173897 -0.29103282 -0.036119502 0.03771255 0.08344992 -0.1042337 -0.035659384 0.006202909
0.047847833 0.041255556 -1.8887494 0.5136639 -0.25217894 0.04412973 0.010557314 0.029227803
0.031174313 -0.07774565 0.24695078 0.08692845 0.009706547 -0.6262061 0.07749844 -0.081568144
-0.0810969 -0.67062765 0.18103014 -0.6950884 0.24872448 0.07145522 0.010631957 0.1531545
0.047476485 0.52277505 0.055333722 0.0004758821 0.17290689 -0.2975716 0.030957736 -0.006234795
-0.067819916 -0.029498864 -0.06000805 -0.07784565 -1.5214306 0.63648945 -0.023423912 -0.19170912
0.01562688 -0.17634654 0.032247573 -0.30333155 -0.21124187 -0.22481817 1.8741221 -0.008870902
00000000: 5b94 2cbd 7605 81bc 97a0 09bb 8250 9b3d
00000010: 43f8 293c ba29 a93c 55af 89bd 0935 15bd
00000020: 4536 703e f4b1 a5bd 74bc fcbe 3b30 e1bb
00000030: 1778 a0bd 3566 c1bb 2c1f a2be 25fa 653e
00000040: 01d0 79be 9d28 52bd 755e ae3d c14c 45bd
00000050: d135 623d a16c d73d 74fc d339 2add 5a3d
00000060: fff6 0c40 e3ac e0be 8e20 02be c63b 06bd
00000070: f847 edba 6a1a 16bd 59d9 613d e6e4 d3be
00000080: e55a 5d3d 7469 3f3d 5bf5 9c3d b688 823d
00000090: 29de b93d 4296 b53d 432f 643e 00c5 a9be
000000a0: 6458 7bbd 4b98 3f3e 58ef 1e3e bad5 19bd
000000b0: 368e dd3c fe46 5e3c 5600 ecbe 8a4b 86bd
000000c0: e753 67be 0bb0 0f3e 3bd6 a5be e419 8fbf
000000d0: f85a 193e 4db1 1a3c 7673 0a3d d570 b9bd
000000e0: 14d6 90bb 1bf0 013e 14d9 93bd 661d b53e
000000f0: 3890 ae3e 69d9 773b 5fcf 76bf 1ae6 563e
00000100: 8709 7cbd b7c7 1fbe 9067 9c3d 993d 08bf
00000110: cabd 01bc 42d3 b03d c22f b7bd 2373 23bd
00000120: 1021 793d a0f3 673c fbdf 84bd ece2 06bf
00000130: 5535 20bd 847b bdbd 8bed e03c 248e 403c
00000140: 3f3e 57bd 2e2e 893d 43b2 6b39 204a 3ebe
00000150: e088 58bf d540 8c3c 3c03 b1bd 2844 81be
00000160: 6dca 36bd 14bd 773f 2b9d 313d e8aa 783d
00000170: d329 ab3c 0485 073e 25a8 463c 1b1c 84bd
00000180: e52e bb3d f730 ae3d 934a b2bd bf82 9dbd
00000190: 355d 9f3e a0bc 0bc0 c798 283d 5c77 88bd
000001a0: d763 eabc 222f e03c 8b66 04bd 4c77 143f
000001b0: 1589 4cbf 93ad abbd 2844 9a3d b6c6 99bd
000001c0: 1ca8 ee3b ea66 5abe 9ca0 e6be 7508 91bd
000001d0: 208e 95be 664e bcbd f9f2 12bd 6b0a c83d
000001e0: 6493 843d 52f5 b8be 6f7c b5bd c009 92bd
000001f0: 52c2 95bd dfe6 603b 18eb 9abf ff22 153c
00000200: cbd3 92bd 083b f73e 61f0 d93e d200 92bd
00000210: b018 ddbc f372 af3d d411 a63c 65f0 ab3c
00000220: 648e a53d f046 b23d b1fc aebd 4e45 5cbd
00000230: ec6a d0bf 45a1 f2bd b8cc 0ac0 9511 d2be
00000240: d720 3d3d 4102 95be 0bf2 13bd 7a78 1a3d
00000250: cbe7 aa3d 7a78 d5bd 930f 12bd c641 cb3b
00000260: 17fc 433d 96fb 283d 8ac2 f1bf 7a7f 033f
00000270: 991d 81be 60c1 343d 96f8 2c3c 256f ef3c
00000280: 4661 ff3c 1d39 9fbd aae0 7c3e 8b07 b23d
00000290: 3508 1f3c 0b4f 20bf 81b7 9e3d 330d a7bd
000002a0: 2216 a6bd 41ae 2bbf f75f 393e 50f1 31bf
000002b0: a1b1 7e3e 1d57 923d a931 2e3c 89d4 1c3e
000002c0: b476 423d 96d4 053f 9da5 623d d07f f939
000002d0: 810e 313e 4e5b 98be 149b fd3c 404d ccbb
000002e0: 2be5 8abd 9aa7 f1bc 00cb 75bd 8a6d 9fbd
000002f0: 3dbe c2bf f9f0 223f 81e3 bfbc 654f 44be
00000300: f103 803c 3094 34be 0816 043d 464e 9bbe
00000310: ca4f 58be bc36 66be 3ce3 ef3f 4257 11bc
