data/mpc_deter/PendubotEnv/seed_113/model_9000.pt (torch, 183047 bytes, 10 tensors)

log_std f4 [1, 6]
000000 0a ec 1f c0 fe c0 23 c0 c0 45 e3 bf 98 90 df bf
       -2.4987817 -2.5586543 -1.7755661 -1.7466002
000010 6b b0 18 c0 0b cf e7 bf
       -2.3857677 -1.811006

mu.0.weight f4 [200, 7]
000000 aa d0 4a bf d7 c7 2c bf 5a 73 ae 3e 0a a0 c6 3e
       -0.79224646 -0.6749243 0.3407238 0.38793975
000010 bc e9 d2 be d9 ec 11 be 11 36 d6 3c fd ab e3 bc
       -0.4119395 -0.14250506 0.026148828 -0.027791971
000020 68 b2 21 be 5e 6e 45 3e 87 d9 41 bf 84 6b 00 3e
       -0.15790713 0.19280383 -0.75722545 0.12541014
000030 36 da 1c be 8f 7b b9 3c c4 71 f5 be d5 fd d9 be
       -0.15317616 0.022641925 -0.4793836 -0.4257647
000040 c3 43 29 3d 22 f1 f4 be 6a 07 84 be 1f 13 a6 be
       0.04132439 -0.4784022 -0.25786906 -0.32436463
000050 76 a9 c2 3c 82 16 1f 3f 2e e9 11 3f 1a 3d 58 bd
       0.023762446 0.6214372 0.5699643 -0.052792646
000060 47 d2 04 bf e1 5f d5 3a 78 9a cd be 42 6b 8d 3c
       -0.5188336 0.0016279184 -0.40156913 0.017263059
000070 ef 47 94 be ac 12 11 bf 9c f9 c1 be 4b 7e 68 3f
       -0.2896113 -0.56669116 -0.3788575 0.9081771
000080 d0 f2 e7 3b 67 d2 04 3f 74 31 53 bd ec 25 40 bf
       0.007078506 0.5188355 -0.051560834 -0.75057864
000090 47 27 0f 3e 5f cf 83 be 11 1e 18 be 00 e7 ed 3e
       0.13979827 -0.2574415 -0.1485522 0.46465302
0000a0 6c f5 90 3d 66 c7 b3 bc 41 9f 25 3f f7 ea a6 bf
       0.070780605 -0.021945667 0.6469613 -1.3040456
0000b0 d8 6e 55 bd fa f7 05 bf 6c 52 94 be 72 14 ca 3e
       -0.052107662 -0.5233151 -0.28969133 0.39468724
0000c0 19 74 ec bc 49 e8 24 be 20 44 9a 3f 73 fc 2d be
       -0.028863953 -0.16104235 1.205204 -0.16990833
0000d0 ae ff 5d 3f 5e 5e 38 3e 82 06 0c be b4 80 ce bc
       0.8671826 0.18004748 -0.13674358 -0.025207855
0000e0 1d f8 28 be 77 6c bb 3e 94 be c6 3e 62 48 01 3f
       -0.16500898 0.3660619 0.38817275 0.5050107
0000f0 72 ba 8e 3e 5a 50 ab 3e 3f 0b 11 3d 97 64 54 be
       0.2787662 0.3345974 0.035411116 -0.20741497
000100 ac 78 fd 3e 1e d9 e3 be ee a2 b2 be 38 d7 c3 bd
       0.49506128 -0.44501585 -0.3488993 -0.09562534
000110 b5 c0 50 be 32 bb 5c 3b c0 fe ad 3f c2 a7 f9 3e
       -0.20386012 0.0033680913 1.3593369 0.48760802
000120 f8 81 df 3e c1 71 30 3e 17 63 0c 3f 00 08 09 3e
       0.43653846 0.17230894 0.548387 0.13381958
000130 32 d6 96 3c 48 af aa be 86 fd 2d bf f7 99 20 bf
       0.018412683 -0.33336854 -0.6796497 -0.6273493
000140 e1 af f3 3e b8 91 00 3f 8e 98 a1 3e 71 6f 2c 3d
       0.47595122 0.5022235 0.31561702 0.042098466
000150 2f 74 85 3d 42 50 c3 3e be 92 67 3f 16 a9 f3 3e
       0.06516301 0.3814717 0.90458286 0.4758994
000160 88 f6 2c 3e 2b e8 8a be e7 bd 6e bc 04 88 cf 3e
       0.16890919 -0.27130255 -0.014571643 0.4053346
000170 b9 e6 1c bf ba 93 c4 3e a4 45 2c bf 8f 89 96 be
       -0.61289555 0.38393956 -0.67293763 -0.29401824
000180 15 f6 d5 3d 51 52 a4 3c a9 ea bc bd 28 d1 9f 3e
       0.10447327 0.020058783 -0.092244454 0.3121426
000190 bd 57 f8 3e 50 8b b7 bd 47 ea 78 3e 42 6a e2 bd
       0.4850444 -0.089621186 0.2430812 -0.11055423
0001a0 df 3f 31 bd 5d c6 c8 be e2 d4 8c 3e 12 15 ad be
       -0.043273803 -0.3921384 0.27506167 -0.33805138
0001b0 98 0b 51 3f fd 09 90 3e a5 b2 85 be 1d 7d da bd
       0.81658316 0.2813262 -0.26112857 -0.10668395
0001c0 9d f2 4d 3f e7 28 a7 be b3 7a d1 3e c2 05 7e 3d
       0.80448323 -0.32648394 0.40913925 0.06201721
0001d0 e5 05 05 bf 1d 00 c1 bd c5 b4 9a 3c 68 51 24 3e
       -0.5196212 -0.0942385 0.018885026 0.16046679
0001e0 05 d7 a4 3f 43 de ef bc 71 ea 7c be 59 52 11 3f
       1.2878119 -0.029280787 -0.24698807 0.5676628
0001f0 a2 00 1a bd d0 05 2b bd 35 a7 bb 3d ba 21 a1 be
       -0.03759826 -0.04175359 0.091627516 -0.31471044
000200 8d 3a 52 bf 08 6d 2f 3e 3c 8a bb be 77 4f e2 3d
       -0.8212059 0.17131436 -0.36628902 0.11050313
000210 28 86 d9 bd 0e ee a5 be 7f 9e 14 bf b7 7d 8f 3e
       -0.106212914 -0.32408184 -0.58054346 0.280256
000220 cc d9 94 bd 3a fe 92 be a0 22 0d 3e 41 f6 37 3d
       -0.07268104 -0.28709584 0.1378274 0.04491258
000230 80 76 9a bf ec 74 8f bf 16 63 d7 bd 6e cb 3c be
       -1.2067413 -1.1207557 -0.10516946 -0.18436977
000240 e7 1d 16 bf 45 c3 6e bd d5 ed 9e bc 0f e8 8b 3f
       -0.5863938 -0.058291692 -0.019400517 1.0930194
000250 61 e5 35 3f 1b 2b 91 3e d9 17 81 bb d4 f7 0a 3f
       0.7105313 0.283532 -0.0039396104 0.54284406
000260 10 05 7e 3c 2f 2d 60 bd 7b 0f 2f be cc f9 b9 be
       0.015504137 -0.05473059 -0.17095749 -0.36323392
000270 83 7f a0 be e1 a4 10 be e3 33 93 3e 39 fa 0c be
       -0.31347284 -0.14125396 0.28750524 -0.13767327
000280 d4 4d 7c bd 6c 49 ae be 16 ad 3b 3f 81 cc af 3e
       -0.06159766 -0.3404039 0.73310983 0.34335712
000290 30 98 c2 be 88 6d f1 be 51 82 5d bc 21 45 80 3c
       -0.38006735 -0.47153878 -0.013519839 0.015657963
0002a0 c9 7d d0 be bd 9c 2e bf f9 f4 3b bd 94 2b 94 3e
       -0.40720966 -0.68207914 -0.04588792 0.28939497
0002b0 4d 1c e2 be c4 ba 63 bd 2f 7a 96 3c 4c 9c 2e bf
       -0.44162217 -0.055598035 0.018368809 -0.6820724
0002c0 1e 03 8b bf 7d 8e 5a be 1e f4 32 bf 20 7e 7d be
       -1.0860326 -0.21343417 -0.69903743 -0.24755144
0002d0 b2 a2 9f 3e 3b 48 ac 3d c1 89 1a bf fd 31 3a bf
       0.31178814 0.08412214 -0.60366446 -0.72732526
0002e0 0e 2f 9b bf e9 12 43 be d7 54 0b be ae 5a fb 3e
       -1.2123735 -0.19050182 -0.13606583 0.4909262
0002f0 ac 05 97 3d 7b f9 09 3f 81 fd 8d 3e ae eb ae be
       0.07374129 0.538963 0.2773247 -0.34164184
000300 68 41 35 3f 2d 04 df 3d ef a9 9c be 9a cb ed bc
       0.70802927 0.10889468 -0.305984 -0.029027749
000310 14 b1 33 bf 31 90 3c 3f fb c6 17 3f 00 9f 21 be
       -0.70192075 0.7365752 0.59287995 -0.1578331
000320 b8 77 c5 3e 0f 81 5a 3e df 6b 37 3d 11 a5 2b bf
       0.385679 0.21338294 0.04478061 -0.67048746
000330 20 92 b7 be 93 75 21 bf 8e 28 1a bf 4d 06 b5 be
       -0.35853672 -0.6307003 -0.6021813 -0.3535637
000340 c1 f4 f5 be f1 a8 24 bd 3c a9 8d 3e a4 66 a2 3e
       -0.48038295 -0.040200178 0.27668178 0.31718934
000350 3d fe 5c bf 8e f6 0d be af f5 23 be 45 a8 05 bf
       -0.86325437 -0.13863584 -0.1601169 -0.52209884
000360 95 27 48 bd c3 c1 e5 be bb dd f8 3e f8 fe 8e 3e
       -0.048865873 -0.4487439 0.48606667 0.279289
000370 e3 14 91 bf d0 df a4 3e 55 b7 e2 3e 3a e5 c8 3c
       -1.1334499 0.32202005 0.44280496 0.024523366
000380 8f 40 af 3e 76 73 41 3f be ae 2d 3f c9 3a 06 bf
       0.34228942 0.75566804 0.6784476 -0.5243345
000390 5e 13 0c 3e c6 a2 c0 be 8c 4a 5e be 3e 5d 97 bf
       0.13679263 -0.37624186 -0.21708125 -1.182533
0003a0 c3 76 19 bf bf 1d 93 be 9e 9f b4 3e b1 82 04 3f
       -0.5994684 -0.28733632 0.35278028 0.5176192
0003b0 86 86 f4 3d 4b a6 ed bc 29 44 83 3e 1e cf a4 bf
       0.11939721 -0.029009959 0.2563794 -1.2875707
0003c0 e4 8c a9 3d a5 bd 73 3d a7 e9 09 bf b2 fa 9f bc
       0.08278826 0.05950703 -0.5387215 -0.01952872
0003d0 52 a8 68 3c 99 3d 04 3f 6a b6 c4 bd a2 5b 2f 3f
       0.014200287 0.5165649 -0.09605105 0.68499196
0003e0 93 21 0e 3f e4 a6 80 bd c5 ff 29 3e f4 06 19 3e
       0.5551998 -0.06281832 0.16601475 0.14944059
0003f0 1f 35 a0 3e 9d a6 bd be a6 fe 65 3f ce 98 fa 3e
       0.31290528 -0.37041178 0.8984169 0.48944706

mu.0.bias f4 [200]
000000 75 6b 7c be b3 cc 60 be 88 77 6b 3d fc 42 dc be
       -0.24650367 -0.21953087 0.05748704 -0.43019855
000010 19 dd e5 be cb 61 c7 bf 1d 86 6a bc 1f dd d3 3e
       -0.44895247 -1.5576719 -0.014314202 0.4137964
000020 4e cd c0 3e 21 a1 25 3f 9f 40 a4 be c8 37 eb bd
       0.37656635 0.6469899 -0.32080552 -0.11485249
000030 4e 13 b6 3d e5 e8 f6 be 84 72 16 bf 30 8e 80 3e
       0.08890401 -0.4822456 -0.58768487 0.2510848
000040 ca ba 84 3f e3 cf bd be 0a 01 c1 3d 3d 70 a0 be
       1.0369503 -0.37072667 0.09424026 -0.3133563
000050 fd 7d 4c bf 8b 91 92 bf eb fd 91 bf 98 b6 87 3f
       -0.7987974 -1.1450666 -1.1405615 1.0602598
000060 30 43 cd bf e8 46 ca 3d d0 38 5f 3f 84 82 da bf
       -1.6036129 0.098768055 0.87196064 -1.707108
000070 10 bb 1c bf 48 1a 53 bf 90 ac 82 bf b1 c4 c6 be
       -0.61222935 -0.82461977 -1.0208912 -0.3882194
000080 6b 42 fe be b8 69 19 3f 5c 93 85 bf 54 d8 b6 3e
       -0.49660048 0.5992694 -1.0435596 0.3571192
000090 04 0e 0c bf f6 81 da be 23 d3 a4 be 5f ba 6c 3e
       -0.54708886 -0.42677277 -0.32192335 0.2311797
0000a0 83 77 bf bf ff 32 93 bf de 7d 83 bf 35 0c fd be
       -1.4958347 -1.1499938 -1.0272787 -0.49423376
0000b0 a7 30 23 3f c9 6c e1 3e 6b 87 ff be f4 97 b8 3d
       0.6374611 0.4402831 -0.49908003 0.09013358
0000c0 34 78 9f be e8 c3 96 3f d8 56 14 3f 97 83 e4 be
       -0.31146395 1.1778536 0.57945013 -0.44631645
0000d0 6e 3c 88 3e 7e 35 8f bf 51 c4 fa be cf b1 3f 3f
       0.26608604 -1.11882 -0.48977903 0.7488069
0000e0 cb f2 29 3f 99 71 7f bf a7 4e 09 3e 40 ff 81 3e
       0.663861 -0.9978271 0.1340891 0.25390053
0000f0 a7 21 fd be 80 a4 91 bf eb dd 90 be 50 19 42 3f
       -0.49439737 -1.1378326 -0.2829431 0.75819874
000100 41 e4 be bf 16 33 b6 3f 6f 22 80 3c 3b b8 10 be
       -1.4913408 1.423434 0.01564142 -0.14132778
000110 84 ea d5 be 52 ff 7b 3e 40 6e a8 3e 6f 20 87 bf
       -0.41780484 0.24609116 0.32896614 -1.0556773
000120 f9 4b 6b 3f c5 d1 03 3f 77 1a 0a be d4 d8 1d bd
       0.919128 0.5149196 -0.13486658 -0.03853686
000130 02 3f c3 3e 98 e1 ba 3d 6c 97 78 bf a7 a1 9e bf
       0.3813401 0.0912506 -0.9710605 -1.2393082
000140 5e e5 aa 3d 3c e2 d3 3e 61 7e 92 3e e3 48 d0 3e
       0.083445296 0.4138354 0.28612044 0.40680608
000150 7d d9 20 bf a0 d3 f1 3e ca a2 5f bd 41 cb 23 3d
       -0.6283186 0.4723177 -0.054598607 0.03998876
000160 95 f2 95 bf 49 2c 71 bf 60 56 17 3f 83 7b 75 bf
       -1.1714655 -0.942082 0.5911617 -0.9589159
000170 23 15 cd 3e 3f 2e e4 bf 3c e7 46 bf 2d 62 c6 bf
       0.4005519 -1.7826613 -0.77696586 -1.5498711
000180 08 c3 87 be 53 40 26 3f dd a6 da 3e ac 15 b9 be
       -0.26515985 0.649419 0.42705432 -0.36149347
000190 8a 3a bc bf 23 77 f6 be 43 5a dc 3e a5 6e 09 bf
       -1.4705365 -0.4813777 0.43037614 -0.53684455
0001a0 ae 50 34 3f e2 8a 0c 3d d0 47 4a be 24 f0 a3 bf
       0.7043561 0.034312136 -0.19753957 -1.280766
0001b0 ff 75 ee be 49 63 84 3e 4b 1a 93 bf bc d5 bd be
       -0.465744 0.25857 -1.1492399 -0.3707713
0001c0 f2 83 d1 bf 37 14 85 bf 19 cd 7d 3d 75 2f 53 be
       -1.6368392 -1.0396794 0.061963174 -0.20623572
0001d0 c8 ad f1 be 95 e3 43 bf a4 9d d6 bd 63 fa 41 bf
       -0.47202897 -0.7651914 -0.10479286 -0.75772685
0001e0 49 87 98 be 62 8e 42 bf 5a b6 0a be ce 15 e9 3e
       -0.29790714 -0.7599851 -0.13546124 0.45524448
0001f0 85 47 36 3f d8 54 02 c0 b4 32 95 3e 97 86 de 3f
       0.7120288 -2.0364285 0.29140246 1.7384824
000200 b6 ba 34 3f df 40 71 3f 2c 4e 9e bd 18 63 c9 3e
       0.705974 0.9423961 -0.07729754 0.39333415
000210 d1 fd d2 bf ba 0a 3c 3f 93 25 c1 3c 73 fa c3 bd
       -1.6483709 0.7345387 0.023577487 -0.09569254
000220 b1 39 a2 bf 7e 2a 89 3e 28 b1 04 3e d9 5f 35 bf
       -1.2673856 0.2679023 0.12958205 -0.70849377
000230 8b 75 66 bf c9 28 03 bf ae 7b e1 3d db 72 36 bf
       -0.90023106 -0.5123411 0.11009918 -0.71269006
000240 1b e6 9a be a9 c9 14 3f d7 fd cb be 7a 44 bd bf
       -0.30253682 0.5812021 -0.39842102 -1.4786522
000250 da 6d 63 3f c6 6c 18 3f 87 99 77 bf fd e5 cd be
       0.88839495 0.59540975 -0.9671864 -0.4021453
000260 a6 bc be 3f 70 a4 85 bf 4b 51 db be b7 9c 9b bf
       1.4901321 -1.0440807 -0.4283546 -1.21572
000270 62 23 83 be 81 75 37 be 85 46 26 3e f7 94 6c be
       -0.25612932 -0.17915918 0.16237839 -0.231037
000280 83 e6 1c 3f 2c 41 94 3d 43 99 7c bf 81 b2 92 3e
       0.6128923 0.07238993 -0.9867136 0.28651813
000290 f9 3c 2e bf 2c 96 dd bf 18 82 9f 3e 7b c8 32 bf
       -0.68061787 -1.7311454 0.3115394 -0.6983716
0002a0 87 97 39 3f 69 c7 3f 3f af e5 d7 bc 72 be 49 3f
       0.7249684 0.7491365 -0.026354639 0.7880622
0002b0 8a c6 1f 3f b6 3b 80 3e 7f 2d 07 3f 3e 39 b2 3e
       0.6241232 0.25045556 0.52803797 0.34809297
0002c0 c4 22 22 bf 1e 85 3d 3f 00 4e a7 3f 7c 99 75 3f
       -0.633343 0.74031246 1.3070679 0.95937324
0002d0 c6 d4 08 3e 33 82 8b 3f 3c cc 8f bf 6c 1f de bf
       0.13362417 1.0899109 -1.1234202 -1.7353339
0002e0 79 e9 79 3f 3d 00 37 3f ea 92 2a 3f b7 26 11 3f
       0.97621876 0.7148474 0.66630423 0.566997
0002f0 01 8c fe be 9b 3b 2a 3f d5 c9 6b 3f 6f 2b 0d 3f
       -0.4971619 0.664972 0.92104846 0.551444
000300 a1 35 1d 3e ac 80 03 3f cf ca 85 be 57 b6 c2 be
       0.15352489 0.5136821 -0.26131293 -0.3802974
000310 31 b0 ab 3e 86 5b 88 3f c6 e3 02 3f 39 8c 61 bf
       0.3353286 1.0652931 0.51128805 -0.8810459

mu.2.weight f4 [6, 200]
000000 73 03 68 3e 13 de 2a be 7d 2a 80 3c 3e 16 44 3e
       0.22657566 -0.16686277 0.01564526 0.1914911
000010 74 21 0c be a9 21 ab be 04 fb 9c 3c 1a 66 61 bd
       -0.13684636 -0.33424118 0.019162662 -0.055029012
000020 9a 26 5f bd 8f 07 01 be c7 af 12 bf 4c 12 6f 3d
       -0.054480173 -0.1260054 -0.57299465 0.05836706
000030 d0 0c fc 3c 96 19 6d be 99 00 2b be 7d 42 97 3e
       0.030767828 -0.23154292 -0.16699447 0.29542914
000040 90 bd 28 3f ad 64 08 bf 31 63 99 be 4c 8c d0 3b
       0.6591425 -0.5327862 -0.2995849 0.006364381
000050 7d c5 ca 3e 78 ae 13 bf 0f d8 34 3e 8a 54 83 3e
       0.39603797 -0.57688093 0.17660545 0.25650436
000060 e7 54 5f bd d5 49 4a bd 50 59 15 3e bb b4 19 3d
       -0.05452433 -0.049386818 0.14584851 0.037525874
000070 5f 19 84 bd 14 00 c8 3d 71 3f 82 3c 39 cb f4 bc
       -0.06450152 0.0976564 0.015899392 -0.02988206
000080 55 d1 2e 3d 70 6b d4 be 5e 2c 43 bd d1 b7 eb 3d
       0.042680103 -0.41488218 -0.047649734 0.115096696
000090 57 c3 33 3e f7 d8 e1 3d 0c 91 77 be 5e 61 1f be
       0.17554985 0.11027711 -0.24176425 -0.15564486
0000a0 18 9a c5 3d 94 37 41 be 29 4a 87 3e 2b ae 1b bd
       0.09648532 -0.18868858 0.26423767 -0.038007896
0000b0 82 ba b2 3d b3 db 24 3e df eb 4e 3d d5 94 da 3d
       0.0872698 0.16099434 0.050517913 0.10672919
0000c0 8e 8e a6 3e 6d d9 03 3e d8 b3 45 be 95 20 ce 3d
       0.32530636 0.1287591 -0.19306886 0.10064808
0000d0 0f ac ff bd 5d 3e b3 3d 83 57 1c 3e e0 0c b4 3e
       -0.124839894 0.08752129 0.15267758 0.35166073
0000e0 3a 4d b4 3e d9 9c 25 3f 10 11 85 be 3f 1b 6f 3d
       0.3521517 0.64692456 -0.2598958 0.058375593
0000f0 b2 0d 2f be b0 c9 6e 3d 9f 4d 0f 3d 5a c3 08 3f
       -0.17095068 0.058297813 0.034986135 0.5342308
000100 ce 39 13 3d 74 0f ed be 72 9a ce bd 02 fb f3 be
       0.0359438 -0.46300852 -0.10088052 -0.4765244
000110 55 d5 e6 3b bc 50 ea 3c d1 7f d5 bd 68 4a 42 3f
       0.007044474 0.02860295 -0.1042477 0.75894785
000120 ff 0f 03 be 20 7b f9 bd 86 46 75 bd c5 d2 c7 3d
       -0.12799071 -0.12181687 -0.05988171 0.09756998
000130 e7 0b 40 3e ef 64 c5 3b 74 c4 ba bd e2 d6 1c bd
       0.1875454 0.006023995 -0.09119502 -0.038290866
000140 58 58 3d bd fc 3d 3c bc 38 c9 8e be 71 5f 9c 3d
       -0.04622683 -0.011489388 -0.27887893 0.076353915
000150 11 e7 a0 3d 6b d9 23 bd 4b ba 56 be ac d7 5e bc
       0.078565724 -0.040002268 -0.20969503 -0.013601225
000160 36 b7 fb be 47 9e 30 bf ea 24 7c bd 4f 0b 28 3f
       -0.49163216 -0.6899151 -0.06155864 0.65642256
000170 ac e6 cf be 21 d9 03 3d 1e ad e7 3e b4 b2 b6 bc
       -0.40605676 0.032189492 0.45249265 -0.02230201
000180 ef 65 e1 3d 19 c6 44 3d 10 ce 1e 3e d3 18 7a bd
       0.110057704 0.048040483 0.15508294 -0.06105883
000190 df f1 8d 3f 47 23 be be f2 30 3c be 3a 67 b0 bd
       1.1089438 -0.3713629 -0.18378046 -0.08613439
0001a0 ff e1 31 3e bd 25 2e be dd b4 13 3e f6 d6 63 3d
       0.17371367 -0.17006584 0.14424463 0.055624925
0001b0 74 3d bf bd 7f 6c 74 3e d2 68 b3 bd 50 ae 4e be
       -0.09337893 0.23869513 -0.08760227 -0.20183682
0001c0 59 a1 42 be ad 81 93 bd fe 7e 7d be 2f dd 7a bd
       -0.19006862 -0.07202468 -0.24755475 -0.061246093
0001d0 0e 41 85 3e f0 37 53 3e a0 e8 fe 3c f9 96 4a 3e
       0.26026195 0.20626807 0.031116784 0.19784154
0001e0 20 a0 c5 bd 79 a3 9a bd 11 5b 26 be 2b 25 63 3c
       -0.09649682 -0.07550711 -0.16245677 0.013863842
0001f0 a0 70 10 3d 54 13 97 bf d2 bf bd 3e b0 07 6b bf
       0.035263658 -1.1802773 0.3706041 -0.91808605
000200 76 91 0a be b1 86 0f 3c 1e 96 3b be 7e a6 13 3e
       -0.13532051 0.00876014 -0.18318984 0.1441898
000210 76 f3 0b 3f 67 b9 08 be c3 42 45 be d1 e5 9f 3d
       0.54668367 -0.13351975 -0.19263749 0.07807506
000220 f0 40 9c bd d6 5c bc 3c 90 b1 8e bd 40 90 b9 bd
       -0.07629573 0.022993486 -0.06967461 -0.09060717
000230 23 32 05 3e b3 2c 1c bd f5 be 51 3d b0 87 52 3d
       0.13007407 -0.038128566 0.0512075 0.051398933
000240 dc b2 35 3c 27 31 84 bd 60 8a 9e be a5 67 4e be
       0.011090007 -0.064546876 -0.30964947 -0.20156725
000250 75 fd 84 bc 8a bf a6 3b 9a a4 a9 3d f6 b7 82 3d
       -0.016234139 0.005088751 0.082833484 0.06382744
000260 18 01 11 be 75 6f 22 be bf a5 b5 bd b4 ad c2 3e
       -0.14160573 -0.1586283 -0.08869504 0.3802315
000270 7f 07 c0 bd 55 93 e7 3d 0d 95 33 bd da 85 8c bd
       -0.0937643 0.11307398 -0.043843318 -0.06861468
000280 a1 80 5e bd 70 8f 48 bd 7e 64 fe 3e 34 b7 07 bd
       -0.05432189 -0.048964918 0.49686044 -0.0331337
000290 c6 f9 b6 3d e8 85 64 3d 44 ad 81 bd 06 d3 ba 3d
       0.08934359 0.055791765 -0.06331876 0.09122281
0002a0 fd e7 14 3e 43 7c d0 3d 14 71 b7 bd 46 f7 c8 3b
       0.14541622 0.10179951 -0.08957115 0.006132993
0002b0 65 da 8c be 62 c2 1b 3d c5 40 40 3e 91 25 6a 3e
       -0.27510372 0.038027175 0.18774708 0.22865893
0002c0 e1 18 df bd 2a 38 14 be bc 96 cd 3c 42 3c df 3d
       -0.10893417 -0.1447455 0.02509629 0.10900165
0002d0 83 44 d3 3d 30 f3 d9 3e da 10 39 3d 3d 67 78 bf
       0.10315802 0.4256835 0.045182087 -0.9703253
0002e0 54 3c 0d 3f 96 2c 2a 3e 4e 34 23 3b ac 7e 6f be
       0.5517018 0.1661857 0.0024903002 -0.23388165
0002f0 32 77 c8 bd 46 a1 48 bd 28 de e4 3e e7 de 53 bd
       -0.0978836 -0.048981927 0.44700742 -0.051726248
000300 99 7c af bd 08 80 27 3d f4 fd ba bc 60 5b 68 be
       -0.08568687 0.040893584 -0.022826172 -0.22691107
000310 fa 7a 5a 3d 00 dc ef 3c 4b c3 b5 3e 53 50 c5 bc
       0.053339936 0.029279709 0.3550056 -0.024086153
000320 f4 43 8a be db a7 85 3d 0e 52 e5 3d ca a4 bc bc
       -0.2700497 0.065261565 0.11197291 -0.023027796
000330 5d 85 cc bc 03 6c 6b 3f d5 79 f6 3c 9a 8d 13 bd
       -0.024965936 0.9196169 0.03008739 -0.036023714
000340 72 23 6b 3c 9f b4 80 3d 9e f9 12 3e cc 48 03 be
       0.014351713 0.06284451 0.14353034 -0.12820739
000350 2b ba c2 3c f7 78 4b be 19 12 45 be 91 d9 43 3e
       0.023770412 -0.19870363 -0.19245185 0.19125964
000360 2e 3f db 3d 60 6d 6d be 04 ba cc 3d 82 06 df 3d
       0.1070541 -0.23186255 0.09996417 0.10889913
000370 3f 24 54 3e 1a ac 65 bf eb af a3 3e f3 46 dd 3e
       0.20716952 -0.8971573 0.31970152 0.43218192
000380 89 e9 b0 bf ac dd f5 3d a5 63 27 3d 9f 6f 52 be
       -1.3821269 0.12005171 0.040866513 -0.20550393
000390 6f 65 5f 3e c3 9a 8c be c6 8c 28 3d d1 84 38 3d
       0.21816038 -0.27461824 0.041149877 0.04504854
0003a0 cb 9f 46 bc e4 ab e7 bd fb 3a 4e 3f 9d 73 9e 3c
       -0.012123059 -0.113120824 0.8055875 0.019342238
0003b0 d5 55 91 bd 9d 6d 27 be 68 72 95 be 37 89 01 3d
       -0.07096449 -0.16350408 -0.29188848 0.031625
0003c0 67 72 3b 3d b2 e5 0b 3f 0f 69 95 bc 68 9e ae bd
       0.0457634 0.5464736 -0.018238572 -0.08526307
0003d0 8b 90 aa bd b7 79 7c 3e 24 69 76 3d 83 6e 9c 3c
       -0.08328351 0.24655806 0.060158864 0.019095665
0003e0 e8 63 09 be f6 0c a1 3c 99 bf 0c bf 12 b7 dd be
       -0.13417017 0.0196595 -0.54979855 -0.43303734
0003f0 db 39 b2 3c 3f f4 da bc de a2 ed 3e 4b b8 56 be
       0.021756103 -0.026727794 0.4641332 -0.2096874

mu.2.bias f4 [6]
000000 d6 d3 36 bd 44 ef f2 3d 91 16 58 3d 55 0c e9 3d
       -0.044635616 0.118620425 0.052755896 0.11379305
000010 a2 9c 51 be 68 90 68 be
       -0.20469907 -0.22711337

reward_fun.0.weight f4 [200, 7]
000000 ba f7 c3 3c af e8 0e bf d5 82 97 bf 8e 55 2b bf
       0.023921836 -0.55823797 -1.1836802 -0.6692742
000010 22 da b1 be 83 82 c1 be 77 03 a3 3f c3 ef 97 3f
       -0.34736735 -0.37794885 1.2735432 1.1870044
000020 6d e9 1b 3f 1a 94 22 be 37 04 0e 3f ea 67 49 be
       0.60903054 -0.15876809 0.5547518 -0.19668546
000030 db 69 94 be 88 d1 66 bf 07 65 bf bf 3d bf 2c 3f
       -0.2898701 -0.9016347 -1.4952706 0.67479306
000040 a3 5a 6b bf 5f cc b0 bf a4 db 6c 3e 6d 83 3d 3e
       -0.91935176 -1.3812369 0.23130661 0.18507166
000050 b5 6b 20 bf a7 76 e8 3e e4 d1 0a 3f b1 db 61 bf
       -0.6266435 0.45403025 0.5422652 -0.8822585
000060 96 1a 97 bd a1 c4 6d be d2 7c df 3d 71 99 c5 3f
       -0.07378118 -0.23219539 0.109124795 1.5437452
000070 3e 5b e7 3d 33 7e f7 3c 80 71 ef 3d 28 e7 28 bd
       0.112967 0.030211544 0.1169157 -0.041236073
000080 22 cf d7 3e a2 af a7 3e 18 f8 13 c0 4c cd 2b bf
       0.42150217 0.32751185 -2.3120174 -0.67110133
000090 b5 c0 13 bd 16 20 34 3e 90 7a f2 3f 95 d5 1b 3c
       -0.03607245 0.17590365 1.8943653 0.009511371
0000a0 d5 d6 26 3d 45 1e 67 bf 1d c4 8a be ce 35 bd 3f
       0.040732224 -0.9028056 -0.27102748 1.4782045
0000b0 d6 01 e2 3e bc 5a d4 3e ad 2f 03 3d 30 ec be bd
       0.44142026 0.41475475 0.03202789 -0.09322393
0000c0 7f 6a ef bf b1 45 bf be cc 1c b0 3f 1a 7f 36 be
       -1.8704375 -0.37357858 1.3758788 -0.17821923
0000d0 61 12 86 bf 17 02 97 3f 78 aa 2a 3f 20 a3 de 3e
       -1.0474359 1.1797513 0.66666365 0.4348383
0000e0 33 c3 8f bf 7d b1 a0 bf 54 eb 6d bf ae 20 c2 3e
       -1.1231445 -1.2554165 -0.9293721 0.37915558
0000f0 3f ff 03 3e 3d 7f 58 3e ca 92 e9 be a7 47 f8 3b
       0.12890337 0.21142288 -0.45619804 0.007576901
000100 7c bb 8f be 2e 91 93 3e f5 ac 04 3f 13 f4 0e bf
       -0.28072727 0.288217 0.5182641 -0.5584118
000110 84 9b 0c bf 48 db dd 3f a6 15 60 3f 3e 72 20 bf
       -0.549248 1.7332544 0.8753303 -0.6267432
000120 85 09 b0 3e 37 15 9c bc f7 26 06 3f 51 a7 e0 3e
       0.34382263 -0.019053085 0.52403206 0.43877652
000130 f2 f1 0c bf 5e 3a a5 3f 35 9d ba 3e 4f c8 49 be
       -0.5505668 1.2908437 0.36448064 -0.19705318
000140 86 7f ac bf 2c 59 44 3f fc a0 1f 3f 79 5d 8f 3e
       -1.3476417 0.76698565 0.6235502 0.28001
000150 3b 71 be 3f 31 14 5f be d8 19 38 3e 67 bc 54 3f
       1.4878305 -0.21785046 0.17978609 0.8309998
000160 96 04 8d be 83 e9 de bd 10 20 01 bf 7a 13 2d 3f
       -0.2754256 -0.108843826 -0.5043955 0.67607844
000170 bc 69 5a 3f db 76 bb 3e 26 71 1f be d9 37 84 be
       0.8531759 0.36614117 -0.15570506 -0.25823858
000180 29 6c 28 bd 39 74 cd bf 63 50 1a 3f 6e a1 09 bf
       -0.041118775 -1.6051093 0.6027891 -0.5376195
000190 a7 7b 0a bf 90 64 79 3f 1e 1e 2e 3e 91 00 76 3e
       -0.5409493 0.9741907 0.17003676 0.24023654
0001a0 7c 31 a9 3f a2 de 52 bf dd 47 21 bf f2 f8 cc 3f
       1.3218226 -0.8237096 -0.6300028 1.6013472
0001b0 1f b5 08 bf 9d 0c 0e be ca e7 c0 3d 5d bb ee 3f
       -0.5340137 -0.13871999 0.0941921 1.8650929
0001c0 84 5a 89 be bc fc a7 3f 6e d0 c2 3f af 03 be 3e
       -0.2682687 1.3124003 1.5219858 0.37112185
0001d0 21 c8 1b bf b6 68 f2 be d9 86 c0 3e 94 35 4e bf
       -0.6085225 -0.47345513 0.3760288 -0.80550504
0001e0 68 4e 98 bf 2b 6b ac 3f 8d 37 5c be c8 43 b4 3e
       -1.1898928 1.3470205 -0.21505566 0.35207963
0001f0 2f b9 b4 3d 69 ff a3 bf 9f 17 56 3f 88 2f 99 3e
       0.088243835 -1.281232 0.8362979 0.29919076
000200 78 8c 54 bf 35 66 9b 3f 0b cd 19 3f 26 f7 1d 3f
       -0.8302684 1.2140566 0.60078496 0.61705244
000210 db 32 19 3f e7 6e 65 3f d1 47 ab bf 63 4e 51 3d
       0.59843224 0.8962235 -1.3381292 0.051100146
000220 8d 72 16 3f cc 7f 11 3e 60 04 6c 3e a4 98 db 3e
       0.5876854 0.14208907 0.23048544 0.42889893
000230 82 8c d7 bf d5 7b 2c bf 0d b8 da be 50 49 03 c0
       -1.6839755 -0.6737645 -0.42718545 -2.0513496
000240 97 a8 d6 3e ed 5f c2 bc 15 8a cd be a6 af 2b bf
       0.419255 -0.023727382 -0.4014441 -0.67064893
000250 97 61 85 bf 3f 0c 40 bf 5c 62 82 bf 05 37 3c be
       -1.0420407 -0.75018686 -1.0186267 -0.18380363
000260 e1 e2 95 be 59 5e 93 bf 0b 61 44 3e ea b8 b8 be
       -0.29274657 -1.1513168 0.19177644 -0.36078578
000270 c7 9c b4 be c7 d5 36 3f 18 cc 99 3e 18 8c 28 3e
       -0.35275862 0.7141995 0.30038524 0.16459692
000280 97 6e 93 bf 13 6b 26 3f 94 4b 8f 3e 5d 71 32 3e
       -1.1518124 0.6500713 0.2798735 0.17426057
000290 1b 0d 3b 3c 3b 75 cb be ac a2 7c be 40 52 08 be
       0.011416699 -0.39737877 -0.2467143 -0.13312626
0002a0 74 3e 99 3f cf b1 0a bf 5c 3b 80 bb cd 9f 2c 3f
       1.1972184 -0.54177564 -0.003913326 0.67431337
0002b0 e9 e6 e9 3e 4f d2 1f 3f 78 b9 fc 3e 1c 55 bc 3b
       0.45683983 0.6243028 0.4936025 0.0057474505
0002c0 1a 67 85 bf 9b 20 a6 3f c7 c8 c0 be 46 6c 0c 3e
       -1.0422089 1.29787 -0.3765318 0.13713178
0002d0 6a 5a 3c be ba 6e 45 bf ce b4 a1 3e d1 97 39 bf
       -0.18393865 -0.7712208 0.31583256 -0.7249728
0002e0 77 3d 97 3f e8 f3 8f bf 33 94 ec 3e 5a 50 47 3f
       1.1815633 -1.1246309 0.46206817 0.7785698
0002f0 6d 6d 9e bc 88 1d 42 3f 65 28 88 3f 65 4c 57 be
       -0.019339288 0.7582631 1.0637327 -0.21025236
000300 0a 8c 61 3f 23 46 83 3e 1a 34 cb 3d 2b 52 08 bf
       0.8810431 0.25639448 0.09922047 -0.5325038
000310 90 24 a1 bf d0 96 8c 3e 14 43 77 3f 9f 21 ef 3f
       -1.2589283 0.2745881 0.9658673 1.8682135
000320 23 d6 08 bf ef e6 1b bf 20 a2 45 bf f8 b8 4a 3f
       -0.53451747 -0.6089925 -0.7720051 0.7918849
000330 c8 06 22 3e 88 2a 86 3f d8 3a 9a bf 96 0e c0 bc
       0.158229 1.048173 -1.2049208 -0.023444455
000340 68 1e f5 bd 89 e6 d7 bf 08 fd aa bf 85 9c 2d bf
       -0.1196869 -1.6867229 -1.3358469 -0.67816955
000350 a0 e8 83 bf 67 3b fd be 2a d6 6c 3f 06 e6 2d 3f
       -1.0305367 -0.49459383 0.9251429 0.6792911
000360 29 1a a3 3e bc a6 9a 3f 78 69 b2 3e 80 9b b2 bd
       0.31855896 1.2082133 0.3484609 -0.087210655
000370 0d b7 02 3e 20 63 05 be 80 90 c1 be fa 10 85 bf
       0.12765141 -0.13026094 -0.37805557 -1.0395806
000380 3f 8e 96 bd c5 56 e4 3f d5 a5 78 be de 57 b6 be
       -0.0735135 1.783898 -0.2428201 -0.35613912
000390 d2 25 34 3e a5 d9 48 3b 60 79 e7 bf 94 a8 22 bf
       0.17592552 0.0030647304 -1.8083916 -0.6353848
0003a0 16 73 24 3f 8e 39 23 3f d8 cb 58 3f 52 29 42 bf
       0.6423811 0.63759696 0.8468604 -0.758443
0003b0 6d 38 f8 be 73 b3 d4 3f f8 01 e4 3e b9 93 93 be
       -0.4848055 1.6617264 0.44532752 -0.2882364
0003c0 45 d3 d8 3e fe 2e 66 be c3 08 b2 be 74 b7 77 be
       0.42348686 -0.22478864 -0.3477231 -0.24191076
0003d0 a9 7a 9a 3f 88 9e 61 3f 42 a1 1e 3e 7f b2 92 be
       1.2068683 0.88132524 0.15491202 -0.28651807
0003e0 7f b8 95 be f6 c1 fa bb df 3e a1 3d 8f da f7 3e
       -0.29242322 -0.0076525165 0.0787332 0.48408934
0003f0 32 75 84 3f 51 a8 b5 3e c5 41 13 3e 6b 45 e8 3e
       1.0348265 0.35479978 0.14380558 0.45365462

reward_fun.0.bias f4 [200]
000000 7c 1d c5 bf bd 90 89 bf 30 b8 df bf 87 a3 a3 bf
       -1.5399623 -1.0747296 -1.7478085 -1.278428
000010 06 3f 8a bf c2 3d 4d bf 8d 57 1e bf b9 49 21 bf
       -1.0800483 -0.8017236 -0.6185234 -0.63003117
000020 26 fe 01 bf 37 87 2c bf fa 92 8d bf 8e cc 5c bf
       -0.50778425 -0.6739382 -1.1060479 -0.86249626
000030 05 c7 b5 bf c0 42 60 bf f9 be b4 bf 43 09 5e bf
       -1.4201361 -0.8760185 -1.412078 -0.8673288
000040 08 a2 77 bf ea 42 50 bf 0f c1 cf bf 47 f7 ae bf
       -0.96731615 -0.813521 -1.6230792 -1.3669213
000050 89 e9 a9 bf 95 72 23 bf 56 b1 cd be 8e e6 c8 be
       -1.3274394 -0.63846713 -0.4017436 -0.392384
000060 5d 77 b8 bf 69 50 65 bf f7 36 3b bf ae 01 f3 be
       -1.4411427 -0.8957582 -0.73130745 -0.4746222
000070 3e 0f b3 bf 56 6f b6 bf 4f 7d d2 be ce 6d a4 bf
       -1.3989027 -1.4252727 -0.41111228 -1.284601
000080 ff ac b0 bf 46 fb d7 bf 33 9a 51 bf 51 6b 86 bf
       -1.3802794 -1.6873558 -0.81875914 -1.05015
000090 10 83 42 bf 57 46 ee be aa c4 f1 bf b8 86 ab bf
       -0.75981236 -0.4653804 -1.8888142 -1.3400488
0000a0 b0 4a 4e bf 44 45 00 bf b4 8a d9 bf 66 67 8b bf
       -0.80582714 -0.5010569 -1.6995454 -1.089093
0000b0 77 e4 42 bf 12 3a a7 bf 29 46 00 c0 bb 76 e1 bf
       -0.7612986 -1.3064597 -2.0042822 -1.7614359
0000c0 d2 da 0d bf 9d fb 80 bf 40 fc 0f c0 82 7b 11 c0
       -0.5541202 -1.0076786 -2.249771 -2.2731633
0000d0 b1 a1 f5 be ca e0 95 be b3 3f df bf 71 77 25 bf
       -0.47974923 -0.29273063 -1.7441314 -0.6463538
0000e0 80 21 00 c0 6e 31 b5 bf 95 41 0f c0 49 42 ab bf
       -2.0020447 -1.415571 -2.2383778 -1.3379604
0000f0 92 10 3a bf fa 0f 18 bf ff 9d 85 bf c0 b2 3f bf
       -0.72681534 -0.5939938 -1.0438842 -0.74882126
000100 a1 ae 09 c0 9b c5 f7 be 0d f1 5a be 2d bb 95 bf
       -2.1512835 -0.48392949 -0.21381016 -1.1697747
000110 8b e5 29 3d db ac d1 bf dc 7a 37 bf 2a 11 0f c0
       0.041478675 -1.6380876 -0.71671844 -2.2354226
000120 83 aa 2d 3e 35 03 8e bf 1e 7b 0e c0 2a a6 3b bf
       0.16959576 -1.1094729 -2.2262645 -0.7330042
000130 6d 13 28 bf ed 41 3a bf fc 50 e2 bf 29 31 fa be
       -0.6565464 -0.72756845 -1.7680964 -0.4886563
000140 db b2 ac bf 6a b6 b0 bf 57 24 9b bf a7 5b 9d bf
       -1.3492082 -1.3805668 -1.2120465 -1.2293595
000150 f9 20 89 bf 65 01 63 bf 70 6f 99 bf 44 61 69 bf
       -1.0713187 -0.88674 -1.1987133 -0.9116404
000160 65 d9 9e bf 35 54 75 bf 63 c1 b1 bf c8 dd e4 3e
       -1.2410094 -0.95831615 -1.3887142 0.44700456
000170 01 08 5f bf 27 b7 39 bf c4 56 0a c0 ea ea 91 bf
       -0.8712159 -0.72545093 -2.1615458 -1.1399815
000180 f4 d4 e2 be 3c d7 af bf 90 81 b0 bd 09 aa 9a bf
       -0.44303095 -1.3737559 -0.08618462 -1.2083141
000190 04 2f 25 c0 7f f4 ad bf 4d 8b a3 bf 41 16 19 c0
       -2.5809946 -1.3590239 -1.2776886 -2.3919833
0001a0 f6 d7 3b bf 1e 53 18 bf dd b5 02 c0 ef 47 cd bf
       -0.73376405 -0.59501827 -2.04235 -1.6037577
0001b0 96 2f 68 bf a1 2c 9c bf a2 4a ee bf 36 73 ba be
       -0.9069761 -1.220112 -1.8616526 -0.36416024
0001c0 14 13 eb be a7 50 82 bf fc fc a7 bf 3f 94 20 bf
       -0.45912993 -1.0180863 -1.312408 -0.62726206
0001d0 27 a9 4a bf 5b 45 e8 bf 0b a5 01 bf 6e 4f 52 bf
       -0.79164356 -1.8146166 -0.5064246 -0.8215245
0001e0 4a 02 94 bf e0 9a ac bd 94 61 9c bf b2 78 8b bf
       -1.1563199 -0.084279776 -1.2217278 -1.0896208
0001f0 ce a3 a1 bf a1 8b d7 be f7 75 ff be 91 76 96 bf
       -1.2628114 -0.42098716 -0.49894688 -1.1754934
000200 1b 95 89 bf df 48 d5 bf 62 c3 e9 bf be a4 d1 bf
       -1.0748628 -1.6662863 -1.8262751 -1.63784
000210 e1 f9 d7 bf 12 f3 87 bf 8a 56 ea bf 46 56 ae bf
       -1.6873132 -1.0621054 -1.830766 -1.3620079
000220 63 bb f6 bf cd 52 4f bf 6e 6e 06 c0 b8 09 c2 bf
       -1.9275936 -0.8098572 -2.10049 -1.5159216
000230 9d ef a1 bf 78 73 90 bf bd 32 af bf 08 b1 12 c0
       -1.2651249 -1.1285238 -1.3687359 -2.2920551
000240 e8 2d 58 bf 27 ea ac bf f9 20 d1 bf 9c 4d c7 bf
       -0.8444505 -1.3508958 -1.6338187 -1.557056
000250 bf ed 43 be 9b 77 85 be 51 79 a9 be 51 bc e1 bf
       -0.19133662 -0.26067814 -0.3310037 -1.7635595
000260 96 0b 0b bf c7 7f c3 be 6a 02 af bf de 8a 67 bf
       -0.54314554 -0.38183424 -1.3672612 -0.9044627
000270 29 cc 0e bf 2d 49 6b bf dc 80 a5 bf c6 2e 0a bf
       -0.55780274 -0.9190853 -1.292995 -0.5397762
000280 a1 7c 84 bf 25 6d 8b be 0a 96 9c bf 91 24 50 bf
       -1.0350534 -0.27231708 -1.2233288 -0.81305796
000290 db a1 77 bf 8a 67 d2 bf 07 99 21 c0 06 88 bd bf
       -0.96731347 -1.6437848 -2.524965 -1.4807136
0002a0 88 fd 00 c0 78 f7 c1 bf df 1c f6 bf 1a 27 84 bd
       -2.0154743 -1.5153646 -1.9227561 -0.064527705
0002b0 bd fb ce bf 4c e2 8e be 90 ee b0 bf e7 f0 14 bf
       -1.6170574 -0.27907026 -1.3822803 -0.5818009
0002c0 5e e5 7a bf 35 3b e7 bc 5b 17 38 bf 40 b6 c9 bf
       -0.98006237 -0.028226474 -0.7191064 -1.5758743
0002d0 ff db 27 bf be f6 55 bf a7 16 0d c0 80 2e 43 bf
       -0.6557006 -0.83579624 -2.2045076 -0.7624283
0002e0 e3 0a 9f bf 67 98 c7 bf 2b ce ce bf 26 f5 e8 bf
       -1.2425197 -1.5593385 -1.6156667 -1.8199813
0002f0 b2 d5 6d bf 4a 23 fe bf 3c ff 97 bf ae dc a6 bf
       -0.929042 -1.9854519 -1.1874766 -1.3036096
000300 ef 9f a9 bf 1e 7c 72 bf a2 f7 1b bf 9e 92 fc be
       -1.3251933 -0.9472064 -0.6092473 -0.4933061
000310 f3 cd e2 bf 64 c4 0a c0 9f 4a 02 c0 33 b7 a6 bf
       -1.7719101 -2.1682367 -2.0358045 -1.3024658

reward_fun.2.weight f4 [200, 200]
000000 02 26 76 3d 1f 40 01 3c e5 17 5a bd f6 f8 ac be
       0.06009484 0.007888823 -0.053245444 -0.33783692
000010 59 b8 19 be 5c 6a 50 be 78 dd 9f bd 27 58 39 bd
       -0.1501173 -0.20353073 -0.07805914 -0.045250084
000020 12 cb a1 be 9f 16 0c 3c 46 07 30 be cd 6a c7 3d
       -0.31600243 0.008550315 -0.17190275 0.097371675
000030 0b a4 14 3d 86 ef ca 3e 0e 53 28 bf 4e 9c f6 be
       0.036289256 0.39635867 -0.6575173 -0.48166126
000040 aa d2 36 bc 2d 72 bf bc bf dd eb bd da ab 9e be
       -0.011158625 -0.023369873 -0.11516904 -0.30990487
000050 f4 8d b3 be 3f f9 28 bd 98 6c 0a be 03 c1 87 bd
       -0.3506924 -0.041253325 -0.13517988 -0.06628611
000060 3a ca 3c be 84 33 07 bc 8d f3 ab be 5c e3 74 bd
       -0.18436518 -0.008252028 -0.33584252 -0.05978714
000070 89 bc 7a bd a0 84 51 be 96 52 c6 bd 18 46 a5 bd
       -0.061214957 -0.20460749 -0.09683721 -0.0807001
000080 88 d3 c1 bd 78 b5 f6 bc 98 a0 05 be de 1e 74 bf
       -0.094641745 -0.030115828 -0.13049543 -0.953596
000090 e6 c0 a2 bc b1 8d 06 3d 6c 46 46 3e 24 cc 11 bf
       -0.019867372 0.03284997 0.19362801 -0.5695212
0000a0 e1 86 1f bf 09 42 9c 3d 92 bc 6e 3f ed af 2e 3d
       -0.62315184 0.07629783 0.93256485 0.042648245
0000b0 38 29 c4 bc bc ca d8 3d 34 4c 95 bd d9 0f c1 3c
       -0.023945436 0.105855435 -0.07289925 0.023567127
0000c0 f7 47 2d 3d 7f b5 09 be 2f cb d7 3e 8c 03 3b 3f
       0.04230496 -0.13448142 0.42147204 0.7305229
0000d0 e8 4d 00 be 96 e9 5e 3d e3 23 70 bc 63 e4 19 bd
       -0.12529719 0.054421984 -0.014656994 -0.037571322
0000e0 32 82 21 be 0f 25 b1 bd e1 4a 0f bf 9f 4d 79 3e
       -0.15772322 -0.086496465 -0.5597363 0.24346016
0000f0 70 de 44 3c e2 ab cb bd d4 7b 87 bc e4 06 be bd
       0.012015924 -0.099448934 -0.016538538 -0.09278658
000100 22 24 da bd 0c 1a c0 3d 87 e4 fb 3d 12 41 95 3c
       -0.10651423 0.09379968 0.122994475 0.018219505
000110 40 8d a5 bd 14 4e ca 3b 35 33 53 bf b0 21 52 bd
       -0.08083582 0.0061738584 -0.8250001 -0.05130166
000120 ae 77 f5 bd 8c 8e 24 be 04 c9 d5 bb 88 ee b9 be
       -0.11985718 -0.16070002 -0.006524207 -0.36314797
000130 41 7c 5d 3b 24 48 cc 3c e7 f3 97 3e ef 41 31 bd
       0.0033795985 0.024936743 0.2967827 -0.04327577
000140 94 a6 9d bd 4c 7b 79 be 38 69 14 bf ca 44 49 3b
       -0.07697788 -0.2436344 -0.5797305 0.0030711167
000150 8f 12 25 bf 21 56 93 bf 45 35 6b be 81 9b 9a 3d
       -0.64481443 -1.151066 -0.2296954 0.07549191
000160 52 de 4a bd 3b ce e8 bd fa 9b 45 3e 3f f1 8d bd
       -0.049528427 -0.1136746 0.19297782 -0.0693078
000170 c4 28 ab 3d 3b 20 af bd 90 71 04 be 5c 6a 94 3c
       0.08357385 -0.08551069 -0.12933946 0.018117122
000180 23 2b 20 be fc 6d b1 3c 29 3c b6 bd 83 56 19 bf
       -0.15641455 0.02165889 -0.088981934 -0.5989763
000190 d5 54 e0 be 79 65 19 bf 50 42 07 3c d9 71 8d 3c
       -0.43814722 -0.5992046 0.008255556 0.0172662
0001a0 86 76 21 be da 36 0b bf 2e aa b0 3d 36 23 7c 3d
       -0.1576787 -0.5438057 0.08626209 0.061557017
0001b0 dd 61 91 be cf c4 54 be b2 aa 2c 3c a1 d0 bc bd
       -0.28394976 -0.20778202 0.010538744 -0.0921948
0001c0 c0 21 c6 3e b5 61 16 bd 0c 09 f5 be e9 fc 0b be
       0.38697624 -0.036714274 -0.47858465 -0.13670696
0001d0 a7 10 2d bd 1a 61 8c 3e de 98 21 be 51 da 84 bf
       -0.04225221 0.27417833 -0.1578097 -1.0379125
0001e0 e9 0b 1c bd 9b 00 01 be e4 9f d4 bd 9a 29 bc bc
       -0.038097296 -0.12597887 -0.10382059 -0.022969056
0001f0 c5 3e af 3c 25 3a 00 bf 48 ad ec 3d 08 b4 9f 3d
       0.021392236 -0.5008872 0.11556488 0.0779801
000200 02 99 61 3e 01 9e 19 bf 34 57 63 bd 2c 3a 95 bd
       0.22031024 -0.6000672 -0.055503085 -0.07286486
000210 05 1e e1 3d 55 e5 5e 3e 80 ac bd 3c a1 2e 66 be
       0.10992054 0.2176717 0.023153543 -0.22478725
000220 c9 6d e8 be 37 62 f0 bd ce 31 8a 3d f6 49 6e bf
       -0.4539626 -0.11737483 0.06747781 -0.93081605
000230 26 76 11 3b c8 81 4f bd d5 bc 16 3d 64 e2 cc bc
       0.0022195666 -0.05066088 0.036801178 -0.025010295
000240 eb cf ac 3c 0d 18 91 3d e5 26 46 be 3a 2b 14 bf
       0.021095237 0.070846654 -0.19350775 -0.5787846
000250 22 58 8b 3d 4f 34 80 bf 86 cd a8 3b 56 68 1c 3d
       0.068039194 -1.0015963 0.0051514534 0.03818544
000260 4d c1 c2 bd d6 a6 0a be 32 53 a3 be a5 d5 07 3c
       -0.095095254 -0.13540205 -0.3189941 0.008290683
000270 40 05 05 be 14 83 27 bd 7a fd fd 3c 09 32 52 be
       -0.12990284 -0.04089649 0.031004656 -0.205269
000280 45 84 ad be 10 38 3b bc df 84 03 be dd 6a e0 bd
       -0.33889976 -0.011426941 -0.12843655 -0.109578826
000290 86 fd 2b be 30 98 ed be a0 b5 16 be 3e 33 df bc
       -0.1679593 -0.46405172 -0.14717722 -0.027246114
0002a0 26 57 4f 3d a1 50 2d 3e d5 14 34 bf f9 c4 e9 3e
       0.05062022 0.16925289 -0.7034429 0.4565809
0002b0 f1 63 4a bd 20 95 8b 3d cd 57 57 be f1 50 47 3d
       -0.049411718 0.06815553 -0.21029587 0.048661176
0002c0 15 29 60 be ba ba 45 be 70 a0 4a be 6f 19 1b 3e
       -0.21890672 -0.19309512 -0.19787765 0.15146421
0002d0 c9 c7 69 be 37 00 19 bf e7 3b 6e bc 74 43 03 bd
       -0.22830118 -0.5976595 -0.014540649 -0.03204675
0002e0 c1 44 1a 3b 9f 11 46 bd 75 f3 4e 3d 5f d3 42 be
       0.0023539516 -0.04835665 0.050525147 -0.19025944
0002f0 a0 bb 3a 3f dd 66 d4 bd 59 5a a0 be 0f 8e eb 3d
       0.72942543 -0.10371182 -0.3131893 0.11501705
000300 10 2b 0f bf e3 0e ee bd f3 d8 82 be 4d 4d 9c 3b
       -0.55925083 -0.11623933 -0.25556144 0.004769957
000310 c8 95 3e be 80 8c 93 3d 0e 5b 9d 3d 79 94 04 bc
       -0.18611825 0.072045326 0.07683383 -0.008092039
000320 3d 0c 05 bf 42 cd 2d be 71 62 07 3f 96 62 37 3d
       -0.519718 -0.16972831 0.52884585 0.044771753
000330 d1 7c b1 bf 73 84 01 3e 34 4d 76 3d 61 ae 79 be
       -1.3866216 0.12648182 0.06013222 -0.24382927
000340 de 99 5c bf d5 ed 06 3f e9 16 8c 3e b9 53 1e bf
       -0.8617228 0.5270665 0.2736123 -0.618465
000350 e5 48 8d 3f 3f a7 31 3f c3 2d c5 be fc fc 40 3f
       1.1037871 0.6939582 -0.38511476 0.75386024
000360 a7 f4 5b 3f d8 23 0a be 0f bf 45 3f 4c 50 80 be
       0.85920185 -0.13490236 0.7724466 -0.25061262
000370 31 c9 83 bd 12 f2 2c be d8 41 ad 3c b4 63 fe 3e
       -0.064348586 -0.16889217 0.02114956 0.49685442
000380 ae ea ed 3d 69 59 16 3f 10 9e 72 3f 24 cf a9 3e
       0.11617027 0.5873018 0.94772434 0.33165848
000390 dc bf 30 40 ad 1b e2 bf 2b fb df 3e 3c da b4 3f
       2.7617102 -1.7664696 0.43746313 1.41291
0003a0 8e 14 46 bf 50 0c 24 be c9 0b 82 be 2d b9 0a 3f
       -0.77375114 -0.16020322 -0.25399616 0.54188806
0003b0 3d 08 15 bf 20 4f ac bf 3e 97 51 3e 54 9a ca b9
       -0.58215696 -1.3461647 0.2046785 -0.00038643426
0003c0 2f 8f 84 3e c1 9e e6 3e ec 9e 1b bf 25 5e 23 3e
       0.2589049 0.45042995 -0.6078937 0.15953882
0003d0 4d 90 5b bf f7 a2 6d be c9 83 16 c0 1d cc 30 c0
       -0.8576706 -0.23206697 -2.3517935 -2.762458
0003e0 9f 88 83 bf a6 ce 93 be 38 d5 a8 be 56 8e f0 be
       -1.0276068 -0.28868598 -0.32975173 -0.46983594
0003f0 ab 97 44 bf ac 2c 86 bd 79 5a 97 be 21 47 ae be
       -0.76793927 -0.06551489 -0.29561213 -0.34038642

reward_fun.2.bias f4 [200]
000000 c4 f3 1d bd 26 53 94 3e 2f f6 38 be 27 f2 d3 3b
       -0.03856255 0.28969687 -0.18062662 0.006468076
000010 04 9b ba 3e f5 88 0b bd 74 75 06 be 00 fc 55 be
       0.36446393 -0.03406616 -0.13130742 -0.20896912
000020 34 66 e6 bc db 4f d3 bd 8e 61 d3 3d 26 1d 06 3c
       -0.028124906 -0.103179656 0.103213415 0.0081856605
000030 b5 b9 0d be ec 58 82 bb d2 3f d3 bd 63 71 af 3f
       -0.13840373 -0.0039778855 -0.10314907 1.3706478
000040 6a de 13 be 95 88 fb bd 84 60 e4 be 7c 03 d5 be
       -0.14440313 -0.1228191 -0.44604886 -0.4160422
000050 c0 6a 69 bd 6d 31 9f bd 3b 66 a5 be d0 ef fe be
       -0.05698657 -0.07773099 -0.32304558 -0.49792337
000060 b0 5b 8c bc 71 68 a1 bd 71 81 0b 3e b7 94 d1 3e
       -0.017133564 -0.07881249 0.13623597 0.40933773
000070 cd 64 65 be 8b 04 8f be a6 d1 87 be 09 81 99 3d
       -0.22401734 -0.27933154 -0.26527137 0.07495315
000080 d2 31 bf be c4 8a 27 be 3c 56 07 be 4a 10 e0 3d
       -0.37342697 -0.16361529 -0.1321649 0.10940607
000090 03 59 80 be c4 9f 0b 3f 1f 36 61 be 58 1f 50 be
       -0.2506791 0.5454066 -0.21993302 -0.20324457
0000a0 33 3c 41 3e 01 9b f4 3e 04 ed 1d 3f eb 4b 9a be
       0.1887062 0.4777451 0.6168978 -0.30136046
0000b0 38 56 81 bc c2 93 8d bd 2c 54 47 bf 0f 0d 9a 3e
       -0.015788183 -0.06912948 -0.7786281 0.30088088
0000c0 61 ed e7 bd 14 e1 bb 3e 2e ce bb bf c8 e7 1b be
       -0.11324573 0.36695158 -1.4672296 -0.15225136
0000d0 e3 65 7d be 04 ba b1 3e 5e 48 08 3e 77 f6 a3 be
       -0.24745898 0.3471223 0.13308856 -0.32023975
0000e0 cd b0 02 3f e0 36 6c bd 8f 6c 2b 3d a9 31 45 3f
       0.51051027 -0.05766952 0.041851576 0.770289
0000f0 fd c3 19 be 7d 8a 11 be b9 60 f3 3e 99 5a a5 bb
       -0.1501617 -0.14212985 0.4753473 -0.0050462005
000100 30 1b 61 be f2 fa 2e 3f 13 ff b5 bd 04 e5 1a bf
       -0.21983027 0.6835166 -0.08886542 -0.605057
000110 1d f3 6e bd 20 bc ce 3e 1d cb b9 bc af 48 14 be
       -0.05833732 0.40377903 -0.02267986 -0.14480852
000120 92 94 70 be 8b 4e 80 bd 68 7c 11 bc 01 7f 5a 3e
       -0.23494175 -0.06264981 -0.008879758 0.2133751
000130 8a 6b fc 3e 20 17 08 be 9d f3 ed 3e 44 67 89 bd
       0.49300796 -0.13290071 0.46474925 -0.067091495
000140 d3 f8 37 be 0c e1 dd bd ea fa d2 3c c9 61 1f be
       -0.17966013 -0.1083394 0.02575441 -0.15564646
000150 dc c2 4a be 59 af 3e be 59 02 2d 3d d7 08 90 bf
       -0.19800895 -0.18621577 0.042238567 -1.1252698
000160 bd 2b 19 3f 35 bf 39 bc e2 35 21 be 27 52 be bd
       0.59832364 -0.011337091 -0.15743211 -0.09293013
000170 01 5b 53 bc 4b 7e 05 bd f1 65 e7 3e a9 2b 94 be
       -0.012900115 -0.032591145 0.45194963 -0.2893956
000180 e5 66 e3 bd 16 fc 53 3f 79 6b 17 be 78 87 82 be
       -0.1110361 0.8280653 -0.14787091 -0.2549398
000190 22 bd 09 3f 19 37 c1 3e 6b 54 19 be 3f 42 a7 3e
       0.5380422 0.3773735 -0.14973609 0.3266773
0001a0 3f 4a a8 bd 1e fe 89 3e b2 bd f0 3e 1c 4d 73 be
       -0.08217286 0.2695169 0.47019726 -0.23759884
0001b0 38 11 2f 3c 65 82 22 3d 98 c7 17 3f d4 2e 1b 3f
       0.010685258 0.039675135 0.5928893 0.6061833
0001c0 f2 83 74 3e 12 a0 50 3e e0 5f f0 bd 4b ea 44 be
       0.23878458 0.20373562 -0.11737037 -0.1923
0001d0 00 7b 6e be 8e a1 52 be 92 20 01 be 03 7a 6d bf
       -0.23289108 -0.2056944 -0.12610081 -0.927643
0001e0 e4 1e d6 bd c6 5a fa 3e 4e 7b 1c 3e 77 bf ab 3e
       -0.10455111 0.4889738 0.15281412 0.33544514
0001f0 d5 cb 27 3f 00 a9 e3 bd 76 54 05 3d 2b d1 0b be
       0.655454 -0.111162186 0.03255125 -0.1365401
000200 b6 d5 df 3d e7 e1 42 3e a1 9b 80 3e 9d 6f 55 3f
       0.10929434 0.19031487 0.25118735 0.83373433
000210 b3 46 5c 3e d4 3a 50 bd ab fc 3b be b4 7d c7 3e
       0.21511345 -0.050837353 -0.18358104 0.3896309
000220 07 45 f8 bd f4 99 8a 3e 2a cd 65 be f6 2f d3 3c
       -0.12122541 0.27070582 -0.22441545 0.025779705
000230 f2 72 4f 3f 49 00 ea bd ed b6 16 be a7 e7 af be
       0.8103477 -0.11425836 -0.14718218 -0.34356424
000240 19 25 84 bd 4c ac a0 bd 1d 60 95 bd 01 20 4b bf
       -0.06452388 -0.07845363 -0.07293723 -0.7934571
000250 61 75 18 3f cc 08 44 be 50 14 65 3d a2 38 51 3f
       0.59554106 -0.1914398 0.055927575 0.8172704
000260 32 ad df 3e 39 fd 4e bd 98 73 0a bd c2 6a 3c 3d
       0.43686825 -0.05053446 -0.033801645 0.04600025
000270 f0 04 50 be 6c 24 7c be c2 9b e6 bc b8 3a 22 be
       -0.20314384 -0.24623269 -0.028150443 -0.15842712
000280 b5 db ae bd 3c 18 64 be c6 d7 39 bd 69 87 87 3f
       -0.085379995 -0.2227487 -0.045371793 1.0588199
000290 fa 7d 29 be 64 3c d9 bd 73 74 7f be 03 98 2b be
       -0.16551962 -0.10607222 -0.24946766 -0.16757207
0002a0 46 bd a8 3c ab 56 05 bf 9a 68 9f bd a7 df c8 be
       0.020598065 -0.5208537 -0.07783623 -0.39233133
0002b0 d7 fa e3 bd 7e f9 4c be d4 30 56 3f 05 0b 14 be
       -0.11131828 -0.20017049 0.83668256 -0.14457329
0002c0 02 a6 1b be d0 1b e3 bc 06 1e 02 3f 8a 20 62 3f
       -0.15200046 -0.027723223 0.5082706 0.883309
0002d0 19 b6 52 3e 89 ca 8f bd da 22 ae bf 5b 14 f9 3e
       0.20577277 -0.070210524 -1.3604386 0.48648342
0002e0 42 27 b3 3e 7b 25 08 be 32 b1 f1 bd 2d f3 1b be
       0.3499089 -0.13295548 -0.118013754 -0.15229483
0002f0 0c 7c 3f bd 6b 9b f9 bc 28 2d 21 3c f0 3a 8e 3d
       -0.04674916 -0.030469617 0.009837426 0.06944835
000300 13 be f4 3e 67 ca 56 bf 99 a1 62 bd 5a 6d 84 be
       0.47801265 -0.8390259 -0.055329893 -0.2586468
000310 96 3a 0b 3f 05 08 29 3e 4f e5 e9 3e 0b f6 97 bd
       0.5438627 0.16506965 0.4568276 -0.07419976

reward_fun.4.weight f4 [1, 200]
000000 1a 1b 42 3c 5f ba 3d be 6d 6c b0 bc 38 a9 f2 bc
       0.011847282 -0.18528126 -0.021536076 -0.029621705
000010 5a 70 b6 3e b9 4d de bc a9 aa f5 ba 41 01 79 bc
       0.35632592 -0.02713667 -0.0018742877 -0.015198053
000020 d1 66 e1 3c 7a 95 bc 3a ee 00 07 bf e2 73 60 bd
       0.027514847 0.0014387809 -0.52735794 -0.054798014
000030 20 f9 71 3d 5e 94 eb be 52 9f 94 bd c2 e2 88 be
       0.059075475 -0.46011633 -0.072569504 -0.26735502
000040 6c 64 88 37 03 e1 73 3b 8c b6 a7 3c 2c cf 05 3d
       1.6259226e-05 0.0037212975 0.020472787 0.032668278
000050 57 84 f4 3c fd 74 18 3d 1b 2f 67 bd 8d eb d5 be
       0.02984826 0.037220944 -0.056441408 -0.41781273
000060 51 2d e8 3b eb c7 02 3f 41 f1 d6 be 20 28 3f 3f
       0.0070854803 0.510863 -0.41980937 0.746706
000070 5d bd f2 3d c9 9e 5b 3f 8c 16 cd bd 3b 67 00 bf
       0.118525244 0.8578916 -0.10014066 -0.5015752
000080 d3 e5 ae 3e 3e 58 bc 3d d7 41 ec bc 57 7e 7d be
       0.34159717 0.09196518 -0.028839989 -0.24755226
000090 6f 95 64 bd 2a 5b 1a 3f d0 5a f2 3e 3e 64 2c bd
       -0.055806573 0.60295355 0.4733491 -0.042087786
0000a0 7b 09 2a bf 8f 4f 16 bf a1 fc a9 3e d8 40 0c 3f
       -0.66420716 -0.58715147 0.33200553 0.54786444
0000b0 b9 00 c3 be 51 d4 ec 3d 35 17 f7 be 21 62 e4 be
       -0.3808649 0.11563934 -0.48259893 -0.44606116
0000c0 7c 18 ac 3d c1 6f 0f bf b2 41 83 3e e5 8e 4b bc
       0.084031075 -0.560299 0.2563606 -0.012424205
0000d0 3e 90 ed be 00 ca 2b 3e ea 8f 5b bf 38 00 63 bd
       -0.4639911 0.16776276 -0.8576647 -0.05542013
0000e0 93 a3 4f be 22 63 66 3d c1 ef a2 bb d2 32 29 be
       -0.20277242 0.056246884 -0.0049724285 -0.16523293
0000f0 7d d8 b2 bd 0a 56 1f bf 8c 31 89 3e f6 c7 af 3e
       -0.08732698 -0.6224066 0.26795614 0.34332246
000100 e4 95 1f 3d b3 2d 81 be 9b 23 0d 3f a3 b1 da 3e
       0.038961306 -0.25230178 0.55132455 0.4271365
000110 87 c7 f6 be 0d 20 32 bf 3e 8e 7a 3c a5 13 60 3b
       -0.48199102 -0.69580156 0.015292702 0.0034191397
000120 66 fc 6a bd 6b 1d 5a bf 50 e2 0b 3d 7e 4a 46 3f
       -0.057369612 -0.8520114 0.034151375 0.77457416
000130 10 b1 66 be 53 7a 4c bd 2c 02 34 be bd 85 a5 be
       -0.22528481 -0.049921345 -0.17578954 -0.32328597
000140 ff 25 1f 3d 67 f4 19 3d b4 0e 47 3b 04 03 d7 bc
       0.038854595 0.037586596 0.0030373754 -0.026246555
000150 24 46 70 be 27 27 07 be b9 22 85 be 11 60 63 3e
       -0.23464257 -0.13198529 -0.26003054 0.22204615
000160 3b 33 66 3e 8d 27 d0 be 5d 90 6f bc de 97 72 be
       0.2248048 -0.40655175 -0.014621821 -0.23690745
000170 b9 ae 0c 3e 65 79 0c bf a8 ae dd bd 03 ab 0b bc
       0.13738526 -0.54872733 -0.10824329 -0.008524659
000180 b0 fe 7b bd b4 2a 98 be 4e 69 4c 3d 34 b2 03 bc
       -0.061522186 -0.2972008 0.049905114 -0.008038092
000190 88 64 2c 3f 38 44 c9 be db a2 44 bd 4f 08 d5 be
       0.673409 -0.3930986 -0.048006874 -0.416079
0001a0 09 6a 28 3c 1b 0e a0 3d 77 3b 19 be 62 57 d7 3c
       0.010279187 0.078151904 -0.1496409 0.026286785
0001b0 b4 41 d0 bb 0a 5f 4f bf 14 e6 35 be 08 69 2b 3f
       -0.0063554887 -0.81004393 -0.17763549 0.6695714
0001c0 cb 3b 1b be ff 96 ff be 7f eb 1c 3c 80 49 d2 bb
       -0.15159528 -0.49919888 0.009577631 -0.0064174533
0001d0 7b 74 17 3e 84 a6 86 3d 8f a8 0e bd ae 51 41 3e
       0.14790528 0.06574729 -0.03482872 0.18878815
0001e0 7a 75 e5 bd 03 fc 26 3f a5 89 e8 bf e2 de 0a bf
       -0.112040475 0.6522829 -1.8167006 -0.5424634
0001f0 8c f1 f9 bd 38 3b ee bb 12 4e b1 3c 15 6a 99 3d
       -0.122042745 -0.007270243 0.021643672 0.07490937
000200 3e f7 86 bf 23 54 2b be 00 13 06 3f 6b 9c 0d be
       -1.0544202 -0.16731314 0.5237274 -0.138292
000210 84 8c 34 be d2 a2 c3 3d 83 79 99 bd 64 f0 81 be
       -0.17631727 0.0955254 -0.0749388 -0.25378716
000220 e9 19 68 bd 40 8d b8 be 13 d5 71 3d 8e 9c fe be
       -0.056665335 -0.36045265 0.059041094 -0.49728817
000230 98 a3 65 3e f7 25 8c bf 88 65 54 bf 7c 73 0e 3d
       0.22425687 -1.0949086 -0.82967424 0.034778103
000240 9b b4 23 3d f1 2f 15 bf 4f ae 87 3c b6 60 32 3e
       0.03996716 -0.5827628 0.016562609 0.17419705
000250 cb a1 22 be f6 46 ca bb aa 82 d2 3e 2d 91 5d 3e
       -0.15882032 -0.00617301 0.41115314 0.21637411
000260 5a a5 d9 3e 48 42 a8 bd 07 10 90 be 72 17 b7 3e
       0.42508966 -0.08215767 -0.28137228 0.35760075
000270 f9 3d a9 3e c1 49 24 3f 65 57 14 be f4 65 68 3d
       0.33055094 0.6417504 -0.14486463 0.056737855
000280 a2 16 49 3d 50 a6 fa bc 88 7d fc be 14 7e 47 be
       0.04909385 -0.030596882 -0.49314523 -0.19481689
000290 90 c5 fd 3b 13 60 15 bd c4 36 54 bd 3a 99 ab 3d
       0.0077444986 -0.036468577 -0.05181004 0.08378835
0002a0 b7 9d 56 be 80 d1 99 3e d2 4a 8b bd 7f 35 04 3e
       -0.20958601 0.30042648 -0.0680138 0.12911032
0002b0 1c c7 f0 3c 11 60 d1 bb 84 aa ac be fa 96 de ba
       0.029391818 -0.006389626 -0.33723843 -0.001698225
0002c0 bb 2f a0 3d a8 17 cc 3e 1b 19 d3 be 17 99 b6 3e
       0.07821604 0.39861798 -0.4123009 0.35663673
0002d0 bf 2d 10 bf b0 e6 1d 3d 13 d6 74 3e a8 3b 52 be
       -0.56319803 0.03855008 0.23909788 -0.2053057
0002e0 ab a7 80 3e 67 b1 4d bd 90 2c 82 3d ed be 80 3c
       0.2512792 -0.050218012 0.06356156 0.01571604
0002f0 ca b5 2e bc 9a 86 68 bb 55 ba 61 bf bc 4a 21 3f
       -0.010663459 -0.003548062 -0.88174945 0.6300466
000300 ba 5b 92 3e 1e 05 9b 3e ac c5 a9 3c 82 1a a7 bd
       0.28585607 0.30277342 0.02072414 -0.08159353
000310 fa 39 14 3f c5 f2 65 bf c9 29 ea 3e de 37 24 3d
       0.57900965 -0.8982356 0.45735005 0.04009234
