data/hlt_stoch/InvertedPendulumRoboschoolEnv/seed_113/model_final.pt (torch, 180560 bytes, 10 tensors)

log_std f4 [1, 5]
0	0xc0c185ed	-6.0475984
1	0xc0438789	-3.0551474
2	0xc0a7fe40	-5.2497864
3	0xc0a66253	-5.1995025
4	0xc015d9a3	-2.3414085

mu.0.weight f4 [200, 6]
0	0xbd2d29fa	-0.04227636
1	0xbccc9f57	-0.024978323
2	0x3e93290b	0.2874225
3	0x3dd5f4c9	0.1044708
4	0xbc26016f	-0.010132178
5	0x3de35f2d	0.11102138
6	0x3dd00ed5	0.10159079
7	0xbd22be79	-0.03973243
8	0x3e2a0cb5	0.1660641
9	0x3c9c44f1	0.019075843
10	0xbb50e577	-0.0031875053
11	0xbdbc25d6	-0.09186904
12	0x3d9b45e9	0.07581694
13	0xbc4c1b24	-0.012457643
14	0xbe3de61a	-0.18544808
15	0x3ea9b868	0.33148503
16	0xbe38aaea	-0.18033949
17	0xbb507f36	-0.0031814105
18	0xbe4e3b67	-0.20139848
19	0xbd917ac6	-0.07103495
20	0x3c298b48	0.010348149
21	0xbc2e1936	-0.010626128
22	0xbb024501	-0.0019877555
23	0x3e4a3625	0.19747217
24	0x3e213d9d	0.1574616
25	0x3d2492fe	0.040179245
26	0xbed75cc2	-0.42062956
27	0xbcd03c2b	-0.025419315
28	0xbc3be8ba	-0.011469061
29	0x3d0a05cf	0.033696946
30	0xbcd8dd0e	-0.026472595
31	0xbc8149fd	-0.01578235
32	0xbd952387	-0.07282167
33	0x3df6b707	0.120466284
34	0xbb369f6b	-0.0027866017
35	0xbddf1e7e	-0.10894488
36	0x3d68b894	0.056816652
37	0x3c83d077	0.016090615
38	0x3f73e988	0.95278215
39	0x3f4320fc	0.76222205
40	0xbd1cfd8c	-0.03832774
41	0xbd9be7ed	-0.07612596
42	0xc024c937	-2.5747812
43	0xbeb7c707	-0.35894033
44	0xbf47af5d	-0.7800196
45	0x3eb9670c	0.3621143
46	0x3c1d30d3	0.00959416
47	0x3d9caaa8	0.076497376
48	0x3d943096	0.072358295
49	0x3c8d8e98	0.017279908
50	0x3e354990	0.17703843
51	0x3df3aa78	0.11897749
52	0x3a2eece5	0.0006672873
53	0xbd10bd76	-0.035336934
54	0x3c718b51	0.014742688
55	0xb9a69b82	-0.0003177785
56	0x3cde30c3	0.02712286
57	0x3b3b8981	0.0028615894
58	0xbb22f70a	-0.0024866485
59	0xbc64f772	-0.013975011
60	0xbd20e2aa	-0.039278664
61	0xb9888d69	-0.000260453
62	0x3f69b7d9	0.91296154
63	0xbeeeff51	-0.46679166
64	0x3d879769	0.06620676
65	0xbe146164	-0.14490277
66	0xbc6e77ca	-0.014554927
67	0x3bec9419	0.007219803
68	0x3ebeec8e	0.37289852
69	0xbc84cfa6	-0.016212296
70	0x3c222a5a	0.009897793
71	0x3dbf244d	0.09333096
72	0xba2d1d80	-0.0006603822
73	0x3cb8ef46	0.022575032
74	0xbda12576	-0.07868473
75	0x3bd0eceb	0.006375899
76	0xbc041976	-0.008062711
77	0x3f0acf82	0.5422288
78	0x3c46b26e	0.012127502
79	0x3cd7b878	0.026333079
80	0x3e895aec	0.2682718
81	0xbea979b5	-0.33100668
82	0x3d93c815	0.07215897
83	0xbce70ed0	-0.028205305
84	0x3d2c1cb4	0.04201956
85	0xbc01daeb	-0.007925729
86	0x3def94c2	0.11698295
87	0x3b10720d	0.0022040636
88	0xbba42266	-0.0050089834
89	0xbda834b2	-0.08213176
90	0xbe5e2d21	-0.21696903
91	0xbcd41392	-0.025888238
92	0x3e704b0b	0.23466127
93	0xbd1550b5	-0.03645392
94	0xbc2b4638	-0.010453753
95	0xbdab4cc2	-0.0836425
96	0xbc6feb30	-0.014643475
97	0xbbac9126	-0.0052663265
98	0x3f4325fe	0.76229846
99	0xbf1646a4	-0.5870154
100	0x3e2217df	0.15829419
101	0x3d38eebb	0.045149546
102	0x3e4d54dd	0.20051904
103	0x3dcae5cd	0.09907112
104	0xbf1e8c88	-0.61933184
105	0xbd504517	-0.05084714
106	0xbd23ddfb	-0.04000662
107	0xbcbd53ff	-0.023111342
108	0xbc6c0c50	-0.014407232
109	0xbcbf940a	-0.02338602
110	0xbf60f9f1	-0.8788138
111	0x3f48db2c	0.7845943
112	0x3dd81da0	0.105525255
113	0x3c460974	0.012087215
114	0xbd3b1526	-0.045674466
115	0xbd2a10b4	-0.041519836
116	0x3d60bddc	0.054868564
117	0xbd8dcef4	-0.06924239
118	0xbba8ee46	-0.0051553575
119	0x3dc09cbc	0.09404895
120	0x3d6dc52f	0.058049377
121	0xbd314e2c	-0.04328744
122	0x3d438d6f	0.047742303
123	0x3e5bcbb2	0.21464422
124	0xbb4f5996	-0.003163909
125	0x3e80748f	0.25088927
126	0x3ddf50df	0.10904097
127	0xbd3f6923	-0.046731126
128	0xbd1501b8	-0.036378592
129	0x3c404dc1	0.011737288
130	0xbc434c17	-0.011919997
131	0x3d4b8fd2	0.049697705
132	0xbe86c0f0	-0.26319075
133	0xbd9ae0df	-0.07562422
134	0xbe5e38ac	-0.21701306
135	0xbe02326e	-0.1271455
136	0x3b2d4670	0.002643969
137	0x3c036df5	0.008021821
138	0x3d3c1158	0.045914978
139	0xbddb4a75	-0.10707561
140	0xbedf665c	-0.43632782
141	0xbf32a7c4	-0.6978724
142	0xbab23b4d	-0.0013597995
143	0xbdc9724a	-0.09836252
144	0x3b082f0e	0.002078
145	0x3d0eece6	0.034893893
146	0x3e35378a	0.17696968
147	0x3d7e005f	0.062012073
148	0xb6a88183	-5.0218673e-06
149	0x3e130513	0.14357404
150	0xbb9a06b4	-0.004700506
151	0x3cc46690	0.023974687
152	0x3d010826	0.03150191
153	0x3d48380f	0.048881587
154	0xba3581b6	-0.00069239305
155	0xbe22e6e5	-0.15908392
156	0xbe8458a0	-0.25848866
157	0x3c49c78b	0.012315641
158	0xbded2e34	-0.11581078
159	0xbe610dac	-0.21977872
160	0x3d8d202e	0.068909034
161	0x3c1bdf5b	0.009513701
162	0xbc6b3129	-0.014354982
163	0xbb84c7f4	-0.0040521566
164	0xbd0f0d87	-0.03492501
165	0xbee598c6	-0.4484312
166	0xba50a4dd	-0.0007959137
167	0xbead4463	-0.33841237
168	0x3ea73c29	0.32663086
169	0x3c97e3c6	0.018541228
170	0x3cb8bd9f	0.022551356
171	0xbdf2ebcb	-0.1186138
172	0xbb95d3a3	-0.004572348
173	0xbe2cdcf3	-0.1688116
174	0x3af50753	0.0018694199
175	0x3d158f22	0.036513455
176	0x3e6ff896	0.23434672
177	0x3d963270	0.07333839
178	0xbc25a985	-0.010111217
179	0x3e209a5d	0.15683885
180	0xbbd08109	-0.0063630384
181	0xbc8a9d39	-0.016920673
182	0xbf67814f	-0.90431684
183	0xbef46002	-0.47729498
184	0x3da80e48	0.08205849
185	0x3c77c4cd	0.015122605
186	0x3ed46991	0.4148679
187	0x3d377d58	0.04479727
188	0x3dbd076b	0.092299305
189	0x3eb6a76c	0.35674608
190	0xbc2bd9f5	-0.010488977
191	0x3e0ef443	0.13960366
192	0xbdd517fb	-0.104049645
193	0x3dfb8a0a	0.12282188
194	0xbe919180	-0.2843132
195	0x3d37bf3c	0.04486011
196	0xbcbbdd61	-0.02293271
197	0x3edff8cc	0.43744504
198	0x40003895	2.0034535
199	0x3ed758d8	0.4205997
200	0xc00d61f9	-2.2091048
201	0x3e401d25	0.18761118
202	0xbcc08f10	-0.023505718
203	0x3e4b19c6	0.1983405
204	0x3e529a1e	0.20566604
205	0xbc990169	-0.01867743
206	0x3c499ca9	0.012305417
207	0x3de2d351	0.11075462
208	0xbb78a340	-0.0037939101
209	0x3df219d9	0.11821336
210	0xbd7164a5	-0.058933873
211	0xbd81b89b	-0.06334039
212	0xbe089aa2	-0.13340238
213	0xbd3c86fa	-0.04602716
214	0x3c8c840e	0.017152812
215	0xbe75fd8e	-0.24022505
216	0xbddbfb9c	-0.1074135
217	0xbd866149	-0.065615244
218	0xbf093d99	-0.53609616
219	0xbe055afa	-0.13022986
220	0x3d094eb6	0.03352233
221	0x3d44acc5	0.04801633
222	0xbc7a5ff6	-0.015281668
223	0xbcfb3dad	-0.030669058
224	0x3d5175b4	0.05113764
225	0xbda7a739	-0.08186192
226	0x3bcf6832	0.0063295597
227	0x3b875393	0.004129836
228	0x3e238b3b	0.15971081
229	0x3c92a182	0.017899279
230	0x3d18fd5c	0.037350997
231	0x3e4c529a	0.19953385
232	0xbbc885a4	-0.006119447
233	0x3d9cb9c6	0.07652621
234	0x3d421b39	0.047389243
235	0xbd712180	-0.05886984
236	0x3d1bdea2	0.038054116
237	0x3de69cda	0.11260386
238	0xbaa1a4e9	-0.0012332472
239	0xbda5552a	-0.080728844
240	0xbe1d3478	-0.15352046
241	0xbdf8063e	-0.121105656
242	0xbe87dada	-0.26534158
243	0xbe370b0d	-0.1787531
244	0x3cc2571d	0.02372318
245	0xbd9c1f2e	-0.076231346
246	0x3aeb03d0	0.0017930213
247	0x3b2fa8ce	0.0026803496
248	0xbeb1782f	-0.34662005
249	0xbf587d4f	-0.84566206
250	0x3dd21167	0.102572255
251	0x3d61e80b	0.055152934
252	0x3e3e5fde	0.18591258
253	0x3caed727	0.021342827
254	0x3d29879c	0.041389093
255	0x3e8869ac	0.2664312

mu.0.bias f4 [200]
0	0xbf18943a	-0.59601176
1	0xbec6e1a0	-0.38844013
2	0xbfc565ed	-1.542173
3	0xbf017659	-0.5057121
4	0xbf2db035	-0.67846996
5	0xbec98d49	-0.39365605
6	0xbfe41491	-1.7818776
7	0xc0717fff	-3.7734373
8	0xbeae85dc	-0.34086502
9	0xbdbf05b1	-0.093272574
10	0xbf4d63bc	-0.8023031
11	0xbf2ba7bf	-0.67052835
12	0x3f085805	0.5325931
13	0xbfb10289	-1.3828899
14	0xbe768168	-0.24072802
15	0xbf18669f	-0.5953159
16	0xbfae26a3	-1.3605541
17	0xbfb6a4cb	-1.4269041
18	0xbf87c08c	-1.0605636
19	0xbe93b7e4	-0.28851235
20	0xbf09f29a	-0.53885806
21	0xbeb68352	-0.35647064
22	0xbf33e486	-0.70270574
23	0xbf9f6249	-1.2451869
24	0xbef2f41a	-0.4745186
25	0xbe8d4abc	-0.2759608
26	0xbfe71d53	-1.8055824
27	0xbf5835cf	-0.84457105
28	0xbf24b402	-0.6433717
29	0xbf1dba3c	-0.61612296
30	0xbf2f6d87	-0.685265
31	0xbf769bfb	-0.9633176
32	0xbf7225e7	-0.94589084
33	0xc08ae8b1	-4.3409047
34	0xbed25711	-0.4108205
35	0xbf228a82	-0.63492596
36	0xbf914057	-1.134776
37	0xbeb46ed8	-0.35240817
38	0xbf056140	-0.52101517
39	0xbeb4aecd	-0.35289612
40	0xbf5a09d1	-0.8517123
41	0xbf274090	-0.6533289
42	0xbf0e9cf1	-0.55708224
43	0xbf156612	-0.5835887
44	0xbf64c109	-0.8935705
45	0xbe09a863	-0.1344314
46	0xbee5798a	-0.4481929
47	0xc02c02c8	-2.6876698
48	0xbea05945	-0.31318107
49	0xbfa22056	-1.2666118
50	0xc00e47c0	-2.2231293
51	0xc06bf85d	-3.687034
52	0xbe251553	-0.16121416
53	0xbf730ae8	-0.94938517
54	0xbf87d979	-1.0613242
55	0xbf3e9ecc	-0.74461055
56	0xbf023cae	-0.5087384
57	0xbf23b780	-0.63951874
58	0xbed3a104	-0.41333783
59	0xbe9b0566	-0.30277556
60	0xc018a71b	-2.3851993
61	0xbfd692b2	-1.6763518
62	0xbf91f4d1	-1.1402837
63	0xc032e9b7	-2.7955148
64	0xbf3f0391	-0.74614817
65	0xbf1f1127	-0.6213555
66	0xbfb82118	-1.43851
67	0xbec6daf3	-0.3883892
68	0xbf3dc3f7	-0.74127144
69	0xbf8594c6	-1.0436027
70	0xbf8c5ab1	-1.0965177
71	0xbf853859	-1.0407821
72	0xbf01010e	-0.50392234
73	0xbf3a4c71	-0.7277289
74	0x3f77d670	0.9681158
75	0xbf191029	-0.59790283
76	0xc06620b5	-3.5957463
77	0xbfb3d726	-1.4050033
78	0xbecc6f7f	-0.39928815
79	0xbf1fbb4b	-0.6239516
80	0xbff8d1f6	-1.9439075
81	0xbfe0038e	-1.7501085
82	0xbf574813	-0.8409435
83	0xbf5fadef	-0.87374777
84	0xbf17b0ff	-0.5925445
85	0xc05b39eb	-3.42541
86	0xbf6a9b50	-0.9164324
87	0xbf4a31ed	-0.7898243
88	0xbf33a0d6	-0.7016729
89	0xbfdc0cb1	-1.7191373
90	0xbec688b4	-0.3877617
91	0xbef12f8f	-0.47106597
92	0xbf2ca27c	-0.6743543
93	0xbeb6f0dd	-0.3573064
94	0xbf721864	-0.9456847
95	0xbe5f7e65	-0.2182556
96	0xbe85e54e	-0.26151508
97	0xbecde7ce	-0.40215915
98	0xbf5abeb3	-0.85447234
99	0xbf3a8885	-0.7286456
100	0xbecedb4d	-0.40401688
101	0xbf21f027	-0.6325707
102	0xbec63ee1	-0.38719848
103	0xbf1171a0	-0.56814003
104	0xbff015dc	-1.8756671
105	0xbede608a	-0.43433028
106	0xbfdab82d	-1.7087456
107	0xbf961e29	-1.1727954
108	0xbf991710	-1.1960163
109	0xbe5b0969	-0.21390308
110	0xbf99e09c	-1.202167
111	0xbe96866e	-0.29399437
112	0xbf8439c4	-1.0330129
113	0xbeea804f	-0.45801017
114	0xbed346cd	-0.41264954
115	0xc03ed16a	-2.9815316
116	0xbf1c40af	-0.610362
117	0xbfed75d5	-1.8551584
118	0xbf22385f	-0.63367265
119	0xbf94bfd2	-1.1621039
120	0xbeb12d93	-0.34605083
121	0xbec00b7e	-0.37508768
122	0xbf264907	-0.6495518
123	0xbed16742	-0.40899092
124	0xbeb2dc63	-0.34933767
125	0xbdf2c30f	-0.11853611
126	0xbf2eab4e	-0.6823014
127	0xc02eda6c	-2.7320814
128	0xbf951e83	-1.1649936
129	0xbe34cceb	-0.17656295
130	0xbf154971	-0.5831519
131	0xbf9d5dac	-1.2294211
132	0xbfc9ebe9	-1.5775119
133	0xbec9a65f	-0.39384744
134	0xbfa47142	-1.2847064
135	0xbec8a125	-0.39185444
136	0xbeca91d6	-0.3956439
137	0xbf91c086	-1.1386878
138	0xbfffe685	-1.9992224
139	0xbfa150ca	-1.260278
140	0xbf8d89ef	-1.1057719
141	0xbf20edaf	-0.62862676
142	0xbfcf7766	-1.6208313
143	0xbf4c8c9f	-0.7990207
144	0xbf2b37c0	-0.6688194
145	0xbf454646	-0.77060354
146	0xbf1ebd4f	-0.6200761
147	0xbf1d068c	-0.61338115
148	0xbf789538	-0.9710269
149	0xbf9c1fc5	-1.2197195
150	0xbf9fa2d7	-1.247157
151	0xbf2db3e8	-0.6785264
152	0xbf114056	-0.56738794
153	0xbf167f3e	-0.58787906
154	0xbf8011ba	-1.000541
155	0xbf3505bf	-0.7071189
156	0xbfb15be4	-1.3856168
157	0xbe5f1ff5	-0.21789534
158	0xbf96b732	-1.1774657
159	0xbfa520b6	-1.2900608
160	0xbeb7f2a5	-0.3592731
161	0xbf35c0d9	-0.7099739
162	0xbfa9981d	-1.3249546
163	0xc01231d1	-2.2842906
164	0xc066fc7d	-3.6091607
165	0xbea3515d	-0.31898013
166	0xbf0c12ed	-0.5471638
167	0xbe1bd6d1	-0.15218665
168	0xbed57899	-0.4169357
169	0xc02c5931	-2.6929438
170	0xbfec1b8f	-1.844591
171	0xc051633e	-3.2716823
172	0xbe82ea90	-0.25569582
173	0xbf0041a6	-0.5010017
174	0xbdc595d5	-0.09647719
175	0xbe8041d8	-0.25050235
176	0xbf29ae8d	-0.6628197
177	0xbfc117be	-1.508537
178	0xbf08ccd2	-0.5343753
179	0xbf2f7184	-0.68532586
180	0xbee38c81	-0.44443133
181	0xbf9fe238	-1.2490911
182	0xbe6ceb6d	-0.23136683
183	0xc048258f	-3.1272924
184	0xc034e712	-2.8266034
185	0xc05f7658	-3.4915981
186	0xbed469ca	-0.4148696
187	0xbec13cc8	-0.37741685
188	0xbe830b7f	-0.25594708
189	0xc03ee7d9	-2.9829009
190	0xc01cc794	-2.4496813
191	0xc011b86d	-2.2768815
192	0xc0091fc2	-2.1425633
193	0xbee63fb8	-0.4497049
194	0xbf88aadd	-1.0677143
195	0xbf5980b2	-0.84962
196	0xc00185ff	-2.0238035
197	0xbf925ed2	-1.1435187
198	0xbec0713b	-0.37586388
199	0xbeab574e	-0.33465046

mu.2.weight f4 [5, 200]
0	0xbc0a733b	-0.008450325
1	0xbc42c81f	-0.011888533
2	0x3c4827dc	0.012216534
3	0x3d050d54	0.032483414
4	0xbc255310	-0.010090604
5	0xbc831a49	-0.016003745
6	0xbc6865d4	-0.014184434
7	0x3d9223b6	0.071357176
8	0x3bc7bcbb	0.0060954965
9	0xbaa10fe8	-0.0012288066
10	0x3b22083d	0.0024724149
11	0x3bd72c78	0.0065665804
12	0x3bca8597	0.006180476
13	0xbc0f5145	-0.0087474035
14	0x375d0bef	1.3175405e-05
15	0xbc08918b	-0.008335481
16	0xbc24f53e	-0.010068236
17	0x3c06162c	0.008183997
18	0x3b9927ae	0.0046739196
19	0xbc888da2	-0.016669098
20	0xbc575508	-0.013142832
21	0xbbb7f9d7	-0.0056145
22	0xbbeb33bd	-0.0071777985
23	0xbc38c6ab	-0.011277835
24	0xbca1d4bf	-0.019754766
25	0x3ad765ac	0.0016433499
26	0x3c1279e9	0.008940198
27	0xbcc1f280	-0.023675203
28	0x3be6ac16	0.007039557
29	0xbbc0caba	-0.005883542
30	0xbbbf2df5	-0.005834336
31	0xbd7b4590	-0.061345637
32	0xbc38be54	-0.0112758465
33	0xbc2b6497	-0.010460994
34	0x3c387bbe	0.011259971
35	0xbb9377f6	-0.0045003844
36	0xbc137286	-0.0089994725
37	0xbc8388fa	-0.016056526
38	0xbcbf6036	-0.023361307
39	0x3c287fac	0.010284346
40	0xbd527222	-0.051378377
41	0xbc571524	-0.013127599
42	0x391a7b27	0.00014732462
43	0xbd0c4e1e	-0.034254186
44	0xba4919bb	-0.00076713756
45	0x3a38e513	0.00070531777
46	0xbb22881e	-0.002480037
47	0x3e360d5e	0.17778537
48	0xb9f49f1f	-0.0004665786
49	0x3db86c11	0.09004987
50	0xb7d5bc9f	-2.5479412e-05
51	0xbdf77b1f	-0.1208403
52	0x3b4f8adf	0.0031668467
53	0xbb8e61d5	-0.0043451586
54	0xbc56b0eb	-0.013103704
55	0x3bef5fbb	0.007305113
56	0x3993538e	0.00028100278
57	0x3c6012c7	0.013676352
58	0xba585555	-0.00082524616
59	0xbb8a215a	-0.0042154016
60	0xbca9e024	-0.020736761
61	0xbc4e6f22	-0.012599738
62	0xbbdd3543	-0.006750734
63	0xbc4aaa26	-0.012369668
64	0xbc05f352	-0.008175688
65	0xbcdb3d0d	-0.02676251
66	0xbbeec4ab	-0.0072866282
67	0x3b8f7159	0.0043775258
68	0xbc36a381	-0.011147381
69	0xbcab909c	-0.020942979
70	0x3c0eb2a4	0.008709583
71	0xbb0d3d8d	-0.002155158
72	0xbc3ab4d5	-0.011395653
73	0x3b1926c0	0.0023369044
74	0x3e0aecfb	0.13566963
75	0xbb110b86	-0.0022132113
76	0xbe5110cb	-0.20416562
77	0xbc2ba380	-0.010475993
78	0xbc36d167	-0.011158324
79	0xbc8ccdec	-0.017188035
80	0xbd5c99bb	-0.053857546
81	0x3c42cb27	0.011889256
82	0xbd21f729	-0.03954235
83	0xbc36e5b4	-0.011163164
84	0x3bfefc8b	0.0077815703
85	0x3e024d40	0.12724781
86	0x3a839f62	0.0010042007
87	0xbc33e38e	-0.010979546
88	0x39b3b86e	0.0003427895
89	0x3c867ad2	0.016415987
90	0x392ea941	0.00016656985
91	0xbbcd0082	-0.006256164
92	0x3c161f9f	0.0091628125
93	0xbcd8d2cc	-0.026467703
94	0xbd512bd6	-0.051067196
95	0x3bacdf83	0.005275668
96	0xbc9533b3	-0.018213129
97	0x3aeaf44a	0.0017925587
98	0x3b8f9cb8	0.004382696
99	0xba8d57da	-0.0010783628
100	0xbc27809c	-0.010223534
101	0xbd2eff15	-0.042723734
102	0xbc1241bd	-0.008926806
103	0x3d345955	0.044030506
104	0xbd94441c	-0.07239553
105	0x3b5d4e19	0.0033768474
106	0x3abb5edb	0.0014295237
107	0xbde932ab	-0.11386617
108	0xbb57c619	-0.0032924472
109	0xbc22f4e3	-0.009946081
110	0xbcb24027	-0.021759106
111	0xb9e126d0	-0.00042944262
112	0xbdeb7c00	-0.114982605
113	0x3b3dd29e	0.002896465
114	0x3c6c4e59	0.014422976
115	0x3ca877a4	0.020564862
116	0xbc7ddd63	-0.015494677
117	0x3d026316	0.031832777
118	0x3c05d386	0.008168107
119	0xbc1fda32	-0.009756612
120	0x3b0048ca	0.0019574636
121	0xbb52557a	-0.0032094405
122	0xbc1ff4be	-0.009762941
123	0x3b426b87	0.0029666142
124	0xbc66db4b	-0.014090369
125	0xbb9d3d29	-0.0047985506
126	0xbbcd0f84	-0.006257953
127	0xbbe258db	-0.006907565
128	0x3be08541	0.0068518226
129	0xbb482990	-0.0030542351
130	0x3be4cd64	0.0069824923
131	0x3bdd720c	0.00675798
132	0xbddaceb0	-0.10683954
133	0xbc5035f1	-0.012708173
134	0xbca0b888	-0.019619241
135	0x3d09d3db	0.033649307
136	0xbc019432	-0.007908868
137	0x3c8ae022	0.016952578
138	0x3d128999	0.035775755
139	0xbbc964d3	-0.0061460524
140	0x3c38760f	0.011258616
141	0xbc66906f	-0.014072522
142	0x3d387fe2	0.045043834
143	0x3d4b563f	0.049642798
144	0x3a2ffda1	0.0006713514
145	0xbbe366f0	-0.0069397613
146	0xbd1bbdc4	-0.03802277
147	0x3c25ebf1	0.010127054
148	0xbc2cfa79	-0.010557764
149	0xbc8970c0	-0.016777396
150	0xbbed9f6d	-0.007251671
151	0x3bc2c0a0	0.005943373
152	0xbbc39b58	-0.005969446
153	0x3cdc3929	0.026882725
154	0x3bc84736	0.0061120046
155	0x3d2e2a21	0.042520646
156	0xbcd34c97	-0.025793357
157	0x3a722c1d	0.0009238141
158	0x3b87c091	0.0041428288
159	0xbdc12ddf	-0.09432577
160	0xbbb8bd14	-0.0056377742
161	0xbbafe6f5	-0.0053681084
162	0x3c5f7ab0	0.013640091
163	0xbc689ae6	-0.014197087
164	0x3c839234	0.016060926
165	0x3b8ec989	0.004357521
166	0x3bbe6d33	0.0058113574
167	0x3b13d043	0.0022554554
168	0xbbb1981d	-0.0054197446
169	0xbdb1eca2	-0.08687712
170	0xbc5017b1	-0.012700961
171	0x3e354e56	0.17705664
172	0x3c146cfd	0.009059188
173	0xba8f3f2c	-0.0010928861
174	0xbb560139	-0.0032654537
175	0xbaa2b16d	-0.0012412496
176	0x3ca01a20	0.019543707
177	0x3ad18274	0.0015984313
178	0x3b116d38	0.0022190344
179	0x3b97386f	0.0046148817
180	0xbc80b840	-0.015712857
181	0xbcaa64b7	-0.020799978
182	0xbae72460	-0.0017634742
183	0xbcf8b1bc	-0.030358188
184	0xbc5fb633	-0.0136542795
185	0x3c6ba42a	0.0143824015
186	0xbc9c41eb	-0.0190744
187	0x3af4aea7	0.0018667773
188	0xb983ab82	-0.0002511405
189	0x3c6763d7	0.014122925
190	0x3baedc86	0.005336347
191	0x3debded1	0.11517108
192	0x3d7b9a5a	0.061426498
193	0xbccaea57	-0.024769945
194	0x3d0ef55f	0.034901973
195	0xbbeeb392	-0.00728459
196	0x3c427bc2	0.0118703265
197	0x3c9388a8	0.018009499
198	0x3b07f060	0.002074264
199	0xbaff5441	-0.0019480066
200	0xbe359888	-0.17733967
201	0x3e0e8dfb	0.13921349
202	0x3f151198	0.5822997
203	0x3ebb3f04	0.36571515
204	0xbe02a1da	-0.12757054
205	0xbea4f8fb	-0.32221207
206	0xbdbe7792	-0.0930015
207	0x3f715deb	0.9428393
208	0xbdd4b838	-0.103866994
209	0xbb62ba16	-0.003459578
210	0xbc25662a	-0.010095159
211	0x3ee20d9e	0.44151014
212	0x3f3b586c	0.73181796
213	0xbdabf23f	-0.08395814
214	0xbd002b2f	-0.031291183
215	0xbec43c0f	-0.3832707
216	0xbde89d3b	-0.11358114
217	0x3e2ae32d	0.16688223
218	0x3e88993a	0.26679403
219	0x3d9bcd37	0.07607501
220	0xbebae273	-0.36500892
221	0x3e523346	0.20527372
222	0x3ef4f211	0.47840932
223	0xbe3dd574	-0.18538457
224	0x3d703e9a	0.05865345
225	0xbe9cd93d	-0.3063449
226	0xbe8558ba	-0.26044255
227	0xbe929785	-0.28631225
228	0x3f01de07	0.5072941
229	0xbdbeb66c	-0.09312138
230	0xbe7a025a	-0.2441496
231	0x3f34314b	0.70387715
232	0x3ece0040	0.40234566
233	0xbfb7f358	-1.4371138
234	0x3d130f3d	0.035903204
235	0xbe403201	-0.18769075
236	0xbec5fd8d	-0.38670006
237	0xbea454da	-0.32095987
238	0x3e91fea1	0.2851458
239	0xbd9d31c8	-0.07675511
240	0xbe94c388	-0.29055429
241	0xbe37526d	-0.17902537
242	0xbdf601e0	-0.120120764
243	0xbf0b72a5	-0.5447181
244	0x3c6a07ab	0.014284055
245	0x3e032ae6	0.12809333
246	0xbef4fe89	-0.47850445
247	0xc099cc27	-4.806171
248	0xbbcfcb71	-0.006341391
249	0x3f9079d0	1.1287174
250	0xbf07d392	-0.53057206
251	0xbfd6ce7f	-1.6781768
252	0x3e1ea9d1	0.15494467
253	0x3f737310	0.95097446
254	0xbdbccee5	-0.092191495
255	0x3daac596	0.08338468

mu.2.bias f4 [5]
0	0xbe03837f	-0.1284313
1	0xbe52189e	-0.20517203
2	0xbc20d5e4	-0.0098166205
3	0x3c20d941	0.009817422
4	0xbe36d3ba	-0.17854205

reward_fun.0.weight f4 [200, 6]
0	0xbfc5978e	-1.5436876
1	0xc0210eaa	-2.51652
2	0x3f438cee	0.76386917
3	0x3fb07287	1.3784951
4	0xbdc6bfa1	-0.09704519
5	0xbf8aaf6f	-1.0834788
6	0x3f0a8d23	0.5412161
7	0xc02921cf	-2.6426885
8	0xbf09588f	-0.53650755
9	0x3f5a07d1	0.85168177
10	0x3dd88532	0.1057228
11	0xbfd23b17	-1.6424283
12	0x3f5a228f	0.8520898
13	0xbee92c12	-0.45541435
14	0x400941c9	2.1446402
15	0x3f4096d2	0.75230134
16	0xbca1c779	-0.019748436
17	0xbf838070	-1.0273571
18	0xbfac1c39	-1.3446113
19	0xbfb161c8	-1.3857965
20	0x3fe9eb58	1.8274946
21	0xbea18908	-0.3154986
22	0x3f8f5b89	1.1199809
23	0xbf131e6b	-0.5746829
24	0x3ddf922a	0.109165505
25	0xbdd90026	-0.105957314
26	0xbe999c98	-0.30002284
27	0xbdd5b7cf	-0.10435449
28	0xbc5083da	-0.012726748
29	0x3f3b1807	0.7308354
30	0x3f51a831	0.81897265
31	0x3f07a96c	0.5299289
32	0x402030b5	2.5029728
33	0x40bff90a	5.9991503
34	0x3f8c2ac0	1.0950546
35	0xbf072761	-0.5279446
36	0x3f4ad529	0.79231507
37	0xbdd7c3dc	-0.10535404
38	0xbdc21451	-0.09476531
39	0xbda0fdbe	-0.078608975
40	0xbbff7be0	-0.0077967495
41	0x3eaa1299	0.33217314
42	0x400ca264	2.1974115
43	0xbeb254b4	-0.34830248
44	0x3e0f8584	0.14015776
45	0x3febec6b	1.8431524
46	0x3ded6843	0.11592152
47	0xbe414859	-0.18875255
48	0x3ee47d5c	0.44626892
49	0x3f0fac28	0.56122065
50	0x4039bf87	2.902315
51	0x409db861	4.928757
52	0x3f94b296	1.1617
53	0xbf81bd4d	-1.0135895
54	0x3f3a5f6b	0.72801846
55	0xbdaf485c	-0.08558723
56	0x40379057	2.8681848
57	0x3ea59249	0.3233817
58	0xbf3b5a39	-0.73184544
59	0x3fd159d1	1.6355535
60	0x3f83fdd6	1.031184
61	0xbe3189dd	-0.17337747
62	0x40248430	2.570568
63	0x3dbb0d59	0.09133405
64	0x3ea3c92c	0.3198942
65	0xbfb7ee4d	-1.4369599
66	0x40989493	4.7681365
67	0x3fb8b28b	1.4429487
68	0x3f97ba39	1.1853706
69	0x3ed226e4	0.41045296
70	0xbec0e46e	-0.37674278
71	0x3f3444d5	0.7041753
72	0xc0352793	-2.8305404
73	0x3eb901c3	0.36134157
74	0x40864b92	4.196725
75	0xbee4dfbf	-0.44701955
76	0x3f5e67ac	0.8687694
77	0x3e67c777	0.22634684
78	0x3f92b141	1.1460344
79	0xbff9fdfb	-1.9530634
80	0x3fe9a4e9	1.8253452
81	0xbfeeccd9	-1.8656265
82	0xbe9192c4	-0.28432286
83	0xbf648f51	-0.89281183
84	0xbfd79666	-1.6842773
85	0xbfb6a07e	-1.4267728
86	0x3f0a0006	0.53906286
87	0xbf04202c	-0.5161159
88	0xbeb18776	-0.3467366
89	0x4005f34b	2.0929744
90	0xbe04ea29	-0.1297995
91	0xbee1c536	-0.44095773
92	0x407b2bb0	3.9245415
93	0xbf2f49f0	-0.68472195
94	0xbf6dd219	-0.9289871
95	0x3e98a0d3	0.298102
96	0xbf88f939	-1.0701057
97	0x3f126d16	0.571977
98	0x3fb29ffb	1.3955072
99	0x3e9d890d	0.30768624
100	0xbe418efd	-0.18902202
101	0x3fab2af2	1.3372481
102	0xbed0be73	-0.407703
103	0x3f08073f	0.53136057
104	0xbe88babb	-0.26704964
105	0x3f1f101b	0.6213395
106	0xbf20def9	-0.6284023
107	0x4031efcd	2.7802613
108	0x3dafa775	0.08576862
109	0x3d0578bb	0.03258584
110	0x3f04c193	0.5185787
111	0xbe637091	-0.2221091
112	0xbc18d59d	-0.009328273
113	0x3dd45bd7	0.103690796
114	0x400fa28f	2.2442968
115	0x40275c7b	2.6150196
116	0x3e8daa08	0.27668786
117	0x3ea22d28	0.31675076
118	0xbe63d05b	-0.2224745
119	0x4006bcd2	2.1052747
120	0xbfc4baf3	-1.5369552
121	0x405c5b17	3.4430597
122	0x3f0853ce	0.53252876
123	0x3ddb8be8	0.107200444
124	0xbe63a260	-0.2222991
125	0x400cefab	2.2021282
126	0x3f931855	1.14918
127	0xbfce880f	-1.6135272
128	0x402f5206	2.7393813
129	0xbeb99bfe	-0.36251825
130	0xbf314baf	-0.6925611
131	0x3f6b2568	0.9185395
132	0xbf8de007	-1.1083993
133	0xbfa92d5d	-1.3216969
134	0x40108cb4	2.2585878
135	0x3f15d72a	0.5853144
136	0xbad11b12	-0.0015953502
137	0x3fb657b1	1.4245511
138	0x401e67c5	2.4750836
139	0xbfcf0dbe	-1.6176069
140	0x3f6c1f17	0.9223494
141	0x405e3f11	3.4725993
142	0xbe9e2e6b	-0.3089479
143	0xbe009787	-0.12557803
144	0x3f2dae53	0.6784412
145	0x3f33f4fb	0.70295686
146	0x3ee1d9fd	0.44111624
147	0xbdff7152	-0.12472786
148	0xbc2c9a29	-0.0105348015
149	0xbe8bb68a	-0.27287704
150	0x3eee1618	0.4650123
151	0xbe12330a	-0.14277282
152	0x3e1dca7f	0.15409277
153	0xbe9b4619	-0.30326918
154	0xbc5d413b	-0.013504322
155	0x3d962ced	0.07332788
156	0x40a3c016	5.117198
157	0x3fa0f464	1.2574582
158	0x3f4f63a6	0.81011426
159	0x3f485aa1	0.7826329
160	0xbe681450	-0.22663999
161	0x3e07183d	0.1319284
162	0xbf1e04ea	-0.6172625
163	0x3e8d61e1	0.27613738
164	0x40722725	3.7836392
165	0xbf9aab74	-1.2083573
166	0x3ec02d10	0.3753438
167	0x401eb481	2.479767
168	0x403e33fa	2.9719224
169	0x3f867c32	1.0506651
170	0x40340654	2.8128862
171	0x3fb7da85	1.4363562
172	0x3d4f48c5	0.050606508
173	0x3f868069	1.0507938
174	0x4008b9a1	2.13633
175	0xbfa6a234	-1.301825
176	0x40264e8c	2.5985441
177	0x3fbfa59a	1.4972413
178	0x3dc23b69	0.09483988
179	0xbf418288	-0.755898
180	0x3f8c0e52	1.094187
181	0xbfd8f431	-1.6949521
182	0xbed9a7fb	-0.4251097
183	0xc023c154	-2.5586748
184	0xbe109b77	-0.14121805
185	0x3fcf0f86	1.6176612
186	0x3f50cfa8	0.8156686
187	0x3fdb9131	1.7153684
188	0x3fd7f870	1.6872692
189	0x40286ce8	2.631647
190	0x3dc74887	0.0973063
191	0x3e948f16	0.29015416
192	0x3ead9a59	0.3390682
193	0xbe071577	-0.13191782
194	0x401a48e1	2.4106982
195	0x3f60c637	0.8780245
196	0x3e4412f5	0.19147857
197	0x3ea3e5bf	0.3201122
198	0x40b37fcc	5.60935
199	0x402b3805	2.6752942
200	0xbf10bb28	-0.5653558
201	0x3f24a5ba	0.6431538
202	0xbedaf723	-0.42766675
203	0x3fcf5bbe	1.6199872
204	0x3e4d8482	0.20070079
205	0xbd3fbe7e	-0.046812527
206	0xbd94468e	-0.0724002
207	0x3f00cb3f	0.5031013
208	0x3a5222c3	0.0008016044
209	0xbf0c74a0	-0.54865456
210	0xc04de9d6	-3.2173972
211	0x3f0d1612	0.551118
212	0x3de67703	0.112531684
213	0x3f5945bd	0.8487204
214	0xbdb58945	-0.08864073
215	0x3f2099c5	0.62734634
216	0xbf6d73ec	-0.9275501
217	0x40056222	2.0841146
218	0x3f7f780b	0.99792546
219	0x40102ba4	2.2526636
220	0xbec0adb4	-0.37632525
221	0x3f83c5ce	1.029474
222	0x3fcc281e	1.5949743
223	0xbf5536fd	-0.8328703
224	0x3fd15745	1.6354758
225	0x403d6713	2.9594162
226	0xbec89d68	-0.3918259
227	0x40721a59	3.7828581
228	0x40402687	3.0023515
229	0x3f810fcd	1.0082947
230	0x3fdb6584	1.7140355
231	0x3ff9931a	1.9498017
232	0x3ea2cea0	0.31798267
233	0x3f52df28	0.8237176
234	0x3fb60d9f	1.4222907
235	0x3f3333fe	0.7000121
236	0x3ff74c74	1.9320207
237	0x409b2b8b	4.8490653
238	0x3e8b6137	0.27222607
239	0x3ec70aa9	0.3887532
240	0x4056bf62	3.355431
241	0xbecfe4ba	-0.40604192
242	0xbdd673c8	-0.10471302
243	0x40102288	2.2521076
244	0x3dcff894	0.101548344
245	0xbf43a728	-0.76426935
246	0x3dc2823e	0.09497498
247	0x3c32b75b	0.010907973
248	0xbeb99bf3	-0.36251792
249	0x3d061d86	0.032743
250	0xbbfee704	-0.007779004
251	0x3dac96e8	0.084272206
252	0xbf7998a7	-0.97498554
253	0x3fb814b9	1.4381324
254	0x3ff7daa9	1.9363605
255	0x3f38714a	0.72047865

reward_fun.0.bias f4 [200]
0	0xc083f8b7	-4.1241107
1	0xc00e508c	-2.2236662
2	0xbfd4596d	-1.658979
3	0xc0c060b8	-6.0118065
4	0xbf95d656	-1.1706035
5	0xc02c7c89	-2.695101
6	0xbfaa6d80	-1.3314667
7	0x3f58dcc1	0.84711844
8	0xc0069239	-2.1026747
9	0xc0123bbc	-2.284896
10	0xbea72564	-0.32645714
11	0xbf828a82	-1.0198519
12	0xc0224383	-2.5353706
13	0xbffbe93f	-1.9680556
14	0xc00492ad	-2.0714524
15	0xbf60c93c	-0.8780706
16	0xc051deb7	-3.2792184
17	0xc0303f13	-2.7538497
18	0xbf6d01bf	-0.9258079
19	0xbe754d35	-0.23955233
20	0xc01d4f11	-2.4579508
21	0xbf3a37d5	-0.7274144
22	0xc01748c0	-2.3638153
23	0xc051e77b	-3.2797534
24	0xc090da15	-4.5266213
25	0xbf75af79	-0.95970875
26	0xbfb0e879	-1.3820945
27	0xc04c6181	-3.1934512
28	0xc03ce61a	-2.9515443
29	0xc07c1ba8	-3.939188
30	0xc0784465	-3.8791745
31	0xc0356579	-2.8343184
32	0xbf5202a3	-0.82035273
33	0xbf7cf863	-0.9881651
34	0xbf9d7192	-1.2300284
35	0xc03c6fba	-2.9443192
36	0xc093ffda	-4.624982
37	0xbfe49d41	-1.786049
38	0xbfffd5dc	-1.998714
39	0xbe729512	-0.23689678
40	0xc06d2b7d	-3.7057793
41	0xbf260f62	-0.6486722
42	0xbffbb076	-1.9663227
43	0xc05d8e13	-3.4617965
44	0xbf9cfe6d	-1.2265145
45	0xbfabd077	-1.3422993
46	0xbed088f1	-0.40729478
47	0xc0403efe	-3.0038447
48	0xc0ae0c27	-5.4389834
49	0xc071a2e9	-3.7755682
50	0xc081d2a6	-4.056964
51	0xbfeeac89	-1.8646404
52	0xc07de9df	-3.9673994
53	0xbf2a319a	-0.66481936
54	0xbf99f71e	-1.2028539
55	0xbfa7f416	-1.3121364
56	0xbef1cea9	-0.47227982
57	0xbf817b92	-1.0115836
58	0xc021a3bb	-2.5256183
59	0xc0222840	-2.5337067
60	0xc0626ba4	-3.5378199
61	0xc0a1d6ed	-5.057486
62	0xc0950e9a	-4.6580324
63	0xc07e07da	-3.9692292
64	0xbfba4e52	-1.4555151
65	0xc027dce0	-2.6228561
66	0xc08c8a58	-4.3918877
67	0xc0ad0d1e	-5.407851
68	0xbfcef9b7	-1.6169957
69	0xc043fb95	-3.0622303
70	0xc002d957	-2.0445154
71	0xc0c5f5ef	-6.186271
72	0xc05416c5	-3.3138897
73	0xbf183c09	-0.59466606
74	0xbff19d4f	-1.8876132
75	0xc06503a5	-3.5783474
76	0xc05a9539	-3.4153578
77	0xc047aa41	-3.1197665
78	0xc027daae	-2.6227221
79	0xbfc1ed89	-1.5150615
80	0x3eda9e7a	0.42699033
81	0xc09446c7	-4.63364
82	0xbff6713b	-1.9253305
83	0xbf0b1555	-0.54329425
84	0xc089d380	-4.307068
85	0xbf2e24fc	-0.68025184
86	0xbf2ddf4d	-0.67918855
87	0xc03d0422	-2.9533772
88	0xbf495abf	-0.7865409
89	0xc03f3726	-2.987741
90	0xbf5f1427	-0.87140125
91	0xbf3adcff	-0.72993463
92	0xc0581b85	-3.3766797
93	0xbfe7ee4d	-1.8119599
94	0xbfd3fd0a	-1.6561596
95	0xc0839f98	-4.1132317
96	0xc01065f4	-2.2562227
97	0x3e9138c6	0.28363627
98	0xbfa3a5d9	-1.2784988
99	0xc07721fe	-3.8614497
100	0xbf06fd78	-0.5273051
101	0xc071742d	-3.7727158
102	0xc05ffcb3	-3.4997985
103	0xbf9c9945	-1.2234274
104	0xc0538b60	-3.3053818
105	0xc0508cd3	-3.2585952
106	0xc0631c74	-3.5486116
107	0xc03260f7	-2.7871683
108	0xc09b3ce6	-4.851184
109	0xc091f67b	-4.561338
110	0xbfb359b6	-1.4011753
111	0xbea7f6d6	-0.32805508
112	0xc08056bb	-4.010587
113	0xbfba3efb	-1.455047
114	0xc003fd22	-2.062325
115	0xbf865da5	-1.0497328
116	0xc076f35e	-3.858604
117	0xc0289edd	-2.6346962
118	0xc009e25f	-2.1544416
119	0xc093966f	-4.6121135
120	0xc061383c	-3.5190573
121	0xc08a8ecc	-4.3299313
122	0xc0184f5c	-2.3798437
123	0xbe4076ba	-0.1879529
124	0xc0c3d019	-6.1191525
125	0xc049a01e	-3.1503978
126	0xc04202f0	-3.0314293
127	0xc084d61c	-4.1511364
128	0xc04b8c50	-3.180439
129	0xbf4acbb8	-0.792171
130	0x3fafa0ad	1.3720909
131	0xbff50618	-1.9142485
132	0xc0321b21	-2.7829058
133	0xc036e3d4	-2.8576555
134	0xc09642bb	-4.695646
135	0xbfa51e07	-1.2899789
136	0xc03bb686	-2.9330153
137	0xc04d9dcd	-3.2127564
138	0xbe8f3b1e	-0.2797479
139	0xc05f4cf2	-3.4890714
140	0xbef6a4e7	-0.48172686
141	0xc04422f4	-3.0646334
142	0xc046b5ea	-3.1048532
143	0x3dc9c6dc	0.098523825
144	0xc0186959	-2.38143
145	0x3e547b7d	0.20750232
146	0xbf3f4648	-0.74716616
147	0xbf6bfe5b	-0.9218499
148	0xbf43d36d	-0.76494485
149	0x3f2cb309	0.67460686
150	0xc015d339	-2.341017
151	0xc09581db	-4.6721015
152	0xc0668a93	-3.602208
153	0xc02533c9	-2.5812857
154	0xc087dc2e	-4.2456274
155	0xbf544ee3	-0.8293287
156	0xc0080e99	-2.125891
157	0xc00104df	-2.0159223
158	0xc09ba427	-4.863788
159	0xc088ce16	-4.275157
160	0xbef0a16d	-0.46998158
161	0xc06c8024	-3.695321
162	0xc00777ad	-2.1166794
163	0x3ef88114	0.4853598
164	0xc0791984	-3.8921824
165	0xc09c1e1e	-4.8786764
166	0xbe9fe055	-0.3122584
167	0xbf19a933	-0.600238
168	0xc054c3f3	-3.3244598
169	0x3f37b5da	0.7176186
170	0xc08bfa0e	-4.3742743
171	0xc094c4d7	-4.6490283
172	0xc0768d10	-3.8523598
173	0xc0934bfc	-4.6030254
174	0xbfc90b60	-1.5706596
175	0xc009b8cc	-2.151904
176	0xc0060eea	-2.0946603
177	0xbfd02d13	-1.6263756
178	0xbfa5a1fe	-1.2940061
179	0xc0769e81	-3.8534243
180	0xc06463e6	-3.5685973
181	0xbfc5e708	-1.546113
182	0xc08fcf59	-4.494061
183	0xbf2f8307	-0.68559307
184	0xbff05216	-1.8775051
185	0xc0107027	-2.2568452
186	0xc0733dcd	-3.800647
187	0xc0317553	-2.772786
188	0xc0514541	-3.269852
189	0xc050e5be	-3.2640224
190	0xc034f98e	-2.8277316
191	0xc0bed599	-5.963574
192	0xc043827a	-3.0548387
193	0xc030fef5	-2.7655613
194	0xc0d6413c	-6.695463
195	0xbf78a1f6	-0.9712213
196	0xbfaebc01	-1.3651124
197	0xc07bcecb	-3.9344966
198	0xc0388d3e	-2.8836207
199	0xc03e19d4	-2.9703264

reward_fun.2.weight f4 [200, 200]
0	0xbe0e9a91	-0.1392615
1	0xbcc10768	-0.023563102
2	0x3d73eae4	0.05955018
3	0x3d25d511	0.0404864
4	0xbd956e82	-0.07296468
5	0xbd513334	-0.05107422
6	0x3b2cb6ec	0.0026354147
7	0xbe68929b	-0.22712176
8	0x3c3ca15f	0.011513083
9	0xbc9b098e	-0.018925454
10	0xbce0e889	-0.027454631
11	0x3c9ac7e4	0.018894143
12	0x3df3ee8a	0.11910732
13	0x3d4c865b	0.04993282
14	0xbba01503	-0.0048853173
15	0xbd7027d6	-0.05863174
16	0xbe3721da	-0.17884007
17	0xbdf99dcc	-0.121883005
18	0xbdaf137f	-0.085486405
19	0xbe9de6b2	-0.3084007
20	0xbe6459df	-0.22299908
21	0xbe1bba65	-0.15207823
22	0xbd073817	-0.033012476
23	0xbd32ee3a	-0.04368422
24	0xbd3ab453	-0.045582127
25	0x3cd3b48c	0.025842927
26	0xbcbbccc9	-0.022924798
27	0xbe32369e	-0.17403647
28	0xbd2a7eb7	-0.04162475
29	0xbd99b095	-0.075043835
30	0xbe1bb9a9	-0.15207542
31	0xbe9a15ed	-0.30094853
32	0x3d9821e7	0.07428341
33	0xbe6d4aaa	-0.23173013
34	0xbe299e1f	-0.16564225
35	0xbdd24e05	-0.10268787
36	0x3e3e2c57	0.18571602
37	0x3bfbead7	0.007687907
38	0xbeaa9a39	-0.33320788
39	0x3cb330b8	0.021873817
40	0xbe5fc9f4	-0.21854383
41	0xbce4641b	-0.027879765
42	0xbdce5b31	-0.10075987
43	0xbdaf4d83	-0.08559706
44	0xbe45eef2	-0.19329432
45	0xbe49e753	-0.1971715
46	0xbcc31cb2	-0.023817394
47	0xbcff5425	-0.031168053
48	0xbe936c07	-0.28793356
49	0xbe0b76ea	-0.13619581
50	0x3e1423bc	0.14466757
51	0xbdc0411c	-0.09387419
52	0xbd15869a	-0.03650532
53	0x3d31276e	0.043250494
54	0xbdf10154	-0.117678314
55	0xbc8ed3cf	-0.017434983
56	0x3cd640b1	0.026153894
57	0xbdb9dcf3	-0.09075346
58	0x3ded1989	0.11577136
59	0xbb4596fe	-0.0030149813
60	0xbe323f80	-0.17407036
61	0x3d186e36	0.03721448
62	0xbd15030e	-0.036379866
63	0xbcba0928	-0.022709444
64	0xbd38b6f3	-0.04509635
65	0x3daff149	0.08590943
66	0x3e3315df	0.17488812
67	0xbe1404f4	-0.14455014
68	0xbeb1ecf7	-0.34751102
69	0xbcfc9e72	-0.030837271
70	0xbd96dc43	-0.0736623
71	0xbc8c6cd0	-0.01714173
72	0x3d502ba3	0.050822865
73	0xbca7c2bd	-0.0204786
74	0xbe0a22fc	-0.13489908
75	0xbbdfdf9b	-0.006832076
76	0xbe52745d	-0.20552202
77	0xbdc7b2e8	-0.097509205
78	0x3e54b1f5	0.2077101
79	0xbd880983	-0.06642439
80	0xbe1e1acd	-0.15439911
81	0x3c6057ce	0.013692809
82	0xbe99a1d7	-0.30006287
83	0x3d2acfc2	0.04170204
84	0x3c364c66	0.011126613
85	0xbd35fee0	-0.04443252
86	0xbb4f1b97	-0.0031602138
87	0xbe0decbf	-0.13859843
88	0xbe0eec4c	-0.13957328
89	0xbd97b27c	-0.0740709
90	0x3c97e5a8	0.018542126
91	0x3d04de6b	0.032438677
92	0xbcf18291	-0.029481204
93	0xbe175593	-0.14778738
94	0xbcda2d82	-0.026633028
95	0x3cbaf2b6	0.022820812
96	0xbd97c8ad	-0.07411323
97	0xbcdc8c4a	-0.026922364
98	0xbe4172ff	-0.18891524
99	0xbd20678e	-0.039161257
100	0xbcc48e6e	-0.023993697
101	0xbe3d46d1	-0.18484046
102	0x3cf066de	0.029345926
103	0xbdfac419	-0.12244434
104	0xbe8780ff	-0.26465604
105	0xbe22e079	-0.15905942
106	0xbe5f2cf0	-0.21794486
107	0xbe0661ce	-0.13123247
108	0xbeafafc6	-0.34313792
109	0xbd8a2bd6	-0.06746642
110	0xbde5fa8f	-0.11229431
111	0xbd9fd400	-0.07804108
112	0xbe41a74a	-0.18911472
113	0x3d10b29c	0.035326585
114	0x3e766bde	0.24064586
115	0x39950766	0.00028425007
116	0xbc2820f7	-0.010261766
117	0xbdb4553a	-0.08805318
118	0x3e07c345	0.13258083
119	0xbe739af0	-0.23789573
120	0xbe3a4288	-0.18189442
121	0x3cfe58d6	0.03104822
122	0xbe19d430	-0.1502235
123	0xbd6d4639	-0.057928298
124	0xbd132339	-0.035922263
125	0xbe27e548	-0.16396058
126	0xbe966eff	-0.29381558
127	0xbe908df6	-0.28233308
128	0xbe480212	-0.1953204
129	0x3cadea59	0.02122991
130	0xbd96ec88	-0.073693335
131	0xbe0c50fb	-0.13702767
132	0xbd2fefdb	-0.042953353
133	0xbde71897	-0.11283987
134	0xbde6b1f4	-0.112644106
135	0xbc6559b0	-0.013998434
136	0xbe2ba196	-0.16760859
137	0xbe0d5bb3	-0.13804512
138	0x3c7af988	0.015318282
139	0x3dc789da	0.0974309
140	0xbd491b68	-0.049098402
141	0xbd28002b	-0.041015785
142	0xbbb3c6b6	-0.0054863347
143	0xbe90375b	-0.28167233
144	0xbd71a6a0	-0.058996797
145	0xbcfca9cc	-0.030842684
146	0x3e0029fd	0.12516017
147	0xbde4857b	-0.11158272
148	0x3d292f35	0.041304786
149	0xbd4bce29	-0.049757157
150	0xbd06b1fc	-0.032884583
151	0x3e1c1328	0.15241683
152	0xbe2465bd	-0.16054435
153	0xbd9cbb98	-0.07652968
154	0xbe385e4a	-0.18004718
155	0xbe05ab27	-0.1305357
156	0x3dbddd63	0.09270742
157	0xbe39d233	-0.18146591
158	0x3d62e6a2	0.05539573
159	0x3da7f5a2	0.082011476
160	0xbc813408	-0.01577188
161	0xbe7d5a8e	-0.24741575
162	0x3d01bdeb	0.03167526
163	0xbcc9ec04	-0.024648674
164	0x3e00945f	0.12556599
165	0xbd6adcf5	-0.057339627
166	0xbdb09665	-0.086224355
167	0xbd89cf4d	-0.067289926
168	0xbd95d1d0	-0.07315409
169	0xbde35feb	-0.11102279
170	0xbd279fa1	-0.04092372
171	0x3e22c016	0.15893587
172	0xbe14fc9a	-0.14549485
173	0xbdc380ca	-0.09546049
174	0xbe9be940	-0.30451393
175	0xbd7c03da	-0.06152711
176	0xbc831374	-0.016000487
177	0x3d14c157	0.036317196
178	0xbe7359d9	-0.23764743
179	0xbc2bcbbf	-0.010485589
180	0xbdda79cb	-0.106677614
181	0xbe35b4dc	-0.17744774
182	0xbe557762	-0.20846322
183	0x3e0d7b27	0.1381651
184	0xbe4124e6	-0.18861732
185	0xbe909a92	-0.28242928
186	0xbdf559c4	-0.11980012
187	0xbd978a6c	-0.07399449
188	0xbe5a82f2	-0.21339014
189	0xbe1b0e00	-0.1514206
190	0xbd3e95d7	-0.046529617
191	0xbe03cbb6	-0.12870678
192	0xbe9a418f	-0.30128142
193	0xbe17e35f	-0.14832829
194	0xbde13e26	-0.10998182
195	0xbdac95c6	-0.084270045
196	0x3c600520	0.013673097
197	0xbe15c35f	-0.1462531
198	0xbdfde761	-0.12397648
199	0xbea1cb22	-0.3160029
200	0x3d946874	0.07246485
201	0xbe93c03c	-0.288576
202	0x3d532d09	0.05155662
203	0x3dcec35f	0.10095858
204	0xbd936b3e	-0.07198189
205	0xbd8975ec	-0.06711945
206	0xbcbf43bd	-0.02334773
207	0xbd469171	-0.048478547
208	0x3d7868f4	0.060646966
209	0xbe3730ed	-0.17889757
210	0xbed4a1ae	-0.41529602
211	0x3ddccc0f	0.107811086
212	0xbdb588e8	-0.088640034
213	0xbea10166	-0.3144638
214	0xbd27c535	-0.040959556
215	0xbeb157f6	-0.3463742
216	0x3d34e49c	0.04416333
217	0xba1c4e6a	-0.00059626123
218	0x3c8bcbff	0.017065046
219	0xbd744847	-0.05963924
220	0xbe39c707	-0.18142329
221	0xbe047d9a	-0.12938538
222	0xbd5bc0b2	-0.053650565
223	0x3ccd50e3	0.025062984
224	0xbe4af8b0	-0.19821429
225	0x3d398d51	0.045300785
226	0xbd488bd1	-0.048961464
227	0xbd94c500	-0.07264137
228	0x3cdfc0be	0.027313586
229	0xbc306205	-0.010765557
230	0xbd8b03be	-0.06787823
231	0xbdb2423d	-0.0870404
232	0xbde86288	-0.11346918
233	0xbdc05d83	-0.09392836
234	0xbd4b5fa1	-0.049651746
235	0xbde2f8cf	-0.11082613
236	0xbddae2f0	-0.10687816
237	0xbd73b1ec	-0.05949585
238	0x3e18bd41	0.14915945
239	0xbe258d94	-0.16167289
240	0x3ce7c7eb	0.02829357
241	0xbd74fce0	-0.059811473
242	0xbe86c9fd	-0.2632598
243	0x3dbc3171	0.09189118
244	0xbd831421	-0.06400324
245	0xbcb3bc03	-0.021940237
246	0xbeb3bbca	-0.3510421
247	0x3c245c42	0.010031762
248	0xbf160dfe	-0.586151
249	0xbde1c4de	-0.110238776
250	0xbdda80d8	-0.10669106
251	0xbe8c21f0	-0.27369642
252	0xbe6d7a03	-0.23191075
253	0x3d7c5dcb	0.061612885
254	0xbdd3c037	-0.103393964
255	0xbd1a9ff3	-0.037750196

reward_fun.2.bias f4 [200]
0	0xbdadf7f4	-0.08494559
1	0x3d2ea051	0.04263336
2	0xbe3804f7	-0.17970644
3	0xbcfdc810	-0.030979186
4	0xbe37df76	-0.17956337
5	0xbcf086cd	-0.029361153
6	0x4088c662	4.2742167
7	0xbef5029f	-0.47853562
8	0xbe4b35d3	-0.19844751
9	0xbd4ff606	-0.050771736
10	0x3f23195f	0.6371059
11	0xbe070c0d	-0.13188191
12	0x3fead382	1.8345797
13	0x3f9c814d	1.222696
14	0xbf5a7872	-0.85340035
15	0xbe0606d9	-0.1308855
16	0xbe0c168e	-0.13680479
17	0xbeb38a67	-0.3506653
18	0xbe676f8a	-0.22601143
19	0xbe0b0a3c	-0.13578123
20	0xbeaa35be	-0.33244127
21	0xbe17cee7	-0.1482502
22	0xbf238c56	-0.6388601
23	0x3ddf89af	0.10914933
24	0xbe68bd2b	-0.22728412
25	0xbdaaf9b2	-0.08348407
26	0xbeb44e13	-0.35215816
27	0x3f831bdc	1.0242877
28	0xbe3eabe8	-0.18620265
29	0xbeeb4645	-0.4595205
30	0xbe752f4f	-0.23943828
31	0xbd569896	-0.05239161
32	0xbe352610	-0.17690301
33	0x3e9d5ec1	0.30736354
34	0xbe8cb0d2	-0.27478653
35	0xbe1e84fb	-0.15480416
36	0xbe8c9cb6	-0.2746331
37	0xbe561228	-0.20905364
38	0x3c932ad9	0.017964767
39	0xbdee6864	-0.11641005
40	0x3e6c89cc	0.2309944
41	0xbf054d76	-0.5207132
42	0xbe64df2a	-0.22350755
43	0xbdbb8129	-0.09155495
44	0xbe88d926	-0.2672817
45	0xbd8b9787	-0.06816011
46	0x3b93a365	0.004505562
47	0x405bd754	3.4350176
48	0xbd3f427e	-0.04669427
49	0x3dacffc1	0.08447219
50	0xbe37d2b3	-0.17951469
51	0xbd79c854	-0.060982063
52	0xbd92fe20	-0.07177377
53	0xbc9aa901	-0.018879415
54	0xbdf07c50	-0.11742461
55	0xbd67c0c3	-0.056580316
56	0x3c136adf	0.008997648
57	0xbe647a87	-0.22312365
58	0xbc247456	-0.010037502
59	0x3db6cac0	0.0892539
60	0x3cc77dbd	0.024351949
61	0xbbbf9354	-0.0058464203
62	0x3b8aa469	0.004231025
63	0x3cf6d153	0.03012911
64	0xbe233565	-0.15938337
65	0xbf1cf89e	-0.6131686
66	0xbd903689	-0.07041652
67	0xbd238aa6	-0.039927147
68	0xbf2d6109	-0.6772619
69	0x3d391ee6	0.045195483
70	0x3b2865d6	0.0025695465
71	0xbd621082	-0.055191524
72	0x40834433	4.102075
73	0xbdadaa38	-0.08479732
74	0x3d3eec01	0.04661179
75	0xbeafcf09	-0.34337643
76	0xbe1e5a8c	-0.15464228
77	0xbe34fa24	-0.17673546
78	0xc06a91fe	-3.6651607
79	0xbdcaaade	-0.098958716
80	0xc01a09b1	-2.4068415
81	0xbefe6f28	-0.4969418
82	0xbd915621	-0.07096506
83	0x3eabb0d8	0.3353336
84	0xbe694e8d	-0.22783871
85	0xbe443a81	-0.19162942
86	0xbd9c26f9	-0.07624621
87	0xbd2f6ca1	-0.042828206
88	0xbdd4a4a4	-0.10382965
89	0xbce3226b	-0.027726373
90	0xbdae2fda	-0.08505221
91	0x3cbd8592	0.02313498
92	0xbc8f2eb9	-0.017478334
93	0xbe289565	-0.1646324
94	0xbe1f5831	-0.15560986
95	0xc0066ff7	-2.1005838
96	0xbdbf5883	-0.09343054
97	0x4030c617	2.7620904
98	0xbc721785	-0.014776115
99	0xbda6cce4	-0.081445485
100	0x3b0f5121	0.0021868425
101	0xbe8416a8	-0.25798535
102	0xbd3f81c1	-0.046754602
103	0x3cded1e4	0.027199693
104	0xbe11099b	-0.1416382
105	0xbe8851a8	-0.266248
106	0xbdda396d	-0.10655484
107	0x3dc856d0	0.09782183
108	0x407198bd	3.7749474
109	0xbe1859fb	-0.14878075
110	0xbddbadb5	-0.10726491
111	0xbccf7506	-0.025324356
112	0xbf814a4b	-1.0100797
113	0x3e062bf6	0.13102707
114	0xbe0040d5	-0.12524731
115	0xbe1ffcc1	-0.15623762
116	0xbe22c505	-0.1589547
117	0xbdfee645	-0.12446264
118	0xbe2bef13	-0.16790418
119	0x4051aa5e	3.2760234
120	0xbebfbec7	-0.3745024
121	0x400dd24e	2.215961
122	0xbe175f8e	-0.14782545
123	0xbe6d1271	-0.23151566
124	0xbd93eb90	-0.07222664
125	0x3db07947	0.08616882
126	0xbe8f7f48	-0.28026795
127	0xbe8a9955	-0.27070108
128	0xbe8883e6	-0.2666313
129	0xbd2fa238	-0.042879313
130	0x3a1e0a02	0.0006028713
131	0xbe0cad8e	-0.13738081
132	0x3c80338d	0.015649581
133	0x3b7b9fff	0.0038394926
134	0xbd8dfe50	-0.06933272
135	0x3d10728b	0.035265487
136	0xbd33d9b7	-0.0439088
137	0xbd0c5b5f	-0.034266826
138	0xbef318e2	-0.47479922
139	0xbd4318b2	-0.047630973
140	0xbe6e1b5c	-0.23252624
141	0x3c371f57	0.011176906
142	0xc078e312	-3.8888593
143	0xbda1edf0	-0.07906711
144	0xbd4dfd1d	-0.050290216
145	0xbd78d1b1	-0.060746852
146	0xbc732891	-0.014841215
147	0x3d571f66	0.05252018
148	0xbf09b869	-0.5379701
149	0x3fa35982	1.2761691
150	0x3d159373	0.03651757
151	0xbc9b35a4	-0.018946476
152	0xbe35cedd	-0.17754693
153	0xbf09ae66	-0.53781736
154	0xbd7c7793	-0.061637472
155	0x3c908b3d	0.017644519
156	0xbe2cb398	-0.16865385
157	0xbd0cbeae	-0.034361534
158	0xbed28659	-0.41118124
159	0x3d876b2e	0.0661224
160	0xc046fc66	-3.1091552
161	0xbe0418db	-0.12900107
162	0x3d1b270c	0.037879035
163	0xbdac27e1	-0.08406044
164	0x3e3a7082	0.18206981
165	0xbe16c8c1	-0.14725019
166	0x40463c07	3.0974138
167	0x4004e647	2.076555
168	0xbcfd133e	-0.030892964
169	0xbdfab49d	-0.122414805
170	0xc02cbeb6	-2.69914
171	0x3e45343a	0.19258204
172	0xbe0d14ee	-0.13777515
173	0xbea609b7	-0.32429287
174	0xbe307582	-0.17232326
175	0xbc8cd5b0	-0.017191738
176	0xbe35d9d8	-0.17758882
177	0x3f01b86d	0.50672036
178	0xbdbacd3b	-0.09121176
179	0xbdeab8df	-0.114610426
180	0xbf0880f6	-0.5332178
181	0xbe2176c4	-0.15767962
182	0xbdf1541a	-0.11783619
183	0x3d930807	0.071792655
184	0xbe07bc92	-0.13255528
185	0xbe379f01	-0.17931749
186	0x3ea053f0	0.3131404
187	0xbf51d589	-0.81966454
188	0xbdacc191	-0.08435357
189	0xbe082017	-0.13293491
190	0x3d2914c6	0.041279577
191	0xbe1b9420	-0.15193224
192	0xbd216158	-0.039399475
193	0xbc1e83aa	-0.009674946
194	0xbe9ff464	-0.31241143
195	0xbf8ccbcc	-1.0999694
196	0xbec682ee	-0.38771766
197	0xbe2b05dc	-0.16701454
198	0x403d545e	2.9582744
199	0xbe8da6cc	-0.27666318

reward_fun.4.weight f4 [1, 200]
0	0x3d19ff89	0.037597213
1	0xbda69381	-0.08133603
2	0x3c55b61e	0.013043908
3	0xbd9a6f6c	-0.07540783
4	0xbd5f95c4	-0.054586187
5	0xbc31270d	-0.010812533
6	0xbe500697	-0.20315014
7	0xbd1cfceb	-0.03832714
8	0x3b7def9f	0.0038747562
9	0xbc868260	-0.01641959
10	0xbf02253a	-0.50838053
11	0x3a4e1369	0.00078611687
12	0xbe9d16bb	-0.30681404
13	0x3e56ecf1	0.20988823
14	0x3f193b64	0.5985625
15	0x3ca6cf07	0.02036239
16	0xbdc418b4	-0.09575024
17	0x3c2f3d31	0.0106957415
18	0x3cc11427	0.02356918
19	0xba8050d8	-0.0009789718
20	0xbd1d73f1	-0.03844065
21	0x3d0fb940	0.035088778
22	0xbaad99a2	-0.0013244639
23	0x3da465a0	0.08027196
24	0xbc304678	-0.010758989
25	0xbd6c9ecf	-0.05776864
26	0x3bc27b28	0.0059350915
27	0xbeb4e907	-0.35334036
28	0x3d946c09	0.072471686
29	0x3c14a7da	0.009073222
30	0xbcd5dee9	-0.026107268
31	0x3b0fee15	0.0021961976
32	0x3e0cfc0f	0.13768028
33	0xbf334afc	-0.7003629
34	0x3e4faecf	0.20281528
35	0x3db58b7c	0.08864495
36	0x3d72e4e7	0.05930033
37	0x3db16048	0.08660942
38	0xbd813260	-0.063084364
39	0x3d96d361	0.07364536
40	0x3b9f12be	0.004854529
41	0xbdb8dfe9	-0.090270825
42	0x3db09a89	0.08623225
43	0xbd9f61f5	-0.07782356
44	0xbcc1c8a9	-0.023655253
45	0xbd783e90	-0.06060654
46	0xb9b26455	-0.0003402556
47	0x3e834836	0.2564103
48	0xbca6492f	-0.020298569
49	0x3d531d61	0.05154169
50	0x3dbe8dd6	0.09304397
51	0x3dc1c3f8	0.09461206
52	0xbbdec2fc	-0.0067981463
53	0x3d92791b	0.07152005
54	0x3c5cbec2	0.013473215
55	0xbdb1cb46	-0.086813495
56	0xbd32c494	-0.043644503
57	0xbd0af283	-0.033922683
58	0x3d8dc245	0.069218196
59	0x3e33353c	0.17500776
60	0xbc5c02bb	-0.013428385
61	0x3915b53b	0.00014277261
62	0x3baca08d	0.0052681626
63	0x3d08b420	0.033374906
64	0x3da22cd4	0.079187065
65	0x3d3129ae	0.04325264
66	0xbc805d02	-0.01566935
67	0x3d9bacb4	0.076013
68	0xbdb617a8	-0.08891231
69	0x3e7ddf16	0.24792132
70	0x3d054ecf	0.03254586
71	0xbb58776d	-0.0033030168
72	0x3e461d40	0.19347095
73	0x3da7921c	0.08182165
74	0x3c5148f0	0.012773737
75	0x3d6f7273	0.058458757
76	0x3c136399	0.008995914
77	0x3dbdf5f6	0.09275429
78	0xbe5082fa	-0.20362464
79	0x3dac2fe7	0.08407574
80	0xbef4c59c	-0.47807014
81	0xbcaa4e27	-0.020789219
82	0x3d4f0db9	0.050550196
83	0xbd815c34	-0.063164145
84	0x3da85e40	0.08221102
85	0x3d64c096	0.055847727
86	0xbd8f0447	-0.06983238
87	0xbc927e3a	-0.017882455
88	0xbda6a9ce	-0.081378564
89	0x3c8daa93	0.01729325
90	0x3dbeb9bd	0.093127705
91	0x3b1d0730	0.0023960583
92	0xbce7cd32	-0.028296087
93	0x3d8e489f	0.06947445
94	0x3db24844	0.0870519
95	0x3e4b2683	0.1983891
96	0x3da73080	0.081635475
97	0xbede93d6	-0.43472165
98	0x3d03f5db	0.032216888
99	0x3d2f5b03	0.042811405
100	0x3bd6fbdb	0.006560785
101	0x3cfb54e2	0.030680124
102	0x3cbf63ae	0.02336296
103	0x3d2e876a	0.04260961
104	0xbb57ddd2	-0.0032938612
105	0xbdb5556f	-0.08854186
106	0xbdaac24b	-0.0833784
107	0xbcf21024	-0.029548712
108	0xbe9c81be	-0.30567735
109	0xbd5d16bd	-0.053976763
110	0x3d97e24e	0.07416211
111	0x3cc98425	0.024599144
112	0xbe843eeb	-0.25829253
113	0xbe327e54	-0.17431003
114	0xbc8619b5	-0.01636968
115	0x3d7a18e2	0.061058886
116	0x3d2de420	0.042453885
117	0xbdb41215	-0.087925114
118	0xbd63df74	-0.055633023
119	0xbef8fed3	-0.48631915
120	0x3db3246f	0.087471835
121	0xbe82e769	-0.25567177
122	0x3dbe3824	0.09288052
123	0x3d6c48fb	0.057686787
124	0x3d31787f	0.043327805
125	0xbd86ff0e	-0.065916166
126	0xbd2e71f2	-0.042589135
127	0xbae6b182	-0.0017600509
128	0x3cff2db8	0.03114973
129	0xbbf76c5f	-0.0075507606
130	0x3d949952	0.07255806
131	0x3dc169c7	0.094440036
132	0x3c4cc3ef	0.012497886
133	0x3da3460c	0.07972345
134	0x3da00054	0.078125626
135	0x3cba6092	0.022751126
136	0xbd5d8ec9	-0.05409125
137	0xbbf7effe	-0.007566451
138	0x3d40b918	0.04705152
139	0x3b456584	0.0030120322
140	0x3c4ee21c	0.012627151
141	0xbf1ad46c	-0.6048038
142	0xbe71fa05	-0.23630531
143	0x3d26efba	0.040755965
144	0x3d9d4510	0.07679188
145	0xbd98e17e	-0.07464884
146	0xbc680e22	-0.014163526
147	0xbda1c9ff	-0.07899856
148	0x3e83923e	0.2569751
149	0x3e6d0ee6	0.23150215
150	0xbda910de	-0.0825517
151	0x3c14dd32	0.00908594
152	0xbd4d253b	-0.050084334
153	0x3d0a6917	0.033791628
154	0xbe4d103e	-0.20025727
155	0xbd59f858	-0.053215355
156	0x3caf2c11	0.021383317
157	0x3c3f135e	0.011662332
158	0xbdbace3f	-0.091213696
159	0xbdba016d	-0.09082303
160	0xbe0faaf4	-0.14030057
161	0x3bae8fd9	0.0053272066
162	0xbc90a9ee	-0.017659154
163	0xbd8ca465	-0.06867293
164	0x3d8e91ae	0.0696138
165	0x3dac455e	0.08411668
166	0x3e8dcdcf	0.27696082
167	0xbe138128	-0.14404738
168	0x3c1609f2	0.009157645
169	0xbd5cb41e	-0.05388271
170	0x3e8f7256	0.2801692
171	0x3ed7e3b6	0.42165917
172	0x3d934571	0.07190979
173	0xbc2e862c	-0.010652106
174	0x3c424979	0.011858338
175	0x3d15719a	0.036485292
176	0xbd638c47	-0.0555537
177	0xbf274588	-0.6534047
178	0x3db9db9f	0.090750925
179	0xbd54f0a7	-0.051987316
180	0x3db46f40	0.08810282
181	0xbd5b6c30	-0.053569973
182	0x3dadb844	0.084824115
183	0xbbafbdaf	-0.005363188
184	0xbdb289da	-0.08717699
185	0xbd360b50	-0.044444382
186	0xbed49ed1	-0.41527417
187	0xbf83041f	-1.0235633
188	0xbd8a60c6	-0.06756739
189	0xbdb5bbc4	-0.08873704
190	0xbd4839fa	-0.048883416
191	0xbde6ec55	-0.112755455
192	0xbc50aae3	-0.012736055
193	0x3c41225c	0.011787977
194	0xbd425d61	-0.047452334
195	0xbf91844a	-1.1368496
196	0xbdb6ddc6	-0.08929019
197	0xbd942445	-0.0723348
198	0xbe75d10e	-0.2400553
199	0xbdb60619	-0.08887882
