data/hlt_deter/AcrobotEnv/seed_613/policy_1000.pt (torch, 6415 bytes, 4 tensors)

mu.0.weight f4 [128, 6]
0.024084069 0.21455379 0.5935765 0.05174842 0.22953042 -0.03983388 0.32283267 -0.44319314
0.26205087 0.34251407 -0.24063547 -0.21730949 0.074452356 0.07347067 -0.12423634 0.018032914
0.058303222 -0.0080326 -0.20841561 0.05015808 0.14599086 -0.22013058 0.2795073 0.17595242
0.290922 -0.5544478 -0.22292106 -0.05350593 -0.29648134 -0.29273346 0.27300894 -0.30419633
0.25416675 0.22218195 -0.17145069 -0.15378638 -0.09497972 -0.1437781 -0.1285051 0.23117171
0.2262857 -0.19225948 0.044587642 0.24346317 -0.014869382 -0.11631474 0.25751895 0.30853298
-0.33126104 0.10753186 -0.10999164 -0.05228439 0.22355413 -0.012978007 0.0059270463 0.26895025
0.6367389 -0.1399133 0.316081 0.043377277 -0.35694 -0.40154162 0.25557336 0.27838737
-0.24102339 -0.33729678 0.45863128 -0.25239784 0.29497775 0.34347296 -0.20379555 -0.21168448
-0.12669106 0.1022246 -0.3317176 -0.27520207 0.2664605 -0.15948787 0.048678316 -0.39781648
-0.18873179 -0.3779338 -0.031958267 0.08985344 -0.041844375 -0.54400396 0.13142134 0.035115853
-0.1624596 -0.28651142 0.10790784 -0.18865354 0.38671225 -0.33218175 0.39967915 0.12313763
0.286329 -0.24257071 0.40765205 0.5848595 -0.34411427 -0.37092173 -0.28821275 0.026688395
0.067155175 0.4146126 -0.030354427 0.14045188 0.2343132 -0.33668935 0.059051268 0.12037296
-0.10952655 -0.22112614 0.21632636 0.51273054 -0.19994277 -0.48254168 -0.030564668 -0.14540395
-0.35347342 -0.49147138 -0.10001697 0.1482373 -0.345936 -0.4200162 -0.035634182 0.48600253
0.1287713 0.094431825 -0.07087728 0.13836576 0.23943648 0.348016 0.014220909 0.30814147
0.30135128 0.107750215 0.12400843 0.4924596 -0.14558043 -0.4517452 -0.04446285 -0.14738126
-0.29069126 -0.32576346 -0.29332668 -0.16107368 -0.086454816 0.006591353 -0.1952433 -0.13874571
-0.27338326 -0.36047837 0.02378525 -0.08089032 -0.45414305 0.18381959 -0.29665667 -0.29348588
0.12929448 0.16846418 -0.10474847 0.020508599 0.2673262 0.3780066 -0.15423553 -0.21932746
-0.2679711 -0.09704611 0.25420797 -0.123384796 0.0049721515 0.001665032 0.22135247 -0.33172378
0.040913302 0.37804478 -0.16745225 -0.24758255 -0.45381224 0.32640368 -0.43537286 -0.19233485
0.015313083 0.036864985 0.12544163 -0.09591749 -0.2425271 0.12561737 -0.09564479 -0.18486232
0.17970285 -0.18642232 -0.121689804 -0.19966511 -0.11524948 -0.14073573 -0.2394615 0.10569654
-0.32658508 -0.25831574 -0.15231796 0.26017448 -0.27665877 0.37166533 0.0147554735 -0.2935287
0.47706592 0.3105292 0.013766444 -0.33800563 0.23951833 -0.16132177 -0.15527482 -0.03274209
0.06679919 0.38474545 -0.16223894 -0.3062697 0.06698221 -0.104272865 -0.40156096 0.044487815
-0.1338512 0.29285783 -0.30766913 -0.13100831 -0.34742728 -0.0690234 0.29105607 0.3095394
-0.24275552 -0.24052736 -0.09054423 -0.20791031 0.0597283 0.2830488 -0.25677317 -0.20951058
0.16142114 -0.21077731 -0.096869186 0.06122981 -0.3240044 -0.27845347 0.021976048 -0.5005514
0.32091287 0.4140837 -0.40780294 -0.3877094 0.31500897 0.27664864 -0.29107767 0.31483963
00000000: f44b c53c fdb3 5b3e a1f4 173f 27f6 533d
00000010: 060a 6b3e da28 23bd 534a a53e 36ea e2be
00000020: 882b 863e 015e af3e 2569 76be 6186 5ebe
00000030: 7a7a 983d ca77 963d 9f6f febd c3b9 933c
00000040: 5ccf 6e3d 2b9b 03bc e76a 55be 8f72 4d3d
00000050: a17e 153e e969 61be 951b 8f3e df2c 343e
00000060: baf3 943e 4bf0 0dbf 6b45 64be 0929 5bbd
00000070: 67cc 97be 29e1 95be d4c7 8b3e 9fbf 9bbe
00000080: 2522 823e aa83 633e c590 2fbe 2d7a 1dbe
00000090: ba84 c2bd 913a 13be d796 03be 47b8 6c3e
000000a0: 70b7 673e abdf 44be 88a1 363d 694e 793e
000000b0: b59e 73bc 6c36 eebd 86d9 833e 09f8 9d3e
000000c0: 0c9b a9be aa39 dc3d 4c43 e1bd 2828 56bd
000000d0: 60eb 643e b5a1 54bc ab37 c23b d9b3 893e
000000e0: 5201 233f 6f45 0fbe 5ed5 a13e 5fac 313d
000000f0: d7c0 b6be dd96 cdbe 83da 823e ca88 8e3e
00000100: d6ce 76be 2ab2 acbe b8d1 ea3e 4a3a 81be
00000110: 5307 973e b0db af3e c8af 50be d1c3 58be
00000120: 4dbb 01be 225b d13d e4d6 a9be 49e7 8cbe
00000130: 836d 883e ca50 23be ea62 473d 9aae cbbe
00000140: e842 41be 8a80 c1be ace6 02bd 1505 b83d
00000150: 0265 2bbd d843 0bbf 5193 063e a4d5 0f3d
00000160: cf5b 26be a0b1 92be c9fe dc3d 652e 41be
00000170: 26ff c53e ba13 aabe bfa2 cc3e 952f fc3d
00000180: b799 923e 7564 78be c5b7 d03e 5ab9 153f
00000190: bf2f b0be 74e9 bdbe 9f90 93be 9fa1 da3c
000001a0: a788 893d 1a48 d43e d9a9 f8bc 9ed2 0f3e
000001b0: cdef 6f3e 8c62 acbe bedf 713d 1986 f63d
000001c0: 754f e0bd e46e 62be a884 5d3e 4f42 033f
000001d0: ccbd 4cbe b40f f7be c162 fabc c6e4 14be
000001e0: 78fa b4be 23a2 fbbe b2d5 ccbd 85cb 173e
000001f0: 861e b1be 5d0c d7be 26f5 11bd 53d5 f83e
00000200: a0dc 033e 7965 c13d 1b28 91bd c1af 0d3e
00000210: d62e 753e 272f b23e d1fe 683c b8c4 9d3e
00000220: b74a 9a3e 25ac dc3d 22f8 fd3d aa23 fc3e
00000230: 0913 15be 264b e7be ad1e 36bd 1deb 16be
00000240: 7cd5 94be 78ca a6be ea2e 96be 80f0 24be
00000250: 390f b1bd 47fc d73b dced 47be 5b13 0ebe
00000260: e4f8 8bbe 9f90 b8be 49d9 c23c d3a9 a5bd
00000270: 7085 e8be 343b 3c3e 62e3 97be c843 96be
00000280: c665 043e e081 2c3e 5e86 d6bd a601 a83c
00000290: fbde 883e 158a c13e ebef 1dbe 6197 60be
000002a0: 8233 89be 1cc0 c6bd 8c27 823e 2bb1 fcbd
000002b0: 6eed a23b 343d da3a 39aa 623e b3d7 a9be
000002c0: b594 273d 168f c13e 9a78 2bbe 4886 7dbe
000002d0: 145a e8be 621e a73e 31e9 debe 6df3 44be
000002e0: bae3 7a3c bdff 163d c573 003e 6470 c4bd
000002f0: 0659 78be d7a1 003e 6ae1 c3bd 8c4c 3dbe
00000300: 0604 383e 7ee5 3ebe 8138 f9bd 0375 4cbe
00000310: eb07 ecbd 071d 10be 6535 75be 6d77 d83d
00000320: 2936 a7be f641 84be 3df9 1bbe 9735 853e
00000330: 38a6 8dbe eb4a be3e f1c0 713c 6549 96be
00000340: fc41 f43e affd 9e3e a78c 613c 130f adbe
00000350: 4b44 753e 8931 25be 5d00 1fbe 921c 06bd
00000360: 04ce 883d 5bfd c43e f721 26be 62cf 9cbe
00000370: f82d 893d 038d d5bd 6699 cdbe db38 363d
00000380: 4a10 09be 76f1 953e cf86 9dbe 0b27 06be
00000390: fde1 b1be 245c 8dbd 4d05 953e f37b 9e3e
000003a0: e794 78be ce4c 76be 416f b9bd 71e6 54be
000003b0: a9a5 743d c6eb 903e c677 83be f189 56be
000003c0: 954b 253e 02d6 57be 5a63 c6bd 1ccc 7a3d
000003d0: e8e3 a5be 7491 8ebe 1d07 b43c 2324 00bf
000003e0: b14e a43e c702 d43e 8ccb d0be d981 c6be
000003f0: db48 a13e e4a4 8d3e 2208 95be a932 a13e

mu.0.bias f4 [128]
-0.29000476 -0.15733285 -0.01527906 -0.17911422 0.35667515 -0.22416449 0.24724665 0.37550178
0.24148509 -0.25926468 -0.5313344 -0.2875915 -0.16125712 0.19312261 -0.4270901 0.0064044674
0.06315496 0.03842519 -0.5583093 0.22631288 -0.5455722 -0.44063222 -0.16836075 0.26146942
-0.1302558 0.37443662 0.22980002 0.2805342 -0.1191587 0.05797587 -0.36036137 0.30296397
-0.26967376 -0.5899162 -0.2867455 -0.28423637 -0.45431876 0.030923864 0.47925484 0.2630304
-0.59295833 0.2650666 -0.3447558 -0.46621758 0.00044751327 0.16024745 -0.10335121 0.16729614
0.23920447 -0.3964283 0.18190633 -0.30469352 0.21080069 -0.37502104 -0.47521624 0.14924455
-0.30735406 0.49211273 0.32436106 0.3440545 -0.050342467 -0.119042404 -0.430361 -0.13746506
-0.4511678 -0.42736217 0.14241333 -0.6953384 0.468326 0.11274841 0.34425864 -0.16557382
0.33443326 -0.38752657 -0.31107497 0.37195167 -0.5173896 -0.50886804 0.30574706 -0.48764706
0.1435664 -0.48717728 0.24116056 -0.43114 -0.27817813 -0.36354777 0.2494538 -0.12616849
0.27574736 0.16744545 0.06978759 -0.38861418 -0.4135647 -0.30360538 -0.5262264 -0.22585468
-0.0019479068 0.21553424 0.14813703 0.08906329 -0.42659438 -0.48173162 0.22877228 0.14968714
-0.41823766 0.09731321 0.102815785 0.33838943 -0.32304612 -0.04009575 -0.24361497 -0.45173836
-0.13481963 -0.26812068 0.24845858 0.5170848 -0.27800927 -0.46095058 -0.7026107 -0.478864
-0.23919225 0.19462395 0.25683036 0.30294988 -0.28796434 0.19410601 -0.19831073 -0.37374908
00000000: 817b 94be dd1b 21be 0655 7abc b869 37be
00000010: 209e b63e 608b 65be 3a2e 7d3e c541 c03e
00000020: de47 773e 57be 84be 8805 08bf 313f 93be
00000030: 9620 25be efc1 453e 8eab dabe 91dc d13b
00000040: 6357 813d bb63 1d3d 5ced 0ebf 90be 673e
00000050: 9faa 0bbf 8c9a e1be c366 2cbe 52df 853e
00000060: c761 05be 28b6 bf3e b250 6b3e 2ea2 8f3e
00000070: 7a09 f4bd 1b78 6d3d 4981 b8be 181e 9b3e
00000080: ae12 8abe c004 17bf 4ed0 92be 6e87 91be
00000090: 789c e8be 0b54 fd3c e460 f53e ecab 863e
000000a0: 1ecc 17bf cfb6 873e d583 b0be 12b4 eebe
000000b0: 37a0 ea39 e817 243e cda9 d3bd ae4f 2b3e
000000c0: 04f2 743e a6f8 cabe a745 3a3e ca00 9cbe
000000d0: 23dc 573e c202 c0be 8b4f f3be 90d3 183e
000000e0: 835d 9dbe 33f6 fb3e a712 a63e e927 b03e
000000f0: e733 4ebd 81cc f3bd 4758 dcbe a4c3 0cbe
00000100: 77ff e6be 37cf dabe cdd4 113e b301 32bf
00000110: 6dc8 ef3e a3e8 e63d ab42 b03e 2f8c 29be
00000120: d63a ab3e e269 c6be 3845 9fbe 7370 be3e
00000130: a573 04bf 2d45 02bf e18a 9c3e e0ac f9be
00000140: 1203 133e 4d6f f9be cbf2 763e 62be dcbe
00000150: 5d6d 8ebe ef22 babe d170 7f3e 5032 01be
00000160: c22e 8d3e d276 2b3e ccec 8e3d 70f8 c6be
00000170: c1be d3be 2a72 9bbe c6b6 06bf 7346 67be
00000180: e850 ffba 02b5 5c3e 3cb1 173e d066 b63d
00000190: 946a dabe 87a5 f6be 4843 6a3e 9647 193e
000001a0: 3f23 d6be 264c c73d 1591 d23d 6141 ad3e
000001b0: 4d66 a5be 713b 24bd 3476 79be 404a e7be
000001c0: 280e 0abe 1d47 89be ed6b 7e3e ab5f 043f
000001d0: 3b57 8ebe b701 ecbe 4bde 33bf aa2d f5be
000001e0: d0ee 74be 804b 473e 457f 833e 3f1c 9b3e
000001f0: 1070 93be bac3 463e f811 4bbe 0a5c bfbe

mu.2.weight f4 [2, 128]
0.1779635 -0.07058077 -0.004498811 -0.04723364 -0.09829275 -0.087367736 -0.06831667 0.08921956
-0.03831432 0.15118054 0.19717243 -0.122082226 -0.04191379 0.03555151 0.16684178 0.06501684
-0.19277398 0.019061165 0.17881724 0.097295776 0.17258692 -0.03301271 0.02078507 0.080047324
-0.044837333 -0.01200536 -0.042043 -0.06704348 0.014778394 -0.0674445 0.029435324 -0.025678381
0.028959937 -0.0968118 -0.1497888 -0.011609751 -0.037744477 0.049906343 -0.12353091 -0.11835315
0.083612904 -0.13287804 -0.016706048 0.21212275 -0.06124245 -0.043929562 0.06383917 -0.02849675
0.050719023 -0.12736642 -0.017219238 -0.005360226 -0.024322072 0.0416634 0.3699421 0.045809496
-0.1329992 0.10956803 0.081746325 0.07472594 -0.0045508295 0.043868355 0.13148755 -0.024604984
0.07680785 -0.044842713 0.024103664 -0.14223216 0.09502045 0.01201566 0.0658301 0.0059189466
0.09252808 -0.06309603 0.013144425 -0.06100362 -0.020578178 -0.04709754 0.11757833 0.014222291
-0.0763943 0.24004817 0.023673251 -0.066280015 0.045892354 -0.10264076 -9.152488e-05 -0.0149962995
0.10687402 -0.08890038 -0.14205281 -0.07721344 0.13634977 -0.03888708 -0.13205796 0.10012477
-0.14418915 0.006650333 -0.06632049 -0.045733754 -0.01924383 -0.010727344 0.05851055 0.035288524
0.05575806 -0.0048060804 -0.030120187 0.03925539 -0.017331084 -0.037510287 0.009481648 -0.052938808
-0.01032211 0.047983296 -0.10854456 0.13330664 0.04376889 -0.034971565 -0.123288766 -0.03261091
0.00569964 -0.08056653 0.07321998 0.088848494 -0.101858206 0.0370768 0.03257121 -0.1932874
-0.008214386 -0.011003571 -0.0030438118 -0.007301097 -0.0144707775 -0.00036576332 -0.022050712 -0.018525708
-0.017972149 0.025260635 0.0041336706 0.0024804913 0.009690517 -0.051012646 -0.028129999 0.015860002
-0.0154520245 -0.013651267 -0.055681825 -0.014820474 0.042179346 -0.001591294 0.0027288427 -0.014989588
0.007983249 -0.027808344 -0.012911259 -0.015137425 -0.02180616 -0.025096362 -0.018181205 -0.013431802
0.004960488 0.031788316 0.019571343 -0.021476856 0.028386947 0.013447429 -0.028548315 -0.031829193
0.013961459 -0.02014103 -0.006316883 0.0042098695 0.0067471233 -0.009470906 0.010556443 -0.0035131956
-0.024878625 -0.047218632 -0.010269678 -0.011661143 -0.018701062 0.03519834 0.065734304 -0.017177181
-0.025997017 -0.028448787 -0.033411376 -0.04169 -0.0069214767 0.012978974 0.0127833625 0.005040887
-0.011389691 0.006770443 -0.0064598606 0.037820548 -0.019713562 0.010984504 -0.027499938 -0.0014162513
-0.0033429884 0.015180463 -0.0022901578 -0.018962385 -0.009547782 0.01077528 -0.027203288 -0.006550002
-0.0008201825 -0.043322463 -0.013509072 0.0012270493 0.0037414883 -0.0043935818 -0.0135201905 0.002384397
-0.016719036 0.0028790394 -0.010009313 0.080228865 0.01580756 -0.0030791538 0.021717638 0.07265411
0.02600954 -0.037367158 -0.02205876 -0.018456433 0.012734996 0.043671954 0.003757805 -0.0055613886
0.008675855 -0.023724874 -0.012746132 -0.0067812507 -0.0038813516 0.0017949858 0.004484802 -0.016562827
0.004279307 -0.022413349 -0.028438991 -0.017466132 -0.028288722 0.0115590645 0.07818317 0.017339917
-0.0042497497 -0.008386763 -0.032292888 -0.020614639 0.027003035 -0.025911916 -0.006589884 0.028144162
00000000: 103c 363e a78c 90bd c36a 93bb 1078 41bd
00000010: b64d c9bd dbed b2bd 9ce9 8bbd bfb8 b63d
00000020: 7aef 1cbd 12cf 1a3e 92e7 493e 3f06 fabd
00000030: cbad 2bbd 769e 113d 92d8 2a3e 8d27 853d
00000040: 8b66 45be 2926 9c3c de1b 373e 0243 c73d
00000050: a0ba 303e 5638 07bd 7345 aa3c daef a33d
00000060: 5aa7 37bd 21b2 44bc 4835 2cbd 184e 89bd
00000070: 1421 723c 5820 8abd 5922 f13c 785b d2bc
00000080: 643d ed3c 4445 c6bd 3c62 19be d336 3ebc
00000090: f499 1abd 986a 4c3d c6fd fcbd 2363 f2bd
000000a0: 3e3d ab3d 2e11 08be 1fdb 88bc b536 593e
000000b0: 5dd9 7abd 7cef 33bd 1cbe 823d 0472 e9bc
000000c0: c0be 4f3d 586c 02be 5c0f 8dbc d6a4 afbb
000000d0: 153f c7bc 3ea7 2a3d 0d69 bd3e bda2 3b3d
000000e0: f130 08be 3465 e03d 9e6a a73d ea09 993d
000000f0: 201f 95bb 4eaf 333d aca4 063e 6490 c9bc
00000100: 6f4d 9d3d feac 37bd 0c75 c53c 4fa5 11be
00000110: 159a c23d 55dd 443c eed1 863d b9f3 c13b
00000120: 5d7f bd3d 7e38 81bd b75b 573c efde 79bd
00000130: 9193 a8bc 5ae9 40bd e8cc f03d 9d04 693c
00000140: 9d74 9cbd 30cf 753e 68ee c13c d1bd 87bd
00000150: 9ff9 3b3d 5235 d2bd 0cf1 bfb8 0ab3 75bc
00000160: c4e0 da3d 6711 b6bd 4b76 11be 1422 9ebd
00000170: 469f 0b3e 0f48 1fbd 343a 07be 370e cd3d
00000180: 52a6 13be 09eb d93b 09d3 87bd 5153 3bbd
00000190: 3da5 9dbc bec1 2fbc c2a8 6f3d b38a 103d
000001a0: 9062 643d 537c 9dbb 9cbe f6bc 43ca 203d
000001b0: ebf9 8dbc 63a4 19bd ea58 1b3c 5dd6 58bd
000001c0: 111e 29bc 228a 443d 9c4c debd 8981 083e
000001d0: 0247 333d 583e 0fbd d27e fcbd 0493 05bd
000001e0: 0cc4 ba3b 1100 a5bd 5bf4 953d 33f6 b53d
000001f0: 099b d0bd d8dd 173d 6469 053d 22ed 45be
00000200: a295 06bc 5248 34bc b07a 47bb 0a3e efbb
00000210: d716 6dbc ecc3 bfb9 b2a3 b4bc 3ac3 97bc
00000220: 543a 93bc 64ef ce3c be73 873b bd8f 223b
00000230: f9c4 1e3c a3f2 50bd e270 e6bc d6ec 813c
00000240: 7d2a 7dbc 90a9 5fbc a012 64bd 93d1 72bc
00000250: 40c4 2c3d f792 d0ba 62d6 323b e496 75bc
00000260: 2ccc 023c 53ce e3bc bf89 53bc f602 78bc
00000270: d5a2 b2bc e396 cdbc c0f0 94bc 1011 5cbc
00000280: 978b a23b 7734 023d 1554 a03c 3bf0 afbc
00000290: be8b e83c 9b52 5c3c 28de e9bc 545f 02bd
000002a0: 9abe 643c cdfe a4bc dbfd cebb f2f2 893b
000002b0: f916 dd3b dc2b 1bbc eef4 2c3c a43d 66bb
000002c0: 42ce cbbc 5368 41bd 2742 28bc 610e 3fbc
000002d0: f832 99bc 222c 103d b59f 863d 29b7 8cbc
000002e0: b2f7 d4bc 6e0d e9bc 5eda 08bd 22c3 2abd
000002f0: 8ecd e2bb c3a5 543c 4f71 513c 062e a53b
00000300: d49b 3abc 98da dd3b 3dad d3bb b8e9 1a3d
00000310: 567e a1bc 59f8 333c 8d47 e1bc 82a1 b9ba
00000320: 0a16 5bbb 7ab7 783c 7916 16bb 0157 9bbc
00000330: 4d6e 1cbc cd8a 303c 6ed9 debc 66a1 d6bb
00000340: 8401 57ba e572 31bd 2855 5dbc f1d4 a03a
00000350: c233 753b 09f8 8fbb ca83 5dbc 8b43 1c3b
00000360: 5cf6 88bc 44ae 3c3b 1afe 23bc 084f a43d
00000370: db7e 813c a1cb 49bb 30e9 b13c aecb 943d
00000380: f511 d53c 4e0e 19bd 93b4 b4bc f231 97bc
00000390: 72a6 503c 5de1 323d 8245 763b 4f3c b6bb
000003a0: 2c25 0e3c ab5a c2bc 27d5 50bc 4135 debb
000003b0: 465e 7ebb bb45 eb3a 3ff5 923b c4ae 87bc
000003c0: 6e39 8c3b 339c b7bc e3f8 e8bc 2215 8fbc
000003d0: c0bd e7bc 3b62 3d3c 7f1e a03d 710c 8e3c
000003e0: 7c41 8bbb a268 09bc 8c45 04bd 08e0 a8bc
000003f0: 7835 dd3c 3a45 d4bc f4ef d7bb 968e e63c

mu.2.bias f4 [2]
0.03769214 -0.05161001
00000000: 1363 1a3d 0565 53bd
