data/hlt_deter/InvertedPendulumRoboschoolEnv_sin/seed_313/model_35000.pt (torch, 180562 bytes, 10 tensors)

log_std f4 [1, 5]
00000000: 2135 a3c0 7784 22c0 22f0 98c0 6979 98c0
00000010: d7d4 eebf
-5.1002355 -2.539335 -4.779313 -4.7648206 -1.8658704

mu.0.weight f4 [200, 6]
00000000: 7f77 8c3a f2f1 7c39 cc61 c1b9 ff80 78b9
00000010: 149b ccb7 15dd 10b7 ad8b 8dbb 3b46 813b
00000020: b1e3 a03b 2105 3f3b 0d30 1aba 0f4e 77ba
00000030: 3ca6 1540 dc02 993f a473 973f 0d08 003f
00000040: 5d93 0ebe 5f89 243e 751b 5dbe 747d b2bd
00000050: f692 863e 21d6 ce3f 855c d3bb 5d09 0f3e
00000060: cd22 793e 84f9 7ebf 76b9 5e3d 1ad8 c7bc
00000070: f79b 5eba 8744 5d3d 2662 0ebb 0c5e 1a3b
00000080: b377 003b da57 273a ac4b 113a c20a 04ba
00000090: 2358 6dbb f311 bc3a 6d84 3b3b f3e1 8a3a
000000a0: dc17 9e3a e65f 22ba 5e84 ad3b 8307 4c3b
000000b0: 55cb dcb9 0add bd3b a9ec f639 3412 51ba
000000c0: 272a 1fc0 dc00 ffbe 03d4 253f 9cd4 b7be
000000d0: 2a72 9abc 299b adbd 4675 62c0 f0d7 44bf
000000e0: d4ad 323f 1c9a 82be 0c01 5dbc a6b0 5abe
000000f0: f591 c6ba 013a 9db9 97c1 203a a9fc 033a
00000100: 1386 97b7 8d90 e8b8 c7e0 79ba 4b81 beb9
00000110: 70a8 8139 6b26 c939 2cf0 8b38 e18b 0eb9
00000120: f3aa 3b3b 0673 5fba 2d38 533b ef83 65ba
00000130: 93a7 203a 25f4 153b 10b6 09bb b03f e2bb
00000140: 9575 6bbb d1b2 513a 7351 98bb 8415 4dbb
00000150: c736 eb3b 262e acb9 861e b2bb ad09 aa3b
00000160: 02ad e6ba 5c51 09ba 11eb 013f b6ae f23d
00000170: e2cf 9a3d ba41 0c3e c6c4 cd3b e5e2 b6bd
00000180: 9878 983b 7769 253b 2698 55bb 0229 8a3a
00000190: e8cd 36ba a4c0 bf39 0f66 0b3a c5e0 c037
000001a0: 4b8a a1b9 8cd9 58b9 2cf2 e137 d1cc 1f39
000001b0: 6ff1 aab9 a313 a439 7e02 d939 8459 6db8
000001c0: 718c 0939 5189 2fb8 72d0 5f38 745d 19ba
000001d0: 682d 3cb9 249a 54b7 a4da 37b9 7958 24b9
000001e0: fa9a 103b 96f5 8aba 9606 40bb acd6 a63a
000001f0: a9a2 9dba 76db 55b9 9e30 a836 5b8d 2b38
00000200: d2b7 e438 d958 9ab8 f363 b438 1697 3137
00000210: 5b6d cabb 4973 b1ba 3d62 883b 11f3 03bb
00000220: 2245 893a be71 15b8 c8bd b7bb a5c1 133b
00000230: 193e 9e3b 93de c9b9 0c3e b13a 1530 02ba
00000240: a345 a7bf 71b8 e4be ff4b 523e 9ac4 03c0
00000250: 289d 2a3d 2531 c1be 6207 a33e 6905 7c3e
00000260: f54c 023e 30d2 ca3f 9305 273e 1359 a3be
00000270: bdc2 213c d6f2 bb3a ab65 d5bb 0b4e 39bc
00000280: d274 493a ef1c 8cbb d470 02bb a17d c43b
00000290: 7ad8 de3a 1533 3c3b b53a c83a 2d51 15bb
000002a0: 9547 25be 113c 5d3e 16b1 3fbf 1b5b b13d
000002b0: 0a00 a03d 2e86 e93e 28d4 973b 7005 b8ba
000002c0: f95f 50bb 65b3 25bb c41a 31ba f545 fd3a
000002d0: 5acf 5f3b c034 a1bb 7f7b 12bc 2ec5 c7bb
000002e0: 16c0 0e3b 7734 3eb9 6555 deba 49e5 aabb
000002f0: 04a3 33ba d41d cabb ff5c db39 94f3 bd3a
00000300: 3936 76be 6204 5bbe 4464 f0bf d09b 2c40
00000310: 0de0 bdbd 827e 293e c7f9 b03e dde9 9f3d
00000320: 09a0 a73f f650 7ebf 4893 5ebd 581f 073e
00000330: 0758 29be cdfe 5f3e 3509 3b3f 29d1 cdbd
00000340: f76b 523d 42fb f83e 9829 1039 d534 8239
00000350: 6efa bbb8 dbed 8339 074a 71b8 6810 9eb8
00000360: 1bb8 d83e 9f1f ecbd da0e 973d 820c 873d
00000370: f116 873e 060e 00bf 0c95 54bb 6434 57bb
00000380: e429 bcb8 bd00 99ba 1b83 8938 02c1 56b8
00000390: e6b4 893e 06a3 143e 64c7 a9be c206 cf3f
000003a0: d26e 27bf e14d 883e efd9 cebd 7bce 9c3d
000003b0: f215 03be 430c 763e b77c 6abd cf11 89bf
000003c0: e6b1 dbbb 67d7 033a 0d49 8d38 3d80 b9b9
000003d0: ce31 403a 09e9 88ba 9da8 e3bb 1e1d df39
000003e0: 7b65 6b3b 063e 963b 5abd 36ba 1085 8eba
000003f0: e219 c4bf 2ca2 2b3e a7cf be39 d8eb 353d
0.0010716765 0.00024122724 -0.00036884693 -0.00023699178 -2.4390909e-05 -8.6345435e-06 -0.004319629 0.0039451397
0.0049099554 0.0029147344 -0.0005881794 -0.0009433934 2.3382711 1.1953998 1.1832166 0.50012285
-0.13923402 0.16068028 -0.21592505 -0.087153345 0.26283997 1.6159097 -0.006450238 0.13968416
0.24329682 -0.9959948 0.054376088 -0.024395037 -0.00084918685 0.05402043 -0.0021725981 0.0023554591
0.0019602596 0.00063836353 0.0005542587 -0.00050370034 -0.0036215864 0.0014348611 0.0028612867 0.0010595903
0.0012061554 -0.00061940996 0.0052953204 0.0031132407 -0.00042113164 0.005794172 0.00047097102 -0.000797543
-2.4869478 -0.49805343 0.6477663 -0.35904396 -0.018853266 -0.0847686 -3.5384078 -0.76891994
0.6979649 -0.255082 -0.013489019 -0.21356449 -0.00151497 -0.0002998859 0.0006132363 0.0005034903
-1.8063036e-05 -0.00011089547 -0.00095320906 -0.00036335955 0.00024730293 0.0003836633 6.672772e-05 -0.00013594284
0.002863583 -0.0008523915 0.0032229528 -0.00087553164 0.0006128486 0.0022881117 -0.0021013059 -0.006904565
-0.0035928239 0.0007999363 -0.0046483814 -0.0031293342 0.007178161 -0.0003284078 -0.0054357676 0.0051891417
-0.0017599168 -0.0005238259 0.5074931 0.1184973 0.07559182 0.13696948 0.0062795607 -0.089299954
0.004653048 0.0025239864 -0.0032591908 0.0010540786 -0.00069734314 0.00036573887 0.0005317637 2.299285e-05
-0.0003081135 -0.00020680408 2.693486e-05 0.00015239722 -0.0003260481 0.00031295148 0.00041391322 -5.658857e-05
0.00013117657 -4.1851137e-05 5.3361473e-05 -0.00058504124 -0.00017945992 -1.2672073e-05 -0.0001753369 -0.00015673217
0.002206503 -0.0010601755 -0.00293008 0.0012728772 -0.0012026626 -0.00020395019 5.01245e-06 4.0901225e-05
0.000109061264 -7.3598414e-05 8.601686e-05 1.05852e-05 -0.006177587 -0.0013538386 0.0041621015 -0.0020133893
0.0010472874 -3.56303e-05 -0.0056073405 0.002254584 0.00482918 -0.00038503538 0.001352252 -0.0004966271
-1.3068126 -0.44671968 0.20536803 -2.0588746 0.041653782 -0.37732807 0.3184157 0.24611439
0.1272467 1.5845394 0.1631072 -0.31903896 0.009873089 0.0014339339 -0.006512364 -0.011310111
0.0007684949 -0.00427591 -0.0019903677 0.0059964214 0.0017001771 0.002871697 0.0015276285 -0.002278398
-0.16140588 0.21604945 -0.74879587 0.08659955 0.078125075 0.45610183 0.0046334453 -0.0014039706
-0.0031795485 -0.002528393 -0.00067560025 0.0019323217 0.003415069 -0.0049196184 -0.008940577 -0.0060965037
0.0021781973 -0.00018139357 -0.0016962705 -0.005215321 -0.00068525993 -0.0061681066 0.00041840223 0.0014492148
-0.24044122 -0.2138839 -1.8780599 2.69701 -0.0927125 0.16552165 0.34565565 0.07808278
1.3095714 -0.99342287 -0.054339677 0.1319555 -0.16537486 0.21874543 0.73060924 -0.1004966
0.051372495 0.48629194 0.00013748405 0.00024834895 -8.963501e-05 0.00025163483 -5.752782e-05 -7.537083e-05
0.4232796 -0.11529469 0.073758796 0.065941826 0.2638469 -0.500214 -0.0032437472 -0.0032837624
-8.972341e-05 -0.0011673194 6.5570894e-05 -5.120133e-05 0.26895827 0.14515314 -0.33159935 1.6173937
-0.65403473 0.26621917 -0.10100161 0.076565705 -0.1280134 0.24028115 -0.057247844 -1.070856
-0.0067045568 0.0005029351 6.737011e-05 -0.00035381495 0.000733164 -0.0010445426 -0.0069475905 0.00042555569
0.0035918641 0.0045850305 -0.00069709646 -0.0010873396 -1.5320399 0.16761082 0.00036394337 0.04441437

mu.0.bias f4 [200]
00000000: eeff 90b9 5edf 87ba d1b9 0d3f 8b7f 553e
00000010: 3f0d 1b3d c24a 8c38 b73d c6b9 f5a3 08bb
00000020: 4bb6 1140 1ec1 0140 135e c139 f124 a339
00000030: e4c7 d2ba 717d fe3b 2e5b 96bb 6d4f c3be
00000040: 07d2 3aba d130 abb8 3616 62b8 4004 8439
00000050: 2b18 1239 15a5 59b8 f182 1d3a 89ad c739
00000060: 3fd9 383f f489 8ebe 48c2 fb3a 626b 16bb
00000070: 9520 11c0 a061 033a 5bd8 e83b 3d9c f73a
00000080: cc93 0040 d354 bd3f e820 34bf 1701 02b9
00000090: bebc ccbe 3c98 e03a a0b6 2b3e cb0f 523e
000000a0: de9b 283b fb72 413a 49a1 303e 225c 8bbf
000000b0: 8b08 31ba fc80 353b c63a 7b38 5ba6 ee38
000000c0: 9137 5d3b 3d08 25bf 35ad d83a 383a 50bb
000000d0: 723e 4f3b 26fb 2eba 3c02 00bf 73e9 613f
000000e0: 4355 0ebb 30e3 5c3b 8b74 483f ba2b cd39
000000f0: fcde fcb6 b059 5cbb f321 66ba 5c53 e139
00000100: aa14 593f 0b2b 12bb 9a62 26bb 88de cdbf
00000110: 742b ccbf bd8b 25bb f5c9 223e 63e8 fd3a
00000120: 582a fdba e1d2 8ab9 514f 04ba 5e39 b13f
00000130: 1807 2b38 63eb 67bf c84f 913b 1322 1e3c
00000140: 2c6d 633b fd20 be3b 4eb0 443a 1bd9 86bf
00000150: 7dc3 2a3e d811 103f 1bba 073f 2c46 18bf
00000160: 7b6d cfba b2d0 b43b 4bad 913f bb4e 8ebf
00000170: 825b af3f efb1 6839 80a2 4b3c 6d34 ed3f
00000180: 5ca9 683b a69f c6b9 4c97 3cbb daaf 84be
00000190: b321 3b3a ba7a 743b 57de 933e 0bb7 5e3a
000001a0: d97c 8f3f c568 1b38 75c0 c23f 2347 eb3a
000001b0: 36c0 cbbf 0f41 283b 295b 613a db2e 3abf
000001c0: 1b96 5340 aa01 ba3c f625 ca3a 3271 c1bb
000001d0: 7a3a 2b39 9e21 d53f fd9f 18bb 050b 43ba
000001e0: 09c7 303b 29ee 263a 37d9 523b d22b c83f
000001f0: 7885 7bbb e6ec 5cbb 250a 133e 7dfd 863c
00000200: 2399 c6bf 56bd 50bf 1fbb ae3f cbab b73d
00000210: 1aac 73bb a859 83ba 6fdb ff38 bfd9 9239
00000220: dfc2 c63e d341 b0bb 422d ad3a 7be7 b5bf
00000230: 2dd5 773a cd36 173a 160c ef39 8263 233b
00000240: e737 cf3e 215b 1f3d edb5 a23f 79df c6ba
00000250: d045 b43a f79e bc3f 0d68 8b3e ae9a 4dbb
00000260: 3faf 953f 328f da39 c1ff c4bf 5e91 25bb
00000270: a3b3 acb9 278a 783f 54cf c63e 779d e6b9
00000280: 7c6c cabe 7503 a0bd c8d1 e53f abe3 ac3f
00000290: b1a9 f13a 827f 30be bb28 8bbb 77c5 c43f
000002a0: 8393 97b8 1a01 a4ba e6e8 51bb f04e 9dbf
000002b0: 997d 753f aeb1 f03a a9e2 7c39 0e32 2dbb
000002c0: 5d49 ebbf d003 dcbf 7168 823b 4362 b0be
000002d0: f8cd a3ba de00 85bb 0729 d43e d6f5 d3bf
000002e0: 9c3d 15c0 ea6a 68bf f3f2 023f b46f 5dbb
000002f0: f69d 0fbc a29f a93b 01f0 143f c6cf 40bf
00000300: a0c7 31b5 7f31 9a3e 81a3 c33f 310c 5e3b
00000310: ef2b 92b7 4e55 4bba 5745 a5b7 add7 303a
-0.00027656503 -0.0010366251 0.5536166 0.20849435 0.03785443 6.689645e-05 -0.00037811484 -0.002084968
2.2767513 2.027412 0.0003688192 0.00031117306 -0.00160813 0.0077664186 -0.004588506 -0.38146535
-0.00071266334 -8.163008e-05 -5.3903284e-05 0.00025180168 0.00013932648 -5.1890576e-05 0.00060085865 0.00038085532
0.7220649 -0.27839625 0.0019207681 -0.0022952189 -2.2676136 0.00050118007 0.0071058697 0.0018891167
2.0090208 1.4791511 -0.7036271 -0.00012398172 -0.3998775 0.0017135213 0.16768885 0.20513837
0.002572767 0.0007379499 0.17249025 -1.0887492 -0.0006753287 0.002769529 5.98978e-05 0.000113797105
0.0033755044 -0.64465696 0.0016531112 -0.0031772982 0.0031622914 -0.0006674997 -0.5000341 0.8824684
-0.00217183 0.003370475 0.7830283 0.00039133226 -7.536144e-06 -0.0033622794 -0.00087788625 0.00042977452
0.84797156 -0.0022303488 -0.002538836 -1.6083536 -1.5950761 -0.0025260292 0.15897353 0.0019371625
-0.0019314988 -0.00026478528 -0.00050472195 1.3845632 4.0776184e-05 -0.90593547 0.0044345595 0.009651679
0.0034702523 0.0058022724 0.0007503078 -1.0535005 0.16676135 0.5627723 0.5301835 -0.59482074
-0.0015825474 0.0055180425 1.138101 -1.1117777 1.3699801 0.0002219153 0.01242888 1.8531624
0.0035501337 -0.0003788445 -0.0028776703 -0.25915414 0.00071385055 0.0037304596 0.2888057 0.00084959035
1.1209975 3.7052454e-05 1.5214983 0.0017950278 -1.5918033 0.0025673544 0.0008596653 -0.72727746
3.3060367 0.022705872 0.001542269 -0.0059033865 0.00016329615 1.6650884 -0.002328872 -0.00074403017
0.0026974103 0.0006367886 0.0032172927 1.5638373 -0.0038379114 -0.0033710538 0.14359339 0.016478295
-1.5515484 -0.81538904 1.3650855 0.08968314 -0.0037181438 -0.0010021226 0.0001220022 0.00028009524
0.3882055 -0.0053789406 0.001321234 -1.4211267 0.0009454068 0.0005768359 0.00045594637 0.0024931137
0.40472338 0.038905267 1.2711769 -0.0015172801 0.0013753716 1.4736012 0.27227822 -0.0031372714
1.1694106 0.0004168689 -1.539055 -0.0025263648 -0.00032940236 0.97085804 0.38830054 -0.0004398634
-0.39535892 -0.078131594 1.7954645 1.3506979 0.0018437413 -0.1723614 -0.004246799 1.5372761
-7.227717e-05 -0.0012512535 -0.0032029687 -1.2289715 0.9589477 0.00183635 0.0002411703 -0.002642754
-1.8381764 -1.7188663 0.0039797355 -0.34449968 -0.0012497297 -0.0040589413 0.4143755 -1.6559398
-2.3318853 -0.9078814 0.5115196 -0.0033788504 -0.008765688 0.0051765004 0.58178717 -0.7531704
-6.622813e-07 0.30115888 1.5284272 0.0033881778 -1.7425014e-05 -0.0007756547 -1.9701822e-05 0.00067460054

mu.2.weight f4 [5, 200]
00000000: 5c19 7fb8 759d 2039 7ae2 ca3a 1741 903c
00000010: 9c9b 703c 2f20 7139 2a4c 7339 04b8 fdba
00000020: be6f 153c 88c7 bcbb 563a c238 4bfb 0639
00000030: ff0c 8c3a 705d 4439 7fb4 7dbb 4b36 343a
00000040: 593b b3ba fac0 d8b7 cc7d 8738 cf37 9138
00000050: 67ba 81ba 1368 fe37 e524 e23a cae6 c93a
00000060: e7d4 dbb9 e59b b13a c8ca bfba 630e 82ba
00000070: da45 12bb bb58 cf38 646e 9239 0d3c 083b
00000080: e26f 353a c2dd 373c 8a8b c63a 20f3 e1b8
00000090: 22a5 fa3a 2136 4f3a add6 fb38 0d33 a2bb
000000a0: f79e 29ba efb1 d938 facf cc3d 1e5d f4ba
000000b0: 63b3 05ba 0d44 3a3a c8c1 8636 2737 a239
000000c0: 3dfd ca3a fdac 2c3b bc96 f738 9416 b23a
000000d0: 883b af3a 6402 acba 693a eabb f2a8 04bb
000000e0: bda0 d63a be8a da38 0eca ee3a 52e6 ad39
000000f0: dd9d bd39 903f ba38 a012 ee39 e164 a4b8
00000100: 1b96 06b9 ed96 4cba fcb7 b1b9 ea8a 783b
00000110: d9ca 88ba 1104 08bb fb23 c23b 849b 9339
00000120: 3bb9 10ba 68d1 81b9 bce5 5db9 2831 11bc
00000130: 38c0 e239 72fa e93a dfd1 ad3a 34f0 36b9
00000140: 08d3 f3b6 63a0 483a ab04 2c38 8671 6639
00000150: 2688 7a3d 3dde dd3a 3406 a03b 80f3 77bb
00000160: b5e3 75b9 1311 6c3a b795 79bb 30b6 06bb
00000170: 7165 77bb 0799 f038 27cf c53a bccb 85ba
00000180: 158a 813a 7971 8cba d698 8fba dff4 8e3a
00000190: fb78 153b 6708 8c3a 2253 14bc c022 37ba
000001a0: d0dd 58bb 2da1 4c39 c369 ef3a cf7d 613a
000001b0: f154 44bb d3a8 423a 15c6 e53a 372f 9f3a
000001c0: 6808 a73c f8df 31ba 6d57 e4b9 8cd8 ef39
000001d0: e314 c8b8 57c3 1b3b 87b2 4db8 7044 8e3a
000001e0: 8305 2e3b a1c0 18b9 c342 703a d853 833b
000001f0: d337 8bba 4b63 aeba 3ab2 8839 31ed ff3a
00000200: 6476 183b cfb1 813a 6da0 c23a 361a 3dbc
00000210: 319c 54ba 99f2 583a cf04 bc38 a0bf d33a
00000220: 516a 6fbb 8d3a 26bb 27ad f53a 6ad1 143c
00000230: fea2 e63a 6cba 8c3a 1bdd cd39 933f a23a
00000240: 5464 7b3b d8be 0cbe d8ca 9a3b de81 ceba
00000250: a5f7 503a 821f a1ba 1ccd 6a3a 0ce6 87ba
00000260: 7eff 553b ac91 c839 de25 d7ba f791 af39
00000270: e065 b4ba 76dc e2b9 3bd8 92bb f5d5 143b
00000280: 1bf0 703b c405 ab3b 80cf 613b 071e 0dbc
00000290: 9a43 4d38 9a47 c83d 62a3 10bb 1588 a9ba
000002a0: 4390 c3b8 8522 a2ba adb2 d8ba ea50 e13b
000002b0: ad40 e33b a219 c13a 2887 4138 8e6d 2337
000002c0: 60fc 99bb 09b9 873a abbe a938 a5e2 33bb
000002d0: c70e c539 e2ed 69ba c145 88b9 ea45 48ba
000002e0: a67f b8ba d3cb b5ba 7d37 883a 2f12 eaba
000002f0: 092b dcba 2cf1 bc3a 1fca a03b ef46 08bb
00000300: 2313 4039 5ba0 593a 676f 153b b98d 5fba
00000310: 75fb 8dba cdbe d4ba 19f1 0d39 facf a93c
00000320: f06b ca3a 5a52 cbbb 6525 3f3c 0b46 d63e
00000330: d1a7 983d 4287 a9b9 3d59 21bb f9ff 163a
00000340: c261 ed3d 8c58 f1bd 4151 17bb ce59 dbb9
00000350: bb8f 49bc 30b3 7ebc 1711 d53b f2ba 68be
00000360: d37f 173c 56e6 5f3a 72c0 8c37 9bfd d8ba
00000370: aa48 113b f773 7fb8 d3b3 d5bb 7bf5 b4bb
00000380: e693 69bd 0c4d b5bb 080b 053c 6cc7 f23b
00000390: 1931 86bb 7f2c d03b 50b7 383b 4aea 97ba
000003a0: 7368 c83c 2cbb 8c3e 6687 193b 5834 303a
000003b0: 838d 003d 311f 44bb 38d3 21bc 9b1f 48be
000003c0: 3ef3 0a3b 8f24 2ebc 1765 f23f ebb6 cf3a
000003d0: 82ff ebbb 9e05 12bc e484 19ba 5bab 2cbc
000003e0: fa2c e0ba 2cd7 b43d 5d52 c1bb 12fa b4bb
000003f0: 96a0 0c3c df66 163c 3ad4 51be 6e92 18bd
-6.0820355e-05 0.00015317446 0.0015478872 0.017609162 0.014685538 0.0002299554 0.00023202659 -0.0019357209
0.00912088 -0.0057610907 9.261507e-05 0.0001287285 0.0010685025 0.00018726825 -0.003871232 0.00068745454
-0.0013674303 -2.5839068e-05 6.460733e-05 6.924534e-05 -0.0009897471 3.0327623e-05 0.0017253427 0.0015403864
-0.0004192956 0.0013550489 -0.0014632577 -0.00099225 -0.0022319467 9.8870565e-05 0.00027929537 0.0020787746
0.0006921274 0.011222305 0.0015147787 -0.000107741216 0.00191227 0.0007904489 0.00012008599 -0.0049499334
-0.0006470526 0.00010380509 0.10000606 -0.0018643474 -0.0005100278 0.0007105477 4.0160703e-06 0.0003094014
0.0015486848 0.0026348226 0.00011805954 0.0013587051 0.0013369182 -0.0013123271 -0.0071480763 -0.00202423
0.0016374808 0.00010420893 0.0018218176 0.00033168733 0.00036166506 8.8810106e-05 0.00045408774 -7.8389196e-05
-0.00012835154 -0.0007804472 -0.0003389715 0.0037924596 -0.001043643 -0.0020754377 0.0059246994 0.00028153893
-0.00055207656 -0.00024760817 -0.00021161785 -0.008861817 0.00043249293 0.0017851128 0.0013261399 -0.00017446355
-7.2665316e-06 0.0007653294 4.1012343e-05 0.000219768 0.061164998 0.0016927194 0.004883552 -0.0037834346
-0.00023449848 0.000900523 -0.0038083622 -0.002055537 -0.0037749673 0.00011472595 0.0015091643 -0.0010207812
0.0009883071 -0.001071497 -0.0010955583 0.0010906718 0.0022807706 0.0010683656 -0.0090530235 -0.0006986074
-0.0033091195 0.00019514999 0.0018265772 0.0008601816 -0.0029957856 0.00074256695 0.0017530347 0.0012144808
0.02038975 -0.0006785388 -0.00043552686 0.00045746972 -9.5406336e-05 0.0023767555 -4.9042075e-05 0.0010854136
0.0026553578 -0.0001456761 0.00091652217 0.0040077977 -0.0010621495 -0.0013304738 0.0002607273 0.0019525645
0.0023263926 0.000989491 0.0014848836 -0.011541894 -0.00081104325 0.0008275896 8.965434e-05 0.0016155131
-0.0036531875 -0.0025364489 0.001874362 0.009083131 0.0017596183 0.001073671 0.00039265383 0.0012378566
0.003835936 -0.13744676 0.004723888 -0.0015755256 0.0007971472 -0.0012292715 0.0008956955 -0.0010368242
0.0032653506 0.00038255507 -0.0016414484 0.00033487353 -0.0013763271 -0.00043270335 -0.004481343 0.0022710536
0.0036764208 0.005219193 0.0034455955 -0.008613116 4.8938768e-05 0.09779282 -0.002207004 -0.0012934232
-9.3251954e-05 -0.0012369907 -0.0016532742 0.006876101 0.0069352 0.0014732371 4.614066e-05 9.741065e-06
-0.004699275 0.0010354827 8.094063e-05 -0.0027448323 0.00037585778 -0.0008923692 -0.00025991912 -0.00076398125
-0.0014076128 -0.0013869948 0.0010392513 -0.0017858202 -0.0016797493 0.0014415137 0.004906907 -0.0020794233
0.00018317676 0.0008301788 0.0022801997 -0.0008527893 -0.0010832386 -0.001623118 0.00013536624 0.020729054
0.0015443545 -0.0062048854 0.01166663 0.41850314 0.074538834 -0.00032334967 -0.002461984 0.0005760189
0.115909114 -0.11784467 -0.0023089203 -0.00041837845 -0.012302334 -0.015545651 0.0065022814 -0.22727564
0.009246784 0.00085410976 1.6778915e-05 -0.0016555073 0.0022168555 -6.090474e-05 -0.006521681 -0.0055224276
-0.057025813 -0.0055328663 0.008120306 0.007409027 -0.0040952084 0.0063529606 0.0028185435 -0.0011590209
0.024463868 0.2748655 0.002342665 0.0006721667 0.031384956 -0.0029925818 -0.009877019 -0.19543307
0.0021202113 -0.010628833 1.89371 0.001584736 -0.0072020898 -0.008912472 -0.0005856289 -0.010538901
-0.0017103248 0.08830103 -0.005899711 -0.0055229748 0.008583209 0.0091798 -0.20491114 -0.03724902

mu.2.bias f4 [5]
00000000: e54b 04bc 2287 edbe 704d 58bd 04cd 1dbc
00000010: 5d8f 8cbd
-0.008074735 -0.4639216 -0.052808225 -0.009631399 -0.06863282

reward_fun.0.weight f4 [200, 6]
00000000: 708a 5140 e40f 563f b405 fb3c 3d6d 0f3f
00000010: 9466 27be 5064 973f 229e b5be 4c3f 523f
00000020: e91a e1bf 1db5 26bd 2c9e adbe a2c4 cb3f
00000030: 66ee 443f fd7b 4c3e 3bfd 3540 3352 2640
00000040: 8b4c 853e 63ca ccbe 1242 72c0 be6c e6bd
00000050: cff7 3140 82d2 d23f cd1a c33d 8769 bbbf
00000060: 1ab5 4dbf 9132 d43d 1f3a 853e 800b b7bd
00000070: 9134 443c e3d7 4dbe c50f e6be d8b8 abbf
00000080: 4c26 df3f 72e6 8a3f a77a b23e c290 1fc0
00000090: f6ed ca3e a2f9 cf3f eb1c 18bf 8876 0340
000000a0: a8be 4f3d 18a9 553f 0245 9cbf 1d0e 6dbf
000000b0: 0552 833f 8315 c7be d775 aa3e f20f 1b3e
000000c0: 434c 11c0 330e 4cbf ba92 903f 7568 4440
000000d0: 98af 523e 10a8 60be aee4 9d3e d7cd 693e
000000e0: 7d49 313f 4cc5 cdbf 2d4b 443e 7189 a3bf
000000f0: 0443 99bf 794a c6bf 7d06 833f 7faf b2bc
00000100: f8b1 c03d af26 babf 8b43 8b3f 0a48 bb3f
00000110: 4745 1e40 c7e6 673f 1c50 003f 5a91 ab3f
00000120: 9287 9abf 1bf6 38bf 9757 8740 dc94 6bbf
00000130: 4141 59bf 80a4 f7be 262c d33c 045d 9e3d
00000140: 10af 62bf 5765 d53e eaa6 81bc e986 9d3d
00000150: e2d4 b0bf f672 abbe f9ad f13e 5352 293f
00000160: 5767 a0be 279a 33bd b0bc 94bf 52c9 973d
00000170: 9648 5abe cb79 10bf 09f4 1a3e 93bb 8abe
00000180: 8e7e cebf 5920 813f 4020 79bd d40f c2bf
00000190: 7d81 e7bd ebe5 633e 1b85 80bf e474 16c0
000001a0: 03e1 ebbf cdc9 08bf c242 a33e f51f 78bf
000001b0: f770 773f 1b20 633e 880d 1640 bb24 7c40
000001c0: 76c8 e53e 6131 61bf 25a7 9d3e 2254 3ebe
000001d0: ee7b 44bf 910e 2cbf 1075 d93d c85f dfbe
000001e0: e0b4 31be fa63 b639 fca1 963e 8840 e7bd
000001f0: 417e 48bc e929 cabe e126 4ec0 100f 5b3e
00000200: 95ea e33e f4c0 04bd bfa0 ea3d 08f9 0040
00000210: a404 96bf f921 f9bd e069 5740 74f6 25bf
00000220: e9f7 6dbf ebe4 fbbe 6a86 a6be af19 d13f
00000230: 950a 3340 17eb 8cbd e0f0 b43e 2ff5 bdbf
00000240: 74a4 943f 026d 733e c197 ed3f dfe8 9b3f
00000250: 5afc 8f3e 7f81 debf c1f7 a3bf c1c4 87bf
00000260: 8bf0 26c0 545a 1d3f b955 8bbe a820 2a3f
00000270: 6064 aebf f98e eebe 6cb3 033f a1f4 b9bf
00000280: f94b df3c 8bbf 1dbe 677c d33f 4c57 d3be
00000290: 0d28 3a40 cb53 7c3d 1649 36bf f221 09be
000002a0: c7ee 8abf bafe cabe 1749 083f ac73 b33f
000002b0: 1829 1a3e c21a 4dc0 f0d9 6b40 30fe d2bf
000002c0: 5c7c ac3e 932f bd3d fd66 ff3d ed80 92be
000002d0: acf4 f4be b198 04c0 75f6 2b40 ac62 6b3f
000002e0: 6376 fbbd 80cc 9dbd 09b0 b23f d602 ed3e
000002f0: 3abb a4bf b77d 103d 21d3 78be 3c1e c53f
00000300: a196 b0bc d73f a6be afc9 913d 0f44 a13c
00000310: a954 3cbb dd5f 44be 49f7 eec0 875c 1bbf
00000320: 0ec7 45bf d4e4 e8bf 99ea 46bc 4839 27bf
00000330: 4633 d6bf c3bb 86bf 6bc7 d33f d87f 93bf
00000340: 74f7 163f 5a35 88bf a54f c03f 5707 b43f
00000350: 8b89 73bf b9ed 2040 6a92 613e 9d23 f2bf
00000360: d9bf 67c0 0ef5 c63f 0b83 003e ed3a 703b
00000370: d793 97be 9feb 6f3f 22f3 b1bf 231a 663f
00000380: 526f c43f 3fd7 38bf cd58 cbbd 1339 6d3f
00000390: 943a 11be 3527 bc3c e2c9 abbe ed06 10be
000003a0: 77a1 713b 5f9b e5bc 91ef 74c0 b731 81bf
000003b0: 4b62 cebf 2000 0240 f676 9d3e 8e6c 6abf
000003c0: 2105 84bf 18ba 903f 746d 0040 56e7 3c3f
000003d0: 5ab7 b2bd eba1 2a3f e9fd a93f 197d 19be
000003e0: 6fb4 0340 c280 a9be cc6c 5ebe fbbc f4bf
000003f0: d772 8dc0 4b3e 71bf e1f9 3d40 b525 2d3f
3.2740746 0.83618 0.030642368 0.5602606 -0.16347724 1.1827488 -0.35472208 0.82127833
-1.7586337 -0.040700067 -0.33909738 1.5919383 0.7692627 0.19969173 2.843581 2.598767
0.2603496 -0.3999816 -3.7852826 -0.1125121 2.78075 1.6470492 0.09526596 -1.4641579
-0.80354464 0.10361207 0.26020905 -0.0893774 0.011975423 -0.20101885 -0.44933906 -1.3415785
1.7433562 1.0851576 0.348592 -2.4932103 0.39634675 1.6248057 -0.59419125 2.0541096
0.050718933 0.8346114 -1.220856 -0.9259966 1.0259405 -0.388836 0.3329303 0.15142801
-2.2702796 -0.79709166 1.1294777 3.0688756 0.20574796 -0.21939111 0.3083853 0.22832428
0.6925276 -1.6075835 0.19169302 -1.2776319 -1.1973577 -1.5491477 1.0236355 -0.021812199
0.09408945 -1.4543055 1.0879987 1.463136 2.4729784 0.90586513 0.5012224 1.3403733
-1.2072623 -0.7225053 4.229442 -0.92024016 -0.84865195 -0.4836769 0.025777888 0.07732585
-0.88548374 0.4167888 -0.015826661 0.07691748 -1.3814967 -0.33486146 0.47203043 0.6614124
-0.31328842 -0.043848183 -1.1620083 0.07411446 -0.21316752 -0.5643584 0.15132155 -0.27096233
-1.6132371 1.0087997 -0.06082177 -1.516108 -0.11303995 0.22255675 -1.004062 -2.3508844
-1.8428043 -0.53432924 0.3188687 -0.9692376 0.96656746 0.22180216 2.344576 3.9397418
0.44879502 -0.8796597 0.30791584 -0.18586782 -0.767516 -0.67209727 0.10618031 -0.43627763
-0.17354155 0.00034788233 0.2942046 -0.11291605 -0.0122371325 -0.394851 -3.221123 0.21392465
0.4451491 -0.032410577 0.11456441 2.0151997 -1.1720166 -0.12164683 3.365837 -0.6482918
-0.92956406 -0.49198088 -0.32524425 1.6335963 2.7975209 -0.06880777 0.35340023 -1.4840449
1.1612687 0.23772052 1.8561937 1.2180442 0.28122216 -1.7383269 -1.2809983 -1.060692
-2.6084316 0.61465955 -0.2721384 0.6645608 -1.3624382 -0.46593454 0.5144565 -1.452778
0.027257906 -0.15405099 1.652234 -0.4127754 2.9086945 0.06160335 -0.7120527 -0.13391855
-1.0854119 -0.39647466 0.53236526 1.4019675 0.15054739 -3.2047582 3.6851768 -1.6483822
0.3368863 0.0923759 0.12470815 -0.28613988 -0.4784292 -2.0718195 2.6869175 0.91947436
-0.1227844 -0.07705021 1.3959972 0.46291226 -1.2869637 0.03527614 -0.2429929 1.5399852
-0.0215562 -0.3247058 0.07118546 0.019685773 -0.0028736985 -0.19177194 -7.467686 -0.6068806
-0.7725686 -1.8194833 -0.012140893 -0.6532178 -1.6734397 -1.052605 1.6545233 -1.152339
0.58971334 -1.0641282 1.5024306 1.406474 -0.9513175 2.5145094 0.22028509 -1.8917118
-3.6210845 1.5543535 0.12549989 0.0036656216 -0.2960498 0.93718904 -1.3902323 0.8988363
1.5346472 -0.7220344 -0.09929047 0.92665213 -0.14182502 0.022967914 -0.33552462 -0.14065142
0.0036869922 -0.028028188 -3.827122 -1.0093297 -1.6123747 2.0312576 0.30754822 -0.9157189
-1.0314065 1.1306791 2.0066805 0.7379049 -0.08726378 0.6665332 1.3280612 -0.14989127
2.0578878 -0.33106047 -0.2172119 -1.9120172 -4.4202685 -0.94235677 2.9683764 0.6763566

reward_fun.0.bias f4 [200]
00000000: af4c 0fc0 cd5f 60c0 a79b 68c0 5c26 3bc0
00000010: 4308 9bbf 10af acbf cce5 fbbf 90d5 18bf
00000020: cb6b 0ec0 1a43 33bf 3015 fcbf 8629 73c0
00000030: 6e2b 6fc0 addf 9dbf 0625 6ec0 89a5 78c0
00000040: 7095 babf d96b 1ac0 3cc5 53c0 0667 4dc0
00000050: 36ef 6abf 334e dcbf 4923 9ac0 7f58 5dc0
00000060: 6586 9bbf e076 29c0 14c3 84be 7231 9ac0
00000070: cdd3 39c0 b7b3 58c0 d516 54c0 d59a 22c0
00000080: 613b 9abf cbd8 f2be 7fb8 1cc0 785e 28c0
00000090: 491e 72c0 51e8 71bf 32d8 10bf 4931 8dbe
000000a0: 2624 46bf 5cb1 52c0 9565 ccbf 7455 75bf
000000b0: f7c1 14c0 286e 36bf 6372 91bf bfb8 ebbf
000000c0: d360 22c0 d11c 39c0 4039 68c0 6e9e cdbf
000000d0: 6278 f9bf 922c 65c0 d811 81bf 0ccb 60c0
000000e0: 10cd 313f 52f1 abc0 ab72 15c0 bd45 1ac0
000000f0: 8fa3 5ac0 0637 48c0 d15e b3bf 154c 49bf
00000100: 449b 34c0 6be3 17c0 63c5 b0bf 69ad 0fc0
00000110: 9e35 fdbf b171 49c0 ff1f 38bf 0345 ebbf
00000120: 6712 19c0 837d 18c0 acdb 80c0 cce9 67be
00000130: eb3a 8bbe 254d 47c0 d8ab 31c0 1d40 14c0
00000140: a1a4 483e cc5f 84bf 7d5f 38c0 85df 70c0
00000150: a84a 0cc0 2070 10bf e34a 57c0 3c2c 05c0
00000160: 7165 d3bf 76a3 c7bf f09b c4bf 52cc 24c0
00000170: 332e e5be 0db2 c8be ce4b dabf 2343 36c0
00000180: 698c 03bf 60eb 0ec0 2f79 4fc0 a070 39bf
00000190: b773 a2bf 673e 5cc0 2e62 b2bf 9247 43c0
000001a0: 80ff 22c0 7771 0cc0 3db1 25bf ce8e ffbe
000001b0: ce76 38bf c1fb 07c0 05dc d5bf 3f74 4dc0
000001c0: 157e 92bf e84b 76c0 e340 58c0 abdb 56c0
000001d0: 96dc 3dbf c1c9 89bf 7ba0 5ec0 169a cbbf
000001e0: 4c34 28c0 24dd 08c0 22be 87bf a975 12c0
000001f0: 2de6 eebf 733b 17c0 8628 11c0 d898 ebbf
00000200: 2b6d 4dc0 6494 5cc0 f5ae 09c0 4f51 45bf
00000210: 1194 cfbf 8f03 4cc0 304b 0cc0 4e8f 9bbf
00000220: b056 dabf 6fc6 a9c0 0891 3fc0 d614 7ac0
00000230: a4c4 21c0 b321 65bf 54e1 4cc0 c393 6ac0
00000240: c36a 16c0 fdf6 6cbf 3364 48c0 4926 44bf
00000250: 4268 37c0 abf3 61bf a0eb 81bd 5f9b 41c0
00000260: d60a 3fc0 9e67 88bf 9770 bcbf 4ca0 82bf
00000270: 5023 44c0 70a0 ddbf d56d 2cc0 37d5 89bf
00000280: 8f9c 4dc0 273a 7abf cd2c 91c0 056e 93bf
00000290: e63f 3dc0 abb1 3ec0 3d76 0dc0 b24a 2cc0
000002a0: 63e0 7ebf 1f91 05c0 e54a 87c0 ee46 7dbd
000002b0: 00d7 06c0 d141 5bbf 6943 f7bf 07ef 05c0
000002c0: be07 3d3f c92e 45bf 383b aebf a1fd 60c0
000002d0: 5ecb 3dbf 8f2b 86c0 0bbb 35c0 7fcb 84bf
000002e0: d5dd 1bc0 7b0d 25c0 55c7 4dc0 0d81 1ac0
000002f0: 658a 1dc0 c50c 9cc0 d452 3dc0 a32a 0cc0
00000300: 907a 4f3e 5b27 94c0 b0db 0dc0 c8d6 b5bf
00000310: f379 8fc0 8420 efbf 98b6 7ac0 203e b6bf
-2.2390554 -3.5058472 -3.6345003 -2.9242163 -1.2111896 -1.3490925 -1.9679503 -0.5970087
-2.2253292 -0.70024264 -1.9693966 -3.7994094 -3.7370257 -1.2333885 -3.7210097 -3.8851035
-1.4576855 -2.4128325 -3.3089132 -3.209413 -0.91771257 -1.7211365 -4.8168073 -3.4585264
-1.2150389 -2.6478806 -0.25930083 -4.818536 -2.9035523 -3.385969 -3.3138936 -2.5407002
-1.2049371 -0.47431025 -2.4487607 -2.630766 -3.7830985 -0.9449511 -0.5657989 -0.27576664
-0.7739891 -3.2920752 -1.59685 -0.95833516 -2.3243387 -0.71261835 -1.1363033 -1.8415755
-2.5371597 -2.8923838 -3.6284943 -1.6063974 -1.9489863 -3.5808454 -1.008357 -3.512393
0.69453526 -5.373208 -2.3351238 -2.4105065 -3.4162328 -3.1283584 -1.4013311 -0.78631717
-2.8219767 -2.3732555 -1.3810238 -2.244959 -1.9781988 -3.1475642 -0.7192382 -1.8380436
-2.3917482 -2.3826606 -4.0268154 -0.2264778 -0.27193388 -3.1140835 -2.7761135 -2.3164132
0.19594051 -1.0341735 -2.8808281 -3.7636425 -2.1920567 -0.5642109 -3.3639457 -2.0808249
-1.6515332 -1.5596759 -1.5360088 -2.5749707 -0.4476181 -0.39198342 -1.7054384 -2.8478477
-0.51386124 -2.2331161 -3.2417715 -0.7243748 -1.2691563 -3.4413087 -1.3936212 -3.0512433
-2.5468445 -2.1944253 -0.6472357 -0.4991364 -0.7205628 -2.1247408 -1.670777 -3.21022
-1.1444727 -3.848383 -3.3789604 -3.3571575 -0.7416471 -1.0764695 -3.478545 -1.5906398
-2.628192 -2.1384974 -1.0604899 -2.2884314 -1.8663994 -2.3630035 -2.2680984 -1.8406019
-3.209788 -3.446557 -2.1513035 -0.7707719 -1.6217061 -3.1877172 -2.192089 -1.2153108
-1.7057705 -5.305473 -2.993227 -3.9075217 -2.527627 -0.89504546 -3.201253 -3.6652687
-2.3502662 -0.92564374 -3.1311157 -0.7662092 -2.8657384 -0.8826243 -0.0634377 -3.025108
-2.9850364 -1.0656621 -1.472186 -1.0205169 -3.0646553 -1.7314587 -2.6942036 -1.0768193
-3.2126806 -0.97744983 -4.536719 -1.151795 -2.957025 -2.979594 -2.2103417 -2.692059
-0.99561137 -2.0869825 -4.2278924 -0.061835222 -2.1068726 -0.856473 -1.9317447 -2.092714
0.7383994 -0.77024513 -1.3611822 -3.5154803 -0.7413844 -4.192817 -2.8395412 -1.0374602
-2.4354146 -2.5789478 -3.2152913 -2.4141266 -2.461572 -4.876559 -2.9581804 -2.1901023
0.20261598 -4.629804 -2.2165337 -1.4206171 -4.4836364 -1.8681798 -3.9173946 -1.4237709

reward_fun.2.weight f4 [200, 200]
00000000: 2b98 13c0 e0f9 1bbf 2732 82c0 a1e9 823f
00000010: c10f 07bf e070 0740 ffa9 13bf f7e1 f63f
00000020: c87c 25bf 78ac 203e 45d7 2ec0 9f5f 87c0
00000030: 7834 90c0 5adc 913e 5bde f4bd bb77 073f
00000040: f2f2 573e 7e7c adbf d720 6bc0 a3bf 63bf
00000050: cd19 6cbe 05c6 973f cabc dabf 692c 63c0
00000060: 62ab ae3f 10fe e93f a5f5 8d3f 3280 ca3d
00000070: 18fe febb da1f c2bf b754 00c0 d0e5 c83e
00000080: 2dfb 673f 2951 f9bf 9050 3dc0 6725 04be
00000090: d7d1 8a3f 9c41 c5be 82c6 c9bd c606 55c0
000000a0: de7a a5be 9bf8 f3bf 0ef1 b43f 095f 1040
000000b0: 03a2 26c0 320c afb9 8dfd e7be 3a19 91c0
000000c0: 5260 0ac0 1254 a2bf 0f95 3cbe b370 c63e
000000d0: 2bfd a7bf aede 1fc0 95de 38be 5015 38c0
000000e0: 9f04 483f 5f63 4bbf 6963 dd3c 8435 88be
000000f0: eb79 d43c a94f 0840 8aae 6bbe 679c f93c
00000100: 87b0 543d e7dd 3d40 0a74 93be 894f 373f
00000110: d505 fcbf 5494 7cbd f184 34be 3c2d 3bc0
00000120: 9692 64be 112b 6040 5992 0140 2205 cb3e
00000130: cad3 723e 5b1d 15bf b703 a7c0 065a 8d3f
00000140: 2b1f 21bf 5597 8e3f 2637 3cbf c8af 05c0
00000150: 1592 e5bf a569 833f ed9b 27c0 768e 5f3f
00000160: 7fa6 073e 335a cbbe 5d07 45c0 36b5 d23f
00000170: a7da 403e 0ffb 483e 13a3 ab3e ce5e 2bc0
00000180: 4df5 b6bd b0b8 20bf 267e 4740 554e 293e
00000190: d166 1c3e 6277 e7c0 739c 81be 7296 c13e
000001a0: d6e9 f03f 5ee3 25bf 5f14 2e3d c6ff ae3f
000001b0: 0a5b 61bf b98d 7c3f b153 33bf 0459 91c0
000001c0: 6cca d23c 8c02 46bf c6b1 38bf f190 7fc0
000001d0: aed7 b3bc dfef 553f 3b4b 93c0 215f 42bf
000001e0: f911 80bf 4cb1 2440 996c 3c3f 33bd 34bf
000001f0: d7e9 8abf 2147 aabf 2c68 2c3f f7bb cdbe
00000200: 652d c43f 63b8 bcbf 2c31 883c 9b7e 0a40
00000210: 7812 303d 9420 fbbe 7729 26be 2f68 3dc0
00000220: c223 f1be 6b94 c6c0 977b 10bf 115a abbf
00000230: 70bf c33e 150e b0bd ae6e 35bf 43dd 6abf
00000240: 4182 0c3d c963 bdbe 871d 883f a0cb c1bd
00000250: e166 e8bf 0a8f adbe 7f70 553f b335 4cbe
00000260: 5f98 d03e b5e6 2fbf b5d2 87bf 020e 333e
00000270: 17ed c5bf 3d1c 80bf d88f c23f 936c 9f3c
00000280: 5d5f 1cc0 caba 5f3d d4d3 3ebf cf2f d2bf
00000290: e95d bbbe a404 0abf e36e d8bc bd46 3740
000002a0: a0de 62bc 619a 613e 27aa 463d a24f e63f
000002b0: d43d 2f3f b384 513e 2d7a 3fbf c358 913f
000002c0: 2a3b b33f 07f2 e5bf 77f7 ff3f 3ec8 1bc0
000002d0: 1547 1bbd ea01 933e 1f61 33c0 9967 f3be
000002e0: 7e83 573f 54d0 46c0 1e35 0e40 22f6 f9bf
000002f0: b582 b53f 03c1 b0c0 7d85 a43e 6489 96bf
00000300: ad7e f73d a15e 88c0 f1f2 8040 485e 8a3e
00000310: 30d4 1fc0 9b4f 9bbf c615 0bbf f687 9b3e
00000320: 50c3 a5bd 86d2 0ebd 739c ba3b 3c3a 3fbd
00000330: 7bd8 7abd 64ab d0bd 9041 dcbb 36f3 70bd
00000340: 75f9 dcbc dcfd 0ebe cd96 a9bd b644 0fbd
00000350: bfe5 3cbd 306e 773c 8bf5 ddbd 13cf 41bd
00000360: 182a 43bd 63c7 2dbd f3a2 dbbc daff 2abd
00000370: 420b 32be 9e62 11be f708 e5bd f29e c53c
00000380: 2edc 3dbd 202c 20bd 40f1 0cbe 9681 c8bd
00000390: 9011 8abd 80ec be3a 04b8 3abd 927e d9bd
000003a0: 56f9 d0bc 24dc 72bb 67be 9cbd 9db1 0f3c
000003b0: b4f9 9fbc 74bb 92bd 7d8e febd 7cf8 94bd
000003c0: ffc8 30bd 8760 f4bc eba0 62bd 5136 07bd
000003d0: 53ae 553b 3460 85bb 2c4f 2ebe 304e 44bc
000003e0: c2d5 e83c 9b7a 9fbd 6d18 32be e584 d8bd
000003f0: 3d02 273c f89a a339 52fe dbbd 634d 36bd
-2.3061626 -0.60928154 -4.068622 1.0227548 -0.52758414 2.1162643 -0.5768127 1.9287709
-0.64643526 0.15690792 -2.731889 -4.2304225 -4.506405 0.28488427 -0.119564734 0.5291707
0.2108877 -1.3553617 -3.6738794 -0.8896429 -0.23056717 1.1857306 -1.7088864 -3.5495856
1.3646052 1.8280659 1.109059 0.098877326 -0.007781755 -1.516597 -2.0051706 0.39237833
0.9061764 -1.9477893 -2.9580421 -0.12904893 1.0845288 -0.38526618 -0.098523155 -3.3285384
-0.32320303 -1.9060243 1.4136064 2.2558005 -2.6036384 -0.00033387687 -0.4531063 -4.5343294
-2.162129 -1.2681906 -0.18416236 0.38757858 -1.3124136 -2.4979663 -0.18053658 -2.8763008
0.7813205 -0.79448503 0.027024942 -0.2660333 0.025937041 2.129862 -0.230158 0.030470086
0.051926162 2.9666688 -0.28799468 0.71605736 -1.968928 -0.061664894 -0.17628838 -2.924636
-0.22321543 3.5026286 2.0245574 0.39652354 0.23713604 -0.5824792 -5.2192035 1.1043098
-0.62938184 1.1139933 -0.7352165 -2.0888538 -1.7935206 1.0266615 -2.618892 0.87326753
0.13247107 -0.39717254 -3.0785744 1.6461551 0.18833409 0.19627021 0.33522853 -2.6776614
-0.08933506 -0.6278181 3.1170745 0.16533788 0.15273596 -7.233323 -0.25314674 0.37810093
1.8821361 -0.6480006 0.042499896 1.3671806 -0.8802954 0.9865375 -0.7004958 -4.542116
0.025731288 -0.77347636 -0.7214626 -3.9932215 -0.02195343 0.8356914 -4.6029334 -0.75926405
-1.0005485 2.5733213 0.73603207 -0.70601195 -1.0852612 -1.3302957 0.67346454 -0.40182468
1.5326353 -1.474377 0.01662501 2.1639774 0.042986363 -0.49048293 -0.16226755 -2.9594839
-0.47097594 -6.2056174 -0.56438583 -1.3386861 0.38231993 -0.08596436 -0.7087201 -0.9174387
0.034303907 -0.36990193 1.0634011 -0.094626665 -1.8156396 -0.33898193 0.8337478 -0.1994236
0.4074125 -0.68711406 -1.0611178 0.17485812 -1.5462979 -1.0008618 1.5200148 0.019460952
-2.4433205 0.054621495 -0.74541974 -1.642084 -0.36595085 -0.5391333 -0.026420062 2.8636925
-0.013847023 0.22031547 0.048502114 1.7993052 0.6845372 0.20460777 -0.747958 1.1355213
1.400243 -1.7964486 1.9997395 -2.4340968 -0.037909586 0.28712398 -2.8028028 -0.47539976
0.84185016 -3.1064653 2.221992 -1.9528239 1.4180514 -5.523561 0.32133093 -1.1760678
0.12084708 -4.2615514 4.029656 0.27025056 -2.497326 -1.2133669 -0.543301 0.30377167
-0.080938935 -0.03486874 0.0056949197 -0.046686396 -0.061241608 -0.1018894 -0.006721683 -0.058825694
-0.02697442 -0.13964027 -0.08280716 -0.034977637 -0.04611754 0.015101954 -0.10837849 -0.047316622
-0.047647566 -0.042426478 -0.026811099 -0.041747905 -0.17387107 -0.14197776 -0.111833505 0.024123643
-0.046352558 -0.03910458 -0.13763905 -0.097903416 -0.06741631 0.0014566332 -0.045585647 -0.106198445
-0.025509518 -0.0037057484 -0.07653504 0.008770374 -0.019528247 -0.0716466 -0.12429521 -0.07273957
-0.043160435 -0.029831184 -0.055329245 -0.033010785 0.0032605126 -0.004070306 -0.17022389 -0.011981532
0.02842224 -0.07787057 -0.1739213 -0.105722226 0.010193405 0.00031205243 -0.10741867 -0.044507395

reward_fun.2.bias f4 [200]
00000000: 912c 423f 550d 25be 7523 b8be eec2 203f
00000010: f05c 123f b0e1 33be 4bd6 a8bd 3285 0ebe
00000020: c2d7 23bf f160 57bf 6c8a 31be 0c0d 32bf
00000030: 56e2 b3bd 9cdc 0e40 72f6 42bf aa61 bebd
00000040: 9bbe 88bd 1879 07be e068 6fbe 5227 aebe
00000050: f500 653f 0203 2fbe 646c 26bf 8a30 4040
00000060: f34a 34be b3c6 efbd 09b4 33bd fb7f 1dbe
00000070: 123e e3bd b996 08be cca1 0140 6cc6 6cbd
00000080: 6782 4340 17c0 63be 8e46 f5be 71ca 8ebd
00000090: 8542 f6bd b83c bcbd 512f 3fbf 975b 35be
000000a0: 43e4 f13f ad38 b0bd 5c86 863f 295d 83c0
000000b0: 3367 5bbe 82fe f6bc f79e 7f3e 19d4 c5bf
000000c0: 01f7 30be 8e28 d2b9 deb8 08bf 340f 53be
000000d0: 0921 50be f314 12be 12c9 02be f52b a6be
000000e0: c42d d03e c6d1 52be e79f 583e 98f1 6540
000000f0: 2978 0ebf 868a 8bbc 1b82 24be f3b2 d8bd
00000100: 3848 1abe 9360 96be 16f3 25be 04b6 e6bd
00000110: 0d49 6740 a1fa 25bb 7cbd 3ebe 04e4 60bd
00000120: 690b 623f 91d2 3dbe 62b0 74be b84a 06bf
00000130: 6d6a a7be e003 28be 7860 a6bd 01a1 00c0
00000140: ea33 99bd 4515 76be d2c7 f8bd 967b 9d3f
00000150: 8c6a febd 0cfb ef3f 86d2 3dbe bc4b b4bd
00000160: 155d f6bd 5c31 c0bf 9ae5 d93f 9deb cebd
00000170: a563 13bf 751e 7abe 96e0 85bf 8d5f 38be
00000180: 05e5 003f f6b2 0bbe 2a0f cdbe 50fd 75be
00000190: cd67 f7bd df99 fbbd f4f6 8dbf 43e4 70bd
000001a0: 2aed d1bd 376b b4bc 5464 dfbe 1e44 7440
000001b0: 06b9 04bf 7b2e 27be eac4 4b3c f508 63bd
000001c0: 533d d3bd a563 1fbe 66bc 4cbe 6710 1d40
000001d0: 8beb c83f e71b 00be 23ef 9e3f 928a 3fbe
000001e0: 5d20 14be 1233 aabd 7fec 1cbe c458 093f
000001f0: c62d d7bf 9ebb 1fbe 1feb a53f 8f33 7ebe
00000200: 9248 dbbd d9fe 1740 f21d 2d40 f701 31be
00000210: 3b15 debf 6bcb 54bf c2b5 2ebe 7592 b63e
00000220: 1b60 69be 6e09 a3be a7bc 04be 00e4 8c3f
00000230: f1f0 193d eec1 abbe 46fc 033d 3432 27bf
00000240: 7ddc 9640 3f7c c53d 2d67 47be a395 f4bd
00000250: 317c b8bd 0b45 803f 52dc c4be 07f0 8e3f
00000260: 48f9 acbe 68f2 4fbe 05f7 16be 7577 adbe
00000270: 6b32 28be 7bc8 bebd 90e5 5dbe 7270 babe
00000280: 7e71 5abd a4fc 8140 3b3f b8bc 9ab7 c0bd
00000290: e94d 70be ab32 debe b3cd a3bd 7ec8 fcbd
000002a0: 8d49 0140 aa35 5a40 38bd 0ebe f7dc c8bd
000002b0: 6d7d 66bf 0cd7 3940 bf14 25be 4438 3a40
000002c0: 429f 49bd f95f b9be ddba 31be e083 07be
000002d0: f602 96be 32cc 843e 5d4e 12bf 4995 0bbe
000002e0: 3d13 723f 2c73 13bf 54b4 fe3f e0ec b3bd
000002f0: c66b 17be 8d7d 67be e4f0 16bd 013b f9bd
00000300: 6a05 41bd 21a4 b53f c32a 4c3e 21c1 503f
00000310: 65c2 7340 4377 a8bd f5f2 6140 7f3a f9bd
0.7584925 -0.16118367 -0.35964552 0.6279744 0.5717306 -0.17566562 -0.08243998 -0.13917997
-0.64001095 -0.84132296 -0.1733796 -0.6955116 -0.087834045 2.232215 -0.76157296 -0.09295972
-0.0667698 -0.13229787 -0.2337985 -0.34014374 0.89454585 -0.17090991 -0.6500914 3.0029626
-0.17606716 -0.11707821 -0.043872867 -0.15380852 -0.11095823 -0.13338746 2.0255003 -0.057806417
3.0548341 -0.22241245 -0.4790539 -0.069722064 -0.12024406 -0.09191269 -0.74681574 -0.1771072
1.8897785 -0.0860456 1.0509753 -4.105122 -0.21426086 -0.030150656 0.24962984 -1.5455352
-0.17281725 -0.00040084537 -0.53407085 -0.20611268 -0.20325102 -0.14265804 -0.12772015 -0.32455412
0.40659916 -0.20587835 0.21154748 3.5928707 -0.556521 -0.017033827 -0.16065256 -0.10581007
-0.15066612 -0.29370555 -0.16206011 -0.112651855 3.6138337 -0.0025326388 -0.1862697 -0.054904953
0.8829866 -0.18537356 -0.2389541 -0.5245776 -0.32698384 -0.16407728 -0.08123869 -2.009827
-0.07480605 -0.24031551 -0.12147488 1.230334 -0.12422666 1.8748488 -0.1853734 -0.08803508
-0.12029473 -1.5015063 1.7023194 -0.101035334 -0.5757392 -0.24425681 -1.0459163 -0.180052
0.50349456 -0.13642487 -0.40050632 -0.24022412 -0.12080345 -0.12285208 -1.1090989 -0.058811437
-0.102503136 -0.02202378 -0.43631232 3.8166575 -0.51844823 -0.16326325 0.012437085 -0.055428464
-0.10314431 -0.15565355 -0.19993743 2.4541261 1.5696882 -0.12510644 1.2416729 -0.18705204
-0.1446547 -0.08310522 -0.15324591 0.5365107 -1.6810844 -0.15598914 1.2962378 -0.24824356
-0.10707201 2.3749297 2.7049527 -0.17285906 -1.7350229 -0.8312289 -0.17061523 0.35658613
-0.22790568 -0.31843132 -0.1296259 1.100708 0.037583295 -0.33546394 0.03222301 -0.6531098
4.714415 0.09642839 -0.19472952 -0.119426034 -0.09008063 1.002107 -0.3844934 1.1167
-0.33783937 -0.20307314 -0.14742668 -0.338802 -0.16425483 -0.09315582 -0.21669602 -0.36413914
-0.05333089 4.06209 -0.022491088 -0.09410019 -0.2346722 -0.43398032 -0.079982184 -0.12342928
2.0201142 3.4095254 -0.13939369 -0.09807771 -0.90035135 2.9037504 -0.16121195 2.9096842
-0.049224146 -0.36206034 -0.17356439 -0.132339 -0.29299134 0.2593704 -0.5715082 -0.13631167
0.94560605 -0.57597613 1.9898782 -0.08785415 -0.14787206 -0.22606488 -0.036850825 -0.12169457
-0.047124304 1.4190713 0.19938187 0.8154469 3.80874 -0.08225872 3.530454 -0.1216936

reward_fun.4.weight f4 [1, 200]
00000000: 1a73 cebe 4f20 5e3d 69ef f1bd 542d 52be
00000010: 64a2 073f bb67 b9bd a00c 7abc 6665 853d
00000020: 0c49 923e 9fd4 d13e f2d3 6bbf 8534 a6bc
00000030: 276f 31bd 9505 c0be 0777 2ebf 3097 833c
00000040: 9f90 85bd 4f2e 813d 5a3b 8bbc d705 dbbc
00000050: 906c 71be 2b46 4cbd 3cba b53d 5ed4 7a3e
00000060: f8ff 8a3c c4b3 f4be d557 ea3c 560b 8dbd
00000070: bbf8 b83d 254a a2bd 8d7b a03e 708f 9f3d
00000080: 128f c2be 1695 633d 62fd cf3c abb1 103d
00000090: dc32 c4bc 2c16 6abd e440 46bd 2c24 68bd
000000a0: c30a 453e 9558 d53a 2e87 6abf 2f18 eabd
000000b0: 6e1b a03b 4e2c 513d 8281 8fbd 9bc9 8e3e
000000c0: 9242 9ebd 94da 313d 8d59 863e 0673 06be
000000d0: c5c5 2ebd 1f58 a33d c7bf 8d3d 7946 c93d
000000e0: 94c4 f73d 4eda 693e d763 debe 5ca2 3bbe
000000f0: ae75 10be 1f4c 62bd ab94 1c3d d34e fcb9
00000100: bc9d 82bd a771 3b3e f41d be3d 9771 27bd
00000110: 0e2e 75be 7470 a83d b60d aabd 0740 9d38
00000120: 127d 723f af52 6abd 9013 31ba c704 203e
00000130: 92a5 7cbd 9b56 a43d 42b1 2a3d a060 7a3e
00000140: 7b69 713d 3afe a1bd 3449 a9bd a989 28bf
00000150: f17b 013d 320d 43bf 1e66 2ebc e049 5cbd
00000160: 60d6 bb3d 0c15 4f3f 1adc 8dbd 8962 80bd
00000170: a9b8 9f3e 6bb6 053c c697 e1be e14d aabd
00000180: db5d 5b40 fd47 5d3d b1bb 5fbd cd35 32bd
00000190: d1ba 11bd bfe4 cfbd 531c 8ebe 6bb5 143d
000001a0: 78d6 793d dfd5 15bd e9e4 33bd aade b2be
000001b0: e845 433d 6e71 8e3d 83fa 163d ecbe a63b
000001c0: 9c3e 033c 0ed8 1ebd a7a4 143d 6860 bcbe
000001d0: c6a7 a23e a0dc cd3c 13f9 a8bf 47e9 f6bc
000001e0: 86b8 1f3d a038 663d 2fcb a13d a553 a63f
000001f0: 710f 713e b557 8abd dbc4 2fbf f110 333d
00000200: b3da 233d b8fd ce3d fd42 90be 2e2d da3c
00000210: 0a1f d63e cc3f a63e 9443 b63d ee50 68be
00000220: f3f5 a4bb afa9 0bbe 866f 983d b226 98be
00000230: 3c5b 473c c604 d7bc 5ea4 11bd 9622 20bf
00000240: d2e2 8fbe db7b ecbd 3eac 88bd 2012 f13c
00000250: 3ecf 6a3c 7a71 1cbd 224a bcbc f4a5 ef3f
00000260: 0322 8b3d 35d7 3dbd b43c 0d3d 3270 c03d
00000270: fa38 1d3d aa56 8abc 4ed3 d1bc 0a8b 71bb
00000280: 26d3 903d 9184 11bf 59af 86bb 3f22 143f
00000290: aec9 cabe 75e8 d6bd 61c6 69bd 7803 3d3d
000002a0: 4541 46bf 20b8 68be 4b29 66bd c4a7 92bd
000002b0: bfcd 973e e43c 20be baca 99bd bd97 3d3e
000002c0: 89fe c03d 7fac 5d3e 6e05 2cb9 3038 a63d
000002d0: bd27 833c e571 b0be 465c 3eba 5159 a13d
000002e0: da87 8ebf d626 cd3c 6259 38be 4606 423d
000002f0: d452 cd3b dab9 96bc 19c9 07bf f921 59bc
00000300: 1bd3 84bd 6ab9 a3be 7313 d53f acaf 27bf
00000310: 624e 2cbf 3133 7c3e fba9 a8be e0cd 3dbd
-0.4032219 0.05423003 -0.11813242 -0.20525104 0.52982163 -0.09052988 -0.015261799 0.06513481
0.28571355 0.4098253 -0.9212028 -0.020288715 -0.043318894 -0.3750426 -0.6815037 0.016063303
-0.06521725 0.06307661 -0.016996074 -0.026736183 -0.2357657 -0.049871605 0.08873412 0.24495074
0.016967759 -0.477934 0.028606335 -0.06886928 0.090318166 -0.07924298 0.31344262 0.077910304
-0.3799978 0.0555621 0.025389377 0.035325687 -0.023950033 -0.05715005 -0.04840173 -0.05667512
0.19242387 0.001627701 -0.9161252 -0.11430394 0.0048860824 0.051067643 -0.070071235 0.27888188
-0.07727541 0.043421343 0.26240197 -0.13129815 -0.042669076 0.07975792 0.06921344 0.09827895
0.12098041 0.22837183 -0.43435547 -0.18323654 -0.14107391 -0.055248376 0.03822772 -0.00048123914
-0.06377742 0.18305074 0.09283057 -0.040879812 -0.2394335 0.08224574 -0.083033964 7.4982694e-05
0.9472209 -0.05720776 -0.0006754929 0.15626822 -0.061681338 0.08024331 0.041672952 0.24450922
0.058938485 -0.07909818 -0.082659155 -0.6583505 0.03161234 -0.7619201 -0.010644464 -0.05378139
0.09171748 0.8089149 -0.06926747 -0.06268794 0.31195572 0.008161168 -0.44061106 -0.083156355
3.4276035 0.05402373 -0.054622356 -0.04350834 -0.035578553 -0.10151052 -0.27755985 0.036305826
0.06099555 -0.036580916 -0.043919478 -0.34935504 0.04767409 0.06955229 0.03686 0.0050886776
0.008010533 -0.038780265 0.036289837 -0.36792302 0.31768626 0.025129616 -1.3201011 -0.030140532
0.038994335 0.056206346 0.07900082 1.2994276 0.23541047 -0.0675501 -0.6865975 0.04371733
0.04000349 0.10106987 -0.28176108 0.026632871 0.41820556 0.32470548 0.08899608 -0.22687122
-0.0050342022 -0.13638948 0.074431464 -0.29717022 0.012167748 -0.026247393 -0.035557143 -0.62552774
-0.28102738 -0.11547061 -0.066734776 0.029427588 0.014331637 -0.038194157 -0.022984568 1.872252
0.067935966 -0.046347816 0.03448172 0.093963996 0.038384415 -0.016887028 -0.025613453 -0.0036856555
0.07071523 -0.56842905 -0.0041102585 0.57864755 -0.39606994 -0.104935564 -0.057073954 0.046145886
-0.77443343 -0.22726488 -0.056191724 -0.07160905 0.2964916 -0.15648228 -0.0750937 0.18514915
0.09423549 0.21647833 -0.00016405221 0.08116186 0.01601016 -0.34461895 -0.00072616746 0.07878364
-1.1135209 0.025042932 -0.18002847 0.047369264 0.0062659774 -0.018399168 -0.53041226 -0.013252729
-0.06485578 -0.31977397 1.664656 -0.6550243 -0.673071 0.24628903 -0.32942185 -0.046338916
