data/hlt_deter/PendubotEnv/seed_613/model_3000.pt (torch, 183047 bytes, 10 tensors)

log_std f4 [1, 6]
000000 bf 6e e8 bf c5 d6 d4 bf 46 46 b1 bf 57 4c a6 bf
       -1.8158797 -1.6628042 -1.3849571 -1.2992047
000010 02 27 f2 bf 70 00 9e bf
       -1.8918154 -1.2343884

mu.0.weight f4 [200, 7]
000000 1a 99 02 3f d5 b9 0d bf ef e8 37 3e c7 2f 99 bf
       0.51014864 -0.5536168 0.17959951 -1.1967705
000010 c2 d0 49 be a8 b5 03 3f b6 5c 87 3d de 87 33 bf
       -0.19708541 0.5144906 0.0660948 -0.7012919
000020 22 2e aa 3e f5 57 03 3e 2e 2f 71 bf 75 dd b3 3e
       0.33238322 0.12826522 -0.94212615 0.35129896
000030 a5 dc b6 3e e1 55 63 3d 2d e1 54 3f 6b ae a2 bd
       0.35715213 0.055501822 0.8315609 -0.07943424
000040 b8 2a 0d 3f a5 17 20 3e 2f eb f4 3e 35 98 e6 bd
       0.5514331 0.1563402 0.4783568 -0.112595
000050 f2 d5 28 be 33 72 07 3f 46 29 81 be 37 98 a6 bf
       -0.16487864 0.5290863 -0.25226802 -1.3015202
000060 2c 33 23 bf 39 ec 28 3e e8 22 d8 3e d7 9f 9c 3c
       -0.6374996 0.16496362 0.4221413 0.019119186
000070 54 0a 2f be ab c7 6b 3e f3 46 4d bf 8b 2d 47 3f
       -0.17093784 0.23025386 -0.80186385 0.7780387
000080 d3 e8 94 bd a5 58 1b bf 81 e2 4e be c1 27 2c 3e
       -0.0727097 -0.60682136 -0.20203592 0.1681204
000090 a9 e9 1c 3f 1e 40 2a be 2e 13 bf 3e 16 44 8c 3e
       0.6129404 -0.16626021 0.3731932 0.27395695
0000a0 07 91 1c bb 2f 31 f7 3d 00 89 4c bf 09 9d 67 3f
       -0.0023890154 0.12069928 -0.79896545 0.9047399
0000b0 a6 15 86 3e c9 99 17 3d 87 e9 ef be 92 37 51 bc
       0.2618839 0.037011895 -0.46857855 -0.012769597
0000c0 e7 51 00 3d eb c0 ed 3d 77 71 c5 bf c0 c6 94 bd
       0.03132811 0.11609062 -1.5425252 -0.07264471
0000d0 fa 36 0a 3d bf 1c 1a bf bb e0 cb bb 71 80 0d 3e
       0.033743836 -0.60200113 -0.0062218583 0.13818528
0000e0 0d c4 c5 3e 27 a3 ce 3e 1b b5 08 3f 81 40 2f 3f
       0.38626137 0.4035885 0.53401345 0.684578
0000f0 93 4b 29 3e 95 72 a3 be 5f fd f7 bd 70 46 8f 3f
       0.16532736 -0.31923357 -0.121088736 1.1193371
000100 3f b3 4b 3e 1f cd 38 be a7 66 41 bf 78 8d 7c be
       0.19892596 -0.18046997 -0.7554726 -0.24663341
000110 12 27 ae bc a3 0f bb bc 72 c9 a9 be b8 44 9d bd
       -0.021258865 -0.022834605 -0.33161503 -0.07679123
000120 fa 8b f4 3d 33 1f 37 3f 2d 4b df 3c c5 6e 94 be
       0.11940761 0.7153198 0.027257526 -0.2899076
000130 cc 38 4e 3d 2f 10 ce bd 53 5d 36 3f 34 a2 1b be
       0.050347134 -0.100616805 0.7123615 -0.15198594
000140 80 4a 8c be 6d 2e 1f 3f a8 b5 41 3e fd 77 09 bd
       -0.2740059 0.62180215 0.18916953 -0.033561695
000150 87 54 09 3d 46 d6 6f 3f 25 dc ac be a0 94 23 bf
       0.033527877 0.9368633 -0.33761707 -0.6389866
000160 c2 48 61 be ec c0 55 be 68 ae a5 bd 6e 39 25 3f
       -0.22000411 -0.20874375 -0.08089906 0.64540756
000170 47 6d a5 3f 91 84 ae 3d 10 8c 2a bd c9 8e 12 3f
       1.2923974 0.08521379 -0.04163748 0.5724912
000180 6f 38 d0 3c f6 c4 f1 3b 4e f5 77 bf a4 09 ed be
       0.025417535 0.007378216 -0.9685868 -0.46296418
000190 9b 8d 10 bd ed ff e0 3e bf 8e b0 be c6 c1 86 bd
       -0.035291295 0.43945256 -0.34483907 -0.06579928
0001a0 e8 4e 95 bd 69 2f 9a 3e f2 81 a7 be d7 04 f8 3e
       -0.07290441 0.30114296 -0.32716328 0.48441193
0001b0 3c cc 2e bf 00 c7 0c be d9 59 bc be 77 19 b8 bd
       -0.68280387 -0.13747787 -0.36787298 -0.08989232
0001c0 a0 9c 3a be ff 41 99 bf da 74 d1 3d f8 08 89 3e
       -0.1822381 -1.1973265 0.10227366 0.26764655
0001d0 e3 1a 03 bf 7a f8 0b bd 7d c2 79 3b 2c be 08 3f
       -0.512129 -0.034172513 0.0038110309 0.5341518
0001e0 f3 64 88 bf 35 41 be bc 97 20 2c be 97 3d bb 3e
       -1.0655807 -0.023224453 -0.16809307 0.36570427
0001f0 53 2d 8c 3d bb 85 a6 bd 80 8e 31 3f 12 a9 b0 be
       0.068445824 -0.08130976 0.6935806 -0.3450399
000200 15 29 28 3f 3d 17 65 bf ed df 57 3e df 1a a4 3e
       0.65687686 -0.89488584 0.21081515 0.3205175
000210 36 cb fb 3d fa e9 3f 3e e4 a8 e4 be ee d7 43 3f
       0.12294619 0.18741599 -0.44660103 0.7650136
000220 9e 70 37 bf d8 4e a5 be 64 1d d2 3e bc c7 81 3e
       -0.71656215 -0.32286716 0.41038048 0.25347698
000230 2d f1 79 bf 99 55 ce be b8 df 36 bf 85 4a 21 bf
       -0.9763363 -0.4029968 -0.7143512 -0.6300433
000240 06 68 ed 3b ec 12 91 3e 11 15 04 3e d0 74 2d 3f
       0.0072450666 0.2833475 0.12898661 0.67756367
000250 d8 ad f9 bd 7d 57 00 3f 4f d5 8a 3e ef ab c4 bd
       -0.12191361 0.50133497 0.27115867 -0.09603106
000260 9b f2 e9 3e b6 27 b5 bc 18 13 93 be 8d 67 34 3f
       0.45692906 -0.022113662 -0.28725505 0.70470506
000270 d9 0f ab 3c b6 1d 86 3f 28 00 ee be 22 f2 8e be
       0.02088158 1.0477817 -0.46484494 -0.27919108
000280 46 c6 a6 bc e9 66 d9 3d c7 16 f3 3e 08 e1 05 bf
       -0.020358216 0.10615332 0.47478315 -0.52296495
000290 61 13 48 be 8c f8 33 bd 9d bd 88 be e6 f2 f4 3c
       -0.19538642 -0.043938205 -0.26707163 0.02990098
0002a0 d7 53 44 bf 0d e3 a5 3f 27 05 51 3e 4c 57 b2 be
       -0.7669043 1.2959915 0.20412122 -0.34832227
0002b0 f5 d7 17 3f 8c 7b cc bd b2 1e 99 bd fa e4 27 3d
       0.593139 -0.09984502 -0.07476558 0.040989853
0002c0 1f db 25 3f 6b 35 39 bf c4 fd d7 3e d1 28 56 be
       0.6478748 -0.72347134 0.42185795 -0.20914008
0002d0 29 a5 d8 3d 3a 3c c9 3e f8 17 f8 3e 5c c3 3d 3e
       0.10578377 0.39303762 0.48455787 0.18531555
0002e0 03 6f cc be 96 07 1b 3f 3d 28 c5 bd 64 89 99 be
       -0.39928445 0.6055845 -0.096268155 -0.29987633
0002f0 a9 1b f4 bb 32 17 9f 3e 9a ed 13 bf 6e b6 7d 3e
       -0.0074495864 0.31072384 -0.57784426 0.24776623
000300 20 08 7d bf f5 f0 82 be a4 46 7e be 98 91 98 bb
       -0.9884052 -0.2557446 -0.24831635 -0.004656028
000310 4d 62 08 3f 7c 5b 37 bf 8e 46 ca bd 37 19 96 bf
       0.53274995 -0.7162397 -0.098767385 -1.1726445
000320 9e 4a 91 3d 11 1d 01 3f d7 70 55 3e 26 ba c1 3e
       0.0709431 0.50434977 0.20843826 0.37837332
000330 0f fa ff bd f5 54 be 3e dc 6f 39 3f 6b aa b9 3e
       -0.12498867 0.37174192 0.7243631 0.3626283
000340 78 d6 91 bd 4d ba 38 bd e5 ed 32 3f 91 2e 69 be
       -0.07120985 -0.045099545 0.6989425 -0.2277167
000350 8f 14 f8 3e b1 2a 88 bd cc 6c ff 3e e3 50 24 3e
       0.48453185 -0.06648768 0.49887693 0.16046481
000360 b2 b9 88 3e 1b 39 eb bc 86 38 04 3f c8 87 92 bd
       0.26704174 -0.028713753 0.5164875 -0.071548045
000370 05 ab 6a be bd 71 b7 be 21 68 67 bc f9 7e 3d 3d
       -0.22916801 -0.35828963 -0.014123947 0.04626367
000380 62 b9 4e 3e c8 b3 02 3f e7 de 0e bf c6 d4 b6 bd
       0.20187905 0.51055574 -0.5580887 -0.08927302
000390 02 f5 af 3e 34 89 aa 3e 13 85 e8 3b c2 4c f7 3e
       0.34366614 0.33307803 0.007095942 0.4830075
0003a0 22 e3 df 3e 86 a6 65 be fe 95 91 3e dc 0b b1 bd
       0.43727976 -0.22426805 0.28434747 -0.0864484
0003b0 f4 12 3d be f5 2c 11 be 77 b4 98 3e 2e 72 df be
       -0.18464261 -0.14177306 0.29825184 -0.436418
0003c0 36 54 b5 3c 3f 49 8b 3e c6 91 af 3e ce fb 0e 3d
       0.022134881 0.2720432 0.34290904 0.03490811
0003d0 80 0d 34 3d 52 48 86 3f c1 ed 27 3f cb f0 eb 3c
       0.043958187 1.049082 0.6559716 0.028801342
0003e0 ac 09 55 3f a9 e5 cb be 2d 6e a8 bc d3 eb 09 be
       0.83217883 -0.39823654 -0.020560348 -0.13468866
0003f0 3e ba fe be 8c 27 a2 3e 01 b0 b3 bd b7 03 ac be
       -0.49751467 0.31670797 -0.087738045 -0.33596584

mu.0.bias f4 [200]
000000 0f 3f 9e bf 85 c2 11 bf f7 b4 b4 be 55 9d f9 3e
       -1.2362994 -0.5693744 -0.35294315 0.48752847
000010 4c 06 c7 3d 7b b1 2e 3f 3e 7e 95 3f b4 3f e2 3f
       0.09717998 0.68239564 1.1679151 1.7675691
000020 c7 15 da bf 67 41 2d bf 10 1a 28 3e 11 23 1d be
       -1.7037896 -0.6767792 0.16416192 -0.15345408
000030 14 47 12 bf 91 84 7f bf a3 76 75 bf 73 27 67 3e
       -0.57139707 -0.99811655 -0.9588415 0.22573642
000040 01 bd 6a bf b4 94 1f 3f 36 9e e8 3e c7 8b 80 bf
       -0.9169465 0.6233628 0.45433205 -1.0042657
000050 d6 7c a3 be 07 0a 22 bf 6c a1 02 3f 06 a5 bd bf
       -0.3193118 -0.6329655 0.5102756 -1.4815986
000060 25 2d fa be 2b 0a d4 bd 87 45 91 bd 04 54 06 3f
       -0.48862568 -0.10353502 -0.070933394 0.5247195
000070 ec 9d 8d bf 34 9b 17 bd 21 d7 81 3e b1 c9 ce bf
       -1.1063819 -0.037013248 0.25359443 -1.6155301
000080 80 05 22 be 77 02 c9 3d 12 58 b2 bf 1e 1a 58 be
       -0.1582241 0.09814923 -1.3933127 -0.21103713
000090 ea 01 3a 3f ab 95 26 bf 83 83 9f 3e b5 35 26 bf
       0.7265917 -0.65072125 0.31155023 -0.649257
0000a0 44 1b 6d bf 35 ae 16 bf e0 0a 3b 3f d6 ba 3c bf
       -0.9261973 -0.5885957 0.7306347 -0.7372259
0000b0 08 38 10 3f ad fc d2 bf 5b 69 b0 be 17 32 a1 bf
       0.56335497 -1.648336 -0.3445538 -1.2593411
0000c0 34 29 16 bf 54 fa e9 3e 90 64 8d 3d e9 f0 91 3e
       -0.5865662 0.45698798 0.069039464 0.28504112
0000d0 8c 77 2f 3c 9e 72 dc 3c 14 32 95 bf 75 2d 90 3f
       0.010709655 0.026910122 -1.1655908 1.1263872
0000e0 b3 d3 5f 3d 36 52 b1 bf 97 af 5a 3e 4e 4e 72 bf
       0.05464525 -1.3853214 0.21356045 -0.94650733
0000f0 62 d1 e7 3e 3f ef 0a 3f 95 c7 54 3f ba e3 21 3f
       0.45276934 0.5427131 0.8311704 0.6323811
000100 74 be ed 3d 91 80 21 bf f1 8d 3f 3d 1d e3 84 be
       0.11608592 -0.630868 0.046766225 -0.25954524
000110 20 03 3a 3e 27 cb f3 3e 1f 41 74 be 45 b2 9e bd
       0.18165255 0.4761593 -0.23852967 -0.07748846
000120 d0 c9 de 3e 92 15 c0 3f 15 35 5b bf fb c8 c7 bf
       0.43513346 1.5006583 -0.8562787 -1.5608209
000130 20 9c c6 be a5 07 c8 be 07 95 01 3f 38 6d 99 be
       -0.3879099 -0.39068332 0.5061802 -0.2996614
000140 bb fb 5c be 94 32 d3 be 2d c6 cc be 04 21 ce be
       -0.21580403 -0.41249526 -0.39994946 -0.40259564
000150 7d 79 07 be 13 3e b7 bf 00 f8 85 be e8 fa 9f be
       -0.13229938 -1.4315819 -0.2616577 -0.31246114
000160 19 ef d4 39 83 10 1f 3f c1 9a 09 be 44 93 9c bd
       0.00040613933 0.6213457 -0.1343794 -0.07645276
000170 b6 4e 21 bf ed 32 0b 3f 27 d5 cd 3e c8 26 57 bf
       -0.6301073 0.5437458 0.40201685 -0.8404355
000180 2e d6 4a bf 0a a9 97 bf a2 ad ae 3f 3c 31 f5 bb
       -0.7923306 -1.1848462 1.3646739 -0.007482676
000190 70 f5 28 3e 5f 5b 94 3e 09 d1 0d 3f e5 44 32 3f
       0.16499877 0.2897596 0.5539709 0.69636375
0001a0 06 c3 f2 bd 55 34 73 3f 4c 25 b2 bf 17 bb 44 be
       -0.11853604 0.9500173 -1.3917632 -0.19211994
0001b0 aa bc 1d 3f 27 d9 a3 3e 06 f2 03 3f 75 fb 05 bf
       0.61616004 0.32001612 0.51541173 -0.5233682
0001c0 e0 fc 4b bf 95 df 40 bf f3 82 95 bd 40 38 fd be
       -0.7968273 -0.7534116 -0.07300367 -0.49456978
0001d0 d4 61 09 bf 1f b6 a3 3e ac 5c 2b 3e 7b fb 21 3f
       -0.536649 0.31974885 0.1673457 0.63274354
0001e0 b7 7c 22 3f a7 26 05 3f a9 9b 7d 3d ac d2 a8 be
       0.6347155 0.52012104 0.061916027 -0.3297323
0001f0 27 f1 8b 3f 56 98 92 be 5e 04 cc be e6 60 21 bf
       1.0932969 -0.28631848 -0.39847082 -0.6303848
000200 8e 5c 66 be 89 63 94 bf 1e a8 fc 3f 37 50 01 bf
       -0.22496244 -1.1592876 1.9738805 -0.50513023
000210 80 ba aa be cd f0 99 3d e0 bf dd bd 91 71 0f bf
       -0.33345413 0.07516632 -0.10827613 -0.56032664
000220 c6 cc 03 bf a5 bd 1c bd c6 70 6d bf 2f 55 47 be
       -0.51484334 -0.038266797 -0.92750204 -0.19466089
000230 c8 f8 54 bf 47 81 3f bf 20 2f 35 bf c5 2c fe be
       -0.8319211 -0.74806637 -0.7077503 -0.4964353
000240 84 86 c6 3e 27 6e 89 bf 59 1a 28 3e 19 0b c8 3e
       0.38774502 -1.0736741 0.16416301 0.39070967
000250 5d e2 37 3d 84 b8 a0 be 3d 54 96 bd dc 31 c1 be
       0.04489361 -0.31390774 -0.07340286 -0.37733352
000260 2f 09 0b 3f 70 e1 2b be e8 c8 84 3e 8b ce ea 3e
       0.5431089 -0.16785216 0.2593453 0.45860705
000270 55 b3 d9 bf 98 16 01 3f d0 ce aa 3e 9a 58 0e be
       -1.7007853 0.504251 0.3336091 -0.13900986
000280 7b f0 81 bf 93 f1 9b 3e a9 c1 ab 3f 2f 74 5e be
       -1.0151514 0.30457744 1.3418475 -0.21724008
000290 ff 06 db bf e2 de 22 bf 3b db 46 3e ed f4 1f bf
       -1.711151 -0.6362134 0.19419567 -0.624831
0002a0 0e ad 49 be fa 6e 11 3f c8 ca c2 3d 5a a2 f8 be
       -0.19694921 0.5680996 0.09511334 -0.48561364
0002b0 87 21 ca bf 2b 54 91 3f 11 55 02 bf 89 73 1f 3f
       -1.5791482 1.1353811 -0.5091105 0.6228567
0002c0 1f 3d 25 be 92 93 b7 3f c5 65 8a 3e f2 96 87 3f
       -0.16136597 1.434191 0.2703077 1.059294
0002d0 d0 b9 8b bf f7 89 42 bf 2a b5 ed 3e ef aa 8a 3e
       -1.091608 -0.7599177 0.4642728 0.27083537
0002e0 f9 71 ed 3e bb 4a 71 bf 42 05 ff be 79 99 91 3e
       0.46376017 -0.94254655 -0.498087 0.28437403
0002f0 37 35 55 bf 5b a1 03 bf 46 79 84 bf cb c3 4a 3f
       -0.83284324 -0.51418084 -1.034951 0.79205006
000300 9c e3 47 bf a1 be b0 bf ab 42 b7 3e 1e 32 14 3f
       -0.7808168 -1.3808175 0.3579305 0.5788897
000310 bf 17 af bd 75 5d 40 bf 5e 7b f3 3e df 1e 28 bf
       -0.08549451 -0.75142604 0.4755506 -0.65672106

mu.2.weight f4 [6, 200]
000000 e0 a2 32 bd ce 85 6a 3e f5 ad b3 3c 4b d3 38 3e
       -0.04361236 0.22902605 0.021933535 0.18049352
000010 1c ee 68 bd de a7 da 3d 63 cc db be 6e d7 49 3f
       -0.056867704 0.106765494 -0.42929372 0.78844345
000020 a0 97 5f 3e 95 19 6b 3e 5d 4a 34 3e dc d7 0f be
       0.21835184 0.22958978 0.17606492 -0.14047188
000030 91 c7 14 3e 86 ac a5 be 5c 79 09 be 4a ec 04 3c
       0.14529254 -0.32358187 -0.13425201 0.008112976
000040 07 80 29 3f 97 a4 17 be 6f ca 02 3d 97 f7 a3 bc
       0.6621098 -0.1480888 0.031931337 -0.020015521
000050 07 97 63 be 2c 3c 34 bd dc 02 57 3e 0f 66 3f bf
       -0.22225581 -0.044002697 0.20997185 -0.74765104
000060 a0 32 85 be 44 75 13 3d 58 2b 90 be 5d 09 52 bd
       -0.26015186 0.036000505 -0.2815807 -0.05127846
000070 8a 79 b2 bc bf 7f 4f 3e fe 5c ed 3d 1d 55 c4 bf
       -0.02178647 0.20263575 0.115900025 -1.5338475
000080 24 ff 1c 3e b5 54 f6 3d 02 5d 0d be af 5a e8 bd
       0.15331703 0.12027875 -0.13805011 -0.113454215
000090 6a 30 1a 3e 88 00 72 3e 7d 76 4d be 39 92 30 3c
       0.15057531 0.23633015 -0.20064731 0.01077705
0000a0 fa 04 6e be 93 24 3d 3d a7 0b 60 3d 53 95 1a 3e
       -0.23244086 0.046177458 0.054698613 0.15096025
0000b0 cb a8 a5 3e 3f c9 d8 3e 39 1d 89 3c 69 eb e2 3c
       0.3235534 0.4234104 0.016737567 0.027700143
0000c0 da 21 4e 3d 62 5b d8 3e 94 60 b2 bd 82 cf c6 3d
       0.050325252 0.4225722 -0.08709827 0.09707548
0000d0 fc 55 90 3e b0 e9 2d be 94 1c 20 bd 00 21 8b be
       0.281906 -0.16983676 -0.039089754 -0.27173615
0000e0 c9 c8 a4 3d e0 84 2d bd 3c a0 d2 3e af 00 31 3f
       0.08046109 -0.042363048 0.41137874 0.6914167
0000f0 74 03 88 3d ae 87 d9 3e 97 b5 fc bd 9d ec 56 3c
       0.06641284 0.42486328 -0.12339323 0.013117936
000100 65 f3 ff 3d fa 6c ef 3e d7 cb 96 3d 8c 12 6c be
       0.12497596 0.4676283 0.07363098 -0.2305395
000110 fe d6 81 bc 6f 2f bf 3d 84 d4 5f 3e c8 23 37 bd
       -0.015849587 0.09335219 0.21858412 -0.044711858
000120 0c 48 b5 bd 2d b6 6b bf 56 1f b4 3d 15 eb bd be
       -0.088516325 -0.92074853 0.08795039 -0.37093416
000130 b9 ff b5 3d 95 3c 94 3e dd 23 72 3e 44 0f fd bc
       0.08886666 0.2895247 0.23646493 -0.030891068
000140 04 7a 21 3e 07 e2 6e be be 3c 35 be 1a 1c 83 3e
       0.15769202 -0.2332841 -0.17698953 0.25607377
000150 a4 90 df 3c 1c e7 a8 3f a7 00 11 be 80 65 3e 3e
       0.02729065 1.3195529 -0.14160405 0.18593407
000160 3e a5 62 3d 21 36 75 3e 11 af 43 3e df 9c d2 bc
       0.05533337 0.2394643 0.19109751 -0.025709568
000170 46 56 62 bd 01 4c ab bd b9 cd 82 bd 1d 77 09 bf
       -0.055258058 -0.08364106 -0.06386895 -0.5369738
000180 a5 a9 82 3d 2c 95 85 3f 13 66 9e 3e a2 76 b4 3d
       0.063800134 1.0436149 0.3093725 0.0881169
000190 0b e9 a4 bd b1 46 85 3d 6e 54 00 be 4c bd 0b 3e
       -0.08052262 0.06507624 -0.12532207 0.1364643
0001a0 60 78 83 3d e1 13 8a be 90 38 31 3e 8d 89 9d be
       0.06419444 -0.2696829 0.17306733 -0.30769005
0001b0 c2 6b 1c be 55 f5 a7 3d 14 db b7 3e 61 28 3e 3c
       -0.15275481 0.0820109 0.3590933 0.011606307
0001c0 85 2c 26 be 97 d6 09 3f 8e 2f aa be b6 d6 6e bd
       -0.1622792 0.53843063 -0.33239406 -0.058310233
0001d0 05 44 d8 bd 34 d4 17 bc c0 d7 0c 3d 57 2a 57 be
       -0.10559849 -0.009266902 0.034385443 -0.21012245
0001e0 62 60 20 be 2e ea 62 3e 86 ad 39 bd fe 5c 89 bd
       -0.15661767 0.22159645 -0.0453315 -0.0670719
0001f0 76 d9 b9 be cb 82 e4 bd 6d 9b 09 be 13 a4 ef bb
       -0.36298722 -0.11157759 -0.13438196 -0.0073132603
000200 fb 39 89 be a9 a2 60 bf 8e 89 fd be 88 6f 90 3e
       -0.26802048 -0.877482 -0.49519008 0.28210092
000210 43 d8 b0 3d bc 1d 09 bd 47 58 00 bf f3 63 c5 bd
       0.08634999 -0.033475623 -0.501347 -0.096382044
000220 1f dd f3 bd f4 5a df bd db 6f 82 bd cf 71 15 3e
       -0.1190741 -0.1090602 -0.06368991 0.14594196
000230 99 ed 98 be 70 e2 4c bd 1e a9 fa be da df d7 3e
       -0.29868773 -0.050020635 -0.4895715 0.42162973
000240 92 e9 01 3e 4d 4e 43 3e fd 21 90 bd a3 3c 70 3e
       0.12686756 0.19072838 -0.07037733 0.23460631
000250 3a 3c 9d be b0 e1 c9 3d 95 6e b2 3e e6 99 e8 bd
       -0.30710012 0.098574996 0.34849992 -0.11357479
000260 15 7c 46 bd 8a 14 97 3c 97 f2 08 3c ac 9e 3a bd
       -0.048458178 0.018442411 0.008358619 -0.045561478
000270 c1 fe 6f 3e 99 0d e3 3d ef fc 71 3e 98 51 14 be
       0.23437025 0.11086578 0.23631643 -0.1448425
000280 c3 d3 a6 bd 47 c8 53 3e e2 a1 a9 3c a3 1f 86 bd
       -0.08145859 0.20681868 0.020707075 -0.06549003
000290 43 5a 31 bf aa c7 40 bd 98 96 b1 3d 89 5c c0 3e
       -0.69278353 -0.047065414 0.086713016 0.375706
0002a0 79 68 aa be 21 6b 90 be 84 f0 90 3c 92 e6 33 be
       -0.3328283 -0.28206733 0.017692812 -0.17568424
0002b0 74 f6 fb 3b ba 42 7a be df 5f 85 3e 27 ee e3 3d
       0.0076892916 -0.24439517 0.26049706 0.11129408
0002c0 2f 5b 15 bd 2c 81 8f 3d aa 09 9d be 3b 58 8d bd
       -0.036463913 0.070070595 -0.30671436 -0.06901594
0002d0 c3 dd e4 bd c3 56 1c be ab a6 0b bd 67 0b d5 bd
       -0.1117511 -0.15267472 -0.034094494 -0.104025654
0002e0 e3 90 1c 3e 0c 2d e0 be bf 1d 9d be 01 c8 9d 3e
       0.15289645 -0.43784368 -0.30686757 0.30816653
0002f0 a4 6b 55 be 7d 4a 78 3e 53 3a d3 bd 5e b8 f9 3c
       -0.20841843 0.24247165 -0.10313859 0.030483421
000300 54 b1 29 bf 35 42 3e 3e 96 5a cb 3d d8 5b e9 3c
       -0.66286206 0.18579943 0.09929387 0.028486177
000310 b6 9a 12 3e 0d 8d 90 3c 1b 2b ac 3e 73 1a f6 3e
       0.1431683 0.017645383 0.33626637 0.48067054
000320 ec c5 3f bd f9 7b 20 bd 8b a6 a0 3e 9c f0 8f bc
       -0.046819612 -0.03918073 0.31377062 -0.017570786
000330 e1 57 1b bd 74 6d 43 bd ce 80 1a be ad 77 e7 3e
       -0.037925605 -0.047711805 -0.15088198 0.45208493
000340 3c 94 b0 3d 39 a7 39 3f fb 55 a3 3d 4f d1 b0 3d
       0.086220235 0.72520787 0.07975384 0.086336724
000350 b8 23 92 3e ba 78 50 bf 4d e1 2a bf 3a d6 c5 3d
       0.28542876 -0.81434214 -0.6675003 0.09660001
000360 36 f8 f7 3e 87 4d 2b be 79 3d 39 be e7 7d 9f 3d
       0.48431557 -0.16728793 -0.18089856 0.07787686
000370 70 ac 1a be 0a 92 00 3d 78 4d 31 be bd 65 78 be
       -0.15104842 0.031389274 -0.17314708 -0.2425756
000380 17 5c e9 be 21 fc 91 39 60 f7 f9 bc dd c3 fc bd
       -0.4557807 0.00027844406 -0.030513465 -0.123420455
000390 8e a6 15 3d 45 ed 32 3e bf f8 8a 3d e8 c4 6f 3f
       0.036535792 0.17473324 0.06785726 0.9365983
0003a0 49 8f 34 bd b3 9b 07 be 84 5b 25 bf c0 10 9a 3e
       -0.04408196 -0.13242988 -0.64592767 0.30090904
0003b0 fc c8 06 3a 06 b9 5b be b0 6f 20 3e 82 0d 03 be
       0.00051416433 -0.214573 0.15667605 -0.12798122
0003c0 4d 50 e8 be 4a 3e 0a be 97 bc 98 3e 36 61 e9 3e
       -0.45373765 -0.13500324 0.29831383 0.4558198
0003d0 84 8b a3 bd 19 21 a0 3f 8f c6 27 be 5a 24 9d 3e
       -0.07985595 1.2510101 -0.16384338 0.30691797
0003e0 c6 a5 d0 3d 96 70 68 3e 86 55 84 3e 60 5a 19 3c
       0.10187869 0.22699198 0.258465 0.009359926
0003f0 95 cd 18 3e df 2f a8 3c c7 87 56 be 72 f2 29 3e
       0.14922173 0.02053064 -0.20950232 0.16596392

mu.2.bias f4 [6]
000000 87 cf 18 3e d2 0d 1e 3e 9d 90 3d be 97 ce 2d be
       0.14922915 0.1543496 -0.18512197 -0.16973339
000010 db d2 ca 3b 2d 08 2b 3e
       0.0061896867 0.16702338

reward_fun.0.weight f4 [200, 7]
000000 71 68 c0 be ef 15 82 be 4d b2 f9 3e f8 61 46 bf
       -0.37579682 -0.2540736 0.48768845 -0.7749324
000010 e9 05 4f bf 65 94 bb be 92 65 d9 3e ed de 35 3f
       -0.80868393 -0.36636654 0.42460304 0.7104328
000020 ce 33 e3 3e e4 00 35 bf d7 77 68 3d 49 f7 ed bc
       0.4437546 -0.70704484 0.056754913 -0.029048579
000030 0a 35 86 be 32 1c 53 3f 51 af bf 3e 70 bd d6 be
       -0.2621234 0.824649 0.37438443 -0.41941404
000040 73 1b 38 bd 0d c3 b0 3e 04 74 3e bc 88 40 a5 be
       -0.044948053 0.34523812 -0.01162434 -0.32275796
000050 b0 84 b3 be d4 3c 5e be dc 43 8b be 93 66 4b bd
       -0.3506217 -0.21702892 -0.2720021 -0.04965837
000060 24 4b 1f bf a8 8f 59 3e 3e 21 d2 3e d8 23 a4 3f
       -0.6222403 0.21246207 0.41040987 1.2823439
000070 b2 ab ef 3e 38 b0 ce 3b 2d 05 db 3d 62 a1 f4 3d
       0.4681068 0.006307628 0.106943466 0.11944844
000080 d8 6e 2e be 87 60 d4 be f6 54 26 3f 1c f0 4d 3f
       -0.17034471 -0.41479895 0.6497339 0.804445
000090 ae 7f 56 3e a6 89 61 3e f3 06 a9 be aa 46 26 3f
       0.20947143 0.22025165 -0.33013114 0.64951575
0000a0 26 05 21 3f db cd 8d 3e 61 aa ec 3e 4d ca 96 bf
       0.6289848 0.27696118 0.4622374 -1.1780487
0000b0 17 33 ec be f5 b9 42 be 1c d1 fb be 5a 72 bf 3d
       -0.46132728 -0.1901625 -0.49182975 0.09347983
0000c0 b1 eb 40 3d c8 a5 12 bf 4e 2c 4b 3f a7 ef a4 3f
       0.047099773 -0.5728421 0.7936448 1.2885636
0000d0 4f d2 2c 3e ca 00 5d 3e ef 3f c6 3d b3 01 46 3f
       0.16877101 0.21582332 0.09680163 0.7734634
0000e0 a4 34 1d 3f 98 a0 9a bd ea ff e7 be 4a 5b b8 be
       0.6140845 -0.07550162 -0.45312434 -0.36007148
0000f0 7b a1 e7 3d 1d 82 3e 3e 5b 82 5f 3e 27 e7 44 be
       0.11310097 0.18604322 0.2182707 -0.19228803
000100 a5 74 80 bf 05 34 27 3f 59 e2 f4 be 53 d5 28 3e
       -1.0035597 0.6531375 -0.4782894 0.16487627
000110 70 ee 3e bc 49 85 8f bd 36 f9 ad 3e fc 44 a2 3f
       -0.011653528 -0.07007844 0.33979195 1.2677302
000120 07 29 10 3f 76 88 a9 3e ef 48 14 3e d8 1e a8 bd
       0.563126 0.33111924 0.14480947 -0.08209008
000130 33 d5 10 3e 6c 6f 51 3f fb cc a7 3e f2 c9 9e be
       0.14143829 0.8181064 0.32773575 -0.31013447
000140 2f 66 77 3f 22 3e 9e 3e 24 4b ba 3e 85 00 6e be
       0.96640295 0.3090678 0.36385453 -0.23242386
000150 a0 ad d6 3e 2d 60 cd be 52 8d 3d 3e 62 98 21 3f
       0.4192934 -0.4011244 0.1851094 0.6312314
000160 ec c6 d2 3e 66 59 0e 3f cb 7b d9 be 6a dd 90 bf
       0.4116739 0.5560516 -0.4247726 -1.131757
000170 ea 46 29 be cd 5d 23 bf b5 50 1e bf ff 7c 5b be
       -0.16530958 -0.63815004 -0.618419 -0.21434401
000180 11 33 2b be bb c3 9e 3f fd 9c 1c bf 07 cd 38 3f
       -0.16718699 1.2403482 -0.61177045 0.72187847
000190 04 34 01 3e fa f4 b6 bb f7 14 51 3d b5 82 15 3e
       0.12617499 -0.0055834027 0.051045384 0.14600642
0001a0 8f 23 eb 3e 2e e1 62 3e 18 f9 d3 3e 68 ef 74 be
       0.45925567 0.22156212 0.4140098 -0.23919451
0001b0 3a 77 0d 3f 7a 12 93 3d 3d e6 04 be fb 9e 25 bf
       0.5526005 0.071812585 -0.12978454 -0.6469571
0001c0 51 ad 82 3e 55 3b 39 3f ad b6 4a 3d 17 86 97 be
       0.25522855 0.7235616 0.04949062 -0.2959449
0001d0 fd e5 22 3f 72 8a 04 3f 98 ee 5e 3f 98 8a 7e 3e
       0.63632184 0.5177375 0.87082815 0.24857557
0001e0 0b 7a 4f 3d 44 5d d0 3e 58 2c 24 3e 87 7e 0e bf
       0.0506535 0.40696156 0.16032541 -0.55661815
0001f0 9c d6 e4 be 00 fa 02 bd 30 62 02 3e c1 bd 98 3e
       -0.44694984 -0.0319767 0.12732768 0.2983227
000200 b5 b8 db bd 10 88 8a bf ae 49 c1 3e 01 17 20 3d
       -0.107285894 -1.0822773 0.37751526 0.03908444
000210 a5 aa 6c 3e 70 62 a9 bf 4f 9d c1 be b9 8c 65 bf
       0.2311197 -1.3233166 -0.3781533 -0.8966785
000220 fe 03 33 3e d7 b1 0c be cd 1e 56 3e 32 10 9e 3e
       0.17481992 -0.13739716 0.20910187 0.3087173
000230 09 ca f2 bd 2f e8 93 be 92 58 28 3e 3f 5c f7 3d
       -0.118549414 -0.2888808 0.16440037 0.120781414
000240 79 67 27 3e 61 64 11 3e 19 e2 26 bf 70 7c 5f 3e
       0.16348065 0.14198448 -0.6518875 0.21824813
000250 a0 ae 87 bd 07 95 b1 3e 04 23 09 3d 30 79 c7 be
       -0.06625104 0.3468401 0.03348066 -0.38959646
000260 11 61 cf be 37 0d 89 be cf 51 59 3f c5 7a 10 be
       -0.40503743 -0.26767895 0.84890455 -0.14109333
000270 52 90 fc be 19 27 94 3e fa b8 c3 3e be 0c cf 3e
       -0.49328858 0.2893608 0.38227063 0.4043941
000280 06 4b 0f be 59 e4 44 3e 86 90 ed be 87 f8 f3 3e
       -0.13993463 0.19227733 -0.46399325 0.4765055
000290 47 92 35 3f 9e 8a be 3d 17 6f 96 3e ca d5 4a 3f
       0.70926327 0.09303783 0.2938163 0.79232466
0002a0 bc 82 f8 bd c2 9a b7 bf 55 8a 10 3d ef 86 f2 be
       -0.121343106 -1.4344103 0.035288174 -0.4736857
0002b0 12 fb b2 be 86 ac 32 3d d1 66 0a 3e 29 b4 a8 bb
       -0.34957176 0.043621562 0.13515784 -0.00514843
0002c0 b6 72 56 be a7 79 00 3e 72 d7 36 be 87 1b 42 bf
       -0.20942196 0.12546407 -0.17855623 -0.75823253
0002d0 63 55 f8 be 90 76 b6 3f f8 42 e1 be ed 6e 19 bf
       -0.48502645 1.4254932 -0.43996406 -0.59934884
0002e0 e8 b5 cf bd 73 af 36 bf 6c 1e 11 be b6 d4 b0 bc
       -0.10142118 -0.71361464 -0.14171761 -0.021585803
0002f0 66 61 11 be f5 b1 3d 3f e3 8f 1b be e7 db 35 3f
       -0.14197311 0.74099666 -0.15191607 0.7103867
000300 b4 71 ed be 1e a7 b0 3e e6 ea 63 bd 01 ac 9d 3e
       -0.4637581 0.345025 -0.05564394 0.3079529
000310 dd 69 9b 3e a2 4c 8f bf fd 5c c3 3e c7 1a 4f bf
       0.30354205 -1.1195261 0.38156882 -0.80900234
000320 5b fe 23 be 9d fd 09 bf 74 9c 4b be 9d 2b 56 3f
       -0.16014998 -0.5390261 -0.19883901 0.836603
000330 ab 7e 77 3f 8c 4e 2e bf f8 5f 0f 3f 5e 3d 94 3d
       0.96677655 -0.68088603 0.5600581 0.07238267
000340 e1 dc cc 3d 4e 6e 8a 3f a6 f5 61 3f f6 fa fc be
       0.10003067 1.0814912 0.88265455 -0.49410218
000350 b8 86 0c 3d 09 36 51 bf a6 c3 bb 3c 66 15 34 be
       0.034308165 -0.81723076 0.02292044 -0.17586288
000360 f6 e2 64 be 59 4e db 3e 4e 60 7e 3e b3 60 6b bf
       -0.22352204 0.42833212 0.24841425 -0.91944426
000370 ed a6 e6 be 21 5d 77 be d8 f3 46 3b ae 49 03 bf
       -0.4504923 -0.2415662 0.0030357745 -0.512843
000380 ef e1 67 3b 7c 09 8c bf de 77 4a 3f 71 27 57 bd
       0.003538247 -1.0940394 0.7908915 -0.05252785
000390 d3 af a3 3e e7 1f 9a 3d f5 ed 9b be 0b 0a 1d 3d
       0.3197008 0.07525616 -0.30454984 0.038339656
0003a0 67 23 37 3f 73 4c 6c bb 86 f7 d5 bd 15 b1 01 3e
       0.71538395 -0.003605631 -0.10447602 0.12665208
0003b0 ed d9 23 bd d6 4c e5 3c 3b fa c6 bd 8b 70 59 3f
       -0.040002752 0.02799074 -0.097156964 0.8493735
0003c0 d6 5f 92 3e 2c 55 95 be 70 a1 2c 3d 98 db 3e be
       0.28588742 -0.29166543 0.042146146 -0.18638456
0003d0 89 7f 0e be 16 90 9f bd 26 7f bc bd d1 f2 d7 be
       -0.13915838 -0.07791154 -0.09203939 -0.42177442
0003e0 69 d3 7e be 77 9a 39 be 09 7f 4a 3e 48 74 5e 3e
       -0.24885334 -0.1812533 0.19775023 0.21724045
0003f0 ea 3c 1f bd 9f 7a a1 bf ef 67 de be 1d ce 49 3f
       -0.03887645 -1.2615546 -0.4343867 0.7883013

reward_fun.0.bias f4 [200]
000000 d8 34 c8 be 09 f1 17 bf 5b 6f 5a bf 1e 4f 83 3e
       -0.39102817 -0.59352165 -0.85326165 0.256463
000010 11 6c 5b bf d5 d4 15 bf dc 64 65 3e 63 d0 f6 be
       -0.8571177 -0.5852788 0.22401756 -0.4820586
000020 34 04 21 be 0c 33 58 bf 78 6d f2 be 1c 4f 78 be
       -0.1572426 -0.8445289 -0.47349143 -0.24248928
000030 13 34 23 bf 63 bf 45 be 27 10 5f bf ad 73 9b bf
       -0.63751334 -0.1931129 -0.8713402 -1.2144676
000040 ca 2e e7 be be 39 2c bf da b9 18 bf 0c 59 53 3e
       -0.45152885 -0.6727561 -0.59658587 0.20639437
000050 19 f5 79 bf 9b 49 8a bf 8f e9 a0 be 28 df b2 be
       -0.97639614 -1.0803713 -0.3142819 -0.3493588
000060 89 bb 6f bd 65 45 01 bf 21 1b 90 be 52 24 06 c0
       -0.058528457 -0.5049651 -0.28145698 -2.0959668
000070 ae 6f cc be a3 97 3c bf e6 83 0c bf d8 dd 03 bf
       -0.39928955 -0.7366888 -0.5488876 -0.5151038
000080 0b b3 43 bf 0e 01 c2 bd 60 5c 1a be 52 5f 9e bf
       -0.7644507 -0.094728574 -0.15074301 -1.237284
000090 2c a6 24 bf c3 d5 cb be 2e 8f fd be 92 dd 67 bf
       -0.6431606 -0.39811525 -0.495233 -0.90572464
0000a0 cf c9 c9 be 75 c0 8b bf e2 25 27 bf db c7 8f bf
       -0.3941178 -1.0918108 -0.6529218 -1.1232866
0000b0 af b4 40 bf 5a ed 00 bf b0 1b 2b bf d9 04 93 be
       -0.752757 -0.5036217 -0.6683912 -0.28714636
0000c0 36 64 ce be 06 ba 0c bf d7 88 e2 be c4 9f 98 bf
       -0.4031083 -0.5497135 -0.44245026 -1.1923757
0000d0 1a b0 2d bf 4e e9 85 be 1b f5 03 bf d2 7f 4d be
       -0.67846835 -0.2615456 -0.51545876 -0.20068291
0000e0 42 6e 2f be 45 14 09 be c6 e0 80 bf 2c 2b 14 bf
       -0.17131904 -0.13386638 -1.0068595 -0.57878375
0000f0 2c 4a b0 be 82 3f 47 bf ec ef e7 be b9 9b b4 be
       -0.3443159 -0.7783128 -0.45300233 -0.35275057
000100 cf 30 51 bf 70 5e b0 be 7c e7 8c be cf 2e 65 be
       -0.817151 -0.3444705 -0.2752036 -0.22381137
000110 5f db 5a bf 59 44 ce bd 8a 32 ed 3d a1 a5 c4 bd
       -0.85490984 -0.1007163 0.11581905 -0.09601904
000120 13 c7 62 be bd 4a df be 09 04 ac be b4 e5 49 be
       -0.22146253 -0.43611708 -0.3359683 -0.19716531
000130 9f ff b1 be d0 dc c1 be be ab 37 bf 0d b8 00 3e
       -0.34765336 -0.3786378 -0.7174643 0.1257021
000140 52 95 44 bf 6d 7f 08 bf e2 01 82 be 8e ee 83 bf
       -0.76790345 -0.53319436 -0.2539206 -1.0307176
000150 47 a0 10 bf 22 1b a4 bf e0 a7 ac be ed b0 d9 be
       -0.56494564 -1.282078 -0.33721828 -0.42517796
000160 51 82 4a bf 0a c3 62 be 12 e9 14 bf ca 53 e7 be
       -0.791051 -0.22144714 -0.5816814 -0.45181113
000170 9c cc 0f bf 41 e2 b0 be 42 0c 57 bf 83 aa b0 be
       -0.56171584 -0.34547618 -0.8400308 -0.3450509
000180 4b 52 03 bf 24 aa 4d be e6 5f 1b bf c6 bf 88 bf
       -0.51297444 -0.20084435 -0.60693204 -1.0683525
000190 50 ba 53 bf 20 0d 08 bf 8c 52 3f bf f6 d2 69 bf
       -0.82706165 -0.5314503 -0.7473533 -0.91337526
0001a0 50 92 80 be 19 d4 03 bf 05 4e 83 3c e1 60 d6 3d
       -0.25111628 -0.5149551 0.016028414 0.10467697
0001b0 73 3f 6d bf d6 d3 43 bd 95 9b 78 bf ee 1c 2b be
       -0.9267494 -0.047809444 -0.971124 -0.16710255
0001c0 df 63 27 bf dd d0 97 bd c5 b9 12 bf 76 4b 7e bf
       -0.65386766 -0.074128844 -0.5731471 -0.99333894
0001d0 07 9e ff bd a2 2e 2d bf 09 3d f7 bd 28 04 46 bf
       -0.12481313 -0.6764928 -0.120721884 -0.7735009
0001e0 92 ac 65 bf 3d 72 81 bf 21 2e 7e 3c 88 96 33 be
       -0.89716446 -1.0112988 0.015513928 -0.17537892
0001f0 2f 4f 93 3e ea e1 27 bf 1d 10 c7 be 08 4e 7d bf
       0.2877135 -0.6557909 -0.3887948 -0.9894719
000200 38 03 9c be 93 31 1c be 26 51 89 be ad d4 b5 be
       -0.30471206 -0.15253286 -0.26819724 -0.3551382
000210 70 b8 55 3d 4a 15 f1 be f6 94 2e be e0 88 14 bf
       0.052177846 -0.47086555 -0.17049012 -0.58021355
000220 16 c1 5b bf 11 2c 43 bf 3e 9c 82 bf 0a ce 9c be
       -0.858415 -0.76239115 -1.0203931 -0.30625945
000230 f4 06 cc be 16 fc f6 3b 7d 31 c5 be 22 38 2c bf
       -0.39849055 0.007537375 -0.3851432 -0.6727315
000240 23 33 0b bf 31 72 5f 3b 45 a7 32 bf 6e 64 70 bf
       -0.54374903 0.0034095163 -0.69786483 -0.93903244
000250 e4 74 15 bf c0 e5 19 bf c9 4b 12 bf 8a 1a 0f bf
       -0.58381486 -0.60116196 -0.5714689 -0.5589987
000260 68 28 56 bf cb a9 9a be 8b b6 b3 3e 31 42 27 bf
       -0.83655405 -0.30207667 0.35100207 -0.65335375
000270 59 f1 89 be 34 ce 22 bf 2f 5c 7f be fa 6f 81 bf
       -0.26941946 -0.6359589 -0.24937509 -1.0112298
000280 95 84 92 bd ce 56 3b bf e1 eb 01 bf 9d db 29 bf
       -0.07154194 -0.7317933 -0.5075055 -0.6635073
000290 0d d6 8c be 96 60 59 bf 16 64 a8 bc f4 e2 67 bf
       -0.27507058 -0.84913003 -0.020555537 -0.9058068
0002a0 c2 33 60 be ad 9a b2 be 5b 62 39 bf e7 2b 86 be
       -0.21894744 -0.34883633 -0.72415704 -0.2620537
0002b0 3b 11 3f be b1 e1 35 bf 4c 16 39 bf fe 70 7c bf
       -0.18658917 -0.710475 -0.7229965 -0.9860991
0002c0 b8 67 52 bf ac 58 15 bf 24 51 dd be 84 67 fb 3d
       -0.8218951 -0.5833843 -0.43225968 0.122756034
0002d0 4c 56 6b bc 84 f8 4c be 33 48 b2 be 57 70 74 be
       -0.0143638365 -0.20016676 -0.3482071 -0.23870979
0002e0 f5 47 bd be bb 28 5b be 72 ed aa bf 6e 98 02 bf
       -0.3696896 -0.21402256 -1.3353713 -0.5101384
0002f0 45 b6 1b bf a3 20 e8 be e5 d5 81 be 3e d1 44 be
       -0.60824996 -0.453374 -0.253585 -0.19220445
000300 d9 5e 80 bf 41 8f e0 3d 0c 62 1a bf a1 84 ed be
       -1.0028945 0.109648235 -0.6030586 -0.4639025
000310 e4 84 6d bf 79 8f be be cd b4 92 be 4d 5d 58 bf
       -0.927809 -0.37218836 -0.28653565 -0.84517366

reward_fun.2.weight f4 [200, 200]
000000 24 fc 85 bf cc 50 a1 3e 9f fb 84 bf 25 7a 1d bf
       -1.0467572 0.31506956 -1.0389289 -0.615145
000010 d2 af 31 bd 43 fa 5b bf e7 4f a9 be fb 3a bc be
       -0.043380566 -0.85928744 -0.33068773 -0.3676375
000020 6e ed 14 3f 2e a0 4c be aa b7 89 bd ee d7 c9 be
       0.5817479 -0.19982979 -0.06724484 -0.39422554
000030 64 5f 0b c0 0f ba 84 be b2 b7 25 bf 43 5d ff be
       -2.1776972 -0.259232 -0.6473342 -0.4987584
000040 4f c7 38 bf 25 86 44 3e 28 7c fe 3d 92 27 16 3f
       -0.7217912 0.19191797 0.12426025 0.5865413
000050 33 53 7f be 1f ba ad bd 30 9a 69 be d7 8e a7 bf
       -0.24934082 -0.084827654 -0.22812724 -1.3090466
000060 86 b4 89 bf 0f b3 f6 be e6 53 11 c0 ff a5 43 be
       -1.0758216 -0.48183486 -2.2707458 -0.19106291
000070 78 25 c7 be 88 b0 5c 3f 0d 47 1a bd fd c7 d0 3e
       -0.38895774 0.86206865 -0.037665416 0.4077758
000080 8a af 19 bf 65 aa 6b 3d 9c b4 c8 bc a4 81 1a bf
       -0.60033476 0.057535548 -0.024500184 -0.60354066
000090 6b 29 46 be 24 f7 13 bf 8e 3a 2e bf b8 ca 84 bd
       -0.19351737 -0.5779898 -0.680581 -0.06483978
0000a0 f1 80 50 3e 6e 33 01 be e5 0c 9c be f3 fd 0e bf
       0.20361687 -0.12617275 -0.30478588 -0.55856246
0000b0 1b f6 8f be 1c d2 18 3f d3 ed c8 be 9d 9a 26 bf
       -0.2811745 0.596956 -0.39243945 -0.6507967
0000c0 a5 b3 47 3e 66 fd d1 3d 74 20 46 bf 72 2d ab bc
       0.19502123 0.1025341 -0.7739327 -0.020895693
0000d0 a1 ac 80 bf 32 26 9a be 92 d0 25 bd 19 31 05 c0
       -1.0052682 -0.30107266 -0.04048211 -2.0811217
0000e0 5a 48 36 be a1 46 2c be 3f 8a 18 3f 09 52 44 be
       -0.17801037 -0.16823818 0.59585947 -0.19171919
0000f0 d2 a5 28 bf 15 d2 2c bd 41 c6 fb bf 61 90 a2 be
       -0.6587802 -0.042192537 -1.9669877 -0.31750777
000100 02 da 2f 3e 1e 38 33 bf 05 f9 25 be dc ce 6f be
       0.17173007 -0.70007503 -0.16208275 -0.23418754
000110 b9 ba 1c c0 04 d8 7b bf 65 a9 2e bd ce 8c cd 3d
       -2.4488966 -0.9837649 -0.042642016 0.10036622
000120 17 ae e9 be 6e 91 41 bf 8b a6 d5 bc 39 be 25 3e
       -0.45640633 -0.75612533 -0.02608039 0.16185845
000130 9a 6b a9 3d 5c 9b 02 3e f1 d1 db be 6f 1c 19 bf
       0.082724765 0.12754577 -0.4293361 -0.5980901
000140 ce c9 b0 bf 0b 14 3f be d5 cc 9c 3b c1 b1 a4 be
       -1.3811586 -0.1865999 0.00478516 -0.32166865
000150 df 0b 75 bf 2d 36 9a 3d 5c ff 16 bc a3 b1 0b 3e
       -0.9572124 0.075298645 -0.009216156 0.13641982
000160 a6 84 39 be 98 e8 ed 3d 44 59 a0 bf 04 90 11 bf
       -0.18117008 0.11616629 -1.2527242 -0.56860375
000170 5b 4f f6 bf dc bf 25 bf 87 15 26 3f 73 e6 02 bf
       -1.9242967 -0.6474588 0.648766 -0.5113289
000180 6a f7 95 bf 39 78 08 3e be 5b 4a bf a6 bf 2b bf
       -1.171613 0.13327111 -0.7904624 -0.6708931
000190 a4 be 57 3e 01 2f 6e bf 87 9e aa be fc 49 07 bf
       0.21068817 -0.9304047 -0.33324072 -0.52847266
0001a0 78 13 98 bf bf b2 09 be a4 54 61 be 0c 60 e0 3c
       -1.1880941 -0.13447092 -0.22004944 0.027389549
0001b0 c2 1f 05 be 04 96 20 be 65 91 59 bd cf 26 95 bd
       -0.13000396 -0.15682226 -0.053117175 -0.07282793
0001c0 ee b5 a4 be cc 35 b6 3d 36 55 a7 be 3e b0 dd 3e
       -0.3217005 0.0889698 -0.32682198 0.43298525
0001d0 9e 59 91 bf 0d 27 96 3c 4e 2e 55 bd 96 c6 81 be
       -1.1355474 0.018329168 -0.052046113 -0.25346822
0001e0 79 f2 19 bf 17 41 7e bf 97 17 6d bf 33 c8 81 c0
       -0.6013561 -0.9931807 -0.9261412 -4.0556884
0001f0 02 a5 8c 3c 0b 71 0b c0 7b f8 6e bf e4 e2 0f bf
       0.017168526 -2.1787746 -0.933479 -0.5620558
000200 8c 25 ae be 02 88 17 be 10 e4 94 3e 31 8c 0c 3d
       -0.3401302 -0.14797977 0.29080248 0.034313384
000210 76 34 a2 bf c3 bd 8c bf b1 54 05 3f 28 48 72 be
       -1.267226 -1.0995411 0.52082354 -0.23660338
000220 4b 24 dd be c7 0b cb bb 3e 96 94 bf 93 05 56 bf
       -0.43191752 -0.0061964723 -1.160835 -0.83602256
000230 57 01 bb 3e 06 4b c5 3e fa fa 2b 3e 60 ca 18 bf
       0.3652446 0.385338 0.16794959 -0.596838
000240 2c a6 3a 3e 4a 48 d0 3e 8f 9b d3 bf 44 dc c0 3c
       0.18227452 0.40680152 -1.6531848 0.02354253
000250 bd f3 a4 be 64 23 ad be e1 2c c8 be 82 57 aa bf
       -0.32217208 -0.33816063 -0.3909674 -1.3307955
000260 e4 dc 90 be bb af 28 bf 55 23 bb 3e e8 f2 26 be
       -0.28293526 -0.65893143 0.36550394 -0.16303599
000270 49 5a 2c 3e d3 f1 a7 bf c7 55 cb bf 48 a3 e1 bd
       0.16831316 -1.3120674 -1.5885552 -0.110174716
000280 a1 49 b9 3d 68 55 b9 3e ea 85 8f 3e 01 df 34 be
       0.09047247 0.36197972 0.28031856 -0.17663194
000290 c8 33 e2 be 1a 83 45 bf 51 48 39 bf 2c 5e 9d 3f
       -0.4418013 -0.7715317 -0.7237597 1.2294364
0002a0 30 e8 6d 3d bd 57 17 3f 53 a4 05 bf b5 34 7f 3e
       0.05808276 0.59118253 -0.52203864 0.2492245
0002b0 95 c8 fc 3e 1c 3d 22 3f 5a 25 29 bd 04 d6 a1 be
       0.49371782 0.63374496 -0.041295387 -0.31608593
0002c0 e7 33 34 be 07 3b 92 be ef 42 31 3c 11 ce ee 3d
       -0.17597924 -0.2856066 0.010819181 0.11660398
0002d0 47 6f 11 3e f2 ba 80 bf 9c 7b 0a c0 43 2e 34 be
       0.14202605 -1.0057051 -2.1637945 -0.17595772
0002e0 58 7a 20 be 2e 05 9f bc 7d f1 21 bf 8e 8a 72 bf
       -0.1567167 -0.01941165 -0.63259107 -0.9474267
0002f0 3e b3 0b 3f ce bb 18 bf 66 fc 80 3d 26 92 ed bd
       0.54570377 -0.5966157 0.06298141 -0.11600141
000300 e0 de 0a 3d ae 6f e0 be f3 6d 9d 3e 7f a3 03 c0
       0.033903956 -0.43835205 0.30747947 -2.056854
000310 b3 f7 bc bd 69 ef 89 3e e9 df b4 bf 13 f4 cc bf
       -0.092269324 0.26940468 -1.4130832 -1.6011986
000320 c8 99 99 be 8d 2b 5b be 5a 4a be 3d 1a a9 a7 bd
       -0.30000138 -0.21403332 0.09291525 -0.081865504
000330 e3 38 db be c5 f3 2e be a1 30 41 3d d2 f3 bf bc
       -0.4281684 -0.17085178 0.047165517 -0.023431692
000340 80 1a 3c 3d 70 21 1b 3c bf 37 13 be 42 c3 32 3b
       0.04592371 0.009468421 -0.14376734 0.0027277027
000350 67 67 f3 be 41 85 ef bd d3 d5 2e bd 58 22 b6 bd
       -0.47539827 -0.11695338 -0.042684387 -0.08893269
000360 4c c6 fb 3b ea 38 00 bd f1 19 b5 be ba da e5 bc
       0.007683551 -0.031304277 -0.35371354 -0.028058399
000370 5e ad a6 3d c2 5d ff 3c bc 4d 38 be bd 21 00 3d
       0.08138536 0.031172637 -0.17998403 0.031282175
000380 50 98 45 be 09 1b 11 be c5 02 4e be b1 0b d9 bd
       -0.19296384 -0.1417047 -0.20118244 -0.10597933
000390 7b 2f f6 bd c1 97 96 3c 62 e4 a1 3c 34 48 61 bd
       -0.12020775 0.018382909 0.019762222 -0.0550005
0003a0 fa 3a 30 3d 26 c0 48 be 6a 5b 90 be 8b 56 ce bd
       0.043024994 -0.19604549 -0.28194743 -0.100751005
0003b0 bc aa 16 be f1 6a a8 be fb 44 b1 ba b8 b0 0c 3e
       -0.14713567 -0.3289409 -0.0013524586 0.13739288
0003c0 83 ea c2 be 41 53 62 39 ec 4e e3 bd 49 1d b0 bc
       -0.38069543 0.00021584054 -0.110990375 -0.02149834
0003d0 14 98 ec 3d b0 08 19 3d 91 0e 0a 3e 44 0a 2c bd
       0.11552444 0.0373618 0.13482119 -0.042001978
0003e0 de ec f5 be 91 49 2f bc 26 a9 0d bd 1b 5c 0f 3c
       -0.48032278 -0.010698692 -0.03458514 0.008749987
0003f0 01 15 72 3b ec ae 18 be a1 89 6a 3d 26 28 07 bd
       0.0036938789 -0.14910477 0.05726016 -0.032997273

reward_fun.2.bias f4 [200]
000000 ac e3 93 3e e9 f1 17 3d 0f 63 6d bd eb 2d cc 3c
       0.28884637 0.037095938 -0.057955798 0.02492424
000010 0c dd 49 be 79 2c c3 3b e7 21 f4 3e 8a 48 ea 3a
       -0.19713229 0.0059562293 0.47682115 0.0017874402
000020 e9 5f b3 bd 69 6b 66 3d a6 42 3d bd cf ed e0 bd
       -0.08758528 0.056254778 -0.04620614 -0.109828584
000030 bc ee f9 3e 76 00 84 3e ed e2 55 be c0 e9 9d be
       0.48814952 0.25781602 -0.20887347 -0.308424
000040 02 7b 98 bb b6 50 46 bd 41 16 0b 3f 79 e4 02 3e
       -0.0046533355 -0.048416816 0.5433083 0.12782468
000050 bc 3f ae 3e 5d de 75 bb 9d 4a 31 3e 67 23 88 bd
       0.34033 -0.0037516572 0.17313619 -0.066473775
000060 8c a1 ba bd a6 e9 be 3e e9 53 ad bc 1a eb 06 bc
       -0.09112844 0.37287635 -0.021158176 -0.0082347635
000070 3b f9 83 3e ed 29 15 3f 89 20 8b 3e aa 1b 8c be
       0.25776085 0.582671 0.2717326 -0.27364856
000080 28 14 87 bd 3f b2 97 bb d3 d1 02 be 84 8f 68 3e
       -0.065956414 -0.004629403 -0.12775354 0.22710997
000090 8a f0 39 bc fc 72 de bd 46 f7 85 be 0b 08 1b bd
       -0.011348853 -0.10861775 -0.26165217 -0.037849467
0000a0 90 a0 77 bd e0 e2 21 bd 2d 04 bd bc 7d e1 46 be
       -0.06045586 -0.039523005 -0.02307328 -0.19421954
0000b0 1d 0b 9d 3e e1 78 35 be 14 0b 0a 3c 73 86 9d 3e
       0.3067254 -0.17721893 0.008425493 0.3076664
0000c0 31 b9 4c 3e f8 c5 e2 bc 12 a1 a8 bd 72 e2 ea bc
       0.1999252 -0.02768229 -0.08233847 -0.02867243
0000d0 94 21 05 3f 78 25 d8 3e e0 e9 dc 3e bd d6 db bd
       0.5200436 0.42216086 0.43147182 -0.107343175
0000e0 ef b8 b1 bc 77 15 b1 bd e8 09 5a bd 32 c4 cc 3c
       -0.021694629 -0.08646672 -0.053232104 0.024995897
0000f0 36 64 cc 3c 37 67 69 3e 62 f4 87 3d 98 12 a5 3e
       0.024950128 0.2279328 0.06638409 0.32240748
000100 09 fd 42 bb 6a 96 6b bd 67 7e 9c 3e 6a 56 97 bd
       -0.0029752871 -0.057516493 0.30565187 -0.07389529
000110 bd 1e 6f 3b cd 65 86 bd bd 87 df bc f5 17 52 bd
       0.0036486827 -0.06562386 -0.027286405 -0.05129238
000120 c1 9d 23 be 11 ef 40 be 9b 8c 20 3e 0d da 2b be
       -0.15978147 -0.18841197 0.15678637 -0.16782399
000130 f3 2a 31 3e 1e d7 85 bd ef 12 a7 3d cd 23 ae bc
       0.1730154 -0.06535171 0.08157908 -0.021257306
000140 74 87 be 3e 2d 16 ed 3c cd 11 6e 3d cc e9 df 3c
       0.37212718 0.028941238 0.058122445 0.027333163
000150 17 23 84 3c a4 b8 9d bd 7d e5 33 bb b8 11 e4 3c
       0.016130013 -0.07701233 -0.0027450018 0.02784048
000160 4c 1c 2e 3c 8e 18 ec 3e a2 e0 91 be f0 b2 0c 3e
       0.010626864 0.46112484 -0.28491694 0.13740134
000170 ca 76 8a 3e 45 67 c6 3e e3 01 85 bd d5 2d 95 3d
       0.27043754 0.38750663 -0.064945005 0.072841324
000180 51 45 6b bd 22 e9 39 be 31 46 a3 be 9d 9b 28 bd
       -0.057439152 -0.1815534 -0.3188949 -0.04116403
000190 cc 76 cd 3e 00 19 68 3e 73 91 d5 ba 1f 16 c9 3e
       0.40129697 0.22665787 -0.0016293958 0.3927469
0001a0 7a 87 fe 3c 6d bf 28 3e ef 93 e8 bd 99 a4 01 3e
       0.03107046 0.16479273 -0.11356341 0.12660445
0001b0 ca 6b 2e bd d9 74 c4 bd 58 ec 43 3d f3 7a 24 be
       -0.042583264 -0.095925994 0.047832817 -0.16062526
0001c0 89 53 c0 3c 3a 4a 9a bd 6a 58 95 3d 08 e3 8c 3d
       0.023477333 -0.07533689 0.07292254 0.0687924
0001d0 3f f2 ac 3b de 61 b3 3e f0 22 19 be c0 f8 f1 bc
       0.0052779014 0.35035604 -0.14954734 -0.029537559
0001e0 72 b6 c8 bd f2 8d e5 3e 42 b2 8f bd be 48 5f 3e
       -0.09800424 0.44834858 -0.07016422 0.21805093
0001f0 86 6c c5 3d 0c 3c bb bb 60 3f 0a 3d 23 f7 37 3e
       0.0963984 -0.0057139453 0.033751845 0.17965369
000200 93 99 a7 3d d6 b1 51 be 60 84 0a bd e8 a5 0d be
       0.08183589 -0.20477995 -0.03381765 -0.1383282
000210 29 8f d7 bc 7f 51 aa bd f3 d1 08 be e9 d2 b0 bd
       -0.026313381 -0.083163254 -0.1336134 -0.08633978
000220 a0 1b 9d bd 16 09 c9 bd cd 65 62 be fa 6b 04 3e
       -0.07671285 -0.09816186 -0.22109146 0.12931815
000230 97 5b d5 3c d5 a1 20 3a ce 2f 06 be b5 28 b0 bd
       0.02604465 0.00061276305 -0.13104174 -0.08601514
000240 eb 1a a6 bd d4 7f a8 bb ab c3 51 3c f3 a4 bc bc
       -0.08110603 -0.0051421914 0.012802999 -0.023027873
000250 02 0d a6 3e 34 29 c8 3e 0d fe 19 bc cd b5 48 be
       0.324318 0.39093935 -0.009398949 -0.19600601
000260 0d ef dc bd 2d 07 f8 bb ac 09 1d be f7 b8 26 3f
       -0.10787783 -0.007569215 -0.15335721 0.65125984
000270 a9 0e 18 be a8 c1 86 bd 17 a2 44 bc 56 58 e2 3e
       -0.14849342 -0.06579906 -0.012001536 0.4420802
000280 eb 59 94 bd eb fd 0f 3d b2 7c 8e bd 3b e3 1e bd
       -0.07243713 0.035154264 -0.069573775 -0.038790923
000290 ea 8b c3 3e 6c 71 df 3d be 78 5a be cc 89 99 be
       0.38192683 0.109103054 -0.21335122 -0.29987943
0002a0 e2 ac 88 3c ea 76 99 bc e1 2f c4 3e 72 a9 69 bc
       0.016684 -0.01873346 0.3831778 -0.01426159
0002b0 c7 9b 23 be 8e 06 8a bd 92 bb 45 3e c4 90 a8 3e
       -0.15977393 -0.067395315 0.19309834 0.32922947
0002c0 09 b8 b8 bd e5 cf b1 bd 52 18 de bc d9 38 78 3c
       -0.09019477 -0.08682231 -0.027111206 0.015150272
0002d0 3d f2 22 3d 8a 6f 16 bd eb 52 e9 3b 8d 7b df 3b
       0.039781798 -0.036727466 0.0071204803 0.0068201483
0002e0 36 01 16 3e ce d4 18 ba c3 d8 d8 bd c1 2f 71 bd
       0.146489 -0.000583005 -0.10588219 -0.058883432
0002f0 4a 74 c5 3c 9c 30 2d 3e da f3 b8 bd 69 39 eb 3e
       0.024103303 0.16913074 -0.09030886 0.45942238
000300 b2 5f 1c 3e 9b 5c 6b 3c 4b bd 1c bb b9 d4 5c bc
       0.1527088 0.014365341 -0.0023916538 -0.013478451
000310 5e 0c 37 bd d6 10 01 3d eb 58 d7 bd 81 3d 05 3e
       -0.04468953 0.031510197 -0.10515007 0.13011743

reward_fun.4.weight f4 [1, 200]
000000 13 68 8f bf 6b ba d8 be 7f cd 29 3d 38 c8 44 bc
       -1.1203636 -0.42329726 0.041455742 -0.0120106265
000010 34 b8 a5 be 7f 8b 9e bf eb 35 df bd b7 0e 95 be
       -0.32367098 -1.2386321 -0.10898956 -0.2911279
000020 f9 5c c7 bd 07 11 8b 3e 05 eb 2c bd 5c fd 1d 3e
       -0.0973453 0.27161428 -0.04221632 0.1542868
000030 e6 43 f1 be e8 70 9c bd 18 a7 ac 3e 7c d3 ab 3e
       -0.47122115 -0.07638723 0.33721232 0.33559787
000040 1a 37 ac 3c 92 f2 c2 3c ed ca e7 be b6 29 8a be
       0.021022368 0.023797307 -0.45272008 -0.26984948
000050 80 6e 13 bf 6a ab a6 3c a0 7a 77 bf 0c 0a bf 3d
       -0.57590485 0.020345408 -0.96671486 0.09328088
000060 95 7a 33 bf 2b fb 38 3e 5c f5 13 bc 0c bd 07 bc
       -0.7010892 0.18064563 -0.009030666 -0.008284818
000070 92 1b 2f bf ee 14 b1 3e 35 2a 39 bf 49 27 9c 3c
       -0.68401444 0.3458628 -0.7233003 0.019061701
000080 1b 93 8f 3c 6e 75 97 bf f0 32 14 3f 8f 4a 84 bf
       0.0175262 -1.1832712 0.57890224 -1.0335253
000090 2b 52 3f 3d 24 2f b3 bc 26 22 1c 3e 7a af e3 3c
       0.04670922 -0.021873064 0.15247402 0.027793635
0000a0 a3 7e 86 3e fe d9 8a be 4b 2b 2d bd 42 d2 13 bf
       0.2626849 -0.2711944 -0.042277616 -0.577427
0000b0 86 8b 54 bf 62 f4 33 3d 48 a7 b7 bd bc e6 7a bf
       -0.83025396 0.043934233 -0.08967453 -0.9800832
0000c0 eb 03 96 be 72 a2 e9 3a dc 1b b6 3c ed d2 f5 3b
       -0.29299864 0.0017824902 0.022230081 0.007501951
0000d0 76 85 1b 3f c7 95 2f bf 16 b4 8b bf aa 2f 0d bf
       0.6075052 -0.6858792 -1.0914333 -0.55150855
0000e0 00 ac 3b bf e9 e7 c1 3b 12 15 c5 3d 4c 3a 8c bc
       -0.73309326 0.0059175384 0.096231595 -0.017117642
0000f0 e1 24 57 bf 1d 59 a6 3e 96 d3 50 3f 0a 5a f5 be
       -0.8404065 0.32489863 0.81572855 -0.47920257
000100 04 04 97 3c 1f e5 a3 be 7f fb 2c be 91 33 80 3c
       0.018434532 -0.32010743 -0.16892813 0.015649589
000110 77 c7 6c be e1 8e b8 3c 70 41 2c bd 96 ee fc 3b
       -0.23122965 0.022529067 -0.042054594 0.0077188713
000120 70 4c a7 bd 0b b5 f8 be 27 05 01 be 4e 19 a8 bd
       -0.08168876 -0.48575625 -0.12599622 -0.082079515
000130 2c 68 44 3d 47 56 60 be c1 9f 31 3f b8 81 4a bc
       0.04795091 -0.21907912 0.6938439 -0.012360029
000140 67 b2 ff be 66 8d 15 bd 7e d8 ff 3e 27 65 81 bc
       -0.49940798 -0.0365118 0.49969858 -0.015795304
000150 5c 0e 4c be 04 62 31 bc 43 47 31 3d 33 be 48 be
       -0.19927353 -0.010826591 0.04328085 -0.19603805
000160 8e 0e 38 bd 18 40 73 be 04 42 f1 be 94 96 16 c0
       -0.044935755 -0.23754919 -0.47120678 -2.3529406
000170 1e 63 93 3e ec c0 e4 bd 17 74 b9 bd 42 1d fe bd
       0.28786558 -0.111696094 -0.090553455 -0.12407924
000180 97 0f 99 bd 78 2c 92 be 96 0a c9 3e f0 38 92 3c
       -0.07473677 -0.28549552 0.3926589 0.017849416
000190 95 60 da 3e 86 91 c0 bc cf e7 93 bd 1a 51 62 3e
       0.4265181 -0.023506891 -0.07221948 0.2210125
0001a0 04 36 37 bf 34 39 bf bf 9b 2a 9e bc 89 3b c4 3e
       -0.71566796 -1.4939332 -0.019307425 0.38326672
0001b0 4f 33 41 3d c7 37 21 be 12 fc 3c 3d 74 f2 09 3d
       0.047168072 -0.15743934 0.04613883 0.033678487
0001c0 ec ed 76 3e 88 3b 24 bd c6 89 99 be 0d 67 10 bf
       0.24114197 -0.040095836 -0.29987925 -0.56407243
0001d0 e1 5b 2e bc b1 82 e6 3e 55 72 6f 3d bc be 0e 3c
       -0.010642023 0.45021585 0.058458645 0.008712467
0001e0 58 79 29 3f 69 4c 0b be c7 c4 d1 3c b3 3c 81 3e
       0.6620078 -0.13603367 0.025606526 0.25241622
0001f0 a2 d3 81 3e ce 95 c3 bb 18 8f eb bd 9f 51 8a 3e
       0.25356776 -0.005968786 -0.11501902 0.27015397
000200 aa f4 93 bf a8 41 ab 3d 1d b9 a1 bd c2 dd 35 3d
       -1.155904 0.08362132 -0.07896636 0.044400938
000210 c7 31 8d be 50 46 33 3e 24 e3 18 bd 38 54 c1 3c
       -0.2757704 0.17507291 -0.037325993 0.023599729
000220 5f 4b 60 3e 5c b7 ac bd ee de 08 3d 66 5b 00 bf
       0.21903752 -0.084334105 0.033415727 -0.5013946
000230 83 da 70 ba 5d 5e 66 be e9 00 96 bd 3e ad 51 3a
       -0.0009187834 -0.22496934 -0.07324392 0.00079985324
000240 ee 6c 27 c0 3d 78 13 3d 41 1c bf 3e e5 68 3d 3d
       -2.6160235 0.03600334 0.37326244 0.046242613
000250 b3 82 22 bf 80 ef cf 3d 37 80 c2 bb 18 46 9a bc
       -0.6348068 0.10153103 -0.0059356946 -0.018832251
000260 90 69 77 bd 7d d6 b6 3b b7 e2 d6 3d 0c 76 aa bf
       -0.060403407 0.005579768 0.10492461 -1.3317275
000270 2f e9 4c 3b c6 75 dd bd 60 62 de 3c 4b 64 c5 be
       0.0031266918 -0.10813479 0.027146518 -0.3855308
000280 98 ec 1d be 0d 0b b6 ba 19 57 a3 3c a1 bd 72 bc
       -0.15422285 -0.0013888791 0.019938992 -0.014815719
000290 4f 83 4e 3e 62 43 11 c0 7d 4f 19 3f 53 f0 57 bf
       0.20167278 -2.2697377 0.59886914 -0.8435108
0002a0 fa 94 d7 3c f8 05 d7 3c 1a d9 5a be 03 64 5b bc
       0.026316155 0.026247963 -0.2137188 -0.013390544
0002b0 b0 f0 47 bd 55 17 07 bf e7 fd 0e 3e 8e 36 ad bd
       -0.04881352 -0.52769977 0.13964044 -0.08457671
0002c0 a8 17 aa bd 8c 58 1f be 66 fa 29 3d 73 b3 d9 3c
       -0.08305293 -0.15561122 0.041498564 0.026574826
0002d0 02 6a e5 3c 7c da 0d 3d 1e 11 4d bf 4c e2 d3 3c
       0.02800465 0.03463219 -0.80104244 0.025864743
0002e0 ef 9d 16 c0 b2 f9 2d bf 04 3b b3 3c ac 37 a8 bd
       -2.3533895 -0.6795913 0.021878727 -0.082137436
0002f0 3c 25 26 b9 bc d1 1a 3e 6d 2b fb 39 df 35 8d be
       -0.00015844865 0.1511907 0.00047906805 -0.27580163
000300 0e 96 0a 3f 2c 9f 7b bd 03 db c5 ba 6d b9 a1 be
       0.54135215 -0.061431095 -0.0015095178 -0.3158678
000310 96 8e 81 be c8 f5 4f bc 8d ae 93 3d 05 ad 99 bf
       -0.25304097 -0.012692876 0.07211027 -1.2005926
