data/hlt_deter/HalfCheetahEnv/seed_313/policy_30000.pt (torch, 17149 bytes, 4 tensors)

mu.0.weight f4 [128, 17]
1.0136864 -0.6587613 0.8515331 1.5373722 -0.055765957 0.24878241 1.4476843 -0.90804935
-0.19989571 -0.24153835 -0.12250048 0.19809666 -0.054063823 -0.05363077 -0.2280043 -0.051558517
0.3313978 1.5710431 -0.24490133 -0.94004285 -1.1902303 -0.055580616 0.2189058 -1.3248813
0.094783716 0.00091902044 0.43311277 0.4988035 -0.07961909 -0.059814785 -0.09782899 0.070555076
-0.025352925 -0.04451341 2.4537697 -0.03419444 -0.40859988 1.4853612 0.0014390044 2.138089
0.16099954 1.3385706 -0.79589015 -0.009105739 0.001378647 -0.061849374 0.03907319 -0.47729695
0.12613946 0.104582846 -0.06435929 1.1336461 -0.2600267 -0.49669358 0.9544583 0.39245752
1.01614 -0.6416826 1.2811302 0.3938527 0.4424118 -0.056382373 0.12596339 0.0321877
-0.24021013 0.01630373 0.05289881 -0.14462045 1.4745303 -0.40780607 1.202809 0.661403
-0.083927065 -0.38278764 0.364988 -0.2205346 0.038978267 0.3102076 -0.47792864 0.14677922
-0.020956593 -0.6290778 0.09357985 -0.11070643 0.013689093 -1.0498122 0.27818152 0.19005972
0.17980063 -0.6178095 -1.6133823 -0.2575229 -0.06009268 -0.28340563 -0.34095424 0.28045675
0.113707714 0.04241242 0.118218124 -0.15212087 -0.024889132 -0.058498114 0.07893984 0.63249254
-0.50194496 -0.38317895 -0.2814138 -0.81273216 -0.2717069 -0.10911118 0.11881836 0.35284922
0.1462809 -0.018127266 0.05196543 0.080803655 0.07872027 0.018844709 -0.036195047 1.0429275
-0.2511794 0.6322978 -0.14932112 -0.48137593 0.26846454 1.1408176 0.6563417 0.35649872
-0.8680114 0.7820718 -0.003994135 -0.070913784 0.22461788 -0.26065627 0.2681868 -0.07155798
0.9872837 0.4062648 -1.3923266 -0.22441283 -0.37838966 0.8430069 0.39974913 -0.9422512
-0.38270384 0.12981395 0.4776209 0.24101625 -0.046674773 -0.25982007 -0.0899248 -0.056210455
0.1995326 1.3277117 -0.39418972 0.21424241 -0.15997298 0.23450723 1.2010036 1.593103
0.3097039 -0.9064875 -0.82137877 0.23637661 0.09673058 0.1036332 -0.18834195 0.09765171
0.0546616 -0.046240132 0.4041999 -0.19766389 0.9152256 0.95496994 0.50636363 -0.3727185
-0.863655 0.5349069 -0.3416117 0.1210989 -0.13182648 0.23142344 0.2020625 -0.16171958
-0.1501553 0.26049468 0.044594094 0.4188492 -0.5874242 -1.36988 0.25955677 -0.019318832
-0.76217633 0.7497534 0.58405244 0.1098721 0.63495255 0.12524024 -0.11553529 -0.025429824
-0.115407676 -0.17791685 -0.006695674 -0.15774757 1.7294923 -0.23376402 -0.22238836 0.4247569
-0.6175115 -0.17361458 0.22560519 0.9181448 -0.15151516 0.14144656 0.12750459 0.062860414
0.20122528 0.040008888 -0.24054956 0.28210706 -0.33527952 -0.5592432 0.6042965 -0.4416306
0.5874578 -0.17520498 0.974273 0.24288842 0.5597885 -0.16033255 -0.34063998 -0.025690056
0.027574927 0.05043075 -0.17681523 0.0137903225 0.062328182 -0.010710055 2.806473 -0.42691448
0.084699966 0.24606688 -0.1816535 -0.15312727 0.36701965 0.59387314 -1.0470283 0.48675412
0.20262997 0.52037907 -0.18766263 -0.20184745 0.28168303 -0.02094295 -0.055557862 2.527521
00000000: 7ac0 813f 95a4 28bf 13fe 593f 9dc8 c43f
00000010: d86a 64bd d1c0 7e3e b84d b93f ec75 68bf
00000020: 76b1 4cbe d455 77be 88e1 fabd dad9 4a3e
00000030: 0772 5dbd f0ab 5bbd f679 69be 062f 53bd
00000040: f9ac a93e f117 c93f 6ac7 7abe a6a6 70bf
00000050: 7759 98bf 80a8 63bd d828 603e b695 a9bf
00000060: f71d c23d 6bea 703a f5c0 dd3e 2c63 ff3e
00000070: 550f a3bd 5900 75bd 915a c8bd 2e7f 903d
00000080: f0b0 cfbc b253 36bd 900a 1d40 780f 0cbd
00000090: 0134 d1be 5120 be3f fa9c bc3a 73d6 0840
000000a0: 10dd 243e 4856 ab3f 75bf 4bbf 3d30 15bc
000000b0: b8b3 b43a c555 7dbd 360b 203d 4460 f4be
000000c0: b42a 013e 882f d63d cece 83bd 511b 913f
000000d0: 3822 85be 9f4e febe 6157 743f 31f0 c83e
000000e0: e010 823f 5045 24bf 13fc a33f 10a7 c93e
000000f0: cd83 e23e 34f1 66bd 8cfc 003e 40d7 033d
00000100: a5f9 75be 668f 853c 6cac 583d 6217 14be
00000110: 69bd bc3f f5cb d0be a5f5 993f b551 293f
00000120: f4e1 abbd befc c3be b5df ba3e d2d3 61be
00000130: ada7 1f3d 88d3 9e3e 10b3 f4be 4b4d 163e
00000140: 29ad abbc 3e0b 21bf cba6 bf3d 0eba e2bd
00000150: 3848 603c 3f60 86bf cf6d 8e3e 049f 423e
00000160: a81d 383e c328 1ebf 5083 cebf 0bda 83be
00000170: be23 76bd 8b1a 91be 8e91 aebe 0798 8f3e
00000180: 97df e83d a5b8 2d3d 581c f23d 93c5 1bbe
00000190: 4be4 cbbc b89b 6fbd 36ab a13d 08eb 213f
000001a0: 777f 00bf 0830 c4be 7815 90be 370f 50bf
000001b0: 2b1d 8bbe af75 dfbd 0a57 f33d a7a8 b43e
000001c0: a9ca 153e a27f 94bc b4d9 543d 637c a53d
000001d0: 1838 a13d 3860 9a3c 4241 14bd a67e 853f
000001e0: 969a 80be 45de 213f a3e7 18be e876 f6be
000001f0: 2f74 893e 5006 923f 0206 283f 0087 b63e
00000200: ff35 5ebf dc35 483f 3ce1 82bb 3f3b 91bd
00000210: 3b02 663e bd74 85be c84f 893e fd8c 92bd
00000220: a0be 7c3f f101 d03e c237 b2bf 7acc 65be
00000230: 4abc c1be 4dcf 573f ebab cc3e 6037 71bf
00000240: c2f1 c3be f3ed 043e ba8a f43e f7cc 763e
00000250: 0c2e 3fbd 2307 85be 7e2a b8bd ef3c 66bd
00000260: 4652 4c3e 75f2 a93f 3cd3 c9be 5d62 5b3e
00000270: f5cf 23be aa22 703e 7cba 993f cdea cb3f
00000280: 8291 9e3e 910f 68bf e145 52bf b60c 723e
00000290: af1a c63d a53d d43d b6dc 40be 9ffd c73d
000002a0: d8e4 5f3d 4b66 3dbd 4af3 ce3e 6768 4abe
000002b0: 3a4c 6a3f e978 743f 0ca1 013f f6d4 bebe
000002c0: 7e18 5dbf a9ef 083f bbe7 aebe b302 f83d
000002d0: 85fd 06be 44fa 6c3e 79e9 4e3e d199 25be
000002e0: 50c2 19be 8f5f 853e 4ca8 363d 6773 d63e
000002f0: 6f61 16bf 3a58 afbf a0e4 843e 8742 9ebc
00000300: fd1d 43bf d7ef 3f3f 7684 153f a004 e13d
00000310: 408c 223f fa3e 003e c49d ecbd 3552 d0bc
00000320: dc5a ecbd d62f 36be 6267 dbbb 9488 21be
00000330: 0160 dd3f d65f 6fbe c6b9 63be bd79 d93e
00000340: 3c15 1ebf 05c8 31be 0c05 673e 8a0b 6b3f
00000350: ca26 1bbe 5ed7 103e 9090 023e f6bc 803d
00000360: 000e 4e3e 5ce0 233d a052 76be 5670 903e
00000370: c2a9 abbe 902a 0fbf 2db3 1a3f 681d e2be
00000380: a263 163f ef68 33be f569 793f beb7 783e
00000390: 4d4e 0f3f 372e 24be 5d68 aebe f473 d2bc
000003a0: d0e4 e13c 7990 4e3d 0d0f 35be cef0 613c
000003b0: d64b 7f3d 3a79 2fbc 419d 3340 8994 dabe
000003c0: 2d77 ad3d f5f8 7b3e 6003 3abe 65cd 1cbe
000003d0: 00ea bb3e 1208 183f 0605 86bf d637 f93e
000003e0: 3b7e 4f3e 9037 053f a22a 40be 19b1 4ebe
000003f0: c238 903e 8d90 abbc a490 63bd e7c2 2140

mu.0.bias f4 [128]
-1.4613934 -0.49434128 -0.9623178 -1.3582237 -1.6045569 -0.3804042 -1.0962032 -1.2066525
-0.8815477 -1.4682341 -1.7862613 -1.3541816 -1.8546972 -1.7572721 -1.1261415 -0.42012462
-1.8394176 -1.2460563 -0.9973583 -0.95358914 -1.4358482 -1.1230558 -0.14483392 -1.3934754
-0.40599385 -1.541208 -0.37019458 -1.0558938 0.116519235 -0.6641397 -1.262448 -1.3305949
-0.2832698 -0.41878453 -0.643459 -2.052963 -0.54563123 -0.34295696 0.20515417 -0.77162117
-0.19605057 -0.5554679 -1.3759316 -1.9509463 -1.5325053 -0.6389932 -0.3193013 -2.5517023
-0.6844542 -1.4514611 -1.3395959 -0.96135557 -1.4995344 -1.1320015 -0.09139664 0.14241515
-0.3009388 -1.6298532 -0.95907456 -1.5879711 -2.073451 0.117176145 0.6831539 -0.8794374
-0.9902679 -1.6315359 -1.7101219 0.11852892 -1.2360888 -1.7651261 -0.9203499 -1.8586631
-1.4313388 -1.5991715 -1.5593703 -0.7927713 -1.7670863 -1.4010197 -0.69020325 -0.83172244
-1.7046571 -0.5454382 -0.37974784 0.5698381 -1.2116951 -1.0906934 0.060926937 0.5650056
-1.2401589 -0.44624892 -0.9010829 0.06526064 -2.6150982 0.11073802 -1.238754 1.0704054
-0.7898973 -0.5068896 -1.1605474 -0.93602014 -0.9768796 -1.147022 -2.1203914 0.14772417
-0.88694644 -0.9127541 -1.083295 -1.742247 -1.0126853 -0.06664475 -1.5115778 0.03705627
-1.1153555 -1.5041898 -0.17428474 -0.9742706 -1.043315 0.07103498 -0.83516467 -0.12731758
-1.4248676 -0.65856975 -1.3270885 -0.6187939 0.16560532 -1.7496654 -0.84513134 -1.9774971
00000000: f00e bbbf 4d1a fdbe 765a 76bf 46da adbf
00000010: 1f62 cdbf 57c4 c2be 6350 8cbf 9773 9abf
00000020: 1cad 61bf 18ef bbbf 36a4 e4bf d355 adbf
00000030: b866 edbf 4bee e0bf 6825 90bf 931a d7be
00000040: 0972 ebbf c67e 9fbf e052 7fbf 6b1e 74bf
00000050: e0c9 b7bf 4bc0 8fbf 584f 14be 675d b2bf
00000060: 6dde cfbe 4e46 c5bf 258a bdbe 8727 87bf
00000070: a3a1 ee3d 0f05 2abf e597 a1bf ef50 aabf
00000080: bd08 91be ed6a d6be bbb9 24bf bf63 03c0
00000090: 7dae 0bbf 0e98 afbe ef13 523e f788 45bf
000000a0: 7bc1 48be 2533 0ebf 871e b0bf 9cb8 f9bf
000000b0: 2229 c4bf 0f95 23bf 767b a3be 174f 23c0
000000c0: 6438 2fbf 7ac9 b9bf e177 abbf 661b 76bf
000000d0: bef0 bfbf 6de5 90bf 292e bbbd 47d5 113e
000000e0: a714 9abe 089f d0bf e985 75bf a342 cbbf
000000f0: 6cb3 04c0 0cfa ef3d 2de3 2e3f cf22 61bf
00000100: 3282 7dbf 2bd6 d0bf 46e5 dabf 4abf f23d
00000110: 2838 9ebf a7ef e1bf 0d9c 6bbf ace8 edbf
00000120: 1c36 b7bf a7b1 ccbf 7299 c7bf 0ff3 4abf
00000130: e22f e2bf 9d54 b3bf 29b1 30bf c3eb 54bf
00000140: 3432 dabf d6a1 0bbf 4f6e c2be e9e0 113f
00000150: d318 9bbf d79b 8bbf 868e 793d 35a4 103f
00000160: 87bd 9ebf bd7a e4be 5ead 66bf 5fa7 853d
00000170: c55d 27c0 9dca e23d 7e8f 9ebf 0b03 893f
00000180: b636 4abf 84c3 01bf d18c 94bf 049f 6fbf
00000190: c814 7abf 9ed1 92bf 7eb4 07c0 0145 173e
000001a0: ec0e 63bf 41aa 69bf 69a9 8abf f301 dfbf
000001b0: ac9f 81bf 0b7d 88bd 627b c1bf 51c8 173d
000001c0: f8c3 8ebf 4b89 c0bf b377 32be cc69 79bf
000001d0: 598b 85bf ca7a 913d 5acd 55bf 8a5f 02be
000001e0: 1062 b6bf 0798 28bf 09de a9bf 4769 1ebf
000001f0: 7194 293e 09f5 dfbf 875a 58bf a01e fdbf

mu.2.weight f4 [12, 128]
0.11528852 -0.16485544 1.3020995 -0.34486866 0.49502257 0.06844734 0.09814622 -0.10886675
0.16164488 -0.2197575 0.08955205 0.12531675 -0.3061562 -0.41158843 -0.38902187 -0.22500548
0.7624445 0.04849282 0.46135503 -0.6730408 -0.48864204 -0.60260516 -0.24514182 0.042228423
0.26899824 0.6701491 0.20003763 -0.41541678 -0.16892546 0.07581635 -0.33327353 0.13221687
0.14909345 0.10668762 -0.0390623 0.4444102 0.6598765 0.03732893 -0.13799027 0.06280524
0.029368104 0.0963458 -0.7929014 0.067849524 -0.23487625 0.04976363 -0.11653755 1.0513079
0.011613472 0.07572039 -0.021099018 0.13051964 0.14884385 0.018643353 0.3202314 0.13825494
-0.3729506 -0.6303056 0.0889839 -0.27895918 -0.003336794 0.47655493 -0.08249565 0.08537512
-0.34273282 -0.6516777 0.50404674 -0.33333176 -0.03629984 -0.20014477 0.046374384 0.426904
0.5232684 0.72452635 0.3189424 -0.3317229 -0.6126676 -0.32012412 0.50930756 -0.13630827
0.6558572 0.2240538 0.23309137 -0.3353096 -0.10599204 0.6433402 -0.24672489 0.24708757
-0.61933315 -0.046584737 -0.44520983 0.043352835 -1.1783934 -0.28518894 0.3719343 -0.57718307
-0.15809473 0.07555659 -0.21262446 0.14177161 0.136464 -0.12914295 -0.16365385 0.31138957
0.0033286018 -1.3119786 0.0064682504 -0.5655597 0.16684859 0.02103218 -0.12683648 0.1074311
0.225972 0.8838504 -0.014862022 0.099135175 0.01891231 -0.13261886 0.43674067 0.2833061
-0.046203192 -0.2232743 0.7978864 0.2071656 0.10409891 -0.3501716 0.13139255 0.5241736
-0.092284486 -0.46256426 -2.452478 0.6548011 -0.59110063 -0.21211237 0.1829949 -0.12566836
0.140521 0.117626235 -0.52288234 -0.7484213 -0.29578304 0.26579818 0.24980175 -0.5108059
0.3138534 0.46066725 -1.7884979 0.42493737 0.17824532 0.10514793 -0.14184763 -1.266086
-0.44635293 -0.96312916 -0.048359275 0.3094531 0.27938485 -0.019585479 -0.36216474 0.32454094
0.16818807 -0.9026399 -0.107991055 -0.9449331 -1.427201 -0.038321365 -0.40605587 -0.13594939
0.48174953 -1.0222893 2.0424612 1.2059402 -0.10089522 -0.17899527 0.08623703 0.6413898
-0.46322203 -0.26299357 1.7054291 -0.5634428 -0.7304278 0.14186087 -1.0175207 -0.3105038
0.41365734 0.06147919 -0.48546436 -0.34359843 -0.78401566 -0.1094079 0.20660152 0.575731
-0.6267225 1.0838567 0.35240006 0.24992776 -0.3802721 0.35859704 -0.5291192 0.34653568
-0.11429509 -0.13549003 1.3211067 1.3357829 0.0007524387 0.12730576 -0.77778286 -0.12601995
-0.2455272 -0.23194608 -0.26197222 0.0028811272 -0.040547498 -2.1078825 -0.1998809 0.23225583
0.23661776 -0.029809343 0.7952872 -0.25750217 -1.4892993 0.15728903 0.0035548834 1.1001581
-1.1731414 0.27228788 0.01810404 -0.75757664 0.25424224 0.2549451 0.16387276 -0.062058706
-1.2225249 3.3242562 0.075823516 -0.09556238 -0.390509 0.272029 0.3351275 0.21832569
-0.19646263 -0.52516145 0.90269405 0.17906351 -0.10844227 0.42736694 -0.2761222 -0.53709185
1.1296422 0.96668625 0.18658994 0.08145202 0.04936463 -0.64461064 0.11675791 -0.37642738
00000000: 631c ec3d ddcf 28be 32ab a63f a092 b0be
00000010: 9973 fd3e 1e2e 8c3d e300 c93d 88f5 debd
00000020: 3c86 253e 1c08 61be 1167 b73d 0953 003e
00000030: 81c0 9cbe b8bb d2be e02d c7be d667 66be
00000040: 902f 433f 68a0 463d ba36 ec3e 674c 2cbf
00000050: 4a2f fabe 5544 1abf 7506 7bbe b6f7 2c3d
00000060: 23ba 893e e48e 2b3f aad6 4c3e 82b1 d4be
00000070: ccfa 2cbe 9a45 9b3d d4a2 aabe dc63 073e
00000080: f4ab 183e 0a7f da3d caff 1fbd bc89 e33e
00000090: abed 283f 38e6 183d 524d 0dbe 09a0 803d
000000a0: 6195 f03c f250 c53d 96fb 4abf b1f4 8a3d
000000b0: 6683 70be f3d4 4b3d 3dab eebd 4291 863f
000000c0: 6f46 3e3c 4b13 9b3d d9d7 acbc f1a6 053e
000000d0: 866a 183e f2b9 983c 5ff5 a33e b492 0d3e
000000e0: 62f3 bebe b55b 21bf 313d b63d bdd3 8ebe
000000f0: 1dae 5abb 02ff f33e 7bf3 a8bd 27d9 ae3d
00000100: ad7a afbe 5ad4 26bf 3509 013f 76aa aabe
00000110: 24af 14bd c0f2 4cbe 11f3 3d3d 2993 da3e
00000120: ebf4 053f 8f7a 393f 6b4c a33e 95d7 a9be
00000130: c9d7 1cbf 4fe7 a3be fb61 023f 6594 0bbe
00000140: 42e6 273f 5c6e 653e 81af 6e3e b3ad abbe
00000150: 5b12 d9bd f1b1 243f 73a5 7cbe 8604 7d3e
00000160: 9e8c 1ebf a3cf 3ebd 8bf2 e3be be92 313d
00000170: 98d5 96bf 4904 92be 2c6e be3e 45c2 13bf
00000180: 96e3 21be 6abd 9a3d 3aba 59be 942c 113e
00000190: 38bd 0b3e 0d3e 04be e094 27be 746e 9f3e
000001a0: ac24 5a3b eaee a7bf 9ef3 d33b 85c8 10bf
000001b0: 5bda 2a3e ae4b ac3c 6ce1 01be d604 dc3d
000001c0: 3465 673e 0544 623f d77f 73bc 6207 cb3d
000001d0: fded 9a3c 3dcd 07be 799c df3e 7f0d 913e
000001e0: 8f3f 3dbd 05a2 64be 4842 4c3f 3823 543e
000001f0: cf31 d53d b149 b3be c58b 063e 3e30 063f
00000200: a6ff bcbd 39d5 ecbe 66f5 1cc0 0ba1 273f
00000210: 5f52 17bf fc33 59be 0463 3b3e 35af 00be
00000220: bde4 0f3e 06e6 f03d 9edb 05bf 8a98 3fbf
00000230: e070 97be b316 883e 08cc 7f3e 2dc4 02bf
00000240: 65b1 a03e 94dc eb3e 80ed e4bf 6491 d93e
00000250: f185 363e cc57 d73d 8140 11be 1b0f a2bf
00000260: 5f88 e4be a28f 76bf 6014 46bd a370 9e3e
00000270: 880b 8f3e ba71 a0bc a86d b9be 3b2a a63e
00000280: 7e39 2c3e 6913 67bf 6a2a ddbd 23e7 71bf
00000290: 86ae b6bf ddf6 1cbd 8ee6 cfbe 5136 0bbe
000002a0: e0a7 f63e 60da 82bf afb7 0240 405c 9a3f
000002b0: 27a2 cebd 894a 37be 0a9d b03d 1f32 243f
000002c0: 702b edbe 18a7 86be 804b da3f ca3d 10bf
000002d0: 51fd 3abf fa43 113e 1e3e 82bf 5bfa 9ebe
000002e0: e5ca d33e 9ad1 7b3d c98e f8be 22ec afbe
000002f0: 40b5 48bf 4011 e0bd 598f 533e 1b63 133f
00000300: e370 20bf d1bb 8a3f c86d b43e 10ed 7f3e
00000310: 06b3 c2be 089a b73e 5b74 07bf 206d b13e
00000320: 8b13 eabd e6bd 0abe 061a a93f effa aa3f
00000330: 4e3f 453a 715c 023e c71c 47bf 600b 01be
00000340: 7b6b 7bbe 4683 6dbe 3921 86be 4bd1 3c3b
00000350: 2215 26bd 8ce7 06c0 94ad 4cbe 79d4 6d3e
00000360: ed4b 723e b932 f4bc f197 4b3f 53d7 83be
00000370: 5ca1 bebf 6010 213e 0cf9 683b fbd1 8c3f
00000380: 7f29 96bf 5169 8b3e ec4e 943c 8bf0 41bf
00000390: 0a2c 823e 2a88 823e 43ce 273e 4531 7ebd
000003a0: b27b 9cbf 9dc0 5440 5c49 9b3d 36b6 c3bd
000003b0: ccf0 c7be 6347 8b3e d595 ab3e c590 5f3e
000003c0: 802d 49be fb70 06bf f516 673f 6d5c 373e
000003d0: fb16 debd d7cf da3e e45f 8dbe da7e 09bf
000003e0: 1e98 903f c078 773f 6f11 3f3e 51d0 a63d
000003f0: 9132 4a3d 3405 25bf c51e ef3d 17bb c0be

mu.2.bias f4 [12]
-0.014376511 0.013344419 0.3687412 0.28293747 -0.09014316 0.10914146 -1.3783319 -1.2636522
-1.1782683 -1.8763157 -1.3271028 -1.3374925
00000000: 758b 6bbc 8da2 5a3c a6cb bc3e 2edd 903e
00000010: fa9c b8bd 8f85 df3d 2e6d b0bf 5bbf a1bf
00000020: 7fd1 96bf 1d2b f0bf 81de a9bf f432 abbf
