data/mpc_stoch/PendulumEnv/seed_313/model_10000.pt (torch, 175762 bytes, 10 tensors)

log_std f4 [1, 3]
0	0xc0a6604f	-5.1992564
1	0xc0a60f5e	-5.189376
2	0xc08e2349	-4.4418073

mu.0.weight f4 [200, 4]
0	0xbe3cad77	-0.18425547
1	0x3ed42c9e	0.4144029
2	0x3df1c90e	0.11805926
3	0x3d0a4169	0.033753786
4	0xbeae6495	-0.34061113
5	0x3f1a0138	0.6015811
6	0xbe39ea5d	-0.18155809
7	0xbd6520aa	-0.055939354
8	0x3b184de5	0.0023239788
9	0x3c343849	0.010999748
10	0x3b7bb50b	0.003840747
11	0xbca95a37	-0.0206729
12	0x3e50deaf	0.20397447
13	0x3de59a9f	0.11211132
14	0x3bb0aebd	0.005391924
15	0xbd983bfb	-0.07433315
16	0x3eaa6e66	0.33287352
17	0xbdecd1a7	-0.115634255
18	0xbc5f3a32	-0.013624715
19	0x3d99448c	0.074837774
20	0xbdc2ac0d	-0.09505472
21	0x3eabe9c6	0.33576792
22	0xbd0d3d3b	-0.034482222
23	0x3ef40463	0.47659597
24	0xbd016167	-0.03158703
25	0xbe499530	-0.19685817
26	0x3bf0d673	0.007349783
27	0xbda9be02	-0.08288194
28	0x3f1325df	0.5747966
29	0xbf1ee1b5	-0.6206315
30	0x3e3407b7	0.17581068
31	0x3d37dc85	0.04488804
32	0xbe231c3a	-0.15928736
33	0x3e977cfa	0.29587537
34	0xbd2dd4d1	-0.042439286
35	0x3cd1f6fe	0.02563047
36	0x3e10a3cc	0.14124984
37	0x3f1cfa2e	0.61319244
38	0x3e110595	0.14162286
39	0x3ca9ce52	0.020728264
40	0x3ce357c4	0.02775181
41	0x3e14ea9f	0.14542626
42	0xbb24a8d1	-0.0025125036
43	0x3cb506c2	0.022097949
44	0xbe43fea9	-0.19140114
45	0xbd2f90e0	-0.042862773
46	0xbc2cd18a	-0.010548005
47	0x3e4126bc	0.18862432
48	0xbcb1a096	-0.021683019
49	0x3bdf8e23	0.006822364
50	0xbc07e471	-0.008294211
51	0x3d3951f1	0.04524416
52	0xbf58c754	-0.8467915
53	0xbf0d1e5e	-0.5512446
54	0xbe1768c3	-0.14786057
55	0xbd6c568d	-0.05769973
56	0x3da90960	0.08253741
57	0xb6942f8e	-4.41628e-06
58	0xbbc0e353	-0.005886474
59	0x3d87cc4a	0.06630762
60	0x3ee2dfa9	0.44311264
61	0xbe952d44	-0.29136097
62	0xbe95c75a	-0.29253656
63	0xbdf49576	-0.1194257
64	0xbee1f642	-0.44133192
65	0xbed1f8c8	-0.41010118
66	0x3e19687f	0.14981268
67	0x3d0fe299	0.03512821
68	0xbe98b5bf	-0.2982616
69	0xbe959c99	-0.29221037
70	0x3e1d4b2b	0.15360706
71	0xbb8a05b0	-0.004212104
72	0xbc922ea5	-0.017844507
73	0xbd054002	-0.032531746
74	0x3bf4379e	0.007452919
75	0xbdb3a6d2	-0.08772053
76	0x3a271ad8	0.00063745445
77	0x3d514c7f	0.051098343
78	0xbc3821a5	-0.01123849
79	0x3ddb11e9	0.106967755
80	0x3f1f602e	0.62256134
81	0xbef67805	-0.48138443
82	0x3e564157	0.20923363
83	0x3d9790bc	0.07400653
84	0x3efaf520	0.4901514
85	0xbebecd9b	-0.3726624
86	0x3e4965bc	0.19667715
87	0x3d370431	0.04468173
88	0x3eed55fa	0.46354657
89	0x3f28d8dc	0.659559
90	0x3d8bed6b	0.06832393
91	0x3b3552c0	0.002766773
92	0x3f08885a	0.53333056
93	0x3e15afa7	0.14617787
94	0xbe2ca766	-0.16860732
95	0xbd66c29e	-0.056337945
96	0x3ef2bad1	0.47408155
97	0x3f24fa0a	0.6444403
98	0xbe0a9702	-0.13534167
99	0xbcc00d8a	-0.023443956
100	0x3e77c54e	0.2419636
101	0x3f0484e3	0.5176527
102	0x3d0989a8	0.033578545
103	0xbe83160a	-0.25602752
104	0x3d0ec33e	0.034854166
105	0x3d640c82	0.05567599
106	0xbb454dcd	-0.0030106187
107	0x3d3dd271	0.04634327
108	0x3f6ed03b	0.93286484
109	0x3dc82b23	0.09773853
110	0x3e21b144	0.15790278
111	0x3d21ea68	0.039530188
112	0x3f45075a	0.7696434
113	0xbe22d50c	-0.15901583
114	0xbd88d697	-0.06681555
115	0x3cc50972	0.024052355
116	0x3f295d95	0.6615842
117	0xbe88fb80	-0.2675438
118	0xbe3ef695	-0.18648751
119	0xbc8c67d9	-0.017139362
120	0x3ea48eae	0.32140106
121	0xbe819855	-0.25311533
122	0xbc813d86	-0.015776407
123	0x3f3f4c8c	0.74726176
124	0x3d191416	0.03737267
125	0xbd770175	-0.060304124
126	0xbc34c264	-0.011032674
127	0x3e27657b	0.16347305
128	0x3e805129	0.2506192
129	0x3f30b293	0.6902248
130	0xbb3bb7de	-0.002864353
131	0x3ca863e1	0.020555438
132	0xbe518c93	-0.20463781
133	0xbdf89f88	-0.12139803
134	0x3e29a661	0.16567375
135	0x3d8fc8c9	0.070207186
136	0x3d6a0732	0.05713577
137	0xbd5b22d4	-0.05350001
138	0xbbfc46c5	-0.007698866
139	0x3cee7c8f	0.029112129
140	0x3f583788	0.84459734
141	0x3e0af09f	0.13568352
142	0x3e08f199	0.13373412
143	0x3d42ab89	0.04752687
144	0x3c33e485	0.010979776
145	0xbdeda807	-0.11604314
146	0x3cf4fea4	0.029906578
147	0xbea96a33	-0.33088836
148	0x3cd2022e	0.025635805
149	0x3c00e0f0	0.007866129
150	0xbc844821	-0.016147675
151	0x3de9a48e	0.114083394
152	0x3f2ef84e	0.6834763
153	0x3ec6d9ac	0.38837945
154	0x3e47d55a	0.19514981
155	0x3d9b0084	0.07568458
156	0x3e92374b	0.2855781
157	0x3d6d205f	0.0578922
158	0x398c6d9d	0.0002678455
159	0x3d87b46d	0.0662621
160	0x3c9caa27	0.019124104
161	0xbd9e8ea6	-0.07742052
162	0xbba6c246	-0.005089077
163	0xbe6f5628	-0.2337271
164	0x3ee61680	0.4493904
165	0x3e95596b	0.29169783
166	0x3ddeba73	0.10875406
167	0x3dbc9dab	0.0920976
168	0x3f0eaf8d	0.5573662
169	0xbf4dc7d6	-0.8038305
170	0xbdb8751e	-0.09006713
171	0xbcac6e7d	-0.021048779
172	0x3e185ddc	0.14879555
173	0xbd271914	-0.0407954
174	0x3b46d141	0.0030337127
175	0x3e1d5dc4	0.153678
176	0xbcbd336f	-0.023095815
177	0xbc2d8b4b	-0.010592292
178	0x3b4ade41	0.0030955228
179	0xbcaad3e4	-0.02085299
180	0xbeb1f341	-0.347559
181	0x3e4d9399	0.20075835
182	0x3e33494f	0.17508434
183	0x3d35210b	0.044220965
184	0x3f554e3e	0.83322513
185	0x3ce77f2c	0.028258882
186	0x3d6337dc	0.055473194
187	0xbbd19599	-0.0063960073
188	0x3f177c06	0.5917362
189	0x3f0676bd	0.5252493
190	0xbe4bf83a	-0.1991891
191	0xbdc6a484	-0.096993476
192	0x3ea94307	0.3305895
193	0x3f5f1a01	0.87149054
194	0x3db01dd2	0.08599438
195	0x3d6bceb7	0.057570186
196	0xbdaf278a	-0.08552463
197	0xbd55527b	-0.052080613
198	0xb90ee620	-0.00013627904
199	0x3cbf9795	0.02338771
200	0x3c857c10	0.01629451
201	0xbebc2cf1	-0.36753038
202	0xbc2b21a7	-0.010445035
203	0x3da91194	0.08255306
204	0xbc2f583a	-0.010702187
205	0x3c46a9d2	0.012125449
206	0x3b61531d	0.0034381815
207	0xbd0b7097	-0.03404292
208	0x3ea7252c	0.32645547
209	0x3d9667cd	0.07344017
210	0xbbb2c91e	-0.005456104
211	0x3cd0e08b	0.025497695
212	0x3b43659c	0.0029815203
213	0xbd8d338d	-0.06894598
214	0xbc2a6bbb	-0.0104016615
215	0x3e2a3070	0.1662004
216	0x3c400f34	0.011722375
217	0xbce4355a	-0.027857471
218	0xbcb61f19	-0.022231625
219	0xbd453282	-0.04814387
220	0x3dd200bf	0.102540486
221	0xbce1a7ca	-0.027545828
222	0xbc0aceb9	-0.008472138
223	0x3cb1dd43	0.021711951
224	0x3d9924db	0.07477733
225	0xbd3204f0	-0.04346174
226	0xbbb3714b	-0.005476152
227	0xbd832ca2	-0.064049974
228	0x3e9302de	0.28713125
229	0xbe65698a	-0.22403541
230	0xbd440ef3	-0.04786582
231	0x3e3ad207	0.18244182
232	0xbf3c3933	-0.7352478
233	0x3ea5bc06	0.32370013
234	0x3e1ca88d	0.15298672
235	0x3da47cb8	0.08031601
236	0xbcf0c2cd	-0.029389763
237	0xbcf35f51	-0.029708536
238	0xbd023c59	-0.031795833
239	0xbcddc8b0	-0.027073234
240	0x3e06066f	0.13088392
241	0xbd8163ff	-0.06317901
242	0x3dad83d1	0.084724076
243	0xbd10c0d6	-0.035340153
244	0x3e6f4d8a	0.23369423
245	0x3f29843a	0.66217387
246	0x3e013806	0.12619027
247	0x3dacedb5	0.084437765
248	0xbf3b5a0f	-0.73184294
249	0xbd138e13	-0.036024164
250	0xbe4ce544	-0.20009333
251	0xbd6c3098	-0.05766353
252	0x3c4ee3fe	0.0126276
253	0x3f47f6a3	0.7811071
254	0x3d8363be	0.06415509
255	0x3cd472ca	0.025933642

mu.0.bias f4 [200]
0	0xbe82ab75	-0.25521436
1	0xbea76ad7	-0.326987
2	0xbd3871d4	-0.04503043
3	0xbe9e5ed4	-0.30931723
4	0xbef5593b	-0.4791964
5	0xbf5a7634	-0.85336614
6	0xbea402d6	-0.32033414
7	0xbeab0ceb	-0.33408293
8	0x3e81425f	0.2524595
9	0xbf4eda00	-0.8080139
10	0xbe355ab0	-0.17710376
11	0xbf04c9ca	-0.51870406
12	0xbe09596f	-0.13413022
13	0xbf1bfb38	-0.60930204
14	0xbe4780b3	-0.19482689
15	0xbff9fd13	-1.9530357
16	0xbdb1ae0d	-0.08675776
17	0xbec9addf	-0.39390466
18	0xbe2413b3	-0.1602314
19	0xbd896004	-0.06707767
20	0xbf52001e	-0.8203143
21	0xbf915575	-1.1354204
22	0xbf00b0c2	-0.5026971
23	0xbf9522e4	-1.1651273
24	0x3e85b8ac	0.26117456
25	0xbf6c4c42	-0.9230386
26	0xbe195989	-0.14975561
27	0xbf95aeb5	-1.1693941
28	0xbf1f70f3	-0.6228172
29	0xbfa641b5	-1.2988802
30	0xbf8879e9	-1.0662204
31	0xbea599cc	-0.323439
32	0x3e938d2b	0.2881864
33	0xbf5613f8	-0.8362422
34	0xbdfb3325	-0.122656144
35	0xbf45b5d5	-0.7723058
36	0xbed2a871	-0.41144136
37	0xbe7bf66c	-0.24605721
38	0xbfad2d76	-1.3529499
39	0xbeb0e6a4	-0.34550965
40	0xbf0cde0a	-0.55026305
41	0xbddf5da9	-0.10906536
42	0x3ee65136	0.44983834
43	0xbeeaa531	-0.45829156
44	0xbd834be5	-0.0641096
45	0xbf6ff739	-0.93736607
46	0xbedecb82	-0.4351464
47	0xbf95fcc6	-1.1717765
48	0xbf0b497a	-0.5440899
49	0xbe1c91f2	-0.15290049
50	0x3d1429a0	0.03617251
51	0xbd62a46a	-0.05533258
52	0xbec2a93c	-0.3801974
53	0xbe9ad1e5	-0.30238262
54	0xbe9a9ff4	-0.3020016
55	0xbe178e73	-0.14800434
56	0xbeb71b90	-0.35763216
57	0xbf25b76a	-0.6473299
58	0xbf21cbe3	-0.6320173
59	0xbeb9fc43	-0.36325273
60	0xbf278732	-0.65440667
61	0xbf84b58e	-1.0367906
62	0xbf26839e	-0.6504458
63	0xbed53228	-0.4163983
64	0xbf5fc29e	-0.8740634
65	0xbe4a7a39	-0.19773187
66	0x3e6876c0	0.2270155
67	0xbdb89378	-0.090125024
68	0x3dfc9c27	0.12334471
69	0xbe848f7c	-0.2589072
70	0xbe815546	-0.2526037
71	0xbf91c9af	-1.1389674
72	0xbe5d72a0	-0.21625757
73	0xbec68cab	-0.38779196
74	0xbe4663c2	-0.19373992
75	0xbe5a3bd6	-0.21311888
76	0xbf2b7dc4	-0.6698878
77	0xbf51084f	-0.816533
78	0xbe2db871	-0.1696489
79	0xbda78bf9	-0.081809945
80	0xbe0d1222	-0.13776448
81	0xbe10ebe4	-0.14152485
82	0xbd84959d	-0.06473849
83	0xbee91a8e	-0.45528072
84	0x3e3615e3	0.17781787
85	0xbde97f43	-0.11401226
86	0xbe720609	-0.23635115
87	0xbf5862ea	-0.8452593
88	0xbd6654c1	-0.05623317
89	0xbf197ec2	-0.5995904
90	0xbf0b4e94	-0.54416776
91	0xbe28380a	-0.16427627
92	0xbe3c05d0	-0.18361592
93	0xbd9671df	-0.07345938
94	0xbecda0ea	-0.4016183
95	0xbf59ed93	-0.85128134
96	0xbf42ec7a	-0.76142085
97	0xbf02ec03	-0.51141375
98	0x3f176cda	0.5915047
99	0xbb9019ad	-0.004397592
100	0x3cedaf3b	0.02901422
101	0xbd12a181	-0.035798553
102	0xbf58f0af	-0.84742254
103	0xbe037ba9	-0.12840141
104	0xbfffeb03	-1.9993595
105	0x3d476568	0.048680693
106	0xbe8c0c56	-0.27353162
107	0xbe849983	-0.2589837
108	0xbf3c7939	-0.7362247
109	0xbe03569a	-0.12826005
110	0xbf0daadc	-0.55338836
111	0x3e63332f	0.22187494
112	0xbf619e32	-0.8813201
113	0x3dc1116a	0.094271496
114	0xbdeb84e2	-0.11499955
115	0xbd848a73	-0.064717196
116	0xbef6c5b0	-0.481977
117	0xbe9c1dd8	-0.3049152
118	0x3e730b59	0.23734798
119	0xbebb0145	-0.36524406
120	0xbecaf6cb	-0.39641413
121	0xbdcecfa5	-0.10098199
122	0xbd90ba4b	-0.070667826
123	0xbc4077dd	-0.011747328
124	0xbf47c579	-0.78035694
125	0xbe3d983d	-0.18515106
126	0xbdd53421	-0.104103334
127	0xbdc83a84	-0.09776786
128	0xbf9ed47e	-1.2408597
129	0xbf2b4230	-0.6689787
130	0xbeeeee8a	-0.46666366
131	0xbebe3d78	-0.37156272
132	0xbee146aa	-0.43999225
133	0x3e4587ea	0.19290128
134	0xbe669a16	-0.22519717
135	0xbd0ccf1d	-0.034377206
136	0xbf0fc6f6	-0.56162965
137	0xbf09888e	-0.5372399
138	0xbe31cf7e	-0.17364308
139	0xbf6d7933	-0.9276306
140	0xbf37e503	-0.7183382
141	0xbf1de24c	-0.61673427
142	0xbe84ec86	-0.25961703
143	0xbd954e85	-0.07290367
144	0xbf1a6ced	-0.6032246
145	0xbda01a52	-0.0781752
146	0xbf62dfb2	-0.8862258
147	0xbe2557f5	-0.16146834
148	0x3d32423e	0.043520205
149	0xbed035a6	-0.4066593
150	0xbf670a98	-0.9025054
151	0xbd09df80	-0.03366041
152	0xbdbe23ef	-0.092841975
153	0xbed70faa	-0.42004138
154	0xbaf7aa50	-0.0018895362
155	0x3d0bbc57	0.03411516
156	0xbf1e1747	-0.6175427
157	0xbf1560e7	-0.58350986
158	0xbf2178cb	-0.6307494
159	0x3e91f401	0.28506473
160	0xbf89c80a	-1.0764172
161	0x3e4dedbd	0.20110221
162	0xbda998fd	-0.08281133
163	0x3bb86c14	0.0056281183
164	0x3e38ff3b	0.18066113
165	0xbaad4876	-0.0013220448
166	0xbe56ee8f	-0.2098944
167	0x3d975a23	0.07390239
168	0xbed9b98a	-0.42524368
169	0xbf296b4d	-0.66179353
170	0xbef487d0	-0.47759867
171	0xbdc356f2	-0.09538068
172	0xbf1ff8e3	-0.62489146
173	0xbdddd5c1	-0.10831786
174	0x3eee73e5	0.46572796
175	0xbee28bc4	-0.44247258
176	0xbf069af9	-0.5258022
177	0xbf475036	-0.7785677
178	0xbe208c84	-0.15678602
179	0xbf09998a	-0.53749907
180	0xbe84e232	-0.25953823
181	0xbf613f27	-0.8798699
182	0x3e408ce1	0.18803741
183	0xbdb7de56	-0.08977954
184	0xbe35123d	-0.17682739
185	0xbec5e521	-0.38651374
186	0xbf35aa16	-0.70962656
187	0xbe96d79b	-0.2946137
188	0xbee7b9ce	-0.45258945
189	0xbf86b406	-1.0523689
190	0x3f4cff77	0.8007731
191	0xbda0eb7a	-0.078574136
192	0x3e456c03	0.19279484
193	0xbf6e07f9	-0.92980915
194	0x3d86c3ad	0.06580291
195	0xbf15f67a	-0.5857922
196	0xbf7d89b2	-0.9903823
197	0xbf2ec73f	-0.68272775
198	0x3f08a1f2	0.5337211
199	0xbe4b6195	-0.19861443

mu.2.weight f4 [3, 200]
0	0xbdae5e9d	-0.0851414
1	0x3e539f81	0.20666315
2	0x3ae78108	0.0017662356
3	0x3b09efc8	0.0021047462
4	0x3d0514c1	0.032490496
5	0x3dd2540d	0.10269938
6	0x3ba00b03	0.004884125
7	0x3e08da1f	0.13364457
8	0x3adc50e4	0.0016808775
9	0xbd31f032	-0.04344196
10	0xbb7e69e1	-0.0038820433
11	0xba85df2e	-0.0010213607
12	0x3bb61285	0.005556407
13	0x3e050ed3	0.12993936
14	0x3c5e711f	0.013576775
15	0x3cf4a922	0.029865805
16	0x3e20d45e	0.15706012
17	0x3e009269	0.12555851
18	0x3c2a64f6	0.0104000475
19	0x3b5aa33a	0.003336145
20	0x3c291b35	0.010321428
21	0xbd9fc9af	-0.0780214
22	0xbe180b26	-0.14848003
23	0xbda82dd3	-0.08211865
24	0x3d5411ec	0.051774904
25	0xbd5b85ab	-0.053594273
26	0x3bab5348	0.0052284338
27	0xbe666b43	-0.22501855
28	0xbddec13c	-0.108767
29	0xbe58f6fe	-0.2118797
30	0x3c7743f9	0.01509189
31	0xb9b88c8c	-0.0003519993
32	0xbcab275a	-0.020892788
33	0x3e3f45a0	0.18678904
34	0xbb42621d	-0.002966053
35	0xbe6c3a43	-0.230691
36	0x3d91a005	0.071105994
37	0x3c2cca8d	0.010546339
38	0xbe181f57	-0.14855705
39	0x3bf36cfb	0.007428763
40	0x3cbfb2cd	0.023400689
41	0xbcbbea91	-0.022938998
42	0x3d21cc59	0.03950152
43	0x3ccf0835	0.025272468
44	0xbb0feed8	-0.002196243
45	0x3e623a38	0.22092521
46	0x3d6d68f2	0.05796141
47	0xbcf9a9bd	-0.030476445
48	0xbe88837a	-0.2666281
49	0x3b98b0ff	0.0046597715
50	0xbd005ce5	-0.03133859
51	0xbabbfe48	-0.001434275
52	0x3cff0619	0.031130837
53	0xbd0ab46f	-0.03386348
54	0xbe26593f	-0.16244982
55	0xb90c0c65	-0.00013356058
56	0xbd667d15	-0.05627163
57	0xbd03b162	-0.032151587
58	0x3e322ad0	0.17399144
59	0x3c58ea64	0.013239477
60	0xbc533286	-0.012890464
61	0x3d21e520	0.03952515
62	0x3e696210	0.22791314
63	0xbe211e9c	-0.15734333
64	0x3bd32319	0.006443393
65	0x3d803379	0.06259818
66	0x3ca84458	0.020540401
67	0xbbfd463d	-0.0077293203
68	0x3b1aada7	0.002360204
69	0x3dd58f66	0.10427742
70	0xbbddc2b8	-0.006767597
71	0xbd5a645b	-0.053318363
72	0x3c22dc95	0.009940286
73	0xbbad6d27	-0.005292553
74	0xbc9663d8	-0.018358156
75	0x39a25b51	0.00030967084
76	0xbceaac24	-0.028646536
77	0x3e0ceb33	0.13761596
78	0x3c1ee83b	0.009698923
79	0x3dd2ba44	0.102894336
80	0xbadb05fd	-0.0016710159
81	0x3b598246	0.0033189221
82	0x3addee0c	0.0016931905
83	0xbb8fe2e7	-0.0043910625
84	0x3cf2af01	0.029624464
85	0x3bf70221	0.0075380956
86	0xbc62a9a4	-0.013834391
87	0xbd0f5b32	-0.03499908
88	0x3bbcb9fd	0.005759476
89	0xbe0e0e35	-0.13872607
90	0xbe67dbb7	-0.22642408
91	0xbd2c2d81	-0.042035583
92	0x3be43cbb	0.0069652474
93	0xbb061534	-0.0020459415
94	0xbb31bf18	-0.0027121957
95	0x3dc337f5	0.09532157
96	0xbe93d783	-0.2887536
97	0x3aefd641	0.0018298106
98	0x3d0764a6	0.03305497
99	0x37e81b62	2.7669306e-05
100	0xbdf29f53	-0.11846795
101	0x3a95feec	0.001144377
102	0xbd21d63e	-0.039510958
103	0x3bf3746a	0.007429649
104	0xbcc8ca21	-0.024510445
105	0x3cda3882	0.026638273
106	0x3b4b31cb	0.003100502
107	0xbad5a493	-0.0016299657
108	0xbb88304a	-0.004156147
109	0x3ced2728	0.028949335
110	0xbd328c1b	-0.043590646
111	0x3c6a8c59	0.014315688
112	0x3e4928f0	0.19644523
113	0xbcf41ad2	-0.029797945
114	0x3ae9d8d0	0.0017841104
115	0x3b67570b	0.0035299684
116	0x3c49660d	0.012292397
117	0xbc9ca665	-0.019122312
118	0xbe4f3090	-0.20233369
119	0xbd519b4b	-0.05117349
120	0x3bfcfe43	0.00772074
121	0x3b6431b7	0.0034819671
122	0x3af6b724	0.0018822891
123	0xbc923aba	-0.017850269
124	0x3d2811ec	0.041032717
125	0xbbd30561	-0.00643985
126	0xbb42020a	-0.0029603266
127	0x395b991e	0.00020942508
128	0xbd14122f	-0.036150154
129	0x3d81f5a8	0.06345683
130	0x3da6f001	0.08151246
131	0xbcf004b1	-0.029299112
132	0xbbffc4f0	-0.007805459
133	0xbd72f11b	-0.059311967
134	0x3cd52bdb	0.026021888
135	0xbaa520de	-0.0012598296
136	0xbd379f8b	-0.044829886
137	0x3c45771d	0.012052325
138	0xbae741a8	-0.0017643468
139	0x3b4a60a3	0.0030880354
140	0x3d1f7d8d	0.038938094
141	0x3dc4da15	0.09611908
142	0xbb0e0526	-0.002167055
143	0xbb173259	-0.002307078
144	0xbd4e6f43	-0.050399076
145	0x3c61c710	0.01378037
146	0xbc3bbb8f	-0.011458292
147	0xbd8bddb1	-0.06829394
148	0x3d2d514f	0.04231387
149	0xbdfa12cc	-0.122106165
150	0xbd6b20d3	-0.05740435
151	0xba2ad46c	-0.00065166387
152	0x3ddafa0d	0.10692225
153	0xbd3cb6d6	-0.046072803
154	0x384a8a3d	4.8289297e-05
155	0x3bb1902b	0.0054187975
156	0x3bd4d195	0.0064947107
157	0xbc8c8513	-0.017153298
158	0x3cb9e767	0.022693349
159	0x3d536b77	0.05161616
160	0x3d906523	0.0705054
161	0xbc672c94	-0.014109749
162	0xba383691	-0.0007027174
163	0xbb919b79	-0.0044435826
164	0xbdd41c02	-0.103569046
165	0xb60055e1	-1.9123474e-06
166	0xbd2dacf8	-0.042401284
167	0x3d97f004	0.07418826
168	0xbe848bf9	-0.2588804
169	0xbe63f616	-0.22261843
170	0xbd09cc93	-0.033642363
171	0x3bc955e4	0.006144272
172	0xbcf19977	-0.029492123
173	0xbc079da9	-0.008277335
174	0x3a454062	0.00075245474
175	0x3c6e5298	0.014546059
176	0x3c5e8cab	0.013583343
177	0x3ab3cd5e	0.001371782
178	0x3b8f3be3	0.0043711527
179	0xbe087e8c	-0.13329524
180	0xbdff975f	-0.124800436
181	0x3e33c42a	0.175553
182	0xbd8f42b8	-0.069951475
183	0xbbd834ec	-0.0065981057
184	0x3e0b4f1c	0.13604397
185	0x3c2168db	0.00985166
186	0x3da28d93	0.079371594
187	0xbbf7fca8	-0.007567961
188	0x3c0b7092	0.008510726
189	0x3cef6514	0.029223002
190	0xbb53b842	-0.003230587
191	0xbba04fd5	-0.004892329
192	0x3b963cc8	0.0045848824
193	0xbe4d49a3	-0.20047621
194	0x3e0cbb82	0.13743404
195	0x3d1711a3	0.036882054
196	0xbcebd665	-0.028788755
197	0xbd8fd26f	-0.07022559
198	0xbcde64b5	-0.02714763
199	0x3ce2ac3f	0.027670024
200	0xbe040c4f	-0.1289532
201	0xbca970ed	-0.02068373
202	0x3aad5c23	0.0013226311
203	0x3c1fdbd8	0.009757005
204	0x3c9b24fb	0.018938532
205	0x3d0f031f	0.034915086
206	0xbcc0627d	-0.023484463
207	0x3df6b6b1	0.12046564
208	0x3bceb0b1	0.0063076844
209	0xbe34c141	-0.17651846
210	0xbb9b52db	-0.0047401018
211	0x3b9c69d5	0.0047733583
212	0x3c0f40f7	0.008743516
213	0x3e603ae5	0.21897466
214	0xbc379ac0	-0.011206329
215	0xbd8108a2	-0.06300475
216	0xbdcf3799	-0.10118026
217	0xbbd6bfdb	-0.0065536327
218	0xbc2945ee	-0.010331614
219	0x3bce8db5	0.006303514
220	0x3e613e50	0.21996427
221	0x3e7057ef	0.23471044
222	0x3c7069bf	0.014673649
223	0xbd65c535	-0.056096274
224	0x3d30b1b3	0.043138217
225	0x3da4a902	0.08040048
226	0xbbd78da0	-0.0065781623
227	0xbda2a763	-0.07942083
228	0xbe1dbdb8	-0.15404403
229	0x3e94fc3a	0.29098684
230	0xbe010b9e	-0.12602088
231	0x3cb14f56	0.021644276
232	0x3c97eb3e	0.01854479
233	0x3dfd5002	0.12368776
234	0xba3facad	-0.00073118025
235	0x3dd784bd	0.10523365
236	0x3bd110c1	0.006380171
237	0x3b6002f1	0.003418144
238	0xbe30fea2	-0.17284635
239	0xbcb81269	-0.022469716
240	0xbd05900a	-0.03260807
241	0x3dd65c87	0.10466867
242	0xbdb3d579	-0.08780951
243	0xbd019025	-0.031631608
244	0xb9c7f4a8	-0.0003813852
245	0x3d0a6c61	0.033794764
246	0x3dd4bbb3	0.10387363
247	0xbe2b944f	-0.16755794
248	0xbda07bc2	-0.07836105
249	0xbad78c95	-0.0016445095
250	0x3b8357d0	0.004008271
251	0x3b18e4be	0.00233297
252	0x3acbb182	0.0015540572
253	0xbcc2c282	-0.02377439
254	0xbdebc50d	-0.11512194
255	0x3ba89951	0.00514523

mu.2.bias f4 [3]
0	0xbd96a24d	-0.07355175
1	0x3c5927a0	0.013254076
2	0x3d3b1ecd	0.04568367

reward_fun.0.weight f4 [200, 4]
0	0x3e6a880e	0.22903463
1	0xbd18b749	-0.03728417
2	0x3cc1b380	0.023645163
3	0xbe847ee7	-0.2587807
4	0x3f5980ea	0.8496233
5	0xbdc3fe94	-0.09570041
6	0x3dbb2792	0.09138407
7	0xbfbfdaaf	-1.4988612
8	0x3e335ea4	0.17516571
9	0x3cbc4a7d	0.022984738
10	0x3bafc1a8	0.005363662
11	0xbd6bba8c	-0.05755095
12	0x3fb5909c	1.4184756
13	0xbf041150	-0.51588917
14	0x3f22c093	0.63575095
15	0xbe20dcea	-0.15709272
16	0x3d3248bd	0.0435264
17	0xc03e0b58	-2.9694424
18	0xbecb4883	-0.3970376
19	0xbe526ad4	-0.20548564
20	0xbfc5b6ef	-1.5446452
21	0xbef12b98	-0.47103572
22	0xbf011ceb	-0.5043475
23	0xbd62435c	-0.05524002
24	0xbfd64f52	-1.6742957
25	0x3f70c3a5	0.9404853
26	0xbf1723db	-0.59039086
27	0x3f4bf5f5	0.79672176
28	0x3eb0615e	0.34449285
29	0xbe6df428	-0.2323767
30	0x3ed3a86f	0.41339442
31	0xbf8a19cd	-1.0789124
32	0x3f20de19	0.62838894
33	0xbe158a81	-0.14603616
34	0x3dbcc950	0.09218085
35	0xbeb583e0	-0.35452175
36	0x3fcd0ce4	1.6019559
37	0xbf2e2a2a	-0.6803309
38	0x3f3b3364	0.7312529
39	0xbf18430d	-0.5947731
40	0x3f9f7f02	1.2460635
41	0x3f56470c	0.8370216
42	0x3e683a55	0.22678502
43	0x3f51abdf	0.8190288
44	0xc002158a	-2.0325646
45	0x3e9adcad	0.30246487
46	0x3ed11a3b	0.40840325
47	0x3f30a562	0.69002354
48	0xbf5016a8	-0.8128457
49	0xc02ec038	-2.730482
50	0xbec8cb58	-0.3921764
51	0x3e629755	0.22128041
52	0xbfe11322	-1.7583964
53	0xbea6f2a2	-0.3260699
54	0x3e01ec88	0.12687886
55	0xc0434b85	-3.0514843
56	0xbd7b9448	-0.06142071
57	0x3ecb5ed0	0.39720774
58	0x3c78ad5c	0.015178051
59	0xbe2167bf	-0.15762232
60	0xbf982c32	-1.1888487
61	0xbf0617c2	-0.5238
62	0xbd4817c4	-0.04885079
63	0xc03fa499	-2.9944212
64	0x3e2119af	0.15732454
65	0x3bd680d5	0.0065461197
66	0xbc4792af	-0.012180968
67	0xbc4bbb1f	-0.01243475
68	0xbf3f2f31	-0.74681383
69	0xc0088595	-2.1331532
70	0xbf094756	-0.53624475
71	0x3fc361c2	1.5264208
72	0x3f921f18	1.1415739
73	0x3cb6ed10	0.022329837
74	0x3c309c71	0.010779486
75	0x3fa53130	1.2905636
76	0x3f1d61a2	0.614771
77	0x3cd975c6	0.026545417
78	0x3dcca04c	0.09991512
79	0xbf8416fb	-1.0319513
80	0xbfe4b675	-1.7868181
81	0xc002f236	-2.0460334
82	0xbef8901d	-0.4854745
83	0xbf1401da	-0.57815325
84	0x3e0baae5	0.1363941
85	0x3e55ac12	0.20866421
86	0x3ddd080b	0.1079255
87	0x3e70b489	0.23506369
88	0x3f2123ae	0.6294507
89	0x3eb2e8bd	0.3494319
90	0xbe99b2a8	-0.30019116
91	0xbf5366ae	-0.8257855
92	0xbefe5116	-0.4967124
93	0xc010954a	-2.259112
94	0xbea6467a	-0.32475644
95	0xbe8203bb	-0.2539347
96	0x40076e92	2.1161237
97	0x3f7d950a	0.9905554
98	0x3d7316ab	0.05934779
99	0xc028186a	-2.62649
100	0x3fe540c3	1.7910389
101	0xbed00c88	-0.4063456
102	0x3f34ac13	0.70575064
103	0xbdb97bac	-0.09056792
104	0x3f93c027	1.1543015
105	0xc04d00ad	-3.2031662
106	0xbf3def14	-0.7419293
107	0xbe62234d	-0.22083779
108	0x3e0fa58f	0.14028
109	0xbdf6174a	-0.12016161
110	0x3f14ea55	0.5817006
111	0x3edac283	0.42726526
112	0xbeef8b5f	-0.4678602
113	0x3fb6429c	1.4239078
114	0x3d699733	0.05702896
115	0xc04fe687	-3.2484453
116	0x3fdf7e95	1.7460505
117	0xbd17ced1	-0.03706247
118	0xbf0aa287	-0.5415425
119	0xbfb7d5ba	-1.4362099
120	0x3ef9732a	0.48720676
121	0xc033a91f	-2.8071973
122	0xbedc5e92	-0.430409
123	0xbeff4d11	-0.49863485
124	0xbfc433da	-1.5328324
125	0xbfd8639f	-1.6905402
126	0xbe6f765a	-0.23384991
127	0xc0170814	-2.359868
128	0x3faaa781	1.3332368
129	0x3dff2516	0.124582455
130	0x3ec8fd21	0.39255622
131	0x3fcdba13	1.607241
132	0x3fc67294	1.5503716
133	0xc002682d	-2.0376084
134	0xbf24e9fc	-0.6441953
135	0xbe9924f5	-0.29911008
136	0xbf0cf104	-0.5505526
137	0x3f8d4933	1.1037964
138	0xbd88213d	-0.06646965
139	0xc02a0717	-2.6566827
140	0x3f0cf4a3	0.55060786
141	0x3db53a3f	0.08849
142	0x3b0e47c3	0.0021710254
143	0x3e5ba73c	0.21450514
144	0x3fc5cd3d	1.5453259
145	0xbfe5901a	-1.7934601
146	0xbf1865c5	-0.5953029
147	0x3cb961d4	0.022629656
148	0x3dbad820	0.09123254
149	0x3d8f01fa	0.06982799
150	0x3dcfc67f	0.10145282
151	0xbf6f97a4	-0.9359076
152	0x3fcbd07f	1.5923003
153	0x3ee01d0f	0.4377217
154	0x3ee68fd4	0.45031607
155	0xbdd5d01a	-0.10440083
156	0x3ff21811	1.8913594
157	0x4000df2b	2.013621
158	0xbdb92d1e	-0.090418085
159	0xbf220c31	-0.6329985
160	0x3f481d60	0.7816982
161	0x3e2dd867	0.16977082
162	0x3d036552	0.03207905
163	0xbd216998	-0.039407343
164	0x40308ac9	2.7584708
165	0xc00308f0	-2.0474205
166	0x3da3d6b7	0.07999938
167	0x3fb569fd	1.417297
168	0x3fdf5436	1.7447574
169	0xbfb6aff1	-1.4272443
170	0xbebf6f62	-0.37389666
171	0xbf2fe7c5	-0.6871303
172	0x3e7d3243	0.24726205
173	0xbdbe5c6a	-0.0929497
174	0x3c42fd12	0.011901157
175	0xbdaa51ad	-0.0831636
176	0x3ffd5f8f	1.9794787
177	0x3f6bc6d0	0.9210024
178	0x3e5e437b	0.2170543
179	0x3e11ca92	0.1423743
180	0x3fc17b0a	1.5115674
181	0xbfa7776f	-1.3083323
182	0xbe90e8ce	-0.28302616
183	0xbf26c23a	-0.65140116
184	0x3f08de4e	0.5346421
185	0xbce2fbba	-0.027707923
186	0xbe16b102	-0.1471596
187	0xc0b3a566	-5.6139402
188	0x3fccb0d5	1.5991465
189	0x3ff67056	1.9253032
190	0x3e6f3c32	0.23362806
191	0x3f5a1ac6	0.85197103
192	0x3e27d70b	0.16390626
193	0xbea54888	-0.322819
194	0xbe37f9d2	-0.17966393
195	0xc05a85e8	-3.414423
196	0x3ffbd61d	1.9674717
197	0x3f70f93c	0.941303
198	0xbf147331	-0.5798827
199	0x40072d95	2.112157
200	0x3da63c19	0.081169315
201	0x3e4d880c	0.20071429
202	0x3c4366f9	0.011926406
203	0xbe4fbbeb	-0.20286529
204	0x3f936b59	1.1517135
205	0xbf4c01db	-0.7969033
206	0xbe63649a	-0.22206345
207	0xbfde2cf7	-1.7357472
208	0x4025889c	2.586463
209	0xbfd8e12d	-1.6943718
210	0xbe7b89b3	-0.24564247
211	0x3eb662ac	0.35622156
212	0x3f922642	1.1417925
213	0x3ea794a6	0.32730597
214	0x3ddea253	0.10870805
215	0xbe216264	-0.1576019
216	0x3e6e3568	0.2326256
217	0xbd3199af	-0.043359455
218	0xbc512070	-0.012764081
219	0x3db06aad	0.08614097
220	0x3d0f9cd5	0.035061676
221	0x3c6e607a	0.014549369
222	0x3b6da170	0.0036259554
223	0xbd7756ed	-0.060385633
224	0x3f2e8071	0.68164736
225	0xbecab04f	-0.39587638
226	0x3b9ebdda	0.0048444094
227	0xbde07843	-0.10960438
228	0x3f38abe9	0.72137314
229	0xbf9d1206	-1.2271125
230	0xbe70d94d	-0.23520394
231	0x3ff987f6	1.9494617
232	0x3fa075aa	1.2535908
233	0xc03c690c	-2.9439116
234	0xbf361152	-0.7112018
235	0x3da6718f	0.08127128
236	0xbf37c349	-0.71782357
237	0x3f0af75a	0.5428368
238	0xbd26bb42	-0.040705927
239	0xc0262853	-2.5962112
240	0x3e506fa7	0.20355092
241	0xbc3a0c83	-0.011355522
242	0x3d08518d	0.033280898
243	0xbcab201b	-0.020889333
244	0x3da118af	0.07866036
245	0x3cb88f0b	0.022529146
246	0x3baf51fa	0.0053503485
247	0xbdad66f2	-0.08466901
248	0x3fb25945	1.3933493
249	0xbf31e205	-0.69485503
250	0xbe60cd1c	-0.21953243
251	0xbfa44cbf	-1.2835921
252	0x3fdeae39	1.7396919
253	0x3d99892b	0.07496866
254	0x3eeb7acb	0.4599212
255	0xbf5776ff	-0.8416595

reward_fun.0.bias f4 [200]
0	0x3d23284a	0.039833345
1	0x3f2b6f40	0.6696663
2	0xbe764416	-0.2404941
3	0xc0381c84	-2.8767405
4	0xbe23649d	-0.1595635
5	0x40208791	2.5082743
6	0xbfa348aa	-1.275655
7	0x3f11359e	0.5672244
8	0x3f0697ef	0.5257558
9	0xbf9e7361	-1.2378961
10	0x3fbbbd1a	1.4667084
11	0x3fe8f149	1.8198634
12	0xbdf96ab7	-0.12178557
13	0x3eebfa38	0.4608934
14	0xbf2c6057	-0.673345
15	0xbe444855	-0.19168217
16	0xbe70183a	-0.23446742
17	0xbfe7f71b	-1.8122286
18	0x3f2b6c4e	0.66962135
19	0x3f63711c	0.88844466
20	0x3fe1794d	1.7615143
21	0xbfaae31c	-1.3350558
22	0xbfdce364	-1.7256894
23	0xbf00d85d	-0.50330144
24	0x3da3a32e	0.079901084
25	0xbe94cc91	-0.29062322
26	0xbfa5fb62	-1.2967341
27	0xc05fc9a2	-3.4966817
28	0xbf738fe4	-0.95141435
29	0xc0001690	-2.001377
30	0xbf65127f	-0.8948135
31	0xc0036b5c	-2.0534277
32	0xbfa9ca22	-1.3264811
33	0xbff3deca	-1.9052365
34	0xbf9ce676	-1.2257831
35	0xbf834b25	-1.0257307
36	0xbff1f7cc	-1.8903747
37	0x3fac675f	1.3469046
38	0xbf86bb6c	-1.0525947
39	0xbff69966	-1.9265563
40	0xbf73c760	-0.952261
41	0xbe9582b5	-0.29201284
42	0xbf14fccf	-0.58198255
43	0x3f51d334	0.81962895
44	0xbfa5f265	-1.2964598
45	0xbf0a59e9	-0.5404344
46	0xbec60ad9	-0.3868015
47	0xbf65e012	-0.8979503
48	0xbf30572f	-0.6888303
49	0xbf6d00f8	-0.92579603
50	0xbeef74a0	-0.46768665
51	0xbf351a2a	-0.7074305
52	0xbe532bb8	-0.20622146
53	0xbfcf8c22	-1.621464
54	0xbec7d25a	-0.39027673
55	0xbdd7688b	-0.10517987
56	0xbf7566d2	-0.95860016
57	0xbf8ce840	-1.1008377
58	0xbf3ea437	-0.7446932
59	0x3e956613	0.2917944
60	0xbeae4528	-0.34037137
61	0xbe4fb291	-0.20282961
62	0xbf074792	-0.5284358
63	0x3d9473db	0.0724866
64	0xbf287688	-0.65805864
65	0xbfbded75	-1.4838091
66	0xbf997c0a	-1.1990979
67	0x3fb25484	1.3932042
68	0xbe8d2246	-0.2756521
69	0xbf00b9b2	-0.5028335
70	0xbe02c2cc	-0.12769622
71	0xbfabfc1a	-1.343631
72	0xbf46eec8	-0.777081
73	0xbfce76aa	-1.6129963
74	0x3e530dd0	0.20610738
75	0xbf4ad2cf	-0.7922792
76	0x3f0ccff2	0.550048
77	0xc009f18a	-2.1553674
78	0x3eba20dc	0.36353195
79	0xbf8bfeb3	-1.0937103
80	0xbe2f3a93	-0.17112188
81	0xbea21bf7	-0.3166196
82	0x3ef34abb	0.47517952
83	0xbf29435b	-0.661184
84	0x3ed54b94	0.41659224
85	0xbfd33f11	-1.6503621
86	0xbe508fb8	-0.20367324
87	0x3f620923	0.8829519
88	0xbe837762	-0.2567702
89	0xbf274423	-0.65338343
90	0xbffc57d3	-1.9714302
91	0xbf003582	-0.50081646
92	0xbf9221b0	-1.1416531
93	0xbe7ad6b1	-0.24495961
94	0xbee37b5a	-0.44430047
95	0xc009019a	-2.1407228
96	0xbfc8cde9	-1.5687839
97	0x3f6b7619	0.9197708
98	0xc00b4467	-2.17605
99	0xbea4acba	-0.3216303
100	0x3f81074f	1.0080355
101	0xbe7a0838	-0.24417198
102	0xbf9ee04c	-1.24122
103	0xbe7cb4ee	-0.24678394
104	0xbf3fd50e	-0.7493447
105	0xbfd8faf3	-1.6951584
106	0xbf8c3452	-1.0953467
107	0xbfd09db8	-1.6298132
108	0xbf3ab90e	-0.7293862
109	0xbe5e3e36	-0.21703419
110	0x3f8c2aae	1.0950525
111	0xc00afe60	-2.1717758
112	0x3f89cd6c	1.0765815
113	0xbee682b1	-0.45021585
114	0x3f701542	0.93782437
115	0xbfe9c2ed	-1.8262612
116	0xbf6e2511	-0.9302531
117	0xbf92f032	-1.1479552
118	0x3f21ce5c	0.63205504
119	0x3f86ec6b	1.0540899
120	0xbf037726	-0.5135368
121	0xc00017c9	-2.0014517
122	0xbf9569ac	-1.1672873
123	0xbffdc335	-1.9825197
124	0xbdf8906d	-0.12136922
125	0xbf1eba19	-0.6200271
126	0x3fb546e4	1.4162259
127	0xbfb1a016	-1.3876979
128	0x3f7441c8	0.95412874
129	0xbf88cd4b	-1.068765
130	0xbe976567	-0.2956955
131	0xbf7d8883	-0.99036425
132	0x3df2377a	0.118269876
133	0xbf1659f5	-0.58731014
134	0xbfe7e354	-1.811625
135	0xc009fd7d	-2.1560967
136	0x3f0b7487	0.5447468
137	0x3f7bb17d	0.983177
138	0x4004f045	2.077165
139	0xbf08b13d	-0.53395444
140	0x3f4a217d	0.7895735
141	0x3ff86073	1.9404434
142	0xbe62e63a	-0.22158137
143	0xbf649c8e	-0.89301383
144	0xc0051e6b	-2.0799816
145	0xc0031f58	-2.048788
146	0x3e90c8a1	0.28278068
147	0xbf990f4e	-1.1957796
148	0xbf75b335	-0.95976573
149	0xbfdda4ae	-1.7315881
150	0xc046b785	-3.1049511
151	0xbf91a904	-1.1379704
152	0xbda00db8	-0.07815117
153	0xbf0ebb12	-0.55754197
154	0xc039a32d	-2.9005845
155	0xbd3bca7c	-0.0458474
156	0x3e619d05	0.22032554
157	0x3f5db746	0.8660778
158	0xc0486ae8	-3.131525
159	0xbe8ad252	-0.27113587
160	0xbf9f03ea	-1.242307
161	0xbf0bf90e	-0.546769
162	0xbf9eff77	-1.2421712
163	0xbe7c02d3	-0.24610452
164	0xbf3713b9	-0.7151447
165	0xbef403fa	-0.47659284
166	0xbe5f8ae4	-0.21830326
167	0xbfb4fa71	-1.4138929
168	0x3fde2148	1.7353907
169	0x40187ac7	2.3824937
170	0xbfd3c93e	-1.6545789
171	0xbe0becc2	-0.13664535
172	0xbe7a3cf3	-0.24437313
173	0x3efdb9bc	0.49555767
174	0xbe1f0598	-0.15529478
175	0xbdbd9a8b	-0.09257992
176	0xbfdee6ee	-1.7414224
177	0xc0127ca8	-2.2888584
178	0xbf419b22	-0.7562734
179	0xbf96e546	-1.1788719
180	0xbf498c3d	-0.7872961
181	0x401d1ffc	2.4550772
182	0x3fb79fc6	1.4345634
183	0xbe4972a0	-0.19672632
184	0xbf3af65e	-0.73032176
185	0xc00a0d31	-2.1570551
186	0xbfa4d17e	-1.2876432
187	0x3f373a50	0.7157335
188	0x3f5fe2ee	0.8745564
189	0xbe6771e4	-0.2260204
190	0xbfd978e2	-1.6990016
191	0x3f561c66	0.8363708
192	0xbfa2d917	-1.27225
193	0xbf21cd22	-0.6320363
194	0x3dc1f7ba	0.09471078
195	0xc007c178	-2.1211834
196	0xc054e946	-3.3267379
197	0xbfa52f65	-1.2905089
198	0xbef33aaf	-0.4750571
199	0x3f139b64	0.5765898

reward_fun.2.weight f4 [200, 200]
0	0xbd5ed831	-0.054405395
1	0x3cbc9189	0.023018615
2	0xbd623ffb	-0.055236798
3	0x3d534a62	0.05158461
4	0xbd836a39	-0.06416745
5	0xbd821a7e	-0.06352709
6	0xbd7e6809	-0.062110934
7	0x3cc18d5d	0.023626978
8	0xbd745e46	-0.05966022
9	0xbb8c5a2e	-0.004283211
10	0xbce734a9	-0.028223353
11	0xbd19fb72	-0.037593313
12	0x3d275d6c	0.04086058
13	0xbd617dce	-0.055051617
14	0xbd7b9532	-0.06142158
15	0xbc81f52a	-0.015863974
16	0x3c86c53a	0.016451467
17	0xbd72c9a7	-0.059274342
18	0xbd7e6e70	-0.06211704
19	0x3d157c9d	0.036495794
20	0xbd662cdc	-0.056195125
21	0x3d673d47	0.056454923
22	0xbc921a67	-0.017834855
23	0x3d45cc18	0.048290342
24	0xbcbaf516	-0.022821944
25	0xbcbc1db9	-0.022963392
26	0x3c142d80	0.009044051
27	0x3c25b911	0.010114924
28	0x3d1ca60c	0.038244292
29	0xbd7243dc	-0.059146747
30	0xbc6628fc	-0.014047857
31	0xbd8080b1	-0.06274546
32	0xbd8b1ce3	-0.06792619
33	0xbc7b34ed	-0.015332443
34	0xbd1a2b12	-0.03763873
35	0xbc17b1fd	-0.009258744
36	0xbc9900d2	-0.018677149
37	0x3c954870	0.018223017
38	0x3d5d4a5b	0.05402599
39	0xbc33a1c0	-0.010963857
40	0xbd2257c2	-0.039634474
41	0x3c5215c2	0.01282257
42	0x3b4fbbf0	0.0031697713
43	0xbdb4d926	-0.0883048
44	0x3d4d7ded	0.05016892
45	0x3d3cf551	0.04613239
46	0x3d233cb1	0.0398528
47	0x3cb85926	0.022503447
48	0x3d1b524d	0.037920285
49	0xbd3c49d6	-0.045968853
50	0xbc365c2e	-0.011130376
51	0xbda139dc	-0.07872364
52	0x3d4fcb6f	0.05073112
53	0x3d2e4d59	0.042554233
54	0x3ceda5a2	0.029009644
55	0xbd5e3fc2	-0.054260023
56	0xbd1bfc68	-0.03808251
57	0xbd88e6f3	-0.06684675
58	0x3d47ba5d	0.048761714
59	0xbca716a3	-0.020396536
60	0x3cb98e30	0.022650808
61	0xbd1cd3b3	-0.03828783
62	0x3cf1ae2a	0.029501993
63	0xbd93debd	-0.07220218
64	0x3cf02844	0.029316075
65	0xbb4492c2	-0.00299947
66	0xbd97a5bf	-0.074046604
67	0xbd40d4a5	-0.047077794
68	0xbc639c41	-0.013892234
69	0xbd5de1af	-0.054170307
70	0x3d1b090e	0.037850432
71	0xbc902613	-0.01759628
72	0x390eec42	0.00013630188
73	0xbcb4afad	-0.022056425
74	0x3cbbc02e	0.022918787
75	0xbd20632e	-0.039157085
76	0xbd20a10c	-0.039216086
77	0x3cfaf67d	0.030635113
78	0xbd21fd5e	-0.03954827
79	0xbccbdd2b	-0.024885735
80	0xbd6e6718	-0.058203787
81	0x3cf868b1	0.030323358
82	0xbdb08023	-0.0861819
83	0xbda5056b	-0.08057674
84	0xbd32e512	-0.04367549
85	0xbd9d8d42	-0.076929584
86	0x3cc6220b	0.024186155
87	0xbd88168c	-0.066449255
88	0xbd8af85f	-0.06785654
89	0x3c7b368d	0.01533283
90	0x3cb2f561	0.021845521
91	0x3c1a19e2	0.009405585
92	0xbd8bf44e	-0.06833707
93	0xbd73cd7a	-0.05952213
94	0xbd64a964	-0.055825606
95	0xbd155306	-0.03645613
96	0x3ce39114	0.02777914
97	0x3d3ac637	0.04559919
98	0xbd738850	-0.05945617
99	0xbda4b619	-0.08042545
100	0x3ca04ac4	0.019566901
101	0xbd62a884	-0.05533649
102	0xbd41ce59	-0.04731593
103	0xbd9a27eb	-0.07527145
104	0x3d19a923	0.037514817
105	0xbd66fe2a	-0.056394733
106	0x3d8c3c01	0.06847382
107	0xbcbd8206	-0.02313329
108	0x3d6d9d11	0.05801112
109	0xbd0f432b	-0.034976166
110	0xbd42cd42	-0.04755903
111	0x3c20eb30	0.009821698
112	0x3cd66ee5	0.026175926
113	0x3cfad7a5	0.030620405
114	0x3b15c09f	0.0022850407
115	0xbd7ae377	-0.061252084
116	0xbd4fbd81	-0.050717834
117	0xbd77d125	-0.06050219
118	0x3cce4c16	0.025182765
119	0x3d3ed18f	0.04658657
120	0xbc5d1492	-0.013493674
121	0xbcf9d18c	-0.030495428
122	0x3c3bc04a	0.0114594195
123	0xba5567a3	-0.0008140748
124	0x3c2e08ac	0.010622185
125	0x3cc78fa9	0.024360495
126	0x3d0d8138	0.03454706
127	0xbcbad11e	-0.022804793
128	0xbd9b3d79	-0.07580084
129	0xbd2f81e4	-0.042848483
130	0xbc9aae3a	-0.018881906
131	0x3d6ec14c	0.05828981
132	0x3906f898	0.00012871844
133	0xbbc5bc11	-0.006034382
134	0x3c8779df	0.016537605
135	0xbc6ea33c	-0.014565285
136	0x3cd8f066	0.026481818
137	0xbc835db9	-0.016035901
138	0xbdb11ccc	-0.08648071
139	0x3c8cd624	0.017191954
140	0x3d24ca82	0.04023219
141	0xbd025c20	-0.03182614
142	0x3d0a087b	0.033699494
143	0xbd7a7bf9	-0.061153386
144	0xbc8b144f	-0.016977457
145	0xbd55b2e2	-0.05217255
146	0x3cd4afdc	0.025962763
147	0xbd85fd29	-0.06542427
148	0xbd87147f	-0.06595706
149	0xbc83a397	-0.016069217
150	0xbd8de626	-0.06928663
151	0x3d67adb9	0.05656216
152	0xbcd2d5d2	-0.025736723
153	0x3be08a45	0.0068524205
154	0x3d68a56f	0.056798395
155	0xbca68f0a	-0.020331878
156	0xbd8e51a5	-0.06949166
157	0xbd1ff023	-0.03904737
158	0xbd7bd271	-0.06147999
159	0x3bbe8188	0.005813781
160	0xbcc3c2f4	-0.023896672
161	0xbd1c5759	-0.03816924
162	0xbd0cd247	-0.034380224
163	0x3d19bd90	0.037534297
164	0xbcbd7180	-0.02312541
165	0x3d0f37f6	0.034965478
166	0xbd8c3a7f	-0.06847095
167	0xbc653562	-0.013989778
168	0x3d4af27f	0.04954767
169	0x3d11ced3	0.035597634
170	0xbd98b96b	-0.07457241
171	0xbda424e1	-0.080148466
172	0xbcc56655	-0.024096647
173	0x3c298cdf	0.010348528
174	0xbd714ed1	-0.058913056
175	0xbd3c25c9	-0.045934472
176	0x3cac2765	0.021014879
177	0xbb0143d0	-0.0019724257
178	0xbc5c6007	-0.013450629
179	0xbd85fde4	-0.065425664
180	0xbc3f7d4f	-0.011687591
181	0x3d241aab	0.040064495
182	0xbda234aa	-0.07920201
183	0x3cb5aaee	0.022176232
184	0xbc9c169b	-0.019053748
185	0x3c0da21b	0.008644606
186	0xbbace590	-0.0052763894
187	0xbca666a4	-0.020312615
188	0x3ceed9dd	0.02915662
189	0x3ce44b97	0.027868075
190	0xbd57a92b	-0.052651566
191	0xbd2865aa	-0.04111258
192	0xbda42613	-0.080150746
193	0xbd48891e	-0.04895889
194	0xbad69c72	-0.0016373529
195	0xbca38fef	-0.019966094
196	0xbd847285	-0.06467155
197	0xbd0dd3db	-0.03462587
198	0xbcaa089f	-0.020756064
199	0x3c8c8954	0.017155327
200	0xbb9252f4	-0.004465455
201	0x3d067e37	0.03283521
202	0x3c0e62f5	0.008690585
203	0xbd73ca9f	-0.059519406
204	0x3d3a89b5	0.045541484
205	0xbbfa5316	-0.007639299
206	0xb7733e25	-1.4498398e-05
207	0xbdaf4935	-0.08558885
208	0xbc18ef15	-0.009334345
209	0xbd4328c6	-0.047646306
210	0xbd1e0a03	-0.038583767
211	0xbbeb2d14	-0.0071770046
212	0xbd2d60f7	-0.0423288
213	0xbbc51586	-0.0060145287
214	0x3c956873	0.018238282
215	0xbdc8849e	-0.0979092
216	0x3c930cac	0.017950378
217	0xbd5c83d0	-0.053836644
218	0xbd6a3c1c	-0.05718623
219	0xbd11deba	-0.0356128
220	0xbd6fd01e	-0.058548085
221	0x3ce6eb3e	0.028188344
222	0x3c8170c3	0.01580084
223	0x3c1156d4	0.008870799
224	0xbdc56605	-0.09638599
225	0xbc4bafca	-0.012432048
226	0xbda1d50d	-0.07901964
227	0xbcfb241e	-0.03065687
228	0x3d02c114	0.031922415
229	0xbdabf289	-0.08395869
230	0x3d4c1253	0.049822163
231	0xbd9cb262	-0.07651211
232	0xbd393696	-0.045218073
233	0x3d1e4a35	0.038644988
234	0xbd41c121	-0.047303323
235	0xbc578298	-0.013153695
236	0x3d4619fe	0.04836463
237	0xbd1387d9	-0.036018226
238	0x3d100fa0	0.03517115
239	0x3b82ad49	0.0039879424
240	0xbce4d69c	-0.027934365
241	0xbb19c2f4	-0.0023462148
242	0x3d12169e	0.0356661
243	0xbcd5627f	-0.026047943
244	0xbda8262f	-0.08210408
245	0xbd98fb04	-0.074697524
246	0xbd82e1f8	-0.06390756
247	0x3ce69039	0.028144943
248	0xbda4bf20	-0.08044267
249	0xbd0d07ce	-0.03443127
250	0xbbbb6772	-0.0057191188
251	0x3d88f0f1	0.06686581
252	0xbd8e2a18	-0.069416225
253	0x3b06863b	0.0020526785
254	0x3c4173f4	0.011807431
255	0xbd3ff3d9	-0.04686341

reward_fun.2.bias f4 [200]
0	0x3b425d25	0.002965757
1	0xbd8564d7	-0.06513374
2	0x4013368a	2.3002038
3	0xbcb0a56c	-0.021563254
4	0xbdf5f9ff	-0.120105736
5	0x3fa7b897	1.3103207
6	0x3cdc6810	0.02690509
7	0x3f437400	0.76348877
8	0x3e633439	0.2218789
9	0x3f8a4305	1.0801703
10	0x3ea46ce3	0.32114324
11	0x3f376234	0.7163422
12	0x3f4d9e99	0.80320126
13	0x3f56a149	0.8383985
14	0x3e9d2aeb	0.30696806
15	0xbddf24a8	-0.108956635
16	0x3f046929	0.5172296
17	0x3f81788e	1.0114915
18	0xbce9a144	-0.02851928
19	0x3ef50150	0.47852564
20	0x3ec633bb	0.38711342
21	0x3ed7c59b	0.42142949
22	0xbebf49f5	-0.37361112
23	0x3c19cf4e	0.009387804
24	0x3ed9f855	0.42572275
25	0x3eef2017	0.4670417
26	0x3f27ffa6	0.65624464
27	0xbd86af91	-0.065764554
28	0xbe8a2da0	-0.26987934
29	0xbd8b5db1	-0.068049796
30	0xbdcb9903	-0.09941294
31	0x3f167772	0.5877601
32	0xbc4fc1ba	-0.012680465
33	0x3f022453	0.50836676
34	0x3f01b657	0.50668854
35	0xbda2445d	-0.079231955
36	0xbf4e9906	-0.80702245
37	0xbc68b88d	-0.014204157
38	0x3ec12ef1	0.37731126
39	0x3ff62868	1.9231081
40	0xbd21bbcb	-0.039485734
41	0x3c68ee8a	0.014217028
42	0xbd82b5d9	-0.06382341
43	0xbd8c7563	-0.06858327
44	0xbd77495f	-0.060372707
45	0xbe338ce2	-0.17534211
46	0xbcf83d3a	-0.030302633
47	0x3ef00cda	0.46884805
48	0x3f373804	0.7156985
49	0x3ef10293	0.47072276
50	0x3f870e54	1.0551248
51	0x3ed964a1	0.42459586
52	0xbd02baa6	-0.031916283
53	0x3ecd4ce8	0.40097737
54	0x3e949a77	0.29024097
55	0xbd924108	-0.0714131
56	0x3f1a8e0f	0.60373014
57	0x3f3f7387	0.74785656
58	0xbcc7261b	-0.024310162
59	0x3d55c507	0.052189853
60	0xbd59979f	-0.053123113
61	0xbd054850	-0.032539666
62	0xbdb586de	-0.088636145
63	0xbcf57884	-0.029964693
64	0x3c074f6c	0.008258682
65	0x3f627fd4	0.884763
66	0x3edc2b04	0.43001568
67	0x3d111367	0.035418894
68	0x3f27e9a1	0.65590864
69	0xbd44a9db	-0.04801355
70	0x3cdb57c1	0.026775243
71	0x3f1b6f87	0.6071705
72	0x3f466955	0.77504474
73	0x3f1e80f2	0.61915505
74	0x3eb7545c	0.3580655
75	0x3f36c3d1	0.7139254
76	0x3f55d2e2	0.83524907
77	0xbdc6f7f8	-0.09715265
78	0x3f04b86d	0.5184391
79	0xbc9d1ef5	-0.0191798
80	0x3f63029a	0.88675845
81	0x3f117889	0.5682455
82	0x3f2aa862	0.6666318
83	0x3f12ce49	0.57346016
84	0xbd855a9d	-0.06511424
85	0x3b540eb9	0.0032357408
86	0x3ee88386	0.45412844
87	0xbe4885c7	-0.19582282
88	0x3b6a0d84	0.0035713622
89	0x3c7a3051	0.015270309
90	0xbe17c87f	-0.14822577
91	0x3e963295	0.29335466
92	0x3ef0a925	0.47004047
93	0xbdae8d69	-0.085230656
94	0x3f84af30	1.0365963
95	0x3f4c3580	0.79769135
96	0x3efa8e00	0.48936462
97	0x3f11535f	0.5676784
98	0xbe04bd0d	-0.12962742
99	0x3f34a348	0.7056165
100	0x3e42db7a	0.19029036
101	0xbd22a1df	-0.039705154
102	0x3b6360cc	0.0034695147
103	0xbdd8c805	-0.10585026
104	0xbf8136e1	-1.0094873
105	0x39cef054	0.0003947044
106	0x3f068058	0.5253959
107	0x3ee78473	0.45218238
108	0x3f4369ca	0.76333296
109	0x3f222267	0.63333744
110	0x3f373d08	0.715775
111	0xbc96a53d	-0.018389339
112	0xbaffdc64	-0.0019520638
113	0xbd51ba0c	-0.05120282
114	0x3f11d685	0.56967956
115	0x3d382cac	0.044964477
116	0x3caf5ef7	0.021407587
117	0x3a640e89	0.00086996757
118	0xbbafcd6a	-0.0053650634
119	0x3f308b02	0.6896211
120	0x3ed52a80	0.41633987
121	0xbd904161	-0.0704372
122	0xbd85b7dc	-0.06529209
123	0xbe21538c	-0.15754527
124	0x3eba0bc3	0.36337098
125	0x3fc9786b	1.5739874
126	0xbd617adf	-0.05504882
127	0xbdb50cbb	-0.08840319
128	0xbd5da240	-0.05410981
129	0x3efc12b4	0.4923302
130	0xbd8ff4e3	-0.0702913
131	0x3e83f332	0.2577148
132	0x3ce50810	0.027957946
133	0x3ed70b04	0.42000592
134	0xbbf19dc9	-0.007373546
135	0xbd292685	-0.0412965
136	0xbe3bd5b3	-0.18343239
137	0x3f011c11	0.5043345
138	0xbda2734f	-0.079321496
139	0x3ed7271c	0.42022026
140	0x3f18ce31	0.59689623
141	0x3cc60676	0.024173003
142	0x3c951dd2	0.018202696
143	0xbdb7e33e	-0.0897889
144	0xbdaf8a0a	-0.08571251
145	0x3ef2317f	0.47303388
146	0x3ca51d42	0.020155553
147	0x3d2718cc	0.040795133
148	0xbd079307	-0.0330992
149	0x3c2ef725	0.010679041
150	0x3cb2e851	0.021839293
151	0xbe5c4e1b	-0.2151417
152	0x3f1b6fc0	0.6071739
153	0x3ee2f371	0.44326356
154	0x400fdb40	2.247757
155	0x3bfc364c	0.0076969024
156	0xbe1867dc	-0.14883369
157	0xbc0af955	-0.008482297
158	0xbce7d153	-0.028298056
159	0x3eb85b02	0.36006933
160	0x3f2cfd34	0.6757386
161	0x3f190b6d	0.5978306
162	0x3bcda965	0.006276297
163	0x3f22aab5	0.6354173
164	0xbe1d6cea	-0.15373579
165	0x3f02f317	0.51152176
166	0x3f5d3d57	0.8642172
167	0x3c9288f3	0.017887568
168	0x3fd0a0bc	1.6299052
169	0x3d2b1b4e	0.041774087
170	0xbdad5821	-0.08464075
171	0x3f45687c	0.77112556
172	0xbcf2fd75	-0.029661873
173	0x3f2a08d7	0.6641974
174	0x3ec59b9e	0.3859529
175	0xbcd697b1	-0.026195379
176	0xbd5ca5aa	-0.053868927
177	0xbd9ab38b	-0.07553776
178	0x3f5a14f1	0.85188204
179	0x3f2bb476	0.67072237
180	0x3eeb46b2	0.45952374
181	0x3eb8c55d	0.36088076
182	0x3d231a20	0.039819837
183	0x3f33d47e	0.7024611
184	0x3c806b9b	0.01567631
185	0x3f01c8fd	0.5069731
186	0xbd8edc17	-0.069755726
187	0x3f41f1e2	0.7575971
188	0xbe014a69	-0.12626041
189	0xbc17a942	-0.009256663
190	0xbdb81ad4	-0.08989492
191	0x3efe206d	0.49634114
192	0x3f1c1196	0.60964334
193	0xbca6f134	-0.020378686
194	0x3f3c7b3a	0.7362553
195	0x3ef56be8	0.47933888
196	0xbd3b09d3	-0.045663666
197	0xbd8e6aba	-0.0695395
198	0x400d1c0d	2.204837
199	0x3b81fad9	0.003966671

reward_fun.4.weight f4 [1, 200]
0	0xbc42ebdc	-0.011897054
1	0x3cfb2f5a	0.030662227
2	0xbe9b1c70	-0.30295134
3	0x3ce2dc4a	0.027692933
4	0x3d9cb29c	0.076512545
5	0xbf499d61	-0.78755766
6	0xbb2c233b	-0.0026266116
7	0x3cb8b24f	0.022545962
8	0x3c93e638	0.018054113
9	0xba62f4df	-0.00086577045
10	0xbcb7f67c	-0.0224564
11	0xba9b8c50	-0.0011867378
12	0x3cac29bb	0.021015992
13	0xbfefe4c6	-1.8741691
14	0xbd1b1b3b	-0.037867766
15	0x3cf3f92c	0.0297819
16	0xbc2f0251	-0.010681705
17	0x3f9cd29d	1.2251774
18	0x3c5665a4	0.013085756
19	0xbbe1953e	-0.006884246
20	0xbca767e6	-0.020435285
21	0x3ddee6bc	0.10883853
22	0x3bfa9ff8	0.0076484643
23	0x3cd1231f	0.025529442
24	0xbee51aa1	-0.4474688
25	0xb9be72e4	-0.00036325224
26	0xbda74f54	-0.081694275
27	0x3d3c9333	0.046038818
28	0x3e495930	0.19662929
29	0xbb73862a	-0.0037158825
30	0xbd38db49	-0.045131
31	0x3dbfdfdc	0.0936887
32	0x3b47c9cc	0.003048527
33	0xbdbe5a1f	-0.09294533
34	0xbc0a4cdd	-0.008441177
35	0x3b45be67	0.0030173303
36	0x3d89b17a	0.06723304
37	0xbb3e57d9	-0.002904406
38	0x3cbfbf6c	0.023406707
39	0xbd8c2974	-0.06843844
40	0x3d4a497c	0.049386486
41	0xbb25c71d	-0.0025295683
42	0x3cfbed43	0.030752784
43	0x3c2a8b0e	0.01040913
44	0xbca44185	-0.020050773
45	0xbd663b63	-0.05620898
46	0x3ca36b12	0.019948516
47	0x3db07aad	0.086171485
48	0xbf0fe481	-0.56208044
49	0xbca217c9	-0.019786732
50	0xbf5730ff	-0.8405914
51	0x3d2b90ed	0.04188626
52	0x3d272952	0.04081089
53	0xbcecad1d	-0.02889114
54	0x3f99e775	1.202376
55	0x3c1a9241	0.009434284
56	0xbca309f7	-0.019902213
57	0xbcd8e3aa	-0.026475746
58	0x3c478993	0.012178796
59	0x3d3adfc3	0.045623552
60	0x3d4838b0	0.048882186
61	0xbaa39c6e	-0.0012482533
62	0xbcc74d99	-0.024328994
63	0x3c314ba0	0.010821253
64	0x3c42f492	0.01189913
65	0xbcb5e435	-0.022203544
66	0xbdbd3b87	-0.092398696
67	0x3c8c936a	0.017160136
68	0xbc94481a	-0.018100787
69	0x3d0bad04	0.034100547
70	0x3d4c1d5b	0.049832683
71	0xbba2e99b	-0.0049716956
72	0xb8d6b442	-0.00010237891
73	0xbbd6d2d8	-0.0065558963
74	0xbfce8b8f	-1.613634
75	0x3d4d08dc	0.050057277
76	0xbb8e62a5	-0.0043452554
77	0x3d0695a5	0.032857556
78	0xbf920940	-1.1409073
79	0x3d2660a1	0.040619496
80	0x3b4f6f42	0.0031652008
81	0xbbf69709	-0.007525329
82	0x3d5dc437	0.054142203
83	0x3cad5fed	0.021163905
84	0xbc36eba4	-0.01116458
85	0x3c9aaf6d	0.018882478
86	0xbc6dde2d	-0.014518303
87	0x40179ce2	2.3689504
88	0x3b65f4d7	0.0035088563
89	0x3c903395	0.017602721
90	0xbd84bcdc	-0.064813346
91	0x3a738250	0.00092891324
92	0x3bd6b4a7	0.006552297
93	0xbb72cdac	-0.003704886
94	0xbf856ace	-1.0423219
95	0x3c0ab8de	0.008466927
96	0xbcdc033a	-0.026857007
97	0xbd7da360	-0.061923385
98	0xbd4c1e02	-0.049833305
99	0xbcc13918	-0.023586795
100	0xbbe76eab	-0.007062753
101	0xbb2bc76e	-0.0026211399
102	0x3bf07482	0.0073381076
103	0xbb2441fb	-0.0025063741
104	0x3f2fba31	0.6864348
105	0x3cd0a0aa	0.025467236
106	0x3d4542c0	0.04815936
107	0xbd8dfe16	-0.06933229
108	0xbd1f328a	-0.038866557
109	0x3cdebdc7	0.027190102
110	0x3d87a0f4	0.06622496
111	0x3bdc68b9	0.006726351
112	0x3d2459d5	0.040124733
113	0xba1825ac	-0.00058039534
114	0x3d305065	0.04304542
115	0x3c447958	0.011991821
116	0x3cb70598	0.022341534
117	0x3c4ba277	0.012428871
118	0x3cb69dcf	0.022292046
119	0xbff250e1	-1.8930932
120	0xbd5eaf82	-0.054366596
121	0xbb86cc6a	-0.0041137235
122	0x3ccc4a3f	0.024937747
123	0x3d1f08bf	0.0388267
124	0xbd82c668	-0.06385499
125	0xbf295b16	-0.6615461
126	0x3ce692cd	0.028146172
127	0x3d493f90	0.049132884
128	0x3b929908	0.004473809
129	0xbd23da3d	-0.04000305
130	0xbd27eae9	-0.040995512
131	0xbc74f809	-0.014951714
132	0xbc60ecfb	-0.013728376
133	0x3d8dfe94	0.069333225
134	0xba490894	-0.000766882
135	0x3d144e2d	0.036207367
136	0x3e8b7594	0.27238142
137	0xbc95f88b	-0.018306991
138	0x3d9e475c	0.077284545
139	0xbd4e2bfe	-0.050334923
140	0x3d0d34a8	0.034474045
141	0x3cb3e400	0.021959305
142	0x3d1bd418	0.038044065
143	0x3c290d1d	0.010318068
144	0xbc697740	-0.014249623
145	0xbd920b2a	-0.071310356
146	0xbd73044c	-0.05933027
147	0x3c82f361	0.015985193
148	0x3c30f071	0.010799513
149	0x3be0c6b4	0.0068596248
150	0x3cc5eb8d	0.02416017
151	0xc0129473	-2.2903106
152	0x3c239963	0.009985301
153	0x3e06f9b2	0.13181189
154	0xbe991ef5	-0.2990643
155	0x3ca4d05e	0.020118888
156	0xc0895600	-4.291748
157	0xbc953d95	-0.018217841
158	0x3b63c4e8	0.0034754816
159	0xbd17c657	-0.037054386
160	0x3c4cf5c0	0.012509763
161	0xbd6784fa	-0.0565233
162	0x3af686f0	0.0018808525
163	0x3ca909f5	0.02063463
164	0x3d811568	0.06302911
165	0xbeed385b	-0.46332058
166	0x3ce14bd7	0.027501984
167	0x3c89dcc3	0.0168289
168	0xbf29aacb	-0.66276234
169	0xbc8a285c	-0.016864948
170	0xbc0a6319	-0.008446478
171	0xbd60ff8e	-0.054931216
172	0x3c9ac265	0.018891523
173	0x3dfa3438	0.12216991
174	0x3c422ff5	0.011852254
175	0xbaeebf42	-0.0018214958
176	0x3c455f9d	0.012046722
177	0x3b62e3eb	0.0034620713
178	0xc000f9c6	-2.015245
179	0xbcac7373	-0.021051144
180	0x3d1df169	0.038560305
181	0x4026ef88	2.6083698
182	0x3a22915c	0.000620147
183	0x3c3e6b1f	0.011622219
184	0x3d4c70c3	0.049912225
185	0x3d916d34	0.07100907
186	0xbd4093b4	-0.04701586
187	0x3d4bf8a0	0.049797654
188	0xbdb613d0	-0.08890498
189	0x3c41eb56	0.011835894
190	0xbdb4a4f7	-0.08820527
191	0x3da2dcff	0.07952308
192	0x3d029a08	0.031885177
193	0x3c9dd40a	0.019266147
194	0x3da971b1	0.08273638
195	0xbed7a879	-0.42120722
196	0x3d178528	0.036992222
197	0x3d374522	0.044743665
198	0xbf93fa1c	-1.1560702
199	0xbb700fa9	-0.0036630428
