data/mpc_stoch/PendulumEnv_sin/seed_813/model_4000.pt (torch, 175760 bytes, 10 tensors)

log_std f4 [1, 3]
-5.057027 -5.1369596 -4.0625744
00000000: 2ad3 a1c0 f961 a4c0 9c00 82c0

mu.0.weight f4 [200, 4]
-1.179897e-05 -6.650579e-05 2.0940239e-05 -9.630542e-05 9.3861655e-12 -1.2350817e-12 1.01143946e-11 2.4157095e-11
-0.1075564 -0.05943788 0.07932426 -0.050633736 0.51086664 0.7424695 -0.22817586 0.11071563
2.4988145e-11 2.842462e-10 -4.890835e-11 4.9598164e-10 -0.2612265 -0.6980526 0.18393858 0.06763979
-0.5193152 1.5411682 0.26431713 0.23897015 0.31145334 0.79132515 -0.119694404 -0.060483526
3.0015201e-09 -5.805703e-09 9.613891e-09 6.626414e-08 0.0004936988 -1.8924902e-05 4.991846e-05 0.0006025513
-1.4889304e-05 4.6341925e-06 2.462244e-07 5.5753367e-06 -0.31730798 0.2614485 -0.05044127 0.56640637
1.2957733e-05 5.127015e-06 -2.0689176e-06 -4.778332e-05 0.0007349356 0.0028431518 -3.6952446e-05 0.01459605
-0.758466 -0.13568187 0.17408115 0.5427569 -0.3979286 -0.7475445 -0.20518291 -0.02098782
-3.4620743e-06 4.2910915e-06 7.056586e-07 1.3332676e-05 0.1284964 -0.6117205 -0.10577222 0.25722712
-1.949926e-10 -2.575196e-09 2.5669062e-11 -1.6208793e-09 -0.06456562 -0.017772889 0.003938448 -0.048826434
-1.9242962e-14 2.3575754e-14 -1.3916708e-14 -8.030618e-15 0.46928552 -0.5374865 0.38440633 0.5775791
-0.053839955 -0.7476332 -0.09541046 -0.12029495 -1.305153 -0.13685356 -0.18139984 -0.13112432
0.577346 -0.7316679 -0.22945945 -0.011914921 -2.5764427e-12 -1.7830428e-11 1.8545125e-13 -2.0625118e-11
-0.4468384 -1.0675685 -0.24141842 -0.03591725 -2.3728583e-06 1.1128534e-06 4.8220556e-07 1.355903e-06
-0.6621521 0.6308832 0.28472555 0.008917599 0.030024307 0.62618065 0.014789456 -0.0008936333
-0.04418802 0.97975516 0.45410374 0.36385155 -0.1847048 -0.6770705 -0.6057488 0.26321313
-0.2290397 0.76090026 0.044796836 -0.10849719 8.694242e-12 5.7348015e-11 1.2633538e-12 2.3093256e-11
0.1274131 -0.86424077 0.12936975 0.4022301 0.23805985 -0.19683239 0.04650764 0.023429992
-0.23223948 -0.5561162 -0.09693419 1.1907194 0.01292982 0.0012536354 -0.00011006396 -0.009117719
1.9174151e-05 0.00011157931 -3.937951e-05 0.00017624418 0.49534968 -0.37290886 0.03994337 -0.30503726
-0.00042328617 -0.00053881254 -0.0002534142 -0.0013812914 -0.34074053 -0.8018615 0.17305526 0.15977444
-3.3199449e-06 -0.0009558529 -1.3385187e-05 0.0002115829 -1.030957 0.26094353 0.20580326 0.077433206
-4.395885e-06 -7.3751704e-05 -2.5431459e-07 -1.1264392e-05 0.046518646 1.0920641 0.23827544 0.32164726
0.14402616 0.7969386 -0.19316885 -0.11776058 -2.9152448e-05 -0.00031297348 3.8607377e-05 -0.00027258988
-0.14553072 0.64472497 -0.32404688 1.2444437 -2.9960878e-10 7.2404166e-12 3.4464148e-12 4.0294165e-10
0.79895717 0.041336548 -0.16190581 0.074480996 -8.5742236e-08 -2.5944107e-06 2.915844e-07 2.9892288e-07
-2.256025e-12 3.651517e-12 5.9708884e-13 7.483322e-12 0.17059804 0.0731602 0.0072044483 -0.10955548
0.5324582 -0.20873868 -0.02373829 0.23435095 -0.0008766332 0.0042194054 0.0009155757 0.007961331
-0.3195427 -0.42980888 0.1108378 0.019342441 -0.14388871 -0.59647673 -0.39336336 0.45852363
1.0088413e-08 6.193835e-08 2.11886e-09 8.278962e-09 0.6896797 -0.56610805 -0.28285795 -0.15145692
-0.33820477 0.14608029 -0.08464489 0.484981 9.6945136e-08 6.401951e-08 1.739128e-08 1.17128295e-07
0.45059538 0.0029738457 -0.10740661 1.0689819 0.00015680242 0.0011637094 -1.623025e-05 -0.000111050045
00000000: 31f4 45b7 0679 8bb8 d2a8 af37 94f7 c9b8
00000010: 881f 252d 82d2 adab 2fef 312d f17c d42d
00000020: 8846 dcbd 2275 73bd c274 a23d 5265 4fbd
00000030: 28c8 023f 7b12 3e3f efa6 69be e0be e23d
00000040: 4dcc db2d 1944 9c2f e819 57ae 9b55 0830
00000050: 7bbf 85be 93b3 32bf 655a 3c3e bb86 8a3d
00000060: d7f1 04bf 0045 c53f 9354 873e 97b4 743e
00000070: d076 9f3e 4994 4a3f 5722 f5bd 93bd 77bd
00000080: 4d43 4e31 817b c7b1 572a 2532 194d 8e33
00000090: 916b 013a ebc0 9eb7 8a5f 5138 89f4 1d3a
000000a0: 13cd 79b7 697f 9b36 d330 8434 c713 bb36
000000b0: 3176 a2be 94dc 853e 819b 4ebd 0200 113f
000000c0: 0a65 5937 b908 ac36 bcd7 0ab6 f36a 48b8
000000d0: b1a8 403a 2c54 3a3b 63fd 1ab8 4524 6f3c
000000e0: d42a 42bf 30f0 0abe 5442 323e 1ef2 0a3f
000000f0: 4cbd cbbe 145f 3fbf 781b 52be a6ee abbc
00000100: fc55 68b6 32fc 8f36 7d6c 3d35 68af 5f37
00000110: 8f94 033e b799 1cbf 1b9f d8bd 46b3 833e
00000120: 8a65 56af 54f7 30b1 97c9 e12d 9fc5 deb0
00000130: fb3a 84bd 7398 91bc 190e 813b 3afe 47bd
00000140: 4053 ada8 fd59 d428 7db3 7aa8 b0aa 10a8
00000150: 3146 f03e b798 09bf e8d0 c43e 39dc 133f
00000160: 4987 5cbd e464 3fbf 8f66 c3bd 335d f6bd
00000170: 410f a7bf 5723 0cbe e1c0 39be 7445 06be
00000180: f3cc 133f 964e 3bbf 6bf7 6abe cd36 43bc
00000190: 114d 35ac 8ed6 9cad afcc 502a a36b b5ad
000001a0: 01c8 e4be 16a6 88bf 6436 77be f71d 13bd
000001b0: 653d 1fb6 5a5d 9535 ea70 0135 79fc b535
000001c0: cd82 29bf 9081 213f 8cc7 913e 1f1b 123c
000001d0: 89f5 f53c 604d 203f 794f 723c b742 6aba
000001e0: 7ffe 34bd 3cd1 7a3f 4980 e83e c04a ba3e
000001f0: 4123 3dbe 7e54 2dbf 5a12 1bbf dfc3 863e
00000200: 6289 6abe 5cca 423f e37c 373d c633 debd
00000210: 63f3 182d 2038 7c2e 1ecd b12b 6421 cb2d
00000220: 9478 023e e23e 5dbf 8179 043e 1bf1 cd3e
00000230: f6c5 733e 6e8e 49be cc7e 3e3d 41f0 bf3c
00000240: 30d0 6dbe a25d 0ebf 6f85 c6bd 7e69 983f
00000250: 99d7 533c 0651 a43a 23d2 e6b8 7c62 15bc
00000260: 2dd8 a037 b0ff e938 6d2b 25b8 30ce 3839
00000270: 799e fd3e e9ed bebe a99b 233d d82d 9cbe
00000280: 82ec ddb9 193f 0dba aedc 84b9 730c b5ba
00000290: 8b75 aebe cc46 4dbf 6635 313e e99b 233e
000002a0: 38cc 5eb6 3492 7aba f190 60b7 5adc 5d39
000002b0: 66f6 83bf 649a 853e 17be 523e 4d95 9e3d
000002c0: 5d80 93b6 25ab 9ab8 bb88 88b4 32fc 3cb7
000002d0: 568a 3e3d c2c8 8b3f 7afe 733e f3ae a43e
000002e0: 987b 133e 2b04 4c3f 0ece 45be 752c f1bd
000002f0: 688c f4b7 9716 a4b9 5bee 2138 65ea 8eb9
00000300: 0106 15be b20c 253f 79e9 a5be ee49 9f3f
00000310: 30b6 a4af e0bf fe2c 1785 722c ff84 dd2f
00000320: 7588 4c3f 8350 293d a3ca 25be 7e89 983d
00000330: 4b21 b8b3 a31b 2eb6 0e8b 9c34 a67b a034
00000340: efc0 1eac f179 802c c910 282b e3a5 032d
00000350: 41b1 2e3e 04d5 953d 4b13 ec3b a05e e0bd
00000360: 2e4f 083f 98bf 55be cd76 c2bc b2f9 6f3e
00000370: dccd 65ba f042 8a3b 3f03 703a 3e70 023c
00000380: 1a9b a3be e90f dcbe eefe e23d 0a74 9e3c
00000390: 9057 13be b3b2 18bf ec66 c9be 9cc3 ea3e
000003a0: 4f51 2d32 f802 8533 619b 1131 433b 0e32
000003b0: d98e 303f 75ec 10bf c2d2 90be 8617 1bbe
000003c0: 2d29 adbe 1296 153e 4d5a adbd 6e4f f83e
000003d0: 2730 d033 197b 8933 d463 9532 f687 fb33
000003e0: 70b4 e63e dae4 423b fff7 dbbd 66d4 883f
000003f0: 546b 2439 9c87 983a 3226 88b7 8ae3 e8b8

mu.0.bias f4 [200]
4.0022398e-05 -7.711544e-12 -0.16023439 -0.37781334 -1.05334616e-10 -0.2209139 0.82514596 0.53560764
-1.5624826e-08 -0.00046265865 1.2864385e-05 -0.055052638 -2.258514e-06 -0.002466597 -0.92897326 0.6710812
1.4355683e-06 -0.5975159 5.4916416e-10 0.066342026 2.04346e-14 -0.090735964 -0.43057257 -0.8564966
-0.69754064 7.791705e-12 0.41451693 1.9479576e-06 0.70212555 0.11146458 0.33466104 0.1487765
-0.454397 -1.7498189e-11 0.7659631 0.038345736 0.13091505 -0.011227435 -6.013657e-05 0.1927163
0.00088817 0.5870267 -6.887607e-05 -0.81468236 2.322078e-06 -0.4893356 0.4377357 5.162607e-05
0.097241044 2.4379573e-10 -0.69512504 1.4219552e-08 1.1989362e-12 -0.14781988 -0.25520232 -0.0007332908
0.34974408 -0.49399963 -1.1343575e-08 -0.6820243 -0.21580163 -8.85662e-08 0.21983667 -0.000108526234
0.6388486 0.022425413 -0.0014244276 6.491597e-11 -0.05739603 -5.2183094e-07 0.113486834 0.49801078
-0.10323182 0.054268587 -0.00026513913 -0.5445951 0.17647462 -0.6123467 0.102708854 1.44765755e-08
0.0007367047 -0.5930775 0.011079485 4.86197e-14 2.9701286e-07 0.13469836 -0.0077190315 0.004296776
0.03893374 -0.6500915 -0.36678237 -1.5768231e-06 -0.0016226115 -1.131764e-09 0.103419945 6.36916e-05
-1.3155661e-08 -1.245472 0.08055823 -9.51142e-09 5.443645e-10 0.15726767 5.0658906e-07 0.603071
0.28862783 1.5635996e-08 -0.6169627 -0.3320835 0.24030152 -0.6679561 -0.8456313 0.6844328
-0.32425728 0.6019175 0.72192067 -0.08711365 3.857426e-06 -1.1101846e-08 -1.7735346e-11 -0.014791189
5.4485614e-08 -0.2070885 9.066224e-09 0.20203502 -0.44577423 0.71887416 0.12945451 -2.0003048e-07
-0.19769283 -0.01048898 -0.031011362 0.42133576 -4.7361027e-08 -0.40933418 0.49538472 0.25607118
-0.06050611 0.02486642 0.6666842 0.5326532 0.76539266 -0.16162111 0.31261995 -0.24125926
-0.054632813 0.5365705 4.0003883e-08 -0.4967236 -0.032497253 0.44023305 2.4190488 0.00021203968
0.55491966 -0.5229291 0.19885726 9.600802e-09 0.53893375 -6.002791e-06 0.30072004 0.4437975
0.55117905 -0.11981957 -5.520401e-12 1.2763722e-05 0.003541292 0.21706142 -0.31752568 0.5719318
-0.27675134 -0.06528691 0.89046794 -0.17213054 -0.28296104 0.7448763 1.3396179e-10 6.7653964e-08
0.53233916 0.7538436 -0.69108385 -3.1244087e-09 -0.39497268 -8.9504305e-05 -0.4243842 0.44599614
0.04401549 -0.036917668 0.00040222023 0.51169884 0.35417923 -0.00076085195 0.5244799 0.4209785
-4.3160207e-06 -0.18165967 0.79328024 7.516616e-09 -0.034324553 0.67386085 0.2827873 0.30861136
00000000: b9dd 2738 b5a9 07ad 7c14 24be c070 c1be
00000010: 1ea2 e7ae 4137 62be c43c 533f 951d 093f
00000020: 5b37 86b2 fe90 f2b9 1dd4 5737 e07e 61bd
00000030: fa90 17b6 a1a6 21bb 31d1 6dbf facb 2b3f
00000040: c0ad c035 cdf6 18bf fef3 1630 54de 873d
00000050: fb0e b828 c7d3 b9bd 0274 dcbe 5c43 5bbf
00000060: 0692 32bf b812 092d 903b d43e a8b9 0236
00000070: 80be 333f 8b47 e43d b158 ab3e de58 183e
00000080: b9a6 e8be 6bea 99ad 2816 443f 6b10 1d3d
00000090: 980e 063e 47f3 37bc 263b 7cb8 6c57 453e
000000a0: 14d4 683a 6247 163f 8f71 90b8 068f 50bf
000000b0: ffd4 1b36 328a fabe e51e e03e 1289 5838
000000c0: 5026 c73d 3307 862f b7f3 31bf 404a 7432
000000d0: 3bbc a82b 185e 17be e1a9 82be 503a 40ba
000000e0: a811 b33e 85ed fcbe 92e1 42b2 2599 2ebf
000000f0: 1afb 5cbe c931 beb3 dd1c 613e 9498 e3b8
00000100: 958b 233f 80b5 b73c dcb3 baba 71c0 8e2e
00000110: 1918 6bbd f313 0cb5 c96b e83d 45fb fe3e
00000120: 346b d3bd bd48 5e3d 5f02 8bb9 966a 0bbf
00000130: c3b5 343e c1c2 1cbf 0559 d23d a7b4 7832
00000140: 6a1f 413a edd3 17bf ba86 353c b3f6 5a29
00000150: 2375 9f34 5eee 093e eeef fcbb f8cb 8c3b
00000160: fc78 1f3d 666c 26bf e6ca bbbe 3ba3 d3b5
00000170: cfad d4ba 688c 9bb0 d6cd d33d 2b92 8538
00000180: 3503 62b2 a06b 9fbf b7fb a43d ab67 23b2
00000190: 3fa2 1530 c70a 213e 89fc 0735 dc62 1a3f
000001a0: 07c7 933e eb4f 8632 44f1 1dbf d906 aabe
000001b0: 9a11 763e 2cff 2abf 4b7b 58bf fd36 2f3f
000001c0: 0d05 a6be 4417 1a3f cbcf 383f a468 b2bd
000001d0: 096f 8136 6fba 3eb2 7300 9cad be56 72bc
000001e0: 9103 6a33 020f 54be adc1 1b32 45e2 4e3e
000001f0: 853c e4be 2308 383f b98f 043e f6c7 56b4
00000200: fd6f 4abe f9d9 2bbc 8a0b febc 52b9 d73e
00000210: 006a 4bb3 4094 d1be 11a3 fd3e c31b 833e
00000220: 41d5 77bd aab4 cb3c d1ab 2a3f f65b 083f
00000230: c6f0 433f 0180 25be b90f a03e ab0c 77be
00000240: a8c6 5fbd af5c 093f bcd0 2b33 8e52 febe
00000250: d71b 05bd 3a66 e13e b2d1 1a40 f856 5e39
00000260: 370f 0e3f aede 05bf 3da1 4b3e c6f0 2432
00000270: 90f7 093f 956b c9b6 faf7 993e 6d39 e33e
00000280: 121a 0d3f f663 f5bd 5a3b c2ac c523 5637
00000290: 0515 683b 5945 5e3e ba92 a2be 1f6a 123f
000002a0: 5ab2 8dbe 25b5 85bd b5f5 633f fd42 30be
000002b0: 45e0 90be 37b0 3e3f e44a 132f 2949 9133
000002c0: 6147 083f e5fb 403f dfea 30bf 2eb5 56b1
000002d0: dc39 cabe 42b4 bbb8 e348 d9be 9b59 e43e
000002e0: 9649 343d fb36 17bd 16e1 d239 b2fe 023f
000002f0: fb56 b53e e973 47ba 5144 063f 7e8a d73e
00000300: 56d2 90b6 fe04 3abe 6a14 4b3f 6d22 0132
00000310: e797 0cbd 2582 2c3f 7fc9 903e 4f02 9e3e

mu.2.weight f4 [3, 200]
1.5606012e-05 1.7506196e-11 0.013141836 0.086671 -9.168166e-12 0.046017572 0.018218843 -0.10729722
1.5884364e-08 0.00010554997 -6.001494e-07 0.02750181 -9.375164e-06 -0.0009678743 0.023674814 0.05560704
-1.3537452e-06 -0.12513284 -6.063698e-11 -0.00028554624 -5.424998e-15 0.0051700305 -0.096922144 0.07101158
-0.015838988 5.0159584e-13 -0.0136643965 -4.8383644e-08 -0.020236822 0.006147278 0.054038152 0.022916129
-0.023567459 5.5543874e-14 -0.13099886 -0.052083056 -0.0076919855 0.00025480037 -1.9978805e-05 -0.08530106
-2.7226704e-05 -0.123294815 5.795293e-05 -0.045691267 -3.3743247e-06 -0.10996837 -0.06993419 -1.7571101e-05
-0.001109322 7.959488e-11 0.010214825 3.806706e-07 -8.1938315e-14 -0.0013598577 -0.08001414 0.0014946708
-0.024617972 -0.04712652 -1.3003162e-09 0.03342716 0.043554176 1.3637828e-08 -0.04634176 -0.00014883389
0.0050829067 -0.0003326151 0.0008616811 -2.0720434e-11 -0.0021085106 -1.1096993e-07 -0.007101851 -0.1640572
-0.0009988991 -0.01264168 1.2047889e-05 0.11898895 -0.043380916 0.030026997 0.00014194276 4.9700475e-09
-0.00023637153 0.012623822 -0.0021396014 1.8316129e-14 -1.48219685e-08 0.02879722 -0.0025898756 -0.00012513595
2.6052267e-05 0.19062291 -0.08594854 7.743455e-08 0.0009458625 -2.0593806e-13 0.007368996 -1.2505726e-05
1.4649966e-08 0.0052032312 -0.009439918 1.2042636e-09 -5.5461435e-09 -0.03737309 -8.485981e-08 -0.036552273
-0.045721605 3.2071953e-10 -0.082980625 0.015132971 0.063481145 0.048960723 0.099112034 0.069401674
0.054901853 -0.040876534 0.013518732 -0.0014028506 -5.36616e-07 2.7969975e-09 1.092854e-11 0.0002063442
-3.128414e-08 0.00886233 -2.403552e-10 0.023057304 -0.06086952 -0.061182678 0.04658018 7.849558e-09
0.0066455286 0.00026576084 -0.016806467 0.015562019 -2.1406592e-08 -0.04999918 0.16421622 -0.045940425
-0.008863197 0.00012490129 0.05397036 0.0047172685 -0.030283747 0.08212094 -0.057385385 -0.0151327085
0.00019687474 -0.015774623 1.5801323e-08 -0.007842984 -0.021477576 0.06318206 -0.0050517386 -2.45372e-05
-0.05257505 0.006536138 0.007910386 2.9135169e-08 0.014837151 -2.7969263e-05 -0.0129099395 -0.026859118
0.16053292 -0.019409586 -6.987075e-12 -0.000113640206 -0.018326716 0.045870293 0.08612156 -0.08277231
0.085771754 -0.0009148212 -0.12953243 0.004720535 -0.018487683 0.14366338 -8.360387e-12 3.0198908e-09
0.020835647 0.15417095 -0.266597 3.898035e-09 -0.0126681 -3.0588708e-05 0.13574938 -0.0251302
-0.0071742185 0.00044142755 -1.2709748e-05 0.031687573 -0.08229297 -0.00012509056 -0.08934602 -0.055785336
7.697435e-08 0.03829675 -0.054907735 -3.7122e-10 0.024655936 0.13695027 0.028715955 -0.076999374
4.2195457e-05 1.6159131e-11 -0.0245018 0.014004595 -1.6475278e-10 -0.030793529 0.11765813 -0.020243183
-2.9523501e-09 -7.058597e-05 1.5257874e-07 -0.025822995 7.4329564e-06 -0.0048181717 -0.16049643 -0.06551203
-2.7655997e-06 0.033200733 4.9064913e-10 -0.0004604652 -2.3827975e-15 -0.030639516 0.08630449 0.20498015
-0.09711497 7.038809e-12 -0.02252734 -1.6091185e-08 0.025518464 -0.054789674 0.007391256 0.008576698
-0.096971005 -7.308448e-12 -0.026458912 0.008593952 0.027571833 6.289018e-05 -6.834518e-05 0.071017645
0.0005850831 0.008141024 2.7381871e-05 -0.17868932 3.2581374e-06 0.07286102 0.043291442 0.000105688334
-0.009493765 -1.5657556e-10 -0.11613381 3.176872e-07 -1.8992173e-12 -0.00086887775 0.014429215 -0.0022936135
00000000: a8e9 8237 73fc 992d db50 573c 9180 b13d
00000010: c049 21ad ec7c 3c3d af3f 953c a5be dbbd
00000020: 1672 8832 b55a dd38 f419 21b5 7a4b e13c
00000030: 064a 1db7 f2b8 7dba aff1 c13c 35c4 633d
00000040: 55b2 b5b5 d322 00be 9657 85ae 5eb5 95b9
00000050: c674 c3a7 5c69 a93b 1e7f c6bd 856e 913d
00000060: c4c0 81bc ca2f 0d2b a2e0 5fbc 61ce 4fb3
00000070: b1c7 a5bc 1b6f c93b 1c57 5d3d 9bba bb3c
00000080: 8b10 c1bc ba25 7a29 9124 06be 0b55 55bd
00000090: 0d0d fcbb ba96 8539 2898 a7b7 52b2 aebd
000000a0: e764 e4b7 fe81 fcbd 7c12 7338 c426 3bbd
000000b0: 7572 62b6 1937 e1bd a839 8fbd a765 93b7
000000c0: ab66 91ba ef07 af2e 155c 273c f85e cc34
000000d0: 3982 b8a9 413d b2ba 74de a3bd d4e8 c33a
000000e0: a1ab c9bc bd07 41bd cfb6 b2b0 ebea 083d
000000f0: dd65 323d cd4b 6a32 dbd0 3dbd 4b10 1cb9
00000100: 838e a63b d862 aeb9 71e2 613a 4542 b6ad
00000110: f02e 0abb 5d4e eeb3 a5b6 e8bb 9cfe 27be
00000120: 7eed 82ba 0d1f 4fbc 4a21 4a37 7bb0 f33d
00000130: 30b0 31bd 2dfb f53c 78d6 1439 00c5 aa31
00000140: 80da 77b9 26d4 4e3c 8e38 0cbb 1efa a428
00000150: b5a3 7eb2 26e8 eb3c e7ba 29bb ed36 03b9
00000160: d18a da37 a732 433e ca05 b0bd 184a a633
00000170: c2f3 773a 9bdd 67aa 9e77 f13b afcf 51b7
00000180: 3baf 7b32 de7f aa3b e3a9 1abc 4283 a530
00000190: 6590 beb1 8614 19bd 2d3c b6b3 d6b7 15bd
000001a0: 9446 3bbd 4351 b02f bff1 a9bd 48f0 773c
000001b0: 6702 823d 0a8b 483d 40fb ca3d 7722 8e3d
000001c0: c4e0 603d 276e 27bd ac7d 5d3c dbdf b7ba
000001d0: f90b 10b5 4d35 4031 c541 402d 195e 5839
000001e0: 475d 06b3 4e33 113c fd22 84af ace2 bc3c
000001f0: 5152 79bd b09a 7abd dcca 3e3d b9da 0632
00000200: bcc2 d93b d155 8b39 b7ad 89bc d7f7 7e3c
00000210: 98e1 b7b2 f1cb 4cbd 4c28 283e 072c 3cbd
00000220: f136 11bc eff7 0239 0610 5d3d 5193 9a3b
00000230: 9f15 f8bc 062f a83d f00c 6bbd 2eef 77bc
00000240: 2970 4e39 c839 81bc 7abb 8732 dc7f 00bc
00000250: bef1 afbc 9965 813d 0e89 a5bb 3cd5 cdb7
00000260: f058 57bd 192d d63b 909a 013c ea44 fa32
00000270: 8617 733c 899f eab7 3684 53bc a707 dcbc
00000280: be62 243e da00 9fbc fad5 f5ac 1f52 eeb8
00000290: e921 96bc 7de2 3b3d 8060 b03d 8784 a9bd
000002a0: 1aa9 af3d 9dd0 6fba 26a4 04be b8ae 9a3b
000002b0: 7b73 97bc 7e1c 133e d613 13ad 7b86 4f31
000002c0: 85af aa3c fdde 1d3e 677f 88be 7aef 8531
000002d0: dd8d 4fbc 604c 00b8 e301 0b3e d9dd cdbc
000002e0: b515 ebbb 676f e739 f43b 55b7 d4ca 013d
000002f0: 3789 a8bd be2a 03b9 0cfb b6bd 2a7f 64bd
00000300: 194d a533 0edd 1c3d efe6 60bd 9214 ccaf
00000310: 3ffb c93c b13c 0c3e b93d eb3c d9b1 9dbd
00000320: 07fb 3038 2123 8e2d 00b8 c8bc 8773 653c
00000330: c925 35af b642 fcbc bff6 f03d 08d5 a5bc
00000340: 4be2 4ab1 8e07 94b8 86d4 2334 bf8a d3bc
00000350: 9c68 f936 c1e1 9dbb 2d59 24be 2c2b 86bd
00000360: a498 39b6 7efd 073d 5dde 0630 986a f1b9
00000370: dbb2 2ba7 b9ff fabc 69c0 b03d 51e6 513e
00000380: 37e4 c6bd f5a7 f72c 428b b8bc e438 8ab2
00000390: 190c d13c 236b 60bd 5932 f23b 4785 0c3c
000003a0: bc98 c6bd 5392 00ad 5cc0 d8bc a6cd 0c3c
000003b0: 53de e13c e9e3 8338 8a54 8fb8 b371 913d
000003c0: 4360 193a ee61 053c 1fb2 e537 55fa 36be
000003d0: 60a6 5a36 2938 953d 5e52 313d fea4 dd38
000003e0: bd8b 1bbc 1a28 2caf 90d7 edbd 998e aa34
000003f0: 42a5 05ac 66c5 63ba 8468 6c3c 7350 16bb

mu.2.bias f4 [3]
0.022257859 -0.0024614078 -0.006650195
00000000: 1d56 b63c 924f 21bb e1e9 d9bb

reward_fun.0.weight f4 [200, 4]
1.105732 -0.77344424 -0.1070104 0.35946256 -0.06557452 0.019423379 0.0028789232 0.15535778
-1.3273221 -0.098732166 -0.009463858 1.3835266 1.1788826 -0.69374746 -0.33348566 -0.3759072
-1.0808164 0.3898845 -0.014943145 3.64913 -0.35972112 -0.14096777 -0.00023277086 0.043905843
-0.69964653 -0.1445465 -0.20034644 2.4645813 -1.0180993 -0.07820631 0.088955484 0.016912954
0.030343886 -0.007673321 -0.03554218 0.41868845 -0.07486179 -0.08547461 0.002603509 0.09727738
-2.4999287 0.22303933 0.144659 1.7558415 0.28881627 -1.4350655 -0.015489355 1.3257558
-0.3351514 -0.0030731491 0.08067745 -0.55884916 0.2369418 -0.32857344 -0.19152509 1.4976542
-0.7759034 -0.44167823 0.13932809 -2.3223383 -0.9111209 0.13970324 -0.00773675 0.57087094
0.13589947 0.7402708 0.09951218 -1.7691116 0.8691262 -0.5933879 -0.7077631 -1.0436393
-0.8951537 1.0289147 0.16322996 -1.3193233 0.4666665 0.5044232 -0.20921145 -1.4163806
-0.75323963 0.099968635 0.011136496 1.5779638 1.0044833 0.56019545 0.5491364 0.9685754
-0.31065613 -0.03969781 -0.19331525 2.6134696 -1.0329932 -0.07244663 0.083972156 -0.43278775
-0.12039548 -0.08801445 0.1543234 1.0331752 -0.03535536 0.06734441 0.024568744 -0.23775648
1.1044859 1.6527058 0.22411512 0.30364606 -1.2078868 -0.23670407 -0.10892735 -1.0823574
1.7868091 -1.2158406 -0.27008426 -0.055809833 -0.32500374 -0.06282406 0.044303197 0.5494958
1.7176176 -0.54472715 -0.3591386 0.14348443 -0.42346466 0.053105835 0.046952568 -0.1374303
-1.7873467 0.20851071 0.14924057 0.16816296 0.8811175 -0.6200369 -0.71354246 -1.0603083
0.3535816 -0.18526682 -0.0016557976 2.211952 -0.15350841 0.0353308 0.015113792 0.4148666
0.99320924 1.3930929 0.10502523 -0.20503603 -0.165768 0.35154644 0.06733995 -1.1922889
-1.4708155 0.5590819 0.081892945 -2.9208372 1.1366985 0.5258146 0.33158782 1.186597
-0.3491646 -0.024929259 0.027286323 0.24301657 0.025560215 0.15039027 0.03692793 -0.23291954
-0.3408715 0.49059024 0.0066139293 -1.3769612 -0.8067003 -0.119625136 0.108458735 -1.026565
1.4134113 0.83090436 -0.39252773 -0.141782 0.37622228 -0.09833664 0.16878338 -0.5569715
0.9213031 1.4921279 0.22731993 0.4855823 0.6056103 -0.88854015 -0.20689227 2.0115073
-0.26108232 0.067674965 0.06273729 0.10314655 -0.02585231 1.1775545 -0.044157058 -1.3239563
-1.0005343 -0.040443864 0.15356185 -1.4086103 0.44583973 -0.6444175 -0.0026249504 0.1142911
0.40567276 -1.5160879 0.04599623 -0.20495385 -0.47476777 0.31230006 0.1871268 1.5103033
-1.0423076 -0.09364601 0.030795563 0.32351556 1.2946489 1.1041076 -0.08086008 -0.8579501
1.1971586 -0.9642344 -0.4712457 -0.46918663 1.1943678 -1.0703313 -0.314269 -0.2000194
0.52591 -1.2322042 -0.14426179 0.30826536 0.8430719 -0.90841144 -0.044860687 1.476238
-0.52752143 -0.19412549 -0.074164756 0.94941103 0.86828923 0.20154943 -0.33256274 2.3540845
-0.39884728 0.05944957 -0.0009450986 0.5309532 -1.3330995 -0.5501786 0.028944818 -1.37396
00000000: a088 8d3f 7100 46bf 4528 dbbd 7a0b b83e
00000010: ef4b 86bd c71d 9f3c 51ac 3c3b 1c16 1f3e
00000020: b1e5 a9bf 1734 cabd 4c0e 1bbc 6617 b13f
00000030: a0e5 963f 6f99 31bf a2be aabe e976 c0be
00000040: 3158 8abf f19e c73e 18d4 74bc 598b 6940
00000050: 5e2d b8be db59 10be f413 74b9 9dd6 333d
00000060: 091c 33bf ff03 14be 9e27 4dbe b3bb 1d40
00000070: 1451 82bf a12a a0bd 4b2e b63d 098d 8a3c
00000080: be93 f83c 7b70 fbbb ad94 11bd 555e d63e
00000090: 2351 99bd 500d afbd a29f 2a3b 5d39 c73d
000000a0: d5fe 1fc0 6c64 643e 7d21 143e 6abf e03f
000000b0: badf 933e 3ab0 b7bf 10c7 7dbc 5eb2 a93f
000000c0: f798 abbe e366 49bb 383a a53d bd10 0fbf
000000d0: dfa0 723e c73a a8be 271f 44be 22b3 bf3f
000000e0: 9ba1 46bf a623 e2be 06ac 0e3e 31a1 14c0
000000f0: 383f 69bf 5e0e 0f3e 9084 fdbb 9924 123f
00000100: 3b29 0b3e 6382 3d3f 0bcd cb3d 4072 e2bf
00000110: 0e7f 5e3f 45e8 17bf f62f 35bf f995 85bf
00000120: cb28 65bf 7ab3 833f c125 273e 96df a8bf
00000130: e9ee ee3e e121 013f 873b 56be f64b b5bf
00000140: 50d4 40bf 5bbc cc3d da75 363c b8fa c93f
00000150: e992 803f f868 0f3f 3494 0c3f 8ff4 773f
00000160: 520e 9fbe 2c9a 22bd 6ff4 45be 1643 2740
00000170: 1f39 84bf e65e 94bd 98f9 ab3d 5b96 ddbe
00000180: e891 f6bd ec40 b4bd f406 1e3e 163f 843f
00000190: c8d0 10bd deeb 893d 6444 c93c 6f76 73be
000001a0: cb5f 8d3f dd8b d33f 6f7e 653e 7f77 9b3e
000001b0: 099c 9abf 8d62 72be 4d15 dfbd b08a 8abf
000001c0: 29b6 e43f aaa0 9bbf 7c48 8abe da98 64bd
000001d0: e466 a6be e7a9 80bd 4577 353d c2ab 0c3f
000001e0: e5da db3f 3d73 0bbf 04e1 b7be 95ed 123e
000001f0: 5cd0 d8be 8185 593d 5651 403d 87ba 0cbe
00000200: c7c7 e4bf d583 553e 85d2 183e e932 2c3e
00000210: eb90 613f bdba 1ebf b8aa 36bf 2fb8 87bf
00000220: a608 b53e 96b6 3dbe 5907 d9ba 9f90 0d40
00000230: 4f31 1dbe 07b7 103d d79f 773c 6569 d43e
00000240: f642 7e3f de50 b23f 7817 d73d f7f4 51be
00000250: 16bf 29be e5fd b33e 87e9 893d ec9c 98bf
00000260: af43 bcbf fe1f 0f3f 7db7 a73d ffee 3ac0
00000270: 567f 913f c99b 063f e1c5 a93e 69e2 973f
00000280: b4c5 b2be 7238 ccbc 9187 df3c 56d9 783e
00000290: a863 d13c e8ff 193e be41 173d 7682 6ebe
000002a0: b686 aebe a52e fb3e a9b9 d83b 4440 b0bf
000002b0: e983 4ebf 06fe f4bd 9d1f de3d 7b66 83bf
000002c0: a9ea b43f 26b6 543f 65f9 c8be 4d2f 11be
000002d0: 35a0 c03e b864 c9bd 8dd5 2c3e af95 0ebf
000002e0: 85da 6b3f 0cfe be3f 8ec6 683e 3e9e f83e
000002f0: 4709 1b3f 5e77 63bf 91db 53be 89bc 0040
00000300: 95ac 85be 2c99 8a3d 697c 803d 803e d33d
00000310: 39c8 d3bc 1bba 963f 08de 34bd 6677 a9bf
00000320: 8211 80bf 77a8 25bd 513f 1d3e 584d b4bf
00000330: 1b45 e43e 8cf8 24bf 5c07 2cbb 7411 ea3d
00000340: 57b4 cf3e 2b0f c2bf 8b66 3c3d 6cdf 51be
00000350: c314 f3be cbe5 9f3e 2b9e 3f3e 9e51 c13f
00000360: 566a 85bf 7bc9 bfbd fa46 fc3c d5a3 a53e
00000370: 0eb7 a53f 6653 8d3f f899 a5bd 9ea2 5bbf
00000380: 7e3c 993f 11d8 76bf 1e47 f1be 3b39 f0be
00000390: 0be1 983f 9e00 89bf dee7 a0be e3d1 4cbe
000003a0: 0aa2 063f deb8 9dbf 5db9 13be f5d4 9d3e
000003b0: 8fd3 573f a78d 68bf d7bf 37bd 5ef5 bc3f
000003c0: a50b 07bf d5c8 46be b1e3 97bd 9a0c 733f
000003d0: 3448 5e3f f962 4e3e aa45 aabe 52a9 1640
000003e0: b635 ccbe 6481 733d 7ec0 77ba 8dec 073f
000003f0: 01a3 aabf 81d8 0cbf af1d ed3c ecdd afbf

reward_fun.0.bias f4 [200]
0.1367131 -0.099780776 -0.18388796 -1.2795178 -0.879304 -0.50132763 -0.12393586 1.3884053
0.11748281 -0.23728335 0.909329 -0.033869278 0.16876566 0.27279833 -1.639135 1.147289
-0.79159135 -1.5534829 -1.0954248 -1.1238712 0.7710395 -2.3688822 0.21015391 1.4154706
0.27764136 -0.32922286 -1.1199121 1.4244417 -0.9229064 -0.003260636 -1.181498 0.27157277
0.9560225 -1.5702358 -0.46416408 0.28698805 -1.1608876 -1.2679181 -1.1576383 -1.491115
0.48404264 -0.44436872 -1.1895607 0.92002285 -1.4375428 -0.47603118 -0.9696914 -1.0477732
0.7829085 -0.9558941 0.76394355 -0.97848225 -0.5097271 0.6682248 1.5823495 -0.4638675
-1.4953332 -1.0224007 -0.57854664 -0.23142228 -0.25765598 -0.060527407 0.07788978 -1.5667824
-0.814915 -1.372437 1.3953305 -0.118231244 0.79785794 -0.580479 -1.36871 -0.48596317
-1.6008488 -1.0886731 -0.5690899 -1.5037575 -0.9979878 -0.636944 -1.6184728 -0.39522636
-0.693051 -1.4403361 -1.0983198 -2.4315314 -1.1726477 -1.1002381 -0.059828263 -0.45090622
-1.079696 -1.0204921 -0.93256795 -0.44247395 -0.6818207 0.5864153 0.339169 -0.67647064
1.268795 -1.9398019 -1.195348 -0.24714643 -0.07929123 0.62340933 0.07866473 -1.3101232
-1.531255 0.206605 -0.19782583 -1.0055196 -0.61515874 -0.9050122 -1.3802543 -1.1811789
1.1672598 -0.995923 -1.4153636 -1.1446073 -1.6775079 -1.2176174 -0.5361244 -0.40963727
1.5414932 -0.23922746 -1.0062287 -1.9369377 0.8744269 -0.3106271 -0.90115285 0.6712895
-1.1554986 -0.85918087 -0.6211061 -0.81073457 0.15938169 -1.7086068 0.83870345 -1.1764698
-1.0543377 -1.6233326 -1.3777552 -1.28531 -1.4318724 -1.4476666 -0.34779537 -0.5840788
0.09519759 -0.10783759 -1.5511627 -1.3509321 -1.3905805 -0.5058955 -0.9777075 -2.9046392
-0.17085843 -1.280564 -0.65469635 -1.3936814 0.4570513 -1.3789053 -0.62370133 -1.1517215
-1.1711458 1.4214977 -0.94484895 -2.397089 -0.93827075 0.75284547 0.8153735 0.89663094
-0.9665315 -0.2778124 -0.06757462 -1.0776727 0.36621898 -0.110871136 -2.2968614 -0.46960312
-0.92421925 -0.12868781 -1.508606 -1.1227918 -0.7697303 -0.90654993 1.215252 -0.73596656
-1.0842113 -1.155023 0.40062672 -0.32635087 -0.96577835 -1.0902777 -0.1411765 -0.77262217
-2.325412 -0.52967244 -0.7370736 -0.18180741 0.84569156 -0.7932695 -1.6797827 0.9586312
00000000: 85fe 0b3e dd59 ccbd 204d 3cbe 3dc7 a3bf
00000010: 111a 61bf 0257 00bf 16d2 fdbd 44b7 b13f
00000020: d49a f03d 68fa 72be c9c9 683f 83ba 0abd
00000030: e8d0 2c3e 39ac 8b3e 2dcf d1bf 5eda 923f
00000040: bba5 4abf 87d8 c6bf e136 8cbf 03db 8fbf
00000050: d862 453f c49b 17c0 9632 573e 242e b53f
00000060: 0227 8e3e e68f a8be 4859 8fbf 1b54 b63f
00000070: 9843 6cbf 65b0 55bb 543b 97bf 960b 8b3e
00000080: e4bd 743f 7dfd c8bf eaa6 edbe 19f0 923e
00000090: f797 94bf 244b a2bf 7e2d 94bf dbdc bebf
000000a0: 70d4 f73e 4c84 e3be 8643 98bf 9e86 6b3f
000000b0: 6701 b8bf 5cba f3be b23d 78bf 6f1d 86bf
000000c0: b16c 483f 7ab5 74bf ce91 433f d07d 7abf
000000d0: 7a7d 02bf c810 2b3f 6e8a ca3f 0a80 edbe
000000e0: 1467 bfbf 07de 82bf a21b 14bf f6f9 6cbe
000000f0: 7ceb 83be 96eb 77bd ad84 9f3d 538c c8bf
00000100: 459e 50bf 04ac afbf 319a b23f 3923 f2bd
00000110: 6b40 4c3f 469a 14bf e431 afbf 2ad0 f8be
00000120: 9de8 ccbf a459 8bbf e0af 11bf 207b c0bf
00000130: 217c 7fbf c30e 23bf 1e2a cfbf 1c5b cabe
00000140: ca6b 31bf ef5c b8bf be95 8cbf 369e 1bc0
00000150: 5219 96bf 9ad4 8cbf 7b0e 75bd 2edd e6be
00000160: 7b33 8abf 7c9f 82bf c6bc 6ebf f28b e2be
00000170: cd8b 2ebf 501f 163f 8fa7 ad3e 2e2d 2dbf
00000180: e067 a23f 6e4b f8bf 2a01 99bf f413 7dbe
00000190: 7163 a2bd c197 1f3f f91a a13d 1eb2 a7bf
000001a0: 2a00 c4bf 4390 533e db92 4abe deb4 80bf
000001b0: 0b7b 1dbf e1ae 67bf 2cac b0bf df30 97bf
000001c0: c568 953f cff4 7ebf a22a b5bf 7e82 92bf
000001d0: 94b8 d6bf e3da 9bbf 733f 09bf fabb d1be
000001e0: a64f c53f 0bf8 74be 1acc 80bf 93ed f7bf
000001f0: 71da 5f3f 840a 9fbe f4b1 66bf a1d9 2b3f
00000200: 61e7 93bf 47f3 5bbf cf00 1fbf 4d8c 4fbf
00000210: f434 233e a1b3 dabf 45b5 563f 9096 96bf
00000220: 8af4 86bf 5dc9 cfbf 485a b0bf 0a85 a4bf
00000230: 9847 b7bf 244d b9bf 3c12 b2be 3086 15bf
00000240: f4f6 c23d f4d9 dcbd 808c c6bf 58eb acbf
00000250: 8bfe b1bf 5e82 01bf 0a4b 7abf 9ce5 39c0
00000260: 83f5 2ebe 85e9 a3bf 2e9a 27bf 2764 b2bf
00000270: a102 ea3e f87f b0bf e4aa 1fbf 9c6b 93bf
00000280: 1be8 95bf a3f3 b53f 9fe1 71bf e869 19c0
00000290: 8332 70bf 7bba 403f 51bc 503f 9b89 653f
000002a0: 9c6e 77bf 6d3d 8ebe 9064 8abd 2ef1 89bf
000002b0: 0e81 bb3e 6810 e3bd c7ff 12c0 d26f f0be
000002c0: a299 6cbf bdc6 03be 001a c1bf a4b7 8fbf
000002d0: 0c0d 45bf a813 68bf 618d 9b3f 4e68 3cbf
000002e0: 70c7 8abf cbd7 93bf f21e cd3e 7617 a7be
000002f0: 403d 77bf 388e 8bbf 9390 10be 91ca 45bf
00000300: 8dd3 14c0 9d98 07bf dbb0 3cbf b92b 3abe
00000310: 3e7f 583f b613 4bbf 1f03 d7bf db68 753f

reward_fun.2.weight f4 [200, 200]
0.4889539 -0.019887332 0.5868815 1.406247 -1.2019273 -0.17071263 0.4885904 0.14367826
-0.028574713 0.015672727 1.0688512 0.68353313 -0.11173127 0.22917706 -2.7285857 0.3545551
-0.37261423 -1.4111643 0.57859325 0.9333689 0.62788707 -3.2781222 0.73934245 0.111859314
0.33230743 -0.029568452 1.5954354 0.18046917 1.1735636 0.15362312 -0.8288739 -0.009490692
0.33543012 -1.3801535 0.63675976 0.08628513 1.0647037 -0.13559514 -0.37461552 -1.0850898
-0.030916968 -0.2632909 0.9455042 -0.03306969 1.7327032 -0.012028869 0.4902436 0.07603739
0.004972181 0.24123538 -0.1748885 -0.7993589 0.5366954 0.42560416 0.27467534 -0.79567844
0.43646127 1.0627792 0.4649873 0.30091035 0.40033355 -0.28056732 0.23248614 -2.26783
-0.38564178 0.7443333 0.60304 0.10104533 0.0003547162 0.097408034 -3.07255 1.3066149
-0.84574354 -0.08511475 -0.0423977 1.0792991 0.021950765 -0.30472767 1.6682044 0.15616764
-0.46987095 0.21258584 0.9038714 -3.9737132 -0.34380057 1.3471191 -0.04867899 0.43633118
-1.9632238 0.46228105 0.4274106 -0.5868483 -0.25708175 0.25871867 0.2886807 0.44417226
0.28066516 -1.8221438 -0.5032214 -0.42359066 0.16966587 -0.061619915 -0.27996993 1.0480875
0.9772332 -0.13483123 0.07572581 -1.0607214 0.682956 0.6170553 1.083472 1.9691597
0.44649044 -0.22219996 0.4029602 0.48936054 -1.6640067 -1.769217 -0.16859962 0.006142685
0.6090352 -0.63046664 0.5049363 -2.07218 0.0048907246 -0.11084695 0.1254042 0.45664412
-0.43878224 -0.9440749 -1.6874505 -0.32856634 0.5535818 2.6225028 0.7107398 -0.45593512
0.54931647 -2.2148952 1.7284112 -1.1718513 0.90317476 -0.4043148 -0.088544376 0.8258585
-0.1737976 -0.018164467 0.17322701 -0.59832114 0.6845342 0.1941287 0.61829466 -5.141723
-0.16361427 -0.50111806 0.81406355 -2.4665236 0.94591445 -0.8252847 0.68450916 -0.29229662
0.027650964 0.22816688 0.035094164 -2.536594 -1.5048374 -0.029766593 -0.046686303 0.03809222
0.63326174 0.27247462 0.0682665 0.8894204 -0.23573437 0.042991593 3.8044448 -0.48837474
1.004322 -0.054689378 -2.665787 1.0075574 0.46064174 0.5103776 0.096918084 -0.32337537
1.5267408 -1.2208496 -0.047299407 0.44745862 0.9093608 0.37202832 -0.15109283 0.74143595
-3.4185061 -0.40446967 -0.37679076 0.3374624 0.8040707 -1.6772571 0.87767273 0.49298674
-0.038595024 -0.07412378 -0.068152696 -0.047201708 0.023541542 0.011410143 0.039521232 0.019970292
0.014533903 -0.011999771 0.029847834 -0.0077657457 -0.033098847 -0.055602424 -0.06840244 -0.019997269
0.018866185 -0.0152306575 -0.018420538 0.01191439 -0.07339912 -0.08942173 -0.05084889 0.011712197
-0.05507307 0.03153156 -0.088024236 0.015544679 -0.040079057 0.021279477 -0.013424178 -0.07684448
-0.037346195 -0.068031736 -0.00037345005 -0.02852044 0.015675941 0.019590927 0.036218923 0.06753538
-0.0057139588 -0.08702995 -0.022907898 -0.006397217 -0.0073015373 0.016169287 0.009001129 0.046834514
-0.072723426 0.010424355 -0.020468643 0.041640323 0.0008950199 -0.054330975 0.0075031673 -0.06694145
00000000: 2a58 fa3e c2ea a2bc de3d 163f e7ff b33f
00000010: c1d8 99bf 4bcf 2ebe 8528 fa3e 6520 133e
00000020: 8415 eabc 1764 803c 1ed0 883f 07fc 2e3f
00000030: 5dd3 e4bd 64ad 6a3e 26a1 2ec0 3f88 b53e
00000040: 4bc7 bebe 08a1 b4bf b01e 143f 44f1 6e3f
00000050: 35bd 203f c1cc 51c0 8c45 3d3f 7f16 e53d
00000060: 3324 aa3e 8a39 f2bc 3a37 cc3f e9cc 383e
00000070: 5537 963f 614f 1d3e 1431 54bf d97e 1bbc
00000080: 7fbd ab3e dfa8 b0bf b002 233f 42b6 b03d
00000090: 3648 883f 74d9 0abe 9bcd bfbe 39e4 8abf
000000a0: 9545 fdbc 11ce 86be 900c 723f 1574 07bd
000000b0: 38c9 dd3f bc14 45bc 3601 fb3e 7eb9 9b3d
000000c0: aded a23b 6806 773e f915 33be c9a2 4cbf
000000d0: df64 093f cae8 d93e 3fa2 8c3e 95b1 4bbf
000000e0: da77 df3e 2609 883f d112 ee3e ec10 9a3e
000000f0: 85f8 cc3e 85a6 8fbe d910 6e3e 2024 11c0
00000100: d772 c5be a18c 3e3f d460 1a3f dbf0 ce3d
00000110: 34f9 b939 dd7d c73d a9a4 44c0 283f a73f
00000120: a682 58bf a450 aebd 36a9 2dbd 7926 8a3f
00000130: 17d2 b33c 4405 9cbe b987 d53f 69ea 1f3e
00000140: ed92 f0be 1ab0 593e 1e64 673f 5151 7ec0
00000150: a106 b0be 666e ac3f 9f63 47bd cd66 df3e
00000160: eb4a fbbf 1ab0 ec3e 90d5 da3e b13b 16bf
00000170: 38a0 83be c676 843e f5cd 933e 8c6a e33e
00000180: 58b3 8f3e 023c e9bf 1ed3 00bf e0e0 d8be
00000190: e4bc 2d3e 2a65 7cbd 3858 8fbe bb27 863f
000001a0: f42b 7a3f 3311 0abe 2216 9b3d b8c5 87bf
000001b0: 34d6 2e3f 56f7 1d3f 36af 8a3f 6d0d fc3f
000001c0: 659a e43e 6388 63be cd50 ce3e 778d fa3e
000001d0: 2cfe d4bf b475 e2bf 61a5 2cbe 9448 c93b
000001e0: bbe9 1b3f 4366 21bf 8143 013f 999e 04c0
000001f0: 5f42 a03b ba03 e3bd f569 003e 42cd e93e
00000200: 11a8 e0be e5ae 71bf 61fe d7bf d939 a8be
00000210: 89b7 0d3f 16d7 2740 0bf3 353f 5470 e9be
00000220: 01a0 0c3f d8c0 0dc0 943c dd3f 39ff 95bf
00000230: 7636 673f 5902 cfbe c156 b5bd 766b 533f
00000240: 00f8 31be a6cd 94bc 6c62 313e 932b 19bf
00000250: a23d 2f3f adc9 463e 8f48 1e3f ff88 a4c0
00000260: 808a 27be 4649 00bf 7866 503f 86db 1dc0
00000270: 7327 723f dc45 53bf fe3b 2f3f e7a7 95be
00000280: 4684 e23c 94a4 693e e6be 0f3d 8e57 22c0
00000290: 839e c0bf 12d9 f3bc 233a 3fbd 9606 1c3d
000002a0: 711d 223f cb81 8b3e 4fcf 8b3d 0eb1 633f
000002b0: 5a64 71be f417 303d 067c 7340 410c fabe
000002c0: a08d 803f f801 60bd 419c 2ac0 a4f7 803f
000002d0: 3cd9 eb3e 1ba8 023f fd7c c63d 7591 a5be
000002e0: 3e6c c33f cd44 9cbf 06bd 41bd 4c19 e53e
000002f0: dfcb 683f 7f7a be3e 14b8 1abe bfce 3d3f
00000300: cec8 5ac0 a616 cfbe b8ea c0be dfc7 ac3e
00000310: 94d7 4d3f 5cb0 d6bf 29af 603f c268 fc3e
00000320: d115 1ebd 35ce 97bd a493 8bbd 9456 41bd
00000330: 31da c03c 9cf1 3a3c 04e1 213d bd98 a33c
00000340: 9c1f 6e3c b09a 44bc 7283 f43c cc77 febb
00000350: a892 07bd 5ebf 63bd 9416 8cbd 50d1 a3bc
00000360: 428d 9a3c 028a 79bc abe6 96bc 9334 433c
00000370: 4752 96bd bd22 b7bd ed46 50bd 84e4 3f3c
00000380: 4d94 61bd 3d27 013d 0d46 b4bd 1caf 7e3c
00000390: f029 24bd 4c52 ae3c 15f1 5bbc a460 9dbd
000003a0: 53f8 18bd 3954 8bbd 9ecb c3b9 b3a3 e9bc
000003b0: d56a 803c 277d a03c 4b5a 143d fd4f 8a3d
000003c0: 293c bbbb c23c b2bd 58a9 bbbc bf9f d1bb
000003d0: bc41 efbb 7475 843c 7979 133c 8cd5 3f3d
000003e0: 05f0 94bd eaca 2a3c dbad a7bc 0b8f 2a3d
000003f0: c59f 6a3a 288a 5ebd 21dd f53b 9918 89bd

reward_fun.2.bias f4 [200]
1.6428565 -0.0060521793 0.008473053 -0.069935 0.5523504 0.6636024 -0.013580655 -0.053624056
1.5544406 -0.10424817 0.8650835 0.021719143 0.8881359 0.7240294 1.5222199 0.501275
0.028239552 0.8146484 0.6534063 -0.060092054 0.1977666 -0.014858093 -0.0690318 0.0063425438
-0.033830218 0.59387326 0.78991014 0.046651892 0.6801108 -0.08444408 0.49506867 -0.06959961
-0.067004174 0.5879571 0.27744615 -0.009256094 -0.04153374 0.051144235 1.6401224 0.942769
0.7672252 2.0777285 -0.050705563 0.30198878 0.038398232 -0.037626617 0.8209497 0.04527028
0.5598117 -0.16476981 0.4511217 -0.043299116 -0.07660997 -0.04422257 1.5909215 0.5308136
-0.07163716 -0.031945728 0.90382665 1.6515458 -0.01364508 0.61581975 0.38360262 0.8576249
1.0561894 -0.080047056 0.029124772 1.6371965 -0.4161993 0.8812972 -0.046975937 0.25884902
0.73524463 0.7878532 -0.093792155 -0.036558468 0.6301998 0.8216474 -0.07582553 -0.081672676
0.8653239 0.6570282 0.98006934 -0.044940386 -0.031826142 0.87548697 1.161597 -0.08864873
0.039096024 -0.06743807 -0.12178428 0.5601981 0.49814042 0.9977863 0.38621667 0.3721985
-0.023808591 0.71350145 0.04082152 0.58675057 -0.06552148 -0.034774076 -0.05763328 -0.07448099
0.004136223 0.53290457 0.21500236 0.02177404 -0.039655887 -0.08633519 -0.08090367 0.7823868
1.0533178 -0.03156022 -0.03996924 0.2259497 0.1785549 0.009741227 0.34022442 1.0770578
0.03691171 0.17197733 -0.0849367 0.4248041 0.55020684 0.0188123 0.45938864 1.3602194
0.027700026 -0.08025914 0.017439565 0.0454762 -0.07010019 -0.057043202 0.04126132 0.45208922
1.468944 -0.075612396 -0.066218525 -0.070969515 -0.008752076 -0.020490423 0.85567045 -0.059306078
-0.048767515 0.017629344 0.0043152627 0.020452188 -0.19322424 -0.03645512 -0.008880327 0.036193
-0.064263694 0.53242934 0.49765977 1.5428785 0.71693194 0.042223055 0.030622572 -0.8797088
0.00016050429 0.4210237 0.25149453 -0.059819173 0.0026892426 -0.1706179 0.529952 -0.08019519
-0.07263171 0.42078024 0.6134804 0.020439927 0.89183843 -0.07431725 0.014182901 -0.004446384
1.1027232 -0.0023666508 0.6725895 0.90760326 0.9377353 0.726442 0.6135249 -0.0069826916
0.73693323 -0.04129768 1.9037777 0.7100438 -0.03381981 -0.043528352 -0.06936239 -0.0030543492
0.6314703 -0.014418482 0.01227457 0.5558532 0.036351427 -0.017029177 -0.0056851096 0.829347
00000000: 1f49 d23f 5c51 c6bb 8fd2 0a3c 153a 8fbd
00000010: d666 0d3f d9e1 293f 6581 5ebc e6a4 5bbd
00000020: e9f7 c63f 1180 d5bd 1d76 5d3f 58ec b13c
00000030: e05c 633f fe59 393f 1ad8 c23f 8f53 003f
00000040: a256 e73c cc8c 503f a345 273f 1623 76bd
00000050: 5483 4a3e 5c6f 73bc 8b60 8dbd 1dd5 cf3b
00000060: 8e91 0abd 1408 183f 8d37 4a3f 0e16 3f3d
00000070: be1b 2e3f 05f1 acbd a479 fd3e 3e8a 8ebd
00000080: 7c39 89bd 5b84 163f 6c0d 8e3e dfa6 17bc
00000090: 481f 2abd 9e7c 513d 88ef d13f 4f59 713f
000000a0: df68 443f 81f9 0440 a3b0 4fbd 469e 9a3e
000000b0: 7747 1d3d 5e1e 1abd c229 523f 546d 393d
000000c0: d24f 0f3f 6bb9 28be 6cf9 e63e 6a5a 31bd
000000d0: b0e5 9cbd ba22 35bd 51a3 cb3f 66e3 073f
000000e0: 81b6 92bd 86d9 02bd 2f61 673f da65 d33f
000000f0: 9d8f 5fbc 5da6 1d3f 9067 c43e 4e8d 5b3f
00000100: 3731 873f b6ef a3bd 1397 ee3c a88f d13f
00000110: 1318 d5be b19c 613f d769 40bd dc87 843e
00000120: fe38 3c3f bfb0 493f 1a16 c0bd 55be 15bd
00000130: c654 213f 7c57 523f 6a4a 9bbd 0144 a7bd
00000140: de85 5d3f 0033 283f d3e5 7a3f 6913 38bd
00000150: 215c 02bd ea1f 603f 36af 943f 778d b5bd
00000160: 2723 203d f91c 8abd 096a f9bd 2569 0f3f
00000170: 430c ff3e ec6e 7f3f 31be c53e cd90 be3e
00000180: 3c0a c3bc 08a8 363f 7734 273d 4935 163f
00000190: 2030 86bd 436f 0ebd e010 6cbd 7d89 98bd
000001a0: 2789 873b 6f6c 083f 9429 5c3e 795f b23c
000001b0: 366e 22bd 81d0 b0bd d3b0 a5bd 804a 483f
000001c0: 1ed3 863f 4a45 01bd c9b6 23bd 5c5f 673e
000001d0: 19d7 363e ab99 1f3c e531 ae3e 08dd 893f
000001e0: bc30 173d d31a 303e 4bf3 adbd ec7f d93e
000001f0: 5bda 0c3f 411c 9a3c fd34 eb3e ab1b ae3f
00000200: 2aeb e23c e75e a4bd 6bdd 8e3c 4045 3a3d
00000210: b090 8fbd 22a6 69bd a101 293d 3d78 e73e
00000220: 5b06 bc3f acda 9abd 949d 87bd 7758 91bd
00000230: de64 0fbc 88db a7bc 380d 5b3f eeea 72bd
00000240: 72c0 47bd 6a6b 903c 0c67 8d3b 598b a73c
00000250: 93dc 45be f751 15bd cb7e 11bc 1c3f 143d
00000260: af9c 83bd 4a4d 083f 43cd fe3e 0b7d c53f
00000270: da88 373f 15f2 2c3d 30dc fa3c 9934 61bf
00000280: 0b4d 2839 6b90 d73e e4c3 803e f304 75bd
00000290: 013e 303b 75b6 2ebe efaa 073f 603d a4bd
000002a0: efbf 94bd 8270 d73e 0d0d 1d3f a271 a73c
000002b0: 864f 643f a433 98bd 665f 683c f9b2 91bb
000002c0: 0926 8d3f d019 1bbb d32e 2c3f b058 683f
000002d0: 6c0f 703f 1af8 393f f80f 1d3f 10cf e4bb
000002e0: a8a7 3c3f c227 29bd fdae f33f 6ec5 353f
000002f0: a486 0abd c94a 32bd de0d 8ebd 7a2b 48bb
00000300: 0aa8 213f 7f3b 6cbc 471b 493c 654c 0e3f
00000310: 3ce5 143d c680 8bbc 284a babb 1650 543f

reward_fun.4.weight f4 [1, 200]
-1.031818 0.00568424 0.013749511 -0.00056219747 0.20446655 1.002412 0.029474014 0.01968592
-0.29348084 -0.015093287 0.11788276 0.008688935 0.022085845 -0.46832404 -0.2667238 0.8870396
0.024719324 -0.8212577 0.064235255 0.044855848 0.02972355 0.044100147 0.025724506 -0.0009236726
0.026640726 -0.020735785 -0.0076486105 0.023594324 0.797758 0.04961161 -0.73989254 0.00187947
0.0421578 0.023363316 0.016012747 0.040423207 0.028696017 0.011421511 -0.69840616 -0.6181984
0.035890244 -0.6244257 0.021120904 0.46114883 -0.015013605 0.044111572 0.08105543 0.0010648456
0.018488072 0.05785361 0.011929634 0.030153535 -0.017482992 0.0151383635 -0.13527848 0.008070372
-0.018677205 0.0113322325 -0.42501456 -0.78415006 0.03380209 0.105976105 0.040476542 -0.16452271
-0.0054461216 -0.009744303 0.024954163 -0.19115521 1.7471024 -0.027160978 0.015059139 0.55353594
-1.0375873 -0.013526132 0.017088922 0.016691722 -0.1488283 -0.039902963 -0.004613649 -0.0033291
-0.06469336 0.028819343 0.00365361 0.04779357 0.00041927287 -0.7281624 -0.32301548 0.012500981
0.005929109 -0.01685588 -0.084947295 1.9837838 -0.04314205 -0.02256132 -0.0030222721 0.50319743
-0.0057531246 0.06364017 0.041566364 0.029942185 0.049060244 -0.0028005664 0.008886639 0.022480683
-0.025339983 -0.0009543838 0.018867472 -0.014552895 -0.016909191 0.03778624 0.0047725593 -0.86641467
-0.196819 0.024340004 -0.003237802 -0.014822148 0.13087681 -0.001944736 0.00802649 -0.1822424
0.021360958 -0.039111458 -0.0017638216 0.023077888 -0.003353607 0.046925705 0.0018648776 -2.287809
0.0071268864 0.046575613 0.015583538 0.030170998 0.014212577 0.025841208 0.019629808 -0.0073281117
-0.019068917 0.04260136 0.0011435966 0.0140704345 0.008698918 0.040106617 -0.050318666 0.025549253
0.029591402 0.04395848 -0.011348335 -0.010699517 1.1654867 -0.0044893147 0.038940586 0.015170871
0.010692954 -1.3458157 0.0060123373 -0.25681338 -0.12693998 0.047661953 0.018978609 0.8489414
-0.013024998 -0.00013837051 -1.0486474 0.045202654 -0.014702119 -0.08676933 0.4678117 0.0050126156
-0.0013058456 0.03254254 0.76968217 0.043687608 0.042492267 0.027747264 0.028554676 0.04431185
-0.79100186 -0.011468911 0.11781506 -0.026215967 -0.014248964 -0.2794293 0.0029794513 0.028363174
-3.1546931 0.047337305 -0.45688376 -0.18370427 0.0012273308 -0.018029496 -0.033028483 0.014491484
0.0031328944 0.0118316095 -0.015468098 -4.8893256 -0.009084196 -0.012885986 0.0027903588 -2.1002998
00000000: 9d12 84bf dc42 ba3b a145 613c 6f60 13ba
00000010: ae5f 513e 094f 803f 7d73 f13c 5e44 a13c
00000020: 1f43 96be d649 77bc 846c f13d 095c 0e3c
00000030: 60ed b43c 2bc8 efbe 0690 88be 0715 633f
00000040: 2e80 ca3c f23d 52bf c68d 833d c4ba 373d
00000050: cd7e f33c 5ba2 343d 33bc d23c 9e22 72ba
00000060: a73d da3c 18de a9bc 32a1 fabb e248 c13c
00000070: de39 4c3f 8b35 4b3d 9969 3dbf 8c58 f63a
00000080: a8ad 2c3d 6d64 bf3c 2a2d 833c ce92 253d
00000090: e913 eb3c 4a21 3b3c bfca 32bf 4042 1ebf
000000a0: a601 133d 5dda 1fbf bf05 ad3c b31b ec3e
000000b0: a0fb 75bc 56ae 343d 6400 a63d 4a92 8b3a
000000c0: 4c74 973c e8f7 6c3d 8374 433c 8c04 f73c
000000d0: 7e38 8fbc e606 783c 7186 0abe 9839 043c
000000e0: f000 99bc d4aa 393c 829b d9be 0fbe 48bf
000000f0: 0f74 0a3d 000a d93d bbca 253d a478 28be
00000100: 6175 b2bb 92a6 1fbc ac6c cc3c 31be 43be
00000110: 0da1 df3f b380 debc 9bba 763c 88b4 0d3f
00000120: a9cf 84bf b69c 5dbc 11fe 8b3c 14bd 883c
00000130: 7266 18be 4a71 23bd 182e 97bb 082d 5abb
00000140: f47d 84bd 8b16 ec3c 6771 6f3b 31c3 433d
00000150: dad1 db39 da68 3abf 4962 a5be ead0 4c3c
00000160: f948 c23b 5815 8abc d9f8 adbd a1ec fd3f
00000170: b8b5 30bd 84d2 b8bc 5011 46bb 8cd1 003f
00000180: b584 bcbb c755 823d 7e41 2a3d 5049 f53c
00000190: 65f3 483d b589 37bb 4499 113c 6929 b83c
000001a0: cc95 cfbc 9d2f 7aba f58f 9a3c 446f 6ebc
000001b0: 2585 8abc bfc5 1a3d 2163 9c3b 5acd 5dbf
000001c0: ec8a 49be b064 c73c 4e31 54bb 98d8 72bc
000001d0: 9204 063e 83e6 feba 8a81 033c c09d 3abe
000001e0: 2dfd ae3c 5633 20bd 0830 e7ba d70d bd3c
000001f0: 30c8 5bbb 2b35 403d e96e f43a 766b 12c0
00000200: a888 e93b 12c6 3e3d 1952 7f3c 2b29 f73c
00000210: dedb 683c f1b0 d33c b1ce a03c a820 f0bb
00000220: 6b36 9cbc c37e 2e3d bce4 953a ae87 663c
00000230: e885 0e3c d646 243d f21a 4ebd ab4c d13c
00000240: ab69 f23c cf0d 343d 5eee 39bc 074d 2fbc
00000250: ab2e 953f 1a1b 93bb 2a80 1f3d 3f8f 783c
00000260: 8031 2f3c b043 acbf 2403 c53b 0b7d 83be
00000270: 8efc 01be 2e39 433d 0779 9b3c 3954 593f
00000280: cd66 55bc 8d17 11b9 143a 86bf 6b26 393d
00000290: 28e1 70bc 1eb4 b1bd 0485 ef3e de40 a43b
000002a0: e828 abba 544b 053d e409 453f c7f1 323d
000002b0: 5f0c 2e3d 3b4e e33c 7feb e93c 5880 353d
000002c0: 197f 4abf 19e8 3bbc 0649 f13d dec2 d6bc
000002d0: 7d74 69bc 5b11 8fbe e642 433b e359 e83c
000002e0: 7ee6 49c0 c3e4 413d abec e9be f91c 3cbe
000002f0: 63de a03a 98b2 93bc e048 07bd b06d 6d3c
00000300: 3f51 4d3b 5ed9 413c e86d 7dbc 5b75 9cc0
00000310: e1d5 14bc be1f 53bc 74de 363b 506b 06c0
