data/mpc_stoch/PendubotEnv/seed_313/model_5000.pt (torch, 183047 bytes, 10 tensors)

log_std f4 [1, 6]
0	0xc0153341	-2.3312533
1	0xc014c013	-2.3242233
2	0xbfb6930b	-1.4263624
3	0xbfb9c1a1	-1.4512216
4	0xc01128c5	-2.2681134
5	0xbfd091e5	-1.6294523

mu.0.weight f4 [200, 7]
0	0x3f946c74	1.1595597
1	0xbf241c91	-0.6410609
2	0x3ef8e42b	0.48611578
3	0x3ea0e780	0.3142662
4	0xbdffe15e	-0.12494157
5	0x3e025657	0.12728249
6	0xbe2af538	-0.16695106
7	0x3f129df8	0.5727229
8	0xbf648928	-0.89271784
9	0x3f26467e	0.6495131
10	0x3e917665	0.2841064
11	0x3ec4e13e	0.38453096
12	0x3e84b6d4	0.25920737
13	0x3d991137	0.074739866
14	0xbf999b92	-1.2000601
15	0x3f0edb48	0.55803347
16	0xbf06524d	-0.5246933
17	0x3e712b0e	0.2355158
18	0xbd607e39	-0.054807875
19	0x3ea1a649	0.31572178
20	0xbdc6138b	-0.09671696
21	0x3fa26ae5	1.2688872
22	0xbebaccae	-0.36484283
23	0x3d5d158a	0.05397562
24	0x3dba79f3	0.09105291
25	0xbed1d208	-0.40980554
26	0x3d16323d	0.036669005
27	0x3d4a995c	0.04946266
28	0x3f50133d	0.81279355
29	0xbec18f4f	-0.37804648
30	0x3ec55884	0.38544095
31	0xbee78994	-0.4522215
32	0xbd53e388	-0.051730663
33	0x3ea1f1ca	0.31629783
34	0xbd4f0600	-0.05054283
35	0x3e597cb8	0.21238983
36	0xbf529696	-0.82261026
37	0x3f2d7c49	0.6776777
38	0x3e562107	0.20911036
39	0x3eeafaff	0.4589462
40	0xbe9bfb61	-0.30465224
41	0x3e7433c3	0.2384787
42	0xbd9d8f38	-0.076933324
43	0x3eea89f7	0.45808384
44	0xbf0a3ada	-0.5399605
45	0x3ec26bce	0.37972873
46	0xbea41542	-0.32047468
47	0xbe9aad22	-0.30210215
48	0x3bc4a7e3	0.006001459
49	0x3e06a221	0.13147785
50	0xbecc308b	-0.39880785
51	0x3f8fa8a7	1.1223344
52	0xbf2a46f9	-0.66514546
53	0xbdfd8ff3	-0.12380972
54	0x3d3c4510	0.0459643
55	0x3d14d15a	0.036332466
56	0xbe0807a0	-0.13284159
57	0xbf304929	-0.68861634
58	0xbf00cb47	-0.50310177
59	0x3e87a4b7	0.26492855
60	0x3ed43610	0.41447496
61	0xbd16b638	-0.03679487
62	0xbe83f4b6	-0.25772637
63	0x3e8210d5	0.25403467
64	0x3f199657	0.59995025
65	0xbf718cc7	-0.94355434
66	0x3eb0ccb4	0.34531176
67	0xbe34cba8	-0.17655814
68	0xbee54149	-0.4477637
69	0xbd9c84ce	-0.07642518
70	0x3e862a9b	0.2620438
71	0x3d001c8e	0.031277232
72	0x3f847387	1.0347756
73	0xbe816479	-0.25271967
74	0x3e56bfd2	0.20971611
75	0xbee60cea	-0.44931728
76	0x3da36d3f	0.079798214
77	0x3eb35d05	0.35031906
78	0xbf625f9b	-0.8842713
79	0x3e357864	0.17721707
80	0x3ee9d172	0.45667607
81	0xbee9f833	-0.45697173
82	0x3d9e386b	0.077256046
83	0xbc1a54d3	-0.009419638
84	0x3f6e6d00	0.9313507
85	0x3dfdd4c1	0.12394095
86	0x3eff3bed	0.49850407
87	0x3e3d4d4e	0.1848652
88	0x3e4e84f1	0.201679
89	0x3e26eb93	0.16300802
90	0xbd0a2193	-0.033723425
91	0x3f419437	0.7561678
92	0xbf41bf5e	-0.7568263
93	0x3f4b5ceb	0.79438657
94	0x3e22a363	0.1588264
95	0xbe024688	-0.12722218
96	0x3f060071	0.52344424
97	0x3e405a46	0.18784437
98	0x3f5d76b7	0.8650927
99	0x3ef0f00d	0.47058144
100	0x3db1adca	0.08675726
101	0x3f94b1cf	1.1616763
102	0xbd8b5448	-0.06803185
103	0xbf0fe0e9	-0.5620256
104	0xbe10d51a	-0.14143792
105	0x3ecb338e	0.3968777
106	0xbe9e9b7c	-0.30978
107	0x3f2e8972	0.68178475
108	0xbef7ce5e	-0.48399633
109	0xbdc588e7	-0.09645253
110	0x3ea5bbae	0.3236975
111	0xbd0898de	-0.03334891
112	0xbe50a274	-0.20374471
113	0x3c203a55	0.009779532
114	0xbe9eb713	-0.3099905
115	0x3e57d4a0	0.21077204
116	0x3ea39668	0.31950688
117	0xbd2c6ae5	-0.04209413
118	0xbc999663	-0.018748468
119	0xbea9b502	-0.3314591
120	0xbe4f3ce1	-0.20238067
121	0xbf5930f3	-0.84840316
122	0x3f0b10f2	0.5432273
123	0x3f0025ce	0.50057685
124	0xbe866c34	-0.26254427
125	0x3da88283	0.08228018
126	0xbe32c3f8	-0.17457569
127	0xbf3e7eac	-0.74412036
128	0xbe04fd81	-0.12987329
129	0x3f69b1b2	0.91286767
130	0xbea5f754	-0.3241526
131	0x3e9d3e7e	0.3071174
132	0xbd80480a	-0.0626374
133	0xbe2d9c25	-0.16954096
134	0xbf047202	-0.5173646
135	0xbe85730f	-0.26064345
136	0xbef08b04	-0.4698106
137	0xbed020b7	-0.4064996
138	0xbec3f47b	-0.3827246
139	0x3c5677b0	0.013090059
140	0x3f3c5b8a	0.7357718
141	0x3f1f0f50	0.6213274
142	0xbf1ce7d7	-0.6129126
143	0x3f417017	0.7556166
144	0xbe586617	-0.21132694
145	0xbe949ead	-0.2902731
146	0x3c67e776	0.014154306
147	0xbdafbf94	-0.085814625
148	0xbf7ee94d	-0.9957474
149	0xbf0dcfac	-0.5539501
150	0xbe6206fd	-0.22072978
151	0x3eba7474	0.36416972
152	0x3e927d13	0.2861105
153	0x3e322f48	0.17400849
154	0x3f76ce5f	0.9640865
155	0xbe82d553	-0.25553378
156	0x3e8777f7	0.26458713
157	0xbe849d71	-0.25901368
158	0xbecbcea5	-0.39806095
159	0x3d904719	0.07044811
160	0xbcd562e8	-0.026048139
161	0xbf01c0fa	-0.50685084
162	0x3ede810c	0.4345783
163	0xbf0290ed	-0.5100239
164	0x3f0d4a85	0.5519183
165	0x3eb0fdeb	0.34568724
166	0x3ed8b95e	0.42328924
167	0x3d0a1d4f	0.033719357
168	0xbd8ae2dd	-0.06781552
169	0xbef1a221	-0.47194007
170	0xbe520140	-0.2050829
171	0x3e712ff7	0.23553453
172	0x3e9ba4ef	0.30399272
173	0xbd8418f8	-0.06450075
174	0xbe6220cf	-0.22082828
175	0xbeb4010c	-0.3515705
176	0x3f10d19b	0.5656983
177	0x3eb92439	0.36160448
178	0xbf39ce9b	-0.7258088
179	0x3db9e91e	0.09077667
180	0xbeb3e634	-0.3513657
181	0xbe34d132	-0.17657927
182	0x3e700a7c	0.234415
183	0xbef0bc2b	-0.4701856
184	0xbb3faa83	-0.002924592
185	0xbf491e04	-0.78561425
186	0x3ec5c3c4	0.3862592
187	0xbc36c9d6	-0.01115652
188	0x3c945de1	0.018111171
189	0xbf08f94f	-0.53505415
190	0xbf20a114	-0.62745786
191	0xbed288ce	-0.4112
192	0xbdbb2cf5	-0.09139434
193	0x3edcd3c5	0.43130317
194	0x3e17b0f4	0.14813596
195	0x3e26d659	0.16292705
196	0xbfe2c8d1	-1.7717534
197	0x3e5b74bd	0.21431251
198	0xbe27b2d4	-0.16376811
199	0xbdad5ae6	-0.08464603
200	0x3ef30b0e	0.47469372
201	0xbde85c73	-0.11345758
202	0xbe12c8e3	-0.14334445
203	0x3f1d18a7	0.6136574
204	0x3e98be31	0.29832605
205	0xbf1e2ade	-0.6178416
206	0xbeae8aff	-0.3409042
207	0x3e59f0b9	0.21283235
208	0x3eb6da01	0.357132
209	0x3d0cfa65	0.034418482
210	0x3f463759	0.77428204
211	0xbeddae1f	-0.43296906
212	0xbee878e9	-0.45404747
213	0xbf879673	-1.0592788
214	0xbd6ab450	-0.057300866
215	0x3f11c199	0.5693603
216	0x3d93ad94	0.07210842
217	0xbedff6e2	-0.43743044
218	0xbf4141f1	-0.75491244
219	0x3eaf47d5	0.3423449
220	0x3f7a5e94	0.97800565
221	0xbde8d46f	-0.113686435
222	0x3ee25bda	0.44210702
223	0x3d068d07	0.032849338
224	0xbf235840	-0.63806534
225	0x3f0532fd	0.52030927
226	0xbd8e4679	-0.06947035
227	0x3d1e58ad	0.038658787
228	0xbf1264cc	-0.57185054
229	0xbd08a04d	-0.033356
230	0x3d21a77a	0.03946636
231	0x3e2cd62e	0.16878578
232	0xbdc438cc	-0.09581146
233	0xbf3a856e	-0.7285985
234	0x3f2880e6	0.65821683
235	0x3e869c1e	0.26290983
236	0x3e04cd47	0.12968932
237	0x3e05af50	0.13055158
238	0xbebd68b7	-0.36993954
239	0x3f2ce1f2	0.67532265
240	0x3cfcfe84	0.030883081
241	0xbf145e09	-0.57955986
242	0x3ebe798b	0.37202105
243	0xbd9ec2c9	-0.07751996
244	0x3e0214a9	0.12703194
245	0xbf38bb82	-0.72161114
246	0x3f02be29	0.5107141
247	0xbf2aa0c0	-0.66651535
248	0x3ed7a3f7	0.42117283
249	0x3ec81c3d	0.39084044
250	0x3db29289	0.087193556
251	0xbd9dc0ab	-0.07702764
252	0xbf04ebcc	-0.519223
253	0x3f3daac0	0.7408867
254	0xbc2467be	-0.0100345
255	0xbe0e523f	-0.13898562

mu.0.bias f4 [200]
0	0xbdbbd3d1	-0.0917126
1	0x3ee2a216	0.44264287
2	0xbe62aded	-0.2213666
3	0xbe990a44	-0.29890645
4	0xbf69ebd1	-0.9137545
5	0x3e9e00f4	0.30860102
6	0x3ed2d784	0.4118005
7	0x3e8e472e	0.2778868
8	0xbe42cda9	-0.19023766
9	0xbf2bc971	-0.6710425
10	0xbe659a07	-0.22422038
11	0xbf1859af	-0.59511846
12	0x3ed40160	0.414073
13	0xbf34c82c	-0.7061794
14	0xbf3389a1	-0.7013188
15	0x3d434160	0.04766977
16	0xbfe6d99b	-1.8035158
17	0x3e8918e0	0.2677679
18	0xbf324a94	-0.6964505
19	0xbf345c4b	-0.7045333
20	0x3f13c5ac	0.577235
21	0xbe1ebeac	-0.15502423
22	0xbf84f7fd	-1.038818
23	0xbe90d8d4	-0.28290427
24	0x3f9c6567	1.2218446
25	0xbef107af	-0.47076175
26	0x3f5835e6	0.8445724
27	0xbf9e1479	-1.2349998
28	0xbe29811f	-0.16553162
29	0x3ef2de4f	0.47435233
30	0xbf49d472	-0.7883979
31	0xbcda70ec	-0.026665173
32	0xbf72af45	-0.9479869
33	0xbf8bbfe9	-1.0917941
34	0x3bc2baed	0.0059426934
35	0x3f0bed4f	0.5465898
36	0xbfc5bf91	-1.5449086
37	0xbf23edca	-0.6403471
38	0xbefc4e2d	-0.49278393
39	0xbda1b749	-0.07896287
40	0xbe05c4dd	-0.13063379
41	0x3de7907c	0.11306855
42	0xbf2826c6	-0.65684164
43	0x3e7c8551	0.24660231
44	0x3f49583f	0.7865028
45	0xbf075379	-0.52861744
46	0x3ef5ffbc	0.48046672
47	0xbe0dd274	-0.13849813
48	0xbf0ef278	-0.5583873
49	0xbf37e953	-0.718404
50	0x3ecbe0cf	0.39819953
51	0xbf62a41a	-0.8853165
52	0xbe88ae7a	-0.26695615
53	0x3e9719c7	0.29511854
54	0xbf583409	-0.844544
55	0xbd5dc9ae	-0.054147415
56	0xbe6c8fd7	-0.23101746
57	0xbe6a917d	-0.22907062
58	0x3f53fd28	0.8280816
59	0xbf2f1f8b	-0.68407506
60	0x3e9aafe6	0.30212325
61	0x3da569b7	0.08076804
62	0x3f28428c	0.6572654
63	0xbf8ec96d	-1.115522
64	0x3f28df0e	0.65965354
65	0x3f76a538	0.96345854
66	0x3d8c8a4a	0.06862314
67	0x3d96b7fe	0.073593125
68	0x3e60f92b	0.2197005
69	0xbf4436bc	-0.7664602
70	0xbf4a1afd	-0.7894743
71	0xbf807690	-1.0036182
72	0xbf259240	-0.64676285
73	0xbcd0063e	-0.025393602
74	0x3f259e9b	0.6469514
75	0x3f10c090	0.5654383
76	0xbdf792b2	-0.12088527
77	0xbe172753	-0.14761095
78	0x3ea875f0	0.3290248
79	0x3e993feb	0.29931578
80	0x3f0e816b	0.55666226
81	0x3ee7cfee	0.45275825
82	0xbef554e8	-0.4791634
83	0x3eed933e	0.464014
84	0xbe96a18b	-0.29420123
85	0x3f18d4f8	0.59699965
86	0x3efb11a5	0.490369
87	0x3dbb1ffa	0.091369584
88	0xbf635000	-0.88793945
89	0xbf5d1da5	-0.8637336
90	0xbf1fbfc4	-0.62401986
91	0xbeb07652	-0.3446527
92	0xbf0edc07	-0.55804485
93	0xbf7a4dec	-0.9777515
94	0xbfc37202	-1.5269167
95	0x3e38eacb	0.18058316
96	0x3eb80d85	0.35947815
97	0x3f2fdbe9	0.6869493
98	0x3f3fe17d	0.7495344
99	0xbde99f2e	-0.11407314
100	0x3eb8cc34	0.36093295
101	0xbe19d70b	-0.15023439
102	0xbf50fc91	-0.81635386
103	0x3f06dc79	0.52680165
104	0xbfa01852	-1.2507422
105	0x3e01bf4d	0.12670632
106	0x3f507312	0.81425583
107	0xbd9552db	-0.07291194
108	0xbf83dd35	-1.0301882
109	0x3e828d33	0.2549835
110	0x3f1033a1	0.5632878
111	0xbf525e9a	-0.821756
112	0xbe153bb7	-0.1457356
113	0xbea60db6	-0.32432336
114	0xbec5a69d	-0.38603678
115	0x3e99ae64	0.30015862
116	0xbf20e111	-0.62843424
117	0x3e40d878	0.18832576
118	0x3e91e79e	0.28497022
119	0x3ee83b47	0.45357725
120	0xbf44ae23	-0.7682821
121	0xbf0b7919	-0.54481655
122	0xbf845265	-1.0337645
123	0xbfa0b8f0	-1.2556438
124	0xbf81093a	-1.0080941
125	0xbf0afb76	-0.5428995
126	0xbf2b1bbe	-0.66839206
127	0xbec405cf	-0.38285682
128	0xbe760dc8	-0.24028695
129	0xbf2f5e09	-0.6850286
130	0x3f1e0989	0.617333
131	0x3f3689eb	0.71304196
132	0xbf4e6d0d	-0.8063515
133	0xbec5a6bb	-0.38603768
134	0x3fae2050	1.3603611
135	0xbf11b0a1	-0.5691014
136	0xbfbe3133	-1.4858764
137	0xbdc853fe	-0.09781645
138	0x3e8b6947	0.27228758
139	0xbf79c159	-0.9756065
140	0x3f96a8b0	1.1770229
141	0xbfa369d9	-1.2766677
142	0xbdeb36eb	-0.11485084
143	0x3ec47a4d	0.38374558
144	0x3d690c74	0.05689664
145	0x3fa6efb8	1.3041906
146	0xbf874bc4	-1.0569997
147	0xbee48c78	-0.4463842
148	0x3f103aa3	0.5633947
149	0x3f9c4fdc	1.2211871
150	0x3f110140	0.5664253
151	0xbeeba1ea	-0.46021968
152	0xbf7251be	-0.9465598
153	0x3ee86fec	0.4539789
154	0xbe4f43df	-0.20240735
155	0xbf0df4ac	-0.55451465
156	0xbe90000c	-0.28125036
157	0xbed40204	-0.41407788
158	0x3d39ca7a	0.045359112
159	0xbf4686ef	-0.7754964
160	0x3efc57fc	0.49285877
161	0xbe2564c4	-0.1615172
162	0xbeedec43	-0.46469316
163	0x3c3f0596	0.011659047
164	0x3f03f84d	0.5155075
165	0x3ebe2f1c	0.37145317
166	0x3f220547	0.632893
167	0xbf864f47	-1.0492944
168	0x3ecf422f	0.40480182
169	0x3f43dafc	0.7650602
170	0xbfb27231	-1.3941098
171	0x3f8dbcd9	1.1073257
172	0x3e2df2fd	0.16987224
173	0xbec606b3	-0.38676986
174	0xbf55d62b	-0.8352992
175	0xbf29761d	-0.6619585
176	0x3daefb7c	0.085440606
177	0xbd764a35	-0.060129363
178	0x3eaeb079	0.34119013
179	0x3ea653f3	0.32485923
180	0x3f7694b1	0.96320635
181	0xbfbfebf2	-1.499388
182	0xbed5595a	-0.41669732
183	0xbf0801ab	-0.53127545
184	0xbf4df8a3	-0.80457515
185	0x3f14e1d4	0.58157086
186	0xbefd770b	-0.49504885
187	0xbeb7d683	-0.35905847
188	0x3f5b8ca5	0.8576148
189	0x3f41003a	0.7539097
190	0xbeeeafbd	-0.46618453
191	0x3ed8f941	0.42377666
192	0xbf45c195	-0.7724851
193	0xbeade2b3	-0.3396202
194	0x3f346f05	0.704819
195	0x3f9fa444	1.2472005
196	0x3f37d750	0.71812916
197	0x3b99a8c3	0.0046893074
198	0x3e1dee26	0.15422878
199	0xbec0b012	-0.3763433

mu.2.weight f4 [6, 200]
0	0x3e31162c	0.17293614
1	0xbc154018	-0.009109519
2	0xbe582819	-0.21109046
3	0xbeae3bd2	-0.34030014
4	0x3e4553d1	0.19270255
5	0x3ead7c43	0.33883867
6	0xbe866720	-0.26250553
7	0x3d2cafbe	0.04215979
8	0x3ea47408	0.32119775
9	0x3d2083cb	0.039188188
10	0xbe1b9339	-0.1519288
11	0xbecc21cf	-0.39869544
12	0xbe597b1e	-0.21238372
13	0x3ea01b7e	0.31270975
14	0x3dd3f3c9	0.10349233
15	0x3e25b1a1	0.16181041
16	0xbfd7fc90	-1.6873951
17	0x3e4c00dc	0.19922203
18	0xbcabc628	-0.020968512
19	0xbbe0b47d	-0.0068574534
20	0x3e9c0bcf	0.3047776
21	0x3dbd8cf5	0.09255401
22	0xbf156fa0	-0.5837345
23	0x3e35620d	0.17713185
24	0xbe97bea7	-0.29637644
25	0xbde9b37d	-0.11411188
26	0xbe9b1484	-0.3028909
27	0xbf14ff24	-0.58201814
28	0x3dd0f760	0.10203433
29	0xbd9d9958	-0.076952636
30	0x3c25fd42	0.010131182
31	0x3d8403d6	0.06446044
32	0x3ee2582a	0.4420789
33	0xbe19c4ce	-0.15016481
34	0xbe9b1c85	-0.30295196
35	0x3e101eb3	0.14074211
36	0xbdaf1ff0	-0.085510135
37	0x3ebe3c14	0.3715521
38	0x3cc54a0b	0.024083158
39	0x3d3dc3ef	0.046329435
40	0xbe2deccf	-0.16984867
41	0x3d41662a	0.047216572
42	0x3ee53263	0.44765005
43	0x3db48605	0.08814625
44	0x3b542f08	0.0032376666
45	0x3ea3a9be	0.3196544
46	0xbddbf9a1	-0.10740972
47	0xbe79136c	-0.24323815
48	0x3da61053	0.08108582
49	0xbd941416	-0.072303936
50	0xbd5e6fc5	-0.05430581
51	0xbd5f0c3a	-0.05445502
52	0x3da9dcf6	0.08294098
53	0x3dd3610b	0.10321244
54	0xbd74ca25	-0.059763093
55	0xbd2e096a	-0.042489447
56	0xbf4a69ac	-0.7906749
57	0x3db6a66a	0.0891846
58	0x3e7277c3	0.23678498
59	0x3cad5aef	0.021161525
60	0xbd98032a	-0.074224785
61	0x3e65512e	0.22394249
62	0x3e06b4cd	0.13154908
63	0x3d0579ea	0.03258697
64	0xbde11612	-0.10990538
65	0x3ddf9c5e	0.109184965
66	0x3e022f6d	0.12713404
67	0x3ce9019f	0.028443156
68	0xbe5c2d5e	-0.21501681
69	0xbf3fceee	-0.74925125
70	0x3d436b9a	0.04771004
71	0xbd7d34da	-0.06181798
72	0x3e1f12ac	0.15534467
73	0xbdacf94e	-0.084459886
74	0xbdfcb533	-0.123392485
75	0x3dabcb12	0.08388342
76	0xbef3dfa0	-0.4763155
77	0xbeaad043	-0.33362016
78	0x3e21e25c	0.15809005
79	0xbbb66947	-0.0055667493
80	0xbd86a11d	-0.06573699
81	0xbe1fe3cf	-0.15614246
82	0x3dc0404d	0.093872644
83	0xbd1e4889	-0.038643394
84	0x3d40c9e3	0.047067534
85	0x3ebd51cf	0.36976478
86	0xbdb8770e	-0.09007083
87	0x3db6abe8	0.08919507
88	0xbdd025d9	-0.10163469
89	0x3d685bce	0.056728177
90	0xbd0b5675	-0.034018
91	0xbe0fd4f7	-0.14046083
92	0xbdd083d1	-0.10181392
93	0x3f0f596d	0.5599583
94	0x3cd331aa	0.025780518
95	0xbcd90a2a	-0.026494104
96	0xbd94129b	-0.07230111
97	0x3c6a8c9b	0.0143157495
98	0xbe9f1d9a	-0.31077272
99	0xbe1b99c4	-0.15195376
100	0x3dec93d2	0.11551632
101	0x3e7a7837	0.24459921
102	0xbde95dfe	-0.11394881
103	0xbdcecac4	-0.10097268
104	0x3e7639ab	0.24045436
105	0xbda66ad0	-0.081258416
106	0xbac52fc8	-0.0015044147
107	0xbe2f42d3	-0.17115335
108	0xbdaa8e2b	-0.08327898
109	0xbe4ff5e8	-0.2030865
110	0x3d115606	0.03548243
111	0xbef5dea7	-0.48021433
112	0xbe226be4	-0.1586147
113	0xbe07ad1d	-0.13249631
114	0x3d7c5b98	0.061610788
115	0x3ddbdb38	0.10735172
116	0xbdbb20e5	-0.091371335
117	0xbd831993	-0.06401362
118	0x3db26d7e	0.0871229
119	0xbd309dd3	-0.043119263
120	0xbd6d299b	-0.057901006
121	0x3edc3692	0.43010384
122	0x3d9e4d1c	0.07729551
123	0x3e09bb66	0.13450393
124	0xbed166f7	-0.40898868
125	0xbe01bf56	-0.12670645
126	0xbddd4b0f	-0.10805332
127	0xbeb2c401	-0.34915164
128	0x3d3a84e5	0.045536894
129	0x3e1a3bae	0.15061828
130	0x3e40bc4f	0.18821834
131	0x3d011e28	0.0315229
132	0x3eb66d97	0.35630485
133	0x3da88fd5	0.08230559
134	0xbf0831a4	-0.53200746
135	0xbcd48863	-0.02594394
136	0x3daf72cf	0.0856682
137	0xbb2b2f6e	-0.00261208
138	0x3d13109a	0.035904504
139	0xbe03de62	-0.12877801
140	0xbcf91170	-0.030403823
141	0xbe415dad	-0.1888339
142	0xbe38c968	-0.1804558
143	0xbdc02de0	-0.0938375
144	0x3da81dd8	0.08208817
145	0x3db63f04	0.08898738
146	0x3ee9c625	0.45658985
147	0x3eda5c6a	0.4264863
148	0x3e08e720	0.13369417
149	0x3ec921a2	0.39283472
150	0xbed8ecb6	-0.42368096
151	0xbf275daf	-0.65377325
152	0xbd43e73e	-0.04782795
153	0xbeee4176	-0.46534318
154	0xbe35ec25	-0.17765863
155	0xbe9c378d	-0.30511132
156	0xbdb9f321	-0.09079576
157	0x3d3b8e50	0.045790017
158	0xbe3b9991	-0.183203
159	0x3e6d7aaa	0.23191324
160	0x3e194ff3	0.14971904
161	0x3c5804ce	0.013184739
162	0x3e2594a8	0.16169989
163	0xbea9d313	-0.3316885
164	0x3e7a5eb2	0.24450186
165	0x3da12dac	0.07870039
166	0x3c02fbcb	0.007994602
167	0x3f26b9dc	0.6512735
168	0xbca139fb	-0.019680968
169	0x3b1179ed	0.0022197918
170	0x3f7904fd	0.97273237
171	0x3f01e43a	0.5073887
172	0xbe8b8b82	-0.27254874
173	0x3d97da8d	0.07414732
174	0x3e291f10	0.16515756
175	0x3d099bae	0.033595733
176	0x3d2ecdc3	0.0426767
177	0xbce00224	-0.02734477
178	0x3dbc2154	0.09186044
179	0x3ea01f35	0.3127381
180	0x3b431813	0.0029768988
181	0x3def1bbe	0.11675213
182	0x3cbeccce	0.023291018
183	0x3eb83c2f	0.35983416
184	0x3cd2950a	0.025705833
185	0x3ebbd8f6	0.36688966
186	0x3e3edc39	0.18638696
187	0xbe6a08e9	-0.22854961
188	0xbe08949e	-0.13337943
189	0xbc4ea43a	-0.012612397
190	0xbe3d54c9	-0.18489374
191	0xbcc6b94e	-0.024258282
192	0xbe652020	-0.22375536
193	0x3da6b6a7	0.08140307
194	0x3eb18373	0.346706
195	0xbdb48311	-0.088140614
196	0x3ed8c4b9	0.42337587
197	0x3e3f5093	0.1868308
198	0x3d678fda	0.056533672
199	0xbe3cf67e	-0.18453404
200	0x3e48b6fc	0.19601053
201	0xbdf90dcf	-0.12160837
202	0xbe8514ab	-0.2599233
203	0xbe9215b0	-0.2853217
204	0x3e843866	0.2582428
205	0x3d0cff8c	0.034423396
206	0x3df6ea46	0.12056403
207	0x3ce1cbfa	0.027563084
208	0x3db19eca	0.08672865
209	0x3dddf18c	0.10837087
210	0xbb5df83a	-0.0033869878
211	0x3d3a6ce3	0.045514
212	0xbea8e569	-0.32987526
213	0xbdb60c91	-0.088891156
214	0xbdb201dc	-0.08691761
215	0x3de37208	0.11105734
216	0x3f289dfb	0.6586606
217	0xbe600973	-0.21878605
218	0x3db00d01	0.0859623
219	0xbdddf61e	-0.10837959
220	0x3e05f2d6	0.13080916
221	0x3d9effb4	0.07763615
222	0x3df5ee31	0.12008322
223	0x3e111f03	0.14171986
224	0xbd986783	-0.07441618
225	0xbc78f694	-0.015195508
226	0xbdba536e	-0.09097944
227	0x3c1a6b8e	0.009425057
228	0xbe589668	-0.21151125
229	0x3e36ce54	0.17852145
230	0x3c93f8f5	0.018063048
231	0xbd731985	-0.05935051
232	0xbf2adf70	-0.6674719
233	0xbdb11836	-0.08647196
234	0xbe28b5a5	-0.16475542
235	0x3e36d637	0.17855154
236	0x3f831b1b	1.0242647
237	0xbe035f8d	-0.12829418
238	0x3ef86b05	0.4851915
239	0xbd5e401d	-0.054260362
240	0x3d50fa47	0.051019933
241	0xbe1366cd	-0.14394684
242	0x3d957097	0.072968654
243	0x3d9fc59f	0.07801365
244	0x3e2ba531	0.16762234
245	0xbeb2d439	-0.34927538
246	0x3ec461ad	0.3835577
247	0xbe1c6d76	-0.15276131
248	0xbdecacaf	-0.11556374
249	0xbe1e53f3	-0.15461712
250	0xbe82845b	-0.25491604
251	0x3de9f536	0.114237234
252	0x3ec50c59	0.38485983
253	0xbe2524fe	-0.16127393
254	0x3d38391e	0.044976346
255	0x3e812b0b	0.25228152

mu.2.bias f4 [6]
0	0xbdfc362d	-0.12315021
1	0x3c01dd88	0.007926352
2	0xbe382b1d	-0.17985196
3	0x3e637354	0.22211963
4	0x3c33fcad	0.010985536
5	0x3c867c31	0.016416641

reward_fun.0.weight f4 [200, 7]
0	0x3f2ebc29	0.6825586
1	0x3f34b3ab	0.7058665
2	0x3eb7369f	0.3578386
3	0x3f702fff	0.93823236
4	0x3ddd789a	0.108140185
5	0x3d183b43	0.03716589
6	0x3f0ac4d1	0.5420657
7	0xbf03184f	-0.51208967
8	0x3f03c598	0.5147338
9	0x3ee53bee	0.44772285
10	0x3fbc233a	1.469825
11	0x3d944bb3	0.07241001
12	0xbe8f4d03	-0.27988443
13	0xbd913f33	-0.070921324
14	0xbee9d8da	-0.45673257
15	0xbeeb76e4	-0.45989144
16	0xbead02ec	-0.33791292
17	0x3df64787	0.120253615
18	0x3ee7eee0	0.45299435
19	0x3e5a3976	0.21310982
20	0x3fd7746e	1.6832407
21	0xbf8e74fb	-1.112945
22	0xbcaed52c	-0.021341883
23	0xbf76a9a2	-0.9635259
24	0xbf997bad	-1.1990868
25	0x3ede8942	0.43464094
26	0x3dd3a978	0.10335058
27	0x3f229f36	0.63524187
28	0xbc87feb0	-0.016600937
29	0xbee916d9	-0.45525244
30	0x3f6461f9	0.89211994
31	0x3f027b54	0.50969434
32	0x3e9c31b6	0.30506676
33	0x3ef57824	0.47943223
34	0xbe29355d	-0.16524263
35	0x3ee49b80	0.44649887
36	0x3f6ecb1a	0.9327866
37	0x3ee6ecbd	0.45102492
38	0xbe9a7b00	-0.30171967
39	0x3f381e95	0.71921664
40	0xbe009e4a	-0.12560382
41	0xbd9f137f	-0.077673905
42	0x3e2568cf	0.16153263
43	0xbeb51c87	-0.35373327
44	0x3f88cdb7	1.0687779
45	0xbe6fd822	-0.23422292
46	0xbe4c57d2	-0.19955376
47	0x3e3c5045	0.18389995
48	0x3ea8ed2c	0.32993448
49	0xbf2068a6	-0.6265968
50	0xbcc74575	-0.024325112
51	0x3f600e86	0.8752216
52	0xbf21db59	-0.6322532
53	0xbdb881ab	-0.09009107
54	0x3dde326d	0.10849462
55	0xbf913a0a	-1.1345837
56	0xbf35bad1	-0.70988184
57	0xbf104463	-0.5635435
58	0x3fb8b44d	1.4430023
59	0xbe115b15	-0.14194901
60	0x3e657ec6	0.22411641
61	0x3d92dd19	0.07171077
62	0x3f20bf21	0.6279164
63	0x3e891437	0.26773235
64	0x3e3638fd	0.17795177
65	0xbf23aeb0	-0.63938427
66	0x3f4fe030	0.8120146
67	0xbedb1869	-0.4279206
68	0x3bb44464	0.005501317
69	0x40093acb	2.1442134
70	0x3f1135c0	0.5672264
71	0xbee67826	-0.4501354
72	0xbd302d59	-0.043011997
73	0x3f376ee0	0.71653557
74	0xbebd5099	-0.36975554
75	0xbeb49a76	-0.35274094
76	0x3ec5935c	0.3858899
77	0xbfa2d1ad	-1.2720238
78	0xbe62c6ba	-0.2214612
79	0xbe926343	-0.28591356
80	0xbf1f5423	-0.6223776
81	0xbd899d3e	-0.06719445
82	0x3e21ffa3	0.15820174
83	0x4026aa61	2.604149
84	0xbe5adc48	-0.21373093
85	0x3df9e90d	0.12202654
86	0xbe8b6371	-0.27224305
87	0x3fb81e20	1.4384193
88	0x3dc75c9d	0.097344615
89	0x3da68c0d	0.08132181
90	0x3f5f9302	0.8733369
91	0x3f268059	0.65039593
92	0x3eca8ae9	0.39559105
93	0x3dce0430	0.100593925
94	0x3f01453b	0.5049626
95	0x3d40a8d4	0.047036007
96	0xbe261ffb	-0.16223137
97	0xbf035f2e	-0.5131711
98	0x3e3b0200	0.18262482
99	0x3f0744be	0.5283927
100	0x3e76ad43	0.24089532
101	0x3c95407c	0.018219225
102	0xbe2a30ba	-0.1662015
103	0xbe19cc35	-0.15019305
104	0x3f916f72	1.1362135
105	0xbe463573	-0.19356327
106	0x3f7057d8	0.9388404
107	0xbfa4210f	-1.2822589
108	0x3e759ccb	0.23985593
109	0xbee5dba1	-0.44894126
110	0xbe8d39c6	-0.2758314
111	0x3dfaf9bc	0.12254664
112	0x3eb4cd54	0.35312903
113	0x3cc7993f	0.024365066
114	0x3d15b9d2	0.036554165
115	0xbe71028f	-0.23536132
116	0x3de6aaef	0.11263072
117	0x3e1b30b2	0.15155295
118	0x3e6a40d2	0.2287629
119	0xbfc909f3	-1.5706161
120	0xbf6bd7b3	-0.92126006
121	0x3f08fed3	0.5351383
122	0xbf8946a0	-1.0724678
123	0xbea13d14	-0.3149191
124	0xbef5c0f7	-0.47998783
125	0xbf2d3daf	-0.67672247
126	0x3f3747d9	0.71594006
127	0x3f8cbc65	1.0994993
128	0x3e7ccb60	0.24686956
129	0x3f158460	0.58405113
130	0xbf4a5954	-0.79042554
131	0xbf1a22b6	-0.60209215
132	0xbd8e6e74	-0.06954661
133	0xbec703f8	-0.38870215
134	0x3edb2c98	0.4280746
135	0x3f51a30c	0.81889415
136	0x3f039f9b	0.51415414
137	0xbef21a8d	-0.47285882
138	0xbeb33032	-0.34997708
139	0xc0368f7c	-2.8525076
140	0xbf939105	-1.1528631
141	0x3f32487c	0.6964185
142	0x3fa64dba	1.299247
143	0xbf070bb9	-0.5275226
144	0x3c91bf3c	0.017791383
145	0x3e7be9b9	0.24600877
146	0x3e3c3c35	0.18382342
147	0x3e9bd6c3	0.30437288
148	0x3f2af7c0	0.66784286
149	0xbe91c718	-0.2847221
150	0x3edac0c3	0.4272519
151	0x3e5fd2db	0.21857779
152	0x3dcf758f	0.101298444
153	0xbfac5a39	-1.3465034
154	0x3e9a0620	0.30082798
155	0x3f7f917c	0.99831367
156	0x3f4bc546	0.7959789
157	0x3e640c74	0.22270375
158	0xbda3dd25	-0.08001164
159	0x3d0468fd	0.032326687
160	0x3f94729c	1.1597476
161	0xbecd27c8	-0.40069413
162	0xbe7429a6	-0.23844013
163	0xbdfe3bba	-0.12413736
164	0xbee5f3eb	-0.44912657
165	0x3f992cab	1.1966757
166	0x3eeca076	0.46216172
167	0x3ea06c41	0.3133259
168	0x3dcff897	0.101548366
169	0x3f1ec238	0.62015104
170	0xbf0e12fb	-0.5549771
171	0xbf5ed2d1	-0.8704043
172	0x3ee3172e	0.44353622
173	0x3f065c2d	0.524844
174	0xbe9776a3	-0.295827
175	0x3e861b5f	0.26192757
176	0xbf561f62	-0.83641636
177	0xbe5027b8	-0.20327652
178	0xbef933fd	-0.48672476
179	0x3ebe1ffe	0.37133783
180	0x3e182403	0.14857487
181	0x3f8eb807	1.1149911
182	0x3d739707	0.059470203
183	0x3d85265e	0.065014586
184	0xbd196c68	-0.0374569
185	0xbce35ee6	-0.027755212
186	0x3d150f28	0.036391407
187	0x3cad2698	0.021136567
188	0xbe13afae	-0.14422485
189	0x3c9827d2	0.018573675
190	0xbf5cb2b4	-0.8621018
191	0x3e73f501	0.2382393
192	0xbe83f189	-0.25770214
193	0xbf27543c	-0.65362906
194	0xbf0adb30	-0.54240704
195	0xbf9ef87d	-1.2419583
196	0x3ea693f7	0.32534763
197	0xbeb61be2	-0.35568148
198	0xbe033a9e	-0.1281533
199	0x3e3c844b	0.18409841
200	0x3f088309	0.53324944
201	0x3eb5cad3	0.35506305
202	0x3e49760e	0.1967394
203	0x3c478d17	0.0121796345
204	0x3e1cec2f	0.15324472
205	0x3ec25bc6	0.37960643
206	0x3e1177ba	0.14205828
207	0xbddbac20	-0.107261896
208	0xbe0cada4	-0.13738114
209	0x3fd3b120	1.6538429
210	0x3dcfe4f8	0.10151094
211	0x3e09ace7	0.13444863
212	0xbea94a05	-0.33064285
213	0x3e621c5e	0.22081134
214	0x3c48a5c3	0.012246552
215	0x3e70a7e8	0.23501551
216	0xbf8ab165	-1.0835387
217	0x3e944cc2	0.28964812
218	0xbeec5181	-0.46155933
219	0x3f2f8c7b	0.6857373
220	0x3dd20052	0.10253967
221	0xbdd12c01	-0.10213471
222	0xbe9813ed	-0.29702702
223	0x3f634dd9	0.8879066
224	0xbff5f5bb	-1.9215616
225	0x3eabb8de	0.3353948
226	0xbf1890b3	-0.59595793
227	0x3f703b26	0.93840253
228	0x3c9d2c0a	0.019186039
229	0xbe37b6a8	-0.17940772
230	0x3e2a489c	0.16629261
231	0xbf0ede87	-0.558083
232	0xbcc1370a	-0.023585815
233	0xbf2c1d64	-0.67232347
234	0x3f1b092e	0.6056088
235	0xbec99ad6	-0.39375943
236	0xbc8bd48c	-0.017069124
237	0xbffa4f9f	-1.9555548
238	0xbf9bd41f	-1.2174109
239	0x3ecf7fb1	0.40527108
240	0xbf96c841	-1.1779863
241	0xbf4471f5	-0.76736385
242	0xbec0c5fa	-0.37651044
243	0xbdcaecec	-0.099084705
244	0xbe8e72ca	-0.27821952
245	0xbf850329	-1.0391589
246	0xbefb6fe1	-0.49108794
247	0xbf7ab914	-0.97938657
248	0xbe8c8e38	-0.27452254
249	0x3e0a3553	0.13496904
250	0x3d540caa	0.05176989
251	0xbdd0d378	-0.101965845
252	0xbda253df	-0.079261534
253	0xbf2392bf	-0.6389579
254	0x3e56b221	0.20966388
255	0xbecdc8e7	-0.4019234

reward_fun.0.bias f4 [200]
0	0xbf9e8f8b	-1.2387556
1	0xbe07c47e	-0.1325855
2	0xbeeea1bc	-0.4660777
3	0xbe82139f	-0.25405595
4	0xbf98a4e0	-1.1925316
5	0xbf5d2bf9	-0.8639522
6	0xbf833304	-1.0249944
7	0xbf0ca8da	-0.5494515
8	0xbf6d3356	-0.9265646
9	0xbfb24f46	-1.3930442
10	0xbf2052e4	-0.6262648
11	0xbf14a46d	-0.58063394
12	0xbf5cc513	-0.8623821
13	0xbf2905b7	-0.66024345
14	0xbf2bfe10	-0.67184544
15	0xbe7c0b28	-0.24613631
16	0xbf339af3	-0.7015831
17	0xbf254168	-0.64552927
18	0xbf95482c	-1.166265
19	0xbf49b35d	-0.7878931
20	0xbef7f56e	-0.48429435
21	0xbef950ec	-0.4869455
22	0xbf686452	-0.90778077
23	0xbf7dac36	-0.990909
24	0xbf190bf6	-0.59783876
25	0xbe9294cd	-0.2862915
26	0xbebddc72	-0.3708225
27	0xbef26959	-0.47346
28	0xbe561b2c	-0.20908803
29	0xbeda025b	-0.42579922
30	0xbf94e36e	-1.1631906
31	0xbf321517	-0.6956343
32	0xbf846cf7	-1.0345753
33	0xbf7fac4b	-0.99872273
34	0xbf3717e6	-0.7152084
35	0xbf44d96b	-0.76894253
36	0xbdcd78f3	-0.10032835
37	0xbf5873ab	-0.84551495
38	0xbf8e6fa5	-1.1127821
39	0xbf13c969	-0.577292
40	0xbfaa0896	-1.328387
41	0xbf95a933	-1.169226
42	0xbda7c48f	-0.081917875
43	0xbeee9296	-0.4659621
44	0xbec2b486	-0.38028353
45	0xbf50d903	-0.81581134
46	0x3d7be73a	0.06149981
47	0xbf7c6c71	-0.9860297
48	0xbf9e15a9	-1.235036
49	0xbf9fa807	-1.2473153
50	0xbe980869	-0.29693916
51	0xbf06478e	-0.52452934
52	0xbf0da725	-0.5533317
53	0xbf4ada85	-0.79239684
54	0xbf214f64	-0.63011765
55	0xbe94ed63	-0.29087362
56	0xbfaeaf0a	-1.3647168
57	0xbf1feaa4	-0.6246741
58	0xbeb6f19f	-0.35731217
59	0xbf04cd77	-0.51876014
60	0xbf686570	-0.9077978
61	0xbf4bb6dd	-0.795759
62	0xbf3f34f5	-0.7469018
63	0xbf3b2928	-0.73109674
64	0x3d427075	0.04747053
65	0xbe28768e	-0.16451475
66	0xbf9109a5	-1.1331068
67	0xbee1889e	-0.44049543
68	0xbecc8fbb	-0.39953408
69	0xbef28509	-0.47367123
70	0xbf8054a9	-1.0025836
71	0xbf686917	-0.90785354
72	0xbeb6ebe8	-0.35726857
73	0xbf6bed2b	-0.92158765
74	0xbdcdeb24	-0.10054615
75	0xbf27bc8a	-0.6552206
76	0xbe168f96	-0.14703211
77	0xbf4b0af3	-0.7931358
78	0xbf8e6949	-1.112588
79	0xbf722d6c	-0.9460056
80	0xbf11744b	-0.56818074
81	0xbf228682	-0.6348649
82	0xbedd3f0b	-0.4321216
83	0xbf9c3e45	-1.2206503
84	0xbefec3fb	-0.49758896
85	0xbf2ae587	-0.6675648
86	0xbec44159	-0.38331106
87	0xbedce82d	-0.43145886
88	0xc003ee0d	-2.0614045
89	0xbf707249	-0.93924385
90	0xbf631a82	-0.8871232
91	0xbe44d11a	-0.19220391
92	0xbf57d06a	-0.8430239
93	0xbf5327d1	-0.8248263
94	0xbf9a6e3a	-1.2064888
95	0xbf5366bb	-0.8257863
96	0xbce39cbf	-0.027784703
97	0xbefae2b3	-0.49001083
98	0xbe89205b	-0.26782498
99	0xbe893cb9	-0.2680414
100	0xbf861a2b	-1.0476736
101	0xbf17525c	-0.59110045
102	0xbf0b5084	-0.5441973
103	0xbf4088f2	-0.7520896
104	0xc013e927	-2.3111055
105	0xbeeffcbf	-0.46872517
106	0xbf86acd2	-1.052149
107	0xbf94e106	-1.1631172
108	0xbf70627f	-0.93900293
109	0xbfb291cb	-1.3950742
110	0xbf138a35	-0.5763276
111	0xbf573832	-0.8407012
112	0xbfa1d1d9	-1.2642165
113	0xbf19009b	-0.5976655
114	0xbf41e5eb	-0.7574145
115	0xbfa0dc2f	-1.2567195
116	0xbec8e1b8	-0.3923471
117	0xbf323c80	-0.69623566
118	0xbf4e6951	-0.8062945
119	0xbeda47d9	-0.4263294
120	0xbf09f426	-0.53888166
121	0xbf2cab21	-0.6744862
122	0x3c0a2385	0.00843132
123	0xbe4c83c8	-0.19972146
124	0xbfba07c5	-1.4533621
125	0xbf8d860d	-1.1056534
126	0xbf37448a	-0.7158896
127	0xbf8e92ce	-1.1138551
128	0xbf7499aa	-0.9554697
129	0xbf3b14f6	-0.7307886
130	0xc0063206	-2.0968032
131	0xbf1b043b	-0.6055333
132	0xbea127bd	-0.3147563
133	0xbf797e3f	-0.9745826
134	0xbf0f827f	-0.56058496
135	0xbf0564c8	-0.52106905
136	0xbf953e3c	-1.1659617
137	0xbf7da852	-0.9908496
138	0xbf18d764	-0.5970366
139	0xbfbe8063	-1.488293
140	0xbf88b897	-1.0681332
141	0xbf8fed3e	-1.1244276
142	0xbf0c7f78	-0.54882
143	0xbf1a2112	-0.6020671
144	0xbf84eceb	-1.0384802
145	0xbed35419	-0.412751
146	0xbfbb97be	-1.4655683
147	0xbeba9b5f	-0.36446664
148	0xbec9a6ba	-0.39385015
149	0xbf0427d1	-0.51623255
150	0xbf7f2bce	-0.99676216
151	0xbe9b5e64	-0.30345452
152	0xbea1dea3	-0.3161517
153	0xbe43cd85	-0.19121368
154	0xbf16c9fc	-0.58901954
155	0xbf5a9171	-0.85378176
156	0xbf1deba3	-0.6168768
157	0xbf429c86	-0.76020086
158	0xbf53f455	-0.82794696
159	0xbf57cb71	-0.842948
160	0xbf8bb16a	-1.0913517
161	0xbfa367e2	-1.2766078
162	0xbf117baa	-0.5682932
163	0xbe12bf5d	-0.14330812
164	0xbf6e1676	-0.9300302
165	0xbf43f890	-0.7655115
166	0xbee4e3cb	-0.44705042
167	0xbf6a95e5	-0.9163497
168	0x3d3a9440	0.04555154
169	0xbfa4cd03	-1.2875065
170	0xbf32896c	-0.6974094
171	0xbf375d8e	-0.7162713
172	0xbe334170	-0.17505431
173	0xbf83c976	-1.0295856
174	0xbefa3138	-0.48865676
175	0xbea25c91	-0.31711248
176	0xbf37bdea	-0.7177416
177	0xbf4e591c	-0.8060472
178	0xbfef5a1f	-1.8699378
179	0xbf0add12	-0.54243577
180	0xbf71325f	-0.94217485
181	0xbe3375f4	-0.17525464
182	0xbf49dc00	-0.7885132
183	0xbfa30255	-1.2735087
184	0xbeeec22e	-0.46632522
185	0x3ea75a8e	0.32686275
186	0xbdd42686	-0.1035891
187	0xbf827e78	-1.0194845
188	0xbf5bb2bf	-0.8581962
189	0xbece2a14	-0.40266478
190	0x3e7eede6	0.24895439
191	0xbfffd5aa	-1.998708
192	0xbf4da335	-0.8032716
193	0xbfa022c0	-1.2510605
194	0x3e79aab7	0.24381529
195	0xbeb924b6	-0.3616082
196	0xbf9cf6a9	-1.2262775
197	0xbf4ab5fc	-0.79183936
198	0xbf471699	-0.77768856
199	0xbf722301	-0.9458466

reward_fun.2.weight f4 [200, 200]
0	0xbc4c342b	-0.01246361
1	0x3cb8a9c8	0.022541896
2	0xbdc7bcd9	-0.09752817
3	0xbd070fe5	-0.032974143
4	0x3b7baec7	0.0038403736
5	0xbd026df4	-0.03184314
6	0x3c97eb8c	0.018544935
7	0xbda4fe00	-0.08056259
8	0xbd8b98d1	-0.06816257
9	0xbbc45830	-0.005991958
10	0xbd20d4e1	-0.039265517
11	0xbdb54b93	-0.08852305
12	0xbc240eeb	-0.010013322
13	0xbd8225e6	-0.06354885
14	0x3d0b4e4d	0.03401022
15	0x3ca85b53	0.02055136
16	0xbc861432	-0.016367052
17	0xbd4973c1	-0.049182657
18	0x3c70d9a0	0.014700323
19	0x3cce5cc8	0.025190726
20	0xbd0e9415	-0.03480919
21	0xbddb8e52	-0.10720505
22	0xbd299ce9	-0.041409407
23	0xbd250bf7	-0.040294614
24	0xbd9c9de0	-0.076473
25	0xbd561d34	-0.052273944
26	0xbde4dd3d	-0.1117501
27	0xbd08f090	-0.033432543
28	0xbd3739e9	-0.04473296
29	0xbe009fde	-0.12560984
30	0xbd7da11a	-0.061921217
31	0xbc031a5b	-0.008001889
32	0xbda6e8c6	-0.08149867
33	0x3c815624	0.015788145
34	0xbda7fe87	-0.08202844
35	0xbe16d203	-0.1472855
36	0xbd2e54a3	-0.042561185
37	0x3a525380	0.0008023307
38	0x3ba1efd0	0.004941918
39	0xbe1aad80	-0.15105247
40	0xbd285856	-0.04109987
41	0x3ca27140	0.019829392
42	0xbe23c9db	-0.1599497
43	0xbd005137	-0.031327453
44	0xbd84750b	-0.06467637
45	0xbde0a4c1	-0.10968924
46	0x3c8919de	0.016735967
47	0x3d312ad9	0.043253753
48	0xbdc7559b	-0.09733125
49	0xbca3491f	-0.019932328
50	0xbe1ae98c	-0.15128154
51	0x3d449aef	0.04799932
52	0xbe086a31	-0.13321759
53	0x3b6caae0	0.0036112592
54	0xbbc82570	-0.0061079785
55	0xbd7487cf	-0.05969983
56	0x3d735615	0.059408266
57	0xbcdc1da4	-0.026869603
58	0xbdf5a08e	-0.11993514
59	0xbdbb4169	-0.09143335
60	0xbd0a2661	-0.033728007
61	0x3c978d9f	0.018500147
62	0x3c6e58f0	0.014547572
63	0xbd384dc2	-0.04499603
64	0xbdaec8db	-0.08534404
65	0x3d8ed8d5	0.06974951
66	0xbda5ec5a	-0.08101721
67	0xbe23744f	-0.15962337
68	0x3b3314c0	0.00273256
69	0xbd212fd8	-0.039352268
70	0x3d1f630a	0.03891281
71	0xbdbac90c	-0.09120378
72	0xbd54f4ef	-0.0519914
73	0xbd7b38f3	-0.061333608
74	0xbd8d8c53	-0.0691153
75	0xbd5973b6	-0.053088866
76	0xbdc2b208	-0.09506613
77	0x3d09035c	0.03345047
78	0xbdc82e9e	-0.097745165
79	0xbd34cb70	-0.044139326
80	0xbd0910d8	-0.03346333
81	0xbdb6aec9	-0.089200564
82	0xbe1b0c6c	-0.15141457
83	0xbdb18894	-0.08668628
84	0xbe1cb58a	-0.15303627
85	0xbd576e21	-0.05259526
86	0xbd9032ab	-0.07040914
87	0xbe0092d7	-0.12556015
88	0x3c80a81c	0.01570516
89	0xbc81e6b0	-0.01585707
90	0xbd830254	-0.063969284
91	0xbe197829	-0.14987244
92	0xbc460e41	-0.012088359
93	0xbc7eff50	-0.015563801
94	0x3c709fa4	0.014686499
95	0xbe18c9e3	-0.14920764
96	0xbe09d727	-0.1346098
97	0xbd55b675	-0.052175958
98	0xbd4f06a6	-0.05054345
99	0xbdf00c6f	-0.117211215
100	0xbdbe2716	-0.09284799
101	0xbdfc8d74	-0.123316675
102	0xbe1f3da0	-0.15550852
103	0xbd899207	-0.06717306
104	0x3d072434	0.03299351
105	0x3c127408	0.008938797
106	0x3bd46847	0.0064821574
107	0x3d4bfc2b	0.049801033
108	0xbd96f18f	-0.073702924
109	0xbceb7f47	-0.028747214
110	0xbe12098b	-0.14261453
111	0xbd8bda9a	-0.06828804
112	0xbdaf4f7c	-0.08560082
113	0xbd3ceb48	-0.04612282
114	0xbc99d9d0	-0.018780619
115	0x3d37c2a0	0.044863343
116	0xbce51a28	-0.027966574
117	0xbccb253c	-0.024798028
118	0xbcebd417	-0.028787656
119	0xbddafe0e	-0.10692988
120	0xbd03d6f3	-0.032187413
121	0x3d32e877	0.043678727
122	0x3c49550d	0.012288344
123	0xbde40fef	-0.111358516
124	0xbe033342	-0.12812522
125	0xbdb35fb9	-0.08758492
126	0xbe28e514	-0.16493636
127	0xbd803294	-0.06259647
128	0xbcd00cc8	-0.02539672
129	0x3d6576da	0.05602155
130	0xbda54abe	-0.080708966
131	0xbdabd017	-0.08389299
132	0xbd278673	-0.040899705
133	0xbe1743fb	-0.14772026
134	0xbe0ea7fa	-0.13931265
135	0xbd67fd36	-0.056637965
136	0xbc9ea659	-0.01936643
137	0xbd6e3103	-0.05815221
138	0xbe2230f7	-0.15838991
139	0x3d5bf56e	0.053700857
140	0xbd8c2f94	-0.06845012
141	0xbde1d5af	-0.11027085
142	0x3a1a9300	0.00058965385
143	0xbdab883f	-0.08375596
144	0xbe17cafc	-0.14823526
145	0x3cfe7735	0.031062702
146	0x3d2a2843	0.041542303
147	0xbd0d58ca	-0.034508504
148	0xbd672a38	-0.056436747
149	0xbe1e07d2	-0.1543267
150	0x3c347783	0.011014822
151	0xbce8532e	-0.028359976
152	0x3d6dea82	0.058084972
153	0xbddce2eb	-0.10785469
154	0xbdd79104	-0.105257064
155	0xbd8ae8a6	-0.067826554
156	0xbdb25223	-0.087070726
157	0xbda1d4ee	-0.07901941
158	0xbd99c0b9	-0.07507462
159	0xbdd985c4	-0.10621217
160	0xbd5b39f6	-0.053522073
161	0xbb9599f0	-0.00456547
162	0xbda75c3b	-0.081718884
163	0xbdc9e614	-0.09858337
164	0x3c4f88a0	0.012666851
165	0xbdc49948	-0.095995486
166	0xbb3a3bb3	-0.002841693
167	0xbdb090dd	-0.086213805
168	0xbb5773c9	-0.003287541
169	0xbd89532c	-0.06705317
170	0xbc3fe1a2	-0.01171151
171	0xbd3e2919	-0.046425913
172	0xbd5b0764	-0.053473845
173	0xbd8a54f9	-0.067544885
174	0xbe02a638	-0.1275872
175	0xbdc94169	-0.09826929
176	0x3d4e756c	0.05040495
177	0x3d6a4fe2	0.05720509
178	0xbd087011	-0.03331
179	0xbca0a1bb	-0.01960837
180	0x3b4b26a3	0.003099837
181	0xbe1e929c	-0.15485615
182	0xbd61eaef	-0.05515569
183	0x3d440946	0.047860406
184	0xbd35be44	-0.044370905
185	0xbe1de6f0	-0.15420127
186	0xbd91defe	-0.071226105
187	0xbd28e7b9	-0.041236613
188	0x3d4b3a76	0.0496163
189	0xbdc5d8ea	-0.09660514
190	0xbd8a84d2	-0.06763615
191	0x3d187546	0.037221216
192	0x3b4d6a8b	0.0031344022
193	0xbe1ec72b	-0.15505664
194	0xbd2da000	-0.042388916
195	0xbdaf1106	-0.08548169
196	0xbd44c25d	-0.04803692
197	0xbe024840	-0.12722874
198	0xbd8c3817	-0.06846636
199	0xbc9f5ca6	-0.019453358
200	0xc01677e6	-2.351068
201	0xbe763d5d	-0.24046846
202	0x3ec66563	0.38749227
203	0x3f2007d3	0.6251194
204	0x3ede585b	0.43426785
205	0x3de76e08	0.11300284
206	0xbfb41c97	-1.4071225
207	0xbf6606b5	-0.89853984
208	0x3e521128	0.20514357
209	0xc073630e	-3.8029208
210	0x3ebaec83	0.3650857
211	0xbdc14310	-0.09436619
212	0xbee46ba0	-0.4461336
213	0x3e8e7ea8	0.27831006
214	0xbf36734d	-0.71269685
215	0xbd075afd	-0.033045758
216	0x3f84c11a	1.037143
217	0x3e31ba52	0.17356232
218	0xbf0b661a	-0.5445267
219	0xbfb44419	-1.4083282
220	0xbf47df8e	-0.7807549
221	0xbd3e3cb0	-0.046444595
222	0xc05bdb9f	-3.4352796
223	0xc09cf20b	-4.9045463
224	0xbf539d5b	-0.8266198
225	0xbf1be430	-0.6089506
226	0xbe8fc3de	-0.28079122
227	0x3ea6c548	0.3257239
228	0xbf8d1c02	-1.1024172
229	0x3e743521	0.23848392
230	0x3f814b0b	1.0101026
231	0xbea2bbdb	-0.31783947
232	0xbea5194e	-0.32245868
233	0xbe96afeb	-0.2943109
234	0xbf01da0d	-0.50723344
235	0xbfe428a0	-1.7824898
236	0x3e2a8bb9	0.16654862
237	0x3dde27c9	0.10847432
238	0xbd46ceee	-0.048537187
239	0xc01dbbde	-2.4645915
240	0x3f694dec	0.91134524
241	0x3e16fd76	0.14745125
242	0xbf372d85	-0.7155383
243	0xbe10f055	-0.1415418
244	0xbf827347	-1.019143
245	0x3da15dcc	0.078792185
246	0x3deeedea	0.11666472
247	0xbf8e6315	-1.1123987
248	0x3eae5c65	0.34054866
249	0xbebbc23a	-0.3667162
250	0x3d6cafbc	0.05778478
251	0xbe9e0b0b	-0.308678
252	0x3e8a395e	0.26996893
253	0xbf83febe	-1.0312116
254	0x3d932261	0.07184292
255	0xbec17719	-0.37786177

reward_fun.2.bias f4 [200]
0	0xbdd821eb	-0.10553344
1	0xbf084411	-0.5322886
2	0x3ee8082e	0.4531874
3	0xbe407272	-0.18793657
4	0x3f3c24a6	0.7349342
5	0xbd214b5b	-0.039378505
6	0xbd8d33bd	-0.06894634
7	0xbe30ebfd	-0.17277522
8	0x3de0304b	0.10946711
9	0x3e4270db	0.18988363
10	0xbdab1e09	-0.08355338
11	0xbc3d7b9a	-0.011565113
12	0xbe3481a9	-0.17627586
13	0x3bf1c6d8	0.0073784404
14	0xbc98d3b4	-0.018655635
15	0xbd92ced1	-0.07168353
16	0xbda477e3	-0.08030679
17	0x3e881bf9	0.2658384
18	0x3e5c0cb6	0.21489224
19	0xbf062bd3	-0.5241062
20	0xbe31dfd6	-0.17370543
21	0xbddf3857	-0.10899418
22	0x3e885d64	0.2663375
23	0xbd471f36	-0.04861375
24	0x3f540aed	0.8282917
25	0xbe0c0ccc	-0.13676757
26	0xbdaee084	-0.08538917
27	0xbe134ba1	-0.14384319
28	0xbe0e8534	-0.13918
29	0xbe0912db	-0.13386099
30	0xbe72ad9d	-0.2369904
31	0x3e9f4629	0.31108215
32	0xbe4ccd45	-0.20000179
33	0x3d97b794	0.074080616
34	0xbe1f8f67	-0.15582047
35	0xbe6b01a5	-0.22949846
36	0x3e0570f7	0.13031374
37	0xbe059734	-0.1304596
38	0x3d59947b	0.053120118
39	0x3f07d787	0.53063244
40	0x3dccdd3b	0.10003134
41	0x3f0140ed	0.50489694
42	0x3eb89d62	0.36057574
43	0xbdb76104	-0.08954051
44	0x3f09c8df	0.5382213
45	0xbe76195e	-0.24033114
46	0x3e89da96	0.2692458
47	0x3e42bd0f	0.19017433
48	0x3ea86609	0.32890347
49	0xbe47af69	-0.19500507
50	0xbeabcd90	-0.3355527
51	0x3f0cd707	0.55015606
52	0x3ed4d2c7	0.4156706
53	0x3ebe19f4	0.37129176
54	0xbdadd820	-0.08488488
55	0xbe889dfc	-0.26683033
56	0xbd239f7b	-0.039947014
57	0xbe9e8e05	-0.30967727
58	0x3e72f85c	0.23727554
59	0x3ed9aaf3	0.42513236
60	0xbde0945b	-0.109657966
61	0xbea553b4	-0.32290423
62	0xbe501f91	-0.20324542
63	0xbd837a47	-0.06419807
64	0xbe3d99b1	-0.1851566
65	0x3d8fcb18	0.07021159
66	0x3e96b7c1	0.29437068
67	0x3dc60851	0.09669555
68	0x3f128360	0.5723171
69	0xbd585449	-0.052814756
70	0xbc84787a	-0.016170729
71	0xbdac4389	-0.08411319
72	0x3e04c3eb	0.12965362
73	0xbde2cec6	-0.11074595
74	0xbdfd382c	-0.123642296
75	0xbd0485df	-0.032354232
76	0x3d257d85	0.040402908
77	0xbdc28773	-0.09498491
78	0xbd4ab05d	-0.0494846
79	0x3f271366	0.65263975
80	0x3e467b6d	0.1938302
81	0xbdfafb7e	-0.122549996
82	0xbe62b2e0	-0.22138548
83	0xbe089cfd	-0.13341136
84	0xbe4f78f6	-0.20260987
85	0xbdc94bb0	-0.09828889
86	0xbedbd9c1	-0.4293957
87	0x3ea16349	0.3152106
88	0xbedc21f6	-0.4299466
89	0xbf0acbe9	-0.5421739
90	0xbdbb4d8f	-0.091456525
91	0x3e7e16aa	0.24813333
92	0x3d99589c	0.07487604
93	0x3e941468	0.2892182
94	0xbf45eb61	-0.77312285
95	0x3e41961b	0.18904917
96	0xbd8d1801	-0.06889344
97	0xbdda56cc	-0.106610864
98	0xbeec7e3a	-0.46190053
99	0xbe99408a	-0.29932052
100	0xbe15b58b	-0.14620034
101	0xbda77581	-0.08176709
102	0xbe399367	-0.18122636
103	0x3e7e1e43	0.24816231
104	0xbdb962d9	-0.09052057
105	0x3cdca704	0.026935108
106	0xbdfd098f	-0.12355339
107	0xbd903aaa	-0.07042439
108	0x3ce7ec16	0.028310817
109	0xbe8d40ed	-0.27588597
110	0x3ea3e6be	0.3201198
111	0xbe59706e	-0.21234295
112	0xbe16d12a	-0.14728227
113	0xbd9d92de	-0.07694028
114	0x3e6fa2c8	0.2340194
115	0x3db33e37	0.08752101
116	0xbde59ec0	-0.1121192
117	0x3e082e3f	0.13298891
118	0x3e39fd20	0.18162966
119	0xbe8ae60d	-0.2712864
120	0xbdb8e42e	-0.09027897
121	0xbe74359a	-0.23848572
122	0xbdf66b85	-0.120322265
123	0xbecc9f09	-0.39965084
124	0xbdf939af	-0.121692054
125	0xbe46ee2f	-0.19426797
126	0x3c0c948e	0.00858034
127	0xbd916371	-0.07099045
128	0xbe27d6c5	-0.16390522
129	0xbc4a07eb	-0.012330989
130	0x3ed7ae6d	0.42125264
131	0xbde08079	-0.10962004
132	0xbd8f1fb1	-0.069884665
133	0xbd7720ae	-0.0603339
134	0x3bca3807	0.0061712298
135	0xbeb6e2d3	-0.35719928
136	0xbe6bc93d	-0.23025985
137	0x3e52edf0	0.20598578
138	0xbe0f493e	-0.13992783
139	0xbd712f9e	-0.058883302
140	0x3e4e5b75	0.20152076
141	0xbdb66c96	-0.0890743
142	0xbe150ea6	-0.14556369
143	0x3ec7d491	0.39029363
144	0x3e8d58f6	0.27606934
145	0xbe8cd8b8	-0.27509093
146	0xbdeca3a0	-0.115546465
147	0xbead09b2	-0.3379646
148	0xbd6983b1	-0.057010356
149	0x3dc7c09a	0.09753533
150	0xbe2e5ef8	-0.17028415
151	0xbe8d7d09	-0.27634457
152	0xbdfbaeb1	-0.12289179
153	0xbe358221	-0.17725421
154	0xbd883e1f	-0.06652474
155	0x3da95ea7	0.082700066
156	0x3e91500b	0.2838138
157	0x3c463ced	0.012099487
158	0x3d8e7760	0.06956363
159	0x3f38ab76	0.7213663
160	0xbd8ed98e	-0.06975089
161	0x3cea4cb9	0.028601037
162	0x3eeaf0c6	0.4588682
163	0x3df3bd83	0.11901381
164	0xbd83ddef	-0.06438815
165	0xbee2fff8	-0.44335914
166	0x3f29bafc	0.6630094
167	0xbe4796c9	-0.19491114
168	0xbc11bbc5	-0.008894865
169	0xbdc9a0ad	-0.098450996
170	0xbd9db4b0	-0.07700479
171	0xbce6bff9	-0.028167712
172	0x3dc43b7a	0.09581657
173	0x3dbfad3b	0.09359213
174	0xbe9d6f06	-0.30748767
175	0xbe239c99	-0.15977706
176	0xbc98571a	-0.01859622
177	0xbdbb6616	-0.09150331
178	0xbdb61e88	-0.08892542
179	0x3f18b685	0.596535
180	0xbe1cafd4	-0.15301448
181	0x3da98ed4	0.082791954
182	0xbf02965d	-0.51010686
183	0xbe89fd7e	-0.26951212
184	0xbf35d508	-0.71028185
185	0xbc9b6e3a	-0.018973459
186	0xbec7d7d3	-0.39031848
187	0xbe02d092	-0.12774876
188	0xbe954ecc	-0.2916168
189	0xbd4228fa	-0.04740236
190	0xbd894087	-0.06701761
191	0x3f102068	0.5629945
192	0xbe075cf7	-0.13219057
193	0xbc59b63f	-0.01328808
194	0x3e22e466	0.1590744
195	0xbdd1690c	-0.10225114
196	0xbe14407e	-0.14477727
197	0xbda419af	-0.08012711
198	0xbe89bc2e	-0.26901382
199	0xbde9582f	-0.11393773

reward_fun.4.weight f4 [1, 200]
0	0xbc1004f9	-0.008790248
1	0xbeaef62b	-0.34172186
2	0xbedf5041	-0.43615916
3	0x3eb46aac	0.35237634
4	0xbea5252e	-0.32254928
5	0xbefe52a0	-0.49672413
6	0x3cbeca14	0.023289718
7	0xbd8932d7	-0.0669915
8	0x3ea1cfd9	0.31603888
9	0xbea8986d	-0.32928792
10	0x3b9d4f86	0.0048007397
11	0xbded8fa8	-0.11599666
12	0xbd8ad06c	-0.067780346
13	0xbf663d7d	-0.89937574
14	0x3b8f64be	0.004376023
15	0xbe8f06bf	-0.27934834
16	0x3d07f073	0.033188295
17	0xbe2f5b90	-0.17124772
18	0xbed23b4a	-0.4106086
19	0x3dcf7730	0.10130155
20	0x3f2f3365	0.68437797
21	0xbf9b1ebc	-1.2118754
22	0xbefed041	-0.4976826
23	0x3eef0f3b	0.46691307
24	0xbe06c34e	-0.1316044
25	0x3f2a00c1	0.664074
26	0xbc2f17b5	-0.010686805
27	0xbd29aebc	-0.041426405
28	0xbf3aa2b8	-0.7290454
29	0xbf14c2ac	-0.58109546
30	0x3e5caca0	0.21550226
31	0xbf7ba5ec	-0.9830005
32	0xbdadb979	-0.08482642
33	0x3e61c9db	0.22049658
34	0xbe464e49	-0.19365801
35	0x3dcbc18b	0.09949025
36	0xbf305452	-0.6887866
37	0xbd2f24b5	-0.042759616
38	0x3e9bcb4a	0.30428535
39	0x3edf8cbc	0.4366206
40	0x3f219fe9	0.6313463
41	0xbecd7565	-0.40128627
42	0xbee9607b	-0.4558142
43	0x3d190aeb	0.037363928
44	0xbe54bf97	-0.2077621
45	0x3cfad078	0.030616984
46	0xbeb11fe6	-0.3459465
47	0xbed71a75	-0.42012373
48	0xbf4655f4	-0.77474904
49	0x3d679929	0.05654255
50	0xbf3967c7	-0.72423977
51	0xbf640970	-0.890769
52	0xbddc0207	-0.10742574
53	0xbef1fc3f	-0.4726276
54	0x3ee2428f	0.44191405
55	0xbf407f1e	-0.75193965
56	0xbdb590f1	-0.08865536
57	0x3d5ae97e	0.05344533
58	0xbe5aa207	-0.21350871
59	0xbf24b0bc	-0.64332175
60	0x3eda09a4	0.4258548
61	0xbf6b8cee	-0.92011917
62	0xbdb65d6e	-0.08904539
63	0x3f08415d	0.53224736
64	0x3c89cd9e	0.016821679
65	0xbe88f870	-0.26752043
66	0x3e6b02f5	0.22950347
67	0x3ed066da	0.4070347
68	0x3f143544	0.57893777
69	0x3ec3d278	0.38246512
70	0xbde706bc	-0.11280581
71	0xbeaef9ca	-0.3417495
72	0xbe50e8e1	-0.20401336
73	0xbd135971	-0.03597397
74	0x3e93e064	0.28882134
75	0x3d4c2f03	0.04984952
76	0x3b76bdd5	0.003764977
77	0x3e10780d	0.14108296
78	0x3c48131f	0.01221159
79	0xbe9c203a	-0.30493337
80	0x3f510c7e	0.81659687
81	0x3d476cfe	0.048687927
82	0x3e970e9b	0.2950333
83	0x3d344a40	0.044016123
84	0x3d681488	0.056660205
85	0x3cd84228	0.026398733
86	0x3e4cda80	0.20005226
87	0xbf2fbe2e	-0.68649566
88	0x3f38e4ea	0.72224295
89	0x3de1994e	0.11015569
90	0xbcc326e0	-0.023822248
91	0xbf638afa	-0.88883936
92	0x3e9b0e11	0.3028417
93	0x3ebdd210	0.37074327
94	0x3e7d0978	0.24710643
95	0xbf833171	-1.0249463
96	0x3f3e0120	0.74220467
97	0x3cf7146e	0.030161109
98	0x3ea7d1bb	0.327772
99	0xbca8e10f	-0.020615129
100	0x3f0a7f17	0.54100174
101	0x3b8d95a3	0.0043208166
102	0x3b86b3c9	0.0041107875
103	0xbe035e4c	-0.1282894
104	0xbb50602b	-0.0031795602
105	0x3f1fc820	0.6241474
106	0x3cd906c7	0.02649249
107	0x3cc084ca	0.023500819
108	0xbcf43f86	-0.029815447
109	0x3c811f85	0.0157621
110	0xbe6b706b	-0.22992103
111	0xbf47a7d5	-0.77990466
112	0x3d274081	0.040833
113	0x3f26d530	0.6516905
114	0xbf284978	-0.65737104
115	0x3e9e6126	0.30933493
116	0xbc10958a	-0.008824715
117	0x3e152486	0.14564714
118	0xbf3306f8	-0.6993251
119	0x3f15cfc9	0.5852018
120	0xbef1007e	-0.47070688
121	0x3eb0234f	0.34401938
122	0x3d883423	0.06650569
123	0x3f191968	0.5980439
124	0x3f43fb38	0.76555204
125	0x3dbc73de	0.092017874
126	0x3e64bf45	0.22338589
127	0x3b42af32	0.0029706475
128	0xbcf0bad2	-0.029385958
129	0xbefc01e6	-0.49220198
130	0xbf192cc4	-0.5983393
131	0x3eaf0682	0.34184653
132	0x3d8463fb	0.06464382
133	0xbe9f6a4f	-0.31135795
134	0xbe353ab7	-0.17698179
135	0xbd07471c	-0.0330268
136	0x3db0d4f9	0.08634371
137	0xbfeddf7d	-1.8583828
138	0xbfa72aba	-1.3059914
139	0xbbcdfbbb	-0.006286112
140	0x3e7322e4	0.23743778
141	0xbcc12c87	-0.023580803
142	0x3bdfc1f1	0.0068285395
143	0xbf05daf2	-0.5228721
144	0x3f3acead	0.7297161
145	0xbd969cc1	-0.07354117
146	0xbe4d89be	-0.20072076
147	0xbeee1c83	-0.46506128
148	0x3afb033d	0.0019150745
149	0x3f0feec7	0.5622372
150	0xbdd08014	-0.10180679
151	0x3f6e6934	0.9312928
152	0x3e8485ff	0.2588348
153	0xbcdb6a0a	-0.026783962
154	0x3ce01ddd	0.02735799
155	0xbf179032	-0.592044
156	0x3e534ce6	0.20634803
157	0x3c6c31a6	0.014416134
158	0x3e040670	0.1289308
159	0xbeccd5b0	-0.4000678
160	0xbdd652a8	-0.10464984
161	0xbb2b8b17	-0.0026175433
162	0xbf0f7485	-0.5603717
163	0x3f674ef6	0.9035486
164	0x3d837d81	0.06420422
165	0x3ee034d6	0.4379031
166	0x3f251b9b	0.6449525
167	0x3d54a62e	0.051916294
168	0x3eb0c251	0.34523252
169	0x3d75d0e6	0.060013674
170	0xbf9c604a	-1.2216885
171	0x3ea951a1	0.3307009
172	0x3ec6e62f	0.3884749
173	0x3ea7eeb0	0.32799292
174	0xbe9a3e19	-0.30125502
175	0x3ea87dac	0.3290838
176	0xbe04a15e	-0.12952182
177	0x3cd365ea	0.025805432
178	0x3e954f32	0.29161984
179	0xbe3607b7	-0.1777638
180	0xbe2a86f1	-0.16653039
181	0xbe8199d2	-0.25312668
182	0x3e88b1a6	0.26698035
183	0x3d655ede	0.055998676
184	0x3e5573a9	0.20844902
185	0xbeaf9bf5	-0.34298673
186	0xbea2d612	-0.31803948
187	0x3df74682	0.12073995
188	0x3e947440	0.28994942
189	0xbc14c053	-0.009079057
190	0xbe1b5b1d	-0.15171476
191	0x3efc79e5	0.49311748
192	0xbf038334	-0.51372075
193	0xbe1b7e06	-0.15184793
194	0xbf1063f2	-0.56402504
195	0xbcc90ba2	-0.02454168
196	0x3efbe9ff	0.49201962
197	0x3cdf797e	0.027279612
198	0x3e56b8c6	0.20968923
199	0xbecb7bcc	-0.39742887
